linearPredictionModels/db39/small/cleanedCombine.csv_wholeNetPrototype5_Epochs_25_ValidationLoss0.671118_lr0.0003_2023_08_15_09:58:31.pth (torch, 992679 bytes, 8 tensors)

weight f4 [512, 145]
0.0324086 -0.013659395 -0.031142158 0.012501722 -0.01598287 0.058288433 0.034427322 -0.04297634
-0.049103934 -0.052552268 -0.008293005 0.048352975 -0.0069933636 0.042714886 0.05804107 0.07571159
0.05844017 -0.081140265 -0.035160962 -0.058550034 0.036677945 0.006035347 0.04384299 -0.059599534
0.005936282 0.050257564 0.02466572 -0.016174596 0.08252174 -0.03851811 -0.0066074063 0.053571533
-0.025740528 0.052642234 0.06634071 0.022916408 -0.0008801308 -0.08281502 -0.0045650955 0.032551747
-0.025819143 -0.028657312 -0.06779193 -0.027332827 0.081799716 0.02024071 -0.08675061 0.07789892
0.015715757 -0.058240745 0.07182976 0.025204167 -0.010603251 -0.016466102 0.0017931745 -0.008322006
-0.038472675 0.029662618 -0.008337886 0.069364615 -0.0003884252 -0.10345386 -0.076641336 0.029946601
-0.04595658 -0.049720064 0.029079974 -0.09828333 0.017837388 0.090755805 -0.04872947 -0.027421119
0.06411199 -0.021797534 -0.0058340887 -0.036699172 -0.025567602 0.015353472 -0.054235093 0.051054407
0.079564095 0.044934165 -0.01095492 -0.05478697 -0.03443826 -0.009619495 -0.08057357 0.028720919
0.07074091 -0.08824252 -0.056163307 0.045257058 -0.043469835 0.008589549 -0.029312462 0.006979703
0.05701561 -0.0621961 0.07662496 0.07312693 -0.04815668 -0.0136997625 0.07145364 0.07190611
0.07239265 0.03793855 0.051388677 0.016846845 -0.036733154 0.029062586 -0.012827239 -0.0021598665
0.017185595 -0.019665463 -0.018196505 -0.03333089 -0.052691933 -0.062271222 0.0028637724 0.081775576
-0.0001390228 0.06794771 0.06298083 -0.048632346 -0.056164723 -0.014216222 0.0011405452 -0.059966423
-0.076162584 -0.07988496 -0.020306228 -0.030743223 -0.049817402 -0.053155474 0.062054884 -0.020563593
-0.056987315 0.07132602 0.053478256 -0.048892017 0.00994159 0.05546871 0.030588588 -0.030432587
0.079692766 -0.0033522374 0.033306304 -0.006947855 0.014245513 0.021457618 0.029128535 0.038630214
0.0361199 0.06976198 0.04110393 0.06908493 -0.025887493 -0.008438293 0.07535536 0.04695071
-0.018274302 -0.07637262 0.034179233 -0.07417941 -0.08550392 0.008468948 0.053375967 -0.050001424
0.0099365115 -0.025163334 0.021378545 -0.037586052 0.018341398 0.012396361 0.0045877667 0.06718449
-0.009324923 -0.028016852 0.050069816 -0.008371353 0.015392305 -0.07616591 -0.07745414 0.032248065
-0.07569203 0.021451449 -0.0506316 0.03505699 -0.005042776 -0.025804177 -0.012135667 0.02253994
-0.065162644 0.007942916 -0.04625701 -0.044495802 -0.0073476844 0.06860837 0.052404325 0.036346305
-0.04411608 0.068211325 0.024292005 -0.008067609 0.017614944 -0.05104475 0.037392814 -0.043837804
0.048758414 -0.18215847 -0.065487124 -0.05286118 0.045638334 -0.07220508 0.043299302 -0.028343225
-0.014716224 -0.08124385 -0.08826255 0.04786337 0.011133758 0.026556496 -0.07953686 -0.025806116
-0.0536162 -0.028764417 -0.041003 0.05819569 -0.04926578 0.054665662 -0.072278276 -0.080077656
0.016713155 0.00423499 0.023746707 -0.024284724 -0.03463338 0.0492137 -0.07615628 -0.019921537
0.009975617 0.036091298 -0.04216395 -0.050715957 0.004453956 0.055815488 0.022917818 -0.0354803
0.0021844963 -0.018382309 0.058603346 0.010866335 -0.021978583 -0.034197424 0.06875194 0.0068384795
00000000: e1be 043d a8cb 5fbc d71d ffbc 06d4 4c3c
00000010: 82ee 82bc dabf 6e3d aa03 0d3d f507 30bd
00000020: 3521 49bd 0c41 57bd 62df 07bc c50d 463d
00000030: 9628 e5bb cef5 2e3d 79bc 6d3d ae0e 9b3d
00000040: f65e 6f3d de2c a6bd f104 10bd 29d2 6fbd
00000050: 9d3b 163d 29c4 c53b b594 333d a41e 74bd
00000060: 2585 c23b e0da 4d3d c40f ca3c 9680 84bc
00000070: 2801 a93d 2ac5 1dbd f182 d8bb d36d 5b3d
00000080: cddd d2bc 629f 573d a3dd 873d 31bb bb3c
00000090: 94b8 66ba ec9a a9bd cc96 95bb fb54 053d
000000a0: ab82 d3bc bdc2 eabc 7fd6 8abd 18e9 dfbc
000000b0: 9c86 a73d d8cf a53c 4eaa b1bd 7889 9f3d
000000c0: 55be 803c d98d 6ebd 7b1b 933d f878 ce3c
000000d0: 42b9 2dbc ebe3 86bc f408 eb3a 0659 08bc
000000e0: 8695 1dbd 05ff f23c a19b 08bc 090f 8e3d
000000f0: 8ca5 cbb9 9edf d3bd 22f6 9cbd 9352 f53c
00000100: f83c 3cbd 44a7 4bbd 2039 ee3c c548 c9bd
00000110: b71f 923c 2ede b93d 8e98 47bd 41a2 e0bc
00000120: 264d 833d be90 b2bc e22b bfbb df51 16bd
00000130: 2673 d1bc 218d 7b3c 9e25 5ebd 6d1e 513d
00000140: 80f2 a23d e30c 383d 447c 33bc 4d68 60bd
00000150: 220f 0dbd 169b 1dbc c203 a5bd 2248 eb3c
00000160: 9ce0 903d 7fb8 b4bd 7f0b 66bd 775f 393d
00000170: 6d0d 32bd 2ebb 0c3c b020 f0bc feb5 e43b
00000180: 3389 693d 56c1 7ebd 8ced 9c3d 92c3 953d
00000190: f03f 45bd f874 60bc 4956 923d 8343 933d
000001a0: 9942 943d 7465 1b3d ef7c 523d 6502 8a3c
000001b0: 8175 16bd a914 ee3c 5729 52bc 8c8c 0dbb
000001c0: cec8 8c3c 7719 a1bc d610 95bc f985 08bd
000001d0: 7fd3 57bd 1c10 7fbd 21ae 3b3b f479 a73d
000001e0: a6c6 11b9 2b28 8b3d 18fc 803d b632 47bd
000001f0: fb0c 66bd 28eb 68bc 597e 953a 5a9f 75bd
00000200: 21fb 9bbd ba9a a3bd 3f59 a6bc 36d9 fbbc
00000210: 550d 4cbd 8eb9 59bd 432d 7e3d fb74 a8bc
00000220: 886b 69bd 6013 923d 040c 5b3d ff42 48bd
00000230: 0de2 223c 2833 633d eb94 fa3c c34d f9bc
00000240: f635 a33d 36b1 5bbb 316c 083d d5aa e3bb
00000250: 0366 693c e3c7 af3c f79e ee3c b73a 1e3d
00000260: 76f2 133d 5edf 8e3d 985c 283d 667c 8d3d
00000270: 0212 d4bc c440 0abc e953 9a3d 634f 403d
00000280: fdb3 95bc 4069 9cbd 86ff 0b3d 60eb 97bd
00000290: ae1c afbd 58c1 0a3c c2a0 5a3d 4bce 4cbd
000002a0: c0cc 223c 5623 cebc 0f22 af3c d5f3 19bd
000002b0: b340 963c 1b1a 4b3c fa54 963b 0698 893d
000002c0: 90c7 18bc 9983 e5bc 0216 4d3d 0028 09bc
000002d0: 0230 7c3c dffc 9bbd 47a0 9ebd 8c16 043d
000002e0: 6c04 9bbd f3ba af3c 1563 4fbd eb97 0f3d
000002f0: df3d a5bb 4863 d3bc add4 46bc aea5 b83c
00000300: fe73 85bd 0123 023c fe77 3dbd 3b41 36bd
00000310: d8c4 f0bb 8c82 8c3d eba5 563d dddf 143d
00000320: 10b3 34bd 61b2 8b3d 0700 c73c 012e 04bc
00000330: 374d 903c 4d14 51bd 3529 193d 458f 33bd
00000340: e7b6 473d c087 3abe 1d1e 86bd f784 58bd
00000350: 43ef 3a3d 42e0 93bd 9c5a 313d 0d30 e8bc
00000360: 511c 71bc 2d63 a6bd ffc2 b4bd 620c 443d
00000370: 5e6a 363c 028d d93c 39e4 a2bd 5967 d3bc
00000380: a99c 5bbd 5ba3 ebbc c3f2 27bd 9b5e 6e3d
00000390: eaca 49bd 1ae9 5f3d a206 94bd c1ff a3bd
000003a0: 07ea 883c acc5 8a3b 7488 c23c c2f0 c6bc
000003b0: bbdb 0dbd 4e94 493d d3f7 9bbd 7e32 a3bc
000003c0: c570 233c 78d4 133d 1bb4 2cbd 89bb 4fbd
000003d0: 7ef2 913b c89e 643d 26be bb3c cb53 11bd
000003e0: c429 0f3b 7f96 96bc 100a 703d b608 323c
000003f0: 6e0c b4bc 9912 0cbd d1cd 8c3d 5315 e03b

bias f4 [512]
-0.077116415 0.021354709 0.021266501 -0.056369014 0.058866195 -0.067305334 -0.0248003 -0.07462086
0.06877346 -0.07625432 -0.037385907 0.02105117 0.027346203 0.078199446 0.0042938786 -0.031119557
-0.07580956 0.07820064 0.03772979 0.083188586 0.028574798 0.0525674 0.058988452 0.07102485
-0.04390257 -0.08096825 -0.012753112 0.048174594 0.027526665 -0.0027459061 -0.06427854 -0.07332269
-0.052698225 -0.046979792 -0.056136545 0.020844793 -0.03005165 0.005522048 0.068841845 0.0412746
0.022423042 0.061832156 -0.016961403 0.034275167 -0.06795169 0.015959516 0.108500816 -0.07206354
-0.043136932 0.104120284 0.034434993 0.07243252 -0.04961115 -0.06450195 0.018309074 -0.066533975
0.061487377 -0.0039185626 -0.023075571 -0.057318497 -0.009504298 0.015479696 -0.047221337 -0.046436053
-0.022751555 -0.053523485 0.075430766 0.058336046 0.07113918 0.04210301 0.027980013 -0.080216765
-0.041269436 -0.002839807 0.034446955 0.0121570295 0.0058916137 -0.04449895 -0.05610485 -0.035598528
0.060873546 0.0053229686 -0.07410894 0.02057145 -0.020842437 -0.056134276 0.064950414 0.050263446
0.01766 0.073488116 0.0032072696 0.0019154313 -0.06457742 0.015562165 -0.04491414 0.061524037
-0.051546544 0.07040618 0.0021725746 -0.046505008 0.022074724 0.06765725 -0.050553877 0.032540422
-0.07172723 0.0216487 -0.060770202 -0.06889144 0.007539658 0.032605827 0.03916949 -0.075543955
-0.017960412 0.05087823 0.05438006 0.00088326156 0.008457059 0.08060378 0.024391493 0.03411612
-0.016240388 -0.09716114 0.07445865 -0.05235059 -0.0805718 -0.062466413 -0.031947415 -0.00224509
-0.022181945 0.0019879472 -0.0045748763 -0.033254236 0.048912022 -0.062419407 -0.07738286 0.055917628
0.006081117 0.013509835 0.06824721 -0.0079487795 0.017334478 0.08425992 0.027226219 -0.017710192
-0.03234408 0.07005804 -0.06478818 0.0021806266 0.074817844 -0.06443694 0.05125666 -0.01755356
-0.048528865 -0.062027603 0.07338658 -0.040204342 -0.016863275 0.03365589 0.025048783 0.0535362
0.044191025 0.031605937 0.0047384556 0.05880989 -0.06553427 0.0011741696 0.016734656 0.009944605
0.02292037 0.07508255 0.016056506 0.06343343 -0.038634837 -0.011935489 -0.029845433 -0.0062255445
0.009322139 -0.081038274 0.004728996 0.05455158 0.05147707 0.06688831 0.07487281 -0.053080138
0.036210276 0.06293005 -0.028888766 -0.043148264 -0.04282656 0.03659599 0.07477479 0.046298
0.027978316 0.06570891 -0.0067100516 0.01648218 -0.022658098 0.05098189 -0.060934693 0.055019256
0.06302823 0.06509781 0.08765795 0.008416534 0.06785649 -0.02052658 -0.0763917 -0.045838486
-0.0023198414 0.078451075 0.07625332 -0.07376222 -0.03218497 -0.06878777 -0.008423146 0.008430451
0.07420827 0.059299145 -0.03409828 0.054436296 -0.083549164 0.022296414 -0.028714286 -0.080670856
0.033058427 -0.05039797 -0.01872763 0.050026823 0.0071165687 0.035512254 -0.042499438 -0.00952516
0.032352086 -0.044487502 -0.009885099 0.040872324 0.055900563 -0.03864774 -0.05654819 -0.010142713
0.06636986 0.039690103 0.013667973 0.03800938 -0.02320359 -0.047218915 -0.05884283 -0.028398344
0.0726678 0.017341737 0.08284644 0.03910509 0.02784249 -0.006755551 -0.07796916 -0.079247855
00000000: 36ef 9dbd 12f0 ae3c 1637 ae3c 32e3 66bd
00000010: ae1d 713d 61d7 89bd 002a cbbc d2d2 98bd
00000020: 1ad9 8c3d 3a2b 9cbd f721 19bd 8173 ac3c
00000030: 2505 e03c 0827 a03d aab3 8c3b 71ee febc
00000040: 0b42 9bbd a827 a03d 8d8a 1a3d c75e aa3d
00000050: b215 ea3c ea50 573d e09d 713d 7a75 913d
00000060: 2ed3 33bd afd2 a5bd 6ef2 50bc b952 453d
00000070: 9a7f e13c a9f4 33bb 78a4 83bd 352a 96bd
00000080: 18da 57bd e26d 40bd 6fef 65bd b3c2 aa3c
00000090: e12e f6bc 4cf2 b43b f4fc 8c3d 8e0f 293d
000000a0: 87b0 b73c b743 7d3d a4f2 8abc 1e64 0c3d
000000b0: 412a 8bbd 88bd 823c ad35 de3d 0d96 93bd
000000c0: 5ab0 30bd 043d d53d b50b 0d3d 8057 943d
000000d0: 1035 4bbd 9919 84bd e9fc 953c f742 88bd
000000e0: 30da 7b3d 4967 80bb fb08 bdbc cdc6 6abd
000000f0: eab7 1bbc 8d9e 7d3c 296b 41bd bb33 3ebd
00000100: 7861 babc 713b 5bbd 727b 9a3d c7f1 6e3d
00000110: 6bb1 913d 3574 2c3d 5736 e53c b048 a4bd
00000120: 240a 29bd 0e1c 3abb 4018 0d3d 472e 473c
00000130: 700e c13b 8844 36bd 33ce 65bd c3cf 11bd
00000140: 8a56 793d 4c6c ae3b 6ec6 97bd 7585 a83c
00000150: c2bd aabc 0eed 65bd b904 853d 0be1 4d3d
00000160: b4ab 903c f080 963d 0e31 523b 360f fb3a
00000170: 2b41 84bd 73f8 7e3c e4f7 37bd a100 7c3d
00000180: 7822 53bd 1e31 903d c161 0e3b 097c 3ebd
00000190: 0dd6 b43c e28f 8a3d 9511 4fbd 1b49 053d
000001a0: bae5 92bd 9d58 b13c 2dea 78bd f516 8dbd
000001b0: 3c0f f73b b08d 053d 3070 203d cab6 9abd
000001c0: b721 93bc b165 503d a0bd 5e3d ae8a 673a
000001d0: 7a8f 0a3c 9813 a53d abd0 c73c 58bd 0b3d
000001e0: 900a 85bc 6bfc c6bd c77d 983d 926d 56bd
000001f0: d402 a5bd c8dc 7fbd 4bdb 02bd 5c22 13bb
00000200: e9b6 b5bc 3848 023b d8e8 95bb 9835 08bd
00000210: f957 483d 7eab 7fbd e87a 9ebd e209 653d
00000220: 1b44 c73b 5b58 5d3c 31c5 8b3d 993b 02bc
00000230: 0901 8e3c 7790 ac3d 8509 df3c f714 91bc
00000240: 3a7b 04bd 977a 8f3d aaaf 84bd d8e8 0e3b
00000250: 193a 993d 84f7 83bd 81f2 513d 7ccc 8fbc
00000260: 34c6 46bd a810 7ebd b44b 963d 4fad 24bd
00000270: da24 8abc c2da 093d 1b33 cd3c c648 5b3d
00000280: a601 353d 3a75 013d 0c45 9b3b a4e2 703d
00000290: d536 86bd 98e6 993a 1e17 893c b2ee 223c
000002a0: 80c3 bb3c e1c4 993d ef88 833c 63e9 813d
000002b0: 903f 1ebd 128d 43bc 697e f4bc a7ff cbbb
000002c0: e3bb 183c 65f7 a5bd b2f5 9a3b 7a71 5f3d
000002d0: 9fd9 523d bdfc 883d ea56 993d 8f6a 59bd
000002e0: 3a51 143d 78e1 803d 22a8 ecbc 3cbc 30bd
000002f0: e76a 2fbd ade5 153d 8623 993d f9a2 3d3d
00000300: c832 e53c 6592 863d fedf dbbb a305 873c
00000310: 7a9d b9bc 63d2 503d a896 79bd df5b 613d
00000320: f214 813d 0052 853d 0386 b33d 81e5 093c
00000330: 58f8 8a3d 5c27 a8bc 4073 9cbd 23c1 3bbd
00000340: 7b08 18bb f5aa a03d b32a 9c3d a610 97bd
00000350: 63d4 03bd 9ae0 8cbd 3c01 0abc e01f 0a3c
00000360: 81fa 973d a9e3 723d a3aa 0bbd 98f8 5e3d
00000370: d31b abbd f8a6 b63c 393a ebbc c336 a5bd
00000380: 4668 073d 1a6e 4ebd b06a 99bc ede8 4c3d
00000390: 1b32 e93b 4c75 113d e413 2ebd 6b0f 1cbc
000003a0: 9f83 043d 8738 36bd 1cf5 21bc bd69 273d
000003b0: fdf7 643d 184d 1ebd 139f 67bd 9f2d 26bc
000003c0: ecec 873d 1792 223d a2ef 5f3c b9af 1b3d
000003d0: 7515 bebc 9f68 41bd 2e05 71bd a5a3 e8bc
000003e0: dbd2 943d 4210 8e3c 65ab a93d a92c 203d
000003f0: ef15 e43c ab5d ddbb 4cae 9fbd b34c a2bd

weight f4 [256, 512]
0.013599036 0.042881243 -0.031421766 0.0012898203 0.06339174 -0.016422316 -0.030983679 0.010379637
-0.015119741 0.022355817 -0.028096743 -0.005957007 0.02147268 0.029686065 0.012442484 0.045190662
0.011113945 0.016876297 -0.0022038138 -0.041059017 0.004553964 -0.0076911054 -0.025036165 0.014520177
-0.011784336 0.007204074 0.037400547 0.025820056 -0.025672222 0.021714386 0.007020377 -0.02967783
0.0024544883 0.006150329 -0.018692998 -0.001599569 0.005520304 0.029461356 0.0024990442 -0.019378105
0.013398335 -0.008544102 -0.0067322357 -0.02275459 0.04844237 0.044673003 -0.030343516 0.030533763
0.03138576 0.030480715 -0.027362248 -0.012641854 -0.0102550285 -0.037507094 -0.025743999 0.012108911
0.045766897 -0.042961694 -0.024186438 0.00324575 0.045100667 -0.025306867 0.038576897 0.0025392836
0.02929131 0.023785412 -0.0043162513 0.024533918 0.04609274 -0.036065076 0.034675803 -0.0053936015
-0.0044974987 0.026889985 -0.03612 -0.03629392 -0.0024891933 0.019806935 0.03736233 -0.031172762
-0.021060327 0.04172163 0.030849349 0.037001207 0.0151266195 -0.034250073 0.004377371 -0.035884663
-0.035827868 0.008806423 0.032893505 0.035329405 0.03147125 -0.032371163 0.00417671 0.009836721
-0.016105138 -0.03901479 -0.045549627 0.008211956 0.04046062 -0.005763063 0.030588636 0.0124838315
-0.040948544 -0.006017799 -0.016120207 -0.026592467 -0.029925693 -0.036698706 -0.024460904 0.005012544
-0.031051997 -0.029321393 0.008092214 0.008948415 0.00077526196 -0.045665953 -0.042281754 0.011876183
0.04503861 0.03386222 0.028415272 0.0020631049 0.010466474 -0.024008375 -0.025339993 0.024155855
-0.0015248551 -0.021604406 0.0015104435 0.0093552405 0.006692501 0.016634438 0.005303182 -0.04208302
0.022339502 0.013346587 -0.03645739 -0.031895798 0.03159736 -0.029542835 -0.027483344 0.047236033
-0.029813811 -0.033548076 0.036062334 -0.014377079 -0.015358284 -0.034104303 -0.04303502 -0.03461553
-0.030054891 0.0033155507 -0.039911862 -0.04333031 -0.027243039 0.023409218 0.01325679 0.00053224317
-0.0396585 -0.00796589 0.006038333 -0.019291287 -0.010548691 -0.03878125 0.032824673 0.025072623
-0.016184222 -0.017484607 0.039722513 -0.044863082 0.023243153 0.0049048504 0.017543305 0.004987396
0.020048 0.019202622 -0.049629472 -0.01979836 0.024806118 0.04174894 0.032475978 0.040187914
-0.015372054 -0.01656186 -0.02276178 0.04067039 0.0028827498 -0.0055290572 0.021125752 -0.011111744
-0.040870223 -0.03263509 -0.03310636 -0.03790746 0.04478906 0.008528595 0.013047871 -0.021528915
-0.007434024 0.020678949 0.0075737704 0.037431173 0.0013447915 -0.013918964 -0.022955598 -0.014737029
-0.03453327 0.00030685726 -0.0011064726 -0.0412437 0.03147252 -0.040493 -0.036052786 -0.02497425
0.013893011 0.008919105 0.03716788 0.011797979 0.03213824 0.011851056 0.0122779785 0.016932119
0.0047203656 0.0076090232 0.02379262 0.017549505 0.01563672 0.029890068 -0.016261365 0.02632732
-0.0011212585 0.0039963843 -0.0074507836 0.010155998 0.035684966 0.012365208 -0.036015697 -0.0015438412
-0.038743924 -0.03168898 -0.01636111 -0.0137559455 0.024348572 -0.03272904 0.012951143 -0.024883451
0.022092406 0.035168815 -0.01783569 0.039554693 -0.033640403 -0.028245818 0.00045015468 -0.04722286
00000000: 7ece 5e3c 3ea4 2f3d 1cb4 00bd 300f a93a
00000010: 87d3 813d 1888 86bc 7cd1 fdbc 5a0f 2a3c
00000020: cab8 77bc 8c23 b73c 242b e6bc ff32 c3bb
00000030: 79e7 af3c 3130 f33c 8fdb 4b3c d819 393d
00000040: 4417 363c 2940 8a3c dc6d 10bb 802d 28bd
00000050: 6b39 953b ab05 fcbb a518 cdbc 09e6 6d3c
00000060: 1613 41bc 2710 ec3b 5131 193d 9584 d33c
00000070: 8d4e d2bc 5ee2 b13c 310b e63b ec1e f3bc
00000080: 7bdb 203b b388 c93b 0f22 99bc a1a8 d1ba
00000090: abe3 b43b f158 f13c 01c7 233b d5be 9ebc
000000a0: b184 5b3c 90fc 0bbc 169a dcbb d567 babc
000000b0: 826b 463d 0afb 363d f792 f8bc f121 fa3c
000000c0: 5b8e 003d b1b2 f93c cb26 e0bc c71f 4fbc
000000d0: b504 28bc 0aa1 19bd 14e5 d2bc 7464 463c
000000e0: 1276 3b3d 9af8 2fbd a322 c6bc a6b6 543b
000000f0: 7abb 383d 5950 cfbc cf02 1e3d 1c6a 263b
00000100: 54f4 ef3c a0d9 c23c 576f 8dbb 5bfb c83c
00000110: becb 3c3d f9b8 13bd 3708 0e3d cfbc b0bb
00000120: c15f 93bb 6348 dc3c 91f2 13bd efa8 14bd
00000130: bc21 23bb 2742 a23c 3e09 193d 055e ffbc
00000140: b586 acbc 4de4 2a3d c6b7 fc3c 948e 173d
00000150: a4d5 773c ce49 0cbd 0d70 8f3b ccfb 12bd
00000160: 3ec0 12bd d148 103c 57bb 063d 91b5 103d
00000170: ffe7 003d a097 04bd c8dc 883b 332a 213c
00000180: ecee 83bc f9cd 1fbd 3f92 3abd 718b 063c
00000190: 09ba 253d 14d8 bcbb 0595 fa3c fc88 4c3c
000001a0: a9b9 27bd f530 c5bb 860e 84bc 72d8 d9bc
000001b0: ba26 f5bc 6251 16bd 3c62 c8bc 4440 a43b
000001c0: c260 febc 6b33 f0bc 3595 043c 5f9c 123c
000001d0: f33a 4b3a 390c 3bbd a22f 2dbd 5294 423c
000001e0: 687a 383d 1cb3 0a3d 25c7 e83c 2835 073b
000001f0: 937b 2b3c 36ad c4bc d195 cfbc 80e2 c53c
00000200: a6dd c7ba b9fb b0bc 13fa c53a b946 193c
00000210: c44c db3b f244 883c 51c6 ad3b 3f5f 2cbd
00000220: 5501 b73c a5ab 5a3c 5854 15bd 2ba5 02bd
00000230: 3c6c 013d d103 f2bc c024 e1bc 927a 413d
00000240: 183c f4bc b569 09bd 19b6 133d d78d 6bbc
00000250: 50a1 7bbc f4b0 0bbd 7d45 30bd 04c9 0dbd
00000260: ad35 f6bc b649 593b 9f7a 23bd 207b 31bd
00000270: cb2c dfbc b0c4 bf3c 0233 593c 3c86 0b3a
00000280: f470 22bd 5d83 02bc 35dd c53b c308 9ebc
00000290: 6bd4 2cbc 17d9 1ebd 2a73 063d 1a65 cd3c
000002a0: c694 84bc e13b 8fbc 13b4 223d 5ac2 37bd
000002b0: 6d68 be3c deb8 a03b fab6 8f3c 4f6d a33b
000002c0: b43b a43c d14e 9d3c 4648 4bbd 2c30 a2bc
000002d0: 3336 cb3c f000 2b3d 8805 053d 159c 243d
000002e0: 11db 7bbc bdac 87bc ea76 babc ff95 263d
000002f0: 84ec 3c3b 182d b5bb ea0f ad3c 080e 36bc
00000300: 8967 27bd 5fac 05bd 899a 07bd da44 1bbd
00000310: bc74 373d 85bb 0b3c bdc6 553c 685d b0bc
00000320: 1d99 f3bb e666 a93c 642d f83b 6e51 193d
00000330: b743 b03a 5e0c 64bc 610d bcbc 9473 71bc
00000340: c272 0dbd afe1 a039 0f07 91ba 27ef 28bd
00000350: 54e9 003d fddb 25bd 16ac 13bd cc96 ccbc
00000360: 839f 633c 7021 123c 593d 183d 4f4c 413c
00000370: 63a3 033d ee2a 423c 9329 493c 3ab5 8a3c
00000380: 4cad 9a3b 1d55 f93b bee8 c23c fbc3 8f3c
00000390: 9418 803c 04dc f43c 8e36 85bc 64ac d73c
000003a0: 31f7 92ba 1af4 823b b425 f4bb 5865 263c
000003b0: 662a 123d 7197 4a3c 3285 13bd b75a caba
000003c0: f3b1 1ebd 4ecc 01bd bc07 86bc 9e60 61bc
000003d0: a876 c73c e30e 06bd 0831 543c 61d8 cbbc
000003e0: 22fb b43c 2d0d 103d 271c 92bc 1a04 223d
000003f0: 85ca 09bd c663 e7bc bd02 ec39 c26c 41bd

bias f4 [256]
-0.0016222724 -0.008021055 0.032918647 0.032397788 0.03138124 0.04012381 -0.0065234452 -0.03909118
-0.034453385 0.03706824 -0.029670855 -0.0494464 -0.03395231 -0.04030666 -0.009655584 0.05054945
0.0069811717 0.0017914178 0.010149973 0.018909015 -0.0076148096 -0.002159112 0.010489105 -0.0039054782
0.00090093503 -0.038262736 -0.021691741 -0.043414295 -0.03477166 0.0318235 0.024908597 0.008881533
-0.022548717 0.0071430583 0.0056980066 -0.02905352 0.044368573 -0.02208007 0.027468285 0.012210351
-0.04017584 -0.0066756844 -0.028259406 -0.039429344 -0.034268025 -0.008238868 -0.045378808 -0.011837157
0.009158891 0.014231834 -0.0031733115 0.034125894 -0.03240892 -0.04421933 -0.033577934 0.030129122
0.014046225 0.014093871 0.009670537 -0.03863236 0.021867344 -0.040368736 -0.031969696 -0.028173735
-0.014751078 -0.004628963 0.020833815 0.009654657 0.03585424 0.013147664 0.037932333 0.027036095
-0.01083878 0.030946488 -0.025912633 0.03069938 0.032008555 0.017145474 -0.029152442 -0.04521621
0.014626348 0.03640567 -0.039585914 -0.004476819 0.009224778 -0.03111771 -0.024311332 -0.016274199
-0.017772615 0.015253912 -0.03815781 -0.044350974 0.0020574483 -0.030954877 0.0085787 -0.04110662
0.012572844 0.006817564 -0.020025123 0.033989716 -0.02682396 0.024759639 0.017710976 0.030726872
0.04230622 0.048310418 0.028432868 -0.03501544 -0.03900652 0.023329549 -0.024840305 -0.009365303
0.024316069 0.021588122 0.0005127922 -0.016487444 0.0031970835 -0.006236243 0.021735625 -0.044199266
0.048467807 -0.041973744 0.018214919 0.012777299 -0.009581227 0.02215272 -0.040813036 -0.008887005
0.01922787 -0.046493232 -0.02353317 0.014753325 -0.031715132 -0.016309887 -0.040379655 0.03328347
-0.033285696 -0.0042027337 0.00017815549 0.034464467 -0.04603996 -0.032200396 -0.026869336 -0.0011071729
0.0064837094 0.019005407 -0.0383094 -0.042028245 -0.019135736 -0.033640616 -0.045077443 0.009334406
0.013290498 -0.031753547 0.013016209 0.007116776 0.029085279 0.0013606579 0.0024607955 0.024652582
0.03171343 0.036165304 -0.022773052 0.038655616 -0.042057857 0.032396935 -0.01946708 -0.037977934
0.008789564 -0.011694969 0.031132042 -0.016793972 0.010675747 0.033934828 0.009799055 0.015877953
-0.008403094 -0.032221355 -0.0015990312 -0.016565256 -0.026119204 0.00677852 -0.020416208 -0.01496976
-0.018633945 0.0039094156 -0.040253475 0.02428375 0.021927593 -0.007919523 0.040992156 -0.04224279
0.037581738 -0.017317524 -0.039899673 0.0061938497 0.026579263 0.0134353805 -0.011559026 0.018681223
-0.005731559 -0.0025972591 0.006050697 -0.03517596 -0.024214035 0.04162495 -0.0070314556 0.034876883
0.036457818 -0.021145027 -0.0039463495 0.03559847 0.03370802 -0.016520882 -0.030109366 0.03297613
-0.0025895245 -0.0046748966 0.020864809 0.021193217 0.03070477 0.036994338 -0.012891104 -0.021303393
0.037961073 -0.0010382605 -0.024628209 -0.036075547 0.033378858 0.01700557 0.009700202 0.03664063
-0.0379421 -0.005478474 -0.026849752 -0.01971378 -0.0034815797 -0.0077112913 0.014537229 0.014280969
-0.028495032 -0.030498669 0.0034861548 0.032094352 -0.025156908 -0.008957406 0.016874606 -0.041213192
-0.017512921 0.028675647 0.024959147 -0.022180248 -0.0031841472 0.012964481 0.019220348 -0.005018327
00000000: 6ea2 d4ba be6a 03bc b4d5 063d 8bb3 043d
00000010: 9d89 003d dd58 243d a0c2 d5bb 131e 20bd
00000020: fe1e 0dbd ded4 173d 4b10 f3bc 4f88 4abd
00000030: 9411 0bbd 9918 25bd 7432 1ebc f10c 4f3d
00000040: 50c2 e43b 02ce ea3a 134c 263c 14e7 9a3c
00000050: a785 f9bb e37f 0dbb 7fda 2b3c 0df3 7fbb
00000060: ba2c 6c3a 63b9 1cbd e1b2 b1bc 30d3 31bd
00000070: ba6c 0ebd 5c59 023d 1d0d cc3c d983 113c
00000080: 16b8 b8bc 5110 ea3b 58b6 ba3b a601 eebc
00000090: d2bb 353d 43e1 b4bc 2b05 e13c ed0d 483c
000000a0: 6c8f 24bd b3bf dabb 4580 e7bc aa80 21bd
000000b0: a15c 0cbd 51fc 06bc 21df 39bd a3f0 41bc
000000c0: 2c0f 163c a32c 693c 55f7 4fbb 98c7 0b3d
000000d0: 37bf 04bd 541f 35bd 0489 09bd 59d1 f63c
000000e0: 2322 663c fbe9 663c 2c71 1e3c f73c 1ebd
000000f0: 2523 b33c b059 25bd a8f2 02bd 9bcc e6bc
00000100: 81ae 71bc 8eae 97bb adab aa3c 912e 1e3c
00000110: e5db 123d 4d69 573c ef5e 1b3d cd7a dd3c
00000120: 2395 31bc 7d83 fd3c bb46 d4bc 447d fb3c
00000130: 671b 033d aa74 8c3c 1ad1 eebc a234 39bd
00000140: 5aa3 6f3c 1d1e 153d d724 22bd 48b2 92bb
00000150: 8623 173c 91ea febc 8f28 c7bc 7851 85bc
00000160: e097 91bc 8beb 793c 5d4b 1cbd 5ea9 35bd
00000170: 41d6 063b 1595 fdbc ad8d 0c3c 6a5f 28bd
00000180: 54fe 4d3c df65 df3b ba0b a4bc cd38 0b3d
00000190: ecbd dbbc bad4 ca3c 9c16 913c ecb6 fb3c
000001a0: 4949 2d3d 25e1 453d 0cec e83c 5a6c 0fbd
000001b0: 4dc5 1fbd 9c1d bf3c e57d cbbc ee70 19bc
000001c0: 7e32 c73c 93d9 b03c e76c 063a ad10 87bc
000001d0: 2986 513b 6659 ccbb e90e b23c 4a0a 35bd
000001e0: 2e86 463d a9ec 2bbd 7437 953c e057 513c
000001f0: 94fa 1cbc 9f79 b53c 922b 27bd cd9a 11bc
00000200: c483 9d3c b06f 3ebd a2c8 c0bc eeb7 713c
00000210: bae7 01bd 509c 85bc 2365 25bd 3f54 083d
00000220: 9556 08bd 16b7 89bb 40cf 3a39 9d2a 0d3d
00000230: 6694 3cbd 90e4 03bd 151d dcbc 8f1e 91ba
00000240: 4c75 d43b 3ab1 9b3c 51ea 1cbd cf25 2cbd
00000250: 8cc2 9cbc beca 09bd 20a3 38bd 56ef 183c
00000260: 64c0 593c 0210 02bd f041 553c d833 e93b
00000270: 4044 ee3c 1a58 b23a 4c45 213b 36f4 c93c
00000280: f1e5 013d 1222 143d 8d8e babc 5a55 1e3d
00000290: dc44 2cbd a6b2 043d 6d79 9fbc c08e 1bbd
000002a0: 1a02 103c 419c 3fbc a008 ff3c 8393 89bc
000002b0: 54e9 2e3c 3fff 0a3d 378c 203c 7b12 823c
000002c0: 21ad 09bc 8afa 03bd 9596 d1ba dcb3 87bc
000002d0: f1f7 d5bc 591e de3b e43f a7bc b943 75bc
000002e0: 37a6 98bc 8e1a 803b d4e0 24bd b7ee c63c
000002f0: 7fa1 b33c e3c0 01bc 64e7 273d c706 2dbd
00000300: 4fef 193d 7bdd 8dbc d76d 23bd c7f5 ca3b
00000310: c1bc d93c 1220 5c3c 1262 3dbc 5d09 993c
00000320: cdcf bbbb c736 2abb ed44 c63b ab14 10bd
00000330: 835c c6bc ec7e 2a3d 2068 e6bb 10db 0e3d
00000340: cb54 153d 5638 adbc 6150 81bb b4cf 113d
00000350: 6c11 0a3d cd56 87bc eba7 f6bc fa11 073d
00000360: 03b5 29bb e02f 99bb adec aa3c 669d ad3c
00000370: 9288 fb3c 6087 173d 3635 53bc 7484 aebc
00000380: 127d 1b3d 3e16 88ba 19c1 c9bc f4c3 13bd
00000390: 45b8 083d 444f 8b3c 99ed 1e3c 7c14 163d
000003a0: 2d69 1bbd c584 b3bb 03f4 dbbc cb7e a1bc
000003b0: 372b 64bb 00af fcbb 8f2d 6e3c bafa 693c
000003c0: 6a6e e9bc 58d8 f9bc f977 643b 5e75 033d
000003d0: dc15 cebc 15c2 12bc 9d3c 8a3c 2acf 28bd
000003e0: 4277 8fbc 31e9 ea3c 2077 cc3c 5ab3 b5bc
000003f0: 20ad 50bb f968 543c fe73 9d3c c770 a4bb

weight f4 [128, 256]
-0.023924256 0.020293118 -0.038421 -0.06777193 -0.058512606 0.05509335 -0.022390604 -0.022076113
-0.024789138 -0.03007891 -0.009122011 0.027291596 0.046212982 -0.006296704 -0.02124277 -0.056593217
-0.066932 0.04988881 0.0062101083 0.039095245 -0.028795306 -0.038823843 -0.046431784 -0.016037012
-0.04512302 -0.0628069 -0.05168084 -0.055888712 -0.012999546 -0.033902045 -0.024431633 0.054206226
0.040673148 -0.05912179 0.049476825 -0.033617944 0.016963523 -0.0610996 0.05423052 -0.026168369
0.046361275 0.011038034 0.031210396 -0.03805256 0.02910528 -0.01815896 -0.027740385 -0.0030999095
-0.0069676894 -0.041128565 0.032417577 -0.031198807 -0.007820271 -0.05715958 -0.031492285 -0.053216685
0.034969687 0.02882699 -0.04010584 -0.021182707 0.022304045 -0.043478787 0.040027104 0.010667228
-0.05433832 -0.0036559429 0.010568667 -0.039988983 0.0054041147 -0.044880867 -0.048897613 0.008441608
0.023572665 0.030389715 -0.0031575586 -0.02770797 -0.01801953 0.027706051 0.00010247751 0.048441805
-0.031907093 0.030091329 0.010934215 0.024340076 0.057732914 -0.011604599 -0.015600881 -0.041169986
0.008492673 -0.057249315 -0.04308243 -0.034566846 -0.032001328 -0.0017676114 -0.06285145 0.038488545
0.052315503 0.02836638 0.02647921 0.010828216 -0.040936336 -0.059799895 -0.014756024 0.04139273
0.005536708 0.03085709 -0.031477004 0.02659649 -0.008362934 0.013675875 -0.009448831 -0.06100792
-0.034937207 0.034255538 -0.051807124 0.037781306 0.008520528 -0.057593763 0.04215129 0.033413652
-0.037651453 0.02353732 0.017329026 -0.050451137 -0.03540797 -0.02541155 0.033808675 -0.052644454
0.05997714 0.022300633 -0.06980432 0.038338672 -0.028718058 -0.05407849 0.014752744 0.0056939656
0.019626627 0.058469478 -0.021651376 -0.0071274494 -0.032257155 -0.04958096 -0.05427359 -0.043837905
0.05477513 -0.01711746 0.016189355 -0.03947719 -0.033035967 0.02894744 0.030640105 0.046829186
-0.023729883 -0.0564419 -0.023905851 -0.008238721 -0.005674778 0.044859532 0.021401519 0.036345627
0.056463845 -0.04143207 -0.00077812636 -0.024371564 -0.030791687 -0.05125192 -0.057625335 0.02801734
-0.022902181 -0.047151793 -0.05879669 -0.028180117 0.03394984 -0.048815314 -0.038488574 -0.011421601
0.017936999 0.053661466 -0.048839644 -0.060556397 0.0023046453 -0.04819917 -0.0045597292 -0.067369156
-0.0030671412 -0.030103607 -0.0014344571 -0.035779145 -0.032458536 0.026047356 -0.020021534 0.04797706
-0.0132356 -0.043049272 -0.053802643 -0.022489203 -0.05408617 -0.048761334 -0.029566769 -0.0009653461
-0.051155988 -0.04073093 -0.026039898 -0.005594295 -0.010978021 -0.035353146 -0.0057370896 -0.0122592645
0.005923122 0.018189454 0.004468388 -0.05950924 -0.060605675 -0.06088082 -0.040143263 -0.036485203
-0.06407074 -0.00784993 0.04232193 0.049775817 0.02393055 0.03949782 -0.024416665 0.031928837
0.046005405 0.047316194 -0.042035393 0.027771702 0.035591774 -0.06376679 -0.03599531 0.0502689
-0.05214544 0.05978321 0.015784455 0.060332373 -0.0049182153 -0.010330467 -0.0043375567 -0.0017126988
0.05221215 -0.04922744 0.0499927 -0.015664687 0.038507894 -0.018085524 -0.06892896 0.023100933
-0.017784897 -0.026291965 -0.013566975 -0.016662143 -0.06833739 -0.025143433 -0.051898263 0.042765573
00000000: cdfc c3bc c13d a63c 575f 1dbd 02cc 8abd
00000010: eaaa 6fbd 91a9 613d 806c b7bc f7d8 b4bc
00000020: 9712 cbbc 0c68 f6bc 7d74 15bc a092 df3c
00000030: d349 3d3d 9554 cebb 5105 aebc 4ace 67bd
00000040: a513 89bd 3558 4c3d 2a7e cb3b 5622 203d
00000050: 22e4 ebbc c005 1fbd 412f 3ebd 0d60 83bc
00000060: ead2 38bd e7a0 80bd 4aaf 53bd 90eb 64bd
00000070: 0cfc 54bc dfdc 0abd d924 c8bc 5907 5e3d
00000080: e398 263d b129 72bd 36a8 4a3d f8b2 09bd
00000090: 16f7 8a3c 9343 7abd d220 5e3d 0c5f d6bc
000000a0: 52e5 3d3d dfd8 343c f2ac ff3c 00dd 1bbd
000000b0: 326e ee3c 19c2 94bc ce3f e3bc da27 4bbb
000000c0: 3751 e4bb 6d76 28bd 4bc8 043d a494 ffbc
000000d0: 9820 00bc 2a20 6abd 0efe 00bd bdf9 59bd
000000e0: 603c 0f3d 9426 ec3c 0546 24bd 5b87 adbc
000000f0: f9b6 b63c d016 32bd 76f3 233d 99c5 2e3c
00000100: dc91 5ebd 8b98 6fbb 3428 2d3c 7dcb 23bd
00000110: 0015 b13b 00d5 37bd dd48 48bd ac4e 0a3c
00000120: 761b c13c daf3 f83c 0bef 4ebb d3fb e2bc
00000130: b29d 93bc cdf7 e23c 32e9 d638 ea6a 463d
00000140: 03b1 02bd 1782 f63c 6c25 333c d764 c73c
00000150: 5979 6c3d 3721 3ebc d69a 7fbc dca1 28bd
00000160: da24 0b3c 427e 6abd 3477 30bd f795 0dbd
00000170: d313 03bd 32af e7ba 43b8 80bd 2aa6 1d3d
00000180: c848 563d 9c60 e83c eeea d83c d468 313c
00000190: dcac 27bd bcf0 74bd 40c3 71bc 6c8b 293d
000001a0: 466d b53b 02c8 fc3c 08ee 00bd e2e0 d93c
000001b0: b004 09bc c710 603c 45cf 1abc 71e3 79bd
000001c0: 511a 0fbd 894f 0c3d b533 54bd 92c0 1a3d
000001d0: af99 0b3c 70e7 6bbd d5a6 2c3d c1dc 083d
000001e0: 6938 1abd 56d1 c03c 9af5 8d3c daa5 4ebd
000001f0: f307 11bd e22b d0bc f77a 0a3d b6a1 57bd
00000200: 97aa 753d d1af b63c 91f5 8ebd 0309 1d3d
00000210: 2242 ebbc 6881 5dbd 7eb5 713c 7294 ba3b
00000220: 05c8 a03c b17d 6f3d 3a5e b1bc 618d e9bb
00000230: 1420 04bd 6815 4bbd fc4d 5ebd 608f 33bd
00000240: e35b 603d ea39 8cbc 8a9f 843c d5b2 21bd
00000250: b950 07bd 2f23 ed3c f500 fb3c f6cf 3f3d
00000260: 2c65 c2bc 9f2f 67bd 34d6 c3bc b3fb 06bc
00000270: 7df3 b9bb a1be 373d 3d52 af3c 27df 143d
00000280: a246 673d adb4 29bd 2dfb 4bba e0a6 c7bc
00000290: d93e fcbc 89ed 51bd 8b08 6cbd 9f84 e53c
000002a0: 5b9d bbbc 3d22 41bd ccd4 70bd fdd9 e6bc
000002b0: fd0e 0b3d 91f2 47bd 32a6 1dbd ab21 3bbc
000002c0: 9df0 923c 20cc 5b3d 140c 48bd fc09 78bd
000002d0: 8809 173b 7e6c 45bd c869 95bb d7f8 89bd
000002e0: 1702 49bb d79b f6bc 6504 bcba 278d 12bd
000002f0: 3ef3 04bd 4461 d53c 3304 a4bc 9883 443d
00000300: 21da 58bc 6f54 30bd 2960 5cbd 473b b8bc
00000310: 7689 5dbd f7b9 47bd 0236 f2bc 480f 7dba
00000320: f188 51bd 7ad5 26bd a051 d5bc 5950 b7bb
00000330: 28dd 33bc 76ce 10bd 32fe bbbb 15db 48bc
00000340: c016 c23b 0d02 953c 8e6b 923b f6bf 73bd
00000350: a83d 78bd 2b5e 79bd 436d 24bd 8271 15bd
00000360: 8537 83bd fe9c 00bc c359 2d3d bae1 4b3d
00000370: 000a c43c 77c8 213d 7505 c8bc d0c7 023d
00000380: 2a70 3c3d a0ce 413d 4e2d 2cbd 7b81 e33c
00000390: aec8 113d 2a98 82bd d16f 13bd c3e6 4d3d
000003a0: 7596 55bd 3ddf 743d 674e 813c 141f 773d
000003b0: fb28 a1bb 1e41 29bc 1022 8ebb a37c e0ba
000003c0: 68dc 553d b6a2 49bd 25c5 4c3d 3b53 80bc
000003d0: 74ba 1d3d 1828 94bc a02a 8dbd 2b3e bd3c
000003e0: a2b1 91bc 3f62 d7bc 0448 5ebc 0c7f 88bc
000003f0: 79f4 8bbd 9af9 cdbc 4693 54bd f42a 2f3d

bias f4 [128]
-0.03318984 -0.026074586 0.0016741456 0.028861906 0.010812554 0.044605568 -0.00354352 0.034451954
0.020856446 -0.025151249 -0.007953597 -0.033284128 0.04076818 0.02095958 -0.03512094 -0.021950526
0.028682655 0.004312648 0.035220474 0.0028908392 -0.0120748775 -0.044991974 -0.04281196 -0.02435358
-0.02167287 -0.06498866 0.01082746 0.04309728 -0.06382043 0.005888762 -0.05233228 -0.0023164158
-0.0656743 -0.01459074 0.0013457674 -0.05720878 -0.024196709 -0.02976022 -0.00543561 0.013388719
0.043640904 0.049544346 -0.040614177 0.012024542 0.045056798 0.026448375 -0.0068816277 -0.053546082
-0.040596023 0.015364266 0.018611247 -0.00792609 -0.01548484 -0.058052506 -0.03482753 -0.05690949
-0.0051070214 0.037609354 0.035632882 -0.00081449066 -0.024575235 0.031222561 -0.008671245 -0.05801194
0.047659427 -0.06405894 0.012411713 -0.02496322 -0.050561596 0.03277857 0.03881973 -0.030452367
0.03615273 0.030115241 0.06862123 0.0380486 -0.01699788 -0.019036304 -0.046642233 -0.04840387
-0.00777721 0.055029176 0.00051415944 -0.056064196 -0.044504736 0.041086715 0.049027685 0.0029149377
-0.06828484 -0.043427076 0.012597739 0.029129416 -0.012247996 0.009607403 0.032167673 0.04227274
-0.008069854 -0.026096517 0.0076485015 -0.03701555 0.025411922 0.03644947 -0.015177276 0.022936359
0.013016025 0.048628237 -0.0319299 -0.05326991 -0.025692167 -0.017496716 0.049145404 0.0018915894
-0.0384821 -0.015634326 -0.042177606 0.011967205 -0.059251957 0.017403726 -0.058546025 -0.009652079
0.035318587 -0.016424276 -0.031199703 0.003168114 -0.028196543 -0.038220387 -0.050975513 -0.008718
00000000: 12f2 07bd 5f9a d5bc 016f db3a ce6f ec3c
00000010: 2327 313c 54b4 363d 673a 68bb 7e1d 0d3d
00000020: 23db aa3c fe09 cebc ce4f 02bc f054 08bd
00000030: 89fc 263d 6db3 ab3c fada 0fbd 97d1 b3bc
00000040: e3f7 ea3c 1d51 8d3b 5843 103d 3c74 3d3b
00000050: b5d5 45bc 8149 38bd 985b 2fbd 2981 c7bc
00000060: 4d8b b1bc c618 85bd a965 313c c686 303d
00000070: 49b4 82bd 84f6 c03b 5f5a 56bd 02cf 17bb
00000080: 3f80 86bd 000e 6fbc 7664 b03a c153 6abd
00000090: 2d38 c6bc b4cb f3bc 341d b2bb 5c5c 5b3c
000000a0: cec0 323d 03ef 4a3d 0d5b 26bd 9602 453c
000000b0: 7a8d 383d 43aa d83c 477f e1bb 2353 5bbd
000000c0: 0448 26bd 67ba 7b3c 9d76 983c 6edc 01bc
000000d0: 20b4 7dbc 77c8 6dbd 50a7 0ebd ed19 69bd
000000e0: cd58 a7bb 440c 1a3d c9f3 113d 8b83 55ba
000000f0: 0152 c9bc 75c6 ff3c d611 0ebc ee9d 6dbd
00000100: 8836 433d 5531 83bd 7f5a 4b3c ab7f ccbc
00000110: ad19 4fbd d242 063d 7001 1f3d 3e77 f9bc
00000120: e314 143d 3db4 f63c 4a89 8c3d d9d8 1b3d
00000130: 233f 8bbc 06f2 9bbc ed0b 3fbd 2343 46bd
00000140: f7d7 febb 4666 613d a8c8 063a 92a3 65bd
00000150: 994a 36bd 8b4a 283d 41d1 483d 8a08 3f3b
00000160: ecd8 8bbd 97e0 31bd bf66 4e3c d0a0 ee3c
00000170: d2ab 48bc 5e68 1d3c 40c2 033d 2e26 2d3d
00000180: 6c37 04bc 5dc8 d5bc 48a0 fa3b 9e9d 17bd
00000190: aa2c d03c 0a4c 153d 1caa 78bc 08e5 bb3c
000001a0: 2a41 553c 672e 473d edc8 02bd 8d31 5abd
000001b0: 6178 d2bc 4655 8fbc b14c 493d 35ef f73a
000001c0: 689f 1dbd 8f13 80bc 6dc2 2cbd 1912 443c
000001d0: 2eb2 72bd 4292 8e3c f5cd 6fbd c123 1ebc
000001e0: 39aa 103d 348c 86bc 8596 ffbc 22a0 4f3b
000001f0: 70fc e6bc fb8c 1cbd b3cb 50bd f1d5 0ebc

weight f4 [60, 128]
0.018520685 -0.033181228 -0.06421619 0.06346658 -0.057417188 -0.092127606 -0.010669001 0.058256652
-0.07930698 0.0016670788 -0.04024385 0.08320185 0.054590497 -0.07694307 0.062168427 -0.042174257
0.048654392 -0.022806112 -0.04853023 0.07233764 0.013508777 -0.08566007 -0.062121868 -0.041442648
-0.06868538 0.08192861 -0.067352265 0.093731694 -0.12648942 0.07533098 -0.07297236 -0.009360116
-0.0053865463 0.0870041 -0.06887698 0.033317465 -0.0855364 0.013779333 0.06079339 -0.073605835
-0.068487786 -0.037135966 0.05490254 0.08413139 0.063173816 0.019115634 0.023167452 -0.057291742
-0.0056587197 0.04971863 0.021950433 0.082017265 0.009573963 0.008850406 0.026955122 0.046583917
0.065718785 -0.012824354 -0.03318065 0.025036832 0.039726622 -0.0021054663 0.04191534 0.07932871
-0.034989 0.062593445 -0.08876896 -0.089469425 -0.042363077 0.05065017 0.03326199 -0.029999781
-0.042815477 0.07393816 0.00633297 0.0782521 -0.02200521 0.041741945 -0.038043074 0.034660436
0.038593404 0.082127266 -0.021014135 0.09334557 0.045427818 -0.051826466 -0.023986587 -0.017493974
0.021264423 0.056685053 0.027973598 -0.009765328 0.03392942 -0.08173119 0.016013458 -0.032704104
0.07166295 0.0054184794 0.02617504 -0.08437307 -0.052504607 -0.017823897 0.046974912 -0.029243164
0.033802934 0.045117673 -0.07984212 -0.08694648 -0.08938213 -0.0930001 -0.011431559 0.02321666
-0.04574555 0.031328604 -0.07272795 -0.04170898 -0.016274031 0.028769784 0.04218961 0.011347133
0.062439274 -0.037741404 -0.081751294 0.06143398 0.00401919 0.1103852 -0.02141571 -0.13460147
-0.016050167 0.011367467 -0.040718425 0.0057827793 0.024964128 0.0399736 -0.023755934 0.051084302
-0.009949931 0.028170811 -0.040557623 0.059231814 -0.029173303 0.06571019 -0.13121615 -0.049951874
0.07543383 -0.019432195 -0.07327191 -0.0039870692 0.052789304 -0.050036557 -0.012521269 0.0058393544
-0.07309379 -0.021673217 -0.06699226 -0.030674854 0.025167247 0.04979903 0.043436002 -0.10987315
-0.015321534 0.0030993712 -0.021067793 -0.048897106 -0.031025888 -0.023032792 -0.081270576 -0.0028754408
-0.029792588 -0.028294055 -0.029660206 -0.05679697 -0.01707297 -0.0036438066 0.00092460064 0.030214218
-0.0015703746 -0.027287122 0.050697684 0.04357556 -0.057278123 0.06403817 -0.056614652 -0.06987711
-0.006838775 -0.00074501487 0.003777017 -0.055860687 -0.089394435 -0.0631995 -0.058852393 -0.09810866
-0.011800786 0.024610907 -0.03429342 0.033456597 0.04006603 -0.046133276 -0.024389718 -0.19072118
-0.018429048 0.062750585 0.016203806 0.06313731 -0.08335888 -0.059328664 0.057827704 -0.041041553
-0.0037982517 -0.05597201 -0.04510309 -0.04903147 0.02142519 0.05606361 0.0012717674 -0.052952718
-0.079984166 -0.067629345 -0.037688572 0.038433984 -0.019391036 0.027811633 -0.07046424 -0.039602287
0.059707843 -0.0036299457 0.061764117 0.017885715 -0.045363676 0.008821607 0.088400915 0.037867244
-0.10486774 0.048008636 0.01829391 0.06975227 -0.0022402413 -0.06262103 -0.011669046 -0.09985446
-0.033508096 0.0096158255 0.017017161 -0.04191224 -0.044767972 -0.05956681 0.0624038 0.058904573
-0.0734485 0.030452909 -0.021730239 -0.036086857 -0.057611383 0.08398186 -0.07053116 0.0375284
00000000: b1b8 973c 0ae9 07bd c783 83bd c4fa 813d
00000010: 492e 6bbd 66ad bcbd 09cd 2ebc 879e 6e3d
00000020: b36b a2bd e281 da3a bcd6 24bd bb65 aa3d
00000030: 499a 5f3d 5494 9dbd 52a4 7e3d eabe 2cbd
00000040: d449 473d e2d3 babc a2c7 46bd c225 943d
00000050: eb53 5d3c 8c6e afbd 8073 7ebd c4bf 29bd
00000060: ecaa 8cbd 30ca a73d fcef 89bd 67f6 bf3d
00000070: 7186 01be 2147 9a3d 8872 95bd 2c5b 19bc
00000080: a081 b0bb 352f b23d 600f 8dbd e577 083d
00000090: b52d afbd b6c2 613c 7d02 793d a8be 96bd
000000a0: 5343 8cbd e21b 18bd 7ce1 603d 144d ac3d
000000b0: 4661 813d 6498 9c3c abc9 bd3c bfaa 6abd
000000c0: c86c b9bb c3a5 4b3d 65d1 b33c abf8 a73d
000000d0: 1cdc 1c3c 4b01 113c fdd0 dc3c c7ce 3e3d
000000e0: 9297 863d 3d1d 52bc 6fe8 07bd 0b1a cd3c
000000f0: 62b8 223d ddfb 09bb 6baf 2b3d 1777 a23d
00000100: a050 0fbd fe30 803d 80cc b5bd bf3b b7bd
00000110: e884 2dbd 8d76 4f3d b93d 083d 1ac2 f5bc
00000120: 485f 2fbd e46c 973d ce84 cf3b a342 a03d
00000130: 4544 b4bc 9af9 2a3d 0ed3 1bbd 1af8 0d3d
00000140: 1e14 1e3d 5732 a83d d625 acbc f62b bf3d
00000150: 8512 3a3d fd47 54bd 857f c4bc 864f 8fbc
00000160: ba32 ae3c 962e 683d e328 e53c c1fe 1fbc
00000170: 93f9 0a3d af62 a7bd a82e 833c bdf4 05bd
00000180: 06c4 923d 808d b13b 0a6d d63c cacb acbd
00000190: 120f 57bd 6c03 92bc c468 403d 5c8f efbc
000001a0: f274 0a3d 4fcd 383d 4484 a3bd ff10 b2bd
000001b0: fa0d b7bd d676 bebd 6f4b 3bbc dd30 be3c
000001c0: b05f 3bbd 6c52 003d 64f2 94bd 09d7 2abd
000001d0: 1e51 85bc 9cae eb3c 03cf 2c3d 53e9 393c
000001e0: 53c0 7f3d bb96 1abd 396d a7bd 32a2 7b3d
000001f0: 69b3 833b a311 e23d 0070 afbc f8d4 09be
00000200: a47b 83bc 9d3e 3a3c 5dc8 26bd 787d bd3b
00000210: 9281 cc3c 5cbb 233d ce9b c2bc c63d 513d
00000220: 0905 23bc 79c6 e63c c01f 26bd 0f9d 723d
00000230: dafc eebc 1093 863d 875d 06be 569a 4cbd
00000240: 0d7d 9a3d 4430 9fbc 950f 96bd f6a5 82bb
00000250: 9939 583d 22f3 4cbd 0226 4dbc 0e58 bf3b
00000260: 32b2 95bd 088c b1bc 3d33 89bd d549 fbbc
00000270: 8b2b ce3c 11fa 4b3d f3e9 313d 2d05 e1bd
00000280: 2c07 7bbc d21e 4b3b 5d96 acbc 5548 48bd
00000290: 012a febc 44af bcbc 3071 a6bd e471 3cbb
000002a0: 960f f4bc efc8 e7bc f6f9 f2bc f1a3 68bd
000002b0: 9ddc 8bbc eecc 6ebb e660 723a cf83 f73c
000002c0: 07d5 cdba 3e89 dfbc 60a8 4f3d 497c 323d
000002d0: 779c 6abd 7226 833d c4e4 67bd bb1b 8fbd
000002e0: cd17 e0bb 1a4d 43ba d487 773b 2dce 64bd
000002f0: 6e14 b7bd bd6e 81bd 350f 71bd 31ed c8bd
00000300: 1558 41bc d09c c93c 4277 0cbd c909 093d
00000310: 471c 243d 3ff6 3cbd f2cc c7bc 6a4c 43be
00000320: 84f8 96bc 6183 803d d8bd 843c 224e 813d
00000330: 0fb8 aabd 9d02 73bd bedc 6c3d 301b 28bd
00000340: 17ec 78bb e842 65bd 05be 38bd 39d5 48bd
00000350: e183 af3c f5a2 653d 6fb1 a63a f3e4 58bd
00000360: bdce a3bd 4181 8abd 555f 1abd f46c 1d3d
00000370: f3d9 9ebc 39d5 e33c 8e4f 90bd 0236 22bd
00000380: 3690 743d 62e4 6dbb 5ffc 7c3d 1085 923c
00000390: 43cf 39bd 8088 103c 8a0b b53d af1a 1b3d
000003a0: e6c4 d6bd b4a4 443d 1cdd 953c 47da 8e3d
000003b0: 03d1 12bb 743f 80bd 872f 3fbc 7f80 ccbd
000003c0: c93f 09bd b28b 1d3c 9367 8b3c 2bac 2bbd
000003d0: 9f5e 37bd 54fc 73bd 219b 7f3d ec45 713d
000003e0: 2b6c 96bd 6178 f93c 9d03 b2bc d0cf 13bd
000003f0: eaf9 6bbd aefe ab3d a472 90bd 61b7 193d

bias f4 [60]
0.04127852 0.0011174438 0.05098061 0.00218762 0.032457225 -3.9309125e-05 -0.032414187 0.0009964198
0.054681357 0.0039122384 0.04418451 0.004651721 0.017698707 0.001256144 0.035754323 0.0011047343
-0.02864911 0.0013303446 0.014460823 0.00044240948 0.01955453 0.002626791 -0.0042636977 0.0011293949
0.010762295 0.0028664188 0.0031201376 0.0017742167 -0.010356754 0.0023574962 0.004586269 0.0029176273
0.0020949831 0.0010661114 0.012429134 0.0021976132 -0.0024811137 0.0029143305 0.0015117719 4.278544e-05
-0.0070199175 0.0011213116 -0.0056850608 0.0010435985 -0.0059502013 0.0007280831 -0.00685077 0.00029970845
-0.0040717474 0.0001284085 -0.0024278008 0.0014196147 0.0068200976 0.002073573 -0.008921682 0.00015096535
0.008228442 0.0012840466 0.005956755 0.00044261865
00000000: aa13 293d 3177 923a 0bd1 503d 2c5e 0f3b
00000010: def1 043d dadf 24b8 bdc4 04bd 4d9a 823a
00000020: 8ff9 5f3d 3c32 803b d1fa 343d 776d 983b
00000030: e1fc 903c 33a5 a43a 2073 123d bbcc 903a
00000040: 8ab1 eabc f55e ae3a 16ed 6c3c 32f3 e739
00000050: d230 a03c 3d26 2c3b 7db6 8bbb 3408 943a
00000060: 5654 303c 87da 3b3b 397b 4c3b d58c e83a
00000070: 60af 29bc 3980 1a3b 6a48 963b aa35 3f3b
00000080: fc4b 093b c3bc 8b3a 91a3 4b3c d505 103b
00000090: 2e9a 22bb 5afe 3e3b a626 c63a 8474 3338
000000a0: 5607 e6bb f9f8 923a bf49 babb 5bc9 883a
000000b0: e8f9 c2bb d4dc 3e3a 6d7c e0bb 3022 9d39
000000c0: 4b6c 85bb 65a5 0639 bd1b 1fbb 5d12 ba3a
000000d0: 207b df3b c8e4 073b 3f2c 12bc 744c 1e39
000000e0: 96d0 063c 744d a83a e230 c33b 450f e839
