linearPredictionModels/db39/small/cleanedCombine.csv_wholeNetPrototype5_Epochs_10_ValidationLoss0.659753_lr0.0012_2023_08_11_12:03:54.pth (torch, 992679 bytes, 8 tensors)

weight f4 [512, 145]
0.012356786 -0.083966434 0.019595155 0.038150985 0.0066466094 0.028741641 -0.059007127 0.002091944
-0.0015588824 0.043003343 -0.018934663 0.014457737 -0.0140094645 0.022123981 -0.0371136 0.050500456
0.051473413 -0.010288496 -0.077953525 -0.056498893 -0.0077940053 0.02071491 0.021849707 -0.05573161
0.053839706 -0.042858876 -0.019183664 0.018770086 0.0044345804 -0.04369904 0.044425353 -0.012800065
0.032857027 0.03347753 0.033255927 -0.060578577 0.077537455 -0.042767033 -0.07216974 0.04514318
0.04079495 0.03171146 0.029295834 0.06652968 -0.06904178 -0.02481516 0.043640323 -0.048545673
0.07283504 0.06259352 -0.08744917 0.0036780874 0.045413442 -0.06381344 0.044756003 0.026604695
-0.018469302 0.045803733 0.07533754 -0.04183777 -0.03801839 -0.031263694 0.063813075 0.0046313265
0.50172615 0.08931389 -0.04101621 -0.07599027 0.003832399 -0.06594496 -0.0019092234 0.07327542
0.09964466 -0.01734616 -0.071698084 0.08931767 -0.042025365 -0.017884381 0.079173826 -0.10251817
0.053957917 0.10125732 0.042268902 -0.10860382 0.07169222 -0.08957899 0.030587314 0.026232755
0.017982509 -0.07616201 -0.04980517 0.018707726 -0.0782893 -0.012962247 -0.021032387 -0.031653643
0.024508378 0.08016794 -0.06838994 -0.009013329 0.05724433 0.016209831 0.035560746 -0.020181753
-0.061157554 -0.07744876 -0.102024965 -0.0010708899 -0.014410423 -0.058482744 0.057603203 -0.009306087
0.03033623 -0.01984626 0.044581268 -0.04703639 -0.03645017 -0.08180273 0.042559963 0.040612474
-0.0348239 -0.07210216 0.0049121883 -0.07709354 -0.030660462 0.038605668 -0.031562112 0.06841096
-0.016887581 -0.009093049 0.049385544 -0.041647747 -0.064369604 0.022418942 -0.069517046 0.041083578
-0.0041751685 0.030394305 -0.042087466 0.02462733 0.019484535 0.062617764 -0.029029697 -0.0688725
0.053202774 -0.0054025287 -0.07339608 0.0347646 0.0062818904 -0.016450938 0.08755916 -0.05785423
0.002404703 0.002062012 0.06852323 0.01888337 -0.037671443 0.06792374 0.019833652 0.07031995
-0.037796333 -0.029617894 0.09684381 -0.02473074 -0.0067604766 0.035284355 0.1104658 -0.04130861
-0.013316284 0.068023846 0.052723385 0.06374367 -0.012937588 -0.084422186 -0.078417785 -0.04786006
-0.08058523 0.034497786 -0.05427405 0.05517269 0.015560234 -0.040036015 0.018333508 -0.033396684
0.06919582 -0.08729853 0.010929233 -0.05231279 -0.023035191 -0.05425073 0.09869799 -0.041785523
0.103995465 -0.06875293 0.039882544 -0.037955012 0.08359857 0.029732203 -0.023329439 0.029783014
-0.015151402 -0.012760737 -0.026441 0.049819313 0.08035332 -0.018159391 -0.08424525 -0.095208086
0.03382061 -0.27921948 -0.024312092 -0.002228671 0.04212978 -0.09022926 -0.021596199 -0.11351261
0.01868476 0.11587259 -0.036203757 0.059451934 0.022595054 -0.02820537 -0.14083609 0.1094697
-0.038486443 0.0062892647 0.08986481 0.19656564 -0.05809919 -0.14371882 -0.05777531 0.02311614
-0.043044597 -0.10703916 -0.103783794 0.11474218 0.026311688 0.04312545 0.0022420457 0.19505793
-0.043447725 0.09639744 0.14949983 0.1081636 -0.0037861487 0.05607995 0.059583448 -0.009414694
-0.10235614 0.0930353 -0.01947366 0.06666181 0.028279541 -0.09859376 -0.060713574 0.05929909
00000000: 1e74 4a3c 98f6 abbd 0586 a03c 3544 1c3d
00000010: cdcb d93b 9773 eb3c 75b1 71bd ff18 093b
00000020: 6a53 ccba 4624 303d de1c 9bbc 25e0 6c3c
00000030: f487 65bc 5a3d b53c 6e04 18bd 91d9 4e3d
00000040: c9d5 523d 1491 28bc 19a6 9fbd 626b 67bd
00000050: db64 ffbb 51b2 a93c 28fe b23c d446 64bd
00000060: 0687 5c3d ca8c 2fbd 0f27 9dbc b9c3 993c
00000070: f54f 913b c4fd 32bd 5cf7 353d 5db7 51bc
00000080: 1795 063d bc1f 093d 5e37 083d 3e21 78bd
00000090: f5cb 9e3d 7c2c 2fbd bbcd 93bd 0ee8 383d
000000a0: 9b18 273d e0e3 013d d1fd ef3c b640 883d
000000b0: c765 8dbd 2a49 cbbc 32c0 323d d4d7 46bd
000000c0: 8a2a 953d 0831 803d 8d18 b3bd 110c 713b
000000d0: 7203 3a3d 9fb0 82bd 1252 373d 17f2 d93c
000000e0: ef4c 97bc b29c 3b3d 914a 9a3d 155e 2bbd
000000f0: 2cb9 1bbd 5c0e 00bd 6eb0 823d 62c2 973b
00000100: 2071 003f 33ea b63d 9d00 28bd c9a0 9bbd
00000110: fc28 7b3b 270e 87bd e83e faba 6c11 963d
00000120: 8012 cc3d 8919 8ebc 72d6 92bd 2fec b63d
00000130: ca22 2cbd 4482 92bc e325 a23d 0cf5 d1bd
00000140: fa02 5d3d ff5f cf3d 2822 2d3d ae6b debd
00000150: 5fd3 923d 3175 b7bd 3f92 fa3c 13e6 d63c
00000160: 0e50 933c d4fa 9bbd 8200 4cbd f240 993c
00000170: 2456 a0bd 9b5f 54bc 1d4c acbc 40a7 01bd
00000180: cbc5 c83c 172f a43d 0610 8cbd a4ac 13bc
00000190: 0879 6a3d 7bca 843c 25a8 113d 3454 a5bc
000001a0: 5880 7abd 759d 9ebd 77f2 d0bd 1a5d 8cba
000001b0: b219 6cbc 9a8b 6fbd 56f1 6b3d 8f78 18bc
000001c0: af83 f83c a094 a2bc d99a 363d 3ba9 40bd
000001d0: c64c 15bd 3188 a7bd 5b53 2e3d 4459 263d
000001e0: 81a3 0ebd 4caa 93bd 6cf6 a03b 38e3 9dbd
000001f0: a62b fbbc fa20 1e3d 4647 01bd 0c1b 8c3d
00000200: d357 8abc 03fb 14bc 7f48 4a3d d496 2abd
00000210: 36d4 83bd eea7 b73c f45e 8ebd 4147 283d
00000220: dacf 88bb 7afd f83c e863 2cbd 41bf c93c
00000230: 089e 9f3c be3d 803d b0cf edbc 060d 8dbd
00000240: 27eb 593d b207 b1bb af50 96bd 5365 0e3d
00000250: 51d8 cd3b 1ec4 86bc 3852 b33d 8ff8 6cbd
00000260: 3998 1d3b d222 073b e855 8c3d 4cb1 9a3c
00000270: 5f4d 1abd 9a1b 8b3d 2f7a a23c e803 903d
00000280: 54d0 1abd 3aa1 f2bc 0c56 c63d 1f98 cabc
00000290: fd86 ddbb 5486 103d e53b e23d 3833 29bd
000002a0: 8b2c 5abc 1650 8b3d 7af4 573d 0b8c 823d
000002b0: 2df8 53bc 8ae5 acbd 8199 a0bd e908 44bd
000002c0: de09 a5bd 8d4d 0d3d 774e 5ebd c2fc 613d
000002d0: 5af0 7e3c cefc 23bd 2730 963c f6ca 08bd
000002e0: 8ab6 8d3d 92c9 b2bd 8710 333c f045 56bd
000002f0: 4cb4 bcbc 0336 5ebd 2c22 ca3d 4c27 2bbd
00000300: 93fb d43d 56ce 8cbd e15b 233d b776 1bbd
00000310: ba35 ab3d f390 f33c 611d bfbc 82fb f33c
00000320: 963d 78bc 6912 51bc cc9a d8bc 560f 4c3d
00000330: 4890 a43d 01c3 94bc c688 acbd 75fc c2bd
00000340: 7b87 0a3d dbf5 8ebe 272a c7bc e50e 12bb
00000350: 4790 2c3d 1eca b8bd 83ea b0bc 4d79 e8bd
00000360: c810 993c 9c4e ed3d 644a 14bd df83 733d
00000370: 4319 b93c f30e e7bc 5637 10be a631 e03d
00000380: f6a3 1dbd 2d16 ce3b 0b0b b83d 8148 493e
00000390: 6bf9 6dbd 072b 13be cea5 6cbd 0f5e bd3c
000003a0: 884f 30bd 5937 dbbd 998c d4bd f3fd ea3d
000003b0: 9c8b d73c 50a4 303d 49ef 123b 44bd 473e
000003c0: 3ef6 31bd 056c c53d 7c16 193e e184 dd3d
000003d0: 0921 78bb 17b4 653d c60d 743d 1740 1abc
000003e0: 19a0 d1bd 4b89 be3d 3a87 9fbc fd85 883d
000003f0: 7faa e73c 86eb c9bd ccae 78bd 9ae3 723d

bias f4 [512]
0.036748994 0.05262113 -0.0360387 0.060215916 0.07032171 0.060577337 0.066429086 -0.021410901
-0.0016772824 -0.0775008 0.025363324 0.0426587 0.05463492 -0.03592057 0.0047377357 0.028084567
0.023693595 -0.07517345 0.021275453 -0.08341322 -0.007738916 -0.08326813 -0.097575165 0.031021785
0.061425354 -0.023930052 -0.09294464 0.02330751 -0.042523034 -0.0034498668 0.034214508 -0.060624566
-0.0021189717 -0.04574467 0.03339898 0.036358215 -0.09948736 0.044057276 -0.06302252 0.048052978
0.04882486 -0.08544256 0.0063708997 0.06694154 -0.07521375 0.055439897 0.0132980235 -0.09502899
-0.036779188 -0.0147284 0.04891927 0.037657518 -0.05338036 0.05046288 0.019760007 0.056773614
0.03577713 0.03174277 0.08154148 -0.082149304 0.033656668 -0.0064758896 -0.102809936 -0.012542043
-0.028290559 0.07204857 -0.0121465465 -0.07397071 0.057993907 -0.08137444 -0.03198821 -0.042545073
-0.05633646 0.023046384 0.030487722 0.014908042 0.051424973 0.07862163 -0.039357807 0.004460326
0.030505352 -0.041865785 -0.06697905 -0.057865273 -0.063772954 -0.071372114 -0.06448081 -0.07839324
0.074639186 0.011329518 -0.050237663 0.029391617 -0.015192746 -0.06375065 -0.030363899 -0.0027947559
0.02779856 0.002715583 -0.07843848 0.06812036 0.009205994 -0.07406222 -0.05084249 0.016363965
-0.0018282545 -0.023017403 -0.07879904 0.034985676 -0.0009711052 0.045882422 0.04247846 -0.07915241
0.074170575 0.027160145 -0.021952493 -0.08238047 -0.10224174 -0.029262109 -0.049247634 -0.07670833
0.031158064 0.016289158 -0.030319527 -0.016041815 -0.0062396023 0.02368153 -0.042626143 -0.043390766
-0.005990197 -0.052415796 -0.063791335 0.017359655 0.06095672 0.049844213 0.020289015 -0.084075406
-0.009529048 -0.007982837 0.017108938 0.036421433 -0.08943201 -0.034085095 -0.012333331 0.03582568
0.06266863 -0.029159423 -0.08059408 -0.043332994 0.07441092 -4.1862313e-06 0.043636218 -0.019613734
-0.008037759 -0.060896583 0.053789895 -0.059082404 0.05725474 -0.092574626 0.04878274 -0.021401275
-0.07873188 0.023125568 -0.046377562 0.04925001 -0.07190731 0.04813215 -0.022789339 -0.012599273
-0.057736814 -0.050924096 -0.016752137 0.055480957 -0.06895976 0.033003002 -0.023263872 0.035407152
-0.101322494 -0.08244327 -0.06962345 -0.091325864 -0.0776558 0.04993045 0.02575234 0.05149643
-0.07630923 -0.04736086 -0.028051259 -0.09599065 0.060265563 0.03926145 -0.119044416 -0.006732289
0.039439876 0.010516688 0.04741906 -0.07565846 -0.039422587 -0.04607503 -0.044403307 0.027999023
0.01869527 0.020112788 -0.034119993 -0.018038781 0.06921172 -0.055607684 0.07383541 0.030270277
-0.09079822 -0.08512549 -0.019351777 -0.045911506 0.035884656 0.018665044 -0.09476304 0.021669436
0.023505464 -0.09550877 -0.053373273 -0.01368914 0.03134917 -0.08893094 0.06642144 0.022587279
0.072466604 -0.099555165 0.053451188 -0.038482945 0.077336155 -0.07708247 -0.055561088 -0.057491288
-0.055275913 0.058118157 -0.029525213 0.020640386 -0.025536843 -0.031389497 0.058376808 0.024554374
-0.02129914 0.025668284 0.07015625 0.059333574 0.058957197 0.049133196 -0.057138808 -0.029083844
0.0011181266 -0.07701642 0.049579218 0.001620837 0.0186998 0.0034977312 -0.030539801 -0.07321612
00000000: 1d86 163d 4189 573d 519d 13bd f7a4 763d
00000010: d404 903d f11f 783d f90b 883d ea65 afbc
00000020: 42d8 dbba bdb8 9ebd bfc6 cf3c e4ba 2e3d
00000030: dec8 5f3d 7321 13bd 023f 9b3b 9b11 e63c
00000040: 1219 c23c 8af4 99bd dc49 ae3c 8dd4 aabd
00000050: bc96 fdbb 7b88 aabd 7dd5 c7bd 6621 fe3c
00000060: 2799 7b3d f508 c4bc c259 bebd 64ef be3c
00000070: a22c 2ebd 2917 62bb 8324 0c3d 7751 78bd
00000080: 72de 0abb c35e 3bbd 5ecd 083d 5aec 143d
00000090: 07c0 cbbd 6775 343d f311 81bd 33d3 443d
000000a0: 94fc 473d 82fc aebd fbc2 d03b a518 893d
000000b0: ab09 9abd f214 633d f4df 593c 8f9e c2bd
000000c0: c6a5 16bd 634f 71bc 935f 483d c53e 1a3d
000000d0: 5da5 5abd 2ab2 4e3d bddf a13c 738b 683d
000000e0: 0a8b 123d b504 023d 38ff a63d e53d a8bd
000000f0: 93db 093d b333 d4bb 048e d2bd 247d 4dbc
00000100: 9ac1 e7bc 338e 933d 4f02 47bc f57d 97bd
00000110: 058b 6d3d a4a7 a6bd 1206 03bd be43 2ebd
00000120: 0fc1 66bd c5cb bc3c 63c1 f93c dc40 743c
00000130: fea2 523d 6104 a13d a735 21bd ed27 923b
00000140: 5ce6 f93c 757b 2bbd 502c 89bd 2304 6dbd
00000150: 659b 82bd 8b2b 92bd 840e 84bd a38c a0bd
00000160: 6edc 983d 719f 393c 02c6 4dbd b0c6 f03c
00000170: ffea 78bc b38f 82bd b6bd f8bc 3928 37bb
00000180: ceb9 e33c ecf7 313b 5ba4 a0bd b082 8b3d
00000190: bdd4 163c efad 97bd 3740 50bd b90d 863c
000001a0: 0ba2 efba fe8e bcbc 6461 a1bd 244d 0f3d
000001b0: c491 7eba 35ef 3b3d e5fd 2d3d a91a a2bd
000001c0: bee6 973d f47e de3c b7d5 b3bc 18b7 a8bd
000001d0: 1e64 d1bd 17b7 efbc e3b7 49bd 4219 9dbd
000001e0: 323f ff3c d770 853c a860 f8bc 206a 83bc
000001f0: 9475 ccbb c5ff c13c c098 2ebd 84ba 31bd
00000200: 6a49 c4bb f2b1 56bd 08a5 82bd d635 8e3c
00000210: c1ad 793d 7229 4c3d 2635 a63c ba2f acbd
00000220: b91f 1cbc 72ca 02bc 0b28 8c3c a42e 153d
00000230: 2128 b7bd d09c 0bbd bd11 4abc f3bd 123d
00000240: 6958 803d bedf eebc 820e a5bd f07d 31bd
00000250: c164 983d 7477 8cb6 e4bb 323d fbac a0bc
00000260: ceb0 03bc b26e 79bd cb52 5c3d 6400 72bd
00000270: f283 6a3d c497 bdbd 69d0 473d ba51 afbc
00000280: 2e3e a1bd d571 bd3c 66f6 3dbd 61ba 493d
00000290: 2444 93bd 3826 453d b5b0 babc 2e6d 4ebc
000002a0: 707d 6cbd c995 50bd c73b 89bc 0040 633d
000002b0: c63a 8dbd 282e 073d e093 bebc 1707 113d
000002c0: 2b82 cfbd 04d8 a8bd bd96 8ebd 0e09 bbbd
000002d0: 010a 9fbd df83 4c3d 92f6 d23c eced 523d
000002e0: 0348 9cbd 76fd 41bd c1cb e5bc bf96 c4bd
000002f0: 06d9 763d 9dd0 203d 8fcd f3bd 899a dcbb
00000300: b58b 213d 304e 2c3c 7d3a 423d d3f2 9abd
00000310: 9479 21bd 2cb9 3cbd 3ee0 35bd 355e e53c
00000320: d326 993c 93c3 a43c 68c1 0bbd 11c6 93bc
00000330: e0be 8d3d e2c4 63bd 0537 973d 5ff9 f73c
00000340: 6bf4 b9bd 4656 aebd 9e87 9ebc b40d 3cbd
00000350: cafb 123d 6fe7 983c 2013 c2bd 1a84 b13c
00000360: 888e c03c 1a9a c3bd ef9d 5abd 6a48 60bc
00000370: fd67 003d 6d21 b6bd f707 883d f508 b93c
00000380: 5f69 943d 94e3 cbbd a2ef 5a3d 4ba0 1dbd
00000390: 6b62 9e3d 6add 9dbd 0694 63bd fc7b 6bbd
000003a0: ff68 62bd 4e0d 6e3d dcde f1bc 0716 a93c
000003b0: a432 d1bc 4692 00bd 851c 6f3d 4126 c93c
000003c0: 897b aebc 4b46 d23c 14ae 8f3d c307 733d
000003d0: 1a7d 713d e43f 493d 620a 6abd 3e41 eebc
000003e0: 1a8e 923a c9ba 9dbd 9413 4b3d 4472 d43a
000003f0: 5330 993c 313a 653b 9b2e fabc 55f2 95bd

weight f4 [256, 512]
-0.053009972 -0.010970923 -0.034523834 -0.016375577 -0.0016403565 0.03644562 0.022874545 -0.024741437
0.025862878 -0.01095009 0.0069849617 -0.019789202 -0.012660502 -0.019860871 0.01629969 0.013008215
0.004357485 -0.04191072 -0.00025466236 0.020172523 0.0016382759 0.0041470425 -0.0107970005 0.018780937
-0.027373914 0.03409166 -0.020317487 -0.043318674 -0.0457347 0.009063221 -0.022545526 -0.042749304
0.024274787 -0.041444547 0.015342101 0.009901847 -0.014075628 0.01763634 -0.045642093 0.027793257
-0.03134363 -0.0070854626 0.020121867 0.02242603 -0.040989794 0.0285732 0.018666213 -0.044457257
0.03752016 0.034051955 0.0036794485 0.014285259 -0.044992074 0.012600005 -0.042120844 0.0050319466
-0.024529094 0.0035775893 -0.02681566 -0.03394477 0.0003604262 0.018638095 0.016558101 0.028034823
0.0048448327 -0.02587306 0.01086017 -0.05192699 0.028159704 -0.03765695 0.00835836 -0.013786156
0.0329862 -0.023133975 0.020238278 0.032403313 0.022341477 0.027326224 -0.009885394 0.010355249
-0.03780868 -0.029418033 0.0035944413 0.016442621 -0.022842208 -0.024983652 -0.018135255 -0.011326282
-0.050716948 0.0152151575 -0.03279444 0.012616109 0.031987343 -0.012967187 -0.015379417 -0.0039893687
-0.043798473 0.005998133 0.0040533743 0.012499815 -0.0008057319 -0.014666515 -0.021660851 -0.02223329
-0.023393786 -0.028786596 -0.049899727 -0.027812036 0.027502842 -0.03068747 0.0032285615 -0.01166001
0.010286088 -0.036436956 -0.030444378 0.033707403 0.013567533 -0.027204154 -0.043599334 0.023502497
-0.045972697 0.03152182 -0.010082067 -0.0014083836 -0.00012511523 -0.049899925 -0.02985443 -0.04158424
0.028333893 -0.02286645 -0.032593668 0.015409047 0.025398929 0.023683501 -0.039994087 -0.003637836
-0.04037895 -0.04872956 -0.032382406 -0.004506682 -0.04622455 0.005912957 -0.05270706 -3.4775683e-05
0.023459613 0.03253846 -0.041728012 0.04301808 0.017128106 -0.03522126 -0.015372885 0.028626299
-0.03964118 0.014826867 -0.038182516 -0.0039739986 -0.004884774 -0.015200573 0.005421157 0.011248135
-0.01524394 0.032917008 -0.008470133 0.027450794 -0.015476612 0.012907788 -0.023129266 -0.009957255
-0.02572282 -0.02083397 -0.050221995 -0.0102769 -0.025560768 0.012006946 -0.026354145 0.03617712
-0.043928463 -0.039145008 -0.0447013 0.012491625 0.033800893 -0.027689455 -0.023582486 0.010149977
0.0028205994 0.00757346 0.02224859 -0.045214936 0.009516675 0.0050319606 0.027460624 0.013951505
0.032379847 0.035632107 -0.042177718 0.0246025 -0.013422025 0.00022641086 -0.011680352 -0.042385485
0.004177214 0.015913865 0.026802972 -0.045336626 -0.008681969 -0.009586236 0.025810068 -0.010485729
-0.026817972 -0.043726563 -0.002757592 0.028984677 0.0084501505 0.0065418417 -0.01055903 -0.0070528607
-0.03778783 -0.0061429674 0.031231744 0.0062299217 -0.015393984 -0.03029616 -0.009733829 0.0073260586
-0.010335143 -0.03706207 -0.034556787 -0.05089062 0.029727837 -0.05347055 0.03597044 0.014964564
-0.015326105 -0.072447926 -0.05376096 0.020900814 -0.039341316 0.005625344 -0.046761565 -0.017181717
0.034332253 -0.026019268 -0.010405405 0.012946268 -0.047037587 0.031803895 -0.02189465 0.011142547
0.015630163 -0.05440587 0.027027117 0.019100694 -0.019646646 0.0061428915 0.023991954 0.005551786
00000000: fc20 59bd 63bf 33bc dd68 0dbd 1326 86bc
00000010: 3b01 d7ba 0148 153d 6663 bb3c 8eae cabc
00000020: 63de d33c 0268 33bc 1be2 e43b f71c a2bc
00000030: ff6d 4fbc 44b3 a2bc ed86 853c 6920 553c
00000040: 3cc9 8e3b 93aa 2bbd 3484 85b9 d940 a53c
00000050: 6bbb d63a eae3 873b e7e5 30bc 7bda 993c
00000060: 423f e0bc b2a3 0b3d dc70 a6bc ec6e 31bd
00000070: 4f54 3bbd e77d 143c 65b1 b8bc e519 2fbd
00000080: ebdb c63c c2c1 29bd 705d 7b3c 5b3b 223c
00000090: 769d 66bc 167a 903c 34f3 3abd afae e33c
000000a0: 2e62 00bd 2b2d e8bb 9dd6 a43c cbb6 b73c
000000b0: eae4 27bd 5812 ea3c e3e9 983c d018 36bd
000000c0: bdae 193d 107a 0b3d e722 713b b80c 6a3c
000000d0: 9c49 38bd 4070 4e3c e886 2cbd 07e3 a43b
000000e0: 3df1 c8bc fd75 6a3b 84ac dbbc ac09 0bbd
000000f0: 96f7 bc39 ebae 983c dba4 873c 49a9 e53c
00000100: 67c1 9e3b bdf3 d3bc dbee 313c 65b1 54bd
00000110: 2eaf e63c 2d3e 1abd 81f1 083c 54df 61bc
00000120: 8a1c 073d 7683 bdbc bfca a53c 56b9 043d
00000130: 7905 b73c 3fdb df3c 59f6 21bc 10a9 293c
00000140: 46dd 1abd 16fe f0bc b890 6b3b adb2 863c
00000150: 951f bbbc 84aa ccbc 6390 94bc df91 39bc
00000160: 93bc 4fbd ff48 793c 7653 06bd ccb3 4e3c
00000170: 2905 033d 5374 54bc f3f9 7bbc 40b9 82bb
00000180: 0766 33bd fd8b c43b 2bd2 843b 06cc 4c3c
00000190: c137 53ba d34b 70bc 1972 b1bc 9722 b6bc
000001a0: 53a4 bfbc ded1 ebbc a863 4cbd 11d6 e3bc
000001b0: a44d e13c 4a64 fbbc 4696 533b a009 3fbc
000001c0: fb86 283c eb3e 15bd 7d66 f9bc c610 0a3d
000001d0: 5c4a 5e3c 3fdb debc 3795 32bd 4f88 c03c
000001e0: de4d 3cbd 061d 013d 412f 25bc 8399 b8ba
000001f0: 5d31 03b9 dd63 4cbd 4791 f4bc 3c54 2abd
00000200: 7b1c e83c 6c52 bbbc f080 05bd 3a76 7c3c
00000210: 6a11 d03c e703 c23c d7d0 23bd c368 6ebb
00000220: 6664 25bd a698 47bd 6aa3 04bd caac 93bb
00000230: f455 3dbd 7ac1 c13b 5ce3 57bd 1bdc 11b8
00000240: 602e c03c 0c47 053d feea 2abd ba33 303d
00000250: 3e50 8c3c 2b44 10bd 8ede 7bbc b381 ea3c
00000260: ca5e 22bd 63ec 723c 4565 1cbd 5138 82bb
00000270: 7410 a0bb d30b 79bc f6a3 b13b 194a 383c
00000280: b8c1 79bc fcd3 063d 50c6 0abc 7de0 e03c
00000290: 9e91 7dbc 307b 533c 9679 bdbc c123 23bc
000002a0: aab8 d2bc 00ac aabc 94b5 4dbd 7160 28bc
000002b0: d164 d1bc c8b8 443c a6e4 d7bc 762e 143d
000002c0: 55ee 33bd 8456 20bd b618 37bd aca9 4c3c
000002d0: ce72 0a3d ffd4 e2bc 0f30 c1bc 174c 263c
000002e0: ced9 383b ca2a f83b ad42 b63c 4c33 39bd
000002f0: d4eb 1b3c 25e3 a43b 1af5 e03c da94 643c
00000300: bba0 043d f9f2 113d 8bc2 2cbd 2f8b c93c
00000310: 0ee8 5bbc b468 6d39 f25e 3fbc 679c 2dbd
00000320: 03e1 883b cb5d 823c e891 db3c e6b2 39bd
00000330: d13e 0ebc 970f 1dbc a36f d33c 56cc 2bbc
00000340: 5db1 dbbc a01a 33bd b7b8 34bb 4671 ed3c
00000350: 8072 0a3c f25c d63b c8ff 2cbc af1b e7bb
00000360: 69c7 1abd f24a c9bb b7d9 ff3c 5f24 cc3b
00000370: 0c37 7cbc a72f f8bc a37a 1fbc 6f0f f03b
00000380: bb54 29bc 66ce 17bd 6b8b 0dbd af72 50bd
00000390: cb87 f33c ef03 5bbd bd55 133d ee2d 753c
000003a0: 581a 7bbc 945f 94bd 7434 5cbd 2f38 ab3c
000003b0: 5c24 21bd ce54 b83b 0e89 3fbd acc0 8cbc
000003c0: fa9f 0c3d 5c26 d5bc 6f7b 2abc 951c 543c
000003d0: 7caa 40bd cd44 023d 695c b3bc 3b8f 363c
000003e0: d40a 803c b1d8 5ebd f967 dd3c 0f79 9c3c
000003f0: 01f2 a0bc 4f4a c93b c68a c43c c2eb b53b

bias f4 [256]
-0.028295845 -0.031227078 -0.016085306 -0.026357617 -0.012392308 -0.010794601 -0.02524032 -0.050928537
-0.021976335 -0.03532555 0.013069847 -0.031820737 -0.016203286 -0.018536665 0.04020822 -0.041136306
-0.05548721 -0.033847205 -0.016060319 0.038080767 0.017061299 -0.015585333 0.03426782 -0.0031725517
-0.00074211723 -0.028354008 0.0038372213 0.0030648627 0.016643606 -0.006840035 -0.017102448 0.009495741
-0.0029878018 0.0459312 -0.03255654 -0.030516064 -0.027615624 -0.011418652 -0.03589242 0.0016429443
-0.077456355 -0.047837522 -0.04957044 -0.048281886 -0.03991306 -0.060952127 0.0068614343 -0.027502865
0.017530655 -0.047132473 -0.03005274 0.026081055 -0.013469829 0.0023617907 0.015921598 0.0005502237
-0.0441564 0.032308523 -0.030388102 0.018458467 0.024971 0.020292712 -0.04368999 -0.01449412
0.0012794199 -0.051893976 -0.011003356 -0.045560874 -0.04661391 -0.04961874 0.018904677 0.0064252657
-0.01527958 -0.009068055 0.03582799 -0.024364648 -0.02232149 -0.026877826 -0.04007735 0.011653851
-0.043249168 -0.04290688 -0.00061098696 -0.044043176 -0.015492783 -0.014785916 0.035129916 0.026899723
0.0150565775 0.012062125 0.01478619 -0.025384879 -0.04854903 0.032016173 -0.033933096 0.026801271
-0.02980211 -0.030762948 0.057823893 -0.024391046 0.0518884 0.01861887 -0.04519702 0.020447856
-0.055763826 0.002650656 -0.01863695 0.00358703 0.01607657 -0.021504758 -0.043670706 0.016937653
0.017644947 0.0018800102 -0.010008686 0.022078084 -0.0072302613 0.035391428 0.0032335953 0.007062651
-0.04508755 0.019529339 -0.016646862 -0.051121753 0.012153178 -0.0015321487 0.023230245 0.01261382
-0.020822406 0.009589452 0.028558204 0.027860826 -0.044600375 0.04041167 0.024742378 0.026855392
-0.017614998 -0.010937555 0.040529754 -0.030540805 0.0073676785 -0.012099426 -0.013405143 0.020104462
0.0045965156 0.014649523 -0.010884853 -0.025148258 0.021376334 -0.020732684 0.002609811 -0.013930571
-0.010691239 -0.03273047 0.013986127 -0.0060534067 0.0441844 -0.031164477 -0.041834466 -0.029306764
-0.032811124 0.0066782273 0.00080723513 0.038753193 0.007237005 -0.023559751 -0.025372228 0.0065692626
0.014317288 -0.008389914 0.0011240456 -0.02538995 -0.06358448 0.017210558 -0.014744786 -0.05445288
0.032660127 -0.017991511 -0.03508631 0.028377784 0.031115338 -0.048331995 -0.05240869 -0.0016885578
-0.028045693 0.016739292 -0.029990243 -0.0039160824 0.015138432 -0.050117802 0.04198703 -0.029031858
-0.009755656 0.051777318 -0.013508958 0.026634563 -0.024156235 -0.0017546951 0.047963664 0.031745832
-0.041567042 -0.049608704 -0.025883067 0.034232907 0.015940383 -0.030039672 -0.013879597 0.01971734
0.0044580386 -0.024759114 -0.025197487 0.0058592143 -0.0057857046 -0.006883231 0.016130542 0.03734825
-0.008000061 -0.0015631486 -0.0058431453 -0.05421659 0.033207387 0.005183301 -0.046938337 -0.004598337
-0.051808737 -0.044998623 -0.03495362 0.017329136 -0.0384846 0.028948698 -0.036964465 0.00021205418
-0.007889198 -0.0013759694 -0.0020450247 0.009735596 -0.0031392907 -0.024526572 0.017630337 -0.084135756
-0.022748332 0.0027723182 -0.006609326 -0.02490404 -0.018736707 -0.026569163 -0.02673085 -0.04827678
0.03687269 0.019816043 0.009324167 0.01663233 -0.0070957257 0.010326974 0.007997601 -0.051914852
00000000: b0cc e7bc eecf ffbc 55c5 83bc eeeb d7bc
00000010: 1b09 4bbc d7db 30bc cac4 cebc 719a 50bd
00000020: b707 b4bc 86b1 10bd e922 563c 7656 02bd
00000030: c1bc 84bc 34da 97bc 60b1 243d 8b7e 28bd
00000040: 8f46 63bd 5ea3 0abd ee90 83bc 94fa 1b3d
00000050: 23c4 8b3c a059 7fbc 6a5c 0c3d 96ea 4fbb
00000060: a58a 42ba aa46 e8bc e479 7b3b dddb 483b
00000070: 2c58 883c 5f22 e0bb 6f1a 8cbc 0694 1b3c
00000080: ffce 43bb 5b22 3c3d 025a 05bd d3fc f9bc
00000090: 293a e2bc 4c15 3bbc ee03 13bd 1058 d73a
000000a0: 70a1 9ebd 47f1 43bd 600a 4bbd 3ac3 45bd
000000b0: e07b 23bd f0a8 79bd e2d5 e03b b04d e1bc
000000c0: 739c 8f3c fb0d 41bd 2a31 f6bc f0a7 d53c
000000d0: 8fb0 5cbc 46c8 1a3b 036e 823c e33c 103a
000000e0: 57dd 34bd f155 043d 78f0 f8bc 3636 973c
000000f0: fc8f cc3c e73c a63c 46f4 32bd bf78 6dbc
00000100: 35b2 a73a c78e 54bd 6c47 34bc 0a9e 3abd
00000110: 3aee 3ebd 053d 4bbd fbdd 9a3c 098b d23b
00000120: 3457 7abc 2e92 14bc 5fc0 123d 5f98 c7bc
00000130: 8fdb b6bc e32e dcbc 2628 24bd cbef 3e3c
00000140: 0a26 31bd 20bf 2fbd a42a 20ba 9e66 34bd
00000150: 71d5 7dbc a040 72bc 63e4 0f3d cf5c dc3c
00000160: ddaf 763c 38a0 453c c741 723c f3f3 cfbc
00000170: 59db 46bd 6423 033d 6efd 0abd 578e db3c
00000180: 8e23 f4bc 9402 fcbc bfd8 6c3d bbcf c7bc
00000190: ee88 543d 9a86 983c 8320 39bd 4382 a73c
000001a0: 9c68 64bd a1b6 2d3b 84ac 98bc 6114 6b3b
000001b0: 03b3 833c bf2a b0bc 0ee0 32bd d5c0 8a3c
000001c0: 238c 903c ad6a f63a 79fb 23bc 19dd b43c
000001d0: d4eb ecbb 9af6 103d baea 533b d06d e73b
000001e0: b9ad 38bd fefb 9f3c 005f 88bc 0b65 51bd
000001f0: 201e 473c 61d2 c8ba 5b4d be3c 32aa 4e3c
00000200: c093 aabc 141d 1d3c e5f2 e93c 633c e43c
00000210: e2ae 36bd b586 253d 87b0 ca3c d7ff db3c
00000220: 544d 90bc 6e33 33bc 8702 263d b630 fabc
00000230: 916c f13b ac3c 46bc 3fa1 5bbc 1db2 a43c
00000240: 5e9e 963b 8e04 703c 6256 32bc b803 cebc
00000250: 6c1d af3c 97d7 a9bc 5d09 2b3b 0d3d 64bc
00000260: 4e2a 2fbc 6310 06bd 1226 653c a85b c6bb
00000270: b4fa 343d a54c ffbc 9e5a 2bbd bd14 f0bc
00000280: f564 06bd 08d5 da3b a29c 533a abbb 1e3d
00000290: 6624 ed3b 6100 c1bc 6bd9 cfbc f842 d73b
000002a0: 0f93 6a3c da75 09bc b654 933a 96fe cfbc
000002b0: 9438 82bd 28fd 8c3c 1d94 71bc fc09 5fbd
000002c0: a0c6 053d ef62 93bc aab6 0fbd 8778 e83c
000002d0: 98e5 fe3c c5f7 45bd 7faa 56bd 9952 ddba
000002e0: 15c0 e5bc d720 893c 19ae f5bc 7b52 80bb
000002f0: 3007 783c 5348 4dbd 98fa 2b3d 38d4 edbc
00000300: 30d6 1fbc 7414 543d ad54 5dbc ba30 da3c
00000310: 4ce3 c5bc ccfd e5ba 8c75 443d eb07 023d
00000320: 3442 2abd 7f32 4bbd ba08 d4bc ce37 0c3d
00000330: 6895 823c c215 f6bc 4067 63bc 4286 a13c
00000340: bd14 923b a0d3 cabc f66a cebc a7fe bf3b
00000350: 0296 bdbb ba8c e1bb 3324 843c 7bfa 183d
00000360: b012 03bc 90e2 ccba db77 bfbb 3712 5ebd
00000370: 7804 083d aed8 a93b 6a42 40bd a6ad 96bb
00000380: 6635 54bd 7a50 38bd 872b 0fbd d5f5 8d3c
00000390: 07a2 1dbd d225 ed3c 0d68 17bd dc5a 5e39
000003a0: b241 01bc df59 b4ba d205 06bb 0d82 1f3c
000003b0: 8fbc 4dbb f3eb c8bc 7f6d 903c 5e4f acbd
000003c0: b65a babc c8af 353b 0c93 d8bb 8f03 ccbc
000003d0: b97d 99bc 93a7 d9bc a8fa dabc dfbd 45bd
000003e0: d107 173d 4155 a23c 64c4 183c 8640 883c
000003f0: 4383 e8bb 7832 293c 5f08 033c aba4 54bd

weight f4 [128, 256]
0.037470862 0.018218534 -0.013613974 0.04002696 0.06095269 0.001385105 0.039255727 0.005852016
-0.08466921 -0.00029251244 0.06651474 -0.028215893 -0.027034277 -0.06772436 -0.020599803 0.0018527304
0.022477563 0.057558455 -0.02893934 -0.08032227 -0.039589554 0.022739016 -0.0673478 -0.026784211
-0.029488234 0.033960994 -0.015422875 -0.04273123 0.031071808 0.0029138497 0.003685964 -0.058623604
0.05404104 0.04747536 -0.053788442 0.08184121 -0.05827125 0.004806173 -0.039878387 0.0037218393
-0.009225807 0.011419851 -0.061406784 0.04824973 -0.064383306 -0.027294358 -0.0056489557 -0.019302448
-0.04447859 -0.028504632 0.049953062 0.010580793 -0.021531686 0.0063664378 0.011300571 0.01302626
0.0166172 0.05127396 0.013078407 0.047259983 -0.031363767 -0.045447353 -0.005934514 0.043337777
0.016424704 0.0147162005 -0.03359579 0.046526562 0.026868394 -0.007670554 0.0458548 -0.009646909
-0.104638465 -0.04004266 -0.032479975 -0.008977224 0.010353327 -0.00027046073 -0.050556958 0.03260543
0.049597625 -0.10575877 0.07342013 -0.024366481 -0.0075779073 -0.019924708 0.01353794 0.038135912
-0.012028452 0.023268934 0.051380016 -0.06457971 0.03495054 0.0063346433 -0.06032463 0.03369796
-0.032340746 0.045315888 -0.014486704 0.061572634 -0.010602961 0.0435065 -0.016412465 -0.024050334
0.009484405 0.045879975 -0.025464794 0.029473701 0.025274293 -0.022944627 -0.033618577 0.0015083259
0.058734927 0.036977153 -0.046185162 -0.02822538 0.054718018 -0.009752614 0.052803412 -0.06253867
-0.055376757 0.006651247 -0.06221018 0.02390071 -0.010591134 -0.02774903 0.0008032295 -0.053224247
-0.056215215 0.06068324 -0.026398301 -0.028158829 0.005181449 0.008658852 -0.06452875 -0.04323746
0.025454884 0.059216592 0.029924806 0.028642455 -0.06863256 -0.05926432 -0.06806871 0.030986676
-0.070030175 0.020756323 -0.06952566 -0.040751472 0.047639247 -0.0012916094 0.05326195 0.04165064
-0.037677564 0.023567626 0.042618234 -0.048243344 0.029855367 0.02324635 -0.024228897 0.008445518
0.027163066 -0.009271244 -0.036944285 0.022348858 -0.043721914 -0.044608887 -0.015811367 0.013572267
-0.060276702 -0.0020985946 -0.04810946 -0.0044189477 0.03485696 -0.018526409 -0.0836813 -0.03310424
-0.04063304 -0.026142387 0.027633391 -0.0041000773 0.01880136 -0.034281984 0.005539092 -0.020608455
-0.004897029 -0.07783775 -0.050382998 -0.033883348 0.0040607825 -0.03731578 -0.041303106 -0.02056982
-0.015171854 -0.0001819855 0.009899536 0.07744506 -0.025813997 0.0033136338 -0.042521425 0.025680002
0.052199632 -0.034787197 -0.011635743 0.020582926 0.0074279476 0.03897468 0.044884194 -0.048105188
0.037205014 0.038971618 0.048925124 0.04465071 -0.053549893 -0.015235372 -0.060057703 -0.046873584
0.052278224 0.02079986 0.047172215 -0.0010261626 0.060018055 -0.009473834 -0.0010540005 -0.082705505
-0.026645858 -0.051902477 0.058037974 0.008095393 -0.03288725 0.039271 -0.051678557 0.0058970833
-0.037186872 -0.008905577 0.031677634 -0.047260623 -0.011819762 -0.04230413 -0.04855368 0.015818806
0.04995276 0.029013896 0.0031249924 -0.0379814 -0.018467773 0.06495531 -0.04531611 -0.025823748
-0.0025179726 0.05228314 -0.0054640984 0.016249755 -0.04598458 -0.0062797843 0.01555542 0.04239395
00000000: 0c7b 193d 093f 953c 250d 5fbc 4ff3 233d
00000010: 87a9 793d 698c b53a 9dca 203d 45c2 bf3b
00000020: 0d67 adbd 5b5c 99b9 e138 883d 0425 e7bc
00000030: fd76 ddbc 12b3 8abd ebc0 a8bc 51d7 f23a
00000040: de22 b83c 6ac2 6b3d 3212 edbc 0180 a4bd
00000050: a828 22bd 2c47 ba3c a5ed 89bd 906a dbbc
00000060: 4f91 f1bc af1a 0b3d 3ab0 7cbc f106 2fbd
00000070: 4e8a fe3c 49f6 3e3b 3790 713b 4e1f 70bd
00000080: 235a 5d3d 8675 423d 4551 5cbd 5d9c a73d
00000090: d6ad 6ebd 1a7d 9d3b 8557 23bd 1aea 733b
000000a0: d727 17bc 541a 3b3c ae85 7bbd 82a1 453d
000000b0: 65db 83bd 6b98 dfbc e01a b9bb 2b20 9ebc
000000c0: 2f2f 36bd 8c82 e9bc 959b 4c3d 105b 2d3c
000000d0: 3863 b0bc 8d9d d03b 0826 393c 186c 553c
000000e0: cb20 883c a504 523d d146 563c af93 413d
000000f0: 4b77 00bd 0127 3abd 5076 c2bb f482 313d
00000100: 1a8d 863c 381c 713c bd9b 09bd a392 3e3d
00000110: 1b1b dc3c 4559 fbbb 3ed2 3b3d 120e 1ebc
00000120: b14c d6bd c603 24bd b909 05bd 3515 13bc
00000130: 00a1 293c a0cc 8db9 d014 4fbd 458d 053d
00000140: e126 4b3d 0e98 d8bd 4b5d 963d 379c c7bc
00000150: 1850 f8bb 2439 a3bc 3cce 5d3c 6734 1c3d
00000160: fc12 45bc 7e9e be3c da73 523d 5e42 84bd
00000170: 4c28 0f3d d792 cf3b f616 77bd df06 0a3d
00000180: bb77 04bd 279d 393d a459 6dbc 9633 7c3d
00000190: 0bb8 2dbc df33 323d 6f73 86bc 3505 c5bc
000001a0: 7a64 1b3c a4ec 3b3d 8b9b d0bc d572 f13c
000001b0: 090c cf3c 5ff6 bbbc a2b3 09bd 05b3 c53a
000001c0: 0994 703d 5b75 173d a72c 3dbd ea38 e7bc
000001d0: 0020 603d 6ec9 1fbc 6448 583d 4614 80bd
000001e0: bdd2 62bd b4f2 d93b 1ad0 7ebd 6ccb c33c
000001f0: 7086 2dbc ef51 e3bc d28f 523a ab01 5abd
00000200: ed41 66bd fd8e 783d 4041 d8bc 58ad e6bc
00000210: 25c9 a93b dcdd 0d3c a627 84bd c319 31bd
00000220: c386 d03c 198d 723d de24 f53c 95a3 ea3c
00000230: 3a8f 8cbd 25bf 72bd 9c67 8bbd c5d7 fd3c
00000240: fb6b 8fbd 2a09 aa3c 7863 8ebd 04eb 26bd
00000250: 5f21 433d 384b a9ba 3429 5a3d dd99 2a3d
00000260: ca53 1abd e510 c13c 7590 2e3d d09a 45bd
00000270: 3e93 f43c 216f be3c ae7b c6bc 125f 0a3c
00000280: 1485 de3c 6ae6 17bc e452 17bd f414 b73c
00000290: c015 33bd cfb7 36bd d786 81bc 375e 5e3c
000002a0: b4e4 76bd 9388 09bb 6d0e 45bd d2cc 90bb
000002b0: 2cc6 0e3d b2c4 97bc 1a61 abbd 5098 07bd
000002c0: d56e 26bd 8f28 d6bc 6c5f e23c f159 86bb
000002d0: 4f05 9a3c 446b 0cbd 4581 b53b 10d3 a8bc
000002e0: 4277 a0bb 6669 9fbd 675e 4ebd 44c9 0abd
000002f0: 5010 853b 6ed8 18bd 722d 29bd 0a82 a8bc
00000300: 5e93 78bc 5cd3 3eb9 aa31 223c 849b 9e3d
00000310: e077 d3bc 8d29 593b f22a 2ebd de5e d23c
00000320: 48cf 553d 057d 0ebd d8a3 3ebc 869d a83c
00000330: 2466 f33b eaa3 1f3d 7dd8 373d f209 45bd
00000340: 4964 183d b4a0 1f3d b665 483d aae3 363d
00000350: 2257 5bbd c89d 79bc 11ff 75bd 84fe 3fbd
00000360: b121 563d 7864 aa3c a737 413d 4e80 86ba
00000370: 7ed5 753d 2438 1bbc 6326 8aba 8161 a9bd
00000380: 6a48 dabc b197 54bd 3ab9 6d3d 8aa2 043c
00000390: c8b4 06bd a1da 203d e5ac 53bd 523c c13b
000003a0: 4351 18bd b2e8 11bc 68c0 013d 5b94 41bd
000003b0: ada7 41bc 1847 2dbd 39e0 46bd 7196 813c
000003c0: 449b 4c3d 8dae ed3c accc 4c3b 6292 1bbd
000003d0: ba49 97bc 4a07 853d 639d 39bd 538c d3bc
000003e0: 9204 25bb d926 563d 2e0c b3bb 351e 853c
000003f0: 545a 3cbd a6c6 cdbb 29dc 7e3c 47a5 2d3d

bias f4 [128]
0.036405955 -0.026582006 -0.043388404 0.013232519 -0.06503696 -0.055401158 0.031154014 -0.03893408
0.018566212 0.014649003 -0.029777117 0.0154072875 -0.085946776 -0.018448837 -0.066032276 0.07945297
-0.08413205 -0.032687604 0.044801902 0.034951873 -0.03347975 -0.049798854 -0.02389112 0.014227124
0.0019851567 -0.018262783 -0.0667304 -0.007496063 -0.0022024857 -0.0120327575 0.0302961 -0.026755577
0.0013952134 0.003726733 -0.052437246 0.05645929 -0.028570449 0.003008804 0.087742634 0.036942936
-0.07374003 0.01797888 -0.051886525 0.044534285 -0.03979653 -0.03195656 0.02721425 0.03581876
-0.03335164 -0.044018615 -0.052302923 -0.020027578 -0.07633869 -0.07870348 -0.07804284 0.087929904
0.0064915526 -0.025772283 -0.08162582 0.029072238 0.020821512 -0.007300847 -0.023751415 0.012157964
0.027552947 0.09013569 0.051258717 -0.06625767 -0.024962505 0.02156067 -0.020184726 -0.056538165
-0.020055255 -0.07434638 -0.07411875 0.0044642296 -0.065083265 -0.021961927 0.04987519 0.038388237
0.0074909288 0.018345004 -0.043996103 -0.082616046 -0.071778424 0.043717965 0.03736855 0.08057032
-0.040230613 -0.062361762 -0.04913178 -0.0385352 -0.0062816446 0.024199294 0.049209245 -0.061732005
0.03617677 0.0011566868 0.031175345 0.061178777 0.07431879 0.05067794 -0.06600606 -0.064756915
-0.11587927 0.01770829 -0.06141429 -0.08327811 -0.03919787 -0.009478702 -0.010362751 0.019940235
-0.06407674 0.01937442 -0.033889174 0.023798173 -0.0019372766 0.028512552 0.03274356 0.0024430035
0.028464017 0.060733058 -0.014045263 -0.03998426 -0.024566945 -0.006904688 0.0085269315 -0.069039755
00000000: 691e 153d 82c2 d9bc 0ab8 31bd 35cd 583c
00000010: 1932 85bd 53ec 62bd b436 ff3c 5879 1fbd
00000020: 2b18 983c 5f02 703c 24ef f3bc d96e 7c3c
00000030: dd04 b0bd 0422 97bc ee3b 87bd 3db8 a23d
00000040: 6d4d acbd 70e3 05bd 3382 373d b229 0f3d
00000050: 1022 09bd e2f9 4bbd 4fb7 c3bc e218 693c
00000060: 6719 023b d59b 95bc f3a9 88bd 89a1 f5bb
00000070: 9457 10bb 0b25 45bc 872f f83c 832e dbbc
00000080: 98df b63a 343c 743b 70c8 56bd db41 673d
00000090: 930c eabc 5b2f 453b 69b2 b33d 7a51 173d
000000a0: 0305 97bd 7248 933c f786 54bd 9569 363d
000000b0: b001 23bd e2e4 02bd 6bf0 de3c b1b6 123d
000000c0: bb9b 08bd dd4c 34bd 973b 56bd e010 a4bc
000000d0: 7657 9cbd 4a2f a1bd edd4 9fbd 9814 b43d
000000e0: 17b7 d43b 6520 d3bc 702b a7bd e728 ee3c
000000f0: e091 aa3c f23b efbb 5492 c2bc 3232 473c
00000100: b8b6 e13c 1099 b83d a9f4 513d 1ab2 87bd
00000110: 2b7e ccbc 01a0 b03c 705a a5bc 9094 67bd
00000120: eb4a a4bc ea42 98bd 92cb 97bd ac48 923b
00000130: 604a 85bd 80e9 b3bc ed49 4c3d fc3c 1d3d
00000140: 7776 f53b 4348 963c 4235 34bd 9a32 a9bd
00000150: 9100 93bd 9c11 333d c40f 193d 0d02 a53d
00000160: dbc8 24bd 0c6f 7fbd 683e 49bd 16d7 1dbd
00000170: 41d6 cdbb 993d c63c a28f 493d b3da 7cbd
00000180: 182e 143d f89b 973a 7063 ff3c 9996 7a3d
00000190: 7334 983d ac93 4f3d 2f2e 87bd 469f 84bd
000001a0: 1c52 edbd fa10 913c 8d8d 7bbd b78d aabd
000001b0: f28d 20bd 8f4c 1bbc 87c8 29bc b459 a33c
000001c0: aa3a 83bd 1bb7 9e3c 60cf 0abd 63f4 c23c
000001d0: 37ec fdba 2893 e93c 1c1e 063d cc1a 203b
000001e0: 5f2d e93c 3ac3 783d 1a1e 66bc 89c6 23bd
000001f0: 9e40 c9bc b940 e2bb 8bb4 0b3c b764 8dbd

weight f4 [60, 128]
0.07808204 0.017590582 0.09341156 0.052481387 -0.11367747 -0.080950506 0.040805463 -0.053466026
-0.11166576 0.0105964765 -0.012439092 0.08049832 0.02264884 0.057117224 -0.034179352 -0.09567945
-0.028415626 0.057126526 -0.033122815 0.01430285 -0.06277965 0.01964575 -0.100333236 -0.042898536
-0.0051961606 -0.11360112 0.020923438 0.03863589 0.0048789107 -0.05038208 -0.06533305 -0.055563252
-0.055252705 0.039376084 -0.028899847 0.01763679 -0.038253155 0.033806767 -0.08486932 -0.0274917
0.049072526 0.07048829 -0.0038389622 0.011752667 0.047615677 0.033535898 -0.030778825 0.011436148
0.0841313 0.04551412 0.07438249 -0.082508944 -0.071213216 -0.04894284 0.07230981 -0.016097017
-0.14623582 -0.0044571892 -0.041846644 0.04226179 -0.0069956793 -0.09060347 0.055321842 0.03254933
-0.0024522091 -0.1000853 0.06658868 -0.08129419 0.040012658 0.021266796 -0.04511602 -0.017729625
-0.03246838 -0.001713663 -0.050478835 -0.016963279 0.03084354 3.6216727e-05 0.07897237 -0.12214927
0.039507862 0.07520165 -0.03830416 0.059178483 -0.028876191 -0.055392407 0.054216683 -0.009649743
0.0064286753 -0.116135195 0.03162336 0.042408988 -0.05098074 -0.079491004 -0.11494231 -0.00934622
-0.033018302 -0.066258155 0.07199527 -0.04930305 -0.07215719 0.031389248 0.029750159 0.046066932
0.023446556 -0.028894283 0.027229458 -0.048644736 0.05546588 0.010289817 -0.04857056 0.07153497
-0.022954382 0.07581006 -0.051303677 0.08942644 -0.030723495 -0.04117662 -0.10992493 0.053752456
-0.04563764 0.020414967 -0.08578231 0.07988403 -0.03036413 0.010759731 -0.027031386 -0.024880694
-0.10129338 -0.04794508 0.007839039 0.054210752 0.029475344 0.0019654997 0.031885773 -0.0042351517
0.013917696 -0.030260839 -0.283255 0.024934081 -0.05862764 0.036649954 -0.02867877 -0.003833205
0.01350302 0.04127821 0.018396107 -0.032015763 0.07360111 0.0057506016 0.030455766 0.02314832
-0.06927769 -0.034309458 -0.085323334 0.04730124 0.011132174 0.028680649 0.02570774 0.06674936
0.017599406 0.08348635 -0.044602867 -0.05596656 0.019071855 0.07761944 0.063671306 0.05600763
-0.018752176 0.034426138 0.026088938 -0.04750336 0.0043943883 -0.052004017 0.044155262 0.027008057
-0.0053522987 -0.060253486 -0.044960972 0.033641897 0.01356448 0.010735076 -0.06436256 0.001694059
0.015074725 -0.36574745 -0.047686547 0.07051329 0.039716758 -0.006804854 -0.030897798 -0.05679259
0.036578488 -0.014009113 -0.0490976 -0.07242885 -0.09411729 -0.07240075 0.038294725 -0.02007449
0.01286858 -0.017924773 -0.05587876 -0.061994936 0.035448764 -0.17373608 0.027172374 -0.046461485
-0.00022249128 0.015514416 -0.16286448 -0.16382065 0.0037610563 0.04992628 0.032912977 -0.031961594
0.092480734 0.029040398 0.017007196 -0.05652634 0.02544089 -0.14595397 -0.058252685 0.023028454
0.07212468 0.017936355 -0.011337694 -0.07405157 0.014913259 0.06928909 -0.042017207 -0.04565857
-0.17465684 0.07266883 -0.23120548 -0.110212274 -0.025316885 -0.00043052452 0.058483887 -4.1138564e-06
0.028818332 -0.06521987 -0.02798542 -0.0050316076 0.027439356 0.10492591 -0.093124084 -0.038371403
0.071056165 -0.055567827 -0.025243064 0.08342491 -0.054725796 0.064575635 -0.021861767 -0.058400374
00000000: 7ae9 9f3d 201a 903c 8f4e bf3d b9f6 563d
00000010: bccf e8bd 61c9 a5bd a123 273d 31ff 5abd
00000020: 05b1 e4bd d89c 2d3c 55cd 4bbc 4edc a43d
00000030: 0f8a b93c c0f3 693d a6ff 0bbd 96f3 c3bd
00000040: e3c7 e8bc 81fd 693d caab 07bd 8056 6a3c
00000050: 9e92 80bd 20f0 a03c 837b cdbd 60b6 2fbd
00000060: 8e44 aabb b4a7 e8bd a167 ab3c ab40 1e3d
00000070: 45df 9f3b 715d 4ebd 56cd 85bd 4b96 63bd
00000080: a950 62bd d148 213d 5fbf ecbc 087b 903c
00000090: 57af 1cbd f778 0a3d f7cf adbd 4636 e1bc
000000a0: 4600 493d 2a5c 903d 1997 7bbb 428e 403c
000000b0: a808 433d f05c 093d e023 fcbc ae5e 3b3c
000000c0: 084d ac3d 046d 3a3d d955 983d 73fa a8bd
000000d0: 3cd8 91bd 4a78 48bd 2a17 943d e4dd 83bc
000000e0: d8be 15be 9d0d 92bb 6367 2bbd b31a 2d3d
000000f0: 033c e5bb 508e b9bd 2899 623d 7252 053d
00000100: 3eb5 20bb 86f9 ccbd a55f 883d 917d a6bd
00000110: 50e4 233d b437 ae3c 93cb 38bd b83d 91bc
00000120: 90fd 04bd fd9c e0ba e5c2 4ebd 93f6 8abc
00000130: 97ab fc3c 6ae7 1738 44bc a13d 6529 fabd
00000140: ffd2 213d 5303 9a3d d3e4 1cbd 2365 723d
00000150: c38d ecbc 26e3 62bd 5012 5e3d f519 1ebc
00000160: a3a7 d23b 4ad8 edbd 7f87 013d 0cb5 2d3d
00000170: 2ed1 50bd 2ecc a2bd e066 ebbd e320 19bc
00000180: 333e 07bd 5bb2 87bd 4272 933d fff1 49bd
00000190: 26c7 93bd 0392 003d 9bb6 f33c aeb0 3c3d
000001a0: fe12 c03c b4b3 ecbc 5010 df3c b43f 47bd
000001b0: 3130 633d 9f96 283c ecf1 46bd ed80 923d
000001c0: d40a bcbc 4e42 9b3d ce23 52bd 3625 b73d
000001d0: d7af fbbc d1a8 28bd 5220 e1bd 892b 5c3d
000001e0: 89ee 3abd 4a3d a73c a3ae afbd 3d9a a33d
000001f0: 32be f8bc 9549 303c ed70 ddbc 99d2 cbbc
00000200: e772 cfbd 0f62 44bd 506f 003c 180c 5e3d
00000210: 4776 f13c 9dcf 003b a89a 023d 07c7 8abb
00000220: 0c07 643c 94e5 f7bc cd06 91be 8f42 cc3c
00000230: 8923 70bd 431e 163d bdef eabc 8236 7bbb
00000240: c53b 5d3c 5713 293d 6fb3 963c f622 03bd
00000250: 2ebc 963d 8b6f bc3b 5f7e f93c 8ca1 bd3c
00000260: 76e1 8dbd 1388 0cbd 00be aebd f2be 413d
00000270: b963 363c aef3 ea3c 0a99 d23c e3b3 883d
00000280: a12c 903c e4fa aa3d 7fb1 36bd 313d 65bd
00000290: 943c 9c3c f1f6 9e3d 1a66 823d 4268 653d
000002a0: 2a9e 99bc 6c02 0d3d 78b8 d53c e292 42bd
000002b0: cdfe 8f3b 2a02 55bd 26dc 343d 0040 dd3c
000002c0: 5662 afbb 5ccc 76bd ff28 38bd 16cc 093d
000002d0: 8d3d 5e3c 2ce2 2f3c 85d0 83bd 300b de3a
000002e0: fbfb 763c 4043 bbbe f852 43bd 4669 903d
000002f0: 0aae 223d 41fb debb 611d fdbc 599f 68bd
00000300: 53d3 153d 7b86 65bc 911a 49bd 9455 94bd
00000310: 91c0 c0bd d846 94bd eeda 1c3d 4273 a4bc
00000320: bdd6 523c f9d6 92bc 20e1 64bd 67ee 7dbd
00000330: b932 113d dfe7 31be 9998 de3c 664e 3ebd
00000340: 8c4c 69b9 2d30 7e3c f2c5 26be 9ac0 27be
00000350: 0e7c 763b 807f 4c3d c2cf 063d 29ea 02bd
00000360: 8a66 bd3d 21e6 ed3c ad52 8b3c 2a88 67bd
00000370: 6a69 d03c f574 15be 5e9a 6ebd 2ba6 bc3c
00000380: 1bb6 933d 43ef 923c bcc1 39bc 59a8 97bd
00000390: be56 743c 70e7 8d3d 3c1a 2cbd 7b04 3bbd
000003a0: 3ed9 32be 65d3 943d 21c1 6cbe f9b6 e1bd
000003b0: 5b65 cfbc 06b8 e1b9 cd8c 6f3d c209 8ab6
000003c0: 6c14 ec3c ff91 85bd ae41 e5bc 2fe0 a4bb
000003d0: 80c8 e03c 65e3 d63d d7b7 bebd 552b 1dbd
000003e0: e585 913d 179b 63bd 8bca cebc aeda aa3d
000003f0: 2828 60bd 3b40 843d 7317 b3bc 3b35 6fbd

bias f4 [60]
-0.04132132 -0.0011440424 0.03511848 -0.0007698349 -0.022630751 0.0030011884 0.026449671 0.0038178416
0.03804584 -0.0021660235 -0.06240827 -0.0042334036 -0.046592705 -0.0018123285 -0.03296113 -0.0020518526
-0.054665074 -0.014730049 0.047942016 0.0011994585 0.011107866 -0.0009412287 0.04578446 -0.001096891
-0.022308523 -0.00067637395 -0.0005074602 -0.00018367618 -0.018810092 -0.002814538 3.150122e-05 -0.0004903268
0.040482648 -0.0020122023 -0.00136043 -0.00412816 -0.048759297 0.0027700134 -0.027885301 -0.0010991996
0.0013985131 -0.0053194817 -0.010174095 -0.0015122804 0.0234227 -0.0027150926 -0.011188984 -0.00034441208
0.020876044 -0.00522807 0.009232484 -0.0022734355 -0.0062417653 -0.0019288328 0.0047101504 -0.0019790065
0.0038050143 -0.00094853505 -0.01982847 -0.002902705
00000000: 8b40 29bd b1f3 95ba 65d8 0f3d bfce 49ba
00000010: 2064 b9bc 96af 443b fbac d83c c134 7a3b
00000020: f4d5 1b3d d8f3 0dbb d09f 7fbd 5db8 8abb
00000030: fed7 3ebd a78b edba 4002 07bd 6078 06bb
00000040: 7ce8 5fbd 4e56 71bc d95e 443d 2637 9d3a
00000050: c4fd 353c cabc 76ba 7c88 3b3d 8ec5 8fba
00000060: 5dc0 b6bc b04e 31ba 1407 05ba 3399 40b9
00000070: 9f17 9abc 1d74 38bb 2d20 0438 4689 00ba
00000080: 22d1 253d 27df 03bb 7550 b2ba 8445 87bb
00000090: d4b7 47bd 1d89 353b b76f e4bc 0513 90ba
000000a0: 504e b73a 0c4f aebb 3fb1 26bc b637 c6ba
000000b0: f6e0 bf3c b2ef 31bb 0052 37bc 3592 b4b9
000000c0: 3d04 ab3c 3b50 abbb d843 173c ebfd 14bb
000000d0: b987 ccbb e4d0 fcba 9b57 9a3b 38b2 01bb
000000e0: 8c5d 793b 1ca7 78ba 516f a2bc 4f3b 3ebb
