linearPredictionModels/db39/small/cleanedCombine.csv_wholeNetPrototype5_Epochs_10_ValidationLoss0.052175_lr0.0006_2023_08_12_20:50:53.pth (torch, 992679 bytes, 8 tensors)

weight f4 [512, 145]
0	0xbd91ec53	-0.071251534
1	0x3d7bf4c0	0.06151271
2	0xbd90ca2f	-0.070698135
3	0xbaef5e9a	-0.0018262446
4	0x3cc4e80e	0.024036434
5	0x3dac294d	0.08406315
6	0x3d90145e	0.07035135
7	0x3cfaa20d	0.03059485
8	0xbd4fb809	-0.05071262
9	0xbd9a8cbd	-0.07546375
10	0xbd065c6e	-0.03280299
11	0xbcdd5847	-0.027019633
12	0xbd368441	-0.04455972
13	0xbcd8a253	-0.02644459
14	0x3c808a91	0.015691074
15	0x3d793a75	0.060846765
16	0xbd5ad039	-0.053421233
17	0x3d7d9a71	0.061914865
18	0xbdc32655	-0.09528796
19	0xbd82decb	-0.06390151
20	0xbca7156d	-0.020395959
21	0xbd23694a	-0.039895333
22	0x3c1e673c	0.009668168
23	0x3d9dbdae	0.07702194
24	0x3b9ee9a8	0.0048496313
25	0xbb24a50e	-0.0025122794
26	0xbd7cd769	-0.06172887
27	0xbd7f02e3	-0.062258612
28	0x3d00470c	0.031317756
29	0xbcdbdd39	-0.026838886
30	0x3ce3513c	0.027748697
31	0xbd805429	-0.06266052
32	0x3d54b55e	0.051930778
33	0x3d01ebde	0.03171908
34	0x3d7e32f2	0.062060304
35	0xbc533e9b	-0.012893344
36	0x3c40cd1a	0.01176765
37	0x3cc3c183	0.023895985
38	0x3d6f9a41	0.058496717
39	0xbc922ae1	-0.017842712
40	0xbcb90422	-0.022584978
41	0xbdab1ff1	-0.08355702
42	0xbc3272dd	-0.010891643
43	0x3c397d74	0.011321414
44	0xbd85b8de	-0.06529401
45	0x3d4f637a	0.050631978
46	0x3d89342c	0.06699404
47	0xbdab87a9	-0.083754845
48	0xbd05b528	-0.032643467
49	0x3cae3ab4	0.021268226
50	0x3d9b4905	0.07582287
51	0xbc6f467e	-0.014604209
52	0xbcb2c866	-0.021824073
53	0xbd9b65e3	-0.07587793
54	0xbcd5423d	-0.026032561
55	0xbae47f55	-0.0017432967
56	0x3c201f50	0.0097730905
57	0xbcefdc20	-0.029279768
58	0x3d83149a	0.06400414
59	0x3ce2b612	0.027674709
60	0xbc2a3c8c	-0.010390412
61	0xbb5e656a	-0.003393496
62	0x3d1728d8	0.036904186
63	0x3d7e34ed	0.062062193
64	0x3e4bb146	0.19891843
65	0xbe12a2d3	-0.14319925
66	0x3b2fa047	0.0026798414
67	0x3bb7f26c	0.0056136157
68	0xbd02e2cf	-0.031954583
69	0x3d77b715	0.060477335
70	0xbbcbb234	-0.006216312
71	0x3e048850	0.12942624
72	0x3db62ffa	0.088958696
73	0x3c99689e	0.018726643
74	0x3dd34b24	0.10317066
75	0x3dd70807	0.10499578
76	0x3ac91078	0.0015339991
77	0x3a052b48	0.0005079997
78	0x3bc7dd47	0.0060993764
79	0x3b51479b	0.003193355
80	0xbcce8a39	-0.025212394
81	0xbd6dc4ec	-0.058049127
82	0xbce97f32	-0.028503034
83	0x3d9bf775	0.07615558
84	0xbda850fd	-0.08218572
85	0xbd566572	-0.05234284
86	0xbd1e5749	-0.03865746
87	0x3da5a86f	0.08088767
88	0xbbb06c73	-0.005384022
89	0xbd87be82	-0.06628133
90	0x3b073437	0.0020630488
91	0x3da6a694	0.08137241
92	0xbd36e5c7	-0.044652727
93	0x3ca58e5e	0.020209488
94	0x3d83649a	0.064156726
95	0x3c02edfd	0.007991311
96	0xbccbefb0	-0.024894565
97	0x3d9ede75	0.07757274
98	0xbcb2cc33	-0.021825885
99	0xbd098ab3	-0.03357954
100	0xbd90c9dd	-0.07069752
101	0x3d0e9682	0.034811504
102	0x3ce91c24	0.028455801
103	0xbda2031d	-0.0791075
104	0x3d068bc2	0.032848127
105	0x3de1daee	0.11028086
106	0xba869e33	-0.0010270536
107	0x3d09cd2a	0.033642925
108	0xbb65dabf	-0.003507301
109	0x3d5aafeb	0.053390425
110	0xbd64823e	-0.05578827
111	0x3cab795a	0.020931888
112	0xbc8b3469	-0.016992765
113	0x3d81fcb3	0.06347027
114	0x3ce102ef	0.02746722
115	0xb9ff8db6	-0.00048742973
116	0xbd3365de	-0.04379832
117	0xbd467122	-0.048447736
118	0x3d18edad	0.03733604
119	0xbc2ebf46	-0.01066572
120	0xbd9d31d0	-0.076755166
121	0xbd23abcf	-0.03995877
122	0xbda42a74	-0.0801591
123	0x3cbdadf6	0.02315424
124	0xbd4c267c	-0.04984139
125	0xbd5454f1	-0.05183882
126	0xbd93fd5c	-0.07226059
127	0xbc4e8495	-0.012604852
128	0x3d23f593	0.04002912
129	0x3c0991d8	0.008396588
130	0x3d53a582	0.051671512
131	0x3c42adcb	0.011882256
132	0xbc990052	-0.01867691
133	0x3d872449	0.06598718
134	0x3d4dd67f	0.050253388
135	0x3d96646a	0.07343371
136	0x3c9f6981	0.019459488
137	0x3d8eab10	0.06966221
138	0xbd944a64	-0.072407514
139	0x3b7463cf	0.0037290936
140	0xbd8201f6	-0.0634803
141	0xbd8ea13a	-0.06964345
142	0x3d9f70a0	0.077851534
143	0x3caf3e30	0.021391958
144	0xbc41ffd1	-0.011840777
145	0x3d91f494	0.07126728
146	0x3c46a027	0.012123144
147	0xbdcf88ab	-0.10133489
148	0xbdbe5f81	-0.0929556
149	0xbbd8fd63	-0.006622003
150	0xbd968d4e	-0.073511705
151	0xbd4bcb51	-0.049754445
152	0xbd16a553	-0.03677876
153	0xbd659946	-0.056054376
154	0x3d4b9bea	0.049709238
155	0x3d768f3f	0.060195204
156	0x3d2e6b9d	0.042583097
157	0xbd875640	-0.06608248
158	0x3cabb61d	0.020960862
159	0x3c6782f2	0.014130341
160	0x3cd6c26b	0.026215753
161	0x3d228221	0.03967488
162	0xbbd362c2	-0.006450982
163	0xbdb1f627	-0.08689528
164	0x3c5fdfdb	0.013664211
165	0xbddada0a	-0.10686119
166	0xbde3273b	-0.11091467
167	0xbc0ae98d	-0.008478534
168	0x3d88a52c	0.06672129
169	0xbd954db7	-0.072902136
170	0xbd953967	-0.07286339
171	0x3c0cd10a	0.008594761
172	0x3b15d253	0.0022860959
173	0xbcf873ae	-0.030328598
174	0x3d3f5eaa	0.046721138
175	0x3cdf31d7	0.027245445
176	0xbdae3ad5	-0.08507315
177	0x3d889782	0.06669523
178	0x3ba4224d	0.005008972
179	0xbd9bf3ea	-0.07614882
180	0xbdcbcbe7	-0.09951001
181	0xbce47493	-0.027887618
182	0x3d8a1f4f	0.06744253
183	0xbd9954f5	-0.074869074
184	0x3d473eff	0.048644062
185	0x3c78adaa	0.0151781235
186	0xbde0b06f	-0.10971152
187	0x3d603446	0.05473735
188	0xbd594396	-0.05304297
189	0xbd644341	-0.0557282
190	0xbe4af330	-0.19819331
191	0xbc4f8d22	-0.012667926
192	0xbc2819ed	-0.010260087
193	0xbd6fb3e0	-0.05852115
194	0x3cc5a118	0.024124667
195	0x3c8e2f1b	0.017356446
196	0xbc31b442	-0.0108461995
197	0x3ccd8e56	0.025092285
198	0xbdb5fa89	-0.088856764
199	0x3d6141e5	0.054994483
200	0xbd8e21cf	-0.06940042
201	0xbc1e90b7	-0.009678057
202	0x3d672154	0.05642827
203	0x3d8b070a	0.06788452
204	0xbdb845a1	-0.08997656
205	0xbc1cfef1	-0.009582267
206	0x3d7f097d	0.062264908
207	0xbd3c11d6	-0.045915447
208	0x3d046d55	0.03233083
209	0xbe4d9ff1	-0.20080544
210	0xbcf8379a	-0.03029995
211	0xbdbe1553	-0.09281411
212	0x3cead485	0.02866579
213	0x3c0d0a3d	0.008608398
214	0xbd9c974e	-0.076460466
215	0xbd0f10f5	-0.03492828
216	0xbcfeb35c	-0.031091385
217	0xbd286fb0	-0.04112214
218	0x3d3926e0	0.04520309
219	0x3dff97af	0.12480103
220	0x3db5932d	0.08865962
221	0xbacb379a	-0.0015504241
222	0x3d811dcc	0.063045114
223	0x3d7f0762	0.0622629
224	0x3b1c0e57	0.0023812258
225	0xbe0f51e0	-0.13996077
226	0xbcd5c2c2	-0.026093844
227	0x3e0015b5	0.1250828
228	0xbd764016	-0.06011971
229	0xbd2317be	-0.039817564
230	0x3de82f2a	0.11337121
231	0x3d85333c	0.06503913
232	0x3cabaeb2	0.020957325
233	0xbdbaf16b	-0.09128078
234	0xbca3d418	-0.019998595
235	0xbd87fb0e	-0.06639682
236	0x3d3bd73b	0.045859557
237	0x3c749d8c	0.01493014
238	0xbd77c167	-0.060487177
239	0x3dbaba92	0.09117617
240	0xbdc8ff53	-0.09814324
241	0xbc375ba0	-0.011191279
242	0xbba6239f	-0.0050701643
243	0xbda70300	-0.08154869
244	0x3d586ca0	0.052837968
245	0xbcb74c4a	-0.022375245
246	0x3df3c7ab	0.11903318
247	0x3d49a64e	0.049230866
248	0x3d2690e2	0.040665515
249	0xbd84f7bb	-0.06492563
250	0xbd36eb57	-0.04465803
251	0xbc798142	-0.015228571
252	0x3bbedd2e	0.0058247065
253	0xbd87d3f7	-0.06632226
254	0x3a1b4c5f	0.0005924161
255	0x3da48f10	0.080350995

bias f4 [512]
0	0x3d601a9a	0.05471287
1	0x3d7581b7	0.05993816
2	0xbd82b3d2	-0.06381954
3	0xbd4aedd7	-0.049543228
4	0x3d01c129	0.031678353
5	0xbd285937	-0.041100707
6	0xbd078c86	-0.033092998
7	0x3bbed528	0.00582375
8	0xbd333695	-0.043753225
9	0xbce66919	-0.028126286
10	0x3d25f656	0.040518127
11	0xbd83571e	-0.06413101
12	0xbd9e994f	-0.07744085
13	0xbc0bc646	-0.008531159
14	0x3d27a55e	0.04092919
15	0x3d83dd70	0.0643872
16	0xbad48ead	-0.0016216837
17	0x3d32353c	0.0435078
18	0x3d113b01	0.03545666
19	0x3d29e4e4	0.041478053
20	0x3d27af21	0.0409385
21	0x3cecd1f8	0.028908715
22	0xbda1d69a	-0.0790226
23	0x3d3f9af2	0.046778627
24	0x3d708167	0.058717158
25	0xbd48e209	-0.04904369
26	0xbd48ddaf	-0.04903954
27	0xbc5d96b5	-0.013524701
28	0xbbecdc9d	-0.0072284476
29	0x3c88ac69	0.016683774
30	0xbd38bb19	-0.045100305
31	0xbd698013	-0.057006907
32	0x3ccb5d03	0.024824625
33	0xbc8db73e	-0.01729929
34	0xbcab2305	-0.020890722
35	0x3cf41b71	0.029798241
36	0xbd6d3299	-0.05790958
37	0x3bce51b1	0.0062963595
38	0x3d09db12	0.033656187
39	0x3ba07138	0.004896309
40	0x3c06e960	0.008234352
41	0x3d867bb4	0.06566563
42	0xbd7ad4f9	-0.061238263
43	0xbd5dde2a	-0.05416695
44	0x3d3ced6e	0.046124868
45	0x3d582007	0.05276492
46	0xbcc8f59e	-0.024531182
47	0xbd65f1f0	-0.056138933
48	0x3d0bcb90	0.03412968
49	0xbdc9fe3e	-0.09862946
50	0xbc9951bf	-0.018715737
51	0x3d2b14c5	0.041767854
52	0xbc78e888	-0.0151921585
53	0xbd096621	-0.033544663
54	0x3c8e0e30	0.01734075
55	0xbd331dfb	-0.043729763
56	0xbd6bcb2a	-0.0575668
57	0xbd77da35	-0.060510833
58	0x3cdf7293	0.027276313
59	0x3cef8fe1	0.029243411
60	0xbcbca0f7	-0.023025973
61	0xbd8c31ec	-0.06845459
62	0x3c893fab	0.016753992
63	0xbd928cd0	-0.07155764
64	0xbb5111b2	-0.0031901416
65	0x3d9fa2ab	0.07794698
66	0x3d40ff0e	0.04711824
67	0xbd93c712	-0.07215704
68	0x3d16e7ed	0.036842275
69	0x3d8c6444	0.06855062
70	0xbd072ff8	-0.03300473
71	0x3da20b85	0.079123534
72	0xbd58bf7a	-0.05291698
73	0x3cc815c1	0.024424436
74	0x3cb98a46	0.022648942
75	0x3d5806c1	0.052740816
76	0x3d9892e5	0.07449893
77	0xbc91d4aa	-0.017801601
78	0xbd0bdef6	-0.03414818
79	0xbdabffb4	-0.08398381
80	0x3c9ed0a4	0.019386597
81	0xbd4e5602	-0.050374992
82	0xbdb6c5d5	-0.08924452
83	0xbd43bf57	-0.047789898
84	0x3a38acc8	0.00070447894
85	0x3d4e9820	0.050438046
86	0x3b9c9e0a	0.004779582
87	0x3c7c5614	0.015401382
88	0x3c4358a7	0.011922992
89	0x3d94e0b1	0.07269419
90	0x3c26f54f	0.010190322
91	0xbd337556	-0.043813072
92	0x3d7acfc6	0.061233304
93	0xbc43b387	-0.011944658
94	0xbd0c4937	-0.03424951
95	0xbd5f3d35	-0.05450173
96	0xbcb223ba	-0.021745551
97	0xbd69a979	-0.057046387
98	0x3d8d61ac	0.06903395
99	0x3ab65e45	0.0013913593
100	0x3c358d3f	0.011081039
101	0x3d1ffdda	0.03906045
102	0xbd8ef2e9	-0.06979925
103	0xbc52281c	-0.012826946
104	0xbb5d9920	-0.0033813193
105	0xbd3fcb39	-0.046824668
106	0xbdb8b5fc	-0.09019086
107	0xbca0a476	-0.019609671
108	0x3cfa4d1d	0.030554349
109	0xbd4939cf	-0.049127396
110	0xbd3bcf69	-0.0458521
111	0x3d033d6f	0.03204101
112	0xbd8c6346	-0.068548724
113	0xbd5c4731	-0.05377883
114	0x3d95e7f7	0.073196344
115	0x3da6aa21	0.08137918
116	0xbd90b864	-0.0706642
117	0xbc50188b	-0.012701164
118	0x3cd7bbd1	0.026334675
119	0x3d2af545	0.041737814
120	0x3d54baee	0.051936083
121	0xbd1edbec	-0.038783953
122	0xbd65a241	-0.05606294
123	0xbdd00182	-0.101565376
124	0xbdb64d10	-0.08901417
125	0xbd1ebe17	-0.038755503
126	0xbd20d3b5	-0.0392644
127	0xbcf9e213	-0.030503308
128	0xbd98318e	-0.07431327
129	0xba2a7a59	-0.00065032166
130	0xbcfccb83	-0.03085876
131	0x3d86e496	0.06586568
132	0xbcead391	-0.028665336
133	0xbbe15604	-0.006876709
134	0xbc80b92b	-0.015713295
135	0xbbecedb5	-0.0072304853
136	0xbd90570b	-0.07047852
137	0xbd9daff0	-0.07699573
138	0x3d7c07cf	0.061530884
139	0xbcb9dfef	-0.022689788
140	0x3d8dde40	0.069271564
141	0xbc71c212	-0.014755743
142	0xbd7d07dc	-0.061775073
143	0x3d3b8f90	0.04579121
144	0x3d23c978	0.039987057
145	0x39370b1c	0.00017456379
146	0x3caa845d	0.020815069
147	0x3cb8b74c	0.02254834
148	0xbd6ff264	-0.05858077
149	0xbdc2f54c	-0.09519443
150	0xbd01d99a	-0.03170166
151	0xbd194fa8	-0.03742948
152	0x3d52419e	0.05133211
153	0x3c108fba	0.00882333
154	0xbd0fb859	-0.035087917
155	0x3ccd5afb	0.025067797
156	0xbc6c4136	-0.014419844
157	0xbbc1370d	-0.005896455
158	0x3d99874f	0.07496511
159	0x3d71a319	0.058993433
160	0xbd06d3c7	-0.03291681
161	0x3c9ad403	0.018899923
162	0xbd116541	-0.035496954
163	0x3d0d77ae	0.034537964
164	0xbd9ef8a2	-0.07762267
165	0x3d2194f2	0.039448686
166	0x3d8df9db	0.06932422
167	0x3bfdb76b	0.0077428124
168	0xbd9a2e5d	-0.07528374
169	0xbdad8a42	-0.08473636
170	0x3d576b6e	0.052592687
171	0xbd197bea	-0.03747169
172	0xbcd11a55	-0.025525251
173	0x3d0b3b8a	0.033992328
174	0x3cf6b508	0.03011562
175	0x3d2046b4	0.039129928
176	0xbc886066	-0.016647529
177	0x3d3ec4c5	0.046574373
178	0xbda391f2	-0.07986821
179	0xbcb8dbe4	-0.02256579
180	0xbd3e4572	-0.046452947
181	0xbc1288cd	-0.008943749
182	0xbca2f7d6	-0.019893568
183	0x3d6103c9	0.05493525
184	0xbd27fa37	-0.041010108
185	0xbcdb1267	-0.026742173
186	0xbd39da03	-0.045373928
187	0x3d82cb40	0.06386423
188	0x3d54c85b	0.051948886
189	0x3d2b49e7	0.041818526
190	0x3d95d9a3	0.073169015
191	0xbc82f602	-0.015986446
192	0xbcab5faa	-0.02091964
193	0x3d896800	0.067092896
194	0xbc24d536	-0.010060599
195	0xbd7f9786	-0.062400363
196	0xbd9976cf	-0.07493364
197	0x3c5a9a11	0.013342396
198	0xbda0e20f	-0.07855617
199	0x3d6855ad	0.05672233
200	0x3d336b35	0.043803412
201	0xbd94b79a	-0.07261582
202	0xbda4aba1	-0.08040548
203	0x3d3a3de4	0.04546918
204	0xbca7afc0	-0.020469546
205	0xbc8fcac5	-0.017552743
206	0x3da4d526	0.08048467
207	0xbd6bd36f	-0.057574686
208	0x3d83c243	0.06433537
209	0xbd84c01d	-0.06481955
210	0xbbc88fb2	-0.0061206454
211	0xbd28423b	-0.041078787
212	0x3a6a140e	0.000892938
213	0x3db36458	0.087593734
214	0xbcbae0e9	-0.022812324
215	0x3a6b7fdd	0.00089835917
216	0xbd9bfaa9	-0.07616169
217	0x3becc6f4	0.0072258655
218	0xbd2f7530	-0.042836368
219	0x3c29d947	0.010366744
220	0xbb1b4eb6	-0.0023698038
221	0xbd74125e	-0.05958783
222	0x3c169c8b	0.009192596
223	0xbd9ece3d	-0.077541806
224	0xbc43f4fa	-0.011960262
225	0xbd54e62f	-0.051977333
226	0x3a029a63	0.0004982112
227	0xbd5e97f8	-0.054344147
228	0xbdbeb7fc	-0.09312436
229	0xbcf69768	-0.030101493
230	0x3d4a767c	0.0494294
231	0xbd2d364d	-0.042288113
232	0xbd4f4596	-0.05060347
233	0x3d1a1124	0.037614003
234	0xbd45148c	-0.0481153
235	0xbda3fb0d	-0.080068685
236	0xbdafe0cd	-0.08587799
237	0xbb86d5fe	-0.0041148653
238	0x3d7272fb	0.059191685
239	0x3c708c94	0.014681954
240	0xbd070840	-0.032966852
241	0x3d290c5d	0.041271556
242	0xbad47d85	-0.0016211724
243	0xbd97cda1	-0.074122675
244	0xbd817430	-0.06320989
245	0x3d29005d	0.041260112
246	0xbd975eea	-0.0739115
247	0xbd952c19	-0.072838016
248	0xbd94dfc5	-0.07269243
249	0xbd415d71	-0.047208253
250	0xbd304400	-0.0430336
251	0xbd5a0261	-0.053224925
252	0xbcd71e1f	-0.02625948
253	0xbda89af7	-0.08232682
254	0x3d329dfc	0.043607697
255	0x3cdea42b	0.02717789

weight f4 [256, 512]
0	0xbd1bd1d4	-0.038041905
1	0x3d1886ad	0.03723781
2	0xbc908d03	-0.017645365
3	0xbcc599ac	-0.024121128
4	0x3d40e53b	0.04709361
5	0xbafab512	-0.001912745
6	0xbcd83406	-0.026391994
7	0xbc02308f	-0.007946148
8	0xbd2d1bb3	-0.042262744
9	0xbccd2926	-0.025044035
10	0x3c71e8fb	0.0147650195
11	0xbccecc8c	-0.02524402
12	0xbd524aba	-0.051340796
13	0xbd05b5d8	-0.032644123
14	0x3c9537c7	0.018215073
15	0x3cc3a1df	0.023880897
16	0xb9f19b05	-0.000460826
17	0xbcbe6faa	-0.023246605
18	0x3cc30768	0.023807243
19	0xbac79ac6	-0.0015228621
20	0xbc6b3cd9	-0.014357769
21	0x3d022cf7	0.031781163
22	0x3b846e94	0.0040415023
23	0x3c5be88b	0.013422142
24	0xbb59dd72	-0.0033243564
25	0xbd1fded0	-0.03903085
26	0x3c20f0d3	0.009823042
27	0x3c8ba5ef	0.017046897
28	0xbc959fdb	-0.018264702
29	0xbd08b140	-0.033372164
30	0xbd530e82	-0.051527508
31	0xbcf8a4e0	-0.030352056
32	0xbd324b90	-0.043529093
33	0xbd625f6b	-0.05526678
34	0xbc874872	-0.016514037
35	0xbc809ea0	-0.015700638
36	0x3ce5e3b3	0.028062677
37	0xbc9fcb1f	-0.019506035
38	0xbc845abb	-0.016156545
39	0xbd018387	-0.031619575
40	0x3cfa34af	0.0305427
41	0xbd21e526	-0.039525174
42	0xbccf60fc	-0.0253148
43	0xbce44733	-0.027865982
44	0x3d042398	0.032260507
45	0x3c7f230a	0.015572319
46	0xbc9a5f64	-0.018844314
47	0xbd37b6e1	-0.04485214
48	0xbd04fa87	-0.032465484
49	0x3c67815b	0.014129962
50	0x3c8886e9	0.016665893
51	0x3c6b7e82	0.0143734235
52	0x38f64862	0.000117436764
53	0x3b2dcaa6	0.0026518493
54	0xbb021920	-0.0019851401
55	0x3c0bd43b	0.008534486
56	0xbbf84931	-0.0075770845
57	0xbc81ded6	-0.015853327
58	0xbd55b9cc	-0.052179143
59	0xbb973a38	-0.0046150945
60	0xbd2cc03f	-0.042175528
61	0x3c60d362	0.013722273
62	0x3c33f347	0.010983295
63	0xbc849b92	-0.016187463
64	0xbc7c5bd1	-0.01540275
65	0x3d4c2c0b	0.04984669
66	0x3cd07b70	0.025449485
67	0xbbea1c37	-0.0071444768
68	0xbcccd346	-0.025003087
69	0xbc8aa383	-0.016923672
70	0x3cd334d6	0.02578203
71	0x3c770773	0.01507746
72	0x3c8959e5	0.016766498
73	0x3c55f5d9	0.013059103
74	0x3c698b48	0.014254399
75	0xbc62e160	-0.013847679
76	0x3d1e2842	0.03861261
77	0x3d25cb8b	0.040477317
78	0xbc6805e8	-0.014161564
79	0xbd392688	-0.045202762
80	0xbd145341	-0.03621221
81	0xbcd3e80b	-0.025867483
82	0x3ce07ef3	0.027404284
83	0x3ccdaef1	0.025107833
84	0xbc90654b	-0.017626425
85	0xbc18209f	-0.009285121
86	0xbbe2c8f9	-0.0069209305
87	0x3ccb9bb8	0.024854526
88	0x3ca55a22	0.02018458
89	0xbd17fccb	-0.037106317
90	0x3ced0293	0.028931892
91	0x3cfe265b	0.031024149
92	0xbd0dbe30	-0.034605205
93	0x3cff0b40	0.031133294
94	0xbd27d032	-0.040970035
95	0x3cc2992e	0.023754682
96	0x3c7f6762	0.015588613
97	0x3bc1d776	0.0059155775
98	0xbccb2763	-0.024799054
99	0xbb8737e6	-0.0041265367
100	0x3cd85b2e	0.026410665
101	0xbcf0d4b6	-0.029398303
102	0x3cfcbc90	0.030851632
103	0xbc95546a	-0.018228728
104	0x3b1dff9a	0.002410865
105	0xbccef468	-0.025263026
106	0x3cf3f849	0.029781478
107	0xbd11a96d	-0.035561968
108	0xbcd41d1f	-0.025892792
109	0xbcf83dcf	-0.03030291
110	0x3c5f95f5	0.013646592
111	0x3c9ac08f	0.018890647
112	0xbbb6bc49	-0.0055766446
113	0x3cef9896	0.029247563
114	0xbca2d267	-0.019875718
115	0xbca388c3	-0.019962674
116	0xbc8eb39f	-0.017419634
117	0xbccbb919	-0.024868535
118	0x3c661012	0.014041917
119	0x3c1fc37b	0.009751196
120	0x3d109e87	0.035307433
121	0x3c70d242	0.014698567
122	0x3d31d2e7	0.043414023
123	0x3cb21ba4	0.021741696
124	0xbc33fa5b	-0.010984982
125	0xbd66a9b1	-0.056314174
126	0x3c97d319	0.018533276
127	0xbc929de1	-0.017897548
128	0xbd4fd376	-0.050738774
129	0xbd021ff3	-0.03176875
130	0xbc93edf0	-0.018057793
131	0xbaeec27e	-0.0018215922
132	0xbd04d85c	-0.0324329
133	0xbc6bf26c	-0.01440106
134	0xbc9bb4cc	-0.01900711
135	0xbc046339	-0.008080297
136	0xbbf1684f	-0.007367171
137	0xbd33fe61	-0.043943767
138	0xbd608a40	-0.054819345
139	0xbc01a6ef	-0.007913335
140	0x3c377414	0.011197109
141	0xbd1de10b	-0.038544696
142	0x3c882422	0.016618792
143	0xbaaa3adb	-0.0012987511
144	0xb9b65b06	-0.00034781563
145	0x3c855993	0.016278064
146	0x3cf711f3	0.030159926
147	0x3ccdbeb8	0.025115356
148	0x3cb00e8c	0.021491311
149	0x3b8a7f47	0.0042265984
150	0x3c268f87	0.0101660555
151	0x3bd63166	0.0065366505
152	0xbd5a02df	-0.053225394
153	0xbcd6e002	-0.026229862
154	0xbca50774	-0.020145155
155	0xb9e3822a	-0.00043393794
156	0xbd293be5	-0.041316886
157	0xbc8d5511	-0.017252477
158	0xbd492614	-0.04910858
159	0x3cce3d36	0.025175672
160	0x3a6549b5	0.000874664
161	0xbc5c8621	-0.013459713
162	0x3bac9c67	0.005267668
163	0xbc8e52ff	-0.01737356
164	0x370fdfa9	8.575539e-06
165	0xbcd7ddec	-0.026350938
166	0xbc99e0e4	-0.018783994
167	0xbcfd7d52	-0.030943546
168	0x3a9fd342	0.0012193697
169	0x3cf8a82d	0.03035363
170	0xbc4ea831	-0.012613342
171	0xbd381653	-0.044943165
172	0x3d070a37	0.032968726
173	0xbbecf440	-0.0072312653
174	0x3ce2f00a	0.02770235
175	0xbd4e3f08	-0.05035308
176	0xbcb26404	-0.021776207
177	0xbd4123ce	-0.047153287
178	0xbd24cb5c	-0.040233
179	0xbd1ce5a6	-0.038304947
180	0x3c714e5e	0.014728157
181	0xbd0be5d4	-0.034154728
182	0xbcf30cf8	-0.02966927
183	0x3d1f0fdc	0.038833484
184	0x3c0a7a20	0.008451968
185	0xbba7d71c	-0.0051220786
186	0xbd2f4492	-0.042790003
187	0xbd574f75	-0.05256601
188	0xbd2434ea	-0.040089525
189	0x3cc7a25a	0.024369407
190	0xbbdbf611	-0.006712683
191	0x3b84439b	0.0040363795
192	0x3c83e4fa	0.016100395
193	0xbcd10bca	-0.025518317
194	0x3bb65459	0.0055642542
195	0xbd1add4f	-0.037808713
196	0xbc5f625c	-0.013634291
197	0x3cd8c8c5	0.026462922
198	0xbd1911b0	-0.037370384
199	0x3ca227ee	0.01979443
200	0xbc00e8c8	-0.007867999
201	0xbc2e2153	-0.010628062
202	0xbcbb79c5	-0.022885213
203	0x3d049598	0.032369226
204	0xbd2a6bf4	-0.04160686
205	0xbd028010	-0.03186041
206	0x3cd92e08	0.026511207
207	0x3aeb9931	0.0017974732
208	0xbc2d6c0d	-0.010584843
209	0x3a584256	0.0008249631
210	0x3ceac7ec	0.028659783
211	0xbc1f15b5	-0.009709765
212	0xbc35c487	-0.011094219
213	0xbc878539	-0.016543018
214	0xbbe65093	-0.007028648
215	0xbd3fe90d	-0.046853114
216	0xbc98b04f	-0.018638758
217	0xbba67716	-0.005080114
218	0xbd2b8d95	-0.04188307
219	0xbd27d48b	-0.04097418
220	0x3d19ba93	0.037531447
221	0xbd52464d	-0.051336575
222	0xbd1a1689	-0.037619147
223	0xbc0c8429	-0.008576431
224	0xbc990d2c	-0.018683039
225	0xbc1d4908	-0.009599932
226	0xbd6090df	-0.05482566
227	0x3d119bf9	0.035549138
228	0x3c6a567d	0.014302847
229	0x3d00d962	0.031457312
230	0xbc243216	-0.010021707
231	0xbce00501	-0.027346136
232	0x3cb1cd83	0.021704441
233	0x39b2a369	0.00034072556
234	0xbce13554	-0.02749125
235	0xbcbf909c	-0.023384385
236	0xbcff9461	-0.031198682
237	0xbd124751	-0.035712544
238	0xbc98e679	-0.018664585
239	0x3cbdb9a3	0.023159808
240	0xbc05eaad	-0.008173627
241	0x3b9871e3	0.004652248
242	0xbccfd5ad	-0.025370443
243	0xbba9bbbf	-0.005179852
244	0xbcb35062	-0.021888915
245	0xbc53f825	-0.01293758
246	0xbc15c523	-0.009141239
247	0xbd1d77d5	-0.03844436
248	0xbcb40875	-0.021976689
249	0x3c304259	0.010758006
250	0xbd1193fe	-0.035541527
251	0xbcda59f9	-0.02665423
252	0xbd04e162	-0.032441504
253	0x3c5c6b35	0.0134532945
254	0x3c8b877e	0.017032381
255	0xbc904af2	-0.017613862

bias f4 [256]
0	0xbca8ada3	-0.020590609
1	0x3d1a8a1f	0.03772938
2	0xbd4c9281	-0.049944405
3	0x3c2a3ff4	0.010391224
4	0x3d6635e6	0.056203745
5	0x3c78853b	0.015168483
6	0xbce81305	-0.028329382
7	0xbcf8959f	-0.030344782
8	0xbd55ea7e	-0.052225582
9	0xbd5431b7	-0.051805224
10	0x3d1e608d	0.038666297
11	0xbd1359ea	-0.03597442
12	0xba4e60bd	-0.00078726915
13	0xbc9b33fe	-0.01894569
14	0xbca7eb1e	-0.020497855
15	0xbc661bca	-0.014044711
16	0xbd40ca87	-0.047068145
17	0x3cc5ac59	0.024130033
18	0xbbecf0a4	-0.007230835
19	0x3bd0edbd	0.006375997
20	0x3c7fa1f0	0.015602574
21	0x3c4f57ca	0.012655208
22	0x3d08121f	0.033220407
23	0xbcbe72f3	-0.023248171
24	0xbb759132	-0.0037470576
25	0xba06cf5a	-0.0005142592
26	0xbcc4afd2	-0.024009619
27	0xbd2ad93b	-0.041711073
28	0xbd02db4c	-0.03194742
29	0xbcbaf9c0	-0.022824168
30	0x3c8407c5	0.016116986
31	0xbd2975cf	-0.041372117
32	0xbc330fb0	-0.010929033
33	0xbc513a42	-0.012770237
34	0xbb1aa424	-0.002359637
35	0xbce2691f	-0.027638016
36	0xbc6f9068	-0.0146218315
37	0xbbfab3ad	-0.0076508136
38	0xbc16e91c	-0.009210851
39	0xbd082bda	-0.033244945
40	0x3c95aad9	0.018269943
41	0xbd0481dc	-0.032350406
42	0x3d0fd208	0.03511241
43	0xbd507cdd	-0.05090033
44	0xbc8c1354	-0.01709906
45	0xbcdae271	-0.026719304
46	0xbaf20b25	-0.0018466456
47	0x3d2dcd8b	0.04243235
48	0x3ccc17e7	0.024913741
49	0x3d38ca6f	0.04511493
50	0xbcb7dfcd	-0.022445584
51	0xbacec641	-0.0015775637
52	0x3cd43d16	0.025908034
53	0x3c7ddfae	0.015495224
54	0xbc9ee664	-0.019396968
55	0xbce3ddc3	-0.027815705
56	0x3c22a430	0.009926841
57	0x3cd377d5	0.025813976
58	0xbc88f65c	-0.016719036
59	0xbd6867cf	-0.056739625
60	0xbc3aa1dd	-0.01139113
61	0x3cb0c751	0.021579416
62	0x3c30c77b	0.010789747
63	0xbcbd78e2	-0.02312893
64	0xbd09c1d1	-0.033632103
65	0x3c97ec8e	0.018545415
66	0xbd3527e9	-0.044227514
67	0x3c8cb231	0.017174812
68	0xbd28f75b	-0.04125152
69	0x3c61d06d	0.013782603
70	0xbc6e4948	-0.014543839
71	0xbcc4a4b4	-0.024004318
72	0xbd7b01df	-0.06128108
73	0x3c38d1cb	0.011280487
74	0xbc495eda	-0.012290681
75	0xbd1ab707	-0.037772205
76	0xbd5f47ee	-0.054511957
77	0x3ccf8e0c	0.025336288
78	0xbb95e808	-0.0045747794
79	0x3b08538b	0.0020801749
80	0xbc7ac9ab	-0.01530687
81	0xbbfa7fa1	-0.007644609
82	0x3cc08b44	0.023503907
83	0xbd39b0c1	-0.04533458
84	0xbd683454	-0.05669053
85	0x3cda6d3d	0.026663417
86	0xbd6ebe17	-0.058286753
87	0xbc542c57	-0.012950025
88	0x3cc9b66b	0.024623116
89	0x3cacce73	0.021094536
90	0x3d8721f5	0.06598274
91	0x3ccfdf64	0.025375076
92	0x3d2fd7dc	0.04293047
93	0xbd34c430	-0.04413241
94	0xbc639889	-0.013891348
95	0x3d044f1b	0.032302003
96	0xbd1bfb11	-0.038081232
97	0xbc743a6d	-0.014906508
98	0x3c4718b4	0.012151886
99	0xbcdfaa75	-0.02730296
100	0xbc0dddce	-0.008658839
101	0x3c0d540a	0.0086259935
102	0xbcb2f594	-0.021845616
103	0xbd4bb437	-0.049732413
104	0x3bf8ee25	0.0075967484
105	0x3cc4c231	0.024018379
106	0xbc0d5ffe	-0.008628843
107	0xbcd9412e	-0.026520338
108	0xbc0e3cd8	-0.0086814985
109	0x3cb66bc2	0.02226818
110	0x3c9ee6f4	0.019397236
111	0xbc72572c	-0.014791291
112	0xbcca4981	-0.024693253
113	0x3cc736a6	0.02431805
114	0x3d0a11bd	0.033708323
115	0x3c4dbc90	0.012557164
116	0x3cbb0ec2	0.022834186
117	0x3ccb4b54	0.024816193
118	0xbcf344ae	-0.029695835
119	0xbd210265	-0.039308924
120	0x3d853fd9	0.065063186
121	0xbd0feed3	-0.03513987
122	0xbb6a35fb	-0.0035737741
123	0xbd5cd1b0	-0.05391091
124	0xbd320c64	-0.043468848
125	0x3d30ebbd	0.043193568
126	0x3c9e9312	0.019357238
127	0xbd6a4770	-0.057197034
128	0xbd053359	-0.032519672
129	0x3c8062ed	0.015672171
130	0x3cb278a6	0.021786045
131	0x3cf82457	0.030290766
132	0xba40e895	-0.0007358876
133	0x3caaf624	0.020869322
134	0xbb0505a8	-0.002029756
135	0x3d38695a	0.045022346
136	0xbcf3d8fa	-0.029766548
137	0xbb0b1f9b	-0.0021228555
138	0xbd2b13b5	-0.04176684
139	0x3cbc5cb1	0.022993417
140	0xbd4bcca2	-0.0497557
141	0x3bb39462	0.005480335
142	0x3d3e0335	0.046389777
143	0xbd63585a	-0.05550418
144	0x3cecc379	0.028901802
145	0xbcc67974	-0.024227835
146	0xbcd1e182	-0.025620226
147	0x3b0ffd42	0.0021971022
148	0xbca03bd2	-0.019559775
149	0x3c968fd5	0.018379131
150	0xbc802788	-0.01564385
151	0x3c2d34dc	0.010571685
152	0xbcc22d56	-0.023703258
153	0xbd5b6998	-0.0535675
154	0x3b5b6eb4	0.0033482732
155	0x3ce343a6	0.027742218
156	0x3cdc85c5	0.026919255
157	0x39987eb7	0.0002908611
158	0xbd21660e	-0.039403968
159	0xbca3b596	-0.019984048
160	0x3be7cd64	0.007074045
161	0x3cea2781	0.02858329
162	0xbd07de1f	-0.033170816
163	0x3c792574	0.015206683
164	0x3c68fc1d	0.014220265
165	0xbd3bfdd4	-0.045896366
166	0x3c4a2e3e	0.012340127
167	0x3bd3acd8	0.0064598136
168	0xbbfbe77f	-0.0076875086
169	0x3cdb144c	0.026743077
170	0xbc0f11ca	-0.008732269
171	0xbb86115e	-0.004091426
172	0x3be41dc7	0.0069615575
173	0xbcf9eef4	-0.03050945
174	0xbc36e8d8	-0.011163913
175	0xbae16793	-0.0017197005
176	0x3a8f391c	0.0010927054
177	0x3c8dd432	0.017313097
178	0xbc69f5e1	-0.0142798135
179	0x3c9b8195	0.018982688
180	0x3cd38766	0.025821399
181	0x3cd8e826	0.026477885
182	0xbc28c9b0	-0.010301992
183	0x3c974e15	0.01846985
184	0xbd1ab672	-0.03777165
185	0xbd047b20	-0.032343984
186	0xbd0e4c24	-0.034740582
187	0xbcf9aee3	-0.0304789
188	0xbd6890d1	-0.056778733
189	0xbc5c1c5e	-0.013434498
190	0xbb253a4e	-0.0025211754
191	0x3c5a76c5	0.013333981
192	0x3d31f564	0.043446913
193	0x3d3c88d2	0.04602892
194	0xba7f1ee0	-0.0009732079
195	0xbc45692b	-0.012049
196	0xbc51f36d	-0.012814385
197	0xbd270daa	-0.040784515
198	0xbaf846f7	-0.0018942048
199	0xbc8b2ff7	-0.016990645
200	0x3ca40fc1	0.020027043
201	0xbd2c25b1	-0.042028133
202	0xbca92e3a	-0.020651925
203	0xbb706a33	-0.0036684393
204	0xbca477b1	-0.020076605
205	0xbb71cdbe	-0.0036896314
206	0xbb477efe	-0.0030440683
207	0x3b9fbaec	0.0048745777
208	0xbcaaaa92	-0.020833287
209	0xbc2b6ac8	-0.01046247
210	0xbb6f7daf	-0.003654342
211	0x3c51f71c	0.012815263
212	0x3d238bf5	0.039928395
213	0x3d200877	0.039070573
214	0x39b349e6	0.000341966
215	0x3c55309d	0.013012079
216	0xbc07a172	-0.008278238
217	0xbd474d9e	-0.048658006
218	0x3cc5f279	0.024163472
219	0x3c969836	0.018383127
220	0x3d288042	0.04113794
221	0x3b50a195	0.0031834592
222	0xbb8db41e	-0.00432445
223	0x3c80e762	0.015735332
224	0xbbf3f404	-0.0074448604
225	0xbd7cb2e0	-0.061694026
226	0xbc7c2c26	-0.015391385
227	0x3d8cfbfe	0.06884001
228	0x3cedd5a5	0.029032538
229	0xbcd77f6e	-0.02630588
230	0x3cb8df97	0.022567553
231	0x3ae80de4	0.0017704335
232	0xbca1197f	-0.019665478
233	0xbd344b90	-0.044017375
234	0x3ca31ba4	0.019910641
235	0x3a7ef029	0.00097251177
236	0xbd1f3a46	-0.038873933
237	0x3d40d728	0.04708019
238	0xbd66da23	-0.056360375
239	0x3ca2c0bd	0.019867295
240	0xbcd6c629	-0.026217537
241	0xbd6afb70	-0.057368696
242	0xbc93a8fe	-0.018024918
243	0x3cafd97a	0.021466006
244	0x3d8b8772	0.068129435
245	0x39fc8bb7	0.0004816928
246	0xbd08f774	-0.033439115
247	0x3d1c8aa4	0.038218156
248	0xbd0656dd	-0.032797683
249	0x3c78d8c1	0.015188397
250	0xba8aed17	-0.0010599223
251	0xbbc7cc82	-0.0060973773
252	0xbd107500	-0.03526783
253	0x3ccaf63a	0.024775613
254	0xbd4513cf	-0.048114594
255	0xbd33ae31	-0.043867294

weight f4 [128, 256]
0	0x3d2d1324	0.042254582
1	0xbabf8e30	-0.0014614519
2	0xbcdabcbc	-0.026701324
3	0xbd2b427e	-0.04181146
4	0xbd9f52b5	-0.07779447
5	0xbd863aab	-0.06554159
6	0x3c5a787b	0.013334389
7	0xbc69893a	-0.014253909
8	0x3d39557f	0.04524755
9	0x3d435cf2	0.04769606
10	0xbd3fbad8	-0.046809047
11	0x3cd9a649	0.026568549
12	0xbdc037bb	-0.0938563
13	0x3d4ccfe5	0.05000295
14	0x3ce852f4	0.028359868
15	0xbd874bee	-0.06606279
16	0xbc368ab6	-0.01114147
17	0x3d59622e	0.053072147
18	0x3cba0d6c	0.022711478
19	0x3b5c1be0	0.003358595
20	0x3dba3e9c	0.09093973
21	0xbcb36a4a	-0.021901269
22	0xbc83feb2	-0.01611266
23	0xbc3b5fe1	-0.0114364335
24	0x3e57fe57	0.21093117
25	0x3b801651	0.0039089103
26	0xbb2efb04	-0.002669991
27	0xbd5e9273	-0.054338884
28	0x3c3b2031	0.011421249
29	0x3c82bb07	0.015958322
30	0xbc8c64a1	-0.017137827
31	0x3d983b98	0.074332416
32	0x3c9397af	0.018016664
33	0x3c90f71a	0.017695952
34	0xbd287fb2	-0.041137405
35	0x3e08f56f	0.13374875
36	0xbcdf698c	-0.027272008
37	0x3d910a56	0.070820495
38	0xbcec4d67	-0.028845502
39	0x3c4eed02	0.012629749
40	0x3c4f24c3	0.012643042
41	0xbd51da16	-0.051233374
42	0xbce5616e	-0.02800056
43	0x3ab9cce4	0.0014175442
44	0x3c754f54	0.014972527
45	0xbbdb477e	-0.006691872
46	0xbd87ea76	-0.06636517
47	0xbd00bd18	-0.031430334
48	0xbd938527	-0.07203131
49	0xbe25da5b	-0.16196577
50	0x3c40f3ba	0.011776859
51	0xbda0226c	-0.078190655
52	0xbca99997	-0.02070312
53	0x3dbc11db	0.09183093
54	0xbc4af924	-0.012388501
55	0x3c271f6b	0.010200362
56	0xbc9e7d54	-0.01934687
57	0x3a0291f1	0.00049808534
58	0x3cdd3d13	0.027006662
59	0x3cc1c37d	0.023652786
60	0xbd5878da	-0.052849628
61	0x3e0abf28	0.13549483
62	0x3d5aef7d	0.05345105
63	0xbd4a398b	-0.049371284
64	0xbe1c03dc	-0.15235847
65	0xbbc32b43	-0.005956085
66	0xbd0e5625	-0.034750123
67	0xbcf75f47	-0.030196799
68	0x3cb3810a	0.021912117
69	0xbd46d623	-0.04854406
70	0x3d589da5	0.052884717
71	0xbd105109	-0.03523353
72	0xbdc23447	-0.09482627
73	0xbcff683c	-0.031177633
74	0xbd3add09	-0.04562095
75	0xbc6d58b5	-0.014486481
76	0x3cf7aff0	0.03023526
77	0xbb6e2fa0	-0.0036344305
78	0x3e2c921e	0.16852614
79	0xbdfb966b	-0.12284549
80	0x3d004bae	0.031322174
81	0x3ce1c64c	0.027560376
82	0x3d0fd130	0.035111606
83	0xbd314440	-0.04327798
84	0x3ccccd6f	0.025000302
85	0xbd29ac1c	-0.041423902
86	0x3e401bda	0.18760625
87	0xbd45a0fe	-0.048249237
88	0x3d787788	0.06066087
89	0x3d8e4650	0.06947005
90	0xbbfa893a	-0.007645753
91	0xbd185109	-0.037186656
92	0x3c954ba5	0.018224547
93	0xbca0e784	-0.019641645
94	0x3dffa62b	0.12482866
95	0xbd9cc531	-0.07654799
96	0x3d243890	0.040093005
97	0x3d433bb9	0.047664378
98	0xbbdb60d0	-0.0066948906
99	0xbd9251c2	-0.071445
100	0xbd8d327e	-0.06894396
101	0xbd28c74a	-0.04120568
102	0xbcf8caf2	-0.03037021
103	0xb77626fc	-1.4671819e-05
104	0x3d546312	0.051852293
105	0xbd283a57	-0.041071262
106	0xbd091ee1	-0.033476714
107	0xbd4d8d6c	-0.0501837
108	0xbdb7eb7b	-0.08980461
109	0x3d0a0978	0.033700436
110	0xbd6901ca	-0.05688647
111	0xbbcd4470	-0.006264262
112	0xbd9810dd	-0.074250914
113	0xbcd3f5ed	-0.025874102
114	0xbc871ab2	-0.016492222
115	0xb7837772	-1.5672038e-05
116	0xbbbe1669	-0.0058010113
117	0xbd6ad382	-0.057330616
118	0x3ca4b5d2	0.02010623
119	0xbd9ac04a	-0.075562075
120	0xbde6d845	-0.11271719
121	0x3cd4665c	0.025927715
122	0x3d76e7c0	0.060279608
123	0x3c18d2f0	0.009327635
124	0x3d3ccff6	0.046096765
125	0x3dc2909a	0.09500237
126	0xbd51b1ad	-0.051194835
127	0x379aa000	1.8432736e-05
128	0x3cee5081	0.029091122
129	0xbe004adc	-0.12528557
130	0xbcf91e0f	-0.03040984
131	0xbd3f6862	-0.046730407
132	0xbd2f30e7	-0.042771246
133	0xbd8da0eb	-0.06915458
134	0xbce816c3	-0.028331166
135	0x3cf470fc	0.029839031
136	0xbd4179d1	-0.047235314
137	0x3d8b9f44	0.06817487
138	0x3bb85658	0.0056255274
139	0xbdb9c2c2	-0.0907035
140	0xbd426693	-0.047461104
141	0x3b19977b	0.0023436237
142	0x3d0499c3	0.0323732
143	0x3cb75363	0.02237863
144	0xbd32fca2	-0.04369796
145	0x3d75dcba	0.060024954
146	0x3e119427	0.14216672
147	0xbe240133	-0.16016082
148	0xbd8e61a2	-0.06952216
149	0x3d2ad294	0.04170473
150	0xbb610d1d	-0.0034340092
151	0x3c929eec	0.017898045
152	0xbbd4e201	-0.0064966683
153	0x3c0a101e	0.008426694
154	0x3d196190	0.03744656
155	0x3d43ed0f	0.0478335
156	0x3d096569	0.033543978
157	0xbe1948ee	-0.14969227
158	0x3cf782dc	0.030213766
159	0xbdb3f1ad	-0.0878633
160	0xbd285495	-0.04109629
161	0xbd130654	-0.035894707
162	0x3d82eb29	0.063925095
163	0xbdc75f1b	-0.09734937
164	0xb8a4223a	-7.8265046e-05
165	0x3b12004f	0.0022278016
166	0xbda08fb8	-0.07839912
167	0xbcef6554	-0.029223122
168	0xbdc4f437	-0.09616893
169	0xbc604e10	-0.013690487
170	0xbd4c10a9	-0.049820576
171	0x3c8b2b35	0.016988376
172	0x3c5df8a0	0.013548046
173	0x3d163bc5	0.036678094
174	0xbcf23b5f	-0.029569326
175	0x3d365dbd	0.04452299
176	0xbd6d4a69	-0.05793229
177	0x3d0dc4e3	0.034611594
178	0xbdc47a33	-0.0959362
179	0x3c34c6fb	0.011033769
180	0xbdda270e	-0.1065198
181	0x3d7a4195	0.0610977
182	0x3d37fad4	0.044916943
183	0xbca231b1	-0.019799085
184	0xbbdfa0f0	-0.006824605
185	0x3d6b701a	0.057479955
186	0x3d63e45f	0.055637714
187	0xbdf3c92d	-0.119036056
188	0x3d02fe4b	0.031980794
189	0xbd86d4c3	-0.0658355
190	0xbe0553fd	-0.1302032
191	0xbbbdc33d	-0.0057910965
192	0xbe0b153d	-0.1358232
193	0xbdc4680b	-0.09590157
194	0xbd03d54c	-0.032185838
195	0x3d1a5d93	0.037686896
196	0xbe1b92e2	-0.1519275
197	0xbde3402b	-0.110962234
198	0xbc7d5bc8	-0.015463777
199	0xbd6f82c1	-0.058474306
200	0x3cb03edc	0.021514349
201	0x3cb17092	0.021660123
202	0x3bd7a4d2	0.0065809274
203	0xbd6a1830	-0.057151973
204	0xbd5b6b7f	-0.053569313
205	0x3e0af031	0.13568188
206	0xbd47c454	-0.048771217
207	0xbcfa3920	-0.030544817
208	0xbd83ab15	-0.06429116
209	0x3c5a259b	0.01331463
210	0xbb9673b0	-0.0045914277
211	0xbd2c7548	-0.042104036
212	0xbe36fdbf	-0.17870234
213	0x3d3d1f62	0.046172507
214	0x3c5abe98	0.013351105
215	0x3c2c7397	0.010525606
216	0x3cdae247	0.026719226
217	0x3b69ff87	0.0035705285
218	0xbcad64c7	-0.021166218
219	0xbdcd5b3e	-0.10027169
220	0xbbbca72f	-0.0057572345
221	0x3ca8469c	0.020541482
222	0xbe283496	-0.1642631
223	0x3d0d211c	0.034455404
224	0xbcb345aa	-0.021883804
225	0x3d04a418	0.032383054
226	0xbd218b92	-0.039439745
227	0xbd5e1a2e	-0.054224186
228	0xbdbf7e7b	-0.09350296
229	0xbb99cd9f	-0.0046937014
230	0x3e027195	0.1273864
231	0xbd08838f	-0.03332859
232	0xbd876c43	-0.06612446
233	0xbb34490b	-0.0027509357
234	0x3d78052e	0.060551815
235	0xbd5be1e1	-0.05368221
236	0xbdf9ace0	-0.121911764
237	0xbd200928	-0.039071232
238	0xbd99e9c5	-0.07515291
239	0x3d97dce0	0.074151754
240	0x3c5cb16e	0.013470037
241	0x3d0c8bd6	0.034313045
242	0xbe0e16cb	-0.13875882
243	0x3c878e88	0.016547456
244	0x3d2b2107	0.041779544
245	0xbb277658	-0.0025552716
246	0xbd27a079	-0.040924523
247	0xbe24c5da	-0.160911
248	0xbd415147	-0.047196653
249	0x3d25752c	0.040394947
250	0x3d7184cc	0.058964536
251	0x3d2c776e	0.042106085
252	0xbd1ed067	-0.038772967
253	0xbd29b0ae	-0.04142826
254	0xbd0996af	-0.03359097
255	0x3d8da5f9	0.069164224

bias f4 [128]
0	0xbd9e7e6f	-0.07738959
1	0xbe05fb3c	-0.1308412
2	0x3d09a877	0.033607926
3	0x3dd66ed0	0.104703546
4	0xbc2add88	-0.010428794
5	0x3d1e5da9	0.03866354
6	0xbd515450	-0.051105797
7	0x3d0e22bd	0.034701098
8	0x3d2c00b6	0.041992866
9	0xbd11a953	-0.03556187
10	0xbd6c31c7	-0.05766466
11	0xbca9f786	-0.020747911
12	0x3cdfb281	0.027306797
13	0xbd8a4009	-0.06750495
14	0xbbbe4abe	-0.00580725
15	0xbb49702e	-0.003073703
16	0x3d2216ea	0.039572634
17	0x3b505d3f	0.003179386
18	0xbdb883a2	-0.09009482
19	0xbd1181e4	-0.035524264
20	0xbbefbf75	-0.0073165246
21	0xbd4b0b5d	-0.049571384
22	0x3d833202	0.064060226
23	0x3c2fabee	0.010722144
24	0xbaa09672	-0.0012251867
25	0x3bc15594	0.0059000943
26	0x3c8551c4	0.01627434
27	0xbd75b334	-0.059985355
28	0xbd5fbeab	-0.054625195
29	0xbdbd00f6	-0.09228699
30	0xbd217238	-0.039415568
31	0xbcc01d42	-0.023451451
32	0xbd3469c1	-0.044046167
33	0xbb33b22f	-0.0027419438
34	0x3b48641f	0.0030577255
35	0x3ca008d7	0.019535465
36	0xbc926e27	-0.01787479
37	0xbc110480	-0.008851171
38	0xbcc0ee3d	-0.0235511
39	0xbd8c9dd7	-0.06866043
40	0xbd825b16	-0.063650295
41	0xbc86ce30	-0.01645574
42	0xbcd37952	-0.025814686
43	0xbd9a86b3	-0.07545223
44	0xbac7b537	-0.0015236501
45	0xbd6d930a	-0.058001556
46	0xbd3e075e	-0.046393745
47	0x3cc4d191	0.02402571
48	0x384bfa17	4.8631886e-05
49	0xbd275300	-0.04085064
50	0x3d835fff	0.06414794
51	0x3d5fad9f	0.054608937
52	0xbc9b822e	-0.018982973
53	0x3d1d82fe	0.038455002
54	0xbd43fb20	-0.047846913
55	0xbd5f8867	-0.054573443
56	0xbc7031b1	-0.014660285
57	0xbd3a9d1b	-0.045559984
58	0x3d4eaa94	0.050455645
59	0xbcd6e057	-0.02623002
60	0x3d02e140	0.031953096
61	0xbcc0f24b	-0.023553034
62	0x3b88d682	0.004175962
63	0xbbeeede0	-0.0072915405
64	0xbd885d05	-0.06658367
65	0x3c8f95f6	0.017527562
66	0xbce8ac2e	-0.028402414
67	0xbc5c2cb8	-0.013438396
68	0x3dd05842	0.10173084
69	0xbd5f7845	-0.054558057
70	0xbd838512	-0.064218655
71	0xbda1cfc7	-0.079009585
72	0xbcb60b7d	-0.022222275
73	0x3c80878f	0.01568964
74	0x3d40e87e	0.04709672
75	0x3c1c7de9	0.009551504
76	0xbc218954	-0.009859402
77	0xbcde50c4	-0.027138121
78	0xbd3173a2	-0.043323167
79	0x3d3a432c	0.045474216
80	0x3d72f2fd	0.059313763
81	0xbd93ffd6	-0.07226531
82	0x3c466785	0.012109642
83	0x3d1eda50	0.038782418
84	0xbd3736c6	-0.04472997
85	0x3d9b85c3	0.075938724
86	0xbd60c465	-0.054874796
87	0xbd30c05b	-0.043152194
88	0x3b6c70de	0.0036078016
89	0xbd17e894	-0.03708704
90	0x3cbf2dc1	0.023337247
91	0xbd46407d	-0.048401345
92	0x3d001813	0.03127296
93	0xbcc32025	-0.023819039
94	0x3bcb4e5b	0.006204409
95	0xbd830fb6	-0.06399481
96	0xbcfb1707	-0.030650629
97	0x3d4b2adb	0.049601417
98	0x3c9f2a07	0.01942922
99	0x3c63f4e4	0.013913367
100	0xbba3c18a	-0.004997437
101	0x3cee10c0	0.029060721
102	0x3c25eb92	0.010126965
103	0xbd723d96	-0.059140764
104	0x3d0deac8	0.034647733
105	0x3d8bba3d	0.068226315
106	0xbd85cfc8	-0.06533772
107	0xbcfc5bb8	-0.030805454
108	0x3cbad9a5	0.02280886
109	0x3bca84d2	0.006180384
110	0x39d9db64	0.00041552924
111	0xbd0f606c	-0.035004064
112	0xbbc3bcc6	-0.0059734313
113	0xbd8c4d65	-0.06850699
114	0xbd098647	-0.033575322
115	0x3d7822e5	0.060580153
116	0x3cd2237d	0.025651688
117	0x3db77981	0.08958722
118	0xbd9d730f	-0.07687961
119	0x3d1b8278	0.03796622
120	0x3dab909d	0.08377192
121	0xbd377fab	-0.044799488
122	0x3cc60274	0.024171092
123	0xbd93fb24	-0.07225636
124	0x3ccd786b	0.025081834
125	0xbc373012	-0.011180894
126	0xbce2ab4c	-0.027669571
127	0x3d1cb747	0.038260724

weight f4 [60, 128]
0	0x3c432d95	0.011912723
1	0xbcad481d	-0.02115255
2	0x3d90f138	0.07077259
3	0xbd75eb04	-0.06003858
4	0x3d69d2d7	0.05708584
5	0xbd3cb7cf	-0.04607373
6	0x3da2cbcc	0.079490274
7	0x3d97b171	0.07406891
8	0xbdc13de5	-0.094356336
9	0xbc92138e	-0.01783159
10	0xbaf72633	-0.0018855989
11	0x3c93ee54	0.01805798
12	0x3a4f4b18	0.0007907613
13	0xbc5659c7	-0.013082928
14	0xbe0388e8	-0.12845194
15	0x3d847605	0.06467823
16	0xbc11ca62	-0.0088983495
17	0xbd87d883	-0.06633093
18	0x3d35eda6	0.044416092
19	0x3d04e687	0.03244641
20	0x3d88529b	0.06656381
21	0x3b380299	0.002807772
22	0x3d0e3675	0.034719903
23	0x3d7a6eec	0.06114094
24	0xbc196049	-0.009361335
25	0xbd483ee4	-0.048888102
26	0x39a26ea1	0.00030981473
27	0xbc9b0c84	-0.018926866
28	0xbc6a1d72	-0.014289247
29	0xbb8d9d57	-0.004321735
30	0x3d8e2e85	0.06942467
31	0xbc0014ea	-0.007817486
32	0xbdb48b30	-0.088156104
33	0xbc9cdc9e	-0.019148167
34	0xbd7b87fb	-0.061408978
35	0xbd55c2ca	-0.05218772
36	0xbda36ee5	-0.07980136
37	0xbdb75e5d	-0.08953545
38	0x3d51e1e9	0.051240835
39	0x3ccc27a5	0.024921248
40	0xbd70cb54	-0.05878766
41	0x3ccf0395	0.025270263
42	0xbd551f0b	-0.052031558
43	0x3b42208f	0.0029621457
44	0x3d6905de	0.05689036
45	0xbce0006a	-0.027343947
46	0xbd89b23c	-0.06723449
47	0xbe359a45	-0.1773463
48	0xbce1a348	-0.027543679
49	0xbaf05b66	-0.0018337786
50	0x39ac275f	0.0003283573
51	0xbd83289e	-0.064042315
52	0xbd6ace81	-0.057325844
53	0xbd582360	-0.05276811
54	0xbc9f620b	-0.01945593
55	0x3d8447b9	0.064589925
56	0xbdde2990	-0.10847771
57	0xbd90b04b	-0.07064875
58	0x3d021d84	0.03176643
59	0x3cfd1703	0.030894762
60	0xbd9b9eed	-0.07598672
61	0xbd106c67	-0.03525963
62	0x3c457fd7	0.012054405
63	0xbd897d09	-0.06713302
64	0xbca1fc99	-0.019773768
65	0x3c48e8c5	0.012262528
66	0xbced8ef1	-0.028998824
67	0xbd2e64ca	-0.04257659
68	0xbccc8c98	-0.024969384
69	0xbc8c5df5	-0.017134646
70	0xbc3336c2	-0.010938348
71	0x3ce7112e	0.028206434
72	0xbd94eb23	-0.07271411
73	0xbd487838	-0.048942775
74	0xbd406a06	-0.04697611
75	0xbdb7e6ab	-0.08979543
76	0xbd4ea601	-0.050451282
77	0xbd09a81d	-0.03360759
78	0xbd1b6fcc	-0.037948415
79	0x3d4587ac	0.04822509
80	0x3c1a46d8	0.0094163045
81	0xbc82abe4	-0.015951104
82	0x3bf5a68a	0.0074966596
83	0x3d4823b4	0.048862174
84	0x3c885621	0.016642632
85	0xbdd3f975	-0.103503145
86	0x3bf3b211	0.0074369987
87	0xbd5e2ed2	-0.05424387
88	0x3d642d3f	0.055707213
89	0x3c1ee5af	0.0096983155
90	0x3d683125	0.056687493
91	0x3d623953	0.05523045
92	0x3d90969e	0.07059978
93	0x3c4fa5f5	0.012673845
94	0x3c2414a6	0.010014689
95	0x3c1e1eb2	0.009650873
96	0xbd1af1fd	-0.037828434
97	0x3d736851	0.059425656
98	0x3d6b9b4a	0.057521142
99	0x3c0c0e63	0.008548352
100	0x39349ab0	0.00017223763
101	0xbd4e95e6	-0.050435923
102	0xbc9be498	-0.0190299
103	0x3d112ec1	0.03544498
104	0x3d2e50f4	0.04255767
105	0x3d41fca7	0.04736009
106	0x3d902ee5	0.070401944
107	0xbd4e7513	-0.05040462
108	0x3c393395	0.011303802
109	0x3d614dee	0.05500596
110	0x3ddb35fb	0.10703655
111	0xbd7c6633	-0.061620902
112	0xbd2dc8e0	-0.042427897
113	0x3c9769a4	0.01848299
114	0xbe458e42	-0.19292548
115	0xbd3a4b02	-0.04548169
116	0x3d2a1b77	0.0415301
117	0xbcc120a1	-0.023575129
118	0xbd8b3a14	-0.06798187
119	0xbd874200	-0.066043854
120	0xbd87e073	-0.06634607
121	0xbce3c538	-0.027804002
122	0x3d32b9ae	0.04363411
123	0x3d450eab	0.04810969
124	0xbd3ca2fe	-0.04605388
125	0xbd31bb5b	-0.043391567
126	0xbc8f1f14	-0.017470874
127	0xbcb563e3	-0.022142356
128	0x3d9ceba6	0.07662134
129	0xbd3eef6e	-0.046615057
130	0xbd262300	-0.040560722
131	0x3d7827a8	0.060584694
132	0xbda398f2	-0.079881564
133	0xbd33f15f	-0.04393136
134	0x3d84769c	0.064679354
135	0xbd09723e	-0.033556215
136	0xbd0ad363	-0.033893
137	0x3b0ea29e	0.0021764408
138	0xbc95ea3d	-0.01830017
139	0x3b30199f	0.002687074
140	0xbe6d6d83	-0.23186307
141	0x3c95e30d	0.018296743
142	0x3cbabe26	0.022795748
143	0x3d2305ea	0.039800562
144	0x3ce752e6	0.028237771
145	0xbd136d27	-0.035992768
146	0x3d4a0198	0.049317926
147	0x3c793d78	0.015212409
148	0x3c59a109	0.013283023
149	0x3dadeee2	0.08492829
150	0xbcaa8bee	-0.020818677
151	0xbda7b55d	-0.08188889
152	0x3a65480f	0.00087463943
153	0xbd0ebe0c	-0.03484921
154	0xbd45223e	-0.04812836
155	0x3d9fad31	0.077967055
156	0x3e687bda	0.22703496
157	0xbc904b9b	-0.017614176
158	0xbda20b26	-0.07912283
159	0xbbea81c6	-0.0071565835
160	0xbda6c25e	-0.08142541
161	0x3c54c8e7	0.012987352
162	0xbdc20c56	-0.09475009
163	0x3d542202	0.051790245
164	0xbcc1a7ef	-0.023639647
165	0xbcf2c589	-0.029635208
166	0x3c029b62	0.007971616
167	0xbe7c69eb	-0.2464978
168	0xbd438c29	-0.04774109
169	0xbda72fbd	-0.08163402
170	0xbd2e7721	-0.04259408
171	0x3d282c28	0.041057736
172	0xbc8ecbf6	-0.01743124
173	0x3cd1f4f7	0.025629504
174	0x3e14e3ea	0.14540067
175	0x3c30b254	0.010784704
176	0x3da59f29	0.08086998
177	0xbc6e7cc9	-0.014556118
178	0x3d921385	0.07132629
179	0x3d64f31e	0.055895917
180	0x3c13348e	0.008984698
181	0xbd1469f8	-0.036233872
182	0xbbdb6b13	-0.006696114
183	0x3d1833b5	0.037158687
184	0xbd9218cc	-0.07133636
185	0x3ca7161c	0.020396285
186	0xbd66e9cc	-0.05637531
187	0x3d9f2721	0.07771135
188	0xbc759f69	-0.01499162
189	0x3cc57c82	0.024107222
190	0x3d105530	0.03523749
191	0xbe3a11bf	-0.18170832
192	0xbd7ce1a3	-0.06173862
193	0x3ce42487	0.027849449
194	0xbda233bf	-0.07920026
195	0x3d987098	0.074433506
196	0x3c161302	0.009159805
197	0xbdb46014	-0.08807388
198	0x3cf837c1	0.030300023
199	0x3e1ac209	0.15113081
200	0xbeb716bb	-0.3575953
201	0xbbbdb1f9	-0.0057890383
202	0x3cce6d7f	0.025198696
203	0x3d64a7ea	0.055824198
204	0xbdc9a005	-0.098449744
205	0x3d010c38	0.031505793
206	0x3ceb8116	0.028748076
207	0x3cda3ac8	0.026639357
208	0x3cdff688	0.027339235
209	0xbd38d368	-0.045123488
210	0x3c1b8fc7	0.009494728
211	0xbcaf5221	-0.021401467
212	0xbd6e4080	-0.05816698
213	0xbcb132e9	-0.021630721
214	0xbddd03b1	-0.1079172
215	0x3dc7c786	0.09754853
216	0x3ce68910	0.028141528
217	0xbdf50336	-0.11963503
218	0xbe268631	-0.16262127
219	0xbe74f220	-0.23920488
220	0x3d943587	0.07236772
221	0x3c9d120e	0.019173648
222	0x3d0f629a	0.035006143
223	0xbdea3599	-0.11436004
224	0xbd37dce2	-0.044888385
225	0x3c1c4b00	0.009539366
226	0x3cd1e025	0.025619576
227	0x3ceed5cd	0.029154683
228	0x3b18b32c	0.0023300154
229	0xbe22c1ff	-0.15894316
230	0xbd564fdf	-0.052322265
231	0xbd7070bf	-0.058701273
232	0xba241442	-0.0006259122
233	0x3adffc3e	0.0017088724
234	0xbd7c47a2	-0.061591752
235	0x3d4cd9d0	0.05001241
236	0xbd396729	-0.045264397
237	0x3d7b8543	0.061406385
238	0x3d2e69c6	0.042581342
239	0x3d972237	0.07379573
240	0xbcb209a7	-0.021733118
241	0xbe90a966	-0.2825424
242	0x39ef7cfc	0.00045678753
243	0x3c3c6e42	0.011500897
244	0xbeab102f	-0.33410785
245	0x3d2422a3	0.040072095
246	0x3aa9cce6	0.0012954741
247	0xbc284337	-0.0102699315
248	0xbd85caec	-0.06532845
249	0xbdaa0a9b	-0.08302804
250	0x3c3628ca	0.011118123
251	0x3a07bc30	0.00051778834
252	0x3d97ebbe	0.07418011
253	0x3aafabca	0.0013402638
254	0xbd8622cd	-0.065496065
255	0xbd4899f0	-0.04897493

bias f4 [60]
0	0xbd2de19b	-0.042451482
1	0xba76d122	-0.00094153185
2	0x3d2e9e45	0.042631406
3	0xb924e97d	-0.0001572724
4	0x3d38f6c1	0.045157198
5	0x3a2c4786	0.0006571937
6	0x3d2d293f	0.042275663
7	0xb9f7c7c4	-0.00047260348
8	0x3d28c897	0.041206922
9	0x3a4534c9	0.0007522819
10	0x3d24ed41	0.040265325
11	0x3a9442e0	0.0011311434
12	0xbd3dc7f9	-0.046333287
13	0xba86e671	-0.0010292066
14	0xbd077d16	-0.033078276
15	0x3a93aa15	0.0011265898
16	0xbcccb603	-0.024989134
17	0x3a87becc	0.0010356545
18	0x3cce4c5f	0.025182901
19	0x39039229	0.00012547582
20	0xbcf58d5d	-0.029974634
21	0x3a9217eb	0.0011146044
22	0x3c7b19cf	0.0153259775
23	0xb9ac9c3b	-0.00032922797
24	0x3c75c855	0.015001376
25	0x3ae07559	0.0017124816
26	0x3cbacb75	0.022802094
27	0x3ae3c78c	0.0017378195
28	0x3cb459cd	0.022015477
29	0xba1208c2	-0.0005570763
30	0xbcaa471e	-0.020785864
31	0x38a2f451	7.7702694e-05
32	0x3c75a026	0.014991796
33	0xba5b11a8	-0.0008356818
34	0xbc9814e4	-0.018564649
35	0x39ad3cf9	0.0003304256
36	0x3c9c51ac	0.019081913
37	0xba625bea	-0.0008634912
38	0xbcf6d994	-0.030133046
39	0xb9fc33da	-0.00048103818
40	0x3ce2a31e	0.027665671
41	0xb9d39751	-0.00040357796
42	0xbc272a0e	-0.010202898
43	0xba3d28f4	-0.00072158803
44	0x3c85c128	0.016327456
45	0x396acbe2	0.00022391931
46	0x3c86d525	0.016459057
47	0xb99fef11	-0.00030504962
48	0xbc526182	-0.0128406305
49	0xb9d85831	-0.00041264438
50	0x3c89cfd2	0.01682273
51	0xb972188e	-0.00023088066
52	0x3c9be94a	0.01903214
53	0x39806be9	0.00024494462
54	0x3c6268b9	0.013818913
55	0xb956258b	-0.00020422616
56	0x3ca112ba	0.01966225
57	0xb9d6063a	-0.000408219
58	0xbc99580b	-0.01871874
59	0x38212418	3.8419006e-05
