linearPredictionModels/db39/small/cleanedCombine.csv_wholeNetPrototype5_Epochs_25_ValidationLoss0.638217_lr0.0003_2023_08_15_09:30:48.pth (torch, 992679 bytes, 8 tensors)

weight f4 [512, 145]
00000000: 7e5d 3fbd bf90 6fbd 9731 a1bc 2d14 80bc
00000010: 2aaf aabd 6da5 ea3b e19a 27bb 3659 863d
00000020: 9565 d73c 689a 8abd 71c7 943c 7abe 94bd
00000030: 57eb 0cbc 0d8f 01bd fdab cc3c 67b0 cabc
00000040: 1162 db3c 04f2 a0bb 38bd 31bd 96bb 36bd
00000050: e845 8bbd f9d3 d8bc ecc2 21bc f790 583b
00000060: 48a9 82bd fc01 bebc fba3 82bd 35af 213d
00000070: b9e7 9fbc 30a7 353d 2a83 96bc a74b 4bbd
00000080: 3b61 9bbd 8658 793d 915f 80bd 741d 6e3d
00000090: 4306 863d 7fad ab3c e871 8ebd 6bb8 87bb
000000a0: ca5f 0e3d c0e1 7f3b 1c4b 15bd f3eb be3c
000000b0: 7bfa c13c d0bc 943d 850f 1e3d e0aa 733c
000000c0: 309a b13d 5562 67bd a835 b4bd 47fe 2fbd
000000d0: 9ea3 923b b5db d93c a80b 27bd 692c 7c3d
000000e0: 051f 373d bca7 78bd 7e03 86bd cdf3 0e3d
000000f0: a731 983d e812 66bd bb0b 6e3d 2969 753d
00000100: 6a16 533e 0905 343d 0921 b1bc 6ddf f1bc
00000110: f309 2fbc edd3 acbd 41b4 303d e5ab c23c
00000120: 192a c53a 318b 9e3c 62b5 7cbb 8dda 1cbd
00000130: a9af aa3d 416e ab3d 5639 30bd ba69 0abd
00000140: f213 c73d 84ba 02bc dedb abbd 5a28 5bbc
00000150: 94bd 34bd c6dc 783d b905 52bd b323 e43c
00000160: d395 c5bc c89d 8a3a a38a cfbd 2cba 78bd
00000170: e4ba 97bd e530 9abc c1a9 e73d 58e5 b0bd
00000180: c4fe a4bd 32df aa3d f9f6 ab3a 178b e43c
00000190: a6c2 a83d 1de3 343d 7cac 30bd ba50 8bbd
000001a0: 2c0b 1dbd b8f8 ddbb 8ace 763c 4601 80bd
000001b0: 3710 9e3d 2a1a 62bc 1f32 6c3d 0764 213c
000001c0: ca62 093d 9853 8b3d d03c b63a 7eeb bb3b
000001d0: 05ba 643b e796 65bc 8317 17bc 4b39 7e3c
000001e0: 3b96 91bb 8dea 8f3d d30b 01bb 0e07 40bd
000001f0: 5f06 e93c b080 a63d b85a ed3b 4113 a3bc
00000200: 5553 1e3d 2809 823c fb05 96bd 3f6f 503d
00000210: 2709 7fbc 91c0 3b3d fc4c 86bd a99f 1bbd
00000220: bcda 3bbd 65df 2c3c 38b5 3c3a d116 80bd
00000230: ffed 9dbd 438f 5abd 749e e2bc 3180 64bd
00000240: 754f bbbc 1b70 0c3d 00bb 5bbd 2ecc 7f3d
00000250: a783 8a3d 49ad f43c db71 693d 542a 943d
00000260: 3808 95bc b248 0d3d 033d 153d 6de2 59bd
00000270: 40a5 88bd 81b9 93bd 7644 1fbd 943e d6bc
00000280: af1b b53b d6b7 8d3d 7c0f 5d3c c0a8 2a3d
00000290: 3d52 913c 2cc4 813d 6090 2e3c 33a1 60bd
000002a0: c6fe 0dbd a23c 643d a48b 833d 55db f8bc
000002b0: 36f5 6ebc 843e 6dbd 6d91 4bb9 3ee0 ad3c
000002c0: 558a 1cbd af1c eabc 1f26 353d cb64 0f3d
000002d0: 8096 b43b 51a2 a53c a413 51bc 72a4 293d
000002e0: c484 c13c d179 9bbd 8b6a 0cbd c565 1f3d
000002f0: 0a4a 7f3d 093d 5fbd fd88 3d3d 5cb5 2e3d
00000300: cc15 c23c 3035 94bd d78d 1e3d a71c 663d
00000310: efe3 743d 7f06 88bb 67f4 703b 7b6c be3c
00000320: bbe4 c5bc 48ce 2c3d fbb7 563d 9c4c 33bd
00000330: 59ff 093d 811c d83b 36c0 70bd cd3a 173d
00000340: 40ab 123d b59f 073e 0b95 c83d ed44 8a3d
00000350: 57bd 68bd 48ce 713c d128 6e3d c200 00bd
00000360: 10fe 2cbd 8f0d 763d 3d3d 3fbd 17f2 36bd
00000370: 75e5 eebc 2a1d 3fbd 19b0 a13d 08dd e23b
00000380: b4a1 9fbc 258d 753d e9c1 4cbc be98 d43c
00000390: 73cb 0cbd 47d8 86bd 0d5c 853d 2040 a43c
000003a0: 0e77 103d beab 423d ae89 d33c ea94 19bd
000003b0: cb19 0dbd 7a22 50bd 2b88 eb3b df7e 423d
000003c0: c605 f1bc f38c 283d 55f9 e1bc d456 b03d
000003d0: 6874 c83c 3f6e 22bc f67c 82bd 24f6 41bd
000003e0: ed0b a9bd 0a2b 1a3b c9ec 7ebd 0b46 ef3c
000003f0: 182e 273c 41a0 a7bc 83d2 7e3d 1805 293d
-0.04672002 -0.05848765 -0.019676967 -0.01563462 -0.08334191 0.0071608336 -0.0025574493 0.065599844
0.026293555 -0.06767732 0.018161507 -0.07262893 -0.008601031 -0.031630564 0.024984354 -0.024742318
0.02678016 -0.004911663 -0.043393344 -0.04461249 -0.06800443 -0.026468264 -0.009873133 0.003304539
-0.06379944 -0.023194306 -0.06378933 0.03947373 -0.019519674 0.044348896 -0.01837309 -0.049632695
-0.075869046 0.06087544 -0.06268228 0.058133557 0.06544163 0.020956753 -0.0695532 -0.0041418574
0.03475932 0.003904447 -0.036448583 0.023305869 0.023679009 0.072625756 0.03858902 0.014872283
0.08671987 -0.05649026 -0.087992966 -0.042967107 0.004475071 0.026594022 -0.0407826 0.06156579
0.044707317 -0.06070684 -0.06543635 0.034900475 0.074313454 -0.056170374 0.058116656 0.05991474
0.20614019 0.043950114 -0.021622198 -0.029525483 -0.010683524 -0.08438859 0.043140654 0.023763606
0.0015042453 0.019353481 -0.003856026 -0.038294364 0.08334286 0.08370639 -0.04302343 -0.033792235
0.09720601 -0.007979039 -0.08391546 -0.01337632 -0.04412611 0.06075742 -0.05127499 0.027849054
-0.024119293 0.0010575587 -0.10133865 -0.060724422 -0.074086934 -0.018822143 0.11311675 -0.08637494
-0.08056405 0.083433524 0.0013119868 0.027898354 0.08240251 0.044161905 -0.043133244 -0.06802507
-0.038340732 -0.0067740344 0.015063891 -0.06250243 0.077179365 -0.013800183 0.057664987 0.0098505085
0.03354148 0.068030536 0.0013903622 0.00573486 0.0034900915 -0.014013029 -0.009221914 0.015516589
-0.0044429577 0.07027159 -0.0019690886 -0.046881728 0.02844542 0.08130014 0.0072434805 -0.019906642
0.03865369 0.015873507 -0.073253594 0.050887343 -0.015566147 0.045837943 -0.06557652 -0.03799406
-0.0458629 0.010551308 0.00071986346 -0.06254352 -0.0771141 -0.05335928 -0.027663447 -0.055786315
-0.022865037 0.0342866 -0.053645134 0.06245058 0.06763392 0.029867785 0.056993347 0.07234636
-0.018192396 0.034493156 0.03643514 -0.053194452 -0.06672144 -0.072131164 -0.03888365 -0.026152886
0.005526982 0.069198295 0.013492461 0.04166484 0.01773941 0.06336245 0.010654539 -0.05484123
-0.0346668 0.055721886 0.06423119 -0.030378023 -0.01458483 -0.057920948 -0.00019413764 0.021225091
-0.03821786 -0.02857813 0.04422581 0.035008233 0.005511105 0.020219 -0.01276103 0.041416593
0.023622878 -0.07591594 -0.034281295 0.038915414 0.06232647 -0.054501567 0.04627322 0.042653427
0.023692034 -0.07236707 0.038709488 0.05617967 0.059787687 -0.004151165 0.003676677 0.023245087
-0.024156919 0.042188913 0.05242155 -0.043774232 0.033690784 0.006595195 -0.058777057 0.03692131
0.035807848 0.13244517 0.09794053 0.06751428 -0.056821194 0.014758654 0.058144394 -0.031250723
-0.04223448 0.060071524 -0.04668926 -0.04466447 -0.029162148 -0.046658672 0.07894916 0.0069233216
-0.019486286 0.05994906 -0.012497404 0.02595174 -0.03437371 -0.065842204 0.06511698 0.020050108
0.03526979 0.047527067 0.025822487 -0.03749553 -0.034448426 -0.05081413 0.0071878633 0.047484275
-0.029421698 0.041150045 -0.027584711 0.08610311 0.02446957 -0.00991398 -0.06371491 -0.04735388
-0.08254228 0.0023524188 -0.062237535 0.029208204 0.010203861 -0.020462157 0.06221248 0.041264623

bias f4 [512]
00000000: 6773 a83c 023e 203d b7ce 733c c7f5 163d
00000010: 64ae 153d 7eb9 fabc cfe5 6ebd 4899 da3c
00000020: e722 bf3d e10f 02bd 6c78 a73d 8d7a 9bbd
00000030: 4a5f 4e3d f0bb 7bbd 7492 2e3d 8d80 ed3c
00000040: afaf 913d 0bbc 563d 62fd 6b3c fd70 89bc
00000050: 1d5f e63c 8bea 9d3c a790 a73c aaf0 87bd
00000060: c388 88bd 82f4 0d3d 0802 513c 9880 3aba
00000070: 30aa 4cbd 5fc5 2b3d cd52 d7b8 7b33 28bd
00000080: 2b84 27bc 85f3 293d c7ba c13c 448c 71bd
00000090: 63f2 9f3d 18b0 3b3c 1f2c 863d 4032 383b
000000a0: 1556 07bd 671a 443d a4c3 ba3c dcd7 843d
000000b0: 5bca 493d 5c37 253d 5a2e 133b 1172 833d
000000c0: a77b 90bd b5be 7d3b fc73 783d c05d 7dbd
000000d0: 5680 753d aaaa 833c 2a96 ce3c 3e83 abbd
000000e0: c039 28bd 5060 40bd fe16 a33d f055 fbbc
000000f0: 161b 1b3d 28cc a1bb 3d6f 513d 2881 a03d
00000100: 5df1 f93c 6ee6 05bd 275d 103d 5030 d6bb
00000110: 90af 3c3d 433f dcbc ab27 e03c b59b 8c3d
00000120: 9cb2 133d 61a1 8f3d b96d a5bc fcdc 88bd
00000130: 6433 6fbc 1d54 853d a72b abbd d03a ee3c
00000140: a72a 8c3d 24b5 37bd d9a9 6dbc 25fd 813d
00000150: d8b0 40bd 5ba9 7bbd 3bb4 393d e28c dd3a
00000160: d806 173d 459c a73c ad28 f23a 38e1 b0bc
00000170: 8d2f 5ebd 0e56 bebc faf4 b9bb a10e 78bd
00000180: b0f7 823d 8122 6f3d e25b 5abd 9ce3 32bd
00000190: ad73 9a3d 5ada ad3c c41b 0a3d 1b64 b43c
000001a0: ac83 8a3d 1d78 283c e678 8b3b 0cba 5c3d
000001b0: 2459 703d 51de 883d 3608 92bd b990 92bd
000001c0: 65b3 ed3c 6533 9c3c f6d4 493d 07f1 47bd
000001d0: 6113 843d 52ac 0ebc ee48 273c fdb6 8dbc
000001e0: 3311 d13c 5501 153d eaf1 50bd e867 7cbc
000001f0: e69a a1bd 7374 8bbb 46d1 8dbd 8b62 24bc
00000200: 1bf0 3b3d c109 2abc dbe9 ac3c a322 263d
00000210: 69f7 1fbd 4f6a 603d 5201 15bd c5f5 bebd
00000220: ebe4 853b 65fa 893d 8932 483d ea29 9f3d
00000230: e73a e7bc a95b b6bc 61e2 69bd 640b 07bd
00000240: 3291 27bd 1197 453d f64b 64bd 3e02 90bd
00000250: 1e7f 1b3d 25e9 9f3d d9d6 ce3c dbb1 8fbd
00000260: 24d5 173d bb34 66bc 23d2 c53d 774b ae3c
00000270: 3e7a a9bd 269e a73d 950a 4c3d cc05 6c3d
00000280: 02a9 8dbd 40fa 93bc dc38 08bd c82e 153d
00000290: 8dac 9ebd 7082 87bd fd28 393d a740 75bd
000002a0: aea5 73ba 0b6e 533a d52f 3a3d e7a2 803d
000002b0: 6e3f 58bd eb62 4e3d 087d a43d 33c2 96bc
000002c0: a67b d23c e61b ecbc 7fd6 a9bc 69f3 123d
000002d0: ceb4 af3c 4c19 85bd 3192 c7bc f192 9abd
000002e0: 080c 313d 1ab6 56bd 0300 503b fdbe 0d3a
000002f0: 3249 70bd 255e 833d a89c 02bd bf47 173d
00000300: 0ee4 273d c3c2 99bd fe02 29bd d4c9 593c
00000310: eab9 1fbd 7607 5b3d ffbf 223d 9af9 073d
00000320: d3dc 8c3d 34c9 a5bd 5c0f e13b ed20 123d
00000330: f8e0 a6bd a8a3 2fbd 3a80 a1bc 1102 863d
00000340: a806 673c 9096 5e3d f1bd a63d e1c7 213c
00000350: 84ab f3bc 7acd 52bd f885 8f3d a9af 163c
00000360: b6a1 3dbd 12e0 f9b9 e553 83bd def1 85bc
00000370: 6c35 88bd ba68 aebd cf88 b03c 74be eebb
00000380: 9824 403d 7000 38bc deec f8bc b0e7 f8bc
00000390: 3e5d 3c3d 0107 383c 6f31 b7bd efb1 183d
000003a0: a23b 24bd c71f 96ba 0b11 9d3c 5d8a 933d
000003b0: 2e1f 82bd ad99 9dbc ad72 e0bc da6b c3bc
000003c0: f9b0 683d 0c78 8cbc edd2 4c3d 0096 473c
000003d0: 88c3 a0bd 61c3 b3bd 6a98 d3bb ab3a fabc
000003e0: b2c5 13bd ba03 c3bc 1081 2c3d 0d39 783d
000003f0: 3dcf 6fbd 872e a2bd 2c94 50bd 04d6 953c
0.02056284 0.039121635 0.014880828 0.036855485 0.036543265 -0.030606028 -0.05832463 0.026684418
0.09332829 -0.031753425 0.081772655 -0.07591734 0.050383843 -0.061458528 0.042620137 0.028991962
0.07113587 0.052425425 0.014403673 -0.01677751 0.028121525 0.019276878 0.020454718 -0.066377
-0.0666671 0.03465701 0.012756832 -0.0007114499 -0.04996699 0.041936275 -0.00010267422 -0.04106472
-0.010224382 0.041492004 0.023648633 -0.05897166 0.078099035 0.011455558 0.06551384 0.0028106123
-0.03304108 0.04787674 0.022798367 0.064864844 0.049265247 0.040335998 0.0022458048 0.06418241
-0.07054835 0.0038718407 0.060657486 -0.061856985 0.059936844 0.01607259 0.025218088 -0.08374642
-0.0410707 -0.04696685 0.0796337 -0.030680627 0.037867628 -0.0049376674 0.051131476 0.078371346
0.030510599 -0.032690458 0.035245087 -0.006536521 0.046065867 -0.026885634 0.027362665 0.06865636
0.036059007 0.070132025 -0.020193921 -0.066827744 -0.014599655 0.06510184 -0.083579354 0.029080778
0.06844073 -0.044850484 -0.014505827 0.063471116 -0.04704365 -0.061440807 0.045337897 0.0016902948
0.03687176 0.020460257 0.0018475257 -0.021591768 -0.054244567 -0.023234393 -0.0056749554 -0.060560826
0.06394899 0.058382515 -0.053310283 -0.043674096 0.07541595 0.021222282 0.033717886 0.02202039
0.06763396 0.0102825435 0.0042563556 0.053888366 0.05867876 0.066830285 -0.07130472 -0.0715651
0.029016206 0.019067476 0.04927536 -0.048813846 0.06449009 -0.008708077 0.010210259 -0.01729917
0.025520897 0.036378223 -0.051011957 -0.015405633 -0.07890873 -0.004255825 -0.06924681 -0.01003326
0.04588328 -0.010378302 0.021107605 0.040560376 -0.039054308 0.054788884 -0.036378212 -0.093242206
0.004086127 0.06737212 0.04887632 0.07771666 -0.028226329 -0.022260504 -0.057100657 -0.032969847
-0.040909953 0.04823977 -0.055736504 -0.07031678 0.037963025 0.07808141 0.025248932 -0.07016345
0.0370685 -0.014050658 0.09659221 0.021276219 -0.08275269 0.08184461 0.04981478 0.057622716
-0.06917001 -0.018063664 -0.03325735 0.036421567 -0.07747755 -0.06616676 0.045205105 -0.05987611
-0.00092944026 0.0008065409 0.045455772 0.06281071 -0.052794866 0.050387304 0.0803166 -0.018403148
0.025693726 -0.028821897 -0.020732163 0.035876665 0.02144852 -0.064989656 -0.024361702 -0.07547558
0.043224365 -0.05241976 0.0031738288 0.00054071826 -0.058663554 0.06414441 -0.03188768 0.036933657
0.040988974 -0.07507851 -0.04126262 0.0132927485 -0.03899566 0.053473912 0.039733883 0.033197023
0.068780564 -0.08095017 0.006868286 0.03567593 -0.08148378 -0.042880684 -0.019714464 0.06543363
0.014100708 0.054342806 0.08141697 0.009874315 -0.029744871 -0.05146549 0.070079744 0.009197154
-0.046296798 -0.00047659926 -0.06412486 -0.016350683 -0.066508144 -0.08516069 0.02154961 -0.0072858874
0.0469099 -0.011230573 -0.030386385 -0.030383915 0.04598736 0.011232139 -0.089449756 0.037279066
-0.040095933 -0.0011453562 0.019173166 0.07204125 -0.06353603 -0.019238317 -0.027398432 -0.023855139
0.0568094 -0.017147087 0.050005842 0.012181759 -0.078497946 -0.087775 -0.006457378 -0.030545553
-0.03607721 -0.023805488 0.04211527 0.060601283 -0.058547247 -0.07919031 -0.050922558 0.018290527

weight f4 [256, 512]
00000000: 8627 eb3c 1f95 7b3c 5db0 d0bb aa7c 4b3c
00000010: 975e 90bb 7893 8ebc ad5e d8bb ed2f dc3c
00000020: 7809 433c eb91 d03c 5b21 36bd b1be d0bc
00000030: 0b76 2c3c cad2 883c b7a5 39bd 4cae e03b
00000040: 14d2 6c3c c686 94bc fb5e 6abc dc4b 02bd
00000050: 7a48 81bc 4269 fabc 5917 19bd d438 b63c
00000060: 54f2 b23c 4b62 dbbc 6e3e 063b aa96 ce3a
00000070: 5b7f efbc ebe8 4dbd 7063 94bd 3619 45bc
00000080: c904 bfbc d86d 82bc 5041 1ebd 70d8 c13c
00000090: b8f6 0cbd 4fbe 09bc 5a41 6c3c 116b a43c
000000a0: 1363 28bd 29a4 bbbc 6cf4 0b3c cfed 2d3d
000000b0: bed3 8dbc f0a0 8fbc 09d6 023c 10ce 833c
000000c0: dff4 49bd d2e1 3ebd 5bcf e038 d53a 133c
000000d0: 29ee 02bd e149 153d 0d01 17bc b34e 073d
000000e0: 8414 033d b6a2 553d 5b86 e4bc 7d57 fabb
000000f0: b3f8 b83c 173e c63c 2a4d 063d bec5 aa3c
00000100: 35e7 19bd 3a5e 36bd 6dbe 68bc ea6f 3bbd
00000110: df66 763c 0775 433d 47e8 d0bc 5236 3b3c
00000120: 5157 cbbc bc38 383b db2e fe3a 2d4e f73c
00000130: e9d4 1dbb 2201 ae3c de1c a8bc ce54 4fba
00000140: 2980 84bc aa5e 0e3d 6e7c 29bd 6f9b 32bc
00000150: ae8a 25bd b0f7 bf3b 983f 35bc ced4 c13c
00000160: 5818 e3bc 3554 cb3c 6bb9 dcbb 5c4e bcbc
00000170: 4225 73bd a0d9 45bc 6159 dcbc ae29 13bc
00000180: 909a 6cbc ddcb b2bc 3bf8 6c3c 6e1e 10bd
00000190: 8e90 ec3c 8cbf 2cbd c994 2fbd ef0d e13c
000001a0: 9ff4 6abd d319 263d 9841 f73c 44de 31bd
000001b0: 37aa 103d 6a10 d93c a079 cfbc 96ff 26bc
000001c0: ab43 283c 5d34 2f3d 64ac b1bc 0f4a e6bb
000001d0: 006b 003d f232 983c a95f 92bc dbab 6ebd
000001e0: 1ec7 acb8 8bd0 00bd 402c 11bd f9c7 6c3c
000001f0: 3958 0abd ee8f ad3c a161 0b3d edd8 973c
00000200: 8633 873c 9f21 31bd 9750 f5bc 1d25 bc3b
00000210: cb36 bbbc b306 36bc 9b59 67bd bd01 1bbd
00000220: e793 20bd 604f 0b3d 9cc8 fd3c cd83 b83c
00000230: c959 f9bc f2c1 213d 75c1 3fbc a227 81bd
00000240: ae55 26bd eeb9 de3b 7a63 11bd 5c1c a73c
00000250: d7c8 703c 2595 e5bb 80b0 11bd 6576 d63c
00000260: c23d 003d 149d 43bd 1447 0fbc 14d8 20bd
00000270: e3b4 4ebc c333 1cba 3c59 f4bc c9b3 2abb
00000280: de7e c83c 87db 22bc a3aa fe3c da95 1d3d
00000290: 23b8 2f3c bb5f 3fbd 8e1d d23c e4a5 1fbd
000002a0: 651a 3ab9 29d1 59bd 4ef6 873b dd57 833c
000002b0: 27aa babc 38ee 5cbc a4ef af3c 1d33 0dbd
000002c0: 0c2c 25bc aac3 c73c d05d 303d 3728 28bc
000002d0: e444 233d d657 da3c 2ba0 e4bb 207f 673c
000002e0: 996f ffbb 625f 48bd 5cca 4ebd 12cb 9d3b
000002f0: 9972 5a3c f937 25bc 3adb e53c aa22 663c
00000300: 9256 f23c 5114 34bd 6413 96bb 0c1f 403d
00000310: 3657 23bd ea11 eabc cf2f 81bc 5384 0e3c
00000320: ec9c c7bc d614 2e3c 6b58 d3bc 9b66 07bd
00000330: 3159 333d 2a71 163d 3750 0c3d 8199 02bc
00000340: 6a70 11bc 328e cb3b c0a8 a4bc 3f1c 943c
00000350: 0e3f 45bc 6bdc 01bb 1fa8 ffbc be2e d9bc
00000360: f547 0b3d 48bb 953c a7df 853c 8320 d63c
00000370: 99cc 7bbb 200c bcbc 4d30 46bb 63fc ccbc
00000380: 5653 1f3d f401 11bd 7072 41bd 72c9 13bd
00000390: b969 afbc b090 3d3b 3896 c0bb 92d4 e03c
000003a0: 5cf9 bbbc 630b 763b a742 45ba 08b9 76bc
000003b0: 5c0a ea3c 5cd0 36bb 1407 1b3d 4617 003d
000003c0: 5b4a 2a3d 2ec5 173c ef24 1dbd a6b7 fc3a
000003d0: 6b74 123d 17ed 673c 5ba3 303d 6ad8 ca3c
000003e0: 3305 e8bb a2da b6bc 3e5d 17bb 254a cc3c
000003f0: bc0d a5bc 43b5 40bc c803 0abd 234b 403c
0.02870537 0.015355377 -0.0063686804 0.012419859 -0.0044058072 -0.017404303 -0.006603083 0.026878322
0.011904113 0.025460204 -0.044465404 -0.025481554 0.0105261905 0.016702075 -0.045324054 0.0068567153
0.014454383 -0.018130671 -0.014304872 -0.031810626 -0.01578163 -0.030567769 -0.03737578 0.022243895
0.021844067 -0.026780268 0.0020483988 0.0015761454 -0.029235533 -0.050270956 -0.07245529 -0.012029937
-0.023317711 -0.015921518 -0.038636506 0.023662776 -0.034414977 -0.0084071895 0.014419878 0.020070584
-0.04111011 -0.022905426 0.008542161 0.04246312 -0.01731288 -0.017532796 0.0079856 0.01608947
-0.049305793 -0.046602078 0.00010719775 0.008986195 -0.03196541 0.03644741 -0.009216559 0.033034038
0.032001987 0.052157126 -0.027896097 -0.007639824 0.022579527 0.024199529 0.032788433 0.020846244
-0.03757401 -0.044523455 -0.014205557 -0.045761026 0.015039175 0.047719028 -0.025501383 0.011426525
-0.02482191 0.0028109988 0.0019392626 0.030188644 -0.0024083203 0.021240775 -0.020521577 -0.000790906
-0.016174393 0.034758247 -0.04137843 -0.010901316 -0.04041546 0.005858384 -0.011062525 0.023661043
-0.027721569 0.024820426 -0.0067359707 -0.022986583 -0.059361704 -0.012075812 -0.026898088 -0.008982105
-0.014441147 -0.021825725 0.01446348 -0.03518527 0.028877523 -0.04217486 -0.042866502 0.027472464
-0.057362195 0.04055197 0.030182645 -0.04342486 0.03531858 0.026497085 -0.02532655 -0.010192772
0.01027004 0.042774547 -0.021688648 -0.0070278714 0.031352043 0.01857898 -0.01786788 -0.058269363
-8.2386876e-05 -0.031448882 -0.03544259 0.014451974 -0.033775542 0.021186795 0.034028653 0.018536055
0.01650406 -0.043244954 -0.029945655 0.005741729 -0.022853276 -0.011109996 -0.05648194 -0.037843455
-0.03920355 0.034011245 0.030979447 0.022523785 -0.03043832 0.0394916 -0.011703839 -0.063063875
-0.040609054 0.006797067 -0.03549526 0.020399265 0.014696321 -0.007006305 -0.035568714 0.026179502
0.031308897 -0.047757223 -0.008744974 -0.03926857 -0.012616369 -0.0005958641 -0.029827707 -0.0026047102
0.024474557 -0.009940035 0.031087225 0.038472988 0.010725054 -0.046722155 0.025648858 -0.038976565
-0.00017748175 -0.053177986 0.004149235 0.016033107 -0.022786213 -0.01348453 0.021476574 -0.034472574
-0.010081302 0.024385292 0.043058217 -0.010263494 0.03986062 0.026653212 -0.0069771013 0.01412943
-0.007795286 -0.04891909 -0.050485954 0.0048154676 0.013332986 -0.010084146 0.028058637 0.0140463505
0.029582296 -0.043964688 -0.0045799483 0.04690461 -0.039878093 -0.028572995 -0.015769867 0.008698541
-0.024366818 0.010625085 -0.025798997 -0.033056837 0.04378623 0.036729015 0.034256186 -0.0079711685
-0.008876899 0.0062120194 -0.020099998 0.018079875 -0.012038959 -0.0019815217 -0.031208096 -0.026511546
0.03400417 0.01827778 0.016341997 0.02613855 -0.003842151 -0.022955 -0.0030241192 -0.025022691
0.038897835 -0.035402253 -0.047228277 -0.036080785 -0.021412717 0.0028925352 -0.0058772825 0.027445111
-0.022946052 0.0037543408 -0.00075248856 -0.015058763 0.028569393 -0.0027895188 0.037848547 0.031272195
0.041574817 0.00926332 -0.0383653 0.0019280806 0.035755556 0.014155648 0.043124538 0.024761397
-0.007080698 -0.02232105 -0.0023096348 0.024937699 -0.02014815 -0.011761966 -0.033695012 0.011736664

bias f4 [256]
00000000: 2494 973b 3ec8 f5bb f397 283c 6c6d 87bc
00000010: 62c7 393d 1279 27bd 96ad 0ebd ea6c a93b
00000020: 1255 0fbd 09c1 cfbc 8708 fd3a c7a3 18bd
00000030: 65a7 ffbc 4e25 283d eb8f 37ba 79e2 a43c
00000040: 5f16 ab3c 71e2 263d c658 0e3d bbb9 cd3c
00000050: 6e58 c9bc b66e f93c 112f afbc 9dcb a13c
00000060: 1e79 91bc 3718 cb3c 4aef 83bc 594c 903c
00000070: 7dab 073b 1dea 193d 1b96 bd3c fc55 9dbc
00000080: 2f68 febc 4062 3ebd 4670 0e3c e823 ebbc
00000090: 9e44 c4bb 3e91 c5bc 6afb 30bd e1d7 703c
000000a0: a571 633c 3eaa e3bc 5834 153c 5b1e 0f3d
000000b0: 16a8 f93c 73ef d53b c59c c9bc 80b9 9c3c
000000c0: 6c37 1ebb 3278 bcbc 5928 c83c 7cd7 8fbc
000000d0: 574d 8639 bd25 d5bc e93a 8fbc 2044 2bbd
000000e0: b08b 38bd bbc8 d03b f8a4 06bd 5c9a 97bc
000000f0: 177a 143c 2896 50bb cf71 23bc ca2b 113c
00000100: 4238 6dbc 4838 23bd 6c70 f23c 2676 223d
00000110: 7c1e d3bc 4b27 103d 4a9f 183d b89b e3bc
00000120: 0092 db3c 181f 293d 94de 573b b564 1cbc
00000130: f3b3 2bbd 4883 03bd 1f4a d5ba 5610 373d
00000140: 970c 253c cd87 023d e862 493d b599 0b3d
00000150: e042 673c 0de4 0bbd 2709 893c f7d8 463c
00000160: 78cc e7bc 03cb e7bc e0fd 153c b800 173d
00000170: 9522 203d 9791 2cbc 8ce5 24bc c62e d93b
00000180: 5081 933c d49f 76bc 2228 efbc 3101 02bd
00000190: a30d 7a3b dfa1 dcbc 0cef da3c 2741 0e3d
000001a0: 7eb5 d2bc 7c03 9ebc c108 933c 99ab 713c
000001b0: a2e3 953c fd3f ef3b 12e4 19bd 84ac 19bd
000001c0: de12 2ebb 1477 f43b 68cf 403d 42e9 f7bc
000001d0: e762 dbbc dbe4 1abd cc51 cfbc df28 0b3d
000001e0: f442 37bc ae89 f13c af0d 1dbd 662a 9d3c
000001f0: dcf7 67bc d770 1b3b 795a 33bc 288c 1bbc
00000200: 9ddb 11bd a144 d5bc 5d8b 0d3d 654a 603c
00000210: 82b4 013d 4be0 0f3a 5595 213c 7f59 873c
00000220: d837 44bc 58fb 923c dd44 38bc 4d1f f13c
00000230: 5803 0c3d a7f2 13bd ecc0 aa3b 6182 e2bc
00000240: d36b b43b 27c0 dfbc cbdb b5ba d939 483d
00000250: 5488 50bb 633f 34bd 0b1c 65ba cad1 753b
00000260: d2b9 db3a 56d8 b7bc 5107 30bd ff5e 8bbc
00000270: ad0a 243d 2869 34bd 474b 763c 97c3 17bd
00000280: 5384 1dbd 53ba f43c 2c79 33bd 37a5 663b
00000290: 8a30 0cbd c1b0 0a3d c6ff 433c 881a 93bc
000002a0: 63fe 003d 9d64 1bbc 0301 133c 8289 903b
000002b0: 9848 30bc 26a3 ccbb f4e4 b7bc 382e 23bd
000002c0: 0501 1fbd 13b2 ffbc 7a20 a63b a287 a8bb
000002d0: 68e7 bcbc 1bf6 febc fe82 9a3b fc72 2c3c
000002e0: 13d5 ae3b a48c 173d 4543 e33c 5f0b 80bc
000002f0: 58c8 b1bc 3ec8 7bbc 29c7 393d 6756 58bc
00000300: 58e6 0a3d 9483 733c 6fa0 a0bc 787b 9bbc
00000310: 05e2 3c3b 37ed c8bc 81fb 97bc bb24 88bc
00000320: c5ee 6cbc 87af 7c3a 7de0 04bd 3e9b 183d
00000330: 1381 eb3c a763 0abd 00b4 ab3c d392 88bc
00000340: f998 0d3c 4ef8 9c3c cc1c 1c3b 357a 223d
00000350: 823c aabb 49fe eabc 5dc4 3f3d 8e40 0bbb
00000360: b1f3 af3c 3ef2 b2bc 6172 29bb 599e 05bd
00000370: 203c ae3c 1e08 743c 9a5d afbc 0fdf dc3c
00000380: a947 0b3d 8acb 5f3b eef7 7cbc 93bd d03c
00000390: d8e4 bdbc 7f1a 943c a416 8e3c e5a1 fc3c
000003a0: 7ce6 09bd 2f3c da3b 65b3 553c 5568 fa3c
000003b0: 3114 55bb 0931 0abd 373b 3bbd 2d81 c23b
000003c0: ca86 3ebc 3964 72bc 93d6 243d 482a 073d
000003d0: 5b37 95ba 282d 843a 49be 2cbd 2298 10bd
000003e0: 073b cf3c b277 9e3c 2d8e 2abd 03e6 153d
000003f0: 38f1 863a 0fa6 0f3c 7d4a a63c 5483 a2bb
0.004625814 -0.0075006774 0.010290134 -0.016531669 0.045356162 -0.040886946 -0.034833513 0.0051704543
-0.03499324 -0.025360601 0.001930491 -0.037265565 -0.03120775 0.0410512 -0.00070023414 0.020127522
0.02088469 0.040743295 0.03475263 0.025112977 -0.0245783 0.030448299 -0.021384748 0.01975041
-0.017757948 0.02479182 -0.016105313 0.01761453 0.002070158 0.037576783 0.023142865 -0.01920604
-0.031055538 -0.046480417 0.00869376 -0.028703645 -0.005989625 -0.024117108 -0.043208517 0.014699907
0.013882075 -0.027791139 0.009106718 0.03494106 0.030475657 0.0065287887 -0.024610886 0.019131422
-0.002414192 -0.023006532 0.024433302 -0.017558806 0.00025616094 -0.026018972 -0.017484145 -0.041813016
-0.04505509 0.006371585 -0.03287217 -0.018506221 0.009062312 -0.0031827781 -0.009975865 0.008860538
-0.014478745 -0.039848596 0.029594623 0.039663456 -0.025771372 0.035193723 0.037261285 -0.027784213
0.026803017 0.04128942 0.0032939063 -0.009545495 -0.04191966 -0.03210762 -0.00162727 0.044693314
0.010073802 0.03186779 0.04916659 0.034082133 0.014115065 -0.034153033 0.016727997 0.012136689
-0.02829574 -0.028295046 0.009154767 0.03686592 0.03909548 -0.010532758 -0.010064494 0.0066278903
0.018005997 -0.015052754 -0.029193942 -0.031739417 0.00381551 -0.026932655 0.026725315 0.034730103
-0.025721308 -0.01928877 0.01794851 0.014750385 0.01829702 0.007301329 -0.03757102 -0.03751804
-0.0026561539 0.0074604843 0.047072798 -0.030262593 -0.026780559 -0.03781591 -0.025307558 0.033974525
-0.011185396 0.029484596 -0.038343128 0.019185256 -0.014158215 0.002371838 -0.010946863 -0.009493865
-0.03560983 -0.026033701 0.034556735 0.013689612 0.031666286 0.00054884393 0.009862264 0.016522167
-0.011976205 0.017942116 -0.011246887 0.02943387 0.034182876 -0.036120083 0.0052109864 -0.02765006
0.0055060177 -0.027313305 -0.0013874708 0.048883293 -0.003181954 -0.044005763 -0.00087398355 0.0037509077
0.0016763753 -0.022442024 -0.042975727 -0.017013071 0.040049244 -0.044045597 0.015032596 -0.037051763
-0.038456272 0.029874003 -0.04381673 0.003519369 -0.034225978 0.033859972 0.011962837 -0.017956987
0.031492602 -0.009484437 0.008972409 0.0044109235 -0.010759495 -0.0062450347 -0.02244804 -0.039839
-0.03881933 -0.031212842 0.0050697895 -0.005143122 -0.023059562 -0.031123212 0.0047153225 0.010525461
0.005335459 0.03699936 0.027742038 -0.015630422 -0.021701977 -0.015367566 0.04535595 -0.013204194
0.03391108 0.014862914 -0.01960775 -0.018979773 0.0028821242 -0.024527175 -0.018552544 -0.016619077
-0.014461224 0.0009639193 -0.03244065 0.037257425 0.02874807 -0.033786442 0.020959854 -0.016671574
0.008642429 0.01916137 0.0023820875 0.039667327 -0.0051952014 -0.028685706 0.046818126 -0.0021248194
0.021478506 -0.021844026 -0.0025855529 -0.032621715 0.021268904 0.014894513 -0.021406937 0.026961831
0.034003887 0.0034148418 -0.01543997 0.025481021 -0.02318041 0.01807904 0.01734478 0.030838916
-0.033667073 0.0066600065 0.013043259 0.030567328 -0.0032513256 -0.03373817 -0.04571077 0.005935809
-0.011628816 -0.014794403 0.040243696 0.032999307 -0.0011384295 0.0010084258 -0.042173658 -0.035301335
0.025296701 0.019344185 -0.041639496 0.03659631 0.0010295277 0.008767619 0.02029919 -0.004959503

weight f4 [128, 256]
00000000: e9f1 a13c 5d12 0d3d 80de 733d 3221 5cbd
00000010: 2d9d 123d a363 b9bc 0a27 133d da12 903b
00000020: d916 1d3d bf71 0a3d 7fa2 20bd 4332 423d
00000030: 535f c43c 238b 903c 462b 053d d1b7 a739
00000040: ac7d c4bb c79c 23bd df7c 0abd 0e15 f5bc
00000050: 8f96 4dbd 1d3a 423d d8b3 0dbd bcad e53c
00000060: d80b 3ebd 269a 03bd ac62 813b d93a 44bc
00000070: 9383 783d 1794 dbbc 435f 673d 2554 58bd
00000080: 8854 b43a b9ce 2dbc 15ca 1c3d 5399 253d
00000090: 1603 103c 214d 25bb f76d a8bb b2e5 183d
000000a0: df9c 5c3d d39f 6b3c 03cf c8bc 8c93 e13c
000000b0: d7ea 67bc c5cd 013d 823f 543d 740f 7e3d
000000c0: d75e 60bd e989 5f3c 8f1c 3d3c f422 13bd
000000d0: 4f71 2cbd 9e73 a33c 8b7b 323d 3d56 0bbc
000000e0: 68bf 3fbc 7fa0 2fbd 94a3 a9bc 66b1 263d
000000f0: 8e25 85bb aac3 17bd b707 163d b212 183d
00000100: 917b 6bbd af67 42bc a1f0 55bd 7354 96bb
00000110: 2064 db3b c131 3e3d f87b 793d 5b80 043d
00000120: c09d f3bc 4da6 4e3d a240 98bc 40b9 1dbd
00000130: 32ec 51bc ac78 653c f0b0 f63c 74c9 59bd
00000140: e044 d93a 8d6f 3bbd 4790 bfbc 46c4 34bb
00000150: 9226 fb3b e2e0 9f3b 74aa 6c3b 67ed 13bd
00000160: 45d9 733d bf6e 05bd 4de7 7a3d 085f 6abc
00000170: 9615 42bd fe53 553d ce56 8c3c 0ad1 0139
00000180: 2b3f f53c 3aff a9bc 2f50 143d 54a3 3ebd
00000190: 7256 41bd 01b4 06bd 4ac3 2dbd 3f00 dfbc
000001a0: a167 aabc 7ad6 303d 17a6 01bd 91a2 7abc
000001b0: 033e 7bbd 4fcf cf3b 7eb3 90bc fb70 e5bc
000001c0: 5be4 4c3d f370 9ebc c06b 493c 785c fc3b
000001d0: 8f0d 2cbd 7f26 eb3c 74e2 44bd 01a1 32bd
000001e0: a96b 3e3d f740 a83c 705d 85bd 03bb 4eba
000001f0: 05d4 513b 28a1 85bc b358 843d 8dd9 2fbd
00000200: 28aa cc3c 7059 203d ea7d d83c b4aa 54bc
00000210: 1c44 4fbb c328 093c b353 d4bc 5549 783d
00000220: 2bdf 323d 3cea 423d 0d1d 00bd 7253 05bc
00000230: 4b77 3cbd bd7f 163d a8bf 2f3d 9412 733d
00000240: 2cf2 cfb9 a7cf 1b3d 1962 cf3c 7b90 47bc
00000250: 5bb6 b63c 63b5 31bd bb6b a6bc 9187 98bb
00000260: 1e21 a4bc 181a 43bd ef2f 623d c1e1 5dbd
00000270: 70f1 c83b 3c43 093d 4cc3 533d 5055 0ebc
00000280: f808 25bd 4c90 15bd c30a 2f3d eb30 8dbc
00000290: 6778 14bd 10c2 fbbc b9ec 83bd dd9d c9bc
000002a0: 2a8e 12b9 9450 23bd 4aad 0abd 4e95 8a3d
000002b0: 79b2 dabc b0f8 1bbc 1cc8 153d 5a2d 353c
000002c0: 5e12 0c3c 7cf2 0a3c 5342 0fbc c561 e1bc
000002d0: 4b35 2a3d 90cb 52bc 4cf0 21bd 96d5 15bb
000002e0: 1218 b4ba 80c6 18bd 6cb0 ae3c 99ff 9fbc
000002f0: 7cf3 61bd 9a34 59bd ddf6 b93b 98b6 61bd
00000300: fbc5 49bd 1cc9 da3c 8c54 f13c 2674 8e3c
00000310: 9204 cbbb fef4 9dbc 9da7 013c b663 3f3d
00000320: bf1b 3ebd 0864 d83b 5afb 123b 535f 023d
00000330: cff3 563d c892 293d 7963 87bd f18d 883c
00000340: faa5 b43c 3f65 74bc d49c dfbc 51b4 df38
00000350: 9ef5 d53c d495 513d f3f7 93bd a008 13bd
00000360: c866 66bd 5fdd 173a 4a5d cf3c 192b c039
00000370: 5e04 f2bc b3b3 1bbb 548a 78bd d0ad a73c
00000380: 808b 5b3c a7b1 3cbd 8152 8f3c e9c6 453d
00000390: 96fd 0bbd e49c 803c e67e 59bd 11bd cc3c
000003a0: 85bf b93c 87ac 093d f386 c03a 6741 a03c
000003b0: d7b9 1cbd ab80 5abd 7c92 acbb e0a2 2d3d
000003c0: 2aef 5dbd 9f71 53bb b891 6ebd 45d2 ca3c
000003d0: 901f a6bc fb99 fd3c d476 173d b723 97bc
000003e0: a4d2 82bd 21e7 a93c f8ab 103d 596e 89bd
000003f0: 8185 13bd b044 53bd 8ebb 653c 962f eebc
0.019768672 0.03444134 0.059538364 -0.053742595 0.035794426 -0.022630518 0.035925902 0.0043967785
0.038351867 0.033799883 -0.03921747 0.047411215 0.023971235 0.01764447 0.032511972 0.00031989676
-0.0059964266 -0.039944436 -0.033810493 -0.029917266 -0.050192412 0.047418702 -0.03459534 0.028036945
-0.046398014 -0.03212943 0.00394853 -0.011976921 0.060672354 -0.026804013 0.056487333 -0.05281462
0.0013758102 -0.010608369 0.038278658 0.040429424 0.008789798 -0.0025222974 -0.005140062 0.03732843
0.05386054 0.014381367 -0.024512773 0.027536176 -0.014155111 0.031690378 0.05181838 0.062026456
-0.054777946 0.01364372 0.011542453 -0.035922006 -0.042100247 0.019952592 0.04357485 -0.0085044475
-0.01170335 -0.04287767 -0.020707883 0.040696524 -0.0040633148 -0.037051834 0.03662845 0.037127204
-0.05749089 -0.01186554 -0.052231435 -0.004587704 0.0066952854 0.046434168 0.06090924 0.03234897
-0.029738307 0.050451566 -0.018585507 -0.038506746 -0.012812661 0.014005821 0.030113667 -0.053170636
0.0016576312 -0.04576068 -0.023384226 -0.0027582808 0.00766451 0.004879103 0.003611234 -0.036115076
0.059533376 -0.03257632 0.061255742 -0.014304884 -0.047383867 0.052082054 0.017131235 0.00012380272
0.029937347 -0.020751584 0.03620928 -0.04654248 -0.04720158 -0.03288651 -0.04242257 -0.027221797
-0.020801367 0.04317329 -0.031652536 -0.015297548 -0.061338436 0.006341852 -0.017663714 -0.028007975
0.050022464 -0.019340968 0.012293756 0.007701453 -0.042005118 0.02870488 -0.048067525 -0.043610577
0.04648939 0.02053879 -0.065119624 -0.0007886143 0.0032017243 -0.016312197 0.064622305 -0.042932082
0.02498348 0.039147794 0.026427228 -0.012980152 -0.003162629 0.008371535 -0.025918817 0.06061681
0.04366986 0.047586665 -0.031277705 -0.008137571 -0.046012204 0.036742914 0.042907387 0.05934389
-0.0003966255 0.03803983 0.025315331 -0.012180443 0.02230375 -0.043385874 -0.020315042 -0.0046548326
-0.020035323 -0.047632307 0.055221494 -0.054170374 0.006132297 0.033511385 0.05169992 -0.008687332
-0.040291756 -0.036514565 0.042734873 -0.01723524 -0.036247637 -0.030732185 -0.06441636 -0.024611408
-0.00013976605 -0.039871767 -0.033856668 0.06766759 -0.02669643 -0.009519741 0.036567792 0.011058176
0.008549301 0.008480664 -0.00874384 -0.02751244 0.04155473 -0.012865916 -0.039535806 -0.0022862903
-0.0013740084 -0.03729868 0.021324359 -0.019531058 -0.055163845 -0.05302868 0.0056751803 -0.055105776
-0.049261075 0.026707225 0.02945926 0.017389368 -0.006195613 -0.01928186 0.007913497 0.04672595
-0.04641318 0.0066037215 0.002242765 0.03182919 0.052478608 0.041399747 -0.0661077 0.016669245
0.0220518 -0.014916717 -0.027296461 0.00010667055 0.026118096 0.051168278 -0.07225027 -0.035896897
-0.056250364 0.000579318 0.025313038 0.00036653204 -0.029543098 -0.0023758232 -0.060678795 0.020468622
0.013399959 -0.04606786 0.017495396 0.0482854 -0.034177385 0.015699811 -0.053099535 0.024992498
0.022674331 0.0336118 0.0014688656 0.019562436 -0.03826317 -0.053345364 -0.0052664857 0.042391658
-0.054183163 -0.0032263768 -0.058244437 0.024758467 -0.020278722 0.030957213 0.036978558 -0.018449647
-0.06387833 0.020740094 0.035320252 -0.067105 -0.03601599 -0.051579177 0.014021767 -0.029075425

bias f4 [128]
00000000: dd12 023d 9b0b 31bd 5b1f b83c c114 26bd
00000010: ffae 82bd 8198 953c ce92 9cbc 75a5 1f3d
00000020: b963 60bd 5d49 b5bc 15af c8bc 3d33 4e3d
00000030: 6708 cb3c 510b b1b8 0750 0e3d 6cdf 153d
00000040: 99a7 c33c 3479 883d 5d65 283d 36ae fb3b
00000050: e7ea 6d3d 7372 e2bc 90e9 f13c eb8b 143d
00000060: 12ba 3e3d 5b26 83bb 3882 183c d527 53bb
00000070: 7610 e2bc 843b 773c c3ca 0f3d 5412 38bd
00000080: 995c d13b d9b4 e63c 478c 61bc dd13 1dbd
00000090: d131 823d 2847 4b3d 6afd 383d 12c3 d03b
000000a0: 8a6b 5cbd af11 b53a 369f 20bd 9544 39bd
000000b0: cb0a 443c 5e11 13bd 30e4 37bd 6291 4fbd
000000c0: fb1e c8bc 610b ec3a 1c1e 20bd e73e dd3c
000000d0: 7c86 9ebc b12d 41bd 9214 3d3d 3772 70bd
000000e0: a46a 3c3b eac0 8ebd 3398 dfbc 715a fc3c
000000f0: 57d2 ba3a 81ea 25bd 2c6e 9d3c d41d c5bb
00000100: b6e0 24bd acef 5b3d 7db2 47ba bb28 b2b9
00000110: 6461 eb3c 8e9e 83bc 2ec3 773c 6e04 2a3d
00000120: b4de 203c 8291 063d b5b6 983b fd5c a4bc
00000130: 31bd 513d 40aa 8e3b 4270 1d3d 45bb 87bd
00000140: d6b3 13bd 4f25 103d cbf1 123c 20f7 24bd
00000150: b96e 5b3d 800e 7ebc 9756 1a3d 0130 053d
00000160: 9ee3 60bd 8630 b33b 9516 38bd e9b1 a23c
00000170: fa8f f0bb 0577 87bd 1208 75bd cba3 653d
00000180: 718a 4cbc c016 073d 4cca 1c3c ad03 55bd
00000190: 9bea 14bb 62df eebc c926 44bd 7eff a8bc
000001a0: f21d 3fbc d10d 103d 3420 6dbd c498 c8bc
000001b0: 1cf8 373d be03 8b3c 57a4 07bb e396 603c
000001c0: 8eac 1abd 3755 83bc 7826 ca3c d028 9f3c
000001d0: 16a8 84bd 3e4d 3bbd be18 fdba 4831 68bd
000001e0: 897a 25bd c597 a13c 642d 9c3c 0adc 4d3d
000001f0: 2f08 6abd 2861 41bd eca5 c03c 503e 253d
0.03175627 -0.04322396 0.022475889 -0.040547136 -0.06381034 0.018261196 -0.01911297 0.03897615
-0.054782603 -0.022129709 -0.024497548 0.050341833 0.02478428 -8.4421255e-05 0.03474429 0.036590025
0.023883628 0.06663743 0.041112293 0.0076806797 0.05808535 -0.027642464 0.029530317 0.03626625
0.04656417 -0.004002375 0.00930839 -0.0032219787 -0.02759574 0.015089873 0.035105478 -0.044939354
0.0063892123 0.028162407 -0.013766355 -0.03834902 0.06357158 0.049628407 0.04516355 0.0063709104
-0.053813495 0.0013814474 -0.039214335 -0.04523142 0.011965464 -0.035905235 -0.04489535 -0.050675757
-0.024428835 0.0018008762 -0.039091215 0.027007533 -0.019351237 -0.047162715 0.046162196 -0.058702674
0.0028750086 -0.06970389 -0.027294254 0.030804845 0.001425336 -0.040506843 0.019217573 -0.0060155187
-0.040253364 0.053695366 -0.00076178444 -0.00033981152 0.028732963 -0.016066816 0.015122218 0.04150813
0.009818722 0.03285361 0.0046604523 -0.020063872 0.051205818 0.0043537915 0.038437136 -0.06627516
-0.036060177 0.03519183 0.008968781 -0.04027474 0.05357239 -0.015506387 0.037680235 0.032516483
-0.054904573 0.005468431 -0.04494341 0.019860225 -0.007341382 -0.06614498 -0.05982215 0.05606441
-0.012484179 0.03298068 0.009569716 -0.05200546 -0.0022722844 -0.029159252 -0.04788855 -0.02062964
-0.011664854 0.035169426 -0.05789204 -0.024486907 0.04491435 0.016969558 -0.002069732 0.013707849
-0.037762217 -0.016031845 0.024676546 0.01942864 -0.06477372 -0.04572796 -0.0019309742 -0.056687623
-0.04040006 0.01972569 0.019064613 0.050258674 -0.05713671 -0.047211796 0.023516618 0.04034263

weight f4 [60, 128]
00000000: c10f 50bd 911b 53bd 65a6 523d 2792 ea3c
00000010: 1290 0fbc 5055 4b3d fc64 26be be7a c1bd
00000020: 471c 6e3d 4b10 3a3c 456f 073d e936 583d
00000030: 34cc 7f3d 478f 513d 44d5 c83c 4521 383d
00000040: 10b3 8b3a 4ddf 17bd 9b08 6dbd 6921 e83c
00000050: 4265 edbc c3ef 8cbd d7fc f2bc e94e 07bd
00000060: baa3 7c3d 7659 6b3c ca73 06bd 3160 43bd
00000070: 7844 a43c a168 3f3d 6249 99bb e2d3 8fbd
00000080: ced0 823d 4ca2 643c 09bf 883d 1d82 0bbd
00000090: 71c7 81bd 06dd a5ba bd82 23bd 41cf 51bc
000000a0: e2ae 47bd 504b 91bd f786 a4bd b4cb f6bc
000000b0: 3fbd 913d 7cb1 27bd 8f34 ea3c 893d c83c
000000c0: 6f42 e83c fa35 4e3d 7025 a63d ceb5 5fbd
000000d0: 2fa0 bebd 1937 703d 17b3 093d b290 713c
000000e0: b45e 0abd a2f3 8ebc 41b3 e23c 1036 a5bc
000000f0: a835 4aba 0096 93bd 7d3c 593d be70 cfbd
00000100: 31a4 91bd 6c91 62bd df4a 7e3d c4ab 2ebd
00000110: 1f97 103c 5463 b03d b7c3 663c eb23 b6bc
00000120: 1b9a bcb8 a4e0 1abd 296b d3bd 3cf6 e83c
00000130: 8410 1f3c 763c 72bd 13ee 99bc e9a9 9bbd
00000140: 24e1 613c 50d2 5e3c e5ff 443d 3496 e13c
00000150: 3abf 39bd 198d aebc 6e60 673d 34c5 083d
00000160: 1fd3 6d3d 0f34 81bd 28a1 9dbd 0f46 80bd
00000170: 25b7 8f3c ff21 b8bc 1d5f 863d 6e00 953d
00000180: dee6 95bd 7065 423b e842 81bc 141e 02bd
00000190: 116d 19bc 65d1 c23c eed4 403d a6f4 b1bd
000001a0: 258e 74bc ff4d d2bd 6aa3 763b 5a71 bc3c
000001b0: bb16 8dbd 2797 bc3c 7c13 a63d 9646 a33d
000001c0: ab9d a0bd aa09 d23c ae25 843d ed20 65bd
000001d0: e620 5ebd 8f3d c7bd dc34 523d 089f 993d
000001e0: 1c99 85bc a645 b0bc f90d f23c cfb3 173d
000001f0: eab1 2cbd 976a 993d 3bcc 43bd 7d2a 293a
00000200: 51fa b33d 228a e73c a2f3 9abd 43a2 f33d
00000210: 63bb 523d 8d1a 333d 08ca 253c 93bd 3cbd
00000220: 0615 193c 3738 283d f5f5 203e cdbd 81bd
00000230: 2ee6 8f3d 12f6 f63b a057 ba3c 1ed4 cf3d
00000240: 841b 8cbd 209f fcbc 3717 843c f99a b13d
00000250: a430 5cbe 091a ecba edef 67bd 9541 52ba
00000260: 02a6 eebc 62cc 72bc 3bf9 84bd e146 553c
00000270: f643 3d3d 6310 a2bc 84d0 cd3d 11ac 2d3d
00000280: ae49 493d ef49 0c3b 901a 293c 5cbc 73be
00000290: 6ee0 23bd 068d c83c c806 e03c 2b83 ff3c
000002a0: 2188 1ebd 4ef2 0dbd f54e 05bd 7d2e 623c
000002b0: 5672 3b3d 6ea9 62bc 54c2 43be ae61 0b3e
000002c0: 6243 993d cb23 913d 26cc f4bc c31d 413b
000002d0: 4607 58bc 1663 12bd 1afa 6cbd ba66 3c3d
000002e0: e08e d03c 296f cc3b f291 4fbe 13c0 bf3d
000002f0: 1082 93bd a362 82bd d0ea 6f3d 0094 38bd
00000300: 846b 6f3d d2b7 8fbc 9b57 71bd 9735 7a3d
00000310: 87cb 863c 70b4 093d afe2 ecbd 82f4 3c3c
00000320: 3fed 833d a910 eabc 9a35 f2bb 450d 803d
00000330: 6696 a33d 852c 4fbc dbf0 80bd 9942 2a3d
00000340: 8664 b5bc e887 4fbc dcd5 093d 17f5 0f3e
00000350: 3a15 0bbe 4fa7 3f3d 6fa8 b6bc 3e9b a03c
00000360: 260e 58be 9f61 88bd 9992 353d e017 a6bd
00000370: ad8f cb3d d037 f93c 8c35 123d 6100 99bb
00000380: 45c1 19bd 3bea 683d 34dc 1cbd 8d58 223c
00000390: 28c0 e73c 90f0 89bc e183 94bd 4eb7 183d
000003a0: bd1c dcbc 0f29 b4bd 2fa4 bbbd 16f8 0e3d
000003b0: 6c4b b4bd 6aa1 943d e445 953d fa59 8a3d
000003c0: faaa 7cbd 1e17 a73d 86b4 913c 0158 52bd
000003d0: 18ac 923c 10b4 773d 5904 12bd e817 333d
000003e0: ced6 cfbd d4d9 983c ff4b f63c 198c 38be
000003f0: f4ac 103e 99cd 9a3d de60 c1bc 499a 1bbe
-0.050796274 -0.05153996 0.051428217 0.028634144 -0.008762376 0.049641907 -0.1624946 -0.09447239
0.058132436 0.011356424 0.0330651 0.05278674 0.062450603 0.05116203 0.024515755 0.044953603
0.0010658223 -0.03707819 -0.057869535 0.028336244 -0.028978948 -0.068816684 -0.029661579 -0.03303424
0.06167958 0.014364591 -0.03282527 -0.047699157 0.02005218 0.04673064 -0.0046779374 -0.07022835
0.063874826 0.01395471 0.06677062 -0.034059633 -0.063368686 -0.0012654371 -0.039919604 -0.012805761
-0.048750766 -0.07094443 -0.08033555 -0.03012643 0.07116174 -0.040940747 0.028589515 0.024443405
0.02835199 0.050344445 0.081126094 -0.05461674 -0.09307896 0.058646295 0.03361806 0.014743971
-0.033781722 -0.017450158 0.027673366 -0.02016738 -0.0007713684 -0.072063446 0.0530362 -0.10128926
-0.07111395 -0.055314466 0.06208312 -0.042644277 0.008825093 0.08612695 0.014084748 -0.022233924
-8.993243e-05 -0.03781189 -0.103231736 0.028437726 0.0097085275 -0.05913969 -0.01879028 -0.07600767
0.013786588 0.013599947 0.048095603 0.027537443 -0.045348383 -0.021307515 0.056488447 0.033391193
0.05806267 -0.063087575 -0.07696754 -0.062633626 0.017543385 -0.022477148 0.0656111 0.072754726
-0.07319425 0.0029662512 -0.015778974 -0.031766966 -0.009364382 0.023781488 0.047078066 -0.08689241
-0.014926468 -0.10268783 0.0037634023 0.023003269 -0.06889101 0.023021294 0.08109185 0.079724476
-0.07842573 0.025639374 0.06452499 -0.055939604 -0.054230593 -0.09728538 0.051319942 0.07501036
-0.01630836 -0.021517586 0.029547678 0.037036713 -0.04216186 0.074910335 -0.04780219 0.00064531696
0.087879784 0.028264109 -0.075660005 0.11896183 0.051448237 0.043726493 0.010118969 -0.04607923
0.009343391 0.041069236 0.15718825 -0.0633503 0.07026325 0.007536658 0.022746861 0.1014788
-0.06841186 -0.030837595 0.016124351 0.08672137 -0.2150293 -0.001801313 -0.056625295 -0.0008020637
-0.029131893 -0.0148192365 -0.064928494 0.013017387 0.04620739 -0.019783204 0.10049537 0.042400423
0.049142532 0.0021406373 0.010321274 -0.23802322 -0.040008955 0.024481308 0.027346984 0.031190475
-0.03870404 -0.034654908 -0.032546002 0.013805029 0.045763336 -0.0138343405 -0.19117099 0.1361148
0.074835554 0.07086905 -0.029882502 0.0029467202 -0.013185328 -0.035739027 -0.057855703 0.045996405
0.025458753 0.0062388373 -0.20270517 0.09362807 -0.07202542 -0.0636647 0.058573544 -0.04506302
0.058452144 -0.017543707 -0.058921438 0.061086264 0.016454471 0.033619344 -0.11566674 0.011532905
0.064417355 -0.028572397 -0.0073916437 0.06252531 0.079876706 -0.012644892 -0.062959395 0.04156742
-0.02214266 -0.01266668 0.033651218 0.14058338 -0.13582316 0.046790417 -0.022297112 0.019605275
-0.21099147 -0.06659245 0.04432926 -0.081100225 0.09939513 0.030422121 0.035695598 -0.0046692346
-0.03753783 0.056864005 -0.03829594 0.009908807 0.02828987 -0.016838342 -0.072517164 0.037284188
-0.026869172 -0.08796894 -0.09162175 0.034904562 -0.08803448 0.0725735 0.07288721 0.06755443
-0.061686493 0.08158706 0.017786276 -0.05135346 0.017904326 0.060474455 -0.035648677 0.04372397
-0.101483926 0.018658556 0.030065535 -0.18022193 0.14128476 0.07558746 -0.02360576 -0.15195574

bias f4 [60]
00000000: d7c4 39bc 8237 03bb f76d e63c 37f3 9fbb
00000010: 3848 04bc d895 6839 0e7c 0fbd badb b239
00000020: 9be7 9a3c 0475 34ba d1a0 d2bb edef 76bc
00000030: aaa3 4e3d 8ef1 96ba 979e 203d fba3 78bb
00000040: c7ca 8ebc 878d d23b df38 ce3c 6d3d ce3c
00000050: 310c 9738 686b d3bc f1fc f13c c0b2 14bb
00000060: c621 1dbd f113 73ba 3cfc 6d3d e067 3dbc
00000070: b851 4b3d f211 6bb9 4066 093c 6de2 acba
00000080: 5a20 ebbc 7be4 99bb 56ca ebbb fc82 5c3c
00000090: 5452 36bd 0ecf 9bbb 6645 3a3c 489c f639
000000a0: 89ef 183c 0a47 fbba af50 30bd 2fb8 4c3a
000000b0: 44a0 ccbc 8805 84bb a5c0 413b f945 86bb
000000c0: 8ae6 27bb 3abf dcb9 a0f7 18bd e1aa 9fbb
000000d0: a1fa cebc 0916 63bb 5821 323c 7cde 2bbc
000000e0: c4ec 523c 1f61 4bb9 e8cd b6bc b26d 76ba
-0.011338434 -0.00200221 0.028128607 -0.0048812884 -0.008073859 0.00022181065 -0.035030417 0.00034114515
0.018909266 -0.0006883892 -0.006427862 -0.015071851 0.05044905 -0.0011516081 0.039213743 -0.0037939537
-0.017430676 0.006425563 0.025173603 0.025175774 7.202512e-05 -0.025808051 0.029539557 -0.002268955
-0.038362287 -0.0009272686 0.058101878 -0.01156041 0.04963848 -0.00022418032 0.008386195 -0.0013190039
-0.02870195 -0.0046964264 -0.007195751 0.0134589635 -0.044512108 -0.0047549075 0.011369085 0.00047037215
0.009334453 -0.0019170952 -0.043045696 0.0007809428 -0.024978764 -0.0040289797 0.0029564288 -0.004097697
-0.002561959 -0.00042104145 -0.03734553 -0.0048726653 -0.025265994 -0.0034650585 0.010872208 -0.010490056
0.012873832 -0.00019395769 -0.02231498 -0.0009400501
