linearPredictionModels/db39/small/combined.csv_wholeNetPrototype5_Epochs3_ValidationLoss5.797169_lr0.0003_2023_07_30_13:08:37.pth (torch, 992599 bytes, 8 tensors)

weight f4 [512, 145]
0	0x3d095bf9	0.033534978
1	0x3c5a99bd	0.013342318
2	0xbd998053	-0.07495179
3	0xbde4af8e	-0.11166297
4	0x3d0447f4	0.032295182
5	0xbd1a4773	-0.037665796
6	0xbb692b23	-0.003557869
7	0xbb37e2c7	-0.0028058754
8	0xbd54be15	-0.05193909
9	0x3d2a026d	0.04150622
10	0xbe1b912c	-0.15192097
11	0x3d3f0418	0.046634763
12	0xbd636b04	-0.05552198
13	0xbcc28b89	-0.023748176
14	0x3c8657c0	0.016399264
15	0xbdeac495	-0.11463276
16	0xbdf56852	-0.11982788
17	0x3c99b4f8	0.01876305
18	0x3d33427c	0.043764576
19	0x3d25d3e5	0.04048528
20	0x3cf03603	0.02932263
21	0xbda2090d	-0.079118825
22	0xbde8cd0d	-0.11367235
23	0xbe2cbaab	-0.16868083
24	0x3cb8fc20	0.02258116
25	0x3d926dec	0.07149872
26	0xbe0db8ab	-0.13839976
27	0x3ba36352	0.004986205
28	0xbd6aa22e	-0.057283573
29	0x3da0d9f7	0.078540735
30	0x3d4c5c6a	0.04989282
31	0xbdabbb3c	-0.083853215
32	0xbcf193f8	-0.029489502
33	0x3ce7d74a	0.0283009
34	0xbd8c2270	-0.06842506
35	0x3c2b65a7	0.0104612475
36	0x3b444f53	0.0029954507
37	0xbdb394c7	-0.087686114
38	0xbb1bff21	-0.0023803192
39	0xbd287701	-0.041129116
40	0xbd021d49	-0.03176621
41	0x3d8fa00e	0.0701295
42	0xbc79ebd1	-0.015253977
43	0x3dc58e0c	0.09646234
44	0x3b4b5612	0.0031026644
45	0xbd37706a	-0.04478494
46	0x3cc1b40a	0.02364542
47	0x3ce11c03	0.027479177
48	0xbe114a6f	-0.1418855
49	0xbe2eecaa	-0.17082468
50	0xbe3124fb	-0.17299263
51	0xbdfb4da5	-0.12270669
52	0xbd7f3fbf	-0.062316652
53	0xbbd3f72f	-0.0064686756
54	0xbbf51bd4	-0.007480124
55	0xbd392743	-0.04520346
56	0xbb3a08cc	-0.002838659
57	0xbe00a243	-0.12561898
58	0xbd9e1b2d	-0.07720027
59	0x3d1c410b	0.038147967
60	0xbd1a5ea2	-0.037687905
61	0xbd67844b	-0.05652265
62	0x3c6ccae3	0.014452669
63	0xbe7849b9	-0.24246873
64	0xbd5c40b0	-0.05377263
65	0xbab121ca	-0.0013514098
66	0x3d80d668	0.06290895
67	0x3e19872f	0.14992975
68	0xbd22deb4	-0.039763168
69	0x3d496e2d	0.049177337
70	0xbdd6d8b4	-0.104905516
71	0x3da5e8de	0.081010565
72	0x3d851b49	0.06499345
73	0x3d78db6c	0.060756132
74	0xbd1954d6	-0.03743442
75	0x3b1d6821	0.0024018364
76	0x3d778f54	0.060439423
77	0x3d9dd731	0.0770706
78	0xbc60764e	-0.013700081
79	0x3d0bb553	0.03410847
80	0x3c95c2b4	0.018281318
81	0xbd09cd88	-0.033643275
82	0xbcd65ab2	-0.026166294
83	0xbc605d35	-0.013694097
84	0xbd08d711	-0.03340823
85	0x3e068210	0.13135552
86	0xbd90dfd2	-0.0707394
87	0x3bdd3abf	0.006751388
88	0x3ce4d5b4	0.027933933
89	0x3d540e69	0.051771555
90	0xbd99539e	-0.07486652
91	0x3ca56fbf	0.020194886
92	0xbcd34590	-0.025790006
93	0x3d9cc6b6	0.076550886
94	0x3c96493d	0.01834547
95	0x3d53acb2	0.051678367
96	0xbc3b1dab	-0.011420648
97	0x3c99c9d5	0.018772999
98	0xbcecdade	-0.028912958
99	0xbcd1f8d9	-0.025631355
100	0xbd5ce329	-0.053927574
101	0x3d21a0eb	0.039460104
102	0xbd404767	-0.046943095
103	0x3ce2be51	0.02767864
104	0xbd123cd9	-0.03570256
105	0xbcf4bc3a	-0.02987491
106	0xbccb9225	-0.02484996
107	0xbcbf648a	-0.02336337
108	0xbd4426c2	-0.047888525
109	0xbd8c138f	-0.06839668
110	0xbd8b7ceb	-0.068109356
111	0x3d7ea958	0.062173218
112	0x3d3628bb	0.044472437
113	0xbd6368f9	-0.05552003
114	0x3ad1cfa4	0.0016007316
115	0xbc5421f3	-0.012947547
116	0x3d86d54a	0.065836504
117	0xbd31e993	-0.043435644
118	0x3cc620b0	0.024185508
119	0x3d4dbd45	0.05022933
120	0x3d8006d9	0.06251306
121	0x3c641c7c	0.013922807
122	0x3c647d61	0.013945908
123	0x3c5f0508	0.013612039
124	0xb86bb133	-5.6193396e-05
125	0x3d3575f1	0.04430193
126	0x3b1c070d	0.0023807914
127	0xbc945fe7	-0.018112136
128	0x3d8b38de	0.06797956
129	0x3b78bc49	0.0037954024
130	0xbd3624ab	-0.044468563
131	0xbd583d6c	-0.05279295
132	0xbbf3a151	-0.007435002
133	0x3da9e49b	0.08295556
134	0xbb803254	-0.0039122496
135	0x3c3dd622	0.011586698
136	0xbd919701	-0.0710888
137	0xbc121198	-0.0089153275
138	0xbcf3b113	-0.029747522
139	0xbd06c5ee	-0.032903604
140	0x3d86a414	0.06574264
141	0x3c313cdb	0.010817732
142	0xbd6c9d00	-0.057766914
143	0xbda31035	-0.079620756
144	0x3bd771a9	0.0065748286
145	0xbda2ccc1	-0.0794921
146	0x3de4c9a5	0.11171273
147	0x3d067c70	0.032833517
148	0xbd0f92e3	-0.03505219
149	0x3cac6fec	0.021049462
150	0x3c58030b	0.013184319
151	0xbc83bd84	-0.016081579
152	0x3d9ff7f0	0.07810962
153	0x3ccba249	0.024857657
154	0x3da850c0	0.08218527
155	0xbd17d90f	-0.037072238
156	0x3d4828ec	0.04886715
157	0xbd682d76	-0.05668398
158	0x3d56e136	0.05246087
159	0xbc622317	-0.013802311
160	0xbd514d62	-0.05109919
161	0x3ca3cbc0	0.019994617
162	0x3dd0f64e	0.10203229
163	0x3db71a98	0.08940619
164	0x3df5f313	0.12009253
165	0x3d460ef4	0.048354104
166	0xbd28acbb	-0.041180354
167	0x3d455305	0.048174877
168	0x3db50277	0.08838361
169	0xbb3b2719	-0.002855724
170	0xbcc9c511	-0.024630101
171	0x3d6353c7	0.05549982
172	0x3df8a5e4	0.12141016
173	0x3d91f81f	0.071274035
174	0xbd3378bc	-0.043816313
175	0xbc31e241	-0.010857166
176	0x3c6cce6f	0.0144535145
177	0x3dcfe683	0.101513885
178	0x3d82aff0	0.06381214
179	0x3dd6abe2	0.10482003
180	0xbcff3280	-0.03115201
181	0xbc742c9a	-0.014903212
182	0xbccb9d74	-0.024855353
183	0xbd959bf8	-0.07305139
184	0x3d60c39d	0.05487405
185	0xbcddb66f	-0.02706453
186	0xbd703613	-0.05864532
187	0xbd9df883	-0.077134155
188	0x3d9a3eab	0.07531484
189	0x3d258392	0.04040868
190	0x3c23abdc	0.009989705
191	0x3c99de28	0.01878269
192	0x3d979906	0.07402234
193	0x3c979fd4	0.01850883
194	0x3dafe920	0.08589387
195	0xbcc6c0cd	-0.024261856
196	0xbd276198	-0.040864557
197	0xbd805d25	-0.06267766
198	0xbc8ece2c	-0.017432295
199	0x3d153be9	0.036434088
200	0x3c8000b5	0.015625337
201	0x3c472793	0.012155431
202	0x3da451c2	0.080234066
203	0x3c38b32b	0.011273186
204	0xbd233ac2	-0.039850958
205	0x3da64a03	0.08119585
206	0x3e3cd91c	0.18442196
207	0xbcaf0767	-0.021365834
208	0x3daba00f	0.08380138
209	0xbea1d9fb	-0.31611618
210	0x3d142307	0.036166217
211	0x3d0a5fdf	0.033782836
212	0x3c21912b	0.009861271
213	0x3c3c2aee	0.011484845
214	0x3db1b4e1	0.08677078
215	0xbd026ef5	-0.031844098
216	0xbc95d5ff	-0.018290518
217	0xbb0ef5b6	-0.0021813936
218	0x3d8075f7	0.062725
219	0xbc8f2ad1	-0.017476471
220	0xbcc5e5b1	-0.024157377
221	0xbb8e8ed9	-0.004350525
222	0x3cf08a73	0.029362893
223	0xbc8be3ac	-0.017076336
224	0xbcb40391	-0.021974357
225	0x3d324acf	0.043528374
226	0x3d8d67bb	0.06904551
227	0x3d41f908	0.047356635
228	0x3d05a7e2	0.03263081
229	0xbce0a071	-0.027420254
230	0x3cfb8581	0.030703308
231	0x3d14f20a	0.03636364
232	0x3b7ddf7b	0.003873794
233	0x3a047bf1	0.0005053869
234	0x3b0d9c71	0.002160814
235	0xbc062f3e	-0.008189974
236	0x3b761c10	0.0037553348
237	0x3d5f5bf5	0.054531056
238	0x3ce28c4d	0.027654791
239	0x3c8f2223	0.017472332
240	0xbbf2e73b	-0.0074128187
241	0xbd5ab633	-0.053396415
242	0x3ced29a6	0.028950524
243	0xbd23bbb7	-0.03997394
244	0xbcc146f6	-0.023593407
245	0xbd069fd9	-0.032867286
246	0x3d070fa0	0.032973886
247	0x3c0a6976	0.008447995
248	0x3ca098cc	0.01960411
249	0x3ad8e555	0.0016547838
250	0xbb8dff2e	-0.0043333983
251	0xbc4f5e64	-0.012656782
252	0xbd262f2f	-0.04057234
253	0x3dbaefff	0.09127807
254	0xbd650c38	-0.055919856
255	0xbd5c966d	-0.053854395

bias f4 [512]
0	0xbd690333	-0.056887817
1	0x3ddd7c1e	0.10814689
2	0x3d6005d5	0.05469306
3	0xbd6a160b	-0.057149928
4	0x3d9988a9	0.07496769
5	0x3d6cff71	0.057860795
6	0x3c8c2fc2	0.017112616
7	0xbce92356	-0.028459232
8	0xbc96adc7	-0.01839341
9	0x3c3ee7dd	0.01165196
10	0xbc52d5f0	-0.0128683895
11	0x3a7a4425	0.00095468975
12	0xbc5f8a45	-0.013643806
13	0xbc8e1858	-0.017345592
14	0xbd659029	-0.056045685
15	0xbd38502f	-0.044998344
16	0x3d962ff0	0.07333362
17	0xbd0da5d8	-0.03458199
18	0xbdc86427	-0.097847275
19	0x3d0c4b8b	0.03425173
20	0xbd8ce3bb	-0.06879374
21	0xbd92672b	-0.07148584
22	0xbcb1dd75	-0.021712044
23	0xbcd55be4	-0.026044793
24	0x3d76d6c6	0.060263418
25	0x3d123dfb	0.03570364
26	0x3db8f009	0.09030158
27	0x3dbf69ee	0.09346376
28	0x3bcce840	0.0062532723
29	0xbd67c5b7	-0.05658504
30	0x3bbeec0a	0.005826478
31	0x3c682f3e	0.01417142
32	0x3dd7ed11	0.10543264
33	0xbda783e3	-0.08179452
34	0x3b236442	0.0024931584
35	0x3bb27ddb	0.005447132
36	0x3d116614	0.03549774
37	0x3c8d8bff	0.01727867
38	0xbcd88497	-0.026430411
39	0x3debc36e	0.11511885
40	0x3c8fc19d	0.017548377
41	0x3d43929f	0.04774725
42	0x3d411c53	0.047146153
43	0xbde8a3ff	-0.11359405
44	0xbd12d0d0	-0.03584367
45	0xbb80d280	-0.0039313436
46	0xbbfcf9c5	-0.0077202045
47	0xbcc1b273	-0.023644662
48	0xbc7fa6ce	-0.015603734
49	0x3d10eda9	0.0353829
50	0xbcee9b9d	-0.029126937
51	0xbdf16750	-0.117872834
52	0x3d2f5311	0.042803828
53	0xbd8a7f9f	-0.06762623
54	0xbd5316d3	-0.05153544
55	0xbcc21893	-0.023693359
56	0xbb74e791	-0.003736947
57	0xbc2f1a21	-0.010687382
58	0xbdabbc61	-0.0838554
59	0xbd8185f0	-0.06324375
60	0xbdf19ec2	-0.11797859
61	0x3c76fef4	0.015075434
62	0x3d9ab1c9	0.07553441
63	0x3c62eb6c	0.013850074
64	0xbd3039ec	-0.04302399
65	0x3d16e932	0.036843486
66	0x3a02f64a	0.00049958064
67	0xbda73fc8	-0.08166462
68	0x3d3fd088	0.04682973
69	0xbcf8ddc1	-0.030379178
70	0xbc7ba9ec	-0.015360337
71	0xbcff5a28	-0.03117092
72	0xbd43bd5d	-0.047788013
73	0xbce4d747	-0.027934683
74	0x3d4af94c	0.049554154
75	0xbcb7dd1d	-0.022444302
76	0xbc2c6283	-0.010521534
77	0xbca8b096	-0.020592015
78	0xbd85c88c	-0.06532392
79	0x3d39359b	0.045217138
80	0xbc1c38d7	-0.009535036
81	0x3c5caaa7	0.013468421
82	0xbd9097c7	-0.07060199
83	0xbd99e9f9	-0.0751533
84	0xbc58a457	-0.013222775
85	0x3d8d94c4	0.069131404
86	0xbc78ab25	-0.015177523
87	0x3bbcf8c8	0.0057669617
88	0xbd5ec4e3	-0.054386985
89	0xbc23edcd	-0.010005427
90	0xbdee08d1	-0.11622775
91	0xbd953ed6	-0.07287376
92	0xbcfd272c	-0.030902468
93	0xbbcb700a	-0.0062084245
94	0x3bea08eb	0.0071421764
95	0x3d6de856	0.0580829
96	0x3ceb068a	0.028689642
97	0xbca9cfe0	-0.020729005
98	0x3dacaa8f	0.08430969
99	0xbb7cfcc3	-0.0038602806
100	0x3d65fddd	0.056150306
101	0x3b54f0a3	0.0032492063
102	0x3e107c54	0.14109927
103	0xbc92f151	-0.017937334
104	0x3cc5c2ad	0.02414068
105	0xbd5a45fd	-0.053289402
106	0x3d7fe468	0.062473685
107	0xbd5fd8f5	-0.054650266
108	0xbdbd5f7f	-0.0924673
109	0x3da1cbfe	0.079002365
110	0x3caf200d	0.021377588
111	0x3d888d56	0.06667583
112	0x3d8cfbf4	0.06883994
113	0x3d2caeee	0.042159013
114	0xbc0baa68	-0.008524515
115	0xbd61b7d5	-0.055106957
116	0x3cc113aa	0.023568947
117	0xbd6a946b	-0.05727045
118	0x3d54243f	0.05179238
119	0x3cc9c429	0.02462967
120	0xbd45706d	-0.04820292
121	0xbd53379a	-0.051566698
122	0x3d3a2e4d	0.045454312
123	0xbd8faa3b	-0.07014891
124	0x3cabe24e	0.020981934
125	0xbd9e7c2e	-0.07738529
126	0xbc974e70	-0.01847002
127	0xbc8faaed	-0.017537558
128	0xbdcb24b7	-0.09919112
129	0xbda87a19	-0.08226413
130	0xbc91dc96	-0.017805379
131	0xbd7abdde	-0.061216228
132	0xbd3aff61	-0.045653705
133	0xbd5cbfc2	-0.053893812
134	0x3dda17b2	0.10649051
135	0x3d7b759e	0.061391465
136	0xbb84ba79	-0.0040505496
137	0x3deeda3b	0.11662718
138	0xbd433e82	-0.047667034
139	0xbc55764a	-0.013028691
140	0x3df11fe6	0.11773662
141	0xbd5a5bfd	-0.053310383
142	0xbe032aec	-0.12809342
143	0xbddf0e0f	-0.10891353
144	0xbd711193	-0.05885465
145	0xbd7a555e	-0.06111657
146	0x3d72d746	0.059287332
147	0x3d8acba8	0.067771256
148	0x3d8234ff	0.063577645
149	0x3b994b67	0.004678178
150	0xbd30e4d0	-0.043186963
151	0x3d4c07bd	0.049812067
152	0x3c6133af	0.0137452325
153	0x39c7e219	0.00038124694
154	0x3d308b28	0.04310146
155	0xbdaac4cc	-0.08338317
156	0xbc37cab5	-0.011217763
157	0xbd8ddc0c	-0.06926736
158	0xbbe7a5eb	-0.0070693395
159	0x3bf5e083	0.0075035705
160	0x3d248393	0.04016454
161	0xbdcb4193	-0.09924617
162	0xbdda60dc	-0.10663006
163	0x3d0342f1	0.032046262
164	0xbcc90ab4	-0.024541236
165	0x3d300722	0.042975552
166	0xbcf3e31d	-0.029771382
167	0xbd4a8023	-0.049438607
168	0xbd76e7bf	-0.060279604
169	0xbd227252	-0.039659806
170	0x3d1dcccb	0.038525384
171	0xbdea05d7	-0.11426895
172	0x3d132980	0.03592825
173	0xbd540469	-0.05176202
174	0x3d110ba3	0.03541149
175	0xb9d7e632	-0.00041179504
176	0x3d14fe05	0.036375064
177	0x3dab2e77	0.08358472
178	0xbd7024b8	-0.058628768
179	0x3d00b6e4	0.031424418
180	0x3ca5af4c	0.02022519
181	0x3d48afcf	0.04899579
182	0x3d1013ca	0.035175122
183	0xbb33c22f	-0.0027428975
184	0x3c1e6947	0.009668655
185	0x3dbb069a	0.091321185
186	0x3d1e3fe4	0.03863515
187	0x3d2f1f2c	0.042754337
188	0xbc0838dd	-0.0083143385
189	0x3dace2b9	0.084416814
190	0x3ded4c73	0.11586847
191	0x3d2e91f5	0.042619664
192	0x3d32b72a	0.04363171
193	0xbca95de2	-0.02067465
194	0x3ca24e0f	0.019812612
195	0xbe0e8794	-0.13918906
196	0x3cb6dcdd	0.022322113
197	0x3d395b51	0.0452531
198	0x3dbffeb9	0.09374756
199	0xbc19e4a2	-0.009392889
200	0x3d100bb2	0.035167404
201	0xbd7ae9c6	-0.0612581
202	0x3cc86ba5	0.024465391
203	0x3cd8f9e5	0.026486346
204	0x3c9b068a	0.018924017
205	0xbd72a3b0	-0.059238136
206	0x3d4fad6c	0.050702497
207	0xbda7a7c9	-0.08186299
208	0x3ded011c	0.11572477
209	0x3ce333f7	0.02773474
210	0xbda5235a	-0.080633834
211	0x3be49065	0.006975221
212	0xbd8274fb	-0.063699685
213	0x3d4b353d	0.04961132
214	0xbc72686a	-0.014795402
215	0xbc024ca4	-0.007952843
216	0xbd2270dd	-0.039658416
217	0xbdcaffff	-0.09912109
218	0x3d3d59e2	0.046228297
219	0xbd73c56e	-0.059514455
220	0xbd3e51fa	-0.046464898
221	0x3caae4db	0.02086108
222	0xbd8ddfa6	-0.06927423
223	0xbd1685e9	-0.0367488
224	0x3d37038b	0.044681113
225	0xbd678f61	-0.05653322
226	0xbccf077e	-0.025272127
227	0xbd8c368f	-0.06846344
228	0x3d62f49b	0.055409055
229	0xbda857ac	-0.08219847
230	0xbd86b928	-0.065782845
231	0x3de97655	0.11399523
232	0x3dc8acba	0.0979857
233	0x3c075439	0.008259826
234	0xbcb3ab01	-0.021932127
235	0x3bac46e1	0.005257473
236	0x3d3d9b92	0.04629094
237	0xbdab89e4	-0.0837591
238	0x3c917aea	0.017758805
239	0x3db064ae	0.08612953
240	0x3d9fc6b5	0.07801572
241	0x3cc4900c	0.023994468
242	0xbdb471a5	-0.088107385
243	0x3dcf24bc	0.101144284
244	0xbd1a6ac9	-0.037699495
245	0xbd3ba96e	-0.045815878
246	0xbc999a31	-0.018750282
247	0x3ca834bd	0.02053296
248	0xbd8243ca	-0.06360586
249	0xbdebccb1	-0.11513651
250	0xbdbd38fc	-0.092393845
251	0x3d0b439f	0.034000035
252	0x3c55be7e	0.013045905
253	0xbdb81fa5	-0.08990411
254	0xbdad202b	-0.08453401
255	0xbda40ea2	-0.080106035

weight f4 [256, 512]
0	0x3beb4c8f	0.0071807574
1	0xbd63e9e0	-0.055642962
2	0x3cc35207	0.023842825
3	0xbd84fc45	-0.06493429
4	0x3cf22b41	0.02956164
5	0x3d22415f	0.039613124
6	0xbd4466fe	-0.047949784
7	0x3d328b77	0.043590035
8	0x3d239011	0.039932314
9	0xbb1d12a6	-0.0023967414
10	0x3c53b5b4	0.012921739
11	0xbc9129b0	-0.017720073
12	0xbde73286	-0.112889335
13	0x3d2e4237	0.042543616
14	0x3baf4b58	0.005349558
15	0x3bd495eb	0.006487598
16	0x3d2090e5	0.039200682
17	0xbd7c2cef	-0.06156629
18	0x3c2cce1b	0.010547186
19	0x3bd8110d	0.0065938295
20	0xbceed14e	-0.029152539
21	0x3cf2b3af	0.029626695
22	0x3ce02621	0.027361931
23	0xbdcc1e27	-0.099666886
24	0xbd4e8fca	-0.050430097
25	0xbb95dbb8	-0.0045733117
26	0x3d207257	0.039171543
27	0x3c4a2a4a	0.012339184
28	0x3d4aa951	0.04947788
29	0xbd962c2e	-0.07332645
30	0x3d04913b	0.032365065
31	0xbd0f2ac6	-0.0349529
32	0x3a15e2b2	0.0005717679
33	0xbd64b7c9	-0.055839334
34	0xbd97fbc2	-0.07421066
35	0x3d627177	0.05528399
36	0x3ad57f10	0.0016288478
37	0xba22538e	-0.000619226
38	0x39ff65d1	0.0004871325
39	0xbd84d988	-0.06486803
40	0x3cc65a3e	0.024212953
41	0xbd3bd4e8	-0.04585734
42	0xbbf245d5	-0.0073935785
43	0xbc48f6da	-0.012265885
44	0xbcc4fb0a	-0.024045486
45	0x3d274478	0.04083678
46	0xbca46483	-0.020067459
47	0x3c5a96b7	0.013341597
48	0xbd858be0	-0.0652082
49	0x3c9555ee	0.018229451
50	0xbc586725	-0.013208185
51	0xbc247170	-0.010036811
52	0xbce63f3e	-0.028106328
53	0x3d03cab6	0.032175742
54	0x3c3d2eb4	0.011546779
55	0x3c67aafd	0.014139888
56	0x38cb3f36	9.691568e-05
57	0xbd12c0f4	-0.035828546
58	0x3d9a85c8	0.07545048
59	0x3d05819c	0.03259431
60	0xbb782e47	-0.003786938
61	0xbdb8ad5e	-0.09017442
62	0xbc9f3785	-0.019435653
63	0xbc19cd13	-0.009387272
64	0xbd4c671d	-0.049903024
65	0x3c3c6f2c	0.011501115
66	0xbd336851	-0.043800656
67	0xbda2fcc4	-0.079583675
68	0xbd82ddf4	-0.063899904
69	0xbd876690	-0.06611359
70	0xbd9dbf26	-0.07702474
71	0x3d7e24b0	0.062046707
72	0xbca26813	-0.019825017
73	0x3cdbdd9d	0.026839072
74	0xbc91f611	-0.017817529
75	0x3d49e0be	0.049286596
76	0xbdc1358c	-0.094340414
77	0xbd83dd9e	-0.064387545
78	0x3c80d84e	0.015728142
79	0x3d1086ad	0.035284687
80	0xbd867fd8	-0.06567353
81	0x3c3f69b9	0.011682921
82	0xbd04ce28	-0.03242317
83	0xbd095eee	-0.033537798
84	0x3c0d66fd	0.008630511
85	0x3d25936e	0.040423803
86	0xbd44b6a6	-0.04802575
87	0x3c16b555	0.009198506
88	0xbdaa950d	-0.083292104
89	0x3d8d38dc	0.06895611
90	0x3d206998	0.039163202
91	0x3cd17bb2	0.025571678
92	0x3d162661	0.036657695
93	0x3cb2027b	0.021729698
94	0x3cfd1f60	0.03089875
95	0xbd484e94	-0.048903063
96	0x3d8b3f6c	0.06799206
97	0x3b8948df	0.004189595
98	0x3cf7dc9c	0.030256562
99	0x3c675c51	0.014121131
100	0x3d55371e	0.052054517
101	0x3cc7f399	0.024408149
102	0x3d8877ea	0.06663497
103	0xbd9e21f5	-0.077213205
104	0x3d3322c6	0.043734334
105	0x3cbc1908	0.022961155
106	0x3cf3169e	0.02967387
107	0x3d3b88d1	0.045784775
108	0xbd440502	-0.04785634
109	0xbd1a2cb4	-0.03764029
110	0xbbd5afe6	-0.006521213
111	0xbc83ea05	-0.0161028
112	0x3be1f200	0.0068953037
113	0xbc2ad035	-0.010425617
114	0x3d52cd64	0.051465407
115	0xbd6d6aa3	-0.057963025
116	0xbd096774	-0.033545926
117	0x3d0f5aa8	0.034998566
118	0xbcd0cba2	-0.025487725
119	0x3d172e1b	0.036909204
120	0xbc80db0f	-0.015729455
121	0x3c367949	0.011137315
122	0xbdbd5b67	-0.09245949
123	0xbd13dd54	-0.036099747
124	0xbd11d519	-0.035603616
125	0xbcab3bf1	-0.020902606
126	0x3b984b48	0.004647646
127	0xbd9f67da	-0.0778348
128	0x3d40fc85	0.04711582
129	0xbd218298	-0.039431185
130	0x3c96e327	0.018418862
131	0xbbbf4ba0	-0.0058378726
132	0x3ad1538a	0.0015970331
133	0xbc848856	-0.016178291
134	0x3c89659d	0.016772086
135	0xbdb93e6e	-0.09045111
136	0xbbd795a1	-0.0065791165
137	0x3d3df0ce	0.046372227
138	0x3d3f9fab	0.04678313
139	0xbd8e2c68	-0.069420636
140	0xbd4eaae4	-0.050455943
141	0x3d14a9c7	0.036294725
142	0x3b9417ff	0.004519462
143	0x3d93800c	0.072021574
144	0xbd13af2b	-0.036055725
145	0xbca40aac	-0.02002462
146	0xbe042e91	-0.12908389
147	0xbde2b2b0	-0.11069238
148	0xbd85f768	-0.065413296
149	0x3b0ffc9f	0.0021970642
150	0xbca7fdd2	-0.020506773
151	0x3ccd7025	0.025077889
152	0xbc74e1a4	-0.014946375
153	0x3c099100	0.008396387
154	0xbd8b0bdb	-0.067893706
155	0x3dc38b64	0.09548071
156	0xbc7696e6	-0.015050625
157	0xbcac3f24	-0.021026202
158	0x3c5dc954	0.01353677
159	0x3c6af2ab	0.014340083
160	0x3d2cbc3a	0.042171694
161	0xbc12a337	-0.008950046
162	0xbcba7169	-0.022759156
163	0x3d31772e	0.04332655
164	0x3b45b121	0.0030165392
165	0x3d6083fa	0.054813363
166	0x3d0c9bde	0.034328334
167	0x3d4b6af0	0.04966253
168	0xbc15db6b	-0.009146552
169	0x3d2bb82f	0.041923698
170	0xbd9572f4	-0.07297316
171	0x3c3205bb	0.010865624
172	0xbd2396b2	-0.039938636
173	0xbda84bc8	-0.08217579
174	0xbd51f650	-0.051260293
175	0x3b5ef457	0.003402015
176	0x3d038d09	0.032116923
177	0x3d20fae9	0.039301787
178	0xbd8287a3	-0.06373527
179	0xbc8aa173	-0.016922688
180	0x3d0087c1	0.031379465
181	0xbb96eb44	-0.0046056826
182	0xbd8c5041	-0.06851245
183	0x3d04cca5	0.032421727
184	0xbced582a	-0.028972704
185	0xbc22045f	-0.009888737
186	0x3cb96160	0.02262944
187	0x3d14b1c9	0.03630236
188	0xbc9d37c2	-0.019191626
189	0x3d3ff90b	0.046868365
190	0x3d0653dc	0.03279482
191	0xbc843670	-0.01613924
192	0xbc5d9fa5	-0.013526832
193	0xbd912ec5	-0.07088999
194	0xbdd2e92e	-0.10298382
195	0xbd2cd683	-0.04219676
196	0xbd605bd8	-0.05477509
197	0x39979277	0.0002891009
198	0x3ca0a968	0.01961203
199	0xbcfcb918	-0.030849978
200	0xbd6719c4	-0.056421056
201	0xbcf9a971	-0.030476304
202	0xbd39da9c	-0.045374498
203	0x3cf80bb8	0.030279025
204	0xbccdd074	-0.025123812
205	0xbd4d344d	-0.050098706
206	0xbc558758	-0.013032757
207	0xb8e3211d	-0.00010830371
208	0x3c8e826d	0.017396176
209	0xbc3f6f56	-0.011684259
210	0x3bc67737	0.006056692
211	0xbd16095c	-0.03663002
212	0xbd5467d5	-0.051856834
213	0xbc1e1fd4	-0.009651143
214	0x3c1e16b4	0.0096489675
215	0xbbebdbdc	-0.00719784
216	0x3bdcada3	0.0067345663
217	0xbd4ac2b2	-0.049502082
218	0xbd2c96c3	-0.042135965
219	0x3c4de328	0.012566365
220	0xbd4660f4	-0.048432305
221	0x3d0bb1e8	0.03410521
222	0xbc1075f5	-0.008817186
223	0x3da34e43	0.079739116
224	0xbd32b7c0	-0.04363227
225	0xbd945585	-0.07242874
226	0x3dd43758	0.103621185
227	0xbcdddd70	-0.027083129
228	0xbc1f2c10	-0.009715095
229	0xbbfa1db5	-0.007632936
230	0x3ab74d62	0.0013984854
231	0x3d03d98e	0.0321899
232	0x3c933970	0.017971724
233	0xbd721ff4	-0.059112504
234	0x3d3bccb3	0.045849513
235	0xbd0382b7	-0.03210708
236	0x3d91d6dd	0.0712106
237	0xbd4b57e1	-0.049644355
238	0x3ce688a1	0.028141322
239	0xbd840a74	-0.06447306
240	0xbd8137ea	-0.06309493
241	0x3cdb3fee	0.026763882
242	0xbd1b235a	-0.03787551
243	0xbcb31997	-0.021862788
244	0xbabeae84	-0.0014547859
245	0x3cac7431	0.021051498
246	0xbb6bc98b	-0.0035978283
247	0xbc02158f	-0.00793971
248	0xbd5385ce	-0.051641278
249	0xbc98e7c5	-0.018665204
250	0x3cde6285	0.027146587
251	0xbd331bd2	-0.043727703
252	0xbc9cc7d6	-0.019138258
253	0xbd428e76	-0.047499143
254	0x3c426135	0.011863996
255	0xbd9dc9e7	-0.077045254

bias f4 [256]
0	0x3d1b5efc	0.03793238
1	0xbc91ca63	-0.0177967
2	0xbd199e1b	-0.037504297
3	0xbd48947d	-0.048969734
4	0x3d59a555	0.05313619
5	0xbc4c1d51	-0.012458161
6	0x3d5d346c	0.05400507
7	0x3caed38f	0.021341113
8	0xbd1a9252	-0.0377372
9	0xbca83b68	-0.02053614
10	0x3c160265	0.009155844
11	0xbd617589	-0.05504373
12	0x3c949b80	0.018140554
13	0x3b8e4140	0.0043412745
14	0x3c027644	0.007962767
15	0x3d318ab8	0.043345183
16	0x3c73e2a2	0.014885576
17	0x3cc8e5df	0.024523674
18	0x3c1f0a68	0.009707071
19	0x3bfca28c	0.007709807
20	0x3df2d6df	0.1185739
21	0xbc42dc13	-0.01189329
22	0x3c700c38	0.014651351
23	0xbcbae440	-0.022813916
24	0x3cd71f41	0.02626002
25	0x3d8c663f	0.068554394
26	0x3d4d1ab0	0.05007428
27	0x3d86a6ba	0.06574769
28	0xbb68fb9f	-0.0035550368
29	0x3d88cc09	0.066795416
30	0xbd1a2ebf	-0.037642237
31	0x3b2f2ad8	0.0026728418
32	0x3d6c4637	0.05768415
33	0x3d80efc3	0.06295731
34	0x3bad600f	0.005290992
35	0xbc58227f	-0.013191818
36	0xbd4747a3	-0.048652302
37	0xbd4cd112	-0.050004072
38	0xbcefbb80	-0.029264212
39	0xbd641c2e	-0.055690937
40	0xbd61f09c	-0.055161104
41	0x3cc60246	0.024171006
42	0x3c951c8d	0.01820209
43	0xbcbe27b0	-0.023212284
44	0x3c45e2c4	0.012077991
45	0xbd0afff0	-0.033935487
46	0xbd876386	-0.066107795
47	0x3c95ba24	0.018277235
48	0xbd801ea7	-0.062558465
49	0x3c882c7f	0.01662278
50	0x3c6d3730	0.01447849
51	0xbbfc5208	-0.0077002086
52	0xbd0f3924	-0.034966603
53	0xbd976dd7	-0.07393997
54	0x3d40cb98	0.047069162
55	0xbca98541	-0.020693423
56	0xbd4337e0	-0.04766071
57	0xbd530010	-0.05151373
58	0x3c33b17e	0.01096761
59	0x3cccb91d	0.024990613
60	0x3cdc8e29	0.026923256
61	0xbc68433b	-0.014176185
62	0x3d7ff69b	0.06249104
63	0x3d06b11f	0.03288376
64	0xbb8fa77d	-0.00438398
65	0xbd6306d1	-0.055426423
66	0xbd1fc1ec	-0.039003298
67	0xbc309358	-0.010777317
68	0xbd27035e	-0.040774696
69	0xbc955de6	-0.01823325
70	0x3c7bcb29	0.015368261
71	0x3cd916c9	0.026500123
72	0xbd5998a1	-0.053124074
73	0xbaef6189	-0.0018263321
74	0xbd02f989	-0.031976257
75	0xbc26e4e9	-0.010186412
76	0x3cbc6ce9	0.023001151
77	0xbcbc643f	-0.02299702
78	0x3acd58e5	0.0015666751
79	0xbbe2c59b	-0.006920529
80	0x3d0a391e	0.033745877
81	0xbc97f8bb	-0.018551221
82	0xbcc99225	-0.02460582
83	0x3c820e92	0.015876088
84	0xbcc09a23	-0.023510998
85	0x3d8a5f37	0.06756442
86	0x3d12a6b8	0.035803527
87	0x3cefdc22	0.029279772
88	0xbd2b9511	-0.041890208
89	0x3d405fa3	0.046966206
90	0xbcd90337	-0.02649079
91	0xbd850491	-0.064950116
92	0x3a44e482	0.0007510857
93	0xbd221200	-0.039567947
94	0x3bd7a1bc	0.0065805595
95	0x3a1c340c	0.00059586833
96	0xbcf48dd0	-0.029852778
97	0x39e339a0	0.00043339748
98	0xbc938a87	-0.01801039
99	0x3d2eafa6	0.04264798
100	0x3daf6b9b	0.08565446
101	0xbd4d128e	-0.050066523
102	0x3cdcb80c	0.02694323
103	0x3bc61c67	0.0060458663
104	0xbc8aabfd	-0.016927714
105	0xbd068c14	-0.032848433
106	0x3d04d8f9	0.032433484
107	0x3cf22401	0.029558184
108	0xbd3d97ad	-0.046287227
109	0x3b776894	0.0037751542
110	0xbcca3b7c	-0.024686567
111	0xbd3220f3	-0.043488454
112	0x3c1e401a	0.009658838
113	0xbccd5f94	-0.02506999
114	0x3cf9c5cb	0.030489823
115	0x3c0ce5f1	0.008599744
116	0x3d5f05dc	0.054448947
117	0xbd484256	-0.048891388
118	0xbc049c37	-0.008093885
119	0x3cb96379	0.02263044
120	0x3d60837b	0.05481289
121	0x3d15e077	0.03659102
122	0xbcd6e302	-0.026231293
123	0x3ce08ea0	0.027411759
124	0xbd164f2f	-0.03669661
125	0x3d1679e4	0.036737338
126	0x3dcc4f99	0.099761195
127	0x3cd81b15	0.026380101
128	0xbd769681	-0.060202125
129	0x3cc8c39f	0.024507342
130	0xbd3e1d0a	-0.046414413
131	0x3cc31a83	0.023816353
132	0x3cf72e64	0.030173488
133	0xbd898be6	-0.06716137
134	0xbc859867	-0.016308023
135	0xbd069702	-0.032858856
136	0x3d2fb9f8	0.042901963
137	0x3c6787c1	0.014131487
138	0x3d0f0e67	0.034925845
139	0xbcb4534d	-0.022012377
140	0x3ca026e1	0.019549789
141	0x3ce6d422	0.028177325
142	0xbcadb960	-0.021206558
143	0x3d318d9d	0.043347944
144	0x3dae1f87	0.08502107
145	0xb98032d2	-0.00024451927
146	0xbd2f0347	-0.042727735
147	0xbb865c32	-0.004100346
148	0x3c40da54	0.0117708035
149	0xbd27f275	-0.04100271
150	0x3c727b41	0.014799894
151	0xbda34cd8	-0.07973641
152	0x3d291fc7	0.04129007
153	0xbcb9e6e4	-0.022693105
154	0xbd1288d9	-0.03577504
155	0xbcf68d9d	-0.030096823
156	0x3c0d0173	0.008606303
157	0x3d1124cd	0.035435487
158	0xbd0c0fab	-0.03419463
159	0x3cdcbfe4	0.02694697
160	0x3d23ad89	0.039960418
161	0x3d1c8363	0.038211238
162	0x3ce557d3	0.02799598
163	0xbdb9a915	-0.09065453
164	0x3d38a11d	0.045075525
165	0x3a7ee6df	0.00097237335
166	0x3c998377	0.018739445
167	0x3cf23fae	0.02957138
168	0x3d6282b3	0.055300426
169	0x3c608104	0.013702635
170	0xbcc88a00	-0.024479866
171	0x3af17427	0.0018421457
172	0x3ba9222c	0.0051615443
173	0xbd3337dc	-0.043754444
174	0xbc930a99	-0.01794939
175	0x3d161c58	0.036648124
176	0x3d0fc9f3	0.035104703
177	0x3d0985b0	0.03357476
178	0xbd22db9d	-0.03976022
179	0x3cf3fe67	0.029784394
180	0xbb64c24e	-0.0034905854
181	0xbc76db43	-0.0150669245
182	0xbd0bdcb6	-0.034146033
183	0xbb2e26ff	-0.0026573536
184	0x3c72c73c	0.014818009
185	0xbabd97c3	-0.0014464784
186	0xbdc96967	-0.09834557
187	0xbcd4bd13	-0.025969064
188	0x3d34a079	0.04409835
189	0xbd161280	-0.036638737
190	0xbc5fddab	-0.01366369
191	0x3d9168b2	0.07100047
192	0x3d3feea6	0.046858452
193	0x3d7846d2	0.060614415
194	0x3d68e018	0.056854337
195	0x3cdc3e83	0.026885277
196	0xbc93480f	-0.017978696
197	0x3ca7400e	0.020416286
198	0xb9c313e8	-0.0003720813
199	0xbca65eab	-0.020308813
200	0xbd50e4e8	-0.050999552
201	0x3d0424b8	0.03226158
202	0xbd3cf266	-0.046129607
203	0x3ca43fcf	0.020049958
204	0x3d3158a8	0.04329744
205	0x3bac6a12	0.005261668
206	0xbd36cb23	-0.04462732
207	0x3c883641	0.016627433
208	0xbd4f2e48	-0.050581247
209	0x3ccee4bf	0.025255559
210	0x3ca76297	0.020432753
211	0xbc2fe00f	-0.010734572
212	0x3c898b8c	0.016790174
213	0x3d911076	0.07083218
214	0xbce443b7	-0.02786432
215	0xbd99ee78	-0.075161874
216	0xbc7986e3	-0.015229913
217	0x3ccb270d	0.024798894
218	0xbc005f8e	-0.007835282
219	0x3cd4154a	0.025889058
220	0xbd555db3	-0.05209131
221	0xbcb9f8f9	-0.022701727
222	0xbc4d29c8	-0.012522168
223	0xbc740e0a	-0.014895925
224	0xbb297e65	-0.002586269
225	0x3d65f171	0.05613846
226	0x3d5d1962	0.053979285
227	0x3d7aa0ee	0.06118863
228	0xbd1d39e9	-0.038385306
229	0x3dac50d8	0.08413857
230	0xbd5466b5	-0.05185576
231	0xbc238c82	-0.00998223
232	0xbc9ab5f5	-0.018885592
233	0x3c3e4386	0.0116127785
234	0x3d4ff7f9	0.050773595
235	0xbd1dad40	-0.038495302
236	0xbd32f4c2	-0.04369045
237	0x3c792297	0.015206001
238	0x3af2304e	0.0018477531
239	0xbbadfe80	-0.00530988
240	0x3d00eb27	0.03147426
241	0xbc17fa24	-0.009275947
242	0xbb39ca3f	-0.0028349308
243	0x3d89774c	0.06712207
244	0x3c242670	0.01001893
245	0xbcb7e0f0	-0.022446126
246	0xbd900503	-0.07032206
247	0xbd5afc3a	-0.0534632
248	0x3d129635	0.03578778
249	0x3d00a182	0.031404026
250	0xbc868747	-0.016421927
251	0x3cae7e3b	0.021300426
252	0x3d3d705e	0.04624974
253	0xbd957a93	-0.0729877
254	0xbcb4e46e	-0.02208158
255	0x3c8e778b	0.017390987

weight f4 [128, 256]
0	0xbc09aa11	-0.008402363
1	0x3cda56eb	0.026652774
2	0x3d372214	0.044710234
3	0x3c50bf87	0.012740976
4	0xbdf0662a	-0.11738236
5	0xbcbb3f71	-0.0228574
6	0x3d766462	0.060154326
7	0x3cf6a4f7	0.030107958
8	0xbd73369a	-0.059378244
9	0x3d2fe60f	0.04294401
10	0x3c7fb140	0.015606225
11	0x3d8f4da8	0.06997234
12	0x3da9564b	0.08268412
13	0xbbe11397	-0.0068687904
14	0xbd6e478d	-0.058173705
15	0x3b8218ce	0.003970242
16	0xbd3b1004	-0.04566957
17	0x3d2c0f74	0.042006925
18	0x3d455cd0	0.048184216
19	0x3cb3dc2a	0.021955568
20	0x3d835d15	0.06414238
21	0xbdaca5d5	-0.084300674
22	0xbd62f3c2	-0.055408247
23	0xbbb4dbbb	-0.005519358
24	0xbd1b9956	-0.03798803
25	0xbe059540	-0.13045216
26	0x3d2b32b4	0.0417964
27	0x3da131b8	0.07870811
28	0xbb41118b	-0.002945992
29	0x3cd8f82a	0.026485521
30	0xbd518c23	-0.051159035
31	0xbd05bad1	-0.032648865
32	0xbd510642	-0.05103136
33	0x3d1b33a4	0.037891045
34	0x3b4c7431	0.0031197185
35	0x3d2bc1d7	0.041932907
36	0xbd06fc8c	-0.03295569
37	0x3d4373bb	0.04771779
38	0xbdb2b9c3	-0.087268375
39	0xbcabbb52	-0.020963345
40	0xbb5b9eaf	-0.003351133
41	0x3dd441ce	0.10364114
42	0xbd8cb9fa	-0.0687141
43	0x3da59aa8	0.08086139
44	0x3cc50a1f	0.024052678
45	0x3d219c5f	0.039455768
46	0x3ca94ce2	0.020666543
47	0x3c413875	0.011793246
48	0xbcb19b4c	-0.021680497
49	0xbd2d1cd5	-0.042263824
50	0xbd6f726a	-0.058458723
51	0xbdf91602	-0.12162401
52	0xbb9bb2dc	-0.0047515463
53	0xbd3477ee	-0.044059686
54	0x3c49ebdd	0.012324301
55	0xbd5df5a5	-0.054189343
56	0xbb391284	-0.0028239796
57	0x3cca01f2	0.02465913
58	0xbd77e3b6	-0.060519896
59	0x3ca108e7	0.019657565
60	0x3c820ed5	0.015876213
61	0xbc4437d8	-0.011976205
62	0xbcab2816	-0.020893138
63	0x3bd125de	0.006382688
64	0x3daa0ca7	0.083031945
65	0xbca5ae6b	-0.02022477
66	0xbb8ba8b7	-0.0042620557
67	0x3d6b3e26	0.057432316
68	0xbca585d2	-0.020205412
69	0xbd468d92	-0.048474856
70	0x3a1844f4	0.00058086147
71	0xbd24ee4d	-0.040266324
72	0x3d292d94	0.041303232
73	0xbcad4410	-0.021150619
74	0xbd5b9145	-0.053605337
75	0x3d29771a	0.04137335
76	0xbd26fae1	-0.0407666
77	0xbda31f0e	-0.079649076
78	0xbdcdb9b3	-0.10045185
79	0xbddc218f	-0.10748588
80	0x3ca0dbd5	0.019636074
81	0x3d46ca13	0.048532557
82	0x3d51cc65	0.051220316
83	0x3cf5d659	0.030009435
84	0xbd1ca3d4	-0.038242176
85	0xbe2d5500	-0.16926956
86	0x3cc59665	0.024119565
87	0xbcf213d1	-0.029550465
88	0xbc470342	-0.012146773
89	0x3dba5e45	0.09100012
90	0xbbe1499b	-0.0068752295
91	0x3bb35252	0.00547246
92	0x3ca0cf09	0.019629972
93	0xbcf5dbe3	-0.030012077
94	0xbd36155b	-0.04445396
95	0x3c86cbba	0.016454566
96	0xbe2d297d	-0.16910358
97	0x3d377801	0.04479218
98	0x3d689774	0.056785062
99	0x3c8bea9c	0.017079644
100	0xbb8eebc4	-0.0043616015
101	0x3d4df175	0.0502791
102	0x3c15f0e9	0.009151676
103	0xbd8eafe3	-0.069671415
104	0xbdcc70f8	-0.099824846
105	0x3d59c065	0.053161997
106	0x3ab91dec	0.0014123297
107	0xbcc88b33	-0.024480438
108	0xbcebaddd	-0.028769428
109	0x3cf3b7a2	0.029750649
110	0x3cdcc56c	0.026949607
111	0xbd6ef498	-0.05833873
112	0x3d833d96	0.06408231
113	0x3d4fb04b	0.050705235
114	0xbd405087	-0.046951797
115	0xbdc8fbe5	-0.0981367
116	0x3d006c52	0.031353302
117	0xbc0c01f9	-0.008545392
118	0xbd0dd90d	-0.034630824
119	0x3d3e4344	0.04645087
120	0xbb8ad37c	-0.0042366367
121	0x3c9d5c76	0.019209128
122	0x3b2e74f3	0.002662
123	0xbd01713b	-0.031602126
124	0xbd686f31	-0.056746665
125	0xbca7a017	-0.020462079
126	0x3d242957	0.040078487
127	0xbc34bfe7	-0.011032081
128	0x3d5f1f8a	0.054473437
129	0x3c4b06dc	0.012391772
130	0xbb81bbe6	-0.003959167
131	0x3dc7fc5d	0.09764931
132	0xbdfac463	-0.12244489
133	0xbc7b8082	-0.015350463
134	0xbd70b8d2	-0.05877001
135	0x3cd490de	0.025947984
136	0x3cec24bc	0.02882611
137	0xbe02398e	-0.12717268
138	0xbd354603	-0.04425622
139	0xbbb17b6a	-0.0054163234
140	0x3d472446	0.048618577
141	0xbddb4c7d	-0.10707948
142	0xbcb95599	-0.022623824
143	0x3c3de930	0.011591241
144	0x3c8047dd	0.015659267
145	0x3cc7ae2e	0.024375048
146	0x3d483694	0.048880175
147	0x3da1af50	0.07894766
148	0xbc132c16	-0.008982679
149	0xbda393c7	-0.07987171
150	0x3bc696a8	0.00606044
151	0xbd71edca	-0.059064664
152	0xbd0509e3	-0.03248013
153	0xbc2c6000	-0.010520935
154	0xbd30be5b	-0.043150287
155	0xbe300c47	-0.17192183
156	0xbc89cf9a	-0.016822625
157	0xbd19e8ec	-0.037575647
158	0x3e0f3e36	0.13988575
159	0xbd622fe1	-0.055221442
160	0x3b9581f9	0.004562613
161	0x3de1f416	0.11032884
162	0x3ddd31f1	0.10800541
163	0x3d0fbefc	0.035094246
164	0xbe1d9755	-0.1538976
165	0xbbb34a03	-0.0054714694
166	0xbca02b24	-0.019551821
167	0x3cb5af50	0.022178322
168	0x3d403512	0.04692561
169	0x3b3aa698	0.0028480645
170	0x3d475cf4	0.04867263
171	0x3c3ad812	0.011404054
172	0x3c807f79	0.015685784
173	0xbd660e62	-0.05616606
174	0x3d83cc97	0.06435507
175	0x38e5b233	0.00010952763
176	0xbc3ec34f	-0.011643245
177	0xbe276d6f	-0.1635034
178	0x3c43d653	0.011952954
179	0x3d063c48	0.032772332
180	0x3d83163b	0.064007245
181	0xbccd5100	-0.025063038
182	0x3c75ee13	0.015010375
183	0xbd8b490f	-0.06801044
184	0xba7577d8	-0.00093638664
185	0x3d326440	0.043552637
186	0xbc0e17f7	-0.008672706
187	0x3ca28803	0.019840246
188	0x3d2877e6	0.04112997
189	0x3bbfe7e6	0.005856502
190	0x3c10a658	0.008828722
191	0xbd447a78	-0.047968358
192	0x3c779155	0.015110333
193	0xbc0d101a	-0.008609796
194	0xbd89c8d6	-0.067277595
195	0x3c24d261	0.010059924
196	0x3ad8d5c7	0.0016543203
197	0xbd86c0ef	-0.06579768
198	0xbdef2add	-0.116780974
199	0x3d34f1f5	0.04417606
200	0xbe6e94c6	-0.2329894
201	0x3d8130dc	0.06308147
202	0x3d3d62c5	0.046236772
203	0x3cbf6d5b	0.023367574
204	0x3d3febd1	0.04685575
205	0xbd5a0992	-0.053231783
206	0x3cd1b4cb	0.025598904
207	0x3d2dcd7e	0.0424323
208	0xbd1f5c35	-0.038906295
209	0x3d050847	0.032478597
210	0x3d42aad9	0.047526214
211	0x3ca8b293	0.020592963
212	0xbd2bff53	-0.041991543
213	0x3d00f0cc	0.03147964
214	0xbc5c326e	-0.013439758
215	0x3d54e4d6	0.051976047
216	0x3d0ef5d5	0.034902412
217	0x3d55712d	0.052109886
218	0xbcfd083f	-0.030887721
219	0x3c00f7b7	0.00787156
220	0xbd1c96e0	-0.038229823
221	0x3d359b98	0.04433784
222	0x3cb4d26a	0.02207299
223	0x3d78fb94	0.0607868
224	0xbd3d5525	-0.04622378
225	0x3d142fc4	0.036178365
226	0xbc0065f0	-0.007836804
227	0xbd62ed3c	-0.055402026
228	0xba7150b6	-0.0009205447
229	0x3d0effce	0.034911923
230	0xbd146a9b	-0.03623448
231	0xbd9b5bf9	-0.07585902
232	0x3bf63b91	0.007514425
233	0x3c9ffc60	0.019529521
234	0xbc52a5f1	-0.012856946
235	0xbbd0730d	-0.0063613714
236	0xbcbf5072	-0.023353789
237	0xbc8ac9c5	-0.016941914
238	0xbca978a3	-0.020687407
239	0x39fa13ad	0.00047698375
240	0xbdeca674	-0.11555186
241	0x3da3bab3	0.079945944
242	0x3c5650e6	0.013080811
243	0xbdc8476f	-0.0977925
244	0xbd3be966	-0.045876883
245	0x3d83a4e5	0.064279355
246	0xbe009523	-0.12556891
247	0xbd147b72	-0.03625054
248	0xbd863c98	-0.06554526
249	0x3c46160a	0.012090215
250	0x3c6907d8	0.0142230615
251	0x3d1a3c82	0.03765536
252	0x3a78c0d8	0.0009489185
253	0xbca25258	-0.019814655
254	0xbc92fe8d	-0.017943645
255	0xbd148e75	-0.03626867

bias f4 [128]
0	0x3d9683a3	0.073493265
1	0xbb9eb3be	-0.0048432043
2	0xbded3cb7	-0.11583846
3	0xbcb79dfb	-0.022414198
4	0xbd4973d5	-0.04918273
5	0x3daf448f	0.085579984
6	0x3d8d71a8	0.06906444
7	0x3dcef3d1	0.10105098
8	0xbd682357	-0.056674328
9	0x3b0f84dd	0.002189926
10	0x3dae9237	0.08523982
11	0xbc12a5b1	-0.008950637
12	0xbbfc3b37	-0.0076974886
13	0xbd1c348e	-0.038136058
14	0xbc1f6251	-0.00972803
15	0xbd1a4dea	-0.03767196
16	0x3b83dc76	0.0040240837
17	0x3dd6f87e	0.10496615
18	0x3d92b910	0.07164204
19	0xbcee4aaa	-0.029088337
20	0x3d5d78b0	0.054070175
21	0x3ddd81c2	0.10815765
22	0x3dd97665	0.10618285
23	0x3dadf70c	0.08494386
24	0xbc4de2f4	-0.012566317
25	0xbc4e0960	-0.012575477
26	0x3d4d56b7	0.050131526
27	0x3b6bd14e	0.003598291
28	0x3d960e62	0.07326962
29	0x3d66d7a6	0.056358002
30	0xbd12485a	-0.03571353
31	0x3d457dc8	0.048215657
32	0xbcc9e50a	-0.024645347
33	0xbda7ce88	-0.081936896
34	0x3bbf988c	0.0058470424
35	0x3dc09b51	0.09404624
36	0xbcc3450d	-0.023836637
37	0xbda89830	-0.082321525
38	0xbd23c4c9	-0.03998259
39	0x3cf6b4a9	0.030115442
40	0xbd852d9c	-0.0650284
41	0xbca2adf9	-0.019858347
42	0x3e0f175e	0.13973758
43	0x3d8fae0f	0.07015621
44	0xbd3c3e72	-0.04595799
45	0x3d85279a	0.06501694
46	0x3db62bcf	0.088950746
47	0x3d300c92	0.042980738
48	0x3dfcaac7	0.12337261
49	0x3cf24f53	0.02957884
50	0x3d4a8ea6	0.049452446
51	0xbd701490	-0.05861336
52	0xbbd52b34	-0.0065053944
53	0x3bc324ec	0.005955329
54	0x3d9e685e	0.0773475
55	0x3d3cb0f2	0.046067186
56	0x3d0622cb	0.032748025
57	0x3d954fdf	0.07290625
58	0x3c632a47	0.01386506
59	0x3de39b98	0.111136615
60	0x3c710d66	0.014712667
61	0xbda931d6	-0.082614586
62	0xbd99d402	-0.075111404
63	0x3d8857bc	0.06657359
64	0xbd8c643e	-0.06855057
65	0xbac59ddf	-0.0015076956
66	0xbd4689bc	-0.048471197
67	0xbb02ca80	-0.0019957125
68	0xbc89a1c5	-0.01680077
69	0x3bdc0e8e	0.0067156022
70	0x3dd2ab97	0.102866344
71	0x3b41a838	0.002954973
72	0x3c77e694	0.015130658
73	0x3d7fa32a	0.062411465
74	0x397e2dc9	0.00024240384
75	0xbc64374b	-0.0139291985
76	0xbc7bb7e0	-0.015363663
77	0xbd7700d2	-0.060303517
78	0x3d87e12d	0.06634746
79	0xbd4f8f2b	-0.050673645
80	0x3c0721b9	0.008247786
81	0xbcbd7789	-0.023128288
82	0x3d90e40b	0.07074746
83	0x3bb444da	0.005501372
84	0xbd63b291	-0.055590216
85	0xbd8d2244	-0.06891301
86	0x3d065f0c	0.032805488
87	0x3dcec5fc	0.10096356
88	0x3d1c2119	0.038117502
89	0x3c44b2f0	0.012005553
90	0x3d8c72e6	0.06857853
91	0x3cdb5598	0.026774213
92	0x3bc4f729	0.006010909
93	0x3b6a8518	0.0035784896
94	0x3cdd01e4	0.02697844
95	0x3b8d1a6d	0.0043061287
96	0x3d90b1cc	0.07065162
97	0xbd3451fa	-0.04402349
98	0x3c8a5fbe	0.016891357
99	0x3c9c0201	0.019043924
100	0xbc5ea5cc	-0.013589334
101	0x3cacdde4	0.0211019
102	0xbce25827	-0.027629925
103	0xbc9075b4	-0.01763425
104	0x3d6855fd	0.05672263
105	0x3cd92740	0.026507974
106	0xbc9f801e	-0.01947027
107	0xbcf21f4f	-0.029555945
108	0xbda5145b	-0.08060523
109	0xbc0c4cc4	-0.008563224
110	0xbd9362f0	-0.07196605
111	0x3d4a34b4	0.049366668
112	0xbc8cfd42	-0.017210606
113	0xbd040bfb	-0.032237988
114	0x3d627bf4	0.055293992
115	0x3ce64035	0.028106788
116	0xbd85f599	-0.06540985
117	0x3c6811e7	0.0141644245
118	0xbd04fd2b	-0.032468002
119	0x3c80264d	0.015643263
120	0x3d2883a1	0.041141156
121	0xbcd51840	-0.02601254
122	0xbca7da31	-0.020489784
123	0xbd405b7b	-0.046962243
124	0x3bcd6936	0.0062686456
125	0x3cf81a34	0.030285932
126	0xbca10ea9	-0.01966031
127	0x3dee361b	0.116314135

weight f4 [60, 128]
0	0x3cfe4fc0	0.031043887
1	0xbdaa5e5f	-0.08318781
2	0xbd0221fb	-0.031770688
3	0xbc89379c	-0.01675015
4	0xbd972bc1	-0.07381392
5	0x3dd2e7c0	0.10298109
6	0xbd8cc383	-0.068732284
7	0x3dec6f01	0.1154461
8	0xbc50cf34	-0.012744714
9	0xbd3418a1	-0.0439688
10	0x3c521f02	0.012824776
11	0xbcaaa727	-0.020831658
12	0xbd9bfef5	-0.076169886
13	0x3d821d6a	0.063532665
14	0xbbb3706e	-0.005476049
15	0x3cb7ce91	0.022437366
16	0xbcdab131	-0.02669582
17	0x3d40ef67	0.047103312
18	0xbcfc729d	-0.03081637
19	0x3b02c656	0.0019954643
20	0x3c251e6a	0.010078052
21	0x3e18d009	0.14923109
22	0x3df17aed	0.11791024
23	0xba8ecaa3	-0.0010894131
24	0x3d47db10	0.0487929
25	0xbd7cf3c8	-0.061755925
26	0xbd3d7f2c	-0.04626386
27	0xbcd0643b	-0.025438419
28	0x3c53eba1	0.012934596
29	0x3dcf270c	0.101148695
30	0xbd86af84	-0.06576446
31	0x3dcb19a0	0.09916997
32	0x3c96858d	0.018374229
33	0x3d7f10be	0.062271826
34	0x3d2a8f32	0.041640468
35	0xbd169d78	-0.036771268
36	0x3d5a8d6b	0.053357523
37	0xbb5ca2c5	-0.0033666354
38	0xbd6df9a1	-0.058099393
39	0x3d1f7ab6	0.038935386
40	0xbd595e0d	-0.05306821
41	0xbd74a881	-0.05973101
42	0x3cb6adb2	0.022299621
43	0x3e50885f	0.20364521
44	0x3a8e7cc7	0.0010870927
45	0x3bca5400	0.0061745644
46	0x3d06c3d6	0.032901607
47	0x3d9704b0	0.07373941
48	0x3c52c73d	0.012864885
49	0xbd287ef1	-0.041136686
50	0xbce39f65	-0.027785966
51	0x3d916e61	0.07101131
52	0xbd06e3a5	-0.032931942
53	0x3d7996db	0.060934883
54	0x3d70d4c9	0.058796678
55	0x3beec650	0.0072868243
56	0x3b8d7667	0.004317093
57	0xbcd01b0e	-0.025403526
58	0xbd19a989	-0.037515197
59	0x3e178549	0.14796938
60	0xbdad0598	-0.084483325
61	0x3d8125ca	0.06306036
62	0xb7dc938c	-2.629475e-05
63	0xbd91c855	-0.071182884
64	0x3ceeccf4	0.029150464
65	0xbd929db3	-0.07158985
66	0xbb8d137a	-0.0043053003
67	0x3c927e38	0.017882451
68	0x3da71765	0.08158759
69	0x3d2cae0d	0.042158175
70	0xbc8b3421	-0.01699263
71	0x3d3f779a	0.04674492
72	0x3cc22f13	0.023704087
73	0x3d2f3ec7	0.04278448
74	0x3ca17fbc	0.019714229
75	0x3cc55235	0.02408705
76	0xbd5a80d0	-0.0533455
77	0xbb396b9a	-0.0028292895
78	0x3bc0040b	0.005859857
79	0xbc070514	-0.008240957
80	0x3bb99e33	0.005664611
81	0x3d458c0e	0.04822927
82	0xbd97e541	-0.074167736
83	0x3da2f422	0.07956721
84	0xbcbb5b35	-0.02287064
85	0x3d9d02bf	0.076665394
86	0xbbd4c546	-0.0064932434
87	0x3dc9fc7d	0.098626114
88	0xbc9bf2f3	-0.019036746
89	0xbd59dd41	-0.05318952
90	0x3d99219e	0.07477115
91	0xbacea8eb	-0.0015766894
92	0xbdab55a0	-0.08365941
93	0x3d64d488	0.055866748
94	0x3d8e71b2	0.069552794
95	0x3d456d56	0.048199974
96	0xbcd3d689	-0.025859134
97	0xbb29f868	-0.0025935415
98	0x3d30f2f2	0.04320044
99	0xbdb7dce1	-0.08977676
100	0xbd657b8d	-0.05602603
101	0xbd8f2f46	-0.069914386
102	0x3d79e4f3	0.06100936
103	0xbdb5b119	-0.08871669
104	0xbc63242f	-0.013863607
105	0x3cdaf2a3	0.026727026
106	0xbd1c6cfa	-0.038189866
107	0x3c2470db	0.010036672
108	0x3d1ef3a6	0.03880658
109	0xbc43195e	-0.0119079035
110	0x3da3a61d	0.07990668
111	0x3ddbe1bc	0.10736415
112	0x3d6b2681	0.057409767
113	0xbd8aac8f	-0.06771194
114	0xbd770c47	-0.060314443
115	0x3d793b82	0.060847767
116	0xbd885221	-0.0665629
117	0xbc0507c4	-0.008119527
118	0x3c9ecc37	0.019384487
119	0x3ced87d3	0.02899543
120	0xbd0d5a69	-0.03451005
121	0x3c9ed2fe	0.019387718
122	0x3be168fe	0.006878971
123	0xbdd92494	-0.1060268
124	0xbc9a0673	-0.018801903
125	0x3cfcd96b	0.030865392
126	0x3c461c8b	0.012091766
127	0x3bab4f87	0.0052279863
128	0x3dc03ecd	0.09386978
129	0xbd1f8dda	-0.03895364
130	0x3d5d8a77	0.05408713
131	0x3e061168	0.13092577
132	0x3d861317	0.0654661
133	0xbcc11370	-0.023568839
134	0xbd80d9d9	-0.06291551
135	0x3d3d00e7	0.04614344
136	0x3d08a397	0.033359136
137	0x3d64d2fd	0.055865277
138	0xbd39b8c0	-0.045342207
139	0xbe54ae18	-0.20769536
140	0x3d4c23e6	0.049838923
141	0x3d6db92a	0.058037914
142	0xbeabcbdb	-0.33553967
143	0x3d0f0bb8	0.034923285
144	0xbdfdcd26	-0.123926446
145	0xbc89771b	-0.016780427
146	0x3d8d9ac0	0.06914282
147	0xbdb412d8	-0.08792657
148	0xbda6c557	-0.08143108
149	0xbd8ddde7	-0.0692709
150	0xbc27795c	-0.010221805
151	0x3c896a35	0.016774276
152	0xbd829fbc	-0.06378123
153	0x3e9cb90e	0.30609936
154	0xbe6b5a41	-0.22983648
155	0xbc9be7a4	-0.019031353
156	0x3dd99f50	0.106260896
157	0xbd60f7d0	-0.054923832
158	0x3e2b7d4d	0.16747017
159	0xbbf40e4b	-0.007447993
160	0x3cce3c45	0.025175223
161	0x3cb288f5	0.021793822
162	0x3d6a03b8	0.057132453
163	0xbddf8098	-0.10913199
164	0xbd8bb1bb	-0.06821009
165	0x3ea2bcce	0.31784672
166	0x3c53d528	0.012929238
167	0xbce54738	-0.027988061
168	0xbcf4255f	-0.029802976
169	0xbd2e7148	-0.042588502
170	0xbcff6ad8	-0.031178877
171	0xbdd5d6cd	-0.104413606
172	0x3d89d5d0	0.067302346
173	0x3cdcb464	0.026941486
174	0x3d82fe54	0.063961655
175	0x3d1d0e01	0.038343433
176	0x3e22b20d	0.15888233
177	0xbdfdc8aa	-0.12391789
178	0xbe330a5d	-0.17484422
179	0x3d1b4aa2	0.037912972
180	0x3e005609	0.1253282
181	0x3e5b050b	0.21388642
182	0x3ce91705	0.02845336
183	0x3db54966	0.0885189
184	0xbe41a354	-0.18909961
185	0xbe2caefd	-0.16863628
186	0xbdd18cf1	-0.102319606
187	0xbc7de88a	-0.015497336
188	0xbd9bc8e6	-0.07606678
189	0x3e908272	0.28224522
190	0x3caa36df	0.020778118
191	0x3d757b3d	0.059931982
192	0x3c716735	0.014734079
193	0x3d8f26eb	0.06989845
194	0xbef0d5d5	-0.4703814
195	0x3d8ec62b	0.06971391
196	0xbece8fd3	-0.40344104
197	0xbca7c1c5	-0.020478139
198	0xbcfe9418	-0.031076476
199	0x3d5542fe	0.05206584
200	0x3e185729	0.14876999
201	0xbdf8b98b	-0.121447645
202	0x3d210caf	0.039318737
203	0x3cc48ada	0.02399199
204	0xbe2cdce3	-0.16881137
205	0x3bab71a3	0.0052320524
206	0xbc6c1f96	-0.014411828
207	0xbe9dfd5a	-0.30857354
208	0xbd8950e9	-0.067048855
209	0xbe555e0d	-0.20836659
210	0xbcb4c45d	-0.02206629
211	0x3e0eb81b	0.13937418
212	0xbca92ef0	-0.020652264
213	0x3d0620ea	0.032746233
214	0x3d475cf0	0.048672616
215	0x3b8156ee	0.0039471304
216	0x3de40403	0.11133578
217	0xbd6af16d	-0.057359148
218	0xbea49f85	-0.32152954
219	0xbb175fe0	-0.0023097917
220	0xbbf9947e	-0.0076165786
221	0xbd4a4bd7	-0.049388733
222	0xbca5e948	-0.020252839
223	0xbd42981f	-0.047508355
224	0x3b87e5b7	0.004147257
225	0xbd466f0f	-0.048445757
226	0x3bc79c29	0.006091614
227	0x3e06960b	0.13143174
228	0x3d9fe8f0	0.07808101
229	0xbe398d64	-0.18120342
230	0x3c09cd53	0.0084107695
231	0x3e89ab4d	0.26888505
232	0xbd9722d4	-0.0737969
233	0x3e56356c	0.20918816
234	0xbe9d53bf	-0.30727956
235	0x3df827eb	0.12116989
236	0xbd6de4df	-0.058079597
237	0x3db0bb7c	0.0862951
238	0xbd86932f	-0.06571042
239	0xbd80d45b	-0.062905036
240	0xbcd2c264	-0.025727458
241	0xbd789f40	-0.060698748
242	0xbe1405f1	-0.14455391
243	0xbd8e3546	-0.06943755
244	0x3d958bdb	0.07302066
245	0xbd1804a4	-0.0371138
246	0x3da5a6d2	0.08088459
247	0xbcb23ee8	-0.021758512
248	0x3d54e722	0.051978238
249	0x3dbb76b1	0.09153498
250	0xbd11423c	-0.035463557
251	0xbd0f8166	-0.035035513
252	0xbd1b6823	-0.03794111
253	0x3c623a9f	0.013807922
254	0xbcaec617	-0.021334691
255	0x3d6170c5	0.055039186

bias f4 [60]
0	0x38b2fbbf	8.534593e-05
1	0xb872d995	-5.7899935e-05
2	0x390f2ef4	0.00013655034
3	0xb9412030	-0.00018417905
4	0x3976bbd9	0.00023530367
5	0xb717c9a0	-9.047246e-06
6	0x3990d928	0.00027627614
7	0xb83ee362	-4.5511297e-05
8	0x399a45e5	0.00029425244
9	0x38834fd8	6.261439e-05
10	0x39608a97	0.00021413933
11	0xb7de425c	-2.6495363e-05
12	0xb82ab0b8	-4.069574e-05
13	0xb8b17dd1	-8.463453e-05
14	0x38bd84d0	9.0369605e-05
15	0xb925d2b9	-0.00015814127
16	0xb7e1073a	-2.6825455e-05
17	0xb8a2901b	-7.751604e-05
18	0x394c2398	0.00019468216
19	0xb8d4a4d4	-0.000101396494
20	0x36de7041	6.6291836e-06
21	0x38e3096c	0.000108259585
22	0xb866481f	-5.490344e-05
23	0xb9b02041	-0.00033593367
24	0xb7c186b6	-2.3070123e-05
25	0x38c18466	9.227618e-05
26	0xb83a21d9	-4.437738e-05
27	0x380e2471	3.3889377e-05
28	0xb8493d4d	-4.7979225e-05
29	0x3723e33a	9.768462e-06
30	0x38f6eeae	0.00011774652
31	0xb727094e	-9.956142e-06
32	0xb88c8dc9	-6.70213e-05
33	0xb6880b6a	-4.0544446e-06
34	0xb7c101bd	-2.3008202e-05
35	0x37c9b38b	2.4044673e-05
36	0x38e1bb54	0.00010763729
37	0xb7ac5702	-2.0544514e-05
38	0xb8208373	-3.8269394e-05
39	0x37a0957d	1.9143097e-05
40	0xb7e72e3b	-2.7558874e-05
41	0x3877e226	5.9100006e-05
42	0x394dc58b	0.00019623914
43	0x39201f97	0.00015270557
44	0x3945c641	0.0001886124
45	0xb7d9b1fb	-2.5951294e-05
46	0xb8375b5e	-4.3715692e-05
47	0xb8479598	-4.7584617e-05
48	0x3928fa49	0.00016114967
49	0x38ba4922	8.882793e-05
50	0xb85b3db4	-5.2271134e-05
51	0x37accae1	2.059847e-05
52	0xb8453791	-4.702021e-05
53	0xb7c4bde1	-2.345344e-05
54	0x3853aa08	5.0464674e-05
55	0xb8801091	-6.106601e-05
56	0xb8661ed5	-5.4864988e-05
57	0x38535ac9	5.039087e-05
58	0xb8303850	-4.2014115e-05
59	0x3902705b	0.00012439622
