linearPredictionModels/db39/small/combined.csv_wholeNetPrototype5_Epochs10_ValidationLoss5.279293_lr0.0003_2023_07_30_12:01:36.pth (torch, 991329 bytes, 8 tensors)

predictor1.weight f4 [512, 145]
0.17846583 -0.11965097 0.0026032408 -0.09582204 -0.017799998 0.0740826 0.04663109 -0.19501975
0.08205963 0.05971699 0.046226926 -0.011261916 0.025826711 0.03939631 -0.040961046 -0.106206454
-0.007560073 -0.14275332 -0.17521441 -0.019938912 0.033475257 0.13257225 -0.14291584 -0.016010983
-0.06357458 -0.065905556 0.26207748 -0.06793228 -0.11096844 0.033931877 0.04114296 0.098349504
-0.07723751 0.12781043 -0.07240139 0.013340818 0.12712894 0.034255445 -0.08564708 -0.006921682
8.909787e-05 -0.076596625 -0.08108987 0.0047199978 0.0049300473 0.009634046 -0.038274165 0.15599662
-0.080393456 0.21411578 -0.13121212 -0.012094262 -0.1596314 -0.0021785186 0.028218212 -0.24913408
-0.028987782 -0.09482705 0.10378265 -0.26269794 0.10037488 0.10708476 -0.15119122 0.051167145
-0.09160449 -0.035112843 0.029235637 0.08924219 -0.042993054 0.05271376 0.033351183 0.03695729
-0.06950112 0.036302015 -0.07267622 0.07402871 -0.016075922 -0.20320202 -0.06350213 -0.052621033
-0.026830774 -0.17198461 -0.1311528 -0.10601314 0.016769866 -0.03225533 0.0033822749 -0.08752787
-0.084919766 -0.0010626727 -0.08491718 -0.01973343 -0.029174436 -0.02438609 -0.087347314 -0.00503506
-0.013163781 -0.002785769 -0.0029508087 -0.003330769 0.0071544936 -0.021989351 0.002559617 -0.039090555
0.039175518 -0.0021424755 -0.033034865 -0.013558335 -0.06029504 0.0020764568 -0.028311899 -0.055555914
0.03121157 0.07163131 -0.04952031 -0.08613993 0.07242313 -0.04932066 0.0747479 0.0124948295
-0.05426617 0.03609908 0.06118058 0.09169269 0.0022129125 0.024309931 -0.031125128 -0.049396265
0.06536662 0.023510316 -0.052921787 0.019586286 0.02762559 0.006461694 -0.007360526 0.03436237
7.798067e-05 0.006650196 -0.026077006 -0.008138313 -0.0032915229 -0.039560374 0.054651946 -0.013300828
-0.07362341 0.006598885 -0.057142492 0.10650591 -0.04117391 -0.0084393 0.022797238 -0.010163635
0.037774913 0.0406303 0.031272486 -0.09487183 0.047395386 -0.015316409 -0.09436683 0.01626634
-0.01015862 0.037339594 -0.15083405 -0.14366484 0.08233522 0.029486101 0.12097357 -0.029799946
-0.0812398 0.033917077 -0.114645585 -0.09995316 0.039057948 0.12150805 -0.09647169 0.013109981
-0.086972535 0.10064291 0.027949406 -0.054367006 0.021351015 0.006891845 -0.06828263 0.0041596615
-0.02882915 0.102168225 -0.009874234 0.0025518895 0.01636017 0.06486807 0.044642586 -0.1599384
-0.11460633 0.11227103 0.07251734 -0.050226446 0.068048686 -0.02822348 -0.021547548 0.062489305
-0.048431825 0.123486996 -0.118002325 0.07729172 0.085369065 -0.17429829 -0.017301604 0.15582289
-0.011960626 0.25744984 -0.109549314 -0.055226795 -0.012341382 -0.059406098 0.13654678 -0.04736626
-0.0938786 0.018884499 0.026331542 0.038369153 0.056243856 0.035596218 -0.102922134 0.13482083
-0.19224818 -0.014344608 0.18535794 -0.086624205 0.034224607 0.02934164 -0.070418246 0.1724521
-0.12021034 0.016862169 0.03925226 0.24726348 0.0010135699 0.035820648 0.0060275216 0.049542792
-0.07439709 -0.084117875 -0.03485972 0.11339539 0.0089230575 0.039586727 -0.008401881 0.033299293
-0.032561813 -0.026568068 -0.120205276 -0.08847808 -0.034508716 0.02367408 -0.01687821 -0.004749451
00000000: bfbf 363e 910b f5bd 229b 2a3b 593e c4bd
00000010: 4dd1 91bc 9eb8 973d 3e00 3f3d 42b3 47be
00000020: e10e a83d cd99 743d 7258 3d3d e683 38bc
00000030: 8a92 d33c 065e 213d c5c6 27bd c582 d9bd
00000040: 7dba f7bb ed2d 12be 686b 33be ee56 a3bc
00000050: 5a1d 093d 05c1 073e 8858 12be 7729 83bc
00000060: 6433 82bd 7ef9 86bd 052f 863e 1420 8bbd
00000070: 6c43 e3bd 27fc 0a3d 8585 283d 776b c93d
00000080: b32e 9ebd bde0 023e 2e47 94bd 7293 5a3c
00000090: 172e 023e 704f 0c3d bc67 afbd 47cf e2bb
000000a0: 0eda ba38 b1de 9cbd 7212 a6bd 36aa 9a3b
000000b0: 3c8c a13b 1ed8 1d3c 5fc5 1cbd 94bd 1f3e
000000c0: 53a5 a4bd 2b41 5b3e 785c 06be 0327 46bc
000000d0: 6a76 23be 7ac5 0ebb e129 e73c 011d 7fbe
000000e0: c977 edbc af34 c2bd ff8b d43d 5880 86be
000000f0: 5891 cd3d 414f db3d dfd1 1abe a494 513d
00000100: 239b bbbd 7cd2 0fbd 937f ef3c 9cc4 b63d
00000110: 7c19 30bd 62ea 573d 409b 083d 8760 173d
00000120: 9a56 8ebd 6cb1 143d 45d7 94bd 5d9c 973d
00000130: a7b1 83bc 3114 50be 680d 82bd 2789 57bd
00000140: 36cc dbbc bc1c 30be eb4c 06be 6b1d d9bd
00000150: f560 893c 2a1e 04bd 28a9 5d3b d041 b3bd
00000160: 6aea adbd 6149 8bba 0fe9 adbd 01a8 a1bc
00000170: 3aff eebc 56c5 c7bc 26e3 b2bd 25fd a4bb
00000180: e6ac 57bc 7391 36bb 5b62 41bb 0849 5abb
00000190: 3e70 ea3b 0323 b4bc 3fbf 273b 6b1d 20bd
000001a0: 8276 203d c668 0cbb 914f 07bd c723 5ebc
000001b0: eff7 76bd 2a15 083b 5bee e7bc 998e 63bd
000001c0: 68af ff3c 70b3 923d cfd5 4abd 226a b0bd
000001d0: 9452 943d 7604 4abd 6d15 993d 1db7 4c3c
000001e0: 3446 5ebd a1dc 133d 7d98 7a3d 61c9 bb3d
000001f0: 8306 113b 9f25 c73c 20fa febc bd53 4abd
00000200: efde 853d b598 c03c 84c4 58bd 6b73 a03c
00000210: 104f e23c 9ebc d33b 9130 f1bb 8ebf 0c3d
00000220: 8e89 a338 e3e9 d93b 729f d5bc 8f56 05bc
00000230: 97b6 57bb 0f0a 22bd b8da 5f3d b7eb 59bc
00000240: dfc7 96bd 763b d83b 3f0e 6abd c51f da3d
00000250: f9a5 28bd fd44 0abc 46c1 ba3c 6085 26bc
00000260: deb9 1a3d f56b 263d 9417 003d 294c c2bd
00000270: aa21 423d adf1 7abc 6643 c1bd fd40 853c
00000280: 5770 26bc 67f1 183d 3e74 1abe e01c 13be
00000290: 5e9f a83d d68c f13c fec0 f73d 041f f4bc
000002a0: 0d61 a6bd a2ec 0a3d 4ecb eabd 3eb4 ccbd
000002b0: 3afb 1f3d 36d9 f83d f392 c5bd 3fcb 563c
000002c0: a81e b2bd df1d ce3d 27f6 e43c f0af 5ebd
000002d0: 53e8 ae3c fcd4 e13b c3d7 8bbd c54d 883b
000002e0: 1c2b ecbc 933d d13d 8ac7 21bc 9a3d 273b
000002f0: c305 863c 8dd9 843d 25db 363d e4c6 23be
00000300: b9b6 eabd 5bee e53d f983 943d 3fba 4dbd
00000310: 1c5d 8b3d ed34 e7bc 7c84 b0bc c9f4 7f3d
00000320: 7360 46bd c0e6 fc3d 34ab f1bd 1f4b 9e3d
00000330: fad5 ae3d 407b 32be 18bc 8dbc 0990 1f3e
00000340: 80f6 43bc 77d0 833e 645b e0bd 7e35 62bd
00000350: 8233 4abc cf53 73bd ebd2 0b3e 2003 42bd
00000360: 6c43 c0bd aab3 9a3c 3fb5 d73c f928 1d3d
00000370: f55f 663d 57cd 113d d7c8 d2bd 790e 0a3e
00000380: b5dc 44be a605 6bbc 79ce 3d3e 0868 b1bd
00000390: 1a2f 0c3d e15d f03c 7137 90bd 4997 303e
000003a0: d730 f6bd 8822 8a3c fac6 203d a332 7d3e
000003b0: c3d9 843a acb8 123d 8482 c53b 62ed 4a3d
000003c0: 805d 98bd fe45 acbd 11c9 0ebd d83b e83d
000003d0: 0432 123c b125 223d 0ba8 09bc d764 083d
000003e0: 895f 05bd 47a5 d9bc 2f2e f6bd ff33 b5bd
000003f0: 0359 0dbd 25f0 c13c 2c44 8abc 48a1 9bbb

predictor1.bias f4 [512]
0.0585374 -0.0890511 -0.002170966 -0.10673369 -0.07716647 -0.07047138 -0.027934201 0.021715108
-0.017095815 0.1111826 -0.050086457 0.010707101 0.00639026 -0.011176298 -0.07283287 -0.022970216
-0.044305824 -0.13133055 -0.06617598 -0.07433096 -0.034109183 0.12315701 -0.111767106 -0.04080097
-0.0142075205 0.07483944 -0.116512895 -0.0057792407 -0.07119495 -0.026067762 -0.021192236 -0.0052911867
-0.13775696 -0.14309649 0.07052875 -0.06872901 0.039289806 -0.021578498 0.025586741 -0.0028679857
-0.06882114 0.00073852297 0.023553533 -0.07419992 -0.06447953 0.07445822 0.09719762 0.068571925
0.009413265 -0.036104884 0.022968369 -0.18002196 -0.10773477 -0.028897174 0.12168879 -0.034028996
0.098988354 -0.106906615 -0.03930376 0.008874026 -0.13215595 -0.043801643 0.091984846 0.024122674
0.012970942 -0.00503195 -0.07077465 0.12396004 -0.0010198103 -0.10722661 -0.09896167 0.0272968
0.07712345 -0.14430957 -0.009521599 0.040156107 -0.029356183 0.018268097 -0.03365235 0.012944431
-0.044237923 -0.0076708626 -0.018912954 0.1122455 -0.008787326 -0.08214895 -0.023576213 0.032430653
-0.06257914 -0.00788903 0.0026507569 0.0050987517 -0.014198394 -0.057219557 0.11809543 -0.107241236
-0.09995479 0.006638261 -0.07135543 -0.09769529 -0.031324945 -0.12318204 -0.058103483 -0.03205641
-0.061695147 0.040621802 -0.059560042 0.039490618 -0.0060543926 0.007994355 -0.06268831 -0.019925827
0.0031285542 -0.10845743 -0.0691611 0.07745519 0.05745181 -0.007815212 -0.08540811 0.07321777
-0.06567781 -0.081747845 -0.11481577 0.073944844 0.08597264 -0.019877508 0.046331875 0.13230476
-0.038223356 -0.18378091 0.10307797 0.10650071 0.05335431 0.028553559 0.018642388 0.073702365
-0.0897963 -0.018470393 0.0547677 -0.055678688 0.0059084673 -0.040088527 0.028700786 -0.06786408
0.01091507 -0.03558167 -0.0013218755 -0.0016169711 -0.119255126 0.063350156 -0.031794347 -0.039396044
-0.0272346 0.05995778 0.06514103 0.067060426 0.027206335 0.16023402 -0.06972349 -0.16415788
-0.009279 0.085347585 0.007984897 0.03382669 -0.007832006 0.15521969 -0.0014886914 -0.013059899
-0.06824832 0.0325361 -0.05388535 0.071814835 -0.02270037 -0.114199355 -0.03136619 -0.053038202
-0.06784951 0.023028051 -0.0021617017 -0.12255468 0.1265344 -0.1288504 -0.06840161 -0.08415748
0.004180122 -0.008173266 0.013743323 -0.05411107 -0.10975623 0.005102753 -0.0022780558 0.013223003
-0.13243558 -0.03870691 -0.009098646 -0.09569569 -0.019458964 -0.0056629265 0.024828056 -0.0050309845
-0.06904708 -0.097068295 0.09425283 0.07974806 -0.01898328 -0.043853186 0.1006411 0.012877819
-0.059469715 -0.064796366 0.05450869 0.017766131 0.055467024 -0.06975055 -0.018422969 -0.04665761
0.018936362 0.028715197 -0.026904946 -0.06033223 0.06417622 -0.11515223 0.0038792733 -0.03388065
-0.08669555 0.0023359994 -0.025960563 -0.04162438 0.013741818 0.01339306 0.01027084 -0.0046054306
-0.039327703 -0.03900654 0.0032819987 -0.053621333 -0.034404945 -0.036676615 -0.1547689 0.077707745
0.001796369 -0.11646933 0.019738046 0.04149275 -0.07399746 0.073395796 -0.04379815 0.051364105
-0.14561152 -0.019018749 -0.005296638 -0.121781416 3.8160193e-05 0.009037943 -0.054467782 -0.13865687
00000000: eac4 6f3d 6c60 b6bd c446 0ebb 3197 dabd
00000010: 7409 9ebd 4d53 90bd 44d6 e4bc e2e3 b13c
00000020: 860c 8cbc b4b3 e33d 7527 4dbd d66c 2f3c
00000030: 6365 d13b cb1c 37bc 6629 95bd 092c bcbc
00000040: 067a 35bd 847b 06be 4687 87bd d53a 98bd
00000050: 12b6 0bbd be39 fc3d 27e6 e4bd eb1e 27bd
00000060: a9c6 68bc 6c45 993d 509e eebd c95f bdbb
00000070: a8ce 91bd 0f8c d5bc 579b adbc b161 adbb
00000080: 2910 0dbe e387 12be 6171 903d ccc1 8cbd
00000090: 59ee 203d 64c5 b0bc 499b d13c d1f4 3bbb
000000a0: 19f2 8cbd 7099 413a 57f3 c03c 21f6 97bd
000000b0: d80d 84bd 8d7d 983d 8c0f c73d 706f 8c3d
000000c0: 183a 1a3c b7e2 13bd 2928 bc3c ad57 38be
000000d0: 0ca4 dcbd c4b9 ecbc f937 f93d fd61 0bbd
000000e0: 68ba ca3d dbf1 dabd fbfc 20bd 5d64 113c
000000f0: e453 07be 5a69 33bd 8d62 bc3d ea9c c53c
00000100: 1384 543c 0ee3 a4bb 4df2 90bd c3de fd3d
00000110: 28ab 85ba a099 dbbd 6bac cabd 8a9d df3c
00000120: e6f2 9d3d e3c5 13be 7b00 1cbc bb7a 243d
00000130: 617c f0bc faa6 953c 0cd7 09bd e114 543c
00000140: d332 35bd dc5b fbbb 57ef 9abc f8e0 e53d
00000150: b7f8 0fbc b53d a8bd e722 c1bc 01d6 043d
00000160: 7e29 80bd fd40 01bc 52b8 2d3b 6e13 a73b
00000170: 61a0 68bc 0e5f 6abd 04dc f13d 4ba1 dbbd
00000180: 19b5 ccbd c585 d93b cc22 92bd 7814 c8bd
00000190: 964e 00bd de46 fcbd ebfd 6dbd 954d 03bd
000001a0: 0db4 7cbd 0c63 263d 3bf5 73bd eac0 213d
000001b0: ed63 c6bb c1fa 023c bb62 80bd 7d3b a3bc
000001c0: 6e08 4d3b ee1e debd 56a4 8dbd d4a0 9e3d
000001d0: 9752 6b3d 600b 00bc 72ea aebd 33f3 953d
000001e0: 1682 86bd 6a6b a7bd 8824 ebbd 6570 973d
000001f0: 6c12 b03d 28d6 a2bc 7ec6 3d3d e67a 073e
00000200: 1890 1cbd 1031 3cbe 8b1a d33d 0b1d da3d
00000210: 0d8a 5a3d 27e9 e93c ecb7 983c 44f1 963d
00000220: 1fe7 b7bd 394f 97bc 1954 603d 560f 64bd
00000230: d19b c13b de33 24bd e91d eb3c 53fc 8abd
00000240: 1fd5 323c 16be 11bd c842 adba 8cf0 d3ba
00000250: 083c f4bd babd 813d ca3a 02bd bf5d 21bd
00000260: 191b dfbc 4a96 753d a968 853d fa56 893d
00000270: d2df de3c 6314 243e 30cb 8ebd 0119 28be
00000280: f206 18bc b7ca ae3d 16d3 023c db8d 0a3d
00000290: d051 00bc e9f1 1e3e 3220 c3ba 30f9 55bc
000002a0: c6c5 8bbd 9344 053d e2b6 5cbd a813 933d
000002b0: 20f6 b9bc 5ae1 e9bd d679 00bd 963e 59bd
000002c0: aff4 8abd 53a5 bc3c 56ab 0dbb f3fd fabd
000002d0: 3c92 013e 5cf1 03be 2516 8cbd c25a acbd
000002e0: 68f9 883b 2ae9 05bc ad2b 613c 92a3 5dbd
000002f0: e0c7 e0bd ff34 a73b 6f4b 15bb 4ba5 583c
00000300: 319d 07be 238b 1ebd 7d12 15bc 1afc c3bd
00000310: 6868 9fbc 1290 b9bb 3564 cb3c f5da a4bb
00000320: 8e68 8dbd becb c6bd a107 c13d f352 a33d
00000330: d382 9bbc 669f 33bd ec1c ce3d 7dfd 523c
00000340: 8496 73bd f5b3 84bd 8144 5f3d 478a 913c
00000350: 6431 633d 60d9 8ebd c4eb 96bc 0d1c 3fbd
00000360: 6e20 9b3c 223c eb3c c367 dcbc ee1e 77bd
00000370: d26e 833d efd4 ebbd 683b 7e3b 70c6 0abd
00000380: 708d b1bd 9117 193b 3fab d4bc 537e 2abd
00000390: 5d25 613c 916e 5b3c 0647 283c 27e9 96bb
000003a0: 1616 21bd 52c5 1fbd cd16 573b 0ba2 5bbd
000003b0: 33ec 0cbd 383a 16bd bd7b 1ebe 3d25 9f3d
000003c0: 2474 eb3a 7987 eebd afb1 a13c 4df4 293d
000003d0: fb8b 97bd 8950 963d b065 33bd 2b63 523d
000003e0: 301b 15be 35cd 9bbc 6b8f adbb 8968 f9bd
000003f0: 320e 2038 e113 143c 9c19 5fbd 11fc 0dbe

predictor2.weight f4 [256, 512]
-0.06923184 0.04894974 0.016989661 -0.14737849 0.120820686 0.046439953 0.041676104 -0.035477836
0.11844073 -0.121621005 0.030435473 0.052889023 0.017029444 -0.005400879 -0.030662289 -0.00028508878
-0.001563683 0.0078376215 -0.070669085 0.074813984 0.02495004 -0.07386252 0.016596355 0.06153581
0.074902475 -0.025681857 0.0026589783 -0.01337988 -0.009875003 -0.04885988 0.013657877 0.01987802
-0.079701796 -0.08775728 0.0018526453 -0.027537612 0.07941987 -0.011944719 0.04327306 -0.013836376
0.017672807 -0.01962839 -0.16906905 0.016179904 0.0673804 -0.011454101 0.08576527 0.029072264
0.042774122 0.0079285065 -0.07999112 0.034770988 0.010116426 0.008108579 -0.12767883 -0.062773
0.12508972 -0.008812155 -0.00883551 0.072704144 0.030964231 0.050282493 0.034622055 0.038052067
0.045741968 0.086087875 0.0051549766 -0.024904976 0.05823607 0.02857331 -0.07593037 -0.014140338
-0.010102228 -0.07634679 -0.0189906 0.0028091024 0.01320138 0.034948498 -0.12993918 -0.059724037
0.004561692 -0.023735944 0.09546236 -0.0044826646 -0.048356872 0.01721513 -0.03607917 -0.05718734
-0.0028334153 -0.059486248 -0.021168934 0.053065125 -0.02464993 0.050972544 -0.045136545 -0.044576775
0.07148766 -0.035317793 0.023535725 -0.0048730313 0.07744877 0.082241975 0.03269986 -0.1521085
0.052082703 0.033891782 0.07284425 0.032911092 -0.021716433 -0.04887142 -0.005985634 -0.04408361
0.008482377 0.042035654 0.029435344 -0.0357681 0.031347647 -0.019318005 0.052878167 -0.12167601
-0.062155627 -0.112019435 -0.023330115 0.008074272 -0.022921694 0.0032511158 -0.0627389 -0.032544926
0.11974591 -0.06929696 0.02407805 -0.10762195 0.052548975 -0.009899758 -0.13205133 -0.13441102
0.03801657 -0.0026508432 -0.011922449 -0.018064188 0.078604944 0.044890217 0.021210603 0.013391693
-0.02829324 0.08427756 -0.034491602 -0.092387065 -0.027994892 -0.035446506 -0.06439485 0.033686683
-0.016643237 -0.0049618953 -0.013642549 -0.095719986 0.0075002704 0.040360674 -0.016054718 0.05018329
0.061832845 0.010721167 -0.057129458 -0.029705545 -0.09424159 0.03711001 -0.052758664 -0.020480933
0.09261889 -0.18127333 -0.037231345 0.052353695 -0.09131101 0.050767086 0.056792226 0.086466596
0.0076748957 -0.047100913 -0.05136398 0.01361353 0.02026506 0.0006138763 0.036170643 -0.012502417
0.03362043 -0.012462295 -0.08154693 0.060150452 -0.012912166 -0.062176432 0.009140238 -0.13701953
-0.05535319 0.0003758183 0.044418808 0.0680507 -0.06434195 -0.017053742 0.04463566 -0.06461324
-0.065618396 0.040182464 -0.05603131 0.09041752 0.081790544 -0.048099406 0.03532232 0.05273224
-0.06886247 0.022749647 -0.0710015 0.059486516 0.03004474 0.0481382 -0.007365452 0.038713813
0.00035993394 -0.055329695 -0.18463437 0.013965309 -0.062147968 -0.022721628 0.035122234 0.0028273738
-0.05728232 -0.029788408 0.021793576 -0.019671299 -0.012399581 -0.032026045 0.0025589478 -0.040908333
-0.014097632 0.033540066 -0.06701757 0.051897503 -0.02319307 -0.031293385 0.112306215 -0.061863106
-0.0070948955 0.016019037 0.049593158 0.031443063 0.03891334 -0.033380374 0.06522553 0.07407917
-0.019223232 0.038813535 0.0020215749 0.011718539 -0.07135469 -0.0050766044 -0.06220581 -0.021170063
00000000: 6cc9 8dbd 867f 483d e72d 8b3c 63ea 16be
00000010: d670 f73d d237 3e3d 90b4 2a3d 3551 11bd
00000020: 0e91 f23d 6f14 f9bd d053 f93c 29a2 583d
00000030: 5581 8b3c dbf9 b0bb 7b2f fbbc f877 95b9
00000040: 7ff4 ccba 5e69 003c f4ba 90bd 1338 993d
00000050: 0764 cc3c 3c45 97bd 14f5 873c f90c 7c3d
00000060: 7866 993d c262 d2bc 4142 2e3b 4937 5bbc
00000070: c4ca 21bc 4c21 48bd 4ac5 5f3c 3bd7 a23c
00000080: b23a a3bd 17ba b3bd 76d4 f23a 8f96 e1bc
00000090: e3a6 a23d c8b3 43bc 183f 313d f8b1 62bc
000000a0: 90c6 903c b8cb a0bc 7020 2dbe b88b 843c
000000b0: bcfe 893d fba9 3bbc b4a5 af3d f528 ee3c
000000c0: eb33 2f3d 91e6 013c 62d2 a3bd 066c 0e3d
000000d0: 5ebf 253c d8d9 043c 3dbe 02be 218f 80bd
000000e0: 8517 003e db60 10bc d1c2 10bc e9e5 943d
000000f0: b3a8 fd3c 04f5 4d3d dbcf 0d3d 7cdc 1b3d
00000100: ee5b 3b3d d74e b03d 14eb a83b 8505 ccbc
00000110: f288 6e3d 9312 ea3c 6281 9bbd e0ac 67bc
00000120: d183 25bc b55b 9cbd 2d92 9bbc eb18 383b
00000130: 9a4a 583c 2826 0f3d c70e 05be 31a1 74bd
00000140: 3f7a 953b e271 c2bc c581 c33d 51e3 92bb
00000150: db11 46bd bf06 8d3c c0c7 13bd 463d 6abd
00000160: d2b0 39bb daa7 73bd 796a adbc d15a 593d
00000170: a6ee c9bc 96c8 503d 19e1 38bd 2396 36bd
00000180: 1f68 923d 64a9 10bd fecd c03c f3ad 9fbb
00000190: 769d 9e3d 7b6e a83d 4af0 053d 55c2 1bbe
000001a0: ac54 553d 1cd2 0a3d 5e2f 953d c8cd 063d
000001b0: a9e6 b1bc 662d 48bd 2323 c4bb 0491 34bd
000001c0: abf9 0a3c 942d 2c3d 6422 f13c 9281 12bd
000001d0: 6466 003d cb40 9ebc c796 583d 4631 f9bd
000001e0: e696 7ebd 726a e5bd cc1e bfbc f449 043c
000001f0: 47c6 bbbc ac10 553b 417d 80bd d44d 05bd
00000200: 583d f53d 91eb 8dbd 553f c53c e668 dcbd
00000210: 983d 573d 9832 22bc 7738 07be 0ba3 09be
00000220: 43b7 1b3d c5b9 2dbb 6056 43bc 59fb 93bc
00000230: a1fb a03d cede 373d dcc1 ad3c d568 5b3c
00000240: 3ac7 e7bc b799 ac3d 1147 0dbd 6e35 bdbd
00000250: 8b55 e5bc 5b30 11bd 72e1 83bd 0cfb 093d
00000260: 6657 88bc 6597 a2bb ff84 5fbc d708 c4bd
00000270: d4c4 f53b 3c51 253d 2f85 83bc fe8c 4d3d
00000280: 7044 7d3d d5a7 2f3c 9400 6abd 0b59 f3bc
00000290: bc01 c1bd aa00 183d 7819 58bd a1c7 a7bc
000002a0: f9ae bd3d b79f 39be e57f 18bd d470 563d
000002b0: 4401 bbbd 26f1 4f3d f79e 683d 6615 b13d
000002c0: b17d fb3b e3ec 40bd 0963 52bd 490b 5f3c
000002d0: e902 a63c 8bec 203a ab27 143d f0d6 4cbc
000002e0: 93b5 093d a72e 4cbc 1402 a7bd 5260 763d
000002f0: 8d8d 53bc b7ac 7ebd f0c0 153c d94e 0cbe
00000300: 07ba 62bd 7a09 c539 7ff0 353d 2a5e 8b3d
00000310: b6c5 83bd 4ab4 8bbc e2d3 363d f253 84bd
00000320: f062 86bd 5e96 243d 1681 65bd d22c b93d
00000330: cd81 a73d e203 45bd 23ae 103d c3fd 573d
00000340: c407 8dbd 785d ba3c 3c69 91bd 22a8 733d
00000350: 6320 f63c 902c 453d e459 f1bb 6092 1e3d
00000360: 84b5 bc39 64a1 62bd cb10 3dbe c0ce 643c
00000370: de8e 7ebd b522 babc 55dc 0f3d 764b 393b
00000380: dea0 6abd d206 f4bc 7188 b23c b425 a1bc
00000390: 9d27 4bbc be2d 03bd 05b4 273b 7f8f 27bd
000003a0: c1f9 66bc 4f61 093d 8240 89bd 7a92 543d
000003b0: 65ff bdbc 7e2d 00bd cd00 e63d 2b64 7dbd
000003c0: 4c7c e8bb 5b3a 833c 3222 4b3d 71ca 003d
000003d0: 9863 1f3d dcb9 08bd f694 853d d2b6 973d
000003e0: 0a7a 9dbc f1fa 1e3d 667c 043b 1dff 3f3c
000003f0: 6822 92bd a559 a6bb 85cb 7ebd d76c adbc

predictor2.bias f4 [256]
0.02609548 0.07192635 0.08894769 0.06555109 0.057219755 0.17618255 -0.008618226 -0.019680083
-0.0273705 -0.054563977 0.078870244 -0.13397829 0.032994844 -0.03534414 -0.0050353897 -0.043505367
0.13404177 0.019322062 -0.013059183 -0.047317065 0.013408161 -0.09480331 -0.03126486 0.12104918
0.011972482 -0.08128449 0.116285205 0.1325451 -0.0013365636 0.08305741 0.006868185 0.04564844
0.036947295 0.00044353184 -0.012620658 -0.047339555 -0.02305836 -0.004358794 -0.05090591 -0.0058863154
0.15233682 0.093152665 0.056973293 -0.06138419 -0.033808295 0.06820063 0.03111619 -0.042128395
0.1724872 0.0009398256 0.021095501 -0.1648144 -0.024806159 0.013682423 0.053744182 0.015817096
0.035060667 0.024942087 0.0055162823 0.060632 -0.056419082 0.04494413 0.058077585 0.01969901
0.05900223 0.077544376 -0.050047245 0.06256699 -0.037739128 0.019489512 0.01649881 0.03270769
-0.021393284 -0.055098753 -0.15645732 -0.05930452 0.028133973 -0.045608226 0.09976262 -0.030328084
0.017891351 -0.053813823 -0.010527365 0.033793055 0.027057748 -0.032208715 0.014864552 0.048277974
0.043402385 -0.010272538 -0.042546008 0.014165249 0.036998212 0.0224318 -0.011889023 -0.0018958759
0.20137896 -0.01760442 0.008772411 -0.10884713 -0.05499013 0.06404617 -0.05586073 0.01615588
0.03936416 -0.06355792 0.0032805647 0.06991478 0.012121837 0.085454315 -0.03278365 -0.011480607
-0.050619528 0.07543359 -0.03252643 0.0051216483 -0.08079258 -0.045551725 0.065266274 -0.028055739
-0.066758774 0.033688422 -0.016298769 -0.017380169 -0.026888458 0.12521997 0.01116838 0.016583689
-0.046276033 -0.13096058 -0.012668878 0.046509348 -0.015254599 -0.02416782 -0.02943956 -0.0030053493
0.059845306 -0.010086613 0.043068632 -0.10665773 -0.020069849 -0.1316302 -0.0074737174 0.011850496
-0.035378955 -0.028894223 0.03813286 -0.02065073 0.024027623 0.052343655 -0.0191305 -0.0048141056
0.080134675 -0.027323956 -0.03954662 -0.041488983 -0.0023918652 -0.025429886 0.022473976 0.016565237
-0.066881634 -0.047631614 0.03285925 -0.116541296 -0.07785052 0.05712614 0.039732914 0.047016826
0.05557435 -0.017526275 0.031457536 0.015937136 0.015472652 0.038533855 0.02367008 -0.04212432
-0.048433952 0.17193367 -0.012675317 -0.038069524 0.11235351 -0.050056867 0.0048499582 0.0027817744
-0.046025902 -0.029939545 -0.024532428 0.007026225 -0.026828036 0.004040517 -0.06666155 -0.098418884
-0.043354355 0.018898379 -0.004548526 -0.019483862 0.059114024 0.026906969 0.17236209 -0.06455536
-0.016868958 -0.008572181 0.015598254 -0.007995948 0.0012591557 0.10400517 -0.05582604 0.01805975
0.032308035 0.035428416 -0.019717807 0.021696495 0.007900362 -0.15916324 0.006585909 -0.036961537
-0.084877215 0.07613838 0.020534882 -0.041640326 0.07677873 -0.059337605 0.09260412 0.009387394
-0.020406354 -0.049920615 -0.04269233 0.015763553 0.00919242 -0.05618397 0.008620787 0.01651564
0.057316843 -0.010750819 -0.025387976 0.040193744 -0.04854512 0.13491595 -0.061167162 -0.0720851
0.050273806 -0.004972243 0.09575232 0.002376579 0.002366101 0.056028023 0.17303386 -0.025780695
0.04527049 0.008462372 0.09569178 -0.056679178 -0.024388557 -0.035429522 -0.058548886 -0.069395915
00000000: 30c6 d53c 1f4e 933d 352a b63d a63f 863d
00000010: 435f 6a3d 3369 343e 7633 0dbc 2038 a1bc
00000020: 1938 e0bc 7a7e 5fbd b986 a13d 9b31 09be
00000030: 9a25 073d 04c5 10bd e9ff a4bb af32 32bd
00000040: 3f42 093e 4d49 9e3c 2ff6 55bc 8acf 41bd
00000050: e7ad 5b3c 3d28 c2bd 950f 00bd a2e8 f73d
00000060: 3b28 443c 7c78 a6bd f026 ee3d e7b9 073e
00000070: a22f afba 011a aa3d 830e e13b dcf9 3a3d
00000080: 0c56 173d d689 e839 e0c6 4ebc 1fe7 41bd
00000090: e3e4 bcbc 37d4 8ebb b782 50bd fee1 c0bb
000000a0: 2ffe 1b3e d3c6 be3d d45c 693d fd6d 7bbd
000000b0: 917a 0abd c6ac 8b3d 61e7 fe3c d38e 2cbd
000000c0: 7ca0 303e a15e 763a 79d0 ac3c 1bc5 28be
000000d0: 4936 cbbc 3e2c 603c dc22 5c3d db92 813c
000000e0: c69b 0f3d 5953 cc3c eec1 b43b 4359 783d
000000f0: b217 67bd 5617 383d c3e2 6d3d d15f a13c
00000100: 53ac 713d 96cf 9e3d 57fe 4cbd 1f23 803d
00000110: 5894 1abd 78a8 9f3c 8328 873c 80f8 053d
00000120: f840 afbc 3baf 61bd 5936 20be 4ce9 72bd
00000130: 3879 e63c b1cf 3abd 5850 cc3d 9a72 f8bc
00000140: e290 923c e26b 5cbd f87a 2cbc 966a 0a3d
00000150: 36a8 dd3c 49ed 03bd 738a 733c 20bf 453d
00000160: b3c6 313d 264e 28bc b944 2ebd 5c15 683c
00000170: 708b 173d e5c2 b73c 2dca 42bc 0a7f f8ba
00000180: 4936 4e3e 2537 90bc 29ba 0f3c 3eeb debd
00000190: 553d 61bd a32a 833d 39ce 64bd 5659 843c
000001a0: 503c 213d a82a 82bd befe 563b 7b2f 8f3d
000001b0: ab9a 463c ac02 af3d 2648 06bd 2819 3cbc
000001c0: 6c56 4fbd ed7c 9a3d 6f3a 05bd 80d3 a73b
000001d0: 9576 a5bd 7294 3abd 53aa 853d 26d5 e5bc
000001e0: d3b8 88bd dffc 093d ff84 85bc db60 8ebc
000001f0: 2f45 dcbc aa39 003e 95fb 363c 84da 873c
00000200: f08b 3dbd 881a 06be 2091 4fbc 9680 3e3d
00000210: 6dee 79bc 98fb c5bc 3b2b f1bc 65f5 44bb
00000220: 5a20 753d 5242 25bc bc68 303d 5e6f dabd
00000230: 8669 a4bc 11ca 06be 16e6 f4bb 9528 423c
00000240: 86e9 10bd 94b3 ecbc 3431 1c3d b82b a9bc
00000250: 94d5 c43c 4d66 563d 91b7 9cbc a5bf 9dbb
00000260: a61d a43d 7dd6 dfbc a3fb 21bd 5af0 29bd
00000270: d7c0 1cbb 5652 d0bc 581b b83c d2b3 873c
00000280: 3df9 88bd 5e19 43bd 6c97 063d 34ad eebd
00000290: 1870 9fbd 19fd 693d fbbe 223d b794 403d
000002a0: eea1 633d 4393 8fbc 9ed9 003d 998e 823c
000002b0: 0281 7d3c add5 1d3d c1e7 c13c 8d8a 2cbd
000002c0: ae62 46bd 610f 303e 22ac 4fbc caee 1bbd
000002d0: 9919 e63d 6e08 4dbd 66ec 9e3b 6e4e 363b
000002e0: a885 3cbd c743 f5bc 3bf8 c8bc 3f3c e63b
000002f0: 78c6 dbbc 5066 843b da85 88bd d78f c9bd
00000300: 5694 31bd c6d0 9a3c cd0b 95bb 9f9c 9fbc
00000310: 8c21 723d 016c dc3c b07f 303e 9a35 84bd
00000320: c530 8abc 5572 0cbc d28f 7f3c 7001 03bc
00000330: 410a a53a aa00 d53d d9a9 64bd 0af2 933c
00000340: 6e55 043d 631d 113d 3d87 a1bc d9bc b13c
00000350: 8570 013c b0fb 22be 9cce d73b fb64 17bd
00000360: 1bd4 adbd 70ee 9b3d c538 a83c 0c8f 2abd
00000370: 2b3e 9d3d fd0b 73bd 3ba7 bd3d 96cd 193c
00000380: 3a2b a7bc 8f79 4cbd 27de 2ebd 9122 813c
00000390: ce9b 163c 2a21 66bd 343e 0d3c cf4b 873c
000003a0: 11c5 6a3d 3424 30bc 72fa cfbc 32a2 243d
000003b0: 3fd7 46bd 6827 0a3e 6b8a 7abd 5aa1 93bd
000003c0: e8eb 4d3d 33ee a2bb cb19 c43d 61c0 1b3b
000003d0: 9610 1b3b a47d 653d ca2f 313e 0932 d3bc
000003e0: 8d6d 393d c3a5 0a3c 0dfa c33d 6d28 68bd
000003f0: 83ca c7bc 8c1e 11bd f5d0 6fbd 721f 8ebd

predictor3.weight f4 [128, 256]
-0.059749536 0.07029899 -0.31833488 0.004089409 -0.08314183 0.06891909 -0.20603792 0.034188118
-0.109608136 0.05883584 -0.24462613 0.032068793 0.01652681 -0.009266024 -0.18975686 0.15959626
0.019767763 0.006814004 -0.074287705 -0.03699944 -0.037435047 -0.10273477 -0.04718756 -0.38151312
-0.2703199 -0.23752744 0.11028661 0.09619629 -0.028495422 0.21324134 0.02060435 0.18517016
-0.23775074 0.08447591 -0.165852 0.21650746 -0.006428249 -0.027552372 0.04191291 -0.009865642
0.08113657 0.016962618 -0.09312844 -0.1466356 -0.053175278 -0.18247576 -0.17927966 0.04199895
-0.10799921 -0.063721895 -0.07517627 -0.09977722 0.04538607 -0.19152978 0.13421011 -0.048847094
-0.16645043 0.13555397 -0.029576013 -0.13914204 0.12881772 0.092625715 -0.23328227 -0.009186014
0.00264946 -0.3157742 0.039746705 -0.12147055 0.13202044 -0.1274706 -0.06334061 -0.028810116
-0.02644871 0.01976481 0.031394128 -0.009643752 0.26610404 -0.05346802 -0.018084524 0.07314305
0.13947217 0.04206224 -0.061063882 -0.481738 -0.0062002838 0.04953887 -0.14078565 -0.48573402
-0.15868959 -0.20310014 -0.05892851 -0.058405954 0.06114422 -0.26082376 0.15434954 -0.2109876
0.08208122 -0.044656925 0.10103537 -0.15968311 -0.088132426 0.04818488 0.01698747 0.094718605
-0.040442545 -0.001280363 0.053502616 -0.08668207 -0.17020096 0.032719247 0.057488274 0.038199715
-0.066630125 0.077172324 -0.059523016 -0.060177416 -0.3819602 0.033363163 -0.07581276 0.0025734298
-0.10472028 -0.13167273 -0.11288288 0.20507866 0.0005252058 -0.13420072 0.026011681 0.0068567665
0.0029631988 -0.25666136 0.0027916639 0.1556765 -0.030176751 -0.1878915 -0.04656299 -0.3312902
-0.026034469 -0.041757423 0.18146516 -0.08983416 -0.28271666 -0.14393762 -0.2346722 0.035664547
-0.30486888 -0.022837628 -0.20610717 0.010290685 -0.015046945 -0.21642874 0.014510332 -0.18092498
-0.0051457915 -0.18843852 0.20443381 0.0054023056 0.025522104 0.54258955 -0.2647263 -0.37099582
0.10221697 -0.17160171 -0.2077654 0.01940442 0.0734108 -0.18451197 -0.22502545 0.0840892
0.019311069 0.033787895 -0.02397999 -0.22361733 -0.21997795 0.14352676 -0.18379927 0.3247613
0.016234074 0.1054273 0.044229496 -0.28541303 -0.06361852 -0.028127834 -0.010614565 -0.14744768
-0.060649596 0.111011654 -0.048140656 -0.014705955 0.04730826 0.004524192 0.0453652 0.25596505
0.059073843 0.045491118 -0.19049673 -0.12977862 -0.045288194 0.02375207 0.06376357 0.10016571
-0.09006932 0.028317912 -0.019855242 -0.09929371 -0.019124018 -0.15371343 0.045122135 0.11153499
0.14789313 -0.2540599 -0.2407795 -0.04864303 0.046255738 0.02796251 -0.0051028547 0.04445927
-0.16455716 0.11692849 -0.05311065 0.031044515 0.091093384 0.0067643165 -0.44679028 -0.18233125
-0.41719726 -0.032263927 -0.062124204 0.068859816 0.107329264 -0.18055877 -0.016830022 -0.033534307
-0.33588117 -0.049689285 -0.08229534 0.13712397 -0.0012032717 0.08265413 -0.048560638 -0.123223044
-0.07616056 0.012890653 -0.029833931 -0.06076693 -0.019727439 -0.065663226 0.015084378 -0.14091125
-0.24296804 -0.025542272 -0.098271474 0.0019928766 -0.15876637 -0.054554902 0.013598093 0.034393698
00000000: eebb 74bd ebf8 8f3d cafc a2be 7300 863b
00000010: 4446 aabd 7425 8d3d 9bfb 52be d708 0c3d
00000020: 3b7a e0bd dafd 703d 467f 7abe 915a 033d
00000030: 3c63 873c 86d0 17bc 9f4f 42be 346d 233e
00000040: 01f0 a13c 0248 df3b 2724 98bd ba8c 17bd
00000050: 7e55 19bd 9b66 d2bd be47 41bd b055 c3be
00000060: 5f67 8abe 653a 73be f2dd e13d 8f02 c53d
00000070: 3b6f e9bc f05b 5a3e 74ca a83c 3f9d 3d3e
00000080: ee74 73be b501 ad3d 1bd5 29be 22b4 5d3e
00000090: 10a4 d2bb 83b5 e1bc dfac 2b3d 80a3 21bc
000000a0: ee2a a63d 30f5 8a3c 20ba bebd a527 16be
000000b0: 52ce 59bd edda 3abe 1695 37be 1707 2c3d
000000c0: b12e ddbd a080 82bd 04f6 99bd 0058 ccbd
000000d0: bee6 393d 6220 44be 606e 093e e413 48bd
000000e0: fb71 2abe a9ce 0a3e 6549 f2bc 407b 0ebe
000000f0: cbe8 033e 8db2 bd3d 8ce1 6ebe ef80 16bc
00000100: 90a2 2d3b 28ad a1be 71cd 223d 8dc5 f8bd
00000110: 5e30 073e a787 02be b9b8 81bd 3103 ecbc
00000120: f7aa d8bc d0e9 a13c 2197 003d d400 1ebc
00000130: ca3e 883e 4801 5bbd ff25 94bc 06cc 953d
00000140: cbd1 0e3e 7549 2c3d 1f1e 7abd 5da6 f6be
00000150: c02b cbbb 45e9 4a3d 1d2a 10be 21b2 f8be
00000160: 867f 22be 7cf9 4fbe 055f 71bd 153b 6fbd
00000170: 5d72 7a3d b18a 85be ce0d 1e3e 220d 58be
00000180: 331a a83d 2eea 36bd a2eb ce3d f883 23be
00000190: c67e b4bd 825d 453d 4f29 8b3c d4fb c13d
000001a0: 15a7 25bd dad1 a7ba 8f25 5b3d 5e86 b1bd
000001b0: 2949 2ebe 9e04 063d d378 6b3d 4e77 1c3d
000001c0: 6075 88bd 860c 9e3d 68ce 73bd 987c 76bd
000001d0: 4a90 c3be d0a7 083d b843 9bbd fda6 283b
000001e0: 9677 d6bd 37d5 06be 242f e7bd 2400 523e
000001f0: f7ad 093a ea6b 09be 7316 d53c baae e03b
00000200: 3a32 423b 1e69 83be 59f4 363b a969 1f3e
00000210: 3c35 f7bc a166 40be d5b8 3ebd de9e a9be
00000220: 3d46 d5bc d509 2bbd 01d2 393e f9fa b7bd
00000230: 3dc0 90be 6264 13be e94d 70be fd14 123d
00000240: c617 9cbe fa15 bbbc c20d 53be 439a 283c
00000250: 7687 76bc 7f9f 5dbe bebc 6d3c 6644 39be
00000260: 079e a8bb 07f6 40be 1957 513e d305 b13b
00000270: bb13 d13c 26e7 0a3f 358a 87be 2af3 bdbe
00000280: 2157 d13d 5cb8 2fbe 74c0 54be 05f6 9e3c
00000290: 6758 963d b5f0 3cbe 126d 66be f536 ac3d
000002a0: 3f32 9e3c 2d65 0a3d af71 c4bc f1fb 64be
000002b0: e641 61be aef8 123e e035 3cbe 1d47 a63e
000002c0: 52fd 843c 45ea d73d fd29 353d a821 92be
000002d0: 6d4a 82bd 586c e6bc b6e8 2dbc 86fc 16be
000002e0: b66b 78bd 145a e33d 232f 45bd 3ff1 70bc
000002f0: 4ec6 413d ac3f 943b dcd0 393d da0d 833e
00000300: 6af7 713d e554 3a3d 9311 43be b0e4 04be
00000310: 1d80 39bd b393 c23c 7996 823d ae23 cd3d
00000320: 4376 b8bd f7fa e73c 76a7 a2bc 805a cbbd
00000330: f9a9 9cbc 0e67 1dbe fdd1 383d 756c e43d
00000340: 4c71 173e 2414 82be e78e 76be ea3d 47bd
00000350: a876 3d3d a211 e53c d935 a7bb ec1a 363d
00000360: ac81 28be 3478 ef3d 8e8a 59bd 1151 fe3c
00000370: 2b8f ba3d 33a7 dd3b b2c1 e4be 0bb5 3abe
00000380: e19a d5be 2e27 04bd f375 7ebd 6006 8d3d
00000390: 72cf db3d 66e4 38be 1ddf 89bc 455b 09bd
000003a0: 9ef8 abbe fe86 4bbd 768a a8bd 3a6a 0c3e
000003b0: 19b7 9dba 9246 a93d 85e7 46bd 5d5c fcbd
000003c0: 11fa 9bbd 5133 533c 4a66 f4bc bfe6 78bd
000003d0: 709b a1bc 717a 86bd 7824 773c 0a4b 10be
000003e0: 9dcc 78be 073e d1bc 8e42 c9bd ec9a 023b
000003f0: a793 22be f674 5fbd 89ca 5e3c 68e0 0c3d

predictor3.bias f4 [128]
0.041331824 0.16269585 -0.07520788 0.03770679 -0.00623376 -0.055353 0.32257307 -0.13162269
0.04272065 -0.007572615 0.0075030434 -0.11200438 -0.11234444 0.04007062 0.049566843 -0.02389985
-0.11609124 0.20923425 -0.015789803 0.15890035 0.11655796 -0.028707175 -0.051436935 0.21646783
0.028700618 -0.070021614 -0.07042245 0.032022446 0.12231571 -0.010202247 -0.053897746 0.13064665
0.0072052027 -0.05205404 0.19637094 0.008018661 0.11688488 0.03572063 -0.004911819 -0.048828024
-0.0026902535 0.15823257 -0.080044866 0.027895343 -0.045677345 -0.010110449 -0.011425722 0.22026591
-0.2022012 0.06910672 -0.09904117 0.09585417 -0.0024032022 -0.015865125 0.07882659 -0.005847528
-0.038783688 -0.10805212 0.0031273891 0.15031832 0.07846027 -0.015939558 0.2835421 -0.029770361
-0.053169064 0.14109543 -0.06653438 -0.04905789 0.052072614 -0.16684426 0.09387167 0.07412392
0.1694892 -0.07453457 -0.001636345 -0.02745106 0.26398063 0.0053239116 0.0429619 -0.02200767
0.22139141 0.11001872 0.16902894 0.034979295 0.1971766 -0.032060098 0.0034810745 0.009557714
-0.0837252 -0.078034945 -0.039798923 -0.05216433 -0.08306695 -0.06984093 -0.10300954 0.13436861
0.026835589 -0.026154999 0.049619455 0.13095823 -0.091986224 -0.07316231 0.14218897 -0.06424555
0.032202356 -0.0522992 0.017348083 0.13252597 -0.09032158 -0.03957465 -0.061828244 0.1752811
0.20609662 0.0032674714 0.1450258 -0.025649263 0.034275934 0.020649182 0.0017015568 -0.010489605
-0.13841574 -0.08989041 -0.05585855 0.008540347 -0.01687808 0.03161865 -0.028750263 -0.09690201
00000000: 8f4b 293d be99 263e 9706 9abd 6f72 1a3d
00000010: 9244 ccbb d4b9 62bd 4c28 a53e 19c8 06be
00000020: d9fb 2e3d b323 f8bb 17dc f53b 8d62 e5bd
00000030: d714 e6bd 1721 243d 9a06 4b3d 9ec9 c3bc
00000040: 3ec1 edbd 8141 563e 9e59 81bc c6b6 223e
00000050: f1b5 ee3d 4f2b ebbc 89af 52bd bea9 5d3e
00000060: 8f1d eb3c 7e67 8fbd a539 90bd f829 033d
00000070: a980 fa3d 5327 27bc e2c3 5cbd 3cc8 053e
00000080: 9f19 ec3b 9e36 55bd 7715 493e b460 033c
00000090: 5761 ef3d cc4f 123d 53f3 a0bb e5ff 47bd
000000a0: f74e 30bb b807 223e 90ee a3bd c684 e43c
000000b0: 2b18 3bbd 4ca6 25bc f432 3bbc 638d 613e
000000c0: d50d 4fbe d387 8d3d 19d6 cabd 314f c43d
000000d0: 0b7f 1dbb 94f7 81bc d66f a13d 9f9c bfbb
000000e0: a5db 1ebd 6e4a ddbd e2f4 4c3b 0ced 193e
000000f0: c7af a03d ad93 82bc 6e2c 913e f9e0 f3bc
00000100: cec7 59bd 527b 103e 2d43 88bd edf0 48bd
00000110: 184a 553d 39d9 2abe ca3f c03d 48ce 973d
00000120: 948e 2d3e 95a5 98bd a17a d6ba 0ce1 e0bc
00000130: 7828 873e 3574 ae3b d1f8 2f3d 6e49 b4bc
00000140: 6eb4 623e 7f51 e13d ec15 2d3e 7346 0f3d
00000150: aae8 493e 7351 03bd bd22 643b f597 1c3c
00000160: 1e78 abbd c9d0 9fbd 3204 23bd 44aa 55bd
00000170: 011f aabd c308 8fbd aaf6 d2bd ed97 093e
00000180: 4fd6 db3c 0243 d6bc c53d 4b3d ea19 063e
00000190: 4663 bcbd 1fd6 95bd fc99 113e 2c93 83bd
000001a0: 9ee6 033d b037 56bd 911d 8e3c e3b4 073e
000001b0: 85fa b8bd 0719 22bd 9d3f 7dbd e47c 333e
000001c0: fe0a 533e 1323 563b a581 143e 671e d2bc
000001d0: ec64 0c3d 7928 a93c c606 df3a 98dc 2bbc
000001e0: dbbc 0dbe 7718 b8bd efcb 64bd d0ec 0b3c
000001f0: e643 8abc 8f82 013d ac85 ebbc 9074 c6bd

predictor4.weight f4 [60, 128]
0.026182743 0.083900735 0.0020759862 0.032543357 -0.07250921 0.04791426 0.10026118 0.01128977
0.0011664535 -0.03656634 -0.020012328 -0.060621753 -0.011238925 -0.062690124 -0.11882054 0.056915592
-0.005702873 0.035985567 -0.0623873 0.058574185 0.051358547 0.024453953 0.02262821 -0.02364211
-0.0049401806 0.041230574 0.004591176 0.056761377 0.13852857 0.039815374 -0.0412571 -0.009757643
-0.0049509834 0.00029154043 -0.062695466 -0.05366681 0.033378433 -0.027257668 0.026120331 0.03301621
-0.022492655 0.0014190318 0.07553593 0.018613657 -0.030932272 0.031173965 0.006396848 0.19444378
0.0053215097 -0.0025832364 0.06922625 -0.006667399 -0.014861939 0.004708656 0.028722275 0.00019940942
0.06017572 0.0032367862 -0.12175114 -0.051078867 -0.011219408 0.21671517 -0.0053977794 0.047656722
-0.007939811 0.07794278 -0.03198568 0.011909596 0.056190133 0.00784763 0.03806357 0.044926837
-0.024072245 -0.083596036 -0.058891717 -0.029995479 0.113297455 0.028241053 0.08485156 -0.082514174
0.055953626 0.016711645 0.045650333 -0.05520243 0.00041582124 -0.060237642 -0.12888846 0.028686583
-0.012411859 0.07530049 0.08354803 0.07803548 0.031758964 0.0049349917 -0.09785935 -0.055815145
0.009295962 -0.002850062 -0.0714868 0.008301637 0.0214661 -0.06579861 -0.06433841 0.011387281
-0.027737623 -0.0396423 -0.03568519 0.027816776 0.07784133 -0.022368422 0.055368688 0.017708326
0.072177544 -0.0083734635 0.054183964 0.03417366 -0.020289173 0.05988836 -0.036537085 -0.013472614
0.46772507 0.034658253 0.011713518 -0.02556756 -0.027057838 -0.032828826 -0.02050143 0.035795487
0.08933955 0.061316695 0.0030496018 0.01157399 0.079848066 0.13632892 0.032388885 0.63374305
-0.16129605 0.0138243465 0.013536616 0.057644308 -0.07340732 0.35425138 0.1343343 0.12168155
-0.042936977 0.012874194 -0.06452095 -0.016342632 0.20505671 0.034502514 -0.062961586 -0.06625834
0.05560174 -0.004864636 0.18755795 -0.34611645 -0.0038376653 -0.014246758 -0.055277582 0.10653401
-0.048651833 0.092938796 0.037689064 0.12944113 0.040286116 0.06945149 0.039187968 0.005453683
0.020012455 -0.2740774 -0.06526087 0.111277215 -0.0030632624 0.012070913 0.13323277 -0.04191076
-0.25785974 -0.22820237 0.010779055 -0.27971482 0.028534561 -0.0073360684 0.14631559 -0.0344423
-0.041546635 0.0019824426 0.0724636 0.010049264 0.097123705 0.013224626 -0.007254074 -0.0828372
-0.015869075 0.051935595 -0.064383276 -0.041367628 -0.03861186 0.57647324 0.13779844 -0.17509575
0.085074306 0.07729656 0.045271415 -0.009940146 0.025693912 -0.005690289 0.17796794 0.06200521
-0.06720068 -0.25778976 0.058186885 0.011007084 -0.040619906 0.014234345 0.01362542 0.10730183
0.0069611156 0.054777183 0.00043787152 0.015078901 0.04400993 -0.046517294 0.07492909 -0.034010097
-0.49685997 0.14314544 0.111677304 -0.007963286 -0.04345713 -0.022794828 -0.24228968 0.08187727
0.10272155 -0.0077645937 -0.0020584885 -0.13126428 -0.09608633 -0.029781403 0.105729476 0.15205331
-0.056467686 -0.0036697385 -0.50660044 -0.22103603 0.18182082 0.016735239 -0.017717235 0.076558284
0.053759184 0.013946463 -0.0023254377 0.012264967 -0.026744394 0.014984403 -0.22180006 -0.07542246
00000000: 317d d63c 26d4 ab3d 450d 083b 2f4c 053d
00000010: b57f 94bd be41 443d bc55 cd3d baf8 383c
00000020: afe3 983a 96c6 15bd e5f0 a3bc 844e 78bd
00000030: 7823 38bc ae63 80bd 2f58 f3bd 5320 693d
00000040: 2bdf babb 9a65 133d d389 7fbd 7ceb 6f3d
00000050: 575d 523d a853 c83c cc5e b93c 19ad c1bc
00000060: 3de1 a1bb 64e1 283d 9371 963b 9e7e 683d
00000070: 6fda 0d3e 7215 233d 34fd 28bd 85de 1fbc
00000080: dc3b a2bb e5d9 9839 7b66 80bd bbd1 5bbd
00000090: d3b7 083d 794b dfbc 4efa d53c 013c 073d
000000a0: 8442 b8bc cefe b93a 95b2 9a3d ab7b 983c
000000b0: ad65 fdbc 8b60 ff3c a69c d13b 451c 473e
000000c0: 0f60 ae3b 844b 29bb 7ec6 8d3d 327a dabb
000000d0: 7d7f 73bc 124b 9a3b fa4a eb3c 8f18 5139
000000e0: d17a 763d 4320 543b a958 f9bd 1338 51bd
000000f0: 9cd1 37bc 95ea 5d3e dbdf b0bb b233 433d
00000100: fb15 02bc 77a0 9f3d 6b03 03bd 7720 433c
00000110: a027 663d 5993 003c 8ce8 1b3d 3405 383d
00000120: 2833 c5bc 6634 abbd 7138 71bd 14b9 f5bc
00000130: 7f08 e83d c859 e73c a8c6 ad3d 31fd a8bd
00000140: a12f 653d dce6 883c d8fb 3a3d f11b 62bd
00000150: 9502 da39 bfbb 76bd 56fb 03be 2000 eb3c
00000160: 1c5b 4bbc 2537 9a3d 3b1b ab3d 11d1 9f3d
00000170: b015 023d b6b5 a13b 7c6a c8bd 6c9e 64bd
00000180: 174e 183c 1bc8 3abb ac67 92bd 9703 083c
00000190: add9 af3c 6cc1 86bd dbc3 83bd b891 3a3c
000001a0: 033a e3bc f75f 22bd a22a 12bd 02e0 e33c
000001b0: 466b 9f3d fb3d b7bc 47ca 623d 0d11 913c
000001c0: d2d1 933d da30 09bc 01f0 5d3d aef9 0b3d
000001d0: 7b35 a6bc 7f4d 753d e9a7 15bd 3dbc 5cbc
000001e0: a979 ef3e d0f5 0d3d 0eea 3f3c 0f73 d1bc
000001f0: 66a8 ddbc 8577 06bd 9df2 a7bc 4a9e 123d
00000200: a7f7 b63d 3727 7b3d d4db 473b d5a0 3d3c
00000210: 6287 a33d cf99 0b3e 35aa 043d fc3c 223f
00000220: cb2a 25be 837f 623c afc8 5d3c 701c 6c3d
00000230: 9456 96bd 7060 b53e ee8e 093e 2d34 f93d
00000240: afde 2fbd 49ee 523c 8f23 84bd fce0 85bc
00000250: 63fa 513e 8252 0d3d 01f2 80bd 74b2 87bd
00000260: a6be 633d 8667 9fbb 310f 403e 2d36 b1be
00000270: 5781 7bbb 3c6b 69bc bf6a 62bd 812e da3d
00000280: 2547 47bd b256 be3d d95f 1a3d 378c 043e
00000290: 0e03 253d 953c 8e3d 9083 203d cfb4 b23b
000002a0: 29f1 a33c df53 8cbe 7ea7 85bd 4fe5 e33d
000002b0: 04c1 48bb 14c5 453c 2c6e 083e 9eaa 2bbd
000002c0: 3106 84be e2ad 69be a29a 303c c836 8fbe
000002d0: 50c1 e93c 6763 f0bb c1d3 153e 5f13 0dbd
000002e0: ce2c 2abd deeb 013b cc67 943d aba5 243c
000002f0: cbe8 c63d 1aac 583c 95b3 edbb 8da6 a9bd
00000300: ddff 81bc 6bba 543d 61db 83bd 1a71 29bd
00000310: 7827 1ebd c093 133f 091b 0d3e 4d4c 33be
00000320: 703b ae3d a94d 9e3d 856e 393d fedb 22bc
00000330: 0a7c d23c 9b75 babb 3a3d 363e 2df9 7d3d
00000340: 83a0 89bd 05fd 83be 5f55 6e3d 0e57 343c
00000350: 0f61 26bd 2c37 693c 273d 5f3c 10c1 db3d
00000360: 121a e43b 0a5e 603d 1f92 e539 7f0d 773c
00000370: c243 343d eb88 3ebd 6c74 993d 2c4e 0bbd
00000380: 6e64 febe b894 123e 12b7 e43d 7178 02bc
00000390: 1b00 32bd 38bc babc c91a 78be 45af a73d
000003a0: ad5f d23d 226e febb b5e7 06bb 256a 06be
000003b0: e9c8 c4bd 21f8 f3bc b288 d83d ddb3 1b3e
000003c0: a94a 67bd ff7f 70bb 91b0 01bf 4557 62be
000003d0: 3d2f 3a3e 5718 893c bc23 91bc 97ca 9c3d
000003e0: 9732 5c3d b57f 643c 5f66 18bb 00f3 483c
000003f0: 0f17 dbbc 2481 753c 8e1f 63be 1777 9abd

predictor4.bias f4 [60]
9.692102e-05 -8.397302e-05 4.5981124e-05 -6.537014e-05 -7.054126e-05 5.5654455e-05 4.4372668e-05 -3.906973e-05
3.5517245e-05 -1.331549e-05 9.473705e-05 4.324194e-05 2.3461216e-05 -0.00012545096 5.361621e-05 3.314688e-05
0.00010017067 2.0259029e-05 -5.685848e-05 -1.7135908e-05 -7.919672e-05 -9.2280796e-05 9.503736e-05 -8.204192e-05
7.049955e-05 -5.359576e-06 3.932632e-05 7.018364e-05 7.193637e-05 2.7693502e-05 6.345799e-05 4.791365e-05
-8.433403e-05 3.715426e-05 6.9940716e-06 -6.2033956e-05 0.00012353272 -5.626043e-05 1.0874196e-05 -4.643631e-05
-7.669947e-05 6.591063e-05 8.098169e-05 0.00012454022 2.276117e-05 -0.00012691089 3.225837e-05 -6.925263e-05
9.878237e-05 -5.806022e-06 4.8571488e-05 -5.9554524e-05 5.7582813e-05 -7.852617e-05 6.545282e-05 -5.008677e-05
-9.499345e-06 -8.931471e-05 5.450187e-05 7.4668474e-06
00000000: 1442 cb38 ac1a b0b8 dbdb 4038 5417 89b8
00000010: 8def 93b8 846e 6938 ca1c 3a38 cede 23b8
00000020: 5af8 1438 9865 5fb7 91ad c638 ae5e 3538
00000030: 94ce c437 7c8b 03b9 f8e1 6038 3107 0b38
00000040: b812 d238 eff1 a937 547b 6eb8 15bf 8fb7
00000050: 6a16 a6b8 e086 c1b8 cb4e c738 ec0d acb8
00000060: 28d9 9338 68d6 b3b6 51f2 2438 8e2f 9338
00000070: 8bdc 9638 584f e837 c014 8538 e4f6 4838
00000080: 7ddc b0b8 15d6 1b38 9eae ea36 3a18 82b8
00000090: 9088 0139 2df9 6bb8 5170 3637 9cc4 42b8
000000a0: b7d9 a0b8 8039 8a38 b7d4 a938 0397 0239
000000b0: 3eef be37 6213 05b9 294d 0738 b93b 91b8
000000c0: 6229 cf38 59d1 c2b6 3db9 4b38 2fca 79b8
000000d0: 1385 7138 6bae a4b8 b743 8938 4314 52b8
000000e0: 605f 1fb7 784e bbb8 f098 6438 bb8b fa36
