linearPredictionModels/db39/small/validation_wholeNetPrototype5_Epochs20_ValidationLoss:65.450116_lr:0.0003__2023_07_14_13:53:15.pth (torch, 425705 bytes, 4 tensors)

weight f4 [512, 145]
000000 2a ad d7 3d f9 28 7e 3d 60 f3 00 3d e3 27 57 3c
       0.10531075 0.062050793 0.0314821 0.013132068
000010 53 01 83 3d 9d eb f0 3c 0b 3e 43 3d e7 5f 65 bd
       0.06396737 0.029409224 0.04766659 -0.055999663
000020 ba 8f 43 bd 88 44 4f bc f5 c4 ca bb 1e f0 a9 bd
       -0.04774449 -0.0126506165 -0.00618803 -0.08297752
000030 8b 77 cd 3c be 15 0b bc f2 61 a8 bd 3f c6 81 3d
       0.025081417 -0.00848907 -0.082218066 0.063366406
000040 ca e9 8d bd 3a 27 28 3d da b4 d6 3c 43 17 ba bc
       -0.06929357 0.041053034 0.026209284 -0.02271617
000050 46 35 c6 bc ce 98 9a bb 03 b3 a8 3c 1b aa 98 bb
       -0.024195325 -0.004717923 0.020593172 -0.00465895
000060 68 c5 11 3d 3b 87 94 3d 26 96 3c bc 29 19 3c 3d
       0.035588652 0.07252356 -0.011510408 0.045922432
000070 2c 15 69 3d 4c 61 6b 3d 24 47 a4 bd c0 fc 7a bd
       0.056904957 0.057465836 -0.080213815 -0.061276197
000080 1f 4f c9 3b d3 6d a8 3d ff cd 6f bd 3b 95 67 3d
       0.006143465 0.08224072 -0.058546063 0.0565388
000090 13 bd c1 3d 50 82 8d bc 20 eb ea bc 43 51 8f bd
       0.09459891 -0.017274052 -0.02867657 -0.06997921
0000a0 ee 8b d7 3c 9b 2b c9 bd d1 11 93 bd 11 93 3b 3a
       0.02631184 -0.0982277 -0.071811326 0.00071553985
0000b0 69 2e 5d 3d c8 c7 ed 3c 67 2a 9c 3c 64 ca ff 3c
       0.05399934 0.029025927 0.019063188 0.031224437
0000c0 c8 6f 92 3d 85 19 b2 bd 09 23 eb bd 30 2c f9 3d
       0.07150227 -0.08696274 -0.11481292 0.12166631
0000d0 6f 54 ad 3d a2 e9 b5 3d d0 95 57 bd 9a bf 07 3d
       0.0846337 0.088824525 -0.052633107 0.03314171
0000e0 64 73 11 3c d1 5f 6e 3d 59 a2 81 bb 43 36 d2 3c
       0.008877609 0.058196846 -0.003956121 0.02566064
0000f0 82 70 f8 3c 99 27 b1 bc ce 6e 36 bd 10 47 91 bd
       0.030327085 -0.021625327 -0.044539265 -0.07093632
000100 17 f9 93 be 12 72 9d bc 0d 0b 94 3d e2 d7 8c 3b
       -0.28900978 -0.019219432 0.0722867 0.004298196
000110 71 b4 e5 bc fe 73 70 bb ea e8 5b bd 2a 81 36 3b
       -0.028040143 -0.003669023 -0.05368892 0.0027847984
000120 9b 7b 63 bd a0 93 49 bd a1 63 56 bd bd 5b 7b ba
       -0.0555378 -0.04921305 -0.052341107 -0.000958856
000130 3b a2 10 3d 6c 84 25 3e 64 8a 9d bd 5d 59 b0 bb
       0.035310965 0.16163796 -0.076924115 -0.0053817467
000140 21 31 c0 bc f0 64 5c 3d 16 8e 75 3d 1c 7e a4 3c
       -0.023460926 0.0538072 0.059949957 0.020079665
000150 95 22 42 bd 04 6e 6c bc 36 3a 8e bd 48 69 02 3d
       -0.04739626 -0.014430527 -0.069446966 0.031838685
000160 21 6f b9 bc bd 78 d9 bc bc 48 f6 3c ff aa f7 bc
       -0.022635998 -0.02654683 0.03006398 -0.030232904
000170 e5 e0 fe 3c 8c 34 55 3c 73 7a f2 bc 03 ae 25 bd
       0.031113097 0.013013016 -0.029599404 -0.040449154
000180 90 1a d8 3c 69 5c 04 3c 31 6b 06 3d a1 20 22 bd
       0.026379853 0.008078673 0.03281707 -0.0395819
000190 bc 6c ba 3c a9 66 5a 3d f3 86 3c bd fc 5d 46 3d
       0.022756927 0.05332056 -0.046027135 0.048429474
0001a0 f0 bd 2d 3d 82 84 3d 3d 61 8e 0e 3d 0d 6e 29 bd
       0.042417467 0.046268947 0.03480375 -0.04136472
0001b0 82 84 34 3d e4 77 7a bd 7d f3 e3 3c a4 a9 54 bd
       0.04407168 -0.061149493 0.027826065 -0.051919594
0001c0 74 52 71 3d e1 c8 81 bd 59 73 57 bd 30 57 13 3d
       0.058916524 -0.06337143 -0.05260024 0.03597182
0001d0 fe 4a c4 3c 30 d8 9b bd 04 65 d2 bc e6 63 2b 3d
       0.02396154 -0.07609594 -0.025682934 0.041843317
0001e0 51 82 6b 3c f1 f8 68 3b 7b 1c 19 bd 03 1d 28 3d
       0.014374332 0.0035548771 -0.037380677 0.041043293
0001f0 0d b7 a3 bd 9a 4f 4d 3d 66 0d 80 3d 61 a9 18 3d
       -0.079938985 0.050124742 0.062525555 0.037270907
000200 11 d8 72 bd e4 55 dd 3c 3a 45 9b 3d 4e f3 01 3d
       -0.05928809 0.027018495 0.07581563 0.031726174
000210 e3 a3 8e bd 49 dd 22 3d 2a 00 0e bb 75 9e 8a bc
       -0.06964853 0.039761815 -0.0021667578 -0.016921261
000220 40 0e 8b bd 56 09 5c 3c 46 50 5f bd 94 8d bb 39
       -0.06789827 0.01342996 -0.054519914 0.00035772903
000230 e6 6e 2c 3d a6 88 81 bd 37 98 dc bc 5a ea 88 bd
       0.04209795 -0.06324892 -0.02692805 -0.06685324
000240 13 6e 85 bd 30 d1 74 3d 50 61 98 3c 2b 82 a9 bc
       -0.065151356 0.05976981 0.01860109 -0.020691952
000250 c2 35 74 bd 43 6d f4 3b ac f3 97 bd 04 48 e1 3c
       -0.05962158 0.007459314 -0.074195236 0.02750016
000260 de 3c f0 3c e8 3f 78 3c 6c e5 03 3c eb b2 eb 3d
       0.029325899 0.015151955 0.008050304 0.11508735
000270 47 3c 5d 3c 87 c6 9c 3d bb 01 05 3d 96 c3 87 3d
       0.013503141 0.076550536 0.032472353 0.06629102
000280 fa 33 b2 bc 22 93 ed bb 56 41 65 3d 92 3c 7f 3d
       -0.0217533 -0.0072502056 0.055970512 0.062313624
000290 e0 fb 23 bd 40 04 f8 bc ae c3 14 3d 72 dd aa bd
       -0.04003513 -0.030275464 0.036319427 -0.083430186
0002a0 33 1e 10 bc ef 91 eb bc fb a5 99 bd 26 58 90 3d
       -0.008796263 -0.02875611 -0.075023614 0.07048063
0002b0 a4 7f 3d bd a8 73 ab 3d 3f 1f 07 3d 74 35 93 bb
       -0.046264306 0.08371669 0.032988783 -0.004492456
0002c0 53 75 7b bc df 4d 45 bd 8d 1a f4 bc 45 2e 96 bb
       -0.0153477965 -0.048169967 -0.029797817 -0.0045831525
0002d0 53 44 95 3c 69 62 1d bd a8 f3 a9 bc bb 22 5f 3d
       0.018221056 -0.03842393 -0.020746067 0.05447648
0002e0 a6 7c 50 bd 42 36 2f bc b0 3b 96 bd 72 45 9d 3c
       -0.050900124 -0.010694088 -0.07335603 0.019198153
0002f0 c5 0f 17 bd 5d 83 16 3e 69 58 9a bb 8d bf ea bc
       -0.036880273 0.14698549 -0.0047102463 -0.028655792
000300 e9 bc b2 bc c9 50 eb 3c 38 41 db bc 59 81 0c bd
       -0.021818595 0.028725045 -0.026764497 -0.034303043
000310 0d 35 5d 3d de 95 b4 3c 5f bd fa 3c f0 ea db bd
       0.05400567 0.022044118 0.030607877 -0.1073817
000320 04 4f 86 3d e2 ba ad 3d 75 50 19 bc aa bd ef bc
       0.0655804 0.08482911 -0.009357561 -0.029265244
000330 74 7d a2 3b 6c ef 96 bd fa 3b 09 bc d8 87 b7 bc
       0.004958803 -0.07369885 -0.008376116 -0.022403643
000340 51 a4 e8 3c df 26 30 be 8a a6 a3 bc fc c3 52 3d
       0.028398665 -0.17202328 -0.019976873 0.051456437
000350 ef b7 c9 3d 2a c1 74 3d 81 de 51 bd f9 93 dc 3c
       0.09849536 0.059754528 -0.051237587 0.026926028
000360 98 97 24 3e d6 cc 86 bd e0 ee a5 3c 8e 39 8a bc
       0.16073453 -0.06582038 0.020255506 -0.016873147
000370 45 d6 d8 3c f9 ae b1 bc eb 08 99 bb 91 e0 40 3b
       0.02646936 -0.021689879 -0.0046702526 0.0029430727
000380 16 99 f1 bb 18 1d 49 bc e5 87 1a bc cb 26 36 3d
       -0.0073729856 -0.012275003 -0.009431814 0.04447059
000390 e8 be c5 3c 00 41 ef 3b 0f 76 fa bc c7 2c b9 3c
       0.024138883 0.00730145 -0.030573873 0.02260436
0003a0 6e 19 a9 bd e2 99 0f bd a9 bc b4 3b eb 8c 87 3d
       -0.082568035 -0.035058863 0.005515654 0.06618675
0003b0 4f dd 24 bd 8a 16 16 3d 3e 3c 09 3d 8b 38 d8 bc
       -0.04025012 0.03664259 0.033504717 -0.02639415
0003c0 78 9d a2 3d ec 81 a7 bc 21 c3 4d 3d 01 55 61 bc
       0.07940191 -0.020447694 0.050234918 -0.013753177
0003d0 0f 33 cf 3c 4a 30 33 bd 30 fb ad bd d5 1b 9d 3c
       0.025292901 -0.043747224 -0.08495176 0.01917831
0003e0 58 2a 22 bd 32 9c 97 bb e3 fe 63 3d 06 69 45 bd
       -0.039591163 -0.004626774 0.055663 -0.04819586
0003f0 21 34 68 3c 2a 07 7e 3d 80 85 7d bc 23 2e 07 bd
       0.014172585 0.06201855 -0.015473723 -0.033002984

bias f4 [512]
000000 4c 66 cd 3d e0 3a 96 bd f0 bb ce 39 86 79 77 3c
       0.10029277 -0.07335448 0.00039431406 0.015104657
000010 94 dc 59 bd a8 f1 a1 bd ff 9b 0e bc 89 ac e8 ba
       -0.053188875 -0.079074204 -0.008704185 -0.0017751615
000020 a3 0e e3 bc 8f 3c d8 3c 15 a5 9d bd 13 96 72 bd
       -0.02771694 0.026396064 -0.076975025 -0.059225153
000030 16 e0 2c bd fa d0 41 bc 57 63 e0 bc 87 84 84 bd
       -0.042205893 -0.011829609 -0.027391119 -0.0647059
000040 16 ec 52 bd 0c 30 d4 3c 0b 94 05 bc c8 5f 1f bc
       -0.05149468 0.025901817 -0.008152972 -0.009727426
000050 79 3c 96 3d 67 db 6d 3d a6 ac 55 3d c0 22 fb ba
       0.07335753 0.058070567 0.052166604 -0.0019160137
000060 a0 39 96 3d fb 1f 8f bd 62 f3 9d 3c f4 d0 d0 3c
       0.0733521 -0.06988522 0.019281093 0.025490262
000070 a7 21 91 3c 47 e3 05 3b 22 16 79 bd 9c f3 d4 ba
       0.017716242 0.0020429657 -0.060812123 -0.0016246918
000080 67 82 89 3d 3c 40 0f bd 78 99 9e bc 39 ca 35 bd
       0.067143254 -0.034973368 -0.019360289 -0.044382308
000090 00 b3 14 bd 1f 10 bb 3d 9e 3a 4f 3c 4a a7 4c bd
       -0.03630352 0.09133934 0.012648253 -0.049964227
0000a0 a0 b2 58 bd 1e 44 92 bd c5 31 dd bd 35 bf 90 bd
       -0.052904725 -0.071418986 -0.108005084 -0.0706772
0000b0 21 50 f9 bc 4c 64 8f bb dc 6c 9a 3d f0 9e b4 bd
       -0.030433716 -0.00437597 0.075402945 -0.088193774
0000c0 3d cd 5b 3d 46 d6 b4 3d ae b3 c6 bd 7a 6c 30 bd
       0.053662527 0.08829932 -0.0970224 -0.0430722
0000d0 c7 d1 93 bd c3 cf e7 bd 18 c7 83 3d a5 d9 83 3d
       -0.07217746 -0.11318924 0.064344585 0.06437997
0000e0 19 93 4e bd a7 a0 f1 3c 1d 50 76 3b 84 42 a3 bd
       -0.050433252 0.02949555 0.0037584372 -0.07971671
0000f0 e1 9c 02 3a af b6 0d 3d e8 8a 07 bd cf 3a 09 3d
       0.0004982483 0.03459805 -0.033091456 0.03350335
000100 d6 4c b4 3c 13 bb 84 3c 9c 35 19 3d 85 8f 1a bc
       0.022009294 0.016202485 0.03740464 -0.009433632
000110 25 8a 81 3c 35 5a ff bc 3c 3c c3 bd 4f 65 c9 bd
       0.015812943 -0.031170944 -0.09532973 -0.09833776
000120 24 53 ac bd 2a e1 ee bc f6 d5 33 bd 19 29 35 bd
       -0.08414295 -0.029160101 -0.04390522 -0.044228647
000130 8e 51 c3 bd 5c 98 95 bb ae f4 52 3d cd 4c de 3c
       -0.0953704 -0.004565282 0.051502876 0.02713623
000140 2d a2 6b 3c 59 6f bf bd 37 17 5d bc 72 c5 89 3d
       0.014381927 -0.0934741 -0.013494304 0.06727113
000150 3f a5 93 bd 1a 3f 9c bd 5e d5 59 bc 28 b1 ea bd
       -0.072092526 -0.07629223 -0.0132955 -0.11459571
000160 cc 19 e7 bc d5 37 6b 3c 6e 99 83 3b 32 8d f1 3b
       -0.028210543 0.014356573 0.004016093 0.007371568
000170 35 d7 e0 3c 62 75 10 3c 84 2b 84 bd 23 01 10 bd
       0.027446369 0.008817049 -0.064536124 -0.035157334
000180 6b 3f a8 bd 95 02 8e 3c be 60 8f bc 16 66 44 bd
       -0.08215221 0.017335216 -0.017502185 -0.04794892
000190 c6 a1 af 3c 6f 4e ab 3d 0f 2d 70 3d f5 5e 15 bd
       0.021439444 0.083645694 0.05863672 -0.03646751
0001a0 f0 93 a6 bc 9f 09 b8 bd bd 52 e6 bd ce 25 a5 bd
       -0.020334214 -0.0898621 -0.1124625 -0.08063851
0001b0 ff 54 7a 3d 31 4e 16 bc b8 22 0a bd fb 94 7e 3d
       0.061116215 -0.009173916 -0.033724517 0.062153798
0001c0 04 d0 6d bd f7 97 0d bd d8 e9 a5 3d 54 fd ff 3b
       -0.058059707 -0.034568753 0.08101243 0.0078121815
0001d0 93 e0 00 b6 e4 0a 6e bd d7 45 a9 3c 28 41 f2 bd
       -1.9204206e-06 -0.058115855 0.020663185 -0.11828834
0001e0 8e 59 5a 3d 08 bf 9f bd 09 8a b1 3c ae 57 b7 bc
       0.053308062 -0.07800108 0.021672266 -0.022380676
0001f0 cb fa 93 bd 98 3d 98 bd b1 de 93 3a e7 7a a4 3b
       -0.07225569 -0.07433623 0.0011281577 0.005019534
000200 63 06 6a 3d b8 ae c4 bd 4f ad 99 bd c4 e5 91 bd
       0.057134997 -0.096036375 -0.07503759 -0.071239024
000210 cc 98 7f bc 29 80 9e bd e2 47 2a 3d 4f 47 11 3d
       -0.015600394 -0.07739288 0.04157246 0.035468396
000220 a8 56 98 3d d2 46 a2 bd 6e 2e 2a 3d e7 80 92 bd
       0.07438403 -0.07923664 0.041548185 -0.071534924
000230 1a 27 59 bd 99 ee d8 bd 89 43 86 bd 4d 92 a4 bd
       -0.053015806 -0.10592384 -0.0655585 -0.08035717
000240 d1 e5 9b bd 21 15 8c bd 3d a3 0f 3a 61 05 1d 3c
       -0.076121934 -0.068399675 0.00054793415 0.009583802
000250 4f 73 89 3d 8f 62 1b bd bf 1a 9c 3d c2 30 60 3c
       0.067114465 -0.03793579 0.07622289 0.0136835
000260 2c cd 3e bd 3e dc da 3b 84 61 0d be a6 16 a4 ba
       -0.046582386 0.006679087 -0.1380673 -0.0012518957
000270 1a 54 62 3d 50 66 cf bd 8d 4a 39 bd ac d4 81 bd
       0.055255987 -0.101269364 -0.045237113 -0.06339392
000280 d3 e0 a1 3d 0d f1 74 bd d5 5c 53 3c 2d 1d 41 bc
       0.0790421 -0.059800196 0.012900551 -0.011786741
000290 27 c9 9a bd c6 4b 47 3d da f9 b3 bd d4 c2 a1 3d
       -0.07557898 0.048656248 -0.0878789 0.07898489
0002a0 d9 c6 18 3d 96 c5 c2 3d 76 66 45 bd 3a 32 8a bd
       0.03729901 0.09510343 -0.048193417 -0.06747861
0002b0 72 73 04 3c d9 6a a1 3d c9 37 85 bd c1 55 0a 3c
       0.008084165 0.07881708 -0.06504781 0.008443297
0002c0 25 03 36 3c 73 3b de 3c 1f eb 3c 3d ea 79 8b 3d
       0.011109148 0.027127957 0.046122666 0.06810363
0002d0 db b2 f5 bc ad a8 6f bc 50 7c 37 bd 59 be 85 bb
       -0.029992511 -0.014627618 -0.044796288 -0.004081529
0002e0 40 22 cb 3c 3c 02 a2 3c 41 09 f9 bb 15 a3 42 bd
       0.024796605 0.019776456 -0.00759998 -0.04751881
0002f0 9e a4 8b bd 0f f2 9f bd 75 fb fc bd 06 79 02 bb
       -0.068185076 -0.07809841 -0.12352649 -0.0019908561
000300 c4 c8 a4 3c d9 4b c2 3c a2 5a 69 bd d5 0f 93 bc
       0.020115264 0.023717808 -0.0569712 -0.017951885
000310 1a 8a 96 3d e7 4d 27 bd fa a4 12 bd fc 69 49 bd
       0.073505595 -0.040845778 -0.035801865 -0.04917334
000320 bb ef 0a 3d a5 17 e7 3c 44 7c ed bd 56 83 f7 3c
       0.03392003 0.028209517 -0.115959674 0.030213993
000330 55 26 93 3d 17 5d 16 bd ea 0f d3 bc 06 53 19 bc
       0.07185046 -0.03670987 -0.025764424 -0.009358173
000340 78 d6 31 3d ac d9 af bd 46 fc aa 3d 67 3f 66 bb
       0.043417424 -0.085864395 0.083488986 -0.0035133006
000350 35 1c 4b bb d6 aa f5 bc c6 99 a8 bc ff de 00 3d
       -0.0030992154 -0.029988687 -0.020581137 0.031462666
000360 e3 f8 41 bd ac 81 5f bd 11 87 53 bd 30 8b a9 bd
       -0.047356497 -0.054567024 -0.05164248 -0.08278501
000370 cb 90 c3 bc e7 2d 83 3b d8 f9 85 bc 6b d9 0a bd
       -0.023872754 0.0040032747 -0.016354486 -0.033898752
000380 d6 11 56 bd 96 e8 39 3d 73 39 93 bd dc c6 48 bc
       -0.052263103 0.045387827 -0.07188692 -0.012254443
000390 d9 01 bf 3c 02 84 ce bb 8a 43 d8 bc dd 0a 89 3d
       0.02331631 -0.0063023577 -0.026399393 0.06691525
0003a0 71 37 85 bd 4d 32 96 bd 23 e6 2b bd eb 00 c2 bd
       -0.06504715 -0.07333813 -0.041967522 -0.09472831
0003b0 a6 e6 b2 3b cc 56 0b 3d 10 5e 38 bc 99 90 87 3d
       0.0054596243 0.034018323 -0.011252895 0.06619377
0003c0 df 32 d4 bd 82 62 bd bd f8 c2 93 3d 4e 69 d7 ba
       -0.103612654 -0.092473045 0.07214922 -0.0016434581
0003d0 4a f8 41 bd 9b 0e 91 3d 5b c7 0d 3d 2e 0e 31 3d
       -0.047355928 0.07082864 0.03461395 0.043226413
0003e0 8b bb 69 3d 3d dc 37 bd e1 5f 95 bc 95 cf 17 3d
       0.05706362 -0.04488777 -0.018234195 0.0370632
0003f0 54 ff 85 bc d7 44 87 3d 75 88 b3 bd f3 58 db bd
       -0.016357102 0.06604927 -0.087662615 -0.10710325

weight f4 [60, 512]
000000 d8 97 bd bb 2a 9c 7c bc 19 0b 05 3d 26 89 85 3c
       -0.0057859235 -0.015418092 0.032481287 0.016300749
000010 ed 72 61 bc fe cf a2 bc a7 ba 2a bd a4 60 d4 bb
       -0.013760311 -0.019874569 -0.04168191 -0.006481247
000020 f9 43 11 bd 21 76 bd 3b 84 7d f9 bc dc ca 94 bc
       -0.035465214 0.0057819043 -0.030455358 -0.018163137
000030 94 1c 11 3d 00 2d 40 3d c2 b4 fc 3c b6 81 0b bd
       0.035427645 0.046917915 0.03084791 -0.03405925
000040 f8 12 3d 3d 22 2f 9b bc b7 b5 9a 3c 3f 3e 34 3b
       0.046160668 -0.018943373 0.018885477 0.0027502922
000050 76 d6 78 3b 25 c2 63 3d db 5a 97 bc a4 dc 0b 3d
       0.0037969626 0.055605073 -0.01847594 0.034145966
000060 10 81 90 3d 84 98 26 bc b1 93 04 bc 7f db 60 bb
       0.07055867 -0.0101681985 -0.008091853 -0.0034310517
000070 2c 5f a9 3b 3e 2b be bc 1c a6 38 3c bc aa 4f 3d
       0.005168816 -0.023213979 0.011270072 0.050699934
000080 08 8a f0 3c c3 85 ae 3c 2b ab af 3c 28 48 2e bc
       0.029362693 0.021304017 0.021443924 -0.010637321
000090 2e e5 9c 3b a2 e1 63 3d b4 4a 22 3d d8 cb a1 3c
       0.0047880625 0.055635102 0.039622024 0.01975052
0000a0 b9 0c 10 3c 3e 7f f6 3c 09 5a d0 bc b4 97 8e bc
       0.008792096 0.03008997 -0.025433557 -0.017406322
0000b0 bd 1a 82 3b 09 75 07 bc e7 c1 e7 bc a2 e7 e2 3b
       0.0039704726 -0.008267649 -0.028290702 0.0069245854
0000c0 79 3f 67 bb fe c7 63 3c 82 af b4 bc 22 9a 27 bd
       -0.0035285635 0.013902662 -0.022056345 -0.040918477
0000d0 33 09 ca bb 70 fd cd bb 09 02 7e 3a 43 a7 a1 3d
       -0.0061656474 -0.0062863156 0.00096896343 0.07893231
0000e0 2f b2 8e 3c f6 c3 e1 3a 38 25 e0 bc d0 8a b4 3c
       0.017418949 0.0017224539 -0.027361497 0.022038847
0000f0 29 0b ac bc 33 ef 17 3c f0 6f a6 bb c1 09 d9 3b
       -0.021001415 0.009273338 -0.005079262 0.006623477
000100 0c 46 5c 3d 5a 80 3d bd 96 ce 22 3c 54 b7 07 3c
       0.05377774 -0.046264984 0.009936949 0.008283455
000110 7c 3d b9 3b 14 e2 35 3d d9 80 26 bd 76 10 05 3c
       0.0056530815 0.044405058 -0.040650222 0.0081216
000120 38 60 8a bb 88 30 77 bc 9c a2 4b bc 27 1b 2f 3d
       -0.004222896 -0.015087254 -0.012428906 0.042750504
000130 60 16 26 3d 49 19 01 3b 5b dd c1 bb c6 98 e1 bc
       0.040548682 0.001969891 -0.00591628 -0.027538668
000140 fc 66 0a bd 62 a1 0b 3d 4f 74 bd 3c ea bb f9 3b
       -0.03378962 0.034089454 0.02312675 0.007621278
000150 8b b1 0d 3d c9 4c 66 3b 45 bc d8 bc 32 02 2b bc
       0.034593146 0.0035140982 -0.026456961 -0.010437535
000160 61 e0 f9 3a 67 09 13 3c ee f3 18 3c be 5e c5 bc
       0.0019064063 0.00897441 0.009335501 -0.024093028
000170 9a 73 1a bc b7 87 07 bd 0e da 90 bc ee 18 c4 3b
       -0.009426976 -0.033088412 -0.017682102 0.005984417
000180 2f 09 9f 3c 5c 87 29 3c d2 a5 15 bc 6c f3 be 3b
       0.019413559 0.010347214 -0.009133773 0.005827358
000190 ae bf e7 bc 5a 8b 18 bd c5 11 07 bd dd 75 71 3c
       -0.028289642 -0.03724227 -0.03297593 0.014737573
0001a0 e3 5e 65 3d 0f 64 b5 bc 0b 33 c8 bb c3 eb 92 3d
       0.055998694 -0.022142438 -0.0061096004 0.07173874
0001b0 f9 74 80 3c 0b 8d 2a bd 20 31 a0 bc ac 5e 1b bd
       0.015680777 -0.041638415 -0.019554675 -0.037932083
0001c0 91 65 11 bd 6c b3 8a bb 68 29 92 3c 88 3b a8 bc
       -0.035497252 -0.0042328145 0.01784201 -0.0205362
0001d0 ac c7 df 3c b0 08 7b 3d dc 25 04 3d 73 8f 8b 3c
       0.02731689 0.061287582 0.032262668 0.017036175
0001e0 47 a0 2b bc bc 7a b1 bc e0 2f e6 bc 20 13 2c bb
       -0.010475225 -0.02166497 -0.028099 -0.0026256517
0001f0 db ab 75 bc 49 e8 9f bc 4a 95 0d bd 0a 00 e9 bb
       -0.014994587 -0.019519942 -0.0345662 -0.0071106004
000200 93 34 ec bc 79 91 cd 3c e3 e3 d2 3b 40 32 fd bc
       -0.028833663 0.02509378 0.0064358576 -0.03090775
000210 ae 37 0f 3c b9 1e 1c bd ba 3b 55 bc 60 b7 d4 3c
       0.008741302 -0.038115237 -0.013014728 0.025966346
000220 b9 97 a5 bc 1d 4a df 3c 62 68 24 bc 0d f7 a0 3c
       -0.020213949 0.02725702 -0.010034652 0.019649053
000230 44 7e ee bc d2 3b bc bc 7b 41 8a 3c 14 f2 e6 3c
       -0.029112943 -0.022977743 0.016876927 0.028191604
000240 90 64 2d bc 8b 60 47 3c 46 3c 11 bb 50 66 8c 3c
       -0.010583058 0.012169014 -0.002216117 0.01713863
000250 40 ec 3e 3d 87 58 1e 3b 41 99 8d 3c 1b 28 43 3d
       0.046612024 0.0024161653 0.017284991 0.04764567
000260 66 72 fb 3b f3 a1 7e 3c 9e 7e cf 3b 99 cb a8 3c
       0.0076735495 0.015541541 0.0063322326 0.020604895
000270 36 52 66 3b c2 47 b5 3c fe 07 30 bd 9f 8a 8a 3a
       0.0035144216 0.022128943 -0.042976372 0.0010569877
000280 7e 8e 0a 3d 38 03 1a bd 03 54 35 3c 91 f1 16 3c
       0.033827297 -0.037600726 0.011067393 0.009212867
000290 55 50 a7 bc 1a 56 bc bc 50 b6 80 3c 9b f6 d0 3c
       -0.020424047 -0.022990275 0.015711933 0.025508216
0002a0 13 3b 52 bc ef 4b 38 3c 79 22 97 bc 3b ac 9a bc
       -0.012831467 0.011248573 -0.018449055 -0.018880954
0002b0 a5 0e 8f bc 53 74 39 3c af 9b cc bc f4 59 e3 bc
       -0.017463038 0.011319238 -0.02497658 -0.027752854
0002c0 3b e3 0d 3b a7 11 86 3c af b8 fa 3b 0b 40 67 3b
       0.0021650332 0.01636584 0.0076514105 0.0035285975
0002d0 9d 1f 0c 3c 5b 8e 2f bb b2 32 d7 3b cf 14 8d 3c
       0.008552459 -0.0026787731 0.0065673226 0.017221836
0002e0 b5 a1 8c 3c 41 8d 9e bc f6 52 22 3c 54 cf 09 3d
       0.017166952 -0.019354464 0.009907475 0.03364499
0002f0 0b 00 bc bc 75 a1 b7 bb 7e 7c 8d 3b 0c ab 3c 3c
       -0.02294924 -0.005603964 0.004317819 0.01151539
000300 56 8e e3 3c 8e d7 a8 3c e3 2b 2c 3c 3e 4a a6 ba
       0.027777832 0.020610597 0.01050851 -0.0012686921
000310 ec ed 3e bd 0c 65 97 bc b4 97 79 3a 56 38 e8 3b
       -0.04661362 -0.0184808 0.0009521202 0.007086794
000320 47 57 b6 bb 11 d9 12 bc d1 f3 05 3a 2b 9a 94 ba
       -0.0055646035 -0.0089628855 0.0005109879 -0.001133745
000330 50 21 d2 bc 5a 2c 49 3c 91 8e c6 bc ae 0f cd 39
       -0.02565065 0.012278641 -0.024237903 0.0003911233
000340 50 c4 f5 3c 3c 44 82 3c 20 4c 09 bd 62 58 e4 bc
       0.030000836 0.015901677 -0.033519864 -0.027874175
000350 1c 48 15 bc 91 53 39 bc 47 33 4f 3c 95 f6 53 3c
       -0.0091114305 -0.011311428 0.012646503 0.012937208
000360 ce 55 bf bb 11 75 ef bc 1b 0e 86 37 d2 cb a1 bb
       -0.005839086 -0.029230626 1.5980613e-05 -0.0049376274
000370 f3 77 87 3d 30 e7 2d bd 66 45 8e 3c 8c 87 82 3c
       0.066146754 -0.042456806 0.017367076 0.015933774
000380 6b 26 2c 3d f8 0a ac 3c f3 59 92 bc 32 98 9d 3c
       0.042028826 0.021001324 -0.017865157 0.019237611
000390 90 a3 b7 3c 23 b2 3f 3b 83 bc 0a bc 0b 0a 1f 3c
       0.02241686 0.0029250465 -0.008467796 0.009706984
0003a0 dd 47 01 bc ff f6 0f 3d e9 65 1a bd 11 b9 16 3d
       -0.007890669 0.035147663 -0.037694845 0.036797587
0003b0 38 5e bd bc 99 be 4b 3b fe ae 90 3b 5e f7 5b 3b
       -0.023116216 0.0031088947 0.004415392 0.003356419
0003c0 8a 4e 98 3b 5c 4e 16 3d c4 dd ef bc d7 71 1b bd
       0.0046480345 0.036695823 -0.02928055 -0.037950363
0003d0 df 39 d3 bc d3 b6 93 3c a7 eb fd 3b e1 c7 b8 bc
       -0.025784431 0.018031513 0.007749039 -0.022556247
0003e0 c9 7f 98 bb dc 66 37 39 e2 f3 8b bc 69 73 f0 3b
       -0.004653905 0.00017490558 -0.017084066 0.0073379767
0003f0 e9 c4 2d 3d 1a a5 79 bb d0 55 fc 39 c1 d3 82 bc
       0.042424116 -0.0038092793 0.0004812912 -0.015970113

bias f4 [60]
000000 43 9a a7 3b 76 a8 7d 3b 4a f1 cd 3b ad 6c 07 3c
       0.005114825 0.0038705147 0.0062848674 0.008265656
000010 f4 25 06 3d c8 5b 2b bd 6f 49 73 bc 66 4d b0 bc
       0.03275104 -0.041835576 -0.014849051 -0.021521281
000020 8e 01 aa bb bf ad 50 bd 8f 1a dd 3c 79 3c 0f bd
       -0.0051881736 -0.050946947 0.026990203 -0.03496978
000030 f0 6a 82 bc 16 76 1c bd 79 c6 69 3d f7 30 d2 3c
       -0.015920132 -0.038198553 0.057074044 0.025658114
000040 12 4a 52 3d 58 0c 1d bd 99 30 f7 3c 35 58 1f bd
       0.05134017 -0.03834185 0.03017454 -0.03890248
000050 e5 d8 6b 3d 1d c4 21 bd ff 9f 83 3d 0f 02 d0 bb
       0.057579894 -0.03949367 0.06427001 -0.0063479017
000060 3c 54 83 3c 4e 0c d6 bc b9 09 0e 3d 20 13 93 3c
       0.016031377 -0.026128914 0.03467724 0.017953455
000070 2a 92 bc 3c 44 5d 53 3c dd cb 97 3c fa ba c7 bb
       0.023018915 0.012900654 0.018529827 -0.0060952874
000080 34 cd 8b 3d f0 d6 cc bb 8f 8a d4 3c 39 91 b1 bc
       0.06826249 -0.0062512085 0.025944976 -0.021675693
000090 ed 8f 4c 3d eb 3b 91 bc 8e 49 87 3d 5e 4f 56 bc
       0.049941946 -0.017728766 0.06605826 -0.013080446
0000a0 e1 67 93 3d 80 b6 92 ba 85 6b 38 3d ef c0 28 3d
       0.07197548 -0.0011193305 0.045024414 0.04119962
0000b0 72 97 df 3c 34 3b 10 bd 0a 9b 6c 3d 69 b3 9e bc
       0.027293894 -0.03521271 0.057765044 -0.019372659
0000c0 b8 ab 66 3d 6c 2b 57 3c 1a 71 71 3d 94 4d a3 bc
       0.056316108 0.013132911 0.058945753 -0.019934453
0000d0 06 cf a1 3d f8 9f d6 ba 4c 98 a7 3d b5 56 a7 3a
       0.07900815 -0.0016374579 0.08183345 0.001276693
0000e0 33 02 98 3d 4c 67 8c bc 92 e7 b6 3d 2c 99 e4 3c
       0.074222945 -0.0171391 0.08930887 0.02790507
