linearPredictionModels/db39/small/validation_wholeNetPrototype5_Epochs1_ValidationLoss:3.743610_lr:0.0003__2023_07_29_15:18:34.pth (torch, 992417 bytes, 8 tensors)

weight f4 [512, 145]
0	0xbe34244a	-0.17591968
1	0xbe6989a0	-0.22806406
2	0xbe96fa6f	-0.2948794
3	0xbe1bac4c	-0.15202445
4	0x3e1082d9	0.14112414
5	0xbcb8e0e1	-0.022568168
6	0x3d02dfb5	0.031951625
7	0xbd2484dc	-0.040165767
8	0xbe3f8e23	-0.18706565
9	0xbd32b89f	-0.0436331
10	0xbd83df8e	-0.06439124
11	0x3d8e4976	0.06947605
12	0xbd440eee	-0.0478658
13	0xbdc9dd82	-0.098567024
14	0x3d8df29d	0.069310404
15	0xbd72d825	-0.059288163
16	0xbe66f20c	-0.22553271
17	0xbde35421	-0.11100031
18	0xbdf4a1cb	-0.11944922
19	0xbdf898d8	-0.12138528
20	0x3dc0e806	0.09419255
21	0xbd1f1a7d	-0.03884362
22	0x3e331c56	0.17491278
23	0xbd861194	-0.065463215
24	0xbc8e97c3	-0.01740635
25	0x3c474dd4	0.012164552
26	0xbd8c50b3	-0.0685133
27	0x3dcd4479	0.10022826
28	0xbdb04fc3	-0.08608963
29	0x3c9223b4	0.01783929
30	0x3c34291a	0.0109961275
31	0x3e3c9981	0.18417932
32	0xbcb38ab5	-0.021916727
33	0xbe81bc17	-0.25338814
34	0x3df117a8	0.1177209
35	0x3e19b8f1	0.15011956
36	0xbd471058	-0.04859957
37	0xbc5d913b	-0.013523395
38	0x3d069cd3	0.032864403
39	0xbdc01763	-0.09379461
40	0xbdd24708	-0.102674544
41	0x3cccbcba	0.024992336
42	0x3d8f87ec	0.07008347
43	0x3d510d3c	0.051038012
44	0xbcfde977	-0.030995114
45	0x3d6f6320	0.058444142
46	0xbd2289b7	-0.039682116
47	0xbd829687	-0.06376367
48	0xbd62c6e4	-0.055365458
49	0xbdd24cb5	-0.10268537
50	0xbedc944c	-0.43081892
51	0xbdd7cc5e	-0.10537027
52	0x3dec0311	0.11524022
53	0x3cb7b89f	0.022426901
54	0xbd238de1	-0.03993023
55	0xbd33bbb1	-0.04388017
56	0xbdb15ff8	-0.08660883
57	0x3d920703	0.07130244
58	0xbe1deb79	-0.15421857
59	0xbd32d2e0	-0.043658137
60	0xbded0e94	-0.11575046
61	0x3ded1d02	0.115777984
62	0xbcb6c46e	-0.022310462
63	0xbea54863	-0.3228179
64	0x3e81e65c	0.25371063
65	0xbd856bca	-0.065147
66	0xbe40c65b	-0.18825667
67	0xbc013658	-0.007886492
68	0xbcb26d02	-0.021780495
69	0xbdce01d4	-0.100589424
70	0x3d71783b	0.05895255
71	0xbdf28595	-0.11841885
72	0xbdad1422	-0.08451106
73	0x3d85abcd	0.06526909
74	0x3deaca59	0.11464376
75	0xbd76100f	-0.06007391
76	0xbdfa4aa9	-0.122212715
77	0x3dfd5e1f	0.12371468
78	0x3d43f4a9	0.047840748
79	0xbd9adfe7	-0.07562237
80	0xbdc4bfb8	-0.0960688
81	0x3d03ca1d	0.032175172
82	0xbd983b1e	-0.07433151
83	0xbe46fca0	-0.19432306
84	0x3e09c3a2	0.13453534
85	0xbd82efa6	-0.063933656
86	0xbdc01aea	-0.093801335
87	0x3c2a6b2f	0.010401531
88	0xbd9728ac	-0.073808044
89	0x3d79f1d5	0.061021645
90	0xbce8e886	-0.028431188
91	0x3ceab1cc	0.028649233
92	0xbe0b92b9	-0.13630189
93	0xbd7d0dee	-0.061780863
94	0x3d681911	0.05666453
95	0xbcf8cb21	-0.030370297
96	0xbbc40fd8	-0.005983334
97	0x3dfd7bb2	0.12377109
98	0xbab4d26a	-0.0013795618
99	0xbdc5a001	-0.09649659
100	0xbdd7c3bd	-0.10535381
101	0x3d6a19e1	0.057153586
102	0xbd8d42b1	-0.06897486
103	0xbdb17ddf	-0.08666586
104	0x3bdbe3f3	0.0067105233
105	0xbe494ca8	-0.19658148
106	0x3d9b8e36	0.07595484
107	0x3d757021	0.059921388
108	0x3d4bd03e	0.049759142
109	0x3d35b3cf	0.044360932
110	0xbd8f92b7	-0.070104055
111	0x3d40c44c	0.047062203
112	0x3d44a211	0.04800612
113	0x3d8d385c	0.06895515
114	0x3d806ac8	0.06270367
115	0xbd8f7977	-0.070055895
116	0xbcdee148	-0.027207032
117	0x3b6b6d14	0.003592317
118	0xbd36f441	-0.044666532
119	0xbd6a2f8c	-0.05717425
120	0x3d15565d	0.036459316
121	0x3ca8ef1a	0.020621825
122	0x3d1651a3	0.03669895
123	0xbca23a06	-0.019803058
124	0x3c39564d	0.01131208
125	0xbd1962b0	-0.03744763
126	0xbd6f796c	-0.058465406
127	0xbd8bef4b	-0.06832751
128	0xbd0993a4	-0.033588067
129	0xbda7d834	-0.08195534
130	0x3d200b42	0.039073236
131	0x3d5b6d70	0.053571165
132	0x3cd163b8	0.025560245
133	0x3a99c7e1	0.0011732542
134	0xbc6fa6b9	-0.014627152
135	0xbce633e6	-0.028100919
136	0xbc988dbd	-0.018622274
137	0xbc2cfb2c	-0.010557931
138	0xbda473ad	-0.08029876
139	0x3d1a8f4a	0.037734307
140	0xbce7ccf6	-0.028295975
141	0xbd14f858	-0.03636965
142	0xbd82c5d4	-0.06385389
143	0x3c2d6599	0.010583305
144	0xbd0c229f	-0.034212705
145	0x3de2f931	0.11082686
146	0x3cc66fd3	0.024223244
147	0x3dafb985	0.08580307
148	0x3cff732a	0.031182844
149	0x3b9f7684	0.004866423
150	0x3d722026	0.05911269
151	0xbd0c35d0	-0.034231007
152	0xbe94c677	-0.29057667
153	0x3de39324	0.11112049
154	0xbc7968bb	-0.015222724
155	0xbdd2e876	-0.10298245
156	0xbc4db676	-0.012555709
157	0x3d866c77	0.06563657
158	0x3d28c083	0.04119922
159	0x3d724fdc	0.05915819
160	0xbde6e453	-0.11274018
161	0x3db3e115	0.08783165
162	0x3c161f4a	0.009162733
163	0x3dbf328b	0.09335812
164	0x3da6a079	0.081360765
165	0x39ba51ee	0.00035537727
166	0xbe314bab	-0.17314021
167	0xbe45d9ea	-0.19321409
168	0xbe27216c	-0.16321343
169	0x3d65d2b1	0.056109134
170	0xbe81c5d7	-0.25346252
171	0xbd336e1d	-0.043806184
172	0x3d11a9ff	0.03556251
173	0x3de707fe	0.11280821
174	0x3dcccbb5	0.099997915
175	0x3cb00e25	0.02149112
176	0xbd3f1817	-0.046653833
177	0x3dcd3dc9	0.1002155
178	0x3940c630	0.00018384377
179	0x3d20e10a	0.039277114
180	0xbe183d45	-0.14867122
181	0xbd740a72	-0.059580274
182	0x3d5d3921	0.05400956
183	0xbc97ded5	-0.018538872
184	0xbdea6d76	-0.11446659
185	0xbe19ebe6	-0.15031394
186	0x3d950bf1	0.07277668
187	0x3d29321e	0.04130756
188	0x3e2c5a65	0.16831358
189	0xbd840832	-0.06446876
190	0xbc75352a	-0.014966289
191	0xbe4fa0cc	-0.20276183
192	0x3d2b6cd4	0.041851833
193	0xbd49a546	-0.049229883
194	0x3d91a827	0.07112151
195	0xbe22cf26	-0.15899333
196	0xbd1526cb	-0.03641395
197	0x390f3e3f	0.00013660731
198	0x3c4f5ca6	0.012656366
199	0xbde557e2	-0.11198403
200	0x3cd62bc0	0.026143909
201	0x3c6b51ac	0.014362734
202	0x3d97014d	0.07373295
203	0x3e232a3f	0.15934084
204	0x3cf1cd10	0.029516727
205	0x3df6bf8d	0.12048254
206	0xbd50342d	-0.05083101
207	0x3e042658	0.12905252
208	0xbe562c7e	-0.2091541
209	0xbee48e6e	-0.44639915
210	0xbcc207dd	-0.02368539
211	0xbdf9bd4b	-0.12194308
212	0xbdef0229	-0.11670334
213	0xbbaf6fae	-0.0053538894
214	0x3d2429aa	0.040078796
215	0xbc0844e0	-0.008317202
216	0xbdd4a889	-0.10383708
217	0x3d91904a	0.07107599
218	0x3d13022a	0.035890736
219	0xbca1e7f5	-0.019763926
220	0xbc78749e	-0.015164522
221	0x3d224098	0.039612383
222	0xbe07b975	-0.1325434
223	0x3d1ca9af	0.03824776
224	0x3cf8a26d	0.030350888
225	0x3a450e17	0.0007517053
226	0x3d8b3001	0.067962654
227	0x3d539878	0.051659077
228	0xbce6423c	-0.028107755
229	0xbdd51bbc	-0.104056805
230	0xbbf542db	-0.0074847764
231	0x3cd45d33	0.025923347
232	0x3d90e1e7	0.070743375
233	0xbc8cc922	-0.017185751
234	0xbddeb121	-0.108736284
235	0xbc3a3248	-0.011364527
236	0x3e068925	0.13138254
237	0x3bbf37eb	0.0058355234
238	0x3d13c18e	0.03607326
239	0x3c6cfd33	0.014464664
240	0x3d1955f2	0.03743548
241	0xbd4bad83	-0.04972602
242	0x3d856391	0.065131314
243	0x3d152f83	0.036422264
244	0xbce7545a	-0.028238464
245	0xbca85512	-0.020548377
246	0x3d8b1e85	0.067929305
247	0x3d51bdca	0.051206388
248	0xbda886b9	-0.08228821
249	0xbcbbbdbd	-0.022917623
250	0x3bd039ca	0.0063545452
251	0x3c750bc0	0.014956415
252	0xbd1c5ef4	-0.03817649
253	0x3dbe7e7d	0.093014695
254	0x3cdcc7a8	0.026950672
255	0x3c0e6370	0.0086907

bias f4 [512]
0	0x3b1e8b28	0.002419183
1	0x3d093368	0.03349629
2	0x3d4678c8	0.04845503
3	0xbd8f70d5	-0.07003943
4	0x3c820ca1	0.015875163
5	0xbcc4cfcf	-0.024024872
6	0xbd514b90	-0.051097453
7	0x3bedf249	0.0072615487
8	0x3ce48b83	0.027898556
9	0x3d4d5155	0.050126392
10	0xbbd9e1da	-0.006649238
11	0xbb9d65ee	-0.0048034107
12	0x3cf48a1b	0.02985101
13	0xbe2258d3	-0.15854196
14	0xbc99e3af	-0.018785326
15	0xbcf2eb1a	-0.02965312
16	0xbc5dd954	-0.013540585
17	0x3d35510d	0.04426675
18	0x3dab768b	0.0837222
19	0x3d7390d0	0.059464276
20	0x3df098bb	0.11747881
21	0x3cafb576	0.021448832
22	0x3a5e580a	0.0008481747
23	0xbdfa47cb	-0.12220725
24	0xbdb71dca	-0.08941229
25	0xbdd3beee	-0.10339151
26	0xbd864c9e	-0.06557582
27	0xbd9eb123	-0.0774863
28	0xbdbf3609	-0.09336478
29	0xbd5f3ef5	-0.0545034
30	0x3dc4f4ce	0.09617005
31	0x3db53c42	0.08849384
32	0xbd515991	-0.051110808
33	0xbdd06d80	-0.101771355
34	0xbd5f2096	-0.054474436
35	0x3be696b1	0.007037007
36	0x3d305644	0.04305102
37	0xbda469d8	-0.080280006
38	0xbd20d170	-0.039262235
39	0x3d33417f	0.043763634
40	0xbd9af2e4	-0.07565859
41	0x3cfad85d	0.030620748
42	0x3d13809f	0.036011335
43	0xbd6a042e	-0.057132892
44	0xbbb7082a	-0.00558569
45	0x3c1e9f50	0.009681538
46	0xbde7bc7a	-0.11315246
47	0x3d9a25dc	0.07526752
48	0xbd09c822	-0.033638127
49	0xbd862326	-0.06549673
50	0xbd68f96e	-0.0568785
51	0xbd680178	-0.056642026
52	0xbdde1769	-0.10844309
53	0x3c31a866	0.010843372
54	0x3ba43205	0.0050108456
55	0x3d8f449a	0.069955066
56	0xb8de340c	-0.000105954794
57	0xbbfa40cb	-0.0076371185
58	0xbbf26695	-0.0073974826
59	0x3dcb8e76	0.09939282
60	0xbdfc8f71	-0.12332047
61	0x3e03c83c	0.12869352
62	0xbd884886	-0.06654458
63	0x3c1a4c6a	0.009417633
64	0xbdf12bd8	-0.11775941
65	0xbca64574	-0.02029679
66	0xbc3c0eb2	-0.011478113
67	0x3bf3167a	0.007418451
68	0x3d751977	0.05983874
69	0xbcbc4c7c	-0.02298569
70	0xbc90b496	-0.017664235
71	0xbb6bfebc	-0.0036009988
72	0x3cb57fec	0.022155724
73	0x3c50a99a	0.012735749
74	0x3d27f95c	0.041009292
75	0xbddfb7e4	-0.10923746
76	0xbdaad629	-0.08341629
77	0xbc0317d6	-0.008001288
78	0x3d002f38	0.03129503
79	0xbd530a97	-0.05152377
80	0x3d7bc679	0.061468575
81	0xbd6c5dea	-0.05770675
82	0x3ba29e93	0.004962751
83	0xbdda5996	-0.106616184
84	0xbd95856e	-0.0730084
85	0xbc1fe387	-0.009758837
86	0xbd16118b	-0.036637824
87	0x3d3315a5	0.043721814
88	0xbcb9d428	-0.022684172
89	0xbd136a83	-0.03599025
90	0x3c3d7a1f	0.0115647605
91	0xbda22431	-0.07917059
92	0x3d969a2c	0.07353625
93	0x3db3bd9d	0.087764
94	0xbdf26835	-0.11836282
95	0x3dda8132	0.10669173
96	0xbd560868	-0.05225411
97	0xbe11e2aa	-0.14246622
98	0x3d442fdd	0.04789721
99	0x3d061693	0.032736372
100	0xbdda4f79	-0.106596895
101	0x3be841a8	0.007087905
102	0xbd7e71de	-0.06212031
103	0xbc085cf4	-0.008322943
104	0xbc2c9cf1	-0.010535465
105	0xbcf09bb7	-0.029371126
106	0x3d824034	0.06359902
107	0xbd27768e	-0.040884547
108	0x3d047883	0.03234149
109	0x3deda4e4	0.11603716
110	0x3d6fafa6	0.05851712
111	0x3bc692bb	0.006059972
112	0x3bc96208	0.0061457194
113	0xbd72c9cc	-0.05927448
114	0x3d96717c	0.07345864
115	0x3c58c6b0	0.013230965
116	0x3cce3fbc	0.025176875
117	0xbdc43317	-0.09580057
118	0xbdaba900	-0.083818436
119	0x3c33c9a0	0.010973364
120	0xbd46d489	-0.048542533
121	0xbd54a01a	-0.051910497
122	0xbdd76fc0	-0.105193615
123	0xbc9b9395	-0.018991271
124	0xb882272b	-6.206179e-05
125	0x3d593e35	0.05303784
126	0x3c96945d	0.018381292
127	0xbd757890	-0.05992943
128	0x3c8ff46f	0.01757261
129	0xbda505b4	-0.080577284
130	0x3c5eb872	0.01359378
131	0xbd83d56e	-0.06437193
132	0xbce77c76	-0.02825759
133	0xbd903b41	-0.07042552
134	0xbce70dc7	-0.028204812
135	0xbd5ed5d8	-0.054403156
136	0xbdbb5932	-0.09147872
137	0x3b93a4a8	0.0045057125
138	0x3df16f08	0.11788756
139	0xbcac0a50	-0.021001011
140	0x3d0907f5	0.033454854
141	0x3d8df646	0.069317386
142	0x3dbf5a99	0.09343452
143	0xbd90ae5b	-0.07064506
144	0x3d118ebe	0.03553652
145	0xbc1db8ba	-0.009626562
146	0xbda5bffc	-0.08093259
147	0xbc9a073d	-0.01880228
148	0x3db4cfa7	0.08828669
149	0x3e07cb9d	0.13261266
150	0x3ca6ef6d	0.020377839
151	0x3ded7b1e	0.11595748
152	0x3c2254f7	0.0099079525
153	0xbda4a6de	-0.0803964
154	0x3da7cf19	0.081937976
155	0xbd609d69	-0.054837618
156	0x3d4adad8	0.049525112
157	0x3d94d659	0.07267446
158	0xbcd9f644	-0.026606686
159	0xbce0fb6d	-0.02746364
160	0x3dbc1f53	0.09185662
161	0xbd1518ab	-0.03640048
162	0x3c065fe3	0.008201572
163	0x3d2b77cc	0.041862294
164	0x3caabd2b	0.020842155
165	0xbdf2f717	-0.11863535
166	0xbda72a89	-0.0816241
167	0xbce975f2	-0.028498624
168	0xbd53abd4	-0.05167754
169	0x3cc50a86	0.02405287
170	0xbd3d1f93	-0.04617269
171	0xbd0eacd4	-0.03483279
172	0xbccce1d6	-0.02501003
173	0xbe13df48	-0.14440644
174	0xbc9fed41	-0.019522311
175	0x3d9892d6	0.07449882
176	0x3c52c3fc	0.012864109
177	0xbda96af0	-0.0827235
178	0xbdf557f8	-0.11979669
179	0xbc2d7659	-0.010587298
180	0xbb7a1e74	-0.0038165124
181	0xbcaae508	-0.020861164
182	0x3d195d6b	0.037442606
183	0xbda3b7dc	-0.07994053
184	0x3da141ec	0.07873902
185	0xbbd73590	-0.0065676644
186	0xbd9e0ff7	-0.07717889
187	0xbdccfdbe	-0.10009335
188	0x3d72a55f	0.05923974
189	0x3cc2d2e4	0.023782201
190	0xbda1a29c	-0.078923434
191	0xbc91325c	-0.017724209
192	0xbe0ac440	-0.13551426
193	0x3c9e8240	0.019349217
194	0xbd6d1ddb	-0.0578898
195	0x3d722522	0.059117444
196	0xbc491cfa	-0.012274975
197	0x3d06f641	0.03294969
198	0xbd3df983	-0.04638053
199	0xbdc74ba5	-0.09731225
200	0x3ca7ef81	0.020499947
201	0xbe0ea680	-0.13930702
202	0xbb6ac230	-0.0035821311
203	0xbda29993	-0.07939448
204	0xbdf324ae	-0.118722305
205	0xbe49418e	-0.19653913
206	0x3cabe644	0.020983823
207	0xbd49d57b	-0.049275856
208	0x3db1b3c0	0.08676863
209	0xbd8b8d94	-0.06814113
210	0xbdb5aad5	-0.08870474
211	0x3ab05ace	0.0013454796
212	0x3dbbdaa7	0.09172564
213	0xbd5bd8fb	-0.053673726
214	0xbd9e9cea	-0.07744773
215	0xbdda48c1	-0.10658408
216	0xbc7cb250	-0.015423372
217	0xbb87d064	-0.004144715
218	0xbda26e1d	-0.07931159
219	0xbd207f33	-0.039183807
220	0x3cc5583c	0.024089925
221	0xbdb3685d	-0.0876014
222	0xbd67f9d6	-0.056634746
223	0xbdaff208	-0.08591086
224	0xbe076657	-0.13222633
225	0xbc8150cf	-0.015785603
226	0xbd8aa5d5	-0.06769911
227	0xbddd6abf	-0.10811376
228	0xbcb07b93	-0.0215433
229	0x3ddc9527	0.10770636
230	0xbd813e40	-0.06310701
231	0xbdc00df9	-0.09377665
232	0xbdbeff72	-0.09326066
233	0x3dfdb152	0.12387337
234	0x3cb24a5b	0.021763971
235	0xbd455173	-0.04817338
236	0xbd7d8cd7	-0.061901893
237	0x3d9abf66	0.075560376
238	0x3cbab89f	0.022793112
239	0xbc7b5005	-0.015338902
240	0x3d6a25f0	0.057165086
241	0x3cf934cf	0.030420689
242	0xbd931759	-0.071821876
243	0xbd8e5b29	-0.06950981
244	0x3d625463	0.05525626
245	0xbd4b86c0	-0.049689054
246	0xbdc016f8	-0.09379381
247	0x3cc8dd90	0.024519712
248	0x3c6aba81	0.014326693
249	0x3d22915a	0.0396894
250	0x3cd2f1bf	0.02575004
251	0xbc323695	-0.010877271
252	0xbe01f7a3	-0.12692122
253	0x3d290d6f	0.041272577
254	0x3c96f8ad	0.018429125
255	0x3cf97195	0.030449668

weight f4 [256, 512]
0	0x3cade9f1	0.021229716
1	0x3c872360	0.01649636
2	0xbde7d203	-0.113193534
3	0xbbb75388	-0.0055946745
4	0xbcf42245	-0.029801497
5	0x3d279815	0.04091652
6	0xbd903bd4	-0.07042661
7	0xbb3adadd	-0.00285118
8	0x3d289c2d	0.041164566
9	0xbdd568ad	-0.10420356
10	0xbc909e34	-0.017653562
11	0xbd57a247	-0.052644994
12	0x3c8384c6	0.016054522
13	0xbdf54d51	-0.119776376
14	0xbd50fd72	-0.051022954
15	0xbc4f66b1	-0.012658761
16	0x3d873dcd	0.066035844
17	0x3d27e95b	0.04099403
18	0x3b54944b	0.0032437022
19	0xbcb35fa5	-0.021896193
20	0xbe1192a5	-0.14216097
21	0x3d085a5e	0.033289306
22	0x3ce66f46	0.028129231
23	0xbe03a4c9	-0.1285583
24	0xbdca5a71	-0.098805316
25	0xbccd32dc	-0.025048666
26	0x3daf45fd	0.08558271
27	0xbcb37944	-0.02190841
28	0x3de4b734	0.11167756
29	0x3c47c76a	0.01219354
30	0xbd8c63cd	-0.06854973
31	0xbcf1b838	-0.029506788
32	0xbe2528c9	-0.1612884
33	0xbdd306cd	-0.103040315
34	0xbc32bc43	-0.010909143
35	0xbd661861	-0.056175593
36	0xbd2b5aa7	-0.0418345
37	0x3d57ee93	0.052717756
38	0xbd4af13c	-0.049546465
39	0x3db6e32e	0.0893005
40	0x3cead8ff	0.028667925
41	0xbd95e958	-0.073198974
42	0xbd9e2321	-0.07721544
43	0xbcfa9083	-0.030586487
44	0x3d16095e	0.036630027
45	0x3e0fbe27	0.14037381
46	0xbca3e073	-0.020004487
47	0x3da2ce96	0.079495594
48	0x3bc8bc43	0.006125958
49	0x3d5ab845	0.05339839
50	0x3a30c478	0.00067431433
51	0xbd829c33	-0.06377449
52	0x3d71edc2	0.059064634
53	0xbd8d02a8	-0.06885272
54	0xbd50be3a	-0.050962664
55	0xbd9b2a1d	-0.07576392
56	0x3d9a5102	0.07534982
57	0x3de30230	0.110844016
58	0xbcf493c0	-0.029855609
59	0xbd1f2a3f	-0.03885865
60	0xbc79f522	-0.015256198
61	0xbd02d999	-0.0319458
62	0xbc494fd8	-0.012287103
63	0xbd6da4a6	-0.05801835
64	0xbe509a5a	-0.2037138
65	0xbda76116	-0.081728145
66	0xbe35423e	-0.1770105
67	0xbdfbf15e	-0.123018965
68	0xbca2a44d	-0.019853735
69	0xbcacfcb4	-0.021116592
70	0x3d0199ca	0.031640805
71	0xbc547951	-0.012968377
72	0x3ce182a2	0.02752811
73	0x3db8b174	0.090182215
74	0xbaae16f1	-0.0013281984
75	0xbcd3382e	-0.025783625
76	0xbe71d92b	-0.23618
77	0x3cbbf593	0.022944247
78	0xba9145d5	-0.0011083434
79	0x3d56881e	0.052375905
80	0x3d0d32f9	0.03447244
81	0x3d5790fb	0.0526285
82	0xbd290817	-0.04126748
83	0x3d9b99ab	0.07597669
84	0x3d5251b8	0.051347464
85	0x3cd52c18	0.026022002
86	0xbd8dc09f	-0.06921505
87	0xbda7eeb9	-0.081998296
88	0xbd9f2568	-0.077708066
89	0x3cd1ce40	0.025611043
90	0xbc6ecb99	-0.014574909
91	0xbd6724ee	-0.056431703
92	0xbb675c95	-0.0035302986
93	0xbea5e107	-0.32398245
94	0x3d86f47a	0.06589599
95	0xbd809893	-0.06279101
96	0x3bf07a6a	0.0073388116
97	0x3c9cd4c1	0.019144418
98	0x3d3a26c0	0.04544711
99	0xbbc593d1	-0.006029584
100	0xbcf91dcf	-0.030409722
101	0x3cc80825	0.024417946
102	0xbb5e11d7	-0.0033885145
103	0xbdaad0c7	-0.08340602
104	0xbd1ca23d	-0.03824066
105	0xbd8fd662	-0.07023312
106	0xbcee505e	-0.029091056
107	0xba7e25ae	-0.0009694946
108	0xbd5b2d6d	-0.05351012
109	0x3b11f171	0.0022269154
110	0x3cf57fa0	0.029968083
111	0xbd252bcf	-0.040324982
112	0x3d3cf3dc	0.046131
113	0xbdb15562	-0.086588636
114	0xbda3862b	-0.07984575
115	0xbd3430ed	-0.04399197
116	0x3d8cd087	0.06875711
117	0xbdb89fec	-0.09014878
118	0x3c12260b	0.008920203
119	0xbe628d9f	-0.22124337
120	0x3e0416f5	0.12899382
121	0xbdc7b9e1	-0.097522505
122	0x3df25d60	0.11834216
123	0xbcc52f12	-0.024070296
124	0x3ce8c9c7	0.028416527
125	0x3ce541c3	0.02798546
126	0x3bb544b2	0.0055318708
127	0x3d8765cc	0.06611213
128	0xbcffa9d1	-0.031208904
129	0xbe112566	-0.14174423
130	0xbbf0a8c4	-0.007344337
131	0x3d16ea55	0.03684457
132	0xbe307754	-0.1723302
133	0x3d1f92ea	0.038958468
134	0x3c07e5ab	0.008294503
135	0xbdb01d64	-0.08599356
136	0xbda6eb7b	-0.08150383
137	0x3d91de51	0.071224816
138	0xbd863f52	-0.06555046
139	0x3be80df9	0.007081744
140	0x3d6e4120	0.058167577
141	0xbd203705	-0.03911497
142	0x3c9c9a42	0.019116525
143	0xbc6c8d40	-0.0144379735
144	0x3dcf4b93	0.101218365
145	0x3d4d7705	0.050162334
146	0x3bce21c0	0.0062906444
147	0x3d8de3b5	0.06928197
148	0xbddc3a17	-0.10753267
149	0xbca17f6a	-0.019714076
150	0xbbb99d61	-0.005664513
151	0xb912752b	-0.00013967293
152	0xbbd37549	-0.0064531905
153	0x3dceca0d	0.10097132
154	0xbdbbd551	-0.09171546
155	0x3c2bd786	0.0104883965
156	0xbcc47c0f	-0.023984937
157	0xbdde07ae	-0.108413085
158	0xbd12ecf5	-0.03587051
159	0xbdc47e76	-0.09594433
160	0xbdd6b0bd	-0.10482929
161	0x3c5effc0	0.01361078
162	0x3db7fb42	0.089834705
163	0xbdff31e8	-0.12460691
164	0x3ab3e832	0.0013725816
165	0xbe40b3a5	-0.18818529
166	0x3d1febb5	0.039043147
167	0xbc76ae3d	-0.01505619
168	0xbdf1bfe4	-0.11804178
169	0x3cfbb7b5	0.030727247
170	0xbe18da33	-0.14926986
171	0xbd898d57	-0.067164116
172	0xbe1b09c0	-0.15140438
173	0xbcb53b1f	-0.022122918
174	0x3cc0b05f	0.0235216
175	0x3d2c7e88	0.042112857
176	0xbe0f49dd	-0.1399302
177	0x3da3bc6f	0.07994925
178	0xbd1e2ff6	-0.038619958
179	0xbdd98d45	-0.10622648
180	0x3dcc1eca	0.0996681
181	0xbd9a1665	-0.07523803
182	0x3cfd0644	0.030886777
183	0xbc9ebf66	-0.019378375
184	0xbcdf6e96	-0.027274411
185	0xbd4ffce4	-0.050778285
186	0xbd8bb2a5	-0.06821183
187	0xbdb8f061	-0.09030224
188	0x3bad3538	0.005285885
189	0x3d6bc7c7	0.05756357
190	0xbdac9e37	-0.084286146
191	0x3d004880	0.03131914
192	0x3d211eec	0.03933613
193	0xbca2dba6	-0.019880127
194	0xbe03ee24	-0.12883812
195	0xbbfecc95	-0.007775853
196	0xbd99b887	-0.07505899
197	0x3d97bb63	0.07408788
198	0x3a32c4c1	0.000681948
199	0x3d406867	0.046974566
200	0x3d780abe	0.06055712
201	0xbd111ca2	-0.035427697
202	0x3cafd9ee	0.021466222
203	0x3c2d949b	0.010594512
204	0xbcfda764	-0.030963607
205	0x3d88db48	0.066824496
206	0xbd4766f1	-0.048682157
207	0xbd78a3cd	-0.060703088
208	0xbd3638df	-0.04448783
209	0x3d226dae	0.03965538
210	0x3d25837b	0.040408593
211	0x3d9e6df6	0.07735817
212	0xbe51cb70	-0.20487761
213	0xbd7e6fc1	-0.062118296
214	0xbd8aa181	-0.06769086
215	0xbd19942c	-0.037494823
216	0x3c834439	0.016023742
217	0xbc1ab920	-0.009443551
218	0x3d47fec9	0.048826966
219	0x3da5e570	0.08100402
220	0xbdb44f30	-0.08804166
221	0xbba73642	-0.0051029036
222	0x3d6137ce	0.05498486
223	0xbdd0ecd4	-0.102014214
224	0xbe11dda2	-0.14244702
225	0x3d206fdb	0.039169174
226	0x3dab803a	0.08374067
227	0xbd375f8a	-0.044768848
228	0x3e02de4e	0.12780115
229	0x3bdc6167	0.0067254785
230	0x3e302d43	0.17204766
231	0x3b6f2f19	0.0036496578
232	0x3db5f2bd	0.08884189
233	0xbdaae89d	-0.08345149
234	0x3cb3acf7	0.021933062
235	0xbce67ae1	-0.028134765
236	0xbe28ec2b	-0.16496341
237	0x3c9c2ef6	0.019065361
238	0xbd2ab3e3	-0.04167546
239	0xbd99087a	-0.0747232
240	0xbdf7bc53	-0.12096467
241	0xbbc032aa	-0.0058654146
242	0x3d895df7	0.067073755
243	0x3d0ddbad	0.034633327
244	0x3bd063e7	0.0063595655
245	0x3d9f7daf	0.07787644
246	0x3c54505b	0.012958611
247	0x3cbde23d	0.023179168
248	0x3d400d94	0.04688795
249	0x3d407bf3	0.046993207
250	0x3d42647e	0.047459118
251	0x3d21de5c	0.0395187
252	0x3dba6a36	0.091022894
253	0xbceca056	-0.028885048
254	0x3d0bdc01	0.03414536
255	0x3d8cb22c	0.06869921

bias f4 [256]
0	0x3c8bfe74	0.017089106
1	0x3d853eb4	0.065061
2	0xbd191b86	-0.037379764
3	0x3bcdbf56	0.0062789125
4	0xbd744557	-0.05963644
5	0x3d99dae5	0.07512454
6	0x3c848e9c	0.016181283
7	0x3b3ba666	0.0028633117
8	0x3da1c2c9	0.078984804
9	0xbd866c6c	-0.065636486
10	0x3c8539cd	0.016262913
11	0x3d4a2463	0.049351107
12	0x3bf4108c	0.0074482616
13	0x3da1390e	0.078722104
14	0x3ccfbf7c	0.025359862
15	0xbdbb0c5d	-0.091332175
16	0x3c2033d1	0.009777979
17	0xbc2dac52	-0.010600166
18	0xbd01caa8	-0.03168741
19	0x3ddc2632	0.10749473
20	0xbc021a28	-0.007940806
21	0x3d895fb4	0.06707707
22	0x3d109af7	0.035304036
23	0x3dc88610	0.097911954
24	0xbcf71190	-0.030159742
25	0xbd97bc6c	-0.074089855
26	0xbcecb125	-0.028893063
27	0xbce22794	-0.027606763
28	0x3d1da472	0.038486905
29	0xbd26dbce	-0.040736966
30	0x3d15b696	0.03655108
31	0xbd5e0b4b	-0.05420999
32	0x3cac0914	0.021000423
33	0xbcb6caf1	-0.022313567
34	0xbce32ed7	-0.027732296
35	0x3d675bcf	0.05648404
36	0x3d1ba1ba	0.03799603
37	0xbd31ee9c	-0.043440446
38	0x3ce45271	0.027871342
39	0x3d97d4d1	0.074136384
40	0x3daaa1db	0.08331653
41	0x3d89579b	0.067061625
42	0x3dc2a7f9	0.095046945
43	0x3d07b1d6	0.033128582
44	0x3c8b58a7	0.017010046
45	0x3e1f3dff	0.15550993
46	0xbd825108	-0.06363112
47	0x3bff67f8	0.0077943765
48	0x3cac2314	0.02101282
49	0x3d113d0a	0.035458602
50	0xbe096efa	-0.1342124
51	0x3c93c0c1	0.018036248
52	0xbdc365f2	-0.09540929
53	0x3d30eb62	0.04319323
54	0xbcb7baac	-0.02242788
55	0xbd8e95bc	-0.06962153
56	0xbcf0e37a	-0.029405344
57	0xbc46ff4a	-0.012145827
58	0x3d8e9ce1	0.06963516
59	0x3cfcad51	0.030844362
60	0x3e20b6bf	0.15694712
61	0x3ca8ade8	0.020590737
62	0xb9c95927	-0.0003840413
63	0x3cedb5d5	0.029017368
64	0xbd230989	-0.039804015
65	0xbd3538f5	-0.04424377
66	0x3cd2c6ef	0.025729625
67	0x3d84ad26	0.06478338
68	0xbdea7cb2	-0.11449565
69	0xbb2fe9e5	-0.0026842293
70	0x3c89eb9f	0.016835986
71	0xbd53ece0	-0.051739573
72	0xbc92119e	-0.017830666
73	0xbd847a9d	-0.06468699
74	0xbc727377	-0.014798037
75	0x3d47c03e	0.04876732
76	0x3c8458ca	0.01615562
77	0x3d9d37b0	0.07676637
78	0xbe20ae5c	-0.15691513
79	0xbd7ac1c2	-0.061219938
80	0xbbebccc4	-0.007196041
81	0xbd576161	-0.052583102
82	0x3cc87c30	0.02447328
83	0xbd2910fb	-0.04127596
84	0xbcf3921a	-0.029732753
85	0x3d42899b	0.047494512
86	0x3dd023f3	0.10163107
87	0xbd182ce3	-0.037152182
88	0x3d0226fa	0.031775452
89	0x3dacde7c	0.08440873
90	0x3b048d9d	0.002022601
91	0xbc2d97a5	-0.010595237
92	0xbd1412bb	-0.036150675
93	0x3d854bdc	0.0650861
94	0xba008403	-0.0004902484
95	0xbd1ccfac	-0.03828399
96	0x3cd8e490	0.026476175
97	0x3c3783e3	0.011200878
98	0x3def6ac5	0.116902865
99	0x3dddba1c	0.10826513
100	0xbd46c527	-0.048527863
101	0x3cc5dbb7	0.02415262
102	0x3e06558d	0.13118573
103	0x3df7c3f6	0.120979235
104	0x3dc71bbc	0.09722087
105	0x3c23772b	0.009977142
106	0xbc3f5602	-0.011678221
107	0xbd4383a1	-0.047732953
108	0x3dfdd6aa	0.123944595
109	0x3d9b3343	0.07578137
110	0xbaa9db5c	-0.0012959051
111	0x3c4fdbda	0.012686694
112	0xbc1bec55	-0.009516795
113	0x3c8f5176	0.017494898
114	0xbd637d99	-0.0555397
115	0xbd8b04ba	-0.06788011
116	0xbe0a15ee	-0.13484928
117	0xbd042686	-0.0322633
118	0x3cfe53e9	0.03104587
119	0xbc538e3c	-0.012912329
120	0x3e0c4737	0.13699041
121	0x3c8e6301	0.017381193
122	0xbdd4b010	-0.10385144
123	0xbd9f057e	-0.077647194
124	0x3bf1b76b	0.0073766015
125	0x3cf66683	0.030078178
126	0xbce56e29	-0.02800663
127	0xbd22f07e	-0.039780132
128	0x3d417bce	0.04723721
129	0xbdcd616e	-0.10028349
130	0x3b9392f0	0.0045036003
131	0x3d4e6b14	0.050395086
132	0xbcae0860	-0.021244228
133	0x3d935e05	0.07195667
134	0xbcfb2fa6	-0.030662369
135	0xbce62e60	-0.028098285
136	0xbd0c56f4	-0.034262612
137	0xbdedc900	-0.11610603
138	0xbca537f9	-0.020168291
139	0xbcb549a3	-0.02212984
140	0xbd6716f3	-0.05641837
141	0xbc7df095	-0.015499254
142	0xbc881bf6	-0.016614895
143	0x3d6cfdc9	0.057859216
144	0x3d0b82bf	0.034060236
145	0xbe1a207b	-0.15051453
146	0xbc579031	-0.0131569365
147	0x3ba56168	0.005047012
148	0xbdd837ef	-0.105575435
149	0x3c3d117d	0.011539814
150	0x3d86193b	0.06547781
151	0xbd0a5033	-0.03376789
152	0xbbde5311	-0.0067848046
153	0x3d9c9501	0.07645608
154	0x3c83cabf	0.016087888
155	0xbd26ed4d	-0.04075365
156	0x3d2b0f70	0.04176277
157	0xbd48267f	-0.048864838
158	0xbc33bdff	-0.010970592
159	0x3bffa250	0.0078013316
160	0x3ba8f958	0.005156677
161	0x3db6016d	0.08886991
162	0xbcccc3af	-0.024995653
163	0xbcc6eb7e	-0.024282213
164	0x3dc4f7a8	0.09617549
165	0x3d11a062	0.035553344
166	0xbd4a8a9f	-0.049448606
167	0x3d4af901	0.049553875
168	0x3c09eac1	0.008417786
169	0xbd9cc077	-0.07653897
170	0xbda11dd8	-0.0786702
171	0xbd90fb27	-0.070791535
172	0x3d6b9295	0.05751284
173	0xbd5e0bc5	-0.054210443
174	0xbde8b332	-0.11362304
175	0xbc9cd387	-0.019143833
176	0x3b29e6cc	0.002592492
177	0x3d6d94ba	0.058003165
178	0xbd8548bf	-0.06508016
179	0xbce3c6f4	-0.02780483
180	0xbd09d3c2	-0.033649214
181	0xbbdef58a	-0.006804173
182	0x3d3ee1f7	0.046602216
183	0x3cd27a24	0.025693007
184	0x3d5f5f77	0.0545344
185	0x3c9363b6	0.017991882
186	0x3a522e49	0.0008017761
187	0x3be5ebb9	0.0070166257
188	0xbd151a30	-0.036401927
189	0x3da89f0a	0.08233459
190	0xbd3e2b21	-0.04642785
191	0xbd5fbae5	-0.054621596
192	0xbdf4cca9	-0.11953098
193	0xbb9a60a6	-0.0047112284
194	0xbd9b2d61	-0.07577015
195	0x3dc7a9e0	0.09749198
196	0x3e04d4a9	0.12971748
197	0x3c5e243d	0.013558445
198	0xbaeb56ec	-0.0017954982
199	0xbd0441f0	-0.032289445
200	0xbb5a6a93	-0.0033327683
201	0xbc244e8d	-0.010028494
202	0x3d99c7ba	0.07508798
203	0xbc368d0c	-0.011142027
204	0x3d0fc45c	0.035099372
205	0x3d7f094a	0.062264718
206	0x3d0f194b	0.03493623
207	0x3e00af78	0.12566936
208	0x3ce6569f	0.028117476
209	0xbd436e65	-0.047712702
210	0xbe4d700c	-0.20062274
211	0x3d81aae2	0.063314214
212	0x3d8f7636	0.07004969
213	0xbc1f6e56	-0.009730896
214	0xbd1c75d3	-0.038198303
215	0x3d1813d2	0.037128277
216	0x3a8dac64	0.0010808823
217	0x3d58585e	0.05281865
218	0x3c1e2aec	0.009653788
219	0xbe0614de	-0.13093898
220	0xbcec6592	-0.028857026
221	0x3d82fa3d	0.063953854
222	0x3d89efce	0.06735192
223	0xbd01dcdc	-0.03170477
224	0xbe171810	-0.14755273
225	0x3d7f9609	0.062398944
226	0x3d960133	0.073244475
227	0xbd4f5a49	-0.050623212
228	0x3dae7860	0.085190535
229	0x3dcade0b	0.099056326
230	0xbd2ceed1	-0.04221994
231	0xbda98fa1	-0.08279348
232	0x3dcacf7c	0.09902856
233	0xbd867d7e	-0.065669045
234	0x3d2ae779	0.041724656
235	0x3c92cbb5	0.0179194
236	0x3dd36d1e	0.10323547
237	0xbd531520	-0.05153382
238	0x3d4de89f	0.050270673
239	0xbd1df862	-0.038566954
240	0x3d8979f1	0.067127116
241	0xbb11d1ea	-0.0022250363
242	0x3d544efd	0.05183314
243	0x3db97a97	0.09056585
244	0xbde858da	-0.11345072
245	0xbc86a192	-0.016434465
246	0x3dc3445e	0.095345244
247	0x3dbf4517	0.0933935
248	0xbd6808fc	-0.056649193
249	0xbc055d42	-0.00813991
250	0xbd14b221	-0.03630269
251	0xbd31a034	-0.043365672
252	0xbc70fc1d	-0.014708546
253	0x3be6d7e8	0.007044781
254	0xbdd30e4d	-0.10305462
255	0xbd883312	-0.06650366

weight f4 [128, 256]
0	0x3dff0d6c	0.12453732
1	0xbd5afaf5	-0.053461988
2	0x3cb00f05	0.021491537
3	0x3d6e12cb	0.05812339
4	0xbd4bbf2f	-0.049742874
5	0xbd70f920	-0.058831334
6	0x3d833993	0.06407466
7	0xbdf4115b	-0.11917373
8	0x3e9bc80f	0.3042607
9	0xbda0ba59	-0.07848043
10	0x3d284a0e	0.04108625
11	0x3daaff82	0.083495155
12	0x3bbfff36	0.005859281
13	0xbd800d7b	-0.06252571
14	0x3e1df750	0.15426373
15	0x3dca1bd3	0.09868588
16	0x3e6a6190	0.2288878
17	0x3d8ba9be	0.06819485
18	0xbd1e52e3	-0.038653266
19	0xbc84361e	-0.016139086
20	0x3d64a643	0.055822622
21	0x3e2d7861	0.16940452
22	0xbc0ed5fb	-0.008718009
23	0xbcb079d9	-0.021542476
24	0xbd4e863f	-0.050420996
25	0x3de2ffd2	0.1108395
26	0xbd3fc5c2	-0.046819456
27	0xbe380ee2	-0.17974427
28	0xbd0ce96e	-0.034402303
29	0xbdec8d5a	-0.11550398
30	0xbeab869b	-0.33501133
31	0x3d03c0c9	0.032166276
32	0xbea3da8d	-0.3200268
33	0xbbea763a	-0.007155207
34	0x3cb4c21b	0.022065213
35	0x3d139630	0.0360319
36	0x3e094335	0.13404544
37	0xbe209453	-0.15681581
38	0xbe3809bb	-0.17972462
39	0xbe248b32	-0.16068724
40	0x3aa2070e	0.0012361722
41	0x3e948a6b	0.29011855
42	0xbc6228c4	-0.013803665
43	0x3d9dd17b	0.07705971
44	0xbdd6957a	-0.10477729
45	0xbd06268f	-0.032751616
46	0xbe9a762f	-0.30168292
47	0x3d805f26	0.06268148
48	0x3dbc3420	0.091896296
49	0xbddf458f	-0.10901939
50	0xbeacc465	-0.33743587
51	0x3dff757f	0.124735825
52	0xbcab4ede	-0.02091163
53	0xbe949856	-0.29022473
54	0xbd0f35b1	-0.034963313
55	0x3d30ba88	0.04314664
56	0x3cecd663	0.028910821
57	0xbe0c1ccd	-0.13682862
58	0xbda6559d	-0.08121798
59	0x3c2a8659	0.010408008
60	0xbd166d6f	-0.036725458
61	0x3def2bd3	0.11678281
62	0x3df30bf3	0.118675135
63	0x3d9d9082	0.07693578
64	0x3d605f6f	0.054778513
65	0xbdc216e4	-0.09477022
66	0x3e5c383c	0.21505827
67	0x3e9de865	0.30841365
68	0xbd7b24e8	-0.061314493
69	0xbda7ee4e	-0.0819975
70	0xbd0f6982	-0.03501273
71	0x3d8fca98	0.070210636
72	0xbcc1f30a	-0.02367546
73	0x3de8eacf	0.11372911
74	0xbc668126	-0.014068877
75	0x3ceac36b	0.028657636
76	0x3e4b4e20	0.19854021
77	0xbda3419e	-0.079715
78	0x3e2e6c4e	0.17033502
79	0xbc8d5b89	-0.017255561
80	0x3a88be8e	0.0010432766
81	0xbd2c8114	-0.042115286
82	0x3e5f2d76	0.21794686
83	0xbdbed212	-0.093174115
84	0xbe044168	-0.12915576
85	0xbd6761ff	-0.05648994
86	0xbcc4745f	-0.023981271
87	0xbd97eb88	-0.07417971
88	0x3cab492a	0.02090891
89	0x3df45d55	0.11931864
90	0xbd8eb317	-0.069677524
91	0xbd0af795	-0.03392752
92	0x3e2c6eea	0.16839185
93	0x3e4c86d2	0.19973305
94	0x3d4e648f	0.05038887
95	0xbdf2b564	-0.11851004
96	0x3e479ae5	0.19492681
97	0x3c82bfcc	0.015960597
98	0x3daa0ce5	0.08303241
99	0x3c2c2417	0.010506651
100	0xbd3c0df3	-0.04591174
101	0xbd0ca050	-0.034332573
102	0xbe0cc8e0	-0.13748503
103	0x3d62d8b7	0.055382457
104	0xbd70bbfc	-0.058773026
105	0x3cacf73e	0.021113988
106	0xbe209ca4	-0.15684754
107	0xbd23cebe	-0.039992087
108	0xbbc2a0ac	-0.0059395637
109	0x3e119475	0.14216788
110	0x3d7d701b	0.06187449
111	0x3d8a1c71	0.06743706
112	0xbd5f5356	-0.054522835
113	0x3da7f3a1	0.082007654
114	0x3d3eb089	0.046555076
115	0xbd210e6b	-0.03932039
116	0x3dae3ce9	0.085077114
117	0xbd9d8540	-0.07691431
118	0xbd4ef4a9	-0.050526295
119	0x3de067a2	0.109572664
120	0xbcb4237c	-0.021989577
121	0xbb953d5f	-0.004554435
122	0xbd8e534f	-0.069494836
123	0x3d5eecd6	0.054425083
124	0xbda4992f	-0.0803703
125	0xbd3b65f7	-0.045751538
126	0x3d91d061	0.07119823
127	0x3d5c4c6e	0.053783827
128	0x3da45ce2	0.080255285
129	0xbda63aea	-0.08116706
130	0x3e4624f1	0.1935003
131	0x3ce987b8	0.028507099
132	0xbcd5888b	-0.026066085
133	0x3c254ca9	0.010089078
134	0x3d3fc7b0	0.046821296
135	0xbe649885	-0.22323807
136	0xbc3adf6c	-0.011405807
137	0x3c10566e	0.008809669
138	0x3dca05bd	0.09864376
139	0x3d7c4acd	0.061594773
140	0xbcb801f4	-0.022461869
141	0x3ca26a5d	0.019826109
142	0x3cd7e729	0.026355343
143	0xbdbccf5d	-0.09219239
144	0x3e6a7a92	0.2289832
145	0xbe407262	-0.18793634
146	0xbcff6672	-0.03117678
147	0x3db80b66	0.08986549
148	0x3e3af068	0.1825577
149	0xbdcd5f82	-0.10027982
150	0x3defa203	0.11700823
151	0x3cf9487a	0.030430067
152	0xbd25ebd5	-0.04050811
153	0xbdcf0dbd	-0.10110042
154	0xbe55f276	-0.20893273
155	0x3d47268b	0.04862074
156	0xbd246aaf	-0.040140804
157	0x3b0cd7f3	0.002149102
158	0xbd7d9b7d	-0.061915863
159	0xbe052ed1	-0.1300614
160	0x3e24f794	0.16110069
161	0x3d1a476a	0.037665762
162	0x3e61e484	0.22059828
163	0xbaeb286b	-0.0017941123
164	0xbaa39df8	-0.0012482991
165	0x3e45d8e9	0.19321026
166	0x3c9d5900	0.019207478
167	0xbd2a537a	-0.041583516
168	0x3e4c815c	0.19971222
169	0x3c2584f1	0.0101024965
170	0xbf04547e	-0.51691425
171	0xbc699623	-0.014256987
172	0x3d227593	0.03966291
173	0xbc6a0706	-0.014283901
174	0x3cd637b1	0.026149603
175	0xbec89f79	-0.39184168
176	0x3d002dfc	0.031293854
177	0x3dada52f	0.08478772
178	0x3e8a81c8	0.2705214
179	0xbd0cf7b5	-0.03441592
180	0x3b8bcc10	0.0042662695
181	0xbddecf05	-0.108793296
182	0x3ecb519e	0.39710706
183	0x3d42da38	0.04757139
184	0x3b6f5e49	0.0036524704
185	0xbd9cec49	-0.07662255
186	0x3c8db03c	0.01729595
187	0x3d5aa491	0.0533796
188	0x3d3383fa	0.043827035
189	0xbdbaffb6	-0.09130804
190	0xbd593b38	-0.05303499
191	0x3dc5edd6	0.09664504
192	0x3d25c224	0.04046835
193	0xbca6a89d	-0.020344073
194	0x3e231f14	0.15929824
195	0xbd150a5c	-0.036386833
196	0x3ce56f1f	0.028007088
197	0x3d02e1a0	0.031953454
198	0x3e3ae13b	0.18249981
199	0xbc8a1126	-0.01685388
200	0xbdebfa15	-0.11522309
201	0xbd12d6a0	-0.035849214
202	0x3d245f62	0.040130027
203	0xbd3c2fe7	-0.04594412
204	0x3dcef481	0.10105229
205	0x3d6d63e2	0.057956584
206	0xbc4d24c4	-0.012520973
207	0xbd834009	-0.06408698
208	0x3e2187a1	0.15774395
209	0xbd6c2479	-0.05765197
210	0xbdc1707b	-0.09445282
211	0xbd82e7fd	-0.063919045
212	0x3cd1f234	0.025628187
213	0x3eba9d53	0.36448154
214	0x3d2777d9	0.04088578
215	0xbe55b911	-0.20871378
216	0xbe0d50f0	-0.13800406
217	0xbe14c9e2	-0.14530137
218	0xbced8a2e	-0.028996553
219	0x3bd0086b	0.0063486598
220	0x3cc9e3b4	0.02464471
221	0x3da5eff7	0.0810241
222	0xbe2f2675	-0.17104514
223	0x3e2485dd	0.1606669
224	0xbd94854d	-0.072519876
225	0xbd9768ca	-0.07393034
226	0xbe011007	-0.1260377
227	0x3d51a57c	0.05118321
228	0x3ba68196	0.005081366
229	0x3e262933	0.16226654
230	0xbc892ff0	-0.016746491
231	0x3bde52bd	0.0067847655
232	0xbd81be5a	-0.06335135
233	0x3a522a58	0.0008017174
234	0x3e0483f9	0.12940969
235	0xbd46d9cc	-0.04854755
236	0xba0e602a	-0.00054311997
237	0x3d889ed5	0.0667092
238	0x3d41dec5	0.04733159
239	0x3ca68eaf	0.020331709
240	0x3c2d9448	0.010594435
241	0x3b58514f	0.0033007448
242	0x3da2377b	0.07920738
243	0xbc6b33b9	-0.014355593
244	0xbe004440	-0.12526035
245	0x3c3a2b88	0.011362918
246	0x3d3018d2	0.04299242
247	0x3d8740ff	0.06604194
248	0xbc0757cf	-0.008260681
249	0x3b811607	0.0039393934
250	0xbc6673c8	-0.01406569
251	0x3cd90939	0.026493656
252	0x3dda4f3f	0.10659646
253	0x3d10c7d0	0.035346806
254	0xbe95c4cb	-0.29251704
255	0xbe3b360a	-0.18282333

bias f4 [128]
0	0x3cd3e3be	0.025865432
1	0x39550658	0.00020315626
2	0xbdb95abd	-0.0905051
3	0xbdfda806	-0.123855636
4	0xbd0a5c5e	-0.033779494
5	0x3df36a93	0.11885562
6	0x3cf44251	0.029816778
7	0xbd9850fc	-0.074373215
8	0xbd07e541	-0.033177618
9	0xbdb6e1fe	-0.08929823
10	0x3e2680d3	0.1626008
11	0x3e1661e8	0.14685786
12	0xbd163e0a	-0.03668026
13	0x3d4deade	0.050272815
14	0xbc56c53d	-0.013108549
15	0x3e28ed87	0.1649686
16	0x3e2069fd	0.15665431
17	0xbd7f9d9f	-0.06240618
18	0x3e113e36	0.14183888
19	0xbd653b3f	-0.055964705
20	0x3e0ba7dc	0.13638252
21	0xbdee475c	-0.116347045
22	0x3d4e3b70	0.050349653
23	0xbddbd83c	-0.10734603
24	0x3e287d51	0.16454054
25	0xbc642d0a	-0.013926754
26	0x3e0b4dd4	0.13603908
27	0xbbcf2562	-0.006321595
28	0xbcef2d11	-0.029196294
29	0xbd1fc69e	-0.039007775
30	0xbd8b4910	-0.06801045
31	0x3d88379d	0.066512324
32	0x3d288aec	0.04114811
33	0x3cd1bafe	0.02560186
34	0xbcae4e3b	-0.021277538
35	0xbd4cb370	-0.049975812
36	0xbd98db2e	-0.0746368
37	0x3cb004a5	0.02148659
38	0x3e99976b	0.29998335
39	0x3daf72e2	0.08566834
40	0x3e1b5f0c	0.15172976
41	0x3d8c7d73	0.06859865
42	0xbc9a2d99	-0.01882057
43	0x3dbaf776	0.09129231
44	0x3d078b33	0.033091735
45	0x3dcc2a1d	0.0996897
46	0xbe2e9d37	-0.1705216
47	0x3e2893b3	0.16462593
48	0x3e216376	0.15760598
49	0xbd236485	-0.039890785
50	0xbd7382aa	-0.059450783
51	0x3d094d1d	0.033520807
52	0x3dec5e4a	0.11541422
53	0xbce19809	-0.027538316
54	0x3dd69d74	0.104792506
55	0x3de7edc9	0.11324651
56	0xbdb704c1	-0.089364536
57	0x3e466016	0.19372591
58	0x3e264647	0.16237746
59	0xbd0b4232	-0.033998676
60	0xbd140a57	-0.036142673
61	0xbe35c479	-0.1775073
62	0x3c919075	0.017769078
63	0x3dd8a92b	0.10579141
64	0x3dbcfc0d	0.09227762
65	0x3cc23ef4	0.023711659
66	0xbd94448e	-0.07239638
67	0xbc80c0a5	-0.01571686
68	0x3d9449a4	0.07240608
69	0xbe03f693	-0.1288703
70	0xbe0f66d8	-0.14004076
71	0xbdc31dab	-0.09527143
72	0xbc1c72a2	-0.009548815
73	0xbbf93a55	-0.0076058307
74	0x3e56863a	0.20949641
75	0xbcbe5078	-0.02323173
76	0x3e19ecf4	0.15031797
77	0xbcfc02e0	-0.03076309
78	0xbc2043f0	-0.009781823
79	0xbbc73ed6	-0.0060804887
80	0xbc1b1a77	-0.009466759
81	0xbc2eed5c	-0.010676708
82	0xbce400f3	-0.027832484
83	0x3c46696d	0.012110096
84	0x3c2cd690	0.010549203
85	0xbe03c6eb	-0.1286885
86	0xbd9ddfae	-0.07708679
87	0xbe1cef8a	-0.15325752
88	0xbd5bd171	-0.053666536
89	0x3dda6696	0.10664098
90	0x3c7d5a98	0.015463494
91	0xbcec801d	-0.028869683
92	0x3db6152c	0.08890757
93	0x3d4dcddf	0.050245162
94	0xbca03811	-0.019557985
95	0x3de24a53	0.110493325
96	0x3d1b816c	0.037965223
97	0xbbdabec1	-0.0066755717
98	0xbc0a928b	-0.00845779
99	0x3de23fbd	0.11047313
100	0xbd270bf1	-0.040782873
101	0x3db71cef	0.089410655
102	0xbd45cab4	-0.048289016
103	0xbb73de04	-0.003721119
104	0x3d906b9a	0.07051773
105	0xbd917e83	-0.07104208
106	0x3c614236	0.013748696
107	0x3cd254dd	0.025675232
108	0xbd1b5ec5	-0.037932176
109	0x3e2ccbf1	0.16874672
110	0x3e48a6a0	0.19594812
111	0x3df17dd1	0.11791576
112	0x3da55a38	0.080738485
113	0x3dcfc808	0.10145575
114	0xbd04de2f	-0.032438453
115	0x3c1de199	0.009636306
116	0xbc734517	-0.014848015
117	0x3cc2d8ac	0.023784958
118	0x3d6ae475	0.05734678
119	0xbd42f7a8	-0.047599465
120	0x3d8fd831	0.07023657
121	0xbcbb26ca	-0.022845645
122	0x3de1709a	0.11007805
123	0x3ddf043f	0.10889482
124	0x3e13944e	0.14412042
125	0xbd9fcca0	-0.07802701
126	0xbcc5e226	-0.024155688
127	0x3ba1e6f3	0.0049408614

weight f4 [60, 128]
0	0xbad860da	-0.0016508356
1	0xbbd7e51d	-0.0065885917
2	0x3d93ed0d	0.07222948
3	0xbd7b0f79	-0.061294053
4	0xbd1ef83d	-0.038810957
5	0x3de3d546	0.11124663
6	0x3bcdc169	0.00627916
7	0x3c785c82	0.015158774
8	0xbbfcc075	-0.0077133724
9	0x3d118dac	0.0355355
10	0x3dcc7876	0.099839136
11	0x3dbe8b6c	0.09303936
12	0xbdaff27c	-0.08591172
13	0x3cd42c77	0.025900109
14	0xbce8b146	-0.028404843
15	0x3cabfbb6	0.020994049
16	0x3d862c15	0.06551377
17	0xbc67eb88	-0.014155276
18	0xbcfeaff7	-0.031089766
19	0x3c3e2402	0.011605265
20	0x3d08a640	0.033361673
21	0x3a997520	0.001170788
22	0xbd423053	-0.047409367
23	0xbc34e639	-0.0110412175
24	0xbb96e419	-0.004604828
25	0xbc9a9019	-0.01886754
26	0xbce8d0eb	-0.028419932
27	0x3d87e950	0.06636298
28	0x3cdbc307	0.026826395
29	0xbc556618	-0.013024829
30	0xbd0dffac	-0.034667656
31	0x3d261b72	0.040553518
32	0xbc1fcc02	-0.009753229
33	0xbc5c7cfd	-0.013457534
34	0x3d210608	0.039312392
35	0xbd93555a	-0.07194014
36	0xbc388188	-0.011261351
37	0x3dfa70ba	0.12228532
38	0x3de41b9a	0.11138077
39	0x3b98c4cf	0.0046621333
40	0x3cbdf979	0.023190247
41	0xbd32062d	-0.04346292
42	0xbd4944f9	-0.049138043
43	0xbc4f56d0	-0.012654975
44	0x3c91da49	0.017804282
45	0x3c96b200	0.018395424
46	0xbd0f658f	-0.035008963
47	0xbcf161fb	-0.029465666
48	0xbc34051e	-0.010987548
49	0x3c0425a8	0.008065619
50	0xbc8cd865	-0.017193029
51	0xbd0292fe	-0.031878464
52	0x3cfec066	0.031097602
53	0xbd875f39	-0.06609959
54	0xbc9e3ee3	-0.019317096
55	0xbce37373	-0.027765011
56	0x3c81355d	0.015772516
57	0xba22e1a6	-0.0006213434
58	0x3d91e182	0.0712309
59	0xbcf0003e	-0.02929699
60	0x3d003f47	0.031310346
61	0xbca7f08d	-0.020500446
62	0xbcccb9bf	-0.024990914
63	0x3b2daee3	0.0026501946
64	0xbcc15ea0	-0.023604691
65	0xbc834e6a	-0.016028602
66	0xbc571254	-0.013126928
67	0xbd28a9b1	-0.041177455
68	0xbd20b960	-0.039239287
69	0x3ba8d785	0.005152645
70	0xbc975e5c	-0.018477611
71	0x3d94d484	0.07267097
72	0x3da5d379	0.08096976
73	0x3d5255b2	0.051351257
74	0x3d8da374	0.06915942
75	0x3d507031	0.050888244
76	0x3db78353	0.08960595
77	0xbbf89127	-0.007585663
78	0x3d6e01ff	0.058107372
79	0xbcf8b5ee	-0.030360188
80	0xbd8941f8	-0.06702036
81	0x3ca7302f	0.020408718
82	0xbd9a5050	-0.0753485
83	0xbdbaff58	-0.09130734
84	0x3d7a9dbe	0.06118559
85	0xbd1958c9	-0.037438188
86	0xbdafa248	-0.085758746
87	0xbcbaebb1	-0.022817465
88	0xbd7ca53e	-0.061681025
89	0x3d676f3c	0.056502566
90	0x3d076ecd	0.033064652
91	0x3dbf4c64	0.09340742
92	0x3d20a4ce	0.03921967
93	0xbd3bdcfb	-0.04586504
94	0xbc762cd2	-0.015025334
95	0x3c16c711	0.009202735
96	0x3b8c3e07	0.004279855
97	0xbbecdf04	-0.007228734
98	0x3d89097b	0.066912614
99	0x3da86b87	0.08223634
100	0x3c3a40f0	0.011368021
101	0xbdace375	-0.084418215
102	0xbcaa5f2b	-0.020797333
103	0x3bec68d5	0.0072146454
104	0x3d6aa180	0.057282925
105	0xbc587c87	-0.013213283
106	0x3c498f1d	0.012302187
107	0xb9b96259	-0.00035359224
108	0xbd50577e	-0.05086469
109	0xbd21a3c0	-0.039462805
110	0x3d74864a	0.05969838
111	0x3d5535fc	0.052053437
112	0xbd9a9847	-0.07548576
113	0xbcd31d19	-0.02577071
114	0x3da72212	0.08160795
115	0x3c216f2b	0.009853165
116	0x3bf185c5	0.007370683
117	0xbd2e4528	-0.04254642
118	0xbb66a79a	-0.0035195113
119	0xbc867eb3	-0.016417837
120	0xbd0753f2	-0.03303904
121	0x3c880655	0.016604582
122	0x3b1167a4	0.0022187019
123	0x3d724a15	0.05915268
124	0x3d90259e	0.07038425
125	0x3bc4d90e	0.0060073202
126	0xbcd68e71	-0.026190968
127	0x3d81b2d3	0.06332936
128	0xbc9764e4	-0.018480726
129	0x3dd288d3	0.102800034
130	0x3be7bcc3	0.0070720627
131	0xbedf65bf	-0.43632314
132	0x3c8e9ea9	0.01740964
133	0xbde86653	-0.11347642
134	0xbdbb82a9	-0.09155781
135	0xbd21422f	-0.03936976
136	0xbd389532	-0.04506416
137	0x3c30c125	0.010788237
138	0x3d869433	0.065712355
139	0xbd5aa346	-0.053378366
140	0xbd6a4799	-0.057197187
141	0x3c9d1540	0.019175172
142	0x3ca1c2b0	0.019746155
143	0xbcaf841b	-0.021425297
144	0xbdcaba98	-0.09898871
145	0xbd7edca5	-0.06222214
146	0x3d90a942	0.07063533
147	0xbdc6a035	-0.09698526
148	0xbe08b98d	-0.13352032
149	0x3d0fb7e7	0.035087492
150	0xbe20febf	-0.15722178
151	0x3e36050e	0.17775366
152	0xbd5b4edd	-0.053542007
153	0xbd0a8811	-0.03382117
154	0x3db34fb0	0.087554336
155	0xbc808a2b	-0.015690884
156	0x3dbc7021	0.092010744
157	0x3e083f43	0.13305382
158	0xbcfecb66	-0.031102847
159	0x3d56367e	0.05229806
160	0xbd809ae7	-0.06279545
161	0x3c29308f	0.010326519
162	0xbd06a79d	-0.032874692
163	0x3d33846b	0.043827455
164	0xbd0be331	-0.034152213
165	0xbc36da70	-0.011160478
166	0x3cb4ecc5	0.022085557
167	0x3deffef4	0.1171855
168	0x3deb0530	0.11475599
169	0xbd17ff6e	-0.03710883
170	0x3d5ca776	0.05387064
171	0xbd9e73d1	-0.07736934
172	0x3cfe895d	0.03107136
173	0x3dc035c5	0.09385256
174	0xbc89be3d	-0.016814345
175	0xbe4c549e	-0.19954154
176	0x3b42e897	0.0029740685
177	0x3cf4021a	0.029786158
178	0xbc5b64c5	-0.013390725
179	0xbe8ef39f	-0.27920243
180	0xbdabb516	-0.08384149
181	0x3c63694e	0.013880087
182	0x3e04ffc3	0.1298819
183	0x3d95fe0f	0.073238485
184	0xbc489013	-0.012241381
185	0xbe3918f7	-0.1807593
186	0x3cc81a67	0.024426652
187	0xbd4aeb8a	-0.049541034
188	0x3d3d88f4	0.046273187
189	0x3ca75334	0.020425417
190	0x3df900d4	0.12158361
191	0x3ddb848f	0.10718643
192	0x3de6d7dd	0.112716414
193	0xbdfd409e	-0.123658404
194	0xbcdfd4a3	-0.027323073
195	0xbd3c39d2	-0.04595358
196	0x3dbef4e1	0.09324051
197	0xbf45e41d	-0.773012
198	0x3eb0a80f	0.3450322
199	0x3c5c5796	0.0134486165
200	0xbdafe33b	-0.08588263
201	0x3d132f6f	0.035933908
202	0xbd2856f8	-0.041098565
203	0x3da1e6b8	0.07905334
204	0x3cff8bfc	0.03119468
205	0x3e8273fa	0.25479108
206	0x3cab32fb	0.020898333
207	0x3f286523	0.6577932
208	0x3da24a1f	0.07924294
209	0xbd99a4f8	-0.075021684
210	0xbd79c42b	-0.060978096
211	0x3cae9baa	0.02131446
212	0x3ba7f07c	0.0051251035
213	0xbb98ba8b	-0.0046609095
214	0xbcdb6c85	-0.026785145
215	0x3e5e3db8	0.21703231
216	0xbd140dd4	-0.036146
217	0xbe1422db	-0.14466421
218	0x3d0d8d5c	0.03455864
219	0xbdbcfbe1	-0.092277296
220	0xbe96325e	-0.29335302
221	0x3d13a6c4	0.036047712
222	0x3d5d1aea	0.053980745
223	0xbdc14050	-0.09436095
224	0xbe3c0429	-0.18360962
225	0xbd7433b6	-0.059619628
226	0xbc8aea74	-0.0169575
227	0x3e4611fc	0.19342798
228	0xbd367203	-0.044542324
229	0xbd83e433	-0.0644001
230	0xbd62732d	-0.05528562
231	0x3d2c871e	0.042121045
232	0xbdef67c9	-0.11689717
233	0xbb08926f	-0.0020839234
234	0xbecf13e3	-0.4044486
235	0xbce59758	-0.028026268
236	0x3c431946	0.011907881
237	0x3c1e8a1d	0.009676483
238	0x3d09a671	0.033605997
239	0x3d08e824	0.03342451
240	0x3d6aafa6	0.057296418
241	0x3d2d8f92	0.042373247
242	0x3ce72e7b	0.028220406
243	0xbdb404e7	-0.087899975
244	0x3b3645b3	0.002781254
245	0xbbe0d75a	-0.0068616094
246	0x3cee03ef	0.02905461
247	0xbeb2ca65	-0.3492004
248	0xbdc940fb	-0.09826847
249	0xbd4e4f45	-0.050368566
250	0xbd8ba0dc	-0.06817791
251	0x3d1d62d3	0.038424324
252	0xb9be8962	-0.00036341982
253	0x3c8d878f	0.017276553
254	0x3d8dc4ce	0.06922303
255	0xbc16c7f0	-0.009202942

bias f4 [60]
0	0x397534db	0.00023384711
1	0x3816d1b4	3.5958088e-05
2	0x392e39ed	0.00016615512
3	0x38c29629	9.2786104e-05
4	0x3995e6bd	0.00028591408
5	0x38347bfc	4.3030814e-05
6	0x3915ca68	0.0001428515
7	0x390302c9	0.00012494171
8	0x38a64291	7.927896e-05
9	0xb6e6c424	-6.877368e-06
10	0xb8622d21	-5.392463e-05
11	0xb7b8611e	-2.1979733e-05
12	0x3856afe8	5.11854e-05
13	0x3743997a	1.165864e-05
14	0xb83b65f4	-4.4679226e-05
15	0x38b64e18	8.6929824e-05
16	0x387ec65f	6.0743067e-05
17	0xb7c67f1e	-2.3662633e-05
18	0xb7f26c17	-2.8898981e-05
19	0x382318b3	3.888523e-05
20	0x3749f54f	1.2037649e-05
21	0xb880d8c3	-6.143891e-05
22	0x37b1c2b7	2.1190715e-05
23	0xb907149c	-0.00012882281
24	0x384bbe56	4.8576236e-05
25	0xb6cd3b9b	-6.116415e-06
26	0xb87f6eec	-6.090004e-05
27	0xb86080f9	-5.3525877e-05
28	0x38816551	6.170071e-05
29	0xb8613b91	-5.3699656e-05
30	0x391f8a6d	0.00015214989
31	0xb86fad40	-5.7143392e-05
32	0x381d6c7c	3.753275e-05
33	0xb8f33df1	-0.000115986804
34	0xb6acbce9	-5.1479915e-06
35	0xb840c440	-4.595914e-05
36	0x380b721a	3.3246448e-05
37	0xb820adfe	-3.8309016e-05
38	0x3894612f	7.075292e-05
39	0x38920826	6.96334e-05
40	0xb738b6e1	-1.1009834e-05
41	0x38b707c8	8.7275694e-05
42	0xb828dab9	-4.0258023e-05
43	0x37e68a1c	2.7482449e-05
44	0x3863d217	5.431668e-05
45	0x37dc40e3	2.6256259e-05
46	0x37be544b	2.2689017e-05
47	0x39033d1d	0.000125159
48	0xb80a7ed5	-3.3019885e-05
49	0x39522d13	0.00020043952
50	0xb8bfa18d	-9.137681e-05
51	0x38bea987	9.091483e-05
52	0xb88346c2	-6.2597464e-05
53	0x3807f851	3.241777e-05
54	0xb7c44ea7	-2.3401646e-05
55	0xb65523b8	-3.1760264e-06
56	0xb853d08b	-5.050054e-05
57	0x38e095de	0.00010709067
58	0xb8d63f01	-0.000102160506
59	0xb8b5cb42	-8.668612e-05
