linearPredictionModels/db39/small/validation_wholeNetPrototype5_Epochs3_ValidationLoss:3.994499_lr:0.0003__2023_07_29_16:19:43.pth (torch, 992609 bytes, 8 tensors)

weight f4 [512, 145]
0	0x3d3c9954	0.046044663
1	0x3db8667e	0.09003924
2	0x3cb34066	0.021881294
3	0xbc16577e	-0.009176133
4	0xbd2067b4	-0.0391614
5	0xbd9810b7	-0.07425063
6	0x3db510a5	0.08841065
7	0xbc70aa71	-0.014689074
8	0x3d67cb63	0.05659045
9	0x3d0b202a	0.03396622
10	0x3da83c0f	0.0821458
11	0x3c45ef6d	0.012081009
12	0x3d0bfb79	0.03417537
13	0x3d80e7a8	0.06294185
14	0x3d6e9d35	0.058255393
15	0xbcd90e61	-0.026496114
16	0x3d1f974b	0.038962644
17	0xbdc59a2c	-0.096485466
18	0xbc54ad10	-0.012980714
19	0x3dcb9f2d	0.0994247
20	0x3db940d1	0.09045566
21	0x3bd267a1	0.006421045
22	0x3ce0e3a4	0.027452298
23	0xba5a075f	-0.00083171384
24	0xbca4b965	-0.020107934
25	0xbd6ff846	-0.05858638
26	0x3d981b09	0.074270315
27	0x3df825fe	0.121166214
28	0xbd255226	-0.040361546
29	0x3d3a5246	0.04548862
30	0xbd2d4ad7	-0.0423077
31	0xbd5e145d	-0.05421864
32	0x3d90a688	0.07063013
33	0xbd5485bb	-0.051885348
34	0x3d7043b9	0.058658335
35	0x3a918113	0.0011101089
36	0x3d2580e5	0.040406127
37	0xbd4022b7	-0.046908107
38	0xbcd86f3f	-0.026420234
39	0x3de49256	0.11160724
40	0xbc9d4794	-0.01919917
41	0x3ddadabb	0.10686251
42	0xbda577b6	-0.08079474
43	0xbcd02f76	-0.025413256
44	0xbd96565b	-0.0734069
45	0x3cfa1c9b	0.030531218
46	0x3dd35890	0.10319626
47	0xbdada2fd	-0.08478353
48	0x3cd92f9c	0.02651196
49	0x3ddba543	0.107248805
50	0xbd08895a	-0.033334114
51	0xbda4b1a4	-0.08041695
52	0x3d68924f	0.056780156
53	0x3d0705b4	0.032964423
54	0xbd09da98	-0.033655733
55	0x3a62efa3	0.00086569245
56	0x3cb340c9	0.021881478
57	0xbd552d22	-0.052044995
58	0x3dc5a55c	0.096506804
59	0xbb15609a	-0.0022793175
60	0x3dc56047	0.09637504
61	0xbd337119	-0.04380903
62	0x3d93dbcb	0.072196566
63	0xbc5ffcbf	-0.013671099
64	0xbe6610b5	-0.2246731
65	0xbde9cb2a	-0.114157036
66	0xbd88f70f	-0.06687748
67	0x3e043dc7	0.12914191
68	0xbba9a125	-0.0051766806
69	0xbd9df697	-0.07713049
70	0xbd515539	-0.051106665
71	0xbceabb31	-0.028653713
72	0xbd035d2f	-0.03207129
73	0x3c4ca61a	0.012490774
74	0x3d57b5cd	0.052663613
75	0xbe0523a9	-0.13001885
76	0xbd020427	-0.03174224
77	0xbd93b27b	-0.07211777
78	0x3d45c38a	0.048282184
79	0x3d225523	0.039631974
80	0x3c299409	0.010350236
81	0xbb24c53b	-0.0025141973
82	0xbd5ef020	-0.05442822
83	0xbd8fb556	-0.07017009
84	0x3cced589	0.025248306
85	0x3d03518e	0.0320602
86	0x3bfa58dc	0.0076399874
87	0xbbdef8cd	-0.0068045617
88	0x3d3ce58b	0.046117347
89	0x3bc217c6	0.005923244
90	0xbc4d6b27	-0.012537754
91	0xbbfdfaff	-0.0077508683
92	0x3c03a763	0.008035514
93	0x3ccecd58	0.0252444
94	0x3aea28ac	0.0017864904
95	0x3d3f64e1	0.046727065
96	0xbd5cf7cb	-0.05394725
97	0x3c802141	0.015640857
98	0x3b68fb87	0.0035550313
99	0xbdb6a4b2	-0.08918132
100	0xbcba59ad	-0.022747839
101	0x3c0afd2b	0.0084832115
102	0xbca62c13	-0.020284688
103	0xbd2600c0	-0.04052806
104	0x3cfd7e6b	0.03094407
105	0xbd6591de	-0.056047313
106	0x3b9bb975	0.004752333
107	0xbcb68c8c	-0.022283815
108	0x3c3ab2bb	0.011395152
109	0xbd4d6ab1	-0.050150577
110	0xbc8cfcf8	-0.017210469
111	0x3b77b455	0.0037796695
112	0x3c9579b1	0.018246504
113	0xbd19af28	-0.037520558
114	0xbd86e758	-0.06587094
115	0xbd6070c0	-0.054795027
116	0x3dcc67e1	0.09980751
117	0x3d85772e	0.06516872
118	0xba91a5b5	-0.0011112007
119	0xbc23d0ed	-0.009998542
120	0x3d2a018f	0.041505393
121	0xbca81dd4	-0.020522036
122	0x3ca38ef8	0.019965634
123	0xbc8fd423	-0.01755721
124	0x3cb4ec0a	0.022085208
125	0x3d4f4f61	0.05061281
126	0xbd1c2edc	-0.038130626
127	0x3d85c9ef	0.065326564
128	0xbd4a00d1	-0.049317185
129	0xbcda63dc	-0.026658945
130	0x3d81e289	0.06342036
131	0xbc8bb7f0	-0.017055482
132	0xbbabb54d	-0.0052401186
133	0xbd51ef6d	-0.051253725
134	0xbd5b7933	-0.05358238
135	0xbd86991e	-0.065721735
136	0x3d51f27f	0.051256653
137	0x3d3f8f78	0.04676768
138	0xbbe4f259	-0.006986898
139	0x3bd2aa27	0.006428975
140	0x3c3935bd	0.011304316
141	0x3d9c9759	0.07646055
142	0x3d5980bb	0.053101283
143	0xbd370e21	-0.04469121
144	0x3d4e60cf	0.050385293
145	0xbdf0fcab	-0.117669426
146	0xbdb66d27	-0.08907538
147	0x3cd65d5c	0.026167564
148	0x3d21c45a	0.039493896
149	0xbcdabd2d	-0.026701534
150	0xbdd46a98	-0.10371894
151	0xbb57207b	-0.0032825756
152	0xbd078a47	-0.033090856
153	0xbdb5848e	-0.088631734
154	0x3d96f359	0.07370634
155	0xbd87ef3e	-0.06637429
156	0x3d836f60	0.064177275
157	0xbd5376ac	-0.051626846
158	0xbd9f4e4f	-0.07778608
159	0x3c391882	0.011297347
160	0x3c7c096a	0.015383104
161	0xbe129674	-0.14315206
162	0xbdd08d1b	-0.10183164
163	0x3d92f2d6	0.071752235
164	0x3cdeba2b	0.027188381
165	0xbb1d49c8	-0.0024000276
166	0x3d800962	0.0625179
167	0x3c3ade0b	0.011405478
168	0xbd251cb4	-0.040310577
169	0xbd768af3	-0.060191106
170	0xbdc53451	-0.09629119
171	0xbdf4164c	-0.11918315
172	0xbc322943	-0.010874095
173	0xbd09f2b4	-0.033678725
174	0x3c067cdf	0.0082084825
175	0xbc9017e3	-0.017589515
176	0x3c8af6e3	0.016963428
177	0xbdd25133	-0.10269394
178	0xbcecacdf	-0.028891025
179	0xbdd818ec	-0.105516285
180	0x3d5076a1	0.050894383
181	0xbd587953	-0.05285008
182	0xbdc7a139	-0.09747548
183	0xbc974508	-0.018465534
184	0xbdc0fcc0	-0.09423208
185	0x3c3ba0b5	0.01145189
186	0xbd750583	-0.05981971
187	0x3c8faac5	0.017537484
188	0xbdd5ded6	-0.10442893
189	0xbd704931	-0.05866355
190	0xbb395486	-0.002827914
191	0xbdf0aeac	-0.11752066
192	0x3d4db24c	0.050218865
193	0xbb60a1bb	-0.0034276086
194	0x3c8a145d	0.016855413
195	0xbc436aea	-0.011927346
196	0x3d047a27	0.032343056
197	0xbdd15949	-0.10222108
198	0xbdb21391	-0.08695138
199	0xbddfcbc7	-0.10927539
200	0x3cabd504	0.020975597
201	0xbdd00076	-0.10156338
202	0xbda251d7	-0.07925766
203	0xbd020c12	-0.031749792
204	0xbd96a46d	-0.073555805
205	0xbdf53208	-0.11972433
206	0xbd471eb5	-0.04861327
207	0xbdbb4291	-0.09143556
208	0xbd8437b2	-0.064559355
209	0x3d1c576c	0.03816931
210	0xbe01b58e	-0.12666914
211	0x3db971b2	0.09054889
212	0xbe1908c9	-0.14944758
213	0xbc5f38b4	-0.013624359
214	0x3cf59be8	0.029981568
215	0xbd76b1f3	-0.0602283
216	0x3ca70537	0.020388229
217	0x3d3ed1cf	0.046586808
218	0xbe3597d7	-0.17733704
219	0xbc4162c9	-0.011803337
220	0x38b61a3e	8.683324e-05
221	0xbd8bd30c	-0.06827363
222	0x3b083ba4	0.0020787502
223	0x3ca2fb83	0.01989532
224	0xbdb040f2	-0.08606137
225	0x3d188e77	0.03724524
226	0xbd2dd40d	-0.042438556
227	0xbd150a20	-0.03638661
228	0xbd39fa7d	-0.0454049
229	0xbd38f3b9	-0.045154307
230	0x3d6ecbf4	0.058299974
231	0x3d6a8284	0.057253376
232	0xbd30d971	-0.04317612
233	0x3d91a407	0.07111364
234	0x3d6d6a1d	0.057962526
235	0x3d2bfbe5	0.041988272
236	0xbc1e9d0e	-0.009680999
237	0xbd4bc3d8	-0.049747318
238	0xbd061f82	-0.032744892
239	0xbd1da17f	-0.038484093
240	0xbca652ed	-0.020303214
241	0x3c19f611	0.009397046
242	0xbd0e3a69	-0.034723673
243	0xbcf0a18b	-0.029373905
244	0xbc9d4cd8	-0.019201681
245	0xbc4a504e	-0.012348248
246	0x3c3d2b97	0.011546037
247	0xbd3525f6	-0.044225655
248	0xbca49fe0	-0.020095766
249	0xbd2ee5cf	-0.04269963
250	0x3d018040	0.03161645
251	0x3d7c0bf5	0.06153484
252	0xbd02c247	-0.03192356
253	0xbcf8f141	-0.030388476
254	0xbd365fc8	-0.044524938
255	0x3d48cf84	0.049026027

bias f4 [512]
0	0x3da38a95	0.07985417
1	0xbda8905d	-0.0823066
2	0x3c86ab47	0.016439093
3	0xbcfc1d0d	-0.030775571
4	0x3c43c27b	0.011948223
5	0x3d40c83a	0.04706595
6	0xbd74b9de	-0.05974757
7	0x3c9fd8f8	0.019512638
8	0xbcd60876	-0.026127081
9	0xbd3ae678	-0.04562995
10	0xbd06c6c3	-0.032904398
11	0x3c8c9e8b	0.017165443
12	0x3d2ff561	0.04295862
13	0xbd20ec36	-0.03928777
14	0xbc9fa477	-0.019487603
15	0xbd408f81	-0.047011856
16	0x3d832a84	0.064045936
17	0x3cdcb0b9	0.026939737
18	0x3cdc7a39	0.026913749
19	0xbd7fa53b	-0.062413435
20	0xbde7d58c	-0.11320028
21	0x3d0a471d	0.033759225
22	0xbe0d8747	-0.13821135
23	0x3d63a0a9	0.05557314
24	0xbbf8b995	-0.0075904825
25	0x3ccec7e6	0.025241803
26	0x3cc182ba	0.023621906
27	0x3cb605cb	0.02221956
28	0x3c716775	0.014734139
29	0x3b449208	0.0029994268
30	0xbdd98ab6	-0.1062216
31	0x3c8a3cd5	0.01687471
32	0xbd33ffde	-0.043945186
33	0xbc91f99c	-0.017819218
34	0xbdbb604e	-0.09149228
35	0xbde02e51	-0.10946334
36	0xbd63727e	-0.05552911
37	0xbdc2df1c	-0.09515211
38	0x3c71bfa5	0.014755164
39	0x3d5b947d	0.053608406
40	0xbd6533ea	-0.055957712
41	0x3d9bd09b	0.07608148
42	0xbdcd12ba	-0.100133374
43	0xbd7824bf	-0.06058192
44	0xbda1c086	-0.07898049
45	0xbdb0831d	-0.08618758
46	0xbd81626f	-0.06317603
47	0xbd651c46	-0.055935167
48	0x3cc62b79	0.024190651
49	0xbdb70e85	-0.08938316
50	0x3abf2c8e	0.0014585422
51	0x3a5e29a5	0.00084748334
52	0xbd2058ad	-0.039147068
53	0xbd8a1a03	-0.067432426
54	0xbd091218	-0.03346452
55	0x3d73b8b9	0.059502337
56	0xbd4b92a4	-0.049700394
57	0x3ca0c998	0.019627377
58	0xbce6176a	-0.028087337
59	0x3caf7c12	0.021421466
60	0xbdbcefab	-0.092254005
61	0x3dbb54e3	0.0914705
62	0xbd002d8a	-0.03129343
63	0x3cdb24a4	0.02675087
64	0x3dbe4d9f	0.09292149
65	0xbd30dadf	-0.04317748
66	0xbc4c01e6	-0.0124516245
67	0xbc0d1f1c	-0.008613374
68	0x3ca49ee1	0.02009529
69	0x3d5cb0b9	0.053879473
70	0xbc647cdc	-0.013945784
71	0xbde03728	-0.1094802
72	0xbd2e7f37	-0.04260179
73	0xbc8bdfa3	-0.017074412
74	0x3dc34121	0.09533907
75	0xbd5f0598	-0.054448694
76	0xbc384156	-0.011246046
77	0x3ca10720	0.019656718
78	0x3c883e00	0.016631126
79	0x3dacfe65	0.084469594
80	0x3d641e52	0.05569298
81	0x3d819830	0.063278556
82	0x3cf34b30	0.029698938
83	0x3d408d3d	0.047009695
84	0x3d8861fe	0.066593155
85	0xbdb3c4c2	-0.08777763
86	0x3d42c1ec	0.04754822
87	0xbd8447ab	-0.06458982
88	0xbd186f31	-0.037215415
89	0xbcaa0dc0	-0.02075851
90	0x3a8ea137	0.0010881786
91	0x3d581a9f	0.052759763
92	0xbd651ec2	-0.055937536
93	0xbd089177	-0.03334185
94	0x3d7da09e	0.061920755
95	0x3d6e4a37	0.058176246
96	0x3dd4c3b6	0.103888914
97	0xbd8b0a57	-0.067890815
98	0xbd9be32c	-0.07611689
99	0xba841f17	-0.0010080066
100	0x3c8b8946	0.01703323
101	0xbd4bb03b	-0.049728613
102	0xbda0c58b	-0.07850178
103	0xbcb53b80	-0.022123098
104	0x3ce2bb41	0.02767718
105	0xbd7be3a3	-0.06149639
106	0xbd1a3aee	-0.037653856
107	0xbde104f4	-0.10987273
108	0x3d9480a5	0.072510995
109	0xbdb10270	-0.08643043
110	0xbd85311b	-0.06503507
111	0xbd528507	-0.051396396
112	0x3ce61bb9	0.028089391
113	0x3d2d9d0b	0.042386096
114	0x3dbf7d63	0.093500875
115	0x3c26eae1	0.010187835
116	0xbd7f4964	-0.06232585
117	0xbbceeff6	-0.0063152267
118	0xbd44e9c3	-0.048074495
119	0xbda09cab	-0.07842382
120	0x3dc90936	0.0981621
121	0x3cd4a02c	0.025955282
122	0x3d2bbf61	0.04193056
123	0xbc367743	-0.011136833
124	0xbc1dfe93	-0.009643215
125	0x3d7aff18	0.061278433
126	0xbd1dfd42	-0.038571604
127	0x3da3ce5c	0.07998344
128	0x3e043431	0.12910534
129	0xbd9bbd67	-0.07604485
130	0xbd9f7754	-0.07786432
131	0x3cb66be0	0.022268236
132	0xbdcad6b1	-0.099042304
133	0xbdc7aecc	-0.09750137
134	0xbd9dbdb2	-0.07702197
135	0xbbbeaed4	-0.005819181
136	0x3c626772	0.013818609
137	0x3d6a41fb	0.05719183
138	0x3d28f307	0.041247394
139	0x3c376595	0.011193653
140	0xbd887a91	-0.06664003
141	0xbd9735a2	-0.073832765
142	0x3cd10b31	0.025518032
143	0xbd89817a	-0.06714149
144	0xbd4a7b7d	-0.049434174
145	0x3cc9765b	0.02459257
146	0xbcea4e9d	-0.028601939
147	0x3ddc535e	0.107580885
148	0xbda2acb6	-0.07943098
149	0xbdab5770	-0.08366287
150	0xbc23ba26	-0.009993112
151	0x3ddd5308	0.108068526
152	0xbb83ec93	-0.0040260046
153	0xbd66b464	-0.056324378
154	0xbc9c40d7	-0.019073887
155	0x3d0a93e9	0.033832464
156	0xbcb11b84	-0.021619566
157	0x3dfe4972	0.12416352
158	0xbd66c8bd	-0.056343783
159	0xbc182c1c	-0.00928786
160	0x3cc493ca	0.023996253
161	0x3c31bd75	0.010848393
162	0x3c0e55f6	0.008687487
163	0x3c94fc0d	0.018186593
164	0xbbae073d	-0.0053109215
165	0x3d57c44d	0.05267744
166	0xbdb006d0	-0.085950494
167	0x3d7f448e	0.06232124
168	0x3d8584d5	0.06519476
169	0xbd71b6e5	-0.059012312
170	0xbd4c5186	-0.049882434
171	0xbcaaa726	-0.020831656
172	0x3e0366bf	0.12832163
173	0xbd5a6314	-0.053317145
174	0xbe105e20	-0.14098406
175	0x3d02b35f	0.031909343
176	0x3b74b23f	0.0037337688
177	0xbc940db1	-0.018072935
178	0xbdb8f11b	-0.09030362
179	0x3c0d36b4	0.008618999
180	0xbd53a5fd	-0.05167197
181	0x3d485af0	0.04891485
182	0xbc924521	-0.017855229
183	0xbcd28890	-0.025699884
184	0x3c337b06	0.010954624
185	0x3dd17d52	0.10228981
186	0xbd67af92	-0.05656392
187	0xbded124a	-0.11575754
188	0x3a713162	0.0009200779
189	0xbcc983ab	-0.024598917
190	0x3d05f170	0.032700956
191	0x3cb61eb4	0.022231437
192	0xbdbf743b	-0.09348341
193	0xbd01beaf	-0.03167599
194	0xbdf7e2b1	-0.12103785
195	0x3db67071	0.08908165
196	0x3bb002cc	0.005371427
197	0x3c0712ab	0.008244197
198	0xbc896f7c	-0.016776793
199	0xbcb9276b	-0.022601804
200	0xbd713f6a	-0.058898367
201	0xbda5da57	-0.08098286
202	0x3d87d6e1	0.06632782
203	0xbcd003d1	-0.025392445
204	0xbdb1f25b	-0.08688804
205	0x3be1c8fb	0.006890414
206	0xbaea8f68	-0.0017895522
207	0x3d325391	0.043536726
208	0x3d9e7962	0.07737996
209	0x3cc68061	0.024231138
210	0x3d77d919	0.060509775
211	0xbcba55a0	-0.022745907
212	0x3d465161	0.048417453
213	0x3c20a00d	0.009803784
214	0x3c77fb55	0.015135606
215	0xbc74ea55	-0.014948447
216	0xbdc0975e	-0.09403871
217	0x3d9add82	0.075617805
218	0x3d406b11	0.046977106
219	0x3d853c59	0.06505651
220	0x3b8d465b	0.0043113655
221	0xbd7a3452	-0.061085053
222	0x3c162376	0.009163728
223	0x3d4ade71	0.049528543
224	0xbd306c88	-0.043072253
225	0xbdf06d7b	-0.11739632
226	0x3b17477d	0.0023083382
227	0xbce0deb7	-0.027449949
228	0xbdd73bea	-0.105094746
229	0x3d418278	0.047243565
230	0xbd8de17c	-0.06927773
231	0xbd4364eb	-0.047703665
232	0x3d32c314	0.043643072
233	0x3db593a9	0.088660546
234	0xbc83492b	-0.0160261
235	0x3ca07a05	0.019589433
236	0x3b86964b	0.004107272
237	0xbda3bd10	-0.07995045
238	0xbc9943e1	-0.018709125
239	0x3d2ae1e6	0.04171934
240	0xbd4868a4	-0.048927918
241	0xbd27692b	-0.04087178
242	0xbd9c171c	-0.07621595
243	0xbd0cf601	-0.034414295
244	0xbdbb6ffd	-0.091522194
245	0x3d80bfa2	0.06286551
246	0xbd43d3c3	-0.047809374
247	0x3c7b3574	0.015332568
248	0xbcfec410	-0.03109935
249	0xbdba2dae	-0.09090744
250	0x3d8ef343	0.06979992
251	0x3dc44238	0.09582943
252	0xbcfac7b6	-0.030612808
253	0xbdb413e5	-0.08792857
254	0xbc01a0ec	-0.007911902
255	0x3d973849	0.073837824

weight f4 [256, 512]
0	0x3cde0585	0.027102241
1	0x3c85a937	0.01631604
2	0xbda71501	-0.08158303
3	0xba9a3e84	-0.0011767899
4	0x3d9d7450	0.076882005
5	0xbdc4fb95	-0.09618298
6	0xbcebe90c	-0.028797649
7	0x3c8040e2	0.015655939
8	0x3d23d072	0.03999371
9	0xbd2ab763	-0.041678797
10	0x3d2958e3	0.041344535
11	0x3c0db67e	0.008649467
12	0xbd0f8d37	-0.035046782
13	0xbd12d87d	-0.03585099
14	0xbc885c35	-0.01664553
15	0xbc3f2c16	-0.011668226
16	0xbca1b53b	-0.019739738
17	0x3c0b0255	0.008484443
18	0x3cc6200c	0.024185203
19	0x3817c9cf	3.6189154e-05
20	0x3d2ddbf3	0.042446088
21	0xbcec0c02	-0.02881432
22	0xbd277767	-0.040885355
23	0xbd8ffd98	-0.07030791
24	0x3d369b6a	0.04458181
25	0x3d64090a	0.055672683
26	0xbd2a062d	-0.041509796
27	0x3b8292fd	0.0039848075
28	0xbd1b8413	-0.037967753
29	0x3c3cf366	0.01153264
30	0x3d0c8562	0.03430689
31	0xbd04ff1e	-0.03246986
32	0xbdc00b2a	-0.093771294
33	0xbb1be526	-0.0023787706
34	0xbd53b1c6	-0.05168321
35	0x3cab00d8	0.020874426
36	0xbcac1337	-0.021005256
37	0x3d9f8a6a	0.07790072
38	0xbc9d33bc	-0.019189708
39	0xbd4e440d	-0.050357867
40	0xbbc0f40b	-0.005888467
41	0xbd00aa34	-0.03141232
42	0x3cdd59f6	0.027020436
43	0x3cc23e2c	0.023711286
44	0xbd57b74d	-0.052665044
45	0x3c905550	0.017618805
46	0xbd3f856f	-0.04675811
47	0xbd03d7ee	-0.03218835
48	0xbcfb6b1b	-0.03069072
49	0x3c8e1286	0.017342817
50	0xbd1a9f57	-0.037749615
51	0xbbb911a6	-0.005647856
52	0x3c922b85	0.017843017
53	0x3cdc08fb	0.026859751
54	0x3d2ec642	0.042669542
55	0xbc1882db	-0.009308542
56	0xbc0cd81a	-0.0085964445
57	0xbd7402df	-0.05957305
58	0x3be33bce	0.0069346195
59	0x3db35fc0	0.08758497
60	0xbdc6fe71	-0.097164996
61	0xbd63915c	-0.055558547
62	0xbcd6f14a	-0.026238102
63	0xbccc8ab3	-0.02496848
64	0xbc4f2857	-0.012643895
65	0xbb7b2035	-0.0038318757
66	0xbd18ebdf	-0.03733432
67	0xbd1b6240	-0.037935495
68	0xbd8b217d	-0.06793497
69	0xbd3421c3	-0.04397751
70	0xbc8f3981	-0.017483475
71	0x3c82529c	0.015908532
72	0x3cf96a8d	0.030446315
73	0x3ccdb00b	0.025108358
74	0x3ce64fe8	0.028114274
75	0x3d6bd90a	0.05758003
76	0xbdbadd6d	-0.09124265
77	0xbc65fb4c	-0.014036965
78	0x3ca3d4c2	0.019998912
79	0x3b8fb77c	0.0043858867
80	0x39c1193b	0.00036830627
81	0x3c911227	0.017708851
82	0xbd292504	-0.041295066
83	0xbdca78ae	-0.09886299
84	0x3d152a0e	0.03641706
85	0xbce9d007	-0.028541578
86	0xbc93cff4	-0.018043496
87	0x3c555606	0.013020998
88	0x3bc192a0	0.0059073716
89	0x3cda41ea	0.026642758
90	0xbd53cb78	-0.051707715
91	0xbd4d7aa6	-0.050165795
92	0xbb8dc5d4	-0.0043265615
93	0xbca3d56e	-0.019999232
94	0x3ccf80ea	0.025330026
95	0xbd63b7c9	-0.055595193
96	0x3ca3c56a	0.019991595
97	0xbc72ff06	-0.01483131
98	0x3c0aaff8	0.008464806
99	0x3d0ad287	0.03389218
100	0x3d867264	0.06564787
101	0x3d60e400	0.054904938
102	0xbd45cd21	-0.04829133
103	0x3d20c3a9	0.039249096
104	0xbce9c72f	-0.028537361
105	0xbb3df7f2	-0.0028986898
106	0xbdb85aa6	-0.09001665
107	0x3d93ba63	0.07213285
108	0x3da5da5c	0.08098289
109	0x3d64667b	0.055761795
110	0xbbae059c	-0.0053107273
111	0xbdf4a81e	-0.11946128
112	0x3a4145d7	0.00073727727
113	0xbd3af04e	-0.04563933
114	0xbdf74040	-0.120728016
115	0x3ca6999f	0.020336924
116	0xbcac04d8	-0.020998403
117	0xbd873e25	-0.0660365
118	0x3c91c6fb	0.017795077
119	0x3cf63a08	0.030056968
120	0xbd214890	-0.03937584
121	0xbcb10fb8	-0.02161394
122	0x3d6d535e	0.057940833
123	0xbc056063	-0.008140656
124	0xbcfae2a1	-0.030625643
125	0x3bf7e29d	0.007564856
126	0xbbfe8452	-0.0077672387
127	0xbc8b9881	-0.017040493
128	0xbcfcaa35	-0.03084288
129	0xbd5988a5	-0.05310883
130	0x3c686396	0.014183899
131	0x3d03297f	0.032021996
132	0x3d83fa58	0.06444234
133	0x3caf16cb	0.021373173
134	0x3d904bb8	0.07045692
135	0xbc4851c7	-0.0122265285
136	0x3d3ddbcf	0.046352204
137	0xbc1162f3	-0.008873689
138	0xbd6d3f97	-0.057921972
139	0x3d2a6dcc	0.041608617
140	0x3d16e459	0.036838863
141	0x3d1044dc	0.03522192
142	0xbd14e71d	-0.03635322
143	0x3bdbeef8	0.006711837
144	0x3c4e05a4	0.012574587
145	0xbd7c3588	-0.06157449
146	0x3bf82327	0.00757255
147	0xbc87ef64	-0.016593643
148	0x3c8f7315	0.01751093
149	0x3d598834	0.05310841
150	0x3cc96244	0.02458299
151	0xbdc1fbe4	-0.094718724
152	0xbd157819	-0.036491487
153	0xbd4eb6ab	-0.050467175
154	0xbbed4a48	-0.007241521
155	0xbd760c2f	-0.060070213
156	0xbd0b1bf4	-0.033962205
157	0xbd0048ba	-0.031319357
158	0x3c9f8122	0.019470755
159	0x3c9f513f	0.01944792
160	0xbd642ad6	-0.055704914
161	0xbc781946	-0.015142744
162	0x3ca9080e	0.020633724
163	0x3d2164bd	0.039402712
164	0x3ce21f2c	0.027602755
165	0x3bd40022	0.0064697424
166	0x3d4e26f0	0.050330102
167	0xbd38648a	-0.045017757
168	0xbdad3cc3	-0.08458855
169	0x3d1412a2	0.036150582
170	0x3cc0603b	0.023483386
171	0xbd5a7e4b	-0.0533431
172	0x3cec47e6	0.028842878
173	0x389bb6ee	7.425049e-05
174	0x3c55ab40	0.013041317
175	0xbd148f6d	-0.036269594
176	0xbd3fde16	-0.046842657
177	0xbc77f5cb	-0.015134285
178	0xbce84053	-0.028350985
179	0xbc83fefd	-0.016112799
180	0xbc746abe	-0.014918027
181	0xbceaf4a6	-0.02868111
182	0xbd06b030	-0.03288287
183	0x3c5bc94f	0.013414695
184	0x3ba46983	0.005017461
185	0x3d591d8b	0.05300669
186	0xbdbe6d12	-0.09298147
187	0x3d8950a0	0.06704831
188	0xbd8c8708	-0.06861693
189	0x3d39a7c1	0.045326
190	0x3af805b1	0.0018922595
191	0xbd90d3be	-0.070716366
192	0x3d961bf9	0.07329554
193	0x3cf76063	0.030197328
194	0xbca9b4f0	-0.02071616
195	0x3c58417a	0.013199205
196	0x3d347269	0.044054423
197	0xbd07e508	-0.033177406
198	0xbd096308	-0.03354171
199	0xbbd2ea68	-0.006436635
200	0xbbed30b5	-0.0072384723
201	0x3c909b17	0.017652078
202	0x3cb29bd4	0.02180282
203	0x3d64cc7f	0.055859085
204	0x3d8fef32	0.07028045
205	0x3d278676	0.040899716
206	0x39ee077d	0.00045400477
207	0x3d3cc5dd	0.046087135
208	0x3a9240e8	0.001115826
209	0xbc88e2ae	-0.016709652
210	0xbd56407f	-0.052307602
211	0xbbd13ad3	-0.006385186
212	0x3cb3aa0d	0.021931672
213	0xbd80e87f	-0.06294345
214	0x3cd07628	0.025446966
215	0xbd6c4fac	-0.05769317
216	0x3d5a0b48	0.053233415
217	0xbd27dd06	-0.04098227
218	0xbdbdbec9	-0.09264905
219	0xbd0f1ffa	-0.034942605
220	0xbd943e7f	-0.07238483
221	0x3d39a0d3	0.04531939
222	0xbdb23756	-0.08701961
223	0x3cba8ed1	0.022773178
224	0xbe008cb2	-0.12553671
225	0xbca4f761	-0.02013749
226	0x3cb3e1fa	0.02195834
227	0xbcc83d4a	-0.024443287
228	0x3d935374	0.07193652
229	0xbd011766	-0.031516455
230	0xbd068cc7	-0.0328491
231	0xbc1cb214	-0.0095639415
232	0xbce99748	-0.02851452
233	0x3d164ed7	0.03669628
234	0xbd415e31	-0.04720897
235	0x3c137988	0.009001143
236	0xbd5a806e	-0.053345136
237	0xbbb54893	-0.005532333
238	0xbbcac4ea	-0.0061880248
239	0x3d023e20	0.03179753
240	0xbd9f01fa	-0.07764049
241	0xbceed7a4	-0.02915556
242	0x3cd81a96	0.026379865
243	0x3d7485c1	0.05969787
244	0x3b81ef99	0.00396533
245	0xbe04b13c	-0.12958235
246	0xbcb4aa7a	-0.022053946
247	0x3c4e4a7b	0.012591
248	0xbdb02c7d	-0.086022355
249	0x3cc900cc	0.024536513
250	0xbc88fe41	-0.0167228
251	0xbcc1235b	-0.02357643
252	0xbd94faa5	-0.07274369
253	0xbcb3da6f	-0.021954743
254	0x3d0a285c	0.033729896
255	0x3cfbd2f5	0.03074024

bias f4 [256]
0	0xbc206531	-0.009789751
1	0xba9c50ab	-0.0011925896
2	0x3cf59089	0.029976146
3	0x3d500b16	0.050791822
4	0xbca23c09	-0.019804018
5	0xbcb3db33	-0.021955108
6	0x3d1312b2	0.0359065
7	0x3cde0c91	0.027105602
8	0xbd356750	-0.04428798
9	0xba916bb3	-0.0011094719
10	0x3b860170	0.004089527
11	0xbc1e9f50	-0.009681538
12	0x3da069b2	0.0783266
13	0xbcbe74e4	-0.023249097
14	0x3c72b49b	0.0148135675
15	0xbd800dd8	-0.062526405
16	0x3db927a7	0.09040766
17	0x3d8919a7	0.06694346
18	0xbcb891b7	-0.02253042
19	0xba987a27	-0.0011633084
20	0x3b8d3f2a	0.0043105083
21	0x3d30c5cc	0.043157384
22	0xbd08b52b	-0.0333759
23	0xbdb16ca2	-0.08663298
24	0xbd211a5b	-0.039331775
25	0x3d30b713	0.043143343
26	0xbbd5c3ba	-0.0065235766
27	0xbd909460	-0.0705955
28	0xbd3dfbb1	-0.04638261
29	0xbc26f894	-0.010191102
30	0xbd2ee197	-0.042695608
31	0x3d839424	0.0642474
32	0x3c8385d4	0.016055025
33	0x3dae9846	0.085251376
34	0x3cc604ad	0.024172151
35	0xbd6224db	-0.05521093
36	0x3cdab8ab	0.026699385
37	0xbcedfc77	-0.029051049
38	0xbd4ab1db	-0.049486022
39	0xbd1e3cb7	-0.03863212
40	0x3c80a444	0.015703328
41	0xbc905a54	-0.017621197
42	0x3c27920b	0.01022769
43	0x3d1bf92c	0.038079426
44	0x3bc94e7c	0.0061433893
45	0x3da55406	0.08072667
46	0xbcadeebd	-0.021232003
47	0x3c4bec1e	0.012446431
48	0xbd49bac7	-0.04925039
49	0xbd6f8fc4	-0.058486715
50	0xbc7e6ecd	-0.015529347
51	0xbcdb7910	-0.026791126
52	0xbc0b485c	-0.008501139
53	0x3da75886	0.081711814
54	0xbb2840ad	-0.0025673315
55	0xbc933b9b	-0.017972758
56	0x3c13912f	0.009006782
57	0x3c1d63b4	0.009606291
58	0x3c9658bd	0.01835286
59	0x3d023aa0	0.03179419
60	0xbd3c6236	-0.0459921
61	0x3ca98f64	0.020698257
62	0xbc474e44	-0.012164656
63	0xbba96689	-0.005169694
64	0xbc107669	-0.008817294
65	0xbd24de48	-0.040251046
66	0x3d497d62	0.04919184
67	0x3c5f7687	0.013639099
68	0x3cb74fc1	0.022376897
69	0xbd1f1af4	-0.038844064
70	0xbb37c746	-0.002804236
71	0xbc0261dd	-0.007957903
72	0x3d57026d	0.052492548
73	0x3a113c1f	0.000554027
74	0x3bf44468	0.0074544437
75	0x3d0cf9bf	0.034417864
76	0xbd45caf3	-0.04828925
77	0xbd8b0f2f	-0.067900054
78	0x3c2feaaf	0.010737105
79	0x3b49e55b	0.0030806873
80	0xbc6a2de8	-0.014293171
81	0xbd431962	-0.04763163
82	0xbd17a8dc	-0.03702627
83	0xbd0b62ee	-0.034029894
84	0x3d5ebbeb	0.05437843
85	0x3d61c1a5	0.055116314
86	0xbd067004	-0.03282167
87	0x3d66e9d1	0.05637533
88	0x3d3bb12e	0.04582327
89	0xbc062454	-0.008187372
90	0x3b585c86	0.0033014133
91	0xbbe263c0	-0.006908864
92	0x3d823e3a	0.06359525
93	0xbce65fb0	-0.0281218
94	0xbc995444	-0.018716939
95	0xbca18c60	-0.019720256
96	0xbd51de38	-0.051237315
97	0x3bb25965	0.0054427856
98	0xbc1c5f51	-0.00954421
99	0x3b5bdf3e	0.003354981
100	0x3d245a14	0.040124968
101	0xbc5ca77f	-0.013467669
102	0x3bfef2b4	0.0077803973
103	0xba9f0bed	-0.0012134291
104	0x3d17b8e7	0.03704157
105	0x3d3870e8	0.04502955
106	0xbda4e90b	-0.08052262
107	0xbd5595f0	-0.052144945
108	0x3beb5798	0.007182073
109	0xbd0b74b5	-0.034046847
110	0x3d17cde3	0.037061583
111	0x3be29ef8	0.006915923
112	0xbcdfae16	-0.02730469
113	0xbc2245dd	-0.009904352
114	0x3c89b31f	0.016809044
115	0x3d92cf89	0.071684904
116	0x3d3f99d4	0.04677756
117	0x3daefa41	0.08543826
118	0x3d3ce8f9	0.046120618
119	0x3d301547	0.04298904
120	0xbdcf8074	-0.10131922
121	0x3c116063	0.008873078
122	0xbd73fe25	-0.059568543
123	0xbd01342a	-0.03154389
124	0x3d1c522f	0.038164314
125	0xbb55afde	-0.0032606046
126	0x3c84214a	0.016129155
127	0xbd493ce0	-0.04913032
128	0x3c8b544f	0.017007975
129	0x3d78a446	0.06070354
130	0x3adec7b8	0.0016996777
131	0xbc6e9944	-0.014562909
132	0x3d8b803e	0.0681157
133	0xbc75bf35	-0.014999201
134	0x3d7ea685	0.062170524
135	0xbca37c18	-0.019956633
136	0xbc65c1df	-0.014023273
137	0x3bbe4435	0.0058064708
138	0x3cd5055f	0.026003538
139	0xbc7a1ff1	-0.0152664045
140	0x3aa41ebd	0.0012521368
141	0x3cd6c66e	0.026217666
142	0x3cff8e67	0.031195832
143	0x3d538058	0.05163607
144	0xbb99b233	-0.0046904325
145	0xbac4f51c	-0.0015026662
146	0x3a18ed98	0.0005833744
147	0xbc822f03	-0.015891558
148	0xbdb846ef	-0.089979045
149	0x3bd4ef58	0.0064982586
150	0x3dbcfb38	0.09227604
151	0x3cbb3e4e	0.022856858
152	0xbcf2405a	-0.0295717
153	0xbcc03517	-0.023462815
154	0xbcea2240	-0.028580785
155	0xbc783fb5	-0.015151908
156	0x3d3935da	0.045217372
157	0x3cab698b	0.02092435
158	0xbd8061b9	-0.06268639
159	0xbd22ab72	-0.039714284
160	0x3d9a2481	0.07526494
161	0x3d9423c8	0.07233387
162	0xbc792f8b	-0.015209089
163	0x3cf2790c	0.029598735
164	0xbcb16692	-0.021655355
165	0xbc31ce71	-0.010852442
166	0xbd4b93ef	-0.049701627
167	0x3d0e8bb5	0.034801204
168	0xbd3afebf	-0.0456531
169	0xbd865dd7	-0.06560867
170	0xbb4f2cc1	-0.0031612369
171	0x3cb2bcbe	0.021818515
172	0x3cf61eb3	0.030043935
173	0xbc31d051	-0.010852889
174	0x3c23b4a9	0.009991803
175	0xba39b2fc	-0.00070838607
176	0x3c037836	0.008024266
177	0xbd604c72	-0.054760404
178	0x3c95769f	0.01824504
179	0x3d13e04f	0.03610259
180	0xbb3e0c52	-0.0028999043
181	0xbd1b543b	-0.037922125
182	0xbc0863d7	-0.008324585
183	0x3b34c620	0.0027583912
184	0xbbcef348	-0.0063156225
185	0x3d4b20ea	0.049591936
186	0x3c11e724	0.008905206
187	0x3d3a8880	0.045540333
188	0xbd84627f	-0.06464099
189	0x3c6961a4	0.014244471
190	0xbca1001f	-0.019653378
191	0xbc8c23bb	-0.017106881
192	0x3c252dcb	0.010081719
193	0xbb627247	-0.0034552978
194	0xbd8ed7c3	-0.06974747
195	0x3cf9ec7c	0.030508272
196	0x3cdfb1b4	0.027306415
197	0x3cb2e185	0.021836052
198	0xbd496da7	-0.04917684
199	0xbc9ea1f9	-0.019364344
200	0x3d0c7ab2	0.0342967
201	0xbd2d919a	-0.042375185
202	0xbd167610	-0.036733687
203	0xbce6d2de	-0.028176721
204	0x3c94988a	0.018139143
205	0xbcfb7c09	-0.030698793
206	0xbd739b7e	-0.05947446
207	0xbdafa6dc	-0.08576748
208	0xbd0141f0	-0.031557024
209	0x3cce302a	0.02516945
210	0xbd5f86ba	-0.054571845
211	0x3c632b60	0.013865322
212	0xbc5687bc	-0.013093885
213	0x3c16b66e	0.009198768
214	0x3cb02d53	0.021505987
215	0x3cba2d47	0.022726668
216	0x3d8df936	0.06932299
217	0x3c6b5315	0.01436307
218	0x3d84320d	0.06454859
219	0xbd75b54e	-0.05998736
220	0x3c89ad50	0.016806275
221	0x3c318671	0.010835276
222	0x3c8bc725	0.017062733
223	0xbd50e59d	-0.051000226
224	0x3cda1dca	0.026625533
225	0x3cd5a113	0.026077783
226	0x3d683935	0.056695182
227	0x3ccbdb8e	0.024884965
228	0xbd98c354	-0.07459131
229	0xbc708ed8	-0.014682494
230	0x3d90aadc	0.07063839
231	0x3d311a3d	0.043237913
232	0xbd09c826	-0.033638142
233	0x3d03572f	0.032065567
234	0xbd3cc4db	-0.046086174
235	0xbd0b08d2	-0.03394396
236	0x3c2787fc	0.010225292
237	0xbce657fa	-0.028118122
238	0xbd2956e2	-0.041342624
239	0x3c6791a4	0.0141338445
240	0x3c53ff23	0.012939247
241	0x3d745a43	0.059656393
242	0xbc5ad763	-0.013357016
243	0x3ceebdbf	0.029143212
244	0xbd31e91a	-0.043435194
245	0x3c0ccb51	0.008593396
246	0xbc88eec0	-0.016715407
247	0x3d3c3540	0.04594922
248	0x3bcca778	0.00624555
249	0x3ab0c94b	0.0013487724
250	0xbbb58f24	-0.0055407453
251	0x3c335069	0.010944464
252	0xbd230cc7	-0.039807107
253	0xbd1c2feb	-0.038131636
254	0xbc6c593e	-0.014425574
255	0xbd0d7d0d	-0.034543086

weight f4 [128, 256]
0	0x3b40c86f	0.0029416343
1	0xbca57fa8	-0.020202473
2	0xbca38d04	-0.019964702
3	0x3d25f991	0.04052121
4	0x3d6feb5a	0.058574058
5	0x3d64df46	0.055876993
6	0xbc42b3fb	-0.011883731
7	0xbce831b5	-0.028344015
8	0xbc304938	-0.010759644
9	0x3d61aa55	0.055094082
10	0x3d1889be	0.037240736
11	0xbca3b68f	-0.019984512
12	0x3ce3e525	0.027819226
13	0xbd1f4b12	-0.038889952
14	0x3cd47622	0.025935236
15	0xbd46802a	-0.04846207
16	0xbc88b925	-0.016689846
17	0xbcab928e	-0.020943906
18	0x3d2e8163	0.04260386
19	0x3d22c862	0.03974188
20	0xba4f5a76	-0.0007909903
21	0xbd1f5e6d	-0.03890841
22	0xbd1b6a72	-0.03794331
23	0xbcc51946	-0.024059903
24	0xbcc65dfc	-0.024214737
25	0xbd6e4043	-0.058166754
26	0xbd726664	-0.05917968
27	0xbd814e67	-0.06313782
28	0xb74e4772	-1.22951915e-05
29	0x3b32a09d	0.0027256378
30	0xbc5beaa8	-0.013422646
31	0x3ccd8f80	0.02509284
32	0x3d3a67a2	0.04550899
33	0xbd464b49	-0.04841164
34	0x3c19f147	0.009395904
35	0xbd270adf	-0.04078185
36	0x3cafac51	0.021444472
37	0xbcf5ac57	-0.029989405
38	0xbca14d8f	-0.019690303
39	0xbd22f613	-0.039785456
40	0xbd77a33e	-0.060458414
41	0x3d3f1be5	0.04665746
42	0xbb408e67	-0.0029381753
43	0xbd9613a7	-0.07327967
44	0x3cb83f52	0.022491131
45	0xbd4a2073	-0.049347352
46	0xbd38112b	-0.044938248
47	0x3a958dc6	0.001141005
48	0xbbdf4d11	-0.006814607
49	0x39db454c	0.00041822565
50	0xbd6258dc	-0.055260524
51	0x3d34f8f5	0.044182736
52	0xbd6ffe38	-0.05859205
53	0x3ce0be3d	0.027434463
54	0xbd5cc987	-0.05390313
55	0xbd1d7c14	-0.03844841
56	0xbd455712	-0.04817874
57	0x3d1b9739	0.037986014
58	0xbd7f9b1c	-0.062403783
59	0x3c59b351	0.013287381
60	0x3bfc7f36	0.0077055944
61	0xbd8a337c	-0.06748101
62	0x3d1318c6	0.035912298
63	0x3d31dff4	0.04342647
64	0xbd1b7335	-0.037951667
65	0xbc1d10d5	-0.009586533
66	0xbd4fc26c	-0.050722525
67	0x3c88af86	0.016685259
68	0xbc895c78	-0.016767725
69	0x3d350967	0.04419842
70	0xbd11c6d1	-0.035589997
71	0xbd5760bd	-0.05258249
72	0x3ab7ac13	0.0014013074
73	0xbc66fd14	-0.014098424
74	0xbd538442	-0.051639803
75	0xbd119017	-0.035537805
76	0xbd022db9	-0.031781886
77	0xbd17e178	-0.037080258
78	0x3c53ce41	0.012927593
79	0x3bcc17f7	0.006228443
80	0xbce153b0	-0.027505726
81	0x3c73ca31	0.014879749
82	0xbd054f23	-0.032546174
83	0x3cf56478	0.029955134
84	0xbd90e6af	-0.070752494
85	0x3c1adcb2	0.009452032
86	0xbd6abf38	-0.057311267
87	0x3d1feb55	0.03904279
88	0xbcbaef08	-0.022819057
89	0x3c4e9756	0.0126093235
90	0xbc35d906	-0.011099106
91	0xbd524bd4	-0.051341847
92	0x3c8bd686	0.017070066
93	0xbc90fcb9	-0.017698633
94	0xbd32c88e	-0.043648295
95	0x3d25e06d	0.040497232
96	0x3d48ebaf	0.04905289
97	0x3ce45492	0.027872358
98	0x3d194c47	0.03742626
99	0x3c8ac66b	0.016940316
100	0xbd527c39	-0.051388
101	0xbd03de36	-0.03219434
102	0x3c4b9f8b	0.012428175
103	0x3c263dd2	0.010146575
104	0x3ab8819c	0.0014076713
105	0x3c93f8f0	0.018063039
106	0xbd4582ab	-0.048220318
107	0xbd3ba609	-0.04581264
108	0xbd83a5ee	-0.06428133
109	0xbd437b1c	-0.047724828
110	0x3ac64622	0.0015127102
111	0xbd23bb9d	-0.039973844
112	0x3cea91d3	0.028633988
113	0x3d2f7bb8	0.042842597
114	0xbd56ea29	-0.052469406
115	0xbcd595eb	-0.026072463
116	0xbcec802b	-0.028869709
117	0xbca6647f	-0.020311592
118	0x3d4c07c8	0.04981211
119	0x3d0c0a99	0.034189794
120	0xbd5c66f9	-0.05380914
121	0x3c8388dd	0.016056472
122	0x3d30ca4a	0.043161668
123	0xbd688b52	-0.05677349
124	0xbc4f58f9	-0.01265549
125	0x3ced3522	0.028956
126	0xbd21aae8	-0.03946963
127	0xbc9d2269	-0.019181447
128	0xbd8441d9	-0.06457872
129	0x3ce55452	0.027994309
130	0xbccfb276	-0.025353651
131	0x3b1db62c	0.0024064882
132	0xbcae1469	-0.021249967
133	0x3d2ae9de	0.04172694
134	0xbc8124bc	-0.015764587
135	0x3c9a6917	0.018848939
136	0x3be600bb	0.00701913
137	0xbd068204	-0.032838836
138	0xbd869ec7	-0.06573253
139	0x3a8abc9b	0.0010584773
140	0xbd06b646	-0.032888673
141	0xbc8af52b	-0.016962608
142	0x3ce99676	0.028514128
143	0xbd30d8eb	-0.04317562
144	0xbc618aae	-0.013765974
145	0xbd0a8405	-0.03381731
146	0xbd076732	-0.0330574
147	0xbc970a57	-0.018437548
148	0x3d3486bb	0.0440738
149	0xbd0e48d0	-0.03473741
150	0xbd4e7836	-0.05040761
151	0x3d605fb0	0.054778755
152	0x3d318ee8	0.043349177
153	0xbc81b55d	-0.015833551
154	0x3c613e30	0.013747737
155	0x3cc9d4c9	0.024637597
156	0x3d475a8d	0.04867034
157	0x3d322363	0.04349078
158	0x3c8965df	0.016772209
159	0xbae3823e	-0.0017357541
160	0xbbb88b52	-0.0056318427
161	0xbd86194a	-0.06547792
162	0x3cf23e51	0.02957073
163	0x3d76aa25	0.060220856
164	0x3b9d8acf	0.004807807
165	0x3d39fb7e	0.045405857
166	0x3d64c759	0.055854175
167	0xba9d1b3f	-0.0011986269
168	0xbd73ca30	-0.059518993
169	0xbccae18e	-0.024765756
170	0xbcd28368	-0.025697425
171	0x3d202674	0.03909917
172	0xbb95db9a	-0.0045732977
173	0x3c675fe6	0.014121985
174	0x3c8f9d94	0.017531194
175	0xbd700d3a	-0.058606364
176	0xbcf31abc	-0.029675834
177	0xbbf931ba	-0.007604805
178	0xbc3bd3ce	-0.011464072
179	0xbd65c30e	-0.05609422
180	0xbcf7d988	-0.030255094
181	0x3d228525	0.039677758
182	0xbd1b2ccb	-0.037884515
183	0x3d16d422	0.0368234
184	0x3cab0e04	0.020880707
185	0x3cdf6f84	0.027274854
186	0xbd1a0bea	-0.03760902
187	0x3d1bf479	0.038074944
188	0x3c837b7c	0.016050093
189	0xbd22d8e4	-0.039757624
190	0xbc4ef5ad	-0.012631816
191	0xbcf7d2ed	-0.030251944
192	0x3d2fb1d0	0.042894185
193	0xbd82683a	-0.06367536
194	0xbd4d17b8	-0.050071448
195	0x3a2b469e	0.0006533655
196	0xbd232306	-0.039828323
197	0xbd7a0722	-0.06104196
198	0xbc82b539	-0.015955554
199	0xbc02e7e2	-0.0079898555
200	0xbd2387bd	-0.039924372
201	0x3b960733	0.004578495
202	0xbcf016f2	-0.029307816
203	0x3d12e8db	0.0358666
204	0xbc75c320	-0.015000135
205	0xbbe7aef9	-0.007070419
206	0x3c4203f0	0.011841759
207	0x3c661c31	0.014044807
208	0xbd8343dc	-0.064094275
209	0xbce15f1a	-0.027511168
210	0xbcefb306	-0.02926017
211	0xbd5ff58d	-0.054677535
212	0x3c5195f5	0.0127921
213	0xbc85aac2	-0.016316775
214	0xbcd57427	-0.026056362
215	0xbb61fd55	-0.0034483273
216	0xbd087667	-0.033316042
217	0xbca0642d	-0.019579018
218	0xbd4e6cde	-0.050396793
219	0xbae691a7	-0.0017591015
220	0x3d1ecad6	0.03876766
221	0xbcf6101a	-0.030036975
222	0xbc8601ff	-0.016358374
223	0xbd1744c7	-0.036930826
224	0xbd268349	-0.040652547
225	0xbd4f2319	-0.05057058
226	0xbcc2b25d	-0.02376669
227	0x3d0c0add	0.034190048
228	0x3d04ad7b	0.032392006
229	0xbc57152d	-0.013127607
230	0xbd69aeea	-0.057051577
231	0x3b3b7118	0.0028601345
232	0xbcfbfcd9	-0.030760216
233	0xbc5b71a2	-0.013393791
234	0xbc5f44e1	-0.013627262
235	0xbd547227	-0.051866677
236	0x3acbade9	0.00155395
237	0x3cb9b04f	0.022667078
238	0xbca21ad4	-0.019788183
239	0xbd38e7cf	-0.045142945
240	0x3c17178d	0.009221924
241	0xbd32c2d9	-0.043642852
242	0xbd6bbb9e	-0.057551973
243	0xbcd4edf8	-0.025992379
244	0xbd4aed9f	-0.04954302
245	0xbd59d0a6	-0.0531775
246	0x3c97d1db	0.018532684
247	0x3d3431e1	0.04399288
248	0xbd767351	-0.060168568
249	0xbc60493a	-0.013689334
250	0x3c8bc28b	0.017060539
251	0xbd58ea24	-0.05295767
252	0xbcfb45b1	-0.03067288
253	0xbc6a6028	-0.014305152
254	0xbd3a03f6	-0.045413934
255	0xbcc3ffc4	-0.02392567

bias f4 [128]
0	0x3cd1196d	0.02552482
1	0x3d949bd7	0.072562866
2	0xbb5a7e2d	-0.0033339367
3	0xbd1272cd	-0.035754014
4	0x3b6098d0	0.003427077
5	0xbd11c56e	-0.035588674
6	0xbbe617a9	-0.0070218635
7	0xbcc434a6	-0.023950886
8	0xbda6c1db	-0.08142444
9	0x3c5b4ae9	0.013384559
10	0xbd878ed4	-0.06619039
11	0x3de3003c	0.11084029
12	0xbcffc88a	-0.031223554
13	0xbd0438c1	-0.032280687
14	0x3dd5a617	0.1043207
15	0xbda6d5c0	-0.08146238
16	0xbc8ea106	-0.017410766
17	0x3c8389f1	0.016056987
18	0x3d4fa329	0.05069271
19	0x3c5957fb	0.013265605
20	0xbda3ad6a	-0.079920605
21	0x3c2d7610	0.01058723
22	0x3d16ca0f	0.03681379
23	0x3dc23cfb	0.09484287
24	0xbd2cb7cd	-0.042167474
25	0x3dc76e2c	0.097378105
26	0x3d6297fb	0.05532072
27	0x3c9daa8f	0.019246368
28	0x3cce9c33	0.025220966
29	0xbc889afe	-0.016675469
30	0x3c9e0b4e	0.0192925
31	0xbd2bb413	-0.04191978
32	0x3c1a710f	0.009426369
33	0x3d9b5e5f	0.07586359
34	0xbd8c73a9	-0.06857998
35	0xbd949a2c	-0.072559685
36	0x3d20d379	0.039264176
37	0xbce408ca	-0.027836222
38	0x3dce6c6c	0.100792736
39	0x3d5546a2	0.052069314
40	0xbd935670	-0.07194221
41	0x3d12aad8	0.03580746
42	0xbd9414cb	-0.072305284
43	0x3bcad116	0.006189476
44	0xbd12f1d3	-0.035875153
45	0xbd8dfd61	-0.06933094
46	0xbc1e58ec	-0.009664755
47	0xbd82a84b	-0.063797556
48	0xbcaf2a09	-0.021382349
49	0xbcadad4d	-0.0212008
50	0xbd2b6d41	-0.04185224
51	0xbd9472ab	-0.07248434
52	0xba2b7833	-0.00065410434
53	0x3d31c418	0.0433999
54	0x3c824c97	0.015905662
55	0xbd346fb1	-0.04405183
56	0x39f6db58	0.000470842
57	0xbbbd37a5	-0.0057744556
58	0xbd6ee39d	-0.058322538
59	0xba858129	-0.0010185587
60	0x3ca1e6a7	0.019763304
61	0x3daec4d1	0.085336335
62	0xbb9860c8	-0.004650209
63	0xbd4e3dcc	-0.050351903
64	0x3cffe8a7	0.031238867
65	0x3cb997cb	0.022655388
66	0xbd8e9b95	-0.06963269
67	0x3d4169e4	0.047220126
68	0x3ceeb6aa	0.029139835
69	0x3d447e0a	0.047971763
70	0xbcab7e72	-0.020934317
71	0x3d08191f	0.033227082
72	0x3c0ebff5	0.008712758
73	0xbd357fbd	-0.044311274
74	0x3d93e161	0.07220722
75	0xbd8f7117	-0.07003992
76	0xbc1d45a8	-0.009599127
77	0xbd77a352	-0.06045849
78	0xbcaa49c9	-0.020787137
79	0xbd91ba6a	-0.07115634
80	0xbd905666	-0.07047729
81	0x3c45952c	0.012059491
82	0x3d4da880	0.050209522
83	0xbc64e7b7	-0.013971261
84	0xbd683d1e	-0.05669891
85	0xbcf0314e	-0.029320385
86	0xbd253b82	-0.040339954
87	0x3dc375f4	0.09543982
88	0x3d0384d8	0.03210911
89	0x3c9b1ec4	0.018935569
90	0xbd8648ed	-0.06556878
91	0xbd8cce74	-0.06875315
92	0x3db6628f	0.08905517
93	0x3db5c5d3	0.088756226
94	0x3d8f847d	0.07007692
95	0x3d75cfc2	0.060012586
96	0x3b944ea3	0.004525976
97	0xbd8e7d30	-0.06957471
98	0xbd669561	-0.056294803
99	0xbc0319e3	-0.008001777
100	0x3b0c3fe8	0.0021400396
101	0xbd46fa93	-0.04857881
102	0xbd6099a0	-0.05483401
103	0x3cdf9f2a	0.027297575
104	0xbd5539c8	-0.052057058
105	0xbd1a6bb1	-0.03770036
106	0xbdfdb44c	-0.123879045
107	0x3dc7d112	0.09756674
108	0xbd3a7aee	-0.04552739
109	0xba0be669	-0.0005336763
110	0xbd34e0a0	-0.04415953
111	0xbda1d68b	-0.07902249
112	0xbc09e098	-0.008415364
113	0xbd95e44b	-0.07318934
114	0x3d0dd6e3	0.03462876
115	0x3d366d10	0.044537604
116	0xbdb70f1f	-0.08938431
117	0x3d31811a	0.04333601
118	0x3dba4943	0.09096005
119	0xbd59b6df	-0.053152915
120	0x3cc77222	0.024346415
121	0x3d964cbc	0.07338855
122	0xbc6247cd	-0.013811064
123	0x3d3d0786	0.046149753
124	0x3d90eb70	0.07076156
125	0x3bc6d392	0.0060677016
126	0x3d142adc	0.036173686
127	0xbc9b38d3	-0.018947994

weight f4 [60, 128]
0	0x3d02f421	0.0319711
1	0xbdf17b5b	-0.11791106
2	0xbd0692a4	-0.03285469
3	0x3d490455	0.049076397
4	0x395f681c	0.00021305721
5	0xbd0bc776	-0.034125768
6	0xbcdc2077	-0.02687095
7	0xbd7b6678	-0.06137702
8	0xbceb8c97	-0.028753562
9	0xbd93de6d	-0.07220159
10	0x3d3f30d9	0.046677444
11	0x3d46a5e6	0.048498057
12	0xbd581b1f	-0.05276024
13	0x3d1c489f	0.038155194
14	0x3d98d0fa	0.07461734
15	0x3d1e3f0e	0.038634352
16	0xbd333630	-0.04375285
17	0x3cabcb2b	0.020970901
18	0xbdcd6286	-0.100285575
19	0xbd1b5e4b	-0.03793172
20	0xbc329af4	-0.0109012015
21	0x3b5f12ac	0.003403823
22	0x3d3e2762	0.046424277
23	0x3d8b615b	0.068056785
24	0x3d8a80da	0.06762858
25	0x3e05d24b	0.13068502
26	0x3bbca32c	0.0057567563
27	0xbbaf5ab8	-0.0053513907
28	0xbc67e7ea	-0.014154414
29	0xbce7113a	-0.028206456
30	0xbc46b085	-0.0121270465
31	0x3d70fb24	0.058833256
32	0xbce01eab	-0.027358374
33	0x3bb199a4	0.0054199267
34	0xbe08fd3e	-0.13377854
35	0xbbe36e62	-0.006940649
36	0xbca63d86	-0.020293009
37	0xbd8724aa	-0.0659879
38	0x3de96efa	0.1139812
39	0x3d1af0ee	0.037827425
40	0xbbdbfc21	-0.0067134057
41	0x3cb4968e	0.022044446
42	0xbd7772c5	-0.060412187
43	0xbcda4b24	-0.026647158
44	0x3e67a3f4	0.22621137
45	0xbc57a39f	-0.013161569
46	0xbdbb0afc	-0.091329545
47	0xbd1aeabd	-0.03782152
48	0x3dac3c7c	0.08409974
49	0x3ccfb160	0.025353134
50	0x3c7b3307	0.01533199
51	0x3d0085e8	0.031377703
52	0xbd4b6524	-0.049657002
53	0x3d5c472e	0.05377882
54	0xbd3ecb2f	-0.04658049
55	0xbd15ad28	-0.036542088
56	0xbd35d9ad	-0.044397045
57	0x3b87b983	0.0041419878
58	0xbcc970df	-0.024589954
59	0x3d69f42b	0.057117622
60	0xbdc89988	-0.09794909
61	0x3b1a5783	0.0023550696
62	0xbd4b4d76	-0.04963442
63	0x3d94a724	0.07258442
64	0xbd24eba1	-0.040263776
65	0xbc5b51f2	-0.0133862365
66	0x3cbe32bd	0.023217553
67	0x3cc5368e	0.024073865
68	0xbcf3cf00	-0.029761791
69	0xbdb04fcc	-0.0860897
70	0xbc342e4a	-0.010997364
71	0xbd14f337	-0.03636476
72	0xbd951efa	-0.07281299
73	0x3db2518e	0.087069616
74	0x3d0cd751	0.03438503
75	0xbd8e0165	-0.0693386
76	0xbd360944	-0.04444243
77	0xbc05711f	-0.008144646
78	0x3d6104b0	0.05493611
79	0xbcc60a15	-0.02417473
80	0x3d8cb087	0.068696074
81	0xbbeb05e4	-0.007172333
82	0xba13f65d	-0.0005644316
83	0xbd0e345a	-0.034717895
84	0xbd3beefa	-0.045882203
85	0xbad311e5	-0.0016103355
86	0xbd9e8280	-0.07739735
87	0x3d518574	0.05115266
88	0xbd2532ac	-0.040331528
89	0xbd433f98	-0.04766807
90	0x3d2cab2f	0.04215544
91	0x3c818763	0.015811628
92	0x3da914a3	0.08255889
93	0xbaca9699	-0.0015456259
94	0x3dbffb50	0.09374106
95	0x3c8cfe2a	0.017211039
96	0x3d511d3a	0.051053263
97	0x3e41aedd	0.18914361
98	0x3d8fc026	0.07019071
99	0xbbe51d6e	-0.0069920337
100	0x3daa76a3	0.083234094
101	0xbe0a195d	-0.13486238
102	0x3d99515f	0.074862234
103	0x3d5cbfaa	0.053893723
104	0x3d4344d1	0.04767305
105	0x3aff4f11	0.001947852
106	0xbdd133dd	-0.1021497
107	0x3d986470	0.07441032
108	0xbc9062da	-0.017625261
109	0x3d9aad80	0.07552624
110	0x3e1e7592	0.15474537
111	0x3d4b06ff	0.04956722
112	0x3a140bc9	0.0005647508
113	0x3d06d0b6	0.032913886
114	0xbd64656a	-0.05576078
115	0xbcdd9fdf	-0.027053772
116	0xbcccd155	-0.025002161
117	0x3d0afe17	0.033933725
118	0x3d1cd47c	0.03828858
119	0xbd8f79e7	-0.07005673
120	0x3c9edc25	0.019392082
121	0x3d62720c	0.055284545
122	0x3b8dbddd	0.004325612
123	0xbdc7fb41	-0.0976472
124	0x3cc0d3d3	0.023538506
125	0x3debf112	0.1152059
126	0x3ce3bc37	0.027799709
127	0xbcb3684e	-0.021900322
128	0xbda35195	-0.07974545
129	0xbd84b801	-0.064804085
130	0xbcd1f75e	-0.02563065
131	0x3d0c4ca4	0.034252778
132	0xbc77531a	-0.015095497
133	0x3d1e50bf	0.038651224
134	0x3c141bf6	0.0090398695
135	0xbd321637	-0.043478217
136	0xbdb5222a	-0.08844407
137	0xbd3dc6ce	-0.046332173
138	0xbb8a29fc	-0.0042164307
139	0xbda6d199	-0.08145446
140	0xbe062394	-0.1309951
141	0xbce98ebf	-0.02851045
142	0x3c5b2166	0.013374662
143	0xbd998deb	-0.07497772
144	0x3d96882a	0.0735019
145	0x3db91612	0.09037413
146	0x3dee03db	0.11621829
147	0xbec6ce4d	-0.3882927
148	0x3cffea01	0.031239511
149	0xbe5e7713	-0.2172511
150	0x3d503736	0.050833903
151	0x3dad970c	0.084760755
152	0x3c71679f	0.014734178
153	0xbd3de3a7	-0.046359684
154	0xbe0f8b2b	-0.14017932
155	0x3e6bd1f6	0.23029312
156	0xbd84013a	-0.064455464
157	0xbe8751b1	-0.26429513
158	0x3dba312c	0.0909141
159	0x3d9eb9f1	0.07750309
160	0x3e15e13b	0.146367
161	0x3d013d71	0.031552736
162	0x3dcc7176	0.099825785
163	0x3d5d2d3c	0.053998217
164	0x3d80f0c5	0.06295923
165	0x3ca7fc33	0.020506
166	0xbccc9c91	-0.024977
167	0x3dcc23c5	0.0996776
168	0x3c1b0841	0.009462417
169	0xbd6ad59e	-0.057332627
170	0x3a7c52c7	0.0009625372
171	0x3bb114ca	0.0054040896
172	0xbc58612e	-0.013206763
173	0x3d94eb14	0.072714
174	0xbdae7b32	-0.085195914
175	0xbc2efb16	-0.010679981
176	0xbd220473	-0.039555024
177	0xbce0fd1d	-0.027464444
178	0x3d7dbc99	0.06194744
179	0xbc30d1b8	-0.010792188
180	0x3e18932d	0.14899893
181	0xbc9c321e	-0.019066866
182	0xbd85e0f2	-0.065370455
183	0xbe75cfdc	-0.24005073
184	0x3daa3fe2	0.08312966
185	0xbd13d980	-0.036096096
186	0x3c16f6a5	0.009214078
187	0x3d166c49	0.036724363
188	0x3c88e96b	0.016712865
189	0x39d9c5e2	0.000415369
190	0xbe06f518	-0.13179433
191	0x3bc97cd1	0.0061489125
192	0x3bba7631	0.005690359
193	0xbd9640dd	-0.073365904
194	0x3dad015c	0.08447525
195	0xbc71ac15	-0.0147505
196	0xbbafecf3	-0.0053688227
197	0xbc1e7ee0	-0.009673804
198	0xbd6ee8e7	-0.05832758
199	0x3e0d905d	0.13824601
200	0x3aa75d5c	0.0012768912
201	0x3cc124d8	0.023577139
202	0x3d0adac5	0.03390004
203	0x3dc9010f	0.09814655
204	0xbcc41353	-0.023934996
205	0x3e1022d6	0.14075789
206	0x3d909899	0.07060356
207	0x3d9ce269	0.07660372
208	0xbd8df17a	-0.069308236
209	0x3e2c3915	0.1681865
210	0x3d58e58b	0.052953284
211	0x3db7a9f2	0.08967961
212	0x3d63f237	0.055650916
213	0x3e55a7fa	0.20864859
214	0xbc9e3fdc	-0.01931756
215	0x3d03be36	0.03216382
216	0x3d22bc27	0.039730217
217	0x3ca31a1a	0.019909907
218	0xbd128700	-0.035773277
219	0xbd8daa17	-0.06917208
220	0x3b6637a0	0.003512837
221	0x3e0859c2	0.1331549
222	0x3ce12b3a	0.027486432
223	0xbe1207ad	-0.1426074
224	0x3d183c60	0.037166953
225	0x3e2796c3	0.16366105
226	0x3da5fcb9	0.08104844
227	0x3cbe18ae	0.023205128
228	0xbc241a72	-0.010016071
229	0x3d204e36	0.039137088
230	0x3cf453d1	0.029825123
231	0x3d8f0af1	0.06984509
232	0xbe65f3bd	-0.2245626
233	0xbdc418b7	-0.095750265
234	0xbcd679d8	-0.026181147
235	0xbc83d9af	-0.01609501
236	0x3e501e4d	0.20324059
237	0xbf007f91	-0.5019465
238	0x3d19cda4	0.03754963
239	0xbf0df0cb	-0.55445546
240	0xbbf60ce6	-0.007508862
241	0xbd73135d	-0.05934464
242	0x3c1e24e2	0.009652348
243	0xbba76587	-0.0051085385
244	0xbd48088b	-0.048836272
245	0xbdc1a084	-0.09454444
246	0xbd97f9f6	-0.07420723
247	0x3e2c565f	0.16829823
248	0x3caa3b1f	0.020780144
249	0xbd05cdb1	-0.032666866
250	0xbc71713b	-0.014736469
251	0x3e2ac943	0.16678338
252	0x3cac8549	0.021059649
253	0x3e2165c0	0.15761471
254	0xbd994c97	-0.074853115
255	0x3e7b0a7c	0.24515718

bias f4 [60]
0	0x39a95183	0.00032294923
1	0x383c5e9a	4.4910797e-05
2	0x39801fdc	0.000244378
3	0x36b73f41	5.4611887e-06
4	0x39eed353	0.00045552346
5	0xb84d5753	-4.8957136e-05
6	0x399b0144	0.00029564847
7	0xb79a92d8	-1.842661e-05
8	0x397a8e4a	0.00023894865
9	0xb8865056	-6.404582e-05
10	0x39c0ad63	0.00036750277
11	0xb855767f	-5.0893515e-05
12	0x398552fd	0.00025429568
13	0x388f80ca	6.84276e-05
14	0x39854c83	0.00025424742
15	0x3802d043	3.1188374e-05
16	0x395a7021	0.00020831871
17	0x365726ff	3.2060195e-06
18	0x39da18ac	0.00041598582
19	0x38e534de	0.00010929418
20	0x39bd8652	0.00036148966
21	0x38b9dd04	8.862655e-05
22	0x39c41928	0.00037402776
23	0xb72e5464	-1.0390857e-05
24	0x39924dcf	0.00027905262
25	0x38e8bf49	0.00011098252
26	0x39ab5798	0.00032680924
27	0x38999740	7.323781e-05
28	0x39d2b4e4	0.00040189095
29	0x38507bc5	4.9706334e-05
30	0x39bc44b0	0.0003590933
31	0xb81294a4	-3.4947545e-05
32	0x394efcbf	0.00019739846
33	0xb767b20b	-1.3810127e-05
34	0x385cba98	5.2625866e-05
35	0x37002b1d	7.639433e-06
36	0x39424fce	0.00018531011
37	0xb86db358	-5.667223e-05
38	0x39ad1d97	0.00033019177
39	0xb8d20be7	-0.00010015797
40	0x39659b69	0.00021897037
41	0xb892ed85	-7.006064e-05
42	0x38e24110	0.000107886386
43	0xb8a6e78e	-7.958627e-05
44	0x3968ed23	0.00022213584
45	0xb7a86d74	-2.0078129e-05
46	0x387294b5	5.783579e-05
47	0xb8fc335c	-0.00012025863
48	0xb626a82d	-2.4833819e-06
49	0x384e14fa	4.9133763e-05
50	0x370d2f44	8.41526e-06
51	0xb780333a	-1.5282643e-05
52	0x384bd61f	4.8598387e-05
53	0xb680f972	-3.8437365e-06
54	0x390d570f	0.0001347924
55	0x37d93c22	2.5896417e-05
56	0x395910af	0.00020700948
57	0x38296cc2	4.039403e-05
58	0x395d4b0c	0.0002110416
59	0xb83cea28	-4.5040768e-05
