linearPredictionModels/db39/small/validation_wholeNetPrototype5_Epochs20_ValidationLoss:14.887345_lr:0.0003__2023_07_14_10:09:32.pth (torch, 425705 bytes, 4 tensors)

weight f4 [512, 145]
000000 10 8c 94 bc 34 cc 09 3d 1b fe ac 3d ea f4 87 bd
       -0.018133193 0.03364201 0.08446904 -0.066385105
000010 8c be ff 3c c4 4c c1 bc 4b 83 d6 3c 77 f5 52 3d
       0.03121879 -0.023596175 0.026185652 0.051503625
000020 72 81 11 3d 36 13 9b 3d 6e 06 4d 3d dd 25 01 bc
       0.03552384 0.075720236 0.05005496 -0.0078825625
000030 c5 00 7f 3d 77 e7 97 3c 10 ae 90 3d 61 2f 5c 3d
       0.062256593 0.018542988 0.0706445 0.05375612
000040 65 6b 86 3b 48 ee ac 3d df 59 59 36 ac 63 85 3d
       0.004102158 0.08443886 3.2387832e-06 0.065131515
000050 6d 8f c0 3d 65 a8 7f bd 37 b4 d3 bd 99 4c ac bc
       0.09402356 -0.062416453 -0.10337108 -0.021032618
000060 35 c0 dc bc b9 30 45 3d 23 b6 cf 3b fc 91 70 3d
       -0.02694712 0.04814217 0.006338851 0.05873297
000070 6c 1b 8b bd af e0 37 bb ef e5 33 bd e6 b2 86 bb
       -0.0679234 -0.0028057506 -0.043920454 -0.004110682
000080 04 ce 06 bd 1c 70 ed 3b 43 88 e5 bc 2a 7a 65 bd
       -0.032911316 0.0072460305 -0.028019076 -0.056024708
000090 ee ec 2b 3d 8f 72 55 3c 49 b5 6c b8 fe 57 41 3d
       0.041974 0.013027801 -5.643562e-05 0.047203057
0000a0 3d 64 db bc 06 8b b7 bd 59 a1 99 3d 9e 18 7e 3d
       -0.026781196 -0.089620635 0.07501478 0.062035196
0000b0 10 cd 33 bd 32 3c 89 3d 1d 49 27 3d 3d 4b 75 bd
       -0.043896735 0.067009345 0.04084121 -0.059886206
0000c0 a0 7e d5 3d 5f 09 02 3d 96 ff 90 bd ab 3b a7 3b
       0.104245424 0.03174722 -0.07079999 0.0051035485
0000d0 cb de 64 bd 78 44 3b 3d 25 cc 0a 3d 18 38 3a bd
       -0.055876534 0.045719594 0.033886094 -0.04546365
0000e0 e3 e3 8f bd 13 c9 15 bc 3a 63 1d 3c 48 e8 36 3d
       -0.07025888 -0.009142178 0.009606177 0.044655114
0000f0 e3 dc 6f 3d 32 e6 51 bd 15 d3 b9 bc 23 d6 3b 3d
       0.058560263 -0.051244922 -0.02268366 0.045858514
000100 66 3c 08 be 2c a4 12 3d b9 dc 92 3d 30 eb 35 bc
       -0.1330429 0.035801098 0.07171006 -0.011103436
000110 92 77 2f 3c eb 2a bb 3d fc a2 93 bd 66 cb 87 bc
       0.01070966 0.09139045 -0.07208821 -0.01657648
000120 18 50 a0 bd 0c b4 19 bd 56 4e ef bb 67 50 99 3d
       -0.07827777 -0.03752522 -0.0073030395 0.07486039
000130 bb a2 76 3d 22 74 b8 3d 1e f5 4f bd ef 1f 09 bd
       0.060213786 0.090065256 -0.05077087 -0.03347772
000140 a1 60 49 bd f7 8f db 3c 1d 82 5f bc e7 82 b8 3b
       -0.049164418 0.026802046 -0.013641861 0.005630839
000150 5a 8d d9 3c a7 42 4c 3d 64 1f 81 3c 75 20 eb bc
       0.02655666 0.049868252 0.015762039 -0.028702
000160 14 a9 90 3c 5b f0 38 bc ae 73 c7 bb 35 db 19 3d
       0.017658748 -0.011287774 -0.006086788 0.037562568
000170 8c 05 21 3c 5b ab 23 3d 55 f5 c4 3c 0d 4d 32 bd
       0.009827983 0.03995834 0.024042765 -0.043530513
000180 2e 99 3d 3b 0f b4 7a bc 7f 90 cd 3c 3a 1f 53 bc
       0.0028930414 -0.015301718 0.025093315 -0.012885863
000190 39 7e a1 3c d4 c6 14 3d 31 c2 84 3d 0a 4a 10 3d
       0.019713508 0.03632243 0.064823516 0.03522686
0001a0 8e 6a a1 3b dc 92 85 bd c6 c8 2c 3d 82 c3 50 bd
       0.0049260324 -0.06522152 0.04218366 -0.0509677
0001b0 bf 65 86 3d f4 99 22 bd 76 8a 59 bd 03 4c 46 bb
       0.06562375 -0.039697602 -0.053110562 -0.003025771
0001c0 cc 53 32 3d ae a4 4f 3d 2b 95 dc bb d0 db 69 bc
       0.043536946 0.05069416 -0.0067316494 -0.014273599
0001d0 54 21 4b 3d 71 25 83 bc 9b 24 8c 3d 70 f5 ba bc
       0.04959233 -0.016009064 0.068429194 -0.022822112
0001e0 8c 44 37 3c 51 b9 ac bb ad 46 71 bd 5c e2 74 3d
       0.011185776 -0.005271115 -0.058905292 0.059786186
0001f0 f6 3b 7d ba 40 a4 66 3d 7e f6 96 bd 40 3d 67 3d
       -0.0009660119 0.056308985 -0.073712334 0.056454897
000200 38 d5 95 3d 30 69 59 bd a8 2e bb 3c c7 4a 6c bd
       0.07316059 -0.05307883 0.022849396 -0.0576885
000210 e3 da 2e 3c 8e 69 20 3d 95 59 eb 3b 19 bb d0 3c
       0.010672304 0.039163165 0.00718231 0.02547984
000220 67 ea 8a bd 1c 38 8b 3c 09 0c 90 bd ba 9d 78 bc
       -0.0678299 0.016994528 -0.070335455 -0.015174324
000230 0f cb ed bc 11 24 67 3d 12 5d 70 3d cc 1f a1 bc
       -0.02902749 0.05643088 0.05868251 -0.019668482
000240 d7 e9 8a bd 83 b5 cb 3d 23 fc 11 bd fb ce 82 bd
       -0.06782883 0.0994673 -0.035640847 -0.06387135
000250 db 31 30 3d d2 63 02 3d 50 ce 21 3d 2e 39 6d 3b
       0.043016296 0.031833477 0.039503396 0.0036197412
000260 d1 34 0d 3d d9 a9 24 3d dc eb 2a 3d 6f f5 3c 3d
       0.034474198 0.04020104 0.04172884 0.0461325
000270 f8 3d e5 bc 9e f2 7d 3c ab 63 b8 bd 83 8e b8 3d
       -0.02798365 0.015499739 -0.09003385 0.09011557
000280 f2 48 fe bb cb fd c9 3c 8f 22 50 ba 55 eb d5 3c
       -0.0077601606 0.02465715 -0.000793972 0.026113192
000290 58 5f 7b bd 7e 92 8c bd d6 f5 a2 bc 65 6c da bd
       -0.061370224 -0.06863879 -0.019892614 -0.10665206
0002a0 20 a1 9f 3d 2d 56 a9 3d 60 4d 5a 3d fa ea 30 3d
       0.07794404 0.0826839 0.053296447 0.04319284
0002b0 3e 10 1a 3c 11 66 f5 ba 84 87 bc 3c c4 e9 07 3d
       0.0094032865 -0.0018722435 0.023013838 0.03318192
0002c0 5f 8d 80 bc e3 87 a3 3d c7 12 3f 3d 22 5e d3 bd
       -0.015692411 0.07984903 0.046648767 -0.10320689
0002d0 df 77 1a bd c5 83 32 bc 20 3e db 3c 90 61 62 bc
       -0.037711974 -0.010895674 0.026763022 -0.013817206
0002e0 1d 7c f6 3c 3f 30 20 bd 93 e0 47 3d c0 74 29 bd
       0.030088479 -0.03910851 0.048798155 -0.041371107
0002f0 d3 6f fd bc f8 c4 a0 bc 75 93 b1 3c 14 9e 58 3d
       -0.030937111 -0.019625172 0.021676758 0.05288513
000300 8c 68 cc bd c9 4b 8e 3b 68 10 90 bc 61 42 1e bd
       -0.09980878 0.0043425304 -0.017585948 -0.038637523
000310 e4 b2 65 bd 69 c9 39 bd 4c b6 61 bc 20 f4 98 3d
       -0.056078807 -0.045358095 -0.013776373 0.07468438
000320 3b 27 77 bd 03 c3 1a 3d c0 56 e0 3d 8d d2 af 3c
       -0.060340147 0.037783634 0.10954046 0.021462703
000330 82 b8 55 3c 68 90 6a bd 55 ef 01 3d d0 bb 80 bb
       0.013044478 -0.057266623 0.031722385 -0.003928639
000340 05 ef 61 bb bb 57 0c be c3 2e 0f 3d 45 f8 46 3d
       -0.0034474742 -0.13705342 0.034956705 0.048576612
000350 8d 0a ca bc 94 17 ca bd 2a 25 33 bd b1 93 b5 bc
       -0.024663234 -0.098677784 -0.043736614 -0.022165151
000360 8c 1a 26 bd 4c ce 74 3c df 42 ee 3b 55 81 e4 bc
       -0.04055266 0.014941763 0.0072711552 -0.027893702
000370 19 35 d8 bc 93 cc 04 bb 44 10 1f bd af 2b b5 bc
       -0.026392506 -0.0020263537 -0.03883387 -0.022115557
000380 a3 de 8a bc cc 6f a6 bc cf 03 bb 3c 37 2d 73 3d
       -0.016951865 -0.02031698 0.022828965 0.059369292
000390 d4 79 5f 3d d2 39 83 bc a6 9b 57 bd 69 0e 0a 3c
       0.054559544 -0.016018782 -0.052638672 0.008426287
0003a0 ff 50 42 bc 95 b3 ed bc 04 49 ca bc 53 52 07 bd
       -0.011860131 -0.029016295 -0.02469302 -0.033037495
0003b0 a4 0b 4f bd 08 04 ba bd ac 97 dd bc 35 fc fd 3c
       -0.05054821 -0.090828 -0.027049862 0.03100405
0003c0 c6 ac 32 bd 33 94 26 3b 2a 3d a6 bc 10 19 39 bb
       -0.0436218 0.0025417923 -0.020292837 -0.0028243698
0003d0 35 6a 34 bd 36 19 d5 3b 1b 17 0e bd 39 39 0b 3d
       -0.0440466 0.0065032495 -0.034690004 0.03399012
0003e0 0c 4e 75 3c 8e 4c 6a 3c f4 e4 e0 b9 68 ec 8e 3c
       0.014972221 0.014300479 -0.00042895193 0.017446712
0003f0 d6 9b 63 bd d3 b8 8e bd 3a 01 15 bd 11 88 42 3d
       -0.05556854 -0.06968846 -0.036378123 0.047493044

bias f4 [512]
000000 9e bf df 3c 5a 9a ff 3c 20 13 52 bc 46 37 20 bd
       0.02731305 0.03120153 -0.012821943 -0.039115213
000010 d9 36 d3 bd b5 da 41 bd 1e 6c 36 bb 17 fa ab 3d
       -0.10313196 -0.047327716 -0.002783544 0.0839731
000020 5a f6 0d be 5f 3a 3a 3d bf cb e7 3c f7 e8 87 3d
       -0.13863507 0.045465823 0.028295396 0.066362314
000030 91 67 3a bc 04 80 63 bd 4f b4 bc bd 61 f8 a9 bd
       -0.011377231 -0.055542007 -0.09214079 -0.08299328
000040 16 df 35 3d c6 28 23 bd ad f1 36 3d c1 fd cd 3d
       0.044402204 -0.039833806 0.044664074 0.10058165
000050 80 48 9b bd 82 b2 5f 3d 09 95 77 bd b5 f8 8b bd
       -0.07582188 0.054613598 -0.060444865 -0.068345465
000060 d0 6d a1 3d 2a 2c 1d bd d9 28 97 3c 08 1f 87 bd
       0.07882273 -0.038372196 0.018452095 -0.065977156
000070 a6 96 8e bd 05 0f 5e bd c1 11 7a bc 07 7e f2 3c
       -0.06962328 -0.054213542 -0.015263022 0.02960111
000080 46 0e 52 3c ca 27 ac bd 3e f9 47 3d e7 4f 88 bd
       0.012820786 -0.08406027 0.04882168 -0.06655865
000090 5c dc c1 bd d6 04 1c bc 0e be bc 3c 0d 61 18 3d
       -0.09465858 -0.009522637 0.023039844 0.03720193
0000a0 d6 65 8e bd c5 ad 11 3c 6f fe f0 bc a8 4a 21 bd
       -0.069530174 0.008891528 -0.029418198 -0.03937784
0000b0 0f e5 97 bd f5 db 9b bc 69 fd 60 3d 2a a2 6d 3d
       -0.07416736 -0.019025782 0.05492917 0.05801598
0000c0 0a 6c 8b 3c dc 93 73 bc 24 19 a7 3d c2 34 59 3d
       0.01701929 -0.014866795 0.08159092 0.05302883
0000d0 c8 7d c9 bc be 37 3c 3c 21 44 43 3d 27 de b8 3d
       -0.02459611 0.011487899 0.047672395 0.09026747
0000e0 d5 5b b7 bd 4e f6 a7 bd 7c 8c 88 bd e5 b2 2f 3c
       -0.089530624 -0.08201276 -0.0666742 0.010723804
0000f0 76 70 c1 bd 44 05 9e bd d3 9b 6c 3d b4 4d 30 3d
       -0.09445278 -0.07715848 0.057765793 0.043042853
000100 fc ed 23 bc 47 79 21 bc 70 4f a2 3d 3f 5f 56 bb
       -0.01000547 -0.009855575 0.07925308 -0.003271058
000110 91 21 4a bc 65 fd 98 bd ff a7 07 3d c8 36 4b bd
       -0.012337104 -0.07470206 0.033119198 -0.04961279
000120 33 92 de 3c ab 62 fa bc 9f e6 15 bd 0a b1 57 bd
       0.027169323 -0.030564627 -0.03659689 -0.052659072
000130 d9 ea 97 3d 75 64 03 3d dd c6 05 bd 0a aa c0 bd
       0.074178405 0.032078225 -0.032660354 -0.094074324
000140 2c 0e 8a bd e9 c5 9f 3c 90 b3 57 bc 4f 4e 25 3c
       -0.06740984 0.01950355 -0.01316537 0.010089471
000150 61 17 4f bc d5 95 b5 3c d1 bd c8 bd 73 c9 9f bd
       -0.012639851 0.022166172 -0.098018296 -0.07802095
000160 5d 6d 6e bd d3 b0 ec 3b df b9 b2 bd a4 e9 1f 3d
       -0.058209766 0.0072232275 -0.08726858 0.039041176
000170 f3 a7 10 bd 7c 49 17 3d 64 15 61 bc 46 08 6c bd
       -0.03531642 0.036935315 -0.01373801 -0.057625078
000180 a4 94 6e 3d 62 25 4b 3d 91 76 98 bc 98 e1 83 bd
       0.058247223 0.049596198 -0.018611224 -0.06439513
000190 9e 87 87 bd c3 6c bc 3d 68 26 a5 bd 8a a6 9f 3c
       -0.06617664 0.09200432 -0.08063966 0.019488592
0001a0 50 59 e6 3c 32 44 d6 bc 5f e3 b1 3c 45 7d 48 bd
       0.02811876 -0.026155565 0.021714864 -0.04894759
0001b0 a0 8b a1 bc 22 bb 9d 3d b3 55 d8 bc 39 21 b1 bd
       -0.019719899 0.077017084 -0.026408052 -0.08648915
0001c0 89 30 8e bd 98 35 ad bd 6f 6c 82 bd a4 99 b3 3b
       -0.06942851 -0.08457488 -0.06368338 0.005480962
0001d0 38 6f 07 be 8a 10 84 3d cb e4 c1 3c 45 c2 0b bd
       -0.1322602 0.06448467 0.023668667 -0.034120817
0001e0 70 b7 5b 3d 4c 68 5c 3d b2 df 91 bb 11 c4 94 3b
       0.053641737 0.053810403 -0.0044517154 0.0045399745
0001f0 d8 f4 10 bd 07 ab cf 3a 48 8d 8e bd ef 7c 7c 3d
       -0.03538975 0.0015843817 -0.06960541 0.061642583
000200 0a f6 f6 3a 56 53 80 bd 09 60 01 bc e5 8d 83 ba
       0.0018841636 -0.06265895 -0.007896432 -0.0010036795
000210 c8 bb 71 bc 20 e0 85 bd ff 1b 0f bd 92 f4 86 bd
       -0.014754243 -0.06536889 -0.03493881 -0.06589617
000220 01 a3 8b bd 2d 6e 12 bc fc 8a 24 3d eb ad 00 bd
       -0.068182 -0.008937401 0.04017161 -0.03141586
000230 07 2e a4 3b 2d 7a 4a bd 53 54 9b 3d 4d 06 cf bd
       0.0050103697 -0.049432922 0.07584443 -0.10108624
000240 f7 b2 00 3c 15 44 b2 3c 3e 35 c1 bc 64 f2 8f 3d
       0.007855169 0.02176098 -0.023584958 0.07028654
000250 ad 86 09 bc c6 3d bd 3c fd e8 2b bd b2 f2 6e bd
       -0.008393926 0.023100745 -0.04197024 -0.05833692
000260 5a ac c8 bc 0a 96 fd 3c ad aa df bc a3 9e 8b 3d
       -0.024496246 0.030955333 -0.027303064 0.06817367
000270 80 8f 93 bd ad 05 a6 3c f8 87 09 3d 50 fe 9e 3d
       -0.07205105 0.020266378 0.033576936 0.0776335
000280 12 b4 12 bd eb b2 91 3c 19 d9 01 3d 2d 2f 28 bc
       -0.03581626 0.01778551 0.03170118 -0.010265154
000290 e3 9d 3c 3d e1 95 2e bc 3c 60 79 3b ba f8 97 bd
       0.04604901 -0.010655851 0.0038051745 -0.07420488
0002a0 28 36 93 bd ef 56 b9 bd 6a 7a bf 3d 67 7b 3d bd
       -0.07188064 -0.090497844 0.093495205 -0.046260264
0002b0 f3 62 18 bd a7 80 36 3b 4a 13 a8 3d cf 2c 15 bc
       -0.03720374 0.002784768 0.08206804 -0.0091049215
0002c0 9d e4 dc 3c fd b5 4b bd ac 00 be bd 0c a7 75 bd
       0.02696448 -0.049734104 -0.09277472 -0.05997376
0002d0 02 25 da 3b 49 05 04 3d 23 a3 9a 3d 84 02 9e b9
       0.0066572437 0.032231603 0.07550647 -0.00030137983
0002e0 b5 01 6c 3d 52 79 d8 bc cb 0b 7e 3d c5 97 b1 3c
       0.057618815 -0.026425038 0.062022965 0.021678815
0002f0 db 68 69 bd f3 e5 79 bb c2 b4 ea bc 4d 8b c4 b8
       -0.056984764 -0.0038131445 -0.028650645 -9.371955e-05
000300 83 f3 9d bd 04 3d 83 bc 9f c2 75 3d fd c1 df bb
       -0.07712462 -0.016020305 0.06000006 -0.006828545
000310 86 21 48 3d 68 73 7d bd c4 19 1c bd 7c 49 ae 3b
       0.048860095 -0.061877638 -0.03811051 0.0053188186
000320 fd e0 e2 bc 2f da dd bc 18 a7 c4 bd c7 90 4b bb
       -0.027695173 -0.027081577 -0.09602183 -0.0031061636
000330 16 8f 64 bd cd e1 00 bd 26 80 8f ba 55 99 32 3d
       -0.05580052 -0.03146534 -0.0010948225 0.04360326
000340 c3 2c 60 bc cd d8 7b 3d 2b 94 ad bd 2f 6a bc 3c
       -0.013682547 0.061486054 -0.084755264 0.022999851
000350 e4 ce 88 3d 93 3b 1d bd 09 ac a0 3d 37 f6 3b 3c
       0.06680086 -0.038386893 0.07845313 0.011472276
000360 e0 54 ab bd 9c ec cf bd d1 28 72 3c ac 4d 68 bc
       -0.08365798 -0.101525515 0.014780239 -0.014178675
000370 d6 ce 8c 3d 6d 89 86 bd 0a 07 05 bd 52 8f ea bd
       0.06875388 -0.06569181 -0.032477416 -0.114531174
000380 62 67 ef bb e4 da cf bb f1 c2 bb bd 7d 91 18 bd
       -0.0073060254 -0.0063432325 -0.091680415 -0.037248123
000390 cd 6a 1a 3c 54 04 43 3d 38 89 a6 bd f7 9c 38 bd
       0.009424877 0.04761155 -0.08131641 -0.04507157
0003a0 80 ed 0f bb 8c ff 96 bc 57 10 60 3c 93 dc c7 3b
       -0.002196163 -0.018432401 0.013675771 0.0060992925
0003b0 0a 55 73 bd 56 dd 8c bd 1b 1e 8a bd 2d 2e bd bc
       -0.05940727 -0.06878154 -0.067440234 -0.023093307
0003c0 34 e6 d8 3c 3c 83 65 bd 8f 88 c8 3d 76 5a b7 bc
       0.026476957 -0.056033358 0.097916715 -0.022382002
0003d0 6a 8b ba bd da e0 0a 3d c4 91 99 3d 39 be fc bc
       -0.09108622 0.03390584 0.07498506 -0.030852424
0003e0 bb 13 88 3c 05 7a 44 3d 33 28 1f bc 5a 77 07 3d
       0.01661097 0.04796793 -0.009714174 0.033072807
0003f0 07 69 14 bd ba 03 72 bd c8 48 c4 3d c8 eb b8 bd
       -0.036232974 -0.059085585 0.095841944 -0.09029347

weight f4 [60, 512]
000000 bb 1a 18 3c b5 fc 03 bb 37 f5 5f bc c0 49 10 3d
       0.009283717 -0.0020139639 -0.013669304 0.035226583
000010 37 1b 11 3c 84 81 e6 bc ad 2a 3e 3d 43 5c 54 3c
       0.008856586 -0.02813793 0.046427418 0.01296145
000020 0d 1c 0a 3d a0 8a 30 3c d4 f5 19 3d 87 63 70 bc
       0.033718158 0.010775238 0.037587956 -0.014672167
000030 82 75 f9 bc 70 e7 dc bc dd 97 1c bd db 00 71 bb
       -0.03045154 -0.026965827 -0.038230766 -0.0036774192
000040 88 20 11 bd fd c2 97 bb 89 48 d5 3c 33 11 fd ba
       -0.035431415 -0.0046313987 0.026035564 -0.0019307494
000050 31 a9 21 bd db ee ba 3c 3d 2c 58 3c 3b 21 ba 3c
       -0.039467994 0.022818973 0.013194141 0.022720924
000060 20 d4 69 3c 43 2b a0 3c b1 a8 4f bb 31 66 20 3c
       0.014271766 0.019551879 -0.0031686241 0.009789989
000070 ae 1c be bc f6 80 84 3c 1e 0a a0 bc cc e5 b0 3c
       -0.023207035 0.016174775 -0.019536074 0.02159395
000080 b8 27 04 bd 6f 90 1c bb d7 84 20 bd 65 32 18 bc
       -0.03226444 -0.00238898 -0.039189186 -0.009289359
000090 82 df 94 3b ff 73 21 bc 3d 69 0e 3d 86 bf 00 3d
       0.004543246 -0.009854316 0.03476833 0.03143265
0000a0 e3 8e 9e ba 87 53 94 bc 86 ad 12 bd d9 8e cc bc
       -0.0012097027 -0.018106235 -0.035810016 -0.024970459
0000b0 0c 47 3b 3d 44 70 a7 3c 10 ab 38 3c 2e 70 d8 bc
       0.045722052 0.020439275 0.011271253 -0.026420679
0000c0 4f 49 14 bc 8f 7f c5 3b 13 0d 4c 3b 3e 25 b4 bc
       -0.009050681 0.006027169 0.0031135723 -0.021990415
0000d0 2f 8d a2 39 63 d4 2b bc ab be 01 bd 13 d7 05 3d
       0.00031004238 -0.010487649 -0.031675976 0.032675814
0000e0 3f 14 27 3b be 92 9b bc b0 bf 80 bb 35 e9 40 bd
       0.0025494245 -0.01899087 -0.003929101 -0.047097404
0000f0 c5 4a df b9 0f f7 96 bc 22 93 da bb 5d 99 88 3c
       -0.00042589582 -0.018428354 -0.0066703716 0.016674692
000100 10 93 14 3b 09 fe 07 bd 0b 64 d4 3c ec ec a0 3d
       0.0022670664 -0.03320125 0.02592661 0.07857689
000110 32 fc a3 3c 65 8e f9 bc a1 5e 23 bd 4d e5 0f bd
       0.020017717 -0.030463407 -0.039885167 -0.035130788
000120 97 7e f2 b9 da 14 29 bc 44 f5 65 3c e6 81 ae 3c
       -0.00046252154 -0.010319913 0.014035527 0.021302175
000130 d9 fa 4e 3c ae e7 2e 3d 7f 62 b6 bc 8b 0b d4 bb
       0.012633049 0.042701416 -0.022263763 -0.0064711026
000140 67 92 ae bc 97 a2 68 bc 5d 8c 44 bd 03 f4 b3 3c
       -0.021310044 -0.014198921 -0.047985423 0.02196694
000150 d9 e6 f4 3b d5 e8 e6 bc 4c 97 00 3c ca f2 2e bd
       0.0074738082 -0.028187195 0.007848572 -0.04271201
000160 c5 e1 c4 3c 91 7e 88 bc 7c c6 6a 3c 2c 69 b8 3c
       0.024033437 -0.016661914 0.014329549 0.022511087
000170 2c 03 a3 3c 7e e1 5f bb 20 ce f6 3c 01 56 2a 3d
       0.019898973 -0.0034161503 0.030127585 0.041585926
000180 ab d6 48 3b dc 92 9e 3c 5a 52 01 3d 6e 92 87 3b
       0.003064553 0.019357137 0.031572677 0.004137329
000190 e4 cb 1d bd 77 d1 12 3d e1 79 46 bc 2b 19 4c 3d
       -0.038524523 0.035844292 -0.012114019 0.04982869
0001a0 06 75 a6 3c ca 77 5b bb 2c 73 78 bc ed 5e 73 ba
       0.020319473 -0.0033488148 -0.015164178 -0.00092838594
0001b0 cf 69 9e bc c0 36 f5 bb 25 c1 26 bc 99 c2 ea 3c
       -0.019337563 -0.0074833333 -0.010177885 0.028657245
0001c0 55 bd 5d 3c f4 ee 9e ba 8d 97 cc 3b d6 50 e3 bb
       0.01353391 -0.0012125657 0.006243652 -0.0069371266
0001d0 75 be 8d bc 9c cb bd bc bc 20 e1 bb 68 81 3a 3c
       -0.017302731 -0.023168378 -0.0068703573 0.011383392
0001e0 bc 32 58 3b c5 77 8d bc be 46 68 3c 7f 97 cc bb
       0.0032989224 -0.017269025 0.0141770225 -0.0062436457
0001f0 91 6c ba bc eb 37 f0 3c 91 bf f0 bc f4 d4 5c 3c
       -0.022756847 0.029323539 -0.029388221 0.013478506
000200 cd b1 23 bc 79 a2 a7 3c 88 cb c0 3c 74 ec 86 3c
       -0.0099911215 0.020463215 0.023534551 0.016470172
000210 49 1e c2 3c c1 a1 0e bc f6 5a 1c 3d aa 56 c0 3c
       0.023696082 -0.008705557 0.038172685 0.023478825
000220 94 85 a5 3c e3 36 cc 3c ed f6 ea 3b 78 bc 43 3c
       0.020205297 0.024928516 0.007170549 0.01194679
000230 18 db 0f 3b 5c 08 83 3c cd 15 88 3b df 71 52 bd
       0.0021950658 0.015995197 0.0041529895 -0.051378127
000240 ba 1f 44 3c 43 4f 9b bc a7 f5 d6 3c a8 8b 24 3d
       0.011970455 -0.018958693 0.026240183 0.04017225
000250 a9 d8 9e 3d dc c1 72 bd 1f 47 94 3b 37 68 1c ba
       0.077561684 -0.05926691 0.00452508 -0.0005966457
000260 a1 43 54 bc 9b 70 95 3c 25 0a 2e 3c 51 cd 83 bc
       -0.012955577 0.018242171 0.010622536 -0.016089113
000270 8d 20 7c bc c2 0c 36 bd b2 7a 08 3c 2f 5f f0 bc
       -0.01538862 -0.04444576 0.008330034 -0.029342262
000280 2d 45 d3 bb d6 a1 14 bc 83 72 6a bc 02 bb 8c 3c
       -0.0064474554 -0.009071788 -0.014309528 0.017179016
000290 83 d6 00 3d cc c2 92 bc b3 6d 00 3d fc 3d ce bc
       0.031454574 -0.017915152 0.031354617 -0.02517604
0002a0 86 36 28 3d 6f f8 95 bb 10 8d d0 bc 3c a5 d2 bc
       0.041067623 -0.0045767347 -0.025457889 -0.025713556
0002b0 66 8b 75 3d 8d c7 36 3b 1a ac fb 3c a7 a9 eb 3b
       0.059947394 0.0027889938 0.030721713 0.007191855
0002c0 a7 76 30 bd 1e e3 1e 3c 5d d6 29 bc 21 aa 24 3c
       -0.043081906 0.009697704 -0.01036605 0.0100503275
0002d0 58 f3 25 bd f4 1f 08 ba 30 03 ed bc cf 2d a0 3c
       -0.040515274 -0.00051927497 -0.028932184 0.019553093
0002e0 02 d3 3f bd 7e 8b 16 bb cd 16 52 3c 18 f3 98 bc
       -0.046832092 -0.0022971327 0.012822819 -0.018670604
0002f0 d4 56 38 ba d4 00 de bb cf 4f 5e 3d 0a e3 c5 3c
       -0.00070319814 -0.006775001 0.05427533 0.024156112
000300 6c b8 0f 3c fa 8b 77 3c 37 b8 cb bc 45 63 74 bc
       0.008771997 0.015109057 -0.024868114 -0.014916246
000310 4c 0d 0e 3d d7 0e 2e bc cd bb c2 bb 45 39 8b bc
       0.03468065 -0.010623655 -0.0059427978 -0.016995082
000320 06 7a b6 bb 04 dc 59 bc a0 15 62 bb b3 d8 18 bd
       -0.0055687455 -0.013297085 -0.0034497753 -0.037316035
000330 48 6b ec 3b 9b ba 12 3d a0 8a 92 bc 3b cc 95 bc
       0.0072149374 0.035822492 -0.017888367 -0.018285861
000340 18 98 44 bc 7f 85 a0 39 28 4d bf 3c 03 3c 86 3c
       -0.011999153 0.0003061704 0.02335222 0.016386038
000350 94 cc 35 3c 26 2b 99 3c aa 91 b7 bc 5e dd 8c 3c
       0.0110961385 0.018697333 -0.022408325 0.0171954
000360 f9 77 20 3d 93 51 eb bc c9 47 5a bc b0 12 4d 3b
       0.039176915 -0.028725421 -0.013322779 0.0031291656
000370 38 11 30 3c a3 42 7a 3c 79 3c 59 3c 85 3c 9e bb
       0.010746293 0.0152746765 0.013259047 -0.004828992
000380 a0 69 a3 3c b6 00 ac 3c 76 4e 31 bd 01 46 39 3a
       0.019947827 0.020996433 -0.043287717 0.00070676213
000390 96 da 1a bd 9b 90 59 bb ff 5f 54 3c d2 c8 c9 3b
       -0.037806116 -0.0033197764 0.01296234 0.006157973
0003a0 66 ae 6e bb ee 17 4b ba 55 bc db bb 5c 1a 22 3c
       -0.0036419868 -0.0007747401 -0.0067058005 0.00989398
0003b0 97 6d c0 3c 0b 02 59 3d cf a9 16 bc 54 0f 66 bc
       0.023489757 0.052980464 -0.009195759 -0.01404174
0003c0 33 46 03 3d 2c 36 0b bc ad 34 e6 bc 8c 96 24 bc
       0.03204937 -0.008496802 -0.02810129 -0.010045659
0003d0 06 0a 9f bc a5 2c ba bc 53 b0 27 bb 78 21 0f 3c
       -0.01941396 -0.022726366 -0.0025587275 0.008736007
0003e0 2a 3c 83 bc 7c a2 9a bc e4 46 25 3c 7f a9 4f bc
       -0.0160199 -0.018876307 0.010087702 -0.012674688
0003f0 d2 7a f9 3b 3c 50 30 3d 16 7f ec 3c 1c 70 a9 3c
       0.0076135183 0.043045267 0.028869193 0.02068334

bias f4 [60]
000000 91 35 25 3d ba 35 db bc 84 fc aa 3c ad 5b 1f bc
       0.040334288 -0.026759017 0.020872362 -0.009726447
000010 93 1b a8 ba b0 c7 36 bd 21 73 c8 bb 2d 24 1c bc
       -0.00128256 -0.04462403 -0.00611724 -0.009530109
000020 3c 6f 44 3d da e4 b3 bc fa ca c0 3c e6 9c 0d 3c
       0.047957644 -0.02195971 0.023534287 0.0086433645
000030 98 61 84 bc 03 4e c3 3a 9f 9d 3a 3d 03 d8 89 bc
       -0.016159818 0.0014900569 0.045560475 -0.016826635
000040 07 70 4a 3d e6 7f cd bc 09 26 87 3d 4b b8 95 bc
       0.049423244 -0.0250854 0.065990515 -0.018276354
000050 61 b2 98 3c 0e 78 5a 3c 62 91 9e 3c 9b 42 0d bd
       0.018639745 0.013334287 0.019356433 -0.034487348
000060 4c 78 92 3d cd 75 32 38 6f ed 64 3d c6 9a 2d bb
       0.07151851 4.2548218e-05 0.055890497 -0.0026489957
000070 7b 8a 22 3d 28 3a 0d 3c 8d 18 49 3d 43 16 0b bd
       0.039682847 0.008619823 0.04909568 -0.033956777
000080 6c b6 8e 3d a4 b8 c6 3c 64 65 43 3d 56 cc 9e 3c
       0.06968388 0.024257965 0.047704116 0.019384544
000090 5a 72 9a 3d 3b 36 d5 bc fd df 52 3d d7 e1 15 bc
       0.07541342 -0.026026836 0.051483143 -0.009148083
0000a0 fc 61 50 3d 12 93 2e bd f1 6e 66 3d ab fa c3 3c
       0.050874695 -0.042620726 0.056258146 0.023923239
0000b0 7d 0e 2a 3d d0 ee 46 3a 65 ce 87 3d e2 96 8d bc
       0.041517723 0.00075886864 0.066311635 -0.01728386
0000c0 23 a3 95 3d e2 73 da 3b 92 14 ac 3d 48 bb b0 3c
       0.073065065 0.0066666463 0.08402361 0.021573678
0000d0 62 2b 29 3d 0b 05 f8 bc dd b1 95 3d 0c 2c 0a bd
       0.04130114 -0.030275842 0.07309315 -0.033733413
0000e0 99 b6 9b 3d 34 60 77 3c d9 75 80 3d e8 62 ef 3c
       0.07603187 0.01509862 0.06272478 0.029221967
