comparisonLinearVsCNNVsCNN/db39Model/notAugmented/combined.csv_CNNModelFlatten64x1x1CombinedTry_Epochs25_ValidationLoss:0.005798_lr:0.0003__2023_07_12_13:48:55.pth (torch, 883153 bytes, 31 tensors)

weight f4 [4, 1, 3, 3]
000000 7a 41 73 be e9 03 71 3e d2 25 8f bd c4 7c 72 3d
       -0.23755446 0.23536648 -0.069896355 0.059201017
000010 c3 c7 56 3e 53 7d 23 3d 39 dc 1e 3e 8d 17 91 3e
       0.2097464 0.03991444 0.15513696 0.2833828
000020 65 e1 b7 3e 28 cc e7 3d ac 8b 3b 3e 5f 27 a8 3e
       0.3591415 0.113182366 0.18315 0.32842538
000030 59 5b b6 3e c8 33 c6 3b ba 45 4c 3e 83 8e 6a 3e
       0.35616568 0.0060486533 0.19948474 0.22905926
000040 41 30 2a 3d fd 3a b4 3e 1a da 8a bd 85 2e a7 bd
       0.041549925 0.35201254 -0.06779881 -0.0816317
000050 c7 1e 2a 3e 35 02 23 be 6a 73 fd 3e af bb 0a be
       0.16613303 -0.1591881 0.49502116 -0.13548158
000060 fe ab 6b 3e 97 5e 9a bd 28 e2 0c 3e 4e 66 5c be
       0.23014829 -0.07537573 0.13758147 -0.21523401
000070 fc 5c 1e 3e 71 0c fd bc cd d9 a0 3d 8b 41 8e bb
       0.15465158 -0.030889722 0.07854042 -0.0043413094
000080 e8 3c 59 3c 87 59 07 3e cb 5e 91 bc b4 0a 02 3c
       0.01325915 0.13217746 -0.017745396 0.007937122

bias f4 [4]
000000 ec b9 36 3e 10 33 01 3b 62 44 90 bb 31 07 52 3e
       0.17844361 0.0019714274 -0.004402683 0.20510556

weight f4 [4, 4, 3, 3]
000000 a0 be 27 3d b0 ad 52 3e e5 2b 5c 3c db c4 89 bd
       0.04095328 0.20574069 0.0134382 -0.06727
000010 2f 20 a0 bd 74 4c db bc 2e 80 61 3e 08 d3 2b 3e
       -0.078186385 -0.026769854 0.22021553 0.16779721
000020 c4 d8 4d bb 68 dd 15 3d fe f4 12 be 0e 28 58 bd
       -0.003140972 0.036588103 -0.1435127 -0.052772574
000030 81 75 1d bd 8b 41 ce bd 64 a5 f6 bd 6e 2e 5b bd
       -0.03844214 -0.10071095 -0.120432645 -0.053511076
000040 ac 0b 5a 3d 02 5d e8 3d d3 42 aa bd 9a 36 48 be
       0.053233787 0.11345865 -0.08313527 -0.19552079
000050 6d db 76 be 52 5d 45 be c2 2f c3 bd 0e 84 78 bd
       -0.24107142 -0.1927388 -0.095305935 -0.060672812
000060 a8 43 2f 3d da 44 ee bd 9e 4e 98 3d ae ef dd 3d
       0.04278913 -0.11634226 0.0743687 0.10836731
000070 e2 55 fc 3b 5d 21 3c bc c2 55 44 3c 8d 0e 4a 3d
       0.0077006677 -0.011482564 0.011983337 0.049330283
000080 18 62 f0 3d da 31 82 bd 0a 66 d9 3b dc d1 e3 3d
       0.1173746 -0.06357165 0.0066344785 0.11124012
000090 4b 9e cc 3d 67 9c 51 3e 61 5b 0d 3e d5 ad 35 bd
       0.099911295 0.20469819 0.1380439 -0.044355232
0000a0 4e 93 56 3d 2a e8 00 3e ca ad 86 3d fc 6c 34 3e
       0.052386574 0.12588564 0.065761164 0.17619699
0000b0 b8 0e 10 bc 0d 18 3b 3d 19 47 68 3e 75 1f ff 3d
       -0.008792572 0.045677233 0.22683372 0.12457172
0000c0 2e 4e 7a 3d d5 f6 38 3e 20 43 30 bc 3e 0b 0f 3d
       0.061109714 0.18062909 -0.010758191 0.03492283
0000d0 9d b0 60 3d 1a bf 17 3e 38 1a 65 3e f5 57 5c 3e
       0.05485593 0.14818993 0.22373283 0.21517928
0000e0 ab e6 a4 3d 97 b2 16 3e a5 e9 86 3d 06 06 86 3e
       0.08051809 0.14716564 0.06587533 0.2617647
0000f0 b9 62 fc 3d cd 31 3d 3e 5d 7e c1 3d 51 4c bc bd
       0.12323517 0.18476029 0.0944793 -0.09194244
000100 9c 7b 57 3e 66 9a 01 3e c8 81 05 3d 23 f1 17 3c
       0.21043247 0.12656555 0.032594472 0.0092738
000110 68 9f 97 bc 8c 34 20 3e 43 c8 d0 bd 62 69 b4 bd
       -0.018508628 0.15645045 -0.10194447 -0.08809163
000120 f0 57 65 3d 08 16 cf bd f3 5a 33 3e 81 9f d1 3d
       0.055992067 -0.10111624 0.17515163 0.10235501
000130 2c 48 ba 3c 54 36 c5 bd 6a 94 da 3d bf 61 34 3e
       0.022739492 -0.09629503 0.10672839 0.17615412
000140 88 38 08 3c a5 12 5d bd 33 02 38 3d c4 e0 c9 3c
       0.008314259 -0.05397286 0.044923972 0.02464331
000150 8d aa 05 bb 91 42 af bc b8 38 89 3e a1 0e 77 3e
       -0.0020395846 -0.021394046 0.26801085 0.24126674
000160 c9 0c 37 3e 6c cc 59 3e 79 cc 8a 3e d9 01 91 3e
       0.17875971 0.21269387 0.27109125 0.28321722
000170 88 e8 af 3e 97 46 a2 3d d9 27 dd 3d 4f 5b ab 3e
       0.34357095 0.0792362 0.10798616 0.334681
000180 04 a4 75 3d a8 8a 7d 3e 26 17 22 3e 6e f3 e7 3d
       0.05997087 0.24759924 0.15829143 0.113257274
000190 ce 00 eb bc c3 84 f2 3d 7a 50 fe bd ba 5f 97 3d
       -0.028686907 0.118417285 -0.124176934 0.07391305
0001a0 c3 2a cb 3d 44 38 c6 3c 2b 1e 83 39 2e da 16 3d
       0.099202655 0.024196751 0.00025008744 0.036829166
0001b0 d6 44 e3 bc 12 6b 4d bd ce 37 69 3c 10 95 4c 3e
       -0.027742784 -0.05015094 0.014234496 0.19978738
0001c0 f4 5a 4a 3b cc ef de 3d 45 d9 3e 3e ca 1e 2a 3d
       0.0030876966 0.108855814 0.18637569 0.04153327
0001d0 91 97 1c 3e 81 fe ff bd 94 e0 f5 bc 53 70 90 bd
       0.15292193 -0.12499715 -0.030014314 -0.07052674
0001e0 60 75 06 be ee ef 10 be 99 c0 0f be 0b 55 25 3e
       -0.13130713 -0.14154026 -0.14038314 0.16145723
0001f0 b3 ac 24 bd 4f 5f 30 bd f2 f9 64 bd b9 7d d3 bb
       -0.04020376 -0.043059643 -0.05590243 -0.0064541963
000200 f5 c8 8a be 65 21 81 be b6 ab f5 3c e8 cd 24 be
       -0.27106443 -0.2522079 0.029989105 -0.16094172
000210 a6 8b 24 bd 0c d5 ae bb bf 58 56 be 3d 85 1a 3e
       -0.04017224 -0.0053354558 -0.20932291 0.15089889
000220 8c dc c7 bd 9e 3a 36 3e e4 34 fe 3d 27 ea 34 3e
       -0.09758863 0.17795798 0.12412432 0.17667447
000230 38 71 4e 3e 26 91 b1 bd 6f 2b 39 3d 72 bc 48 3d
       0.20160377 -0.08670263 0.045207437 0.04900784

bias f4 [4]
000000 51 0f 25 3e d3 20 e7 3d d0 42 16 be ca de 52 3e
       0.16119124 0.112855576 -0.14673924 0.205928

weight f4 [8, 4, 3, 3]
000000 0a 88 37 be b0 31 86 bc 08 6a 30 be 1a e0 84 3c
       -0.17922989 -0.016381115 -0.17227948 0.016220141
000010 3d a6 31 be 70 01 88 bc 8c ef b4 bd b0 af c2 3d
       -0.17348571 -0.016602248 -0.088347524 0.09506166
000020 cc 82 07 be 80 41 a5 3d 4f 1d 70 3e 1a 15 43 3e
       -0.13233489 0.08069134 0.2344868 0.19051018
000030 f9 70 62 3e 41 a3 b7 3d 1f 29 5c 3e a1 f4 b0 3d
       0.22113408 0.08966685 0.21500061 0.08640409
000040 a6 7f e1 bc a1 e1 98 3d 1f 0f e4 3d e5 3e 02 3e
       -0.027526688 0.0746491 0.111356966 0.12719305
000050 7f a6 10 3d 35 27 84 3e 81 e6 fa 3c da b8 a6 3e
       0.035315033 0.25811163 0.030627491 0.32562906
000060 7c ff a8 3d 11 4f a2 3e 51 50 cc 3d 21 78 42 be
       0.08251855 0.31700948 0.09976257 -0.18991138
000070 b9 0c 2e be 51 06 a2 bd 82 7a cd 3c b5 52 02 3e
       -0.16997041 -0.07911361 0.02508283 0.12726863
000080 d2 e3 12 3d e1 b4 15 bd 16 c0 2c be 53 e9 31 be
       0.035861798 -0.036549453 -0.1687015 -0.17374162
000090 57 04 0d 3d de e5 12 bd 55 56 63 3d 42 ec 5c 3e
       0.034427967 -0.03586375 0.055502255 0.215745
0000a0 9c ea 1b bd 14 e5 3b 3c 04 4e 19 3e a4 00 a7 bd
       -0.038065538 0.011468191 0.14971167 -0.08154419
0000b0 63 ff 8f be 8e af 77 be f6 58 64 3e f5 62 43 3e
       -0.28124532 -0.24188063 0.22299561 0.19080718
0000c0 ce cc 10 be 56 87 23 3e 8c 15 82 3e 97 ce d4 bd
       -0.14140627 0.15969595 0.25407064 -0.103909664
0000d0 3e 79 78 3d ad 31 0c 3a 23 d5 ac bd d5 af c2 3d
       0.0606625 0.00053479784 -0.0843909 0.095061935
0000e0 89 72 78 3d 92 cb 38 bd cc f7 54 3b 70 54 14 3d
       0.060656104 -0.045116015 0.0032496331 0.03621334
0000f0 23 9e a2 3c 6b 31 f1 3d df 09 04 3d 03 77 84 3c
       0.019850796 0.11777004 0.032235976 0.01617003
000100 bb 8d 89 3d 02 92 bc bd f8 0b 1a bd d8 bd 33 be
       0.06716486 -0.09207536 -0.03760907 -0.17552888
000110 37 dd 85 be 34 29 cf bc 74 2b d0 bd 4f d4 88 be
       -0.26145336 -0.025288202 -0.10164538 -0.2672448
000120 8b 2f 4e 3d 3d 98 33 3e c9 ed 86 bd ac 9c 93 bd
       0.05033831 0.17538543 -0.06588323 -0.07207617
000130 e6 0d 6b 3e 07 7e 99 3c 64 e7 40 3e 54 c6 6b 3e
       0.2295452 0.018736852 0.18838269 0.23024875
000140 f8 a0 e2 3c 8f 63 32 3d 88 2a f0 bd d8 a1 a7 3d
       0.027664647 0.043551978 -0.11726862 0.08185166
000150 13 ff c2 3d ba 69 4a 3c dc de d8 3c ac 0e a8 3d
       0.09521308 0.012354309 0.026473455 0.082059234
000160 fd 9a 25 3e 92 02 ca 3b 2b c1 9e bd 70 2b 7f be
       0.16172405 0.006164857 -0.077516876 -0.24918914
000170 5f 6b 4f be b9 c6 ac bd d7 ac fc bd ee 54 52 be
       -0.20255803 -0.08436341 -0.12337654 -0.2054021
000180 9f 90 19 be 2b e0 a3 bb 66 0b 98 bc a2 06 33 3e
       -0.14996575 -0.005001088 -0.018560123 0.17482999
000190 9b 69 29 3e a9 f6 3e 3e a2 35 f1 3c e1 d6 23 bb
       0.16544192 0.18648781 0.02944452 -0.0024999904
0001a0 af 88 5a 3e 68 59 e9 3c 76 78 08 3e b7 35 39 3e
       0.21341203 0.028485015 0.13327202 0.18086897
0001b0 40 01 38 bd 26 3a 45 be 28 1a 5e 3c e2 60 b7 bd
       -0.044923067 -0.19260463 0.013556041 -0.08954026
0001c0 e6 39 5b 3d 99 d9 f7 bd a8 90 29 3e a1 2f 0a 3e
       0.053522013 -0.1210205 0.16559088 0.13494731
0001d0 ae b6 66 3c b4 4d a3 3d 9f 70 2d bd eb 50 1f 3e
       0.01408164 0.07973805 -0.042343732 0.15558212
0001e0 7e c5 18 3e b0 1e ee bb b1 1e 3e 3e c1 a1 5a 3e
       0.14919087 -0.007266842 0.18566395 0.21350767
0001f0 f4 9f 6b b9 f0 45 2f 3b a0 16 d0 bb eb 02 7d 3e
       -0.00022470934 0.0026744567 -0.0063503534 0.24708144
000200 19 67 38 3e 64 ed 92 3c 60 ca 1d 3c 25 19 5f 3d
       0.18008079 0.017935462 0.0096307695 0.05446734
000210 37 10 c9 3d e1 6d 7f bd 98 a4 4f 3e 67 ab 1c be
       0.09817546 -0.062360648 0.20277631 -0.1529976
000220 7a c4 47 3c 19 fa 1d be 5e 11 d5 bd fb 12 45 be
       0.01219284 -0.15427436 -0.10403703 -0.19245522
000230 06 80 cc 3d ed 98 a8 bd d0 36 f1 3d 8f 81 23 3e
       0.09985356 -0.08232293 0.11778033 0.15967391
000240 18 69 6c bd e4 01 1a 3b 0e 81 19 3e b3 e6 01 3e
       -0.057717413 0.0023499662 0.14990637 0.12685661
000250 a9 53 68 3e a5 c8 76 3e 72 34 27 3d 83 98 1d bc
       0.22688164 0.24099977 0.0408215 -0.009618881
000260 79 a2 b9 bb 7e cc 51 bd 8b a9 b2 3d 16 32 6f bc
       -0.00566512 -0.05122041 0.08723744 -0.014599344
000270 dd ab f5 3d d2 d5 96 bd 3f bd a2 bd c8 ec 57 3e
       0.11995671 -0.07365002 -0.07946252 0.21086419
000280 9a b8 2f 3c 8f 59 a2 3d e3 2e fe 3c 6e 85 43 bd
       0.010725165 0.07927238 0.031028217 -0.04773467
000290 07 0b 46 bd f8 85 00 3e 30 b0 37 be c3 81 b6 bc
       -0.04835036 0.12551105 -0.17938304 -0.022278672
0002a0 4e 98 97 bc d4 3f 1f be 87 b0 ae bc d1 3c 02 3e
       -0.018505242 -0.15551692 -0.02132441 0.12718512
0002b0 c7 f2 4b 3e 92 d4 6c 3e 8f 81 90 3d c3 ed 4a 3e
       0.19916831 0.23127964 0.07055961 0.19817261
0002c0 b8 0b b2 bd 66 76 37 3d 61 0f f8 3d cc a2 10 3e
       -0.086936414 0.044790648 0.12112308 0.14124602
0002d0 f0 dd 88 3d 3f e8 1a 3d e0 ae c7 3d 7e ff be 3d
       0.06682956 0.037819143 0.09750152 0.09326075
0002e0 e1 fd 62 3e 9c 4d bc bd 7e 80 61 3e 0a 52 04 bd
       0.2216716 -0.0919449 0.22021672 -0.0323048
0002f0 ce e0 df 3c cf b6 cd 3c 99 57 37 bd 58 13 42 3d
       0.027328875 0.025111584 -0.044761274 0.04738173
000300 30 25 0a 3e 82 a4 31 3e fa ee 4b 3e 01 ba 32 3d
       0.13490748 0.17347911 0.19915381 0.04363442
000310 10 96 62 3e 93 c8 2c 3e ec 86 69 bd 69 88 b1 3c
       0.22127557 0.16873388 -0.057013437 0.02167149
000320 49 e8 c2 3d 99 cf d7 bd ab ac 88 3d b7 5e 3b 3e
       0.09516961 -0.10537643 0.06673559 0.1829785
000330 4c e3 5a 3c fa cd aa 3d 48 84 d2 3d 89 6d 5c bd
       0.013359856 0.08340068 0.10279137 -0.0538154
000340 23 9b 0a 3e 10 6f 5d bb c1 91 c1 bd 56 26 b6 3d
       0.13535742 -0.0033788122 -0.094516285 0.08894031
000350 a2 b4 0b bc 3f 6d f8 3c b7 aa f6 bd 64 d1 b5 3d
       -0.008526953 0.03032553 -0.1204428 0.08877829
000360 91 63 6e 3e f3 23 f0 3d d7 4d 3f bd 73 74 46 3e
       0.23280169 0.11725607 -0.046705093 0.1938036
000370 ba 54 2c bd 00 85 1d 3d 08 7f 02 bd dc 8e 50 3d
       -0.04207299 0.038456917 -0.031859428 0.05091749
000380 4e d3 a7 3d 0d 06 db 3c 8e 84 64 3d c3 af 90 3b
       0.081946 0.026736284 0.055790477 0.0044154837
000390 19 a6 bd 3d e6 54 27 3d 7d 97 b2 bd 1d 17 f6 3d
       0.09260196 0.04085245 -0.087203 0.12016127
0003a0 96 85 0f 3e 4a f2 31 bd d0 12 d2 bc 7b f1 f7 bd
       0.14015803 -0.043443955 -0.025643736 -0.121066056
0003b0 de bd 89 be 25 1b 50 be 3f c7 90 be 47 8e a9 bd
       -0.2690267 -0.20322855 -0.28277013 -0.082790904
0003c0 a9 de 05 3c 77 ac 79 be fd 07 94 be df 17 5e 3e
       0.008170762 -0.24382196 -0.28912345 0.21688794
0003d0 8f 35 43 3e b7 d1 61 3e 52 82 46 3e a5 71 38 3d
       0.190634 0.22052656 0.19385651 0.045030255
0003e0 1c c0 dd bd 60 00 af 3d 41 eb 53 bd e9 7a 2d 3e
       -0.108276576 0.085449934 -0.051738027 0.16941418
0003f0 28 9d 49 3c 5b 03 7b 3c a9 e2 0f 3e 0b b6 b5 3d
       0.012305535 0.015320624 0.14051308 0.088726126

bias f4 [8]
000000 a8 0f 0e 3e 9c ff d7 bc ae 81 51 3e 48 e4 8c bd
       0.1387316 -0.026367001 0.20459625 -0.06879479
000010 bd ff 74 bc 30 80 53 3e 11 0c 18 3e e9 54 40 3e
       -0.014953551 0.20654368 0.14848353 0.1878239

weight f4 [16, 8, 3, 3]
000000 30 2f 7d bd a8 fb 2e be 67 3d bf 3d 35 5d cc bd
       -0.06181258 -0.17088187 0.093378834 -0.09978715
000010 71 2c 0e bd bf e7 8c bb 15 80 50 3d b1 70 04 bc
       -0.03471035 -0.004300087 0.0509034 -0.008083508
000020 e4 0c 9d bd 81 60 89 bd f3 e2 d2 bd 41 f3 67 3e
       -0.07668474 -0.0670786 -0.102971934 0.22651388
000030 16 76 04 be c7 e5 af bd b4 dd 44 3e 2d 65 b7 3d
       -0.12935671 -0.085887484 0.19225198 0.089548446
000040 c2 4b f8 3a a7 46 df bc 8c ec 5a 3d 38 1c 86 3c
       0.0018943476 -0.02725537 0.053448245 0.016370878
000050 a8 f5 9f bd 0e 5d 0e 3e 91 4d e0 3d 6c a7 39 bc
       -0.07810527 0.13902685 0.109522946 -0.01133142
000060 46 54 69 bc de 8b eb bc eb c4 a4 3d cf 10 0c 3d
       -0.014241284 -0.028753217 0.080453716 0.034195717
000070 77 a8 83 bd bf 54 c4 3c f6 7b e2 3c 7f f6 91 bd
       -0.064286165 0.023966191 0.027647 -0.071270935
000080 3a b6 2f be 38 13 ab 3c eb 86 45 bd c7 13 90 3c
       -0.17159358 0.020883188 -0.04822437 0.017587556
000090 ba 53 25 3e 00 c5 e1 3d 71 3e d2 3b b3 f6 14 3d
       0.1614522 0.11023903 0.006416135 0.036368083
0000a0 0f 3e 10 3e 08 48 89 3c 1d af fc 3d d8 29 24 3e
       0.14086173 0.01675798 0.12338088 0.16031587
0000b0 9e 69 33 bd 57 8d 44 3d a6 eb 1f 3e e0 b3 37 3e
       -0.043801896 0.047986355 0.15617236 0.1793971
0000c0 7c df 66 bd 07 8f 05 3e 8b 99 89 bd a4 fb 09 3e
       -0.056365475 0.13042842 -0.06718739 0.134749
0000d0 43 91 41 3d 5e 40 27 3d 34 1f 0e 3e d8 3c 17 3e
       0.047257673 0.04083287 0.1387909 0.14769304
0000e0 b4 6b 09 3e 84 81 26 3d c2 29 f5 38 70 56 05 3e
       0.13419992 0.04065086 0.000116902884 0.13021255
0000f0 41 cd 8a 3c bd df 21 3e f4 c3 45 3d 6f 81 3c bd
       0.016943576 0.15808006 0.04828258 -0.046021875
000100 c3 23 af 3d 85 5c c9 3c af fb b2 3d 14 2b de 3d
       0.08551743 0.02458025 0.08739411 0.1084806
000110 e9 60 4c bd b2 90 bd 3d bc 0e 5c bc 4c d8 f9 3d
       -0.04989711 0.09256114 -0.013431247 0.121994585
000120 4d e7 1d bd 47 ee 18 3d 97 96 1a 3e 77 84 10 3e
       -0.038550664 0.037336614 0.15096508 0.14113031
000130 37 ed 07 3d 56 96 e0 3d 79 d1 09 3e 85 45 cc 3d
       0.03318521 0.10966174 0.13458814 0.09974197
000140 c9 74 15 3e 88 e2 b4 bd ed da a2 3d f7 80 1c be
       0.14595331 -0.0883227 0.07951913 -0.15283571
000150 7d e8 a3 3c b0 d8 4c 3e 2b 78 3c 3d 48 a9 89 bd
       0.02000832 0.20004535 0.04601304 -0.06721741
000160 18 49 93 bd 77 da 30 3b 55 59 41 bc 03 c9 f8 bd
       -0.07191676 0.0026985684 -0.011801084 -0.12147715
000170 1c 7b be 3d ab 75 da bd cc 0f 70 3d 6d 45 c8 bd
       0.09300825 -0.10666975 0.058608815 -0.09778867
000180 bc 72 9f 3d b5 d1 48 3d b0 b7 b7 bd 93 b1 24 bc
       0.07785556 0.049028117 -0.089705825 -0.010052103
000190 7b fd 28 3d 7c 76 8c 3d 80 64 e7 3d 2a ce 41 3c
       0.041257363 0.068585366 0.11298466 0.0118289385
0001a0 28 34 fb 3c 59 44 43 3d b2 f6 72 3d 58 9d 41 3e
       0.030664518 0.047672603 0.0593173 0.18907678
0001b0 96 f2 40 bb 9f ce 22 bd 73 07 56 bc 18 41 04 be
       -0.0029441467 -0.03974783 -0.0130632995 -0.12915456
0001c0 e1 8c 52 3d e4 b3 6c 3d ca 88 b5 3d c7 2d ae bd
       0.051403884 0.057788745 0.08863981 -0.08504825
0001d0 b6 f4 02 be 23 53 8b 3b 71 73 ad 3a 68 51 08 3e
       -0.12788662 0.004251854 0.0013233257 0.13312304
0001e0 8f 9d a2 3d 79 ee 93 3d c0 09 8c 3c bb 2b 18 3e
       0.07940208 0.072232194 0.017094493 0.14860432
0001f0 92 a5 93 3c 3f 45 c1 3d a8 00 26 bd 07 77 06 bd
       0.018023286 0.09437036 -0.04052797 -0.032828357
000200 58 5e 1f 3d d0 56 57 3d 84 88 e1 bd b7 d5 3b bd
       0.038908333 0.052573025 -0.110123664 -0.04585811
000210 04 f4 11 bd ef 4e a7 bd a5 61 ce bc b9 56 6b bc
       -0.035633102 -0.08169352 -0.025193045 -0.014363938
000220 5a 2d 66 bc e9 ae 1e bd 14 fb 1b 3b 15 23 c7 bd
       -0.014048899 -0.038741026 0.0023800777 -0.09723488
000230 b7 3e 98 3c 97 df 29 bc 5d ad 99 3d ef c3 9c 3c
       0.018584592 -0.010368249 0.075037695 0.019136397
000240 3e 27 28 be 9a e9 16 bd f1 d1 c2 3d 8a 34 06 be
       -0.1642122 -0.036843874 0.095126994 -0.1310598
000250 11 d8 b9 bd b5 82 d8 bd 0e 91 0d 3c 3a 4a 8d bd
       -0.090744145 -0.105718054 0.008640541 -0.06898923
000260 20 39 26 bc 41 a7 79 bd 3d 8d 58 be 97 9e a2 3d
       -0.010145456 -0.06095052 -0.21147628 0.07940405
000270 9e 70 4e be d8 9b f7 bd 6c c7 62 3e 0f c4 0d 3e
       -0.20160148 -0.12090272 0.22146386 0.13844322
000280 50 d3 e2 bd 50 9e 39 3d 9e 07 39 bd 14 76 56 bd
       -0.11075461 0.045316994 -0.04517328 -0.0523587
000290 f8 29 a3 bd 98 cf ef 3c 1d a0 e2 3c 20 a4 f8 3d
       -0.07966989 0.029273793 0.027664239 0.12140679
0002a0 b3 22 1f 3e d8 73 20 3d df d4 88 3d 2e 74 f3 bd
       0.1554058 0.039172977 0.06681227 -0.11887394
0002b0 b4 71 a5 bd c3 a0 0f 3d 77 f7 10 be 52 72 45 be
       -0.08078328 0.035065424 -0.141569 -0.19281891
0002c0 f5 85 7a bd 4b 60 0e bd 6f 92 ce bc 40 cc bb 3c
       -0.061162908 -0.0347598 -0.02521631 0.022924542
0002d0 75 dc 10 3e 18 6f 0d 3e 2d f3 b8 3d 82 f3 a7 bc
       0.14146598 0.1381191 0.09030757 -0.020501856
0002e0 24 84 90 3b 03 de da 3c d7 e4 a0 3d ba 11 8a 3d
       0.0044102836 0.026717192 0.07856148 0.06741662
0002f0 ad db 99 3d 66 cb d8 3d 14 c3 86 bc 48 b3 ab 3d
       0.07512603 0.1058567 -0.016450442 0.083838046
000300 e5 87 81 bd 1d db 95 3d 09 ba ec 3d eb 4e 18 3e
       -0.06324748 0.07317183 0.11558921 0.14873855
000310 14 ac 33 3e f0 45 34 3e 44 cf cc 3d 7e 39 19 bd
       0.17546111 0.17604804 0.1000047 -0.037408344
000320 d4 b9 8b 3d c1 c4 2a 3e aa 82 94 3d 1a 18 9f bc
       0.06822553 0.16676618 0.07251485 -0.019420672
000330 0c 25 a9 bc 1a 98 20 3e 84 51 3d bd dd bd 42 3e
       -0.020647548 0.15683022 -0.046220317 0.1901774
000340 d1 1a a1 3d 66 c9 21 3e 51 20 03 3d 2e bf ae 3d
       0.07866443 0.15799484 0.03201324 0.085325584
000350 71 a6 7d 3d 50 a1 3d 3e f6 b9 61 3d 7a d5 17 3e
       0.06192631 0.18518567 0.055108987 0.14827529
000360 8c 3c 0c be 05 f5 8a bd 47 6a 2a be bc 4a cf 3d
       -0.13694972 -0.06785015 -0.16642104 0.10121676
000370 36 c9 69 3d 51 a7 97 be 1d 0b 66 bd 0c f6 85 bd
       0.057076655 -0.2961984 -0.056162942 -0.0654107
000380 8b 1a 9c be a8 a0 90 be 52 8c 10 3e 32 0a ab bd
       -0.30489 -0.2824757 0.14116028 -0.08351554
000390 ad 06 4d bc 9b 01 4d 3e d7 b0 20 be 01 28 10 3e
       -0.012513799 0.20020144 -0.15692459 0.1407776
0003a0 e3 1e 9f be c9 94 86 be a2 39 03 3e 0c d0 e3 3d
       -0.31078252 -0.2628539 0.12814954 0.11123666
0003b0 b3 5e 2d 3e 3a 84 55 bd 49 4c 8a 3d bf ba 1d 3e
       0.16930656 -0.052128054 0.067528315 0.15403269
0003c0 20 79 f8 3b 43 5e 30 bd 9e 87 02 3d 8e 4e c3 bd
       0.0075827986 -0.043058645 0.031867616 -0.095364675
0003d0 f1 bf 77 be f5 62 54 be c2 43 87 3b a1 24 a2 3c
       -0.24194314 -0.20740874 0.0041279504 0.019792857
0003e0 4d 09 6e be 17 be 89 3c 70 e7 a3 bd 44 93 d0 be
       -0.23245735 0.016814275 -0.080031276 -0.40737355
0003f0 b8 38 8f 3d 44 dd 1c 3e 56 4a a5 3d 7a e9 0d 3e
       0.0699324 0.15318781 0.08070819 0.13858595

bias f4 [16]
000000 2a c6 08 3e c9 8f 25 3e fe 44 29 3e 47 44 a2 3d
       0.13356844 0.16168131 0.16530225 0.07923179
000010 39 6b a7 3d e6 4c b2 3d 62 1e 0a 3e bd 49 0d 3d
       0.08174748 0.087060735 0.13488153 0.03449415
000020 f2 86 66 bd e9 cc f9 3d 9b ee 84 3d da af 96 3d
       -0.056281038 0.12197287 0.06490823 0.0735776
000030 d3 bb 1e 3e b2 3a df 3d a8 0a 9c bc c5 e8 22 bc
       0.15501337 0.10899867 -0.01904805 -0.009943192

weight f4 [32, 16, 3, 3]
000000 df b4 87 bd 29 f0 94 3d db a6 16 bd 8a 8f fe bc
       -0.06626295 0.072723694 -0.03678022 -0.031074304
000010 2e 8b d6 bb b5 7d fc bc c9 e0 e9 bc 9a 03 33 3d
       -0.006547353 -0.03082166 -0.028549569 0.043704607
000020 46 aa b2 3c 14 e7 87 3d 21 ac 9c bd db 33 dd bd
       0.021809708 0.066358715 -0.076500185 -0.10800906
000030 f1 35 b3 bd ce b6 51 be 58 3c 6c bd c3 9c 87 bc
       -0.08750523 -0.2047989 -0.057674736 -0.016554242
000040 ed 8b 34 bd 6f b8 26 be b0 9a b8 3b ec f3 fe 3d
       -0.044078756 -0.16281293 0.0056336746 0.12448868
000050 24 bc e2 ba c0 c7 4b bd 61 ec bc 3d 60 d1 0f 3d
       -0.0017298502 -0.049751043 0.09224773 0.035111785
000060 e2 d6 83 3c 64 27 d7 3d 30 8a 9a 3d 15 02 8e bd
       0.016093675 0.1050556 0.075458884 -0.06933991
000070 f7 93 e6 3d 6f 5d 32 bb 04 68 e1 3d af 6a aa 3c
       0.11258691 -0.0027216335 0.110061675 0.020802824
000080 8a 2c c6 3d 32 36 92 3d 07 59 c6 3c b3 3c c5 3d
       0.09676464 0.07139243 0.024212373 0.09630718
000090 4e 2f 9d bc 52 9b 42 3d 05 4f 90 3c 4d bd 0a 3d
       -0.019187596 0.047511406 0.017615804 0.033871938
0000a0 61 9a b8 3d 27 3d 2a 3c b6 85 ee 3c ba 73 ab 3c
       0.090138204 0.010390556 0.029116493 0.020929206
0000b0 f1 fb 99 3d b0 9b 4c bd da b9 25 be cd 88 43 bc
       0.07518757 -0.049953163 -0.16184178 -0.011934471
0000c0 92 06 d4 bd e8 7b 15 bf e5 3c 03 3c f4 91 7f bd
       -0.10352816 -0.5839219 0.008010124 -0.06239505
0000d0 57 74 bb 3c 6f 0b ce bd 1c bf d5 bb 12 6c 12 3e
       0.022882624 -0.100607745 -0.006523026 0.14299038
0000e0 80 70 a1 3d 59 11 90 bb c6 7e af 3d 9b fc 4d 3d
       0.07882786 -0.0043965993 0.08569102 0.05028973
0000f0 90 d4 cd 3d 80 fe 2a 3e 7f d8 d2 3c 7c 27 89 bd
       0.10050309 0.16698647 0.025737999 -0.06696984
000100 db 97 e5 3a 21 4d 74 3d 1b db 60 bd f4 ad e8 3d
       0.001751657 0.05964387 -0.054896455 0.11361304
000110 d0 62 e5 3c d5 06 8d 3d 68 b7 ff 3c ee 08 c9 3c
       0.028001219 0.06886069 0.031215385 0.02454039
000120 8d af a3 bc 1c 57 34 be 37 ed c6 bd 25 f2 00 be
       -0.01998117 -0.17611355 -0.09713214 -0.12592371
000130 fc 14 97 be b8 27 4b bd fd cd e1 bc dd b2 7a bd
       -0.29508197 -0.049598426 -0.027564043 -0.061205734
000140 38 10 1e be f8 29 76 bd bb 8b d9 3c 3a 42 2a 3d
       -0.15435874 -0.06009862 0.026555886 0.041567065
000150 7b 03 ab ba 28 26 a4 3d 13 61 4f 3d 89 cd c1 bc
       -0.0013047302 0.0801509 0.050629687 -0.023657577
000160 d3 64 99 3d ef 0f 74 3d 43 2c 3b 3d b4 54 60 3d
       0.07489934 0.059585508 0.04569651 0.05476828
000170 42 dd 6c 3d 15 d7 19 3e 82 0e f9 3d 50 99 32 bd
       0.057828195 0.15023454 0.1216097 -0.04360324
000180 f7 55 ac 3d 56 f7 c3 3d ce f5 1a bd 17 93 aa bd
       0.08414834 0.0956866 -0.037832074 -0.083288364
000190 ed 44 f7 ba 04 3d 51 3c 25 ff b7 bc c8 1c 0b 3d
       -0.0018865146 0.012770895 -0.02246053 0.033962995
0001a0 e4 c8 84 3d b9 1d 25 bd a8 71 ee 3c d1 c4 cd bc
       0.06483629 -0.04031155 0.02910693 -0.025118263
0001b0 93 38 1d bd cb 9a a8 3c dd 4b 1e bc 46 4a 83 3d
       -0.03838403 0.020581624 -0.009661642 0.06410651
0001c0 9c db 03 3e 9c 2a 87 bb d8 33 ce 3d c8 e7 20 3d
       0.12876743 -0.0041249525 0.10068482 0.039283544
0001d0 08 1b 52 3c 2a c7 2d 3d cc db df 3d de 3c 5f 3d
       0.012823828 0.042426266 0.10930595 0.054501407
0001e0 c6 22 ce bd dc cc fd 3d 71 85 b9 3d f2 eb 2c bd
       -0.10065226 0.123925894 0.09058655 -0.042217202
0001f0 30 3e 22 3e 93 4a e6 3d e5 5d cb bd fe fa 8b 3c
       0.15844035 0.11244693 -0.09930018 0.017087456
000200 c5 42 ea 3d 66 27 c6 3d 7e 5d a4 3d 61 6d 42 3d
       0.114385165 0.096754834 0.08025645 0.047467593
000210 5d d3 47 3c 62 38 e3 3d 9e 01 d9 3d cd 9b 5f bc
       0.012196389 0.110947385 0.105960116 -0.013647986
000220 40 29 03 38 e7 dd e4 bd 16 f4 9b 3d 91 38 52 be
       3.127125e-05 -0.11175137 0.07614915 -0.20529391
000230 84 04 22 3d 86 3e b0 3d 31 fb 71 3d 98 35 5d ba
       0.039555088 0.086056754 0.059077445 -0.0008438467
000240 9b b5 9c bd 5a d1 19 3d a4 88 4b 3d 26 08 1f bd
       -0.07651826 0.03755317 0.049690858 -0.03882613
000250 8e 47 5b be 01 44 24 be d3 3e 55 3c b3 58 86 bd
       -0.21414015 -0.16041566 0.013015467 -0.06559887
000260 ec 44 44 bd be e9 24 3d e4 86 0b 3d 68 c8 d1 3d
       -0.04791729 0.040261976 0.03406419 0.102433026
000270 81 36 47 3e b5 ee 9f 3e 41 f3 4c 3e e7 e2 28 3e
       0.19454385 0.31236807 0.20014669 0.16492806
000280 5f 1e 60 3e 2f 7a 26 3e 34 fe 1a be 97 17 1e be
       0.21886586 0.16257547 -0.15136033 -0.15438686
000290 11 fb 50 3d 99 98 30 bd 81 99 82 be 38 b0 e5 bd
       0.051020686 -0.04311428 -0.2550774 -0.11215252
0002a0 f0 81 80 3b bd 28 30 be 0e d1 47 bc 4f 1d 91 3d
       0.0039217398 -0.1720304 -0.012195839 0.07085668
0002b0 d3 49 40 3d 40 f1 42 3e 21 bd ba bd cc fc 1e be
       0.046945404 0.19037342 -0.09118105 -0.15526122
0002c0 f7 45 e3 bd da 8f e9 bc 85 48 0c be 36 f4 1c 3c
       -0.11097329 -0.028510977 -0.13699539 0.009579709
0002d0 1e 59 11 be ef 37 b1 bd 30 e8 b2 bc 00 22 22 be
       -0.14194152 -0.086532466 -0.021839231 -0.15833282
0002e0 d2 bc 16 be c8 34 42 be eb 74 20 bc f6 a5 20 be
       -0.14720467 -0.18965447 -0.0097935 -0.15688309
0002f0 14 be a8 bd 61 10 0a 3e 4d b0 8c 3d c0 fa 82 3d
       -0.082393795 0.1348281 0.06869564 0.06395483
000300 ca c4 24 3e c0 74 38 3e 07 42 83 3e a4 a2 00 3e
       0.16090694 0.18013287 0.25636312 0.12562042
000310 de 2c 6a 3e 9f e6 3d 3e d2 0a 3a 3d c8 2d 03 3e
       0.22868678 0.18545006 0.045420475 0.12810433
000320 4d 7e 3b 3e f0 7c e8 bc 48 ff d0 be a4 e5 c9 bc
       0.18309899 -0.028379887 -0.40819764 -0.024645634
000330 1e 65 a7 3c e4 9f 71 be cc 66 49 3d f7 70 50 bd
       0.020433959 -0.2359615 0.0491703 -0.05088898
000340 55 a8 72 3c 73 e6 35 3d 4e b7 be bd 0d a6 36 be
       0.014810641 0.044409227 -0.09312306 -0.17836781
000350 84 d9 59 bd b9 ef f6 bc e8 65 27 be 68 20 e6 bd
       -0.053185955 -0.030143606 -0.16347468 -0.1123665
000360 15 60 3e 3e d4 8c a6 3d 72 4e f5 3d ac e8 03 3e
       0.1859134 0.081323296 0.11977853 0.12881726
000370 1a 8e af 3e 9d 16 97 3e 76 78 45 3e 8c 37 10 3e
       0.34288102 0.2950944 0.19284233 0.1408369
000380 19 c4 6a 3e ce 49 b4 3c ad a1 29 bd 2b 63 d3 3d
       0.22926368 0.022007849 -0.04141395 0.10321649
000390 4b d5 b6 bd b3 72 01 bf 4c 22 2c bd 87 9d c3 3a
       -0.08927401 -0.5056564 -0.042024896 0.0014924266
0003a0 9e 27 8f be 8a 4b 0d bd 9c c0 80 bd 53 d6 73 bc
       -0.27959913 -0.034495868 -0.06286737 -0.014882642
0003b0 d2 38 e7 3d 10 00 ac bd 24 0d 03 be d7 c3 6b bc
       0.112901345 -0.083984494 -0.12797982 -0.014389954
0003c0 5c 2b bf bc bc 7e 22 be 26 98 1e 3d 5d b9 46 bd
       -0.023336105 -0.15868658 0.03871932 -0.04851662
0003d0 8b 00 11 bd d7 06 86 3d 16 df a8 bd b5 65 38 be
       -0.03540091 0.06544273 -0.08245675 -0.18007548
0003e0 f9 f7 35 bd a7 78 d0 3c 21 d8 50 be ee 19 f0 bd
       -0.04442594 0.025448157 -0.20394947 -0.11723696
0003f0 1a 81 1b be 57 75 3f bd 7f cd c8 3d 72 ac 74 bc
       -0.15185967 -0.046742763 0.0980482 -0.014933692

bias f4 [32]
000000 f4 69 49 3d 31 3d d3 bc bc 22 43 bd 50 14 71 bd
       0.04917331 -0.025786014 -0.047640547 -0.058857262
000010 6a 29 4c bd 86 64 cf 3d c3 75 b0 3b 8a dc a5 3d
       -0.049844183 0.10126595 0.005385132 0.08098705
000020 95 15 31 bd 59 30 a5 b9 8d 16 01 3d 10 32 50 3d
       -0.043233473 -0.00031507274 0.031515647 0.050828993
000030 cb 36 be bc c2 a1 53 3d 4c a7 78 bc 52 13 1f 3d
       -0.023219487 0.051667936 -0.015176605 0.038836785
000040 ad f3 06 3c 44 5a ba bd 0a 18 60 ba 2e a5 95 3d
       0.008236808 -0.09099248 -0.0008548504 0.07306896
000050 e5 82 59 bc 00 84 ce 3c 2e 32 74 bd d9 9a 15 3d
       -0.013275837 0.025209427 -0.059618168 0.036524627
000060 b2 23 53 ba d1 24 1c 3d 22 ec c0 3c 8a 52 63 bd
       -0.000805433 0.03812105 0.023550097 -0.055498637
000070 6c 9e b2 3d 3c 1b 53 3d 90 0e 27 bc 89 36 de 3c
       0.08721623 0.051539645 -0.010196343 0.027125614

weight f4 [64, 32, 3, 3]
000000 cd e4 08 bc 89 f3 9b 3d 91 3b 4a bd 2d 85 9a bd
       -0.008355332 0.0761481 -0.049373213 -0.075449325
000010 7b a9 0a 3e 06 19 ba 3d 86 44 4c bd 0a 36 24 3e
       0.13541214 0.09086804 -0.049870037 0.1603624
000020 04 db 88 3d b1 5a 81 bb 52 8a 80 bc 7a 66 31 bd
       0.06682399 -0.003947579 -0.015690956 -0.04331062
000030 df 1b cf 3d 94 e0 e6 bc 10 8d fe bb fc e9 fa 3b
       0.10112738 -0.02818326 -0.007768281 0.0076572876
000040 6a 5b 36 bd 3d 5e 8c 3c b3 b6 f2 3c 46 34 b1 3b
       -0.044520773 0.01713478 0.029628133 0.005407843
000050 c1 28 fe bc f3 96 1d 3e da b6 30 bc 14 58 b8 bd
       -0.031025292 0.15389614 -0.010785783 -0.090011746
000060 07 34 4d bd 7d 26 63 bd 4d 30 7f 3d b8 5e ba 3b
       -0.050098445 -0.055456627 0.062301923 0.005687561
000070 24 cc 89 bd 68 bd 6a 3d 97 8a e1 3b 4b a1 19 bd
       -0.0672839 0.057309538 0.0068829763 -0.037507337
000080 4c f2 bb bd b1 69 31 3d 6e 5a 1b bd 5b 4a 9b 3c
       -0.09177074 0.043313686 -0.037928037 0.018956354
000090 f9 b2 63 3d 32 a3 3d bd 2c e3 48 3d 81 5e c8 3d
       0.055590604 -0.046298213 0.049044773 0.0978365
0000a0 a6 14 a9 3c 38 0d 8f bc b2 d0 5a 3d b9 43 3c bc
       0.020639729 -0.017462358 0.053421684 -0.011490756
0000b0 30 5c 0f bb 06 01 33 bc b3 02 19 3e 81 70 e5 3c
       -0.0021875016 -0.010925537 0.14942436 0.028007748
0000c0 7b ec 85 bc 45 a0 f0 3d eb aa 9f 3d 9c 09 2c 3c
       -0.016348114 0.11749319 0.07796272 0.010500338
0000d0 50 35 e9 3d 5a ed 59 3d 67 41 bf 3d 6f ed d7 3d
       0.11387122 0.05320487 0.093386464 0.10543334
0000e0 f6 cc 96 3b 60 54 8b 3c df bf b3 3d ef 3d 5a 3d
       0.00460207 0.017008007 0.08776831 0.05328172
0000f0 bb 38 74 bc 16 a2 dd 3d 57 e7 94 3c 2f b7 00 3d
       -0.014906104 0.10821931 0.018176718 0.031424697
000100 5b 9a d2 3d 7d 30 a1 3c 6e 6c a4 bd af 03 31 3e
       0.10283347 0.019676441 -0.08028494 0.17286561
000110 f2 4a 7d 3d fa ba cf 3c 46 55 10 3e 50 89 84 3d
       0.06183905 0.025357712 0.14095029 0.06471503
000120 27 82 4e 3d d8 9f 65 3d e4 7e 28 bd f0 35 49 3b
       0.05041709 0.056060642 -0.041136637 0.0030702315
000130 3b 6c ad 3d cd 3d 29 3c 34 b7 d6 3b 5f 47 0a 3e
       0.08467909 0.010329676 0.0065526012 0.13503788
000140 17 f2 c0 3c 36 10 90 3d 09 e0 7b 3c b3 58 8d bc
       0.023552937 0.07034342 0.015373238 -0.01725421
000150 bb 94 cf 3d 2f 3c 4f 3c e3 6f a7 3c e5 b8 8c 3d
       0.1013579 0.012648626 0.020439094 0.06871203
000160 be d3 2b bd 30 d3 94 3d 57 2f 00 3c b9 e3 a9 3d
       -0.04194998 0.07266843 0.007823787 0.08295388
000170 df fc 68 3d 23 18 2d bd 98 e4 0b 3e 69 26 14 3d
       0.05688178 -0.042259347 0.1366142 0.036169443
000180 fb d3 f7 bc 18 c6 21 3e 15 29 79 bb 82 b2 ef bb
       -0.030252447 0.15798223 -0.0038018872 -0.007314981
000190 7b 2a 08 3e 9f 2c 0b 3d f5 54 ba 3c b0 81 43 3e
       0.13297455 0.0339781 0.022745589 0.1909244
0001a0 d6 32 e5 3c 10 df d8 bc 2a 94 0b 3e 7d 02 68 3c
       0.027978342 -0.026473552 0.13630739 0.0141607495
0001b0 17 9a 0b bd cd 5c 8e bd 8a f9 1b bd 83 a7 80 bb
       -0.0340825 -0.06951294 -0.038079776 -0.003926219
0001c0 4e 51 1e bd b7 c3 04 bd 12 73 3e 3d ec a2 48 3d
       -0.038651757 -0.03241321 0.04649646 0.0489835
0001d0 b3 fc 6f bc 50 ab 29 3d 99 f0 90 3c fb 04 a6 3c
       -0.0146476505 0.041423142 0.01769285 0.020266047
0001e0 36 bb 93 3d 05 86 8b 3c 24 47 7c 3d 9f 3f e8 3d
       0.07213442 0.017031679 0.061591282 0.1134026
0001f0 d1 2e c3 3c a8 6b 03 3e 67 c0 c0 3b 92 9d 03 3e
       0.023826035 0.12834036 0.005882311 0.12853077
000200 13 17 cc 3c b5 cc 16 3d 87 fa 43 3e 37 07 ee 3d
       0.024913346 0.036816318 0.19138537 0.1162247
000210 ee 17 8e bc 1f 99 b5 3d f2 4e 69 3d eb 92 80 3d
       -0.017345395 0.08867096 0.056960054 0.062780224
000220 3e f3 85 3c 7f d7 0e 3d 0c b5 48 bc c6 e6 07 3e
       0.016351338 0.03487348 -0.012250196 0.13271627
000230 13 87 9a bc 09 8a ba bb 12 9b 21 3e b0 ae 2c 3d
       -0.018863237 -0.0056927246 0.15781811 0.042158782
000240 9c 9f 3b 3d 27 33 2f 3e 47 d4 bb 3d 52 b4 d6 3c
       0.045806512 0.17109357 0.09171348 0.02620903
000250 c7 be 2b 3e bf e7 8e 3d dd 1f 01 3d a1 1f a0 3d
       0.16771995 0.06977796 0.031524528 0.07818533
000260 1f 25 b1 3d 8f 11 32 3d 9b 16 62 3d 48 c5 a6 3c
       0.086496584 0.043473776 0.05519734 0.020357743
000270 df 6d 57 bd dc 39 4a 3d 58 c4 22 3a 6c e0 85 bc
       -0.052595016 0.049371585 0.0006209067 -0.016342364
000280 3d 00 26 3c cc 03 70 3d 5f 9b cf 3c 4a 46 88 bd
       0.010131893 0.05859737 0.025342641 -0.066540316
000290 c0 a0 6c 3d 56 ba 67 3d c8 78 48 3d be 3d 1b 3c
       0.05777049 0.05657419 0.04894331 0.00947517
0002a0 04 70 ea bc d6 20 18 bd ae 77 94 3d 4a c5 1f 3c
       -0.028617866 -0.03714069 0.072493896 0.009751627
0002b0 b4 d1 5a 3d 58 06 80 3d d9 5f b4 3c b2 10 0b 3e
       0.053422645 0.0625121 0.02201836 0.13580588
0002c0 75 af ef 3d b7 c7 17 bd 0d 10 e4 3d 64 b3 d0 3d
       0.11703388 -0.037055697 0.11135874 0.10190466
0002d0 69 b3 9d 3a 6b ce 36 bd 7c eb e4 bb 13 7d 11 3d
       0.0012031618 -0.04463045 -0.0069860797 0.03551967
0002e0 fe b2 17 be 48 04 4d 3e e2 14 4f 3d 51 4e 9f bd
       -0.14814374 0.20021164 0.050557025 -0.077786095
0002f0 59 38 df 3d ee a9 16 bc 7d 07 c1 3d 93 70 4e 3d
       0.10899419 -0.009195788 0.094252564 0.050400328
000300 cf 38 53 bd 6f 41 ae 3d 3c a8 04 3d 11 ad d8 3c
       -0.05156785 0.08508574 0.032387003 0.026449712
000310 47 96 24 3e 01 76 00 3d 6c ed 02 bd 31 f8 e2 3d
       0.16072951 0.031362537 -0.031964704 0.11082495
000320 98 f9 3d 3d 5f f3 8c bd f1 2f 2a 3e e9 a9 96 3d
       0.04638061 -0.06882357 0.1661985 0.073566265
000330 24 7a b2 bb 4e 6f de 3d 98 a1 1f 3c 84 56 3a 3c
       -0.005446689 0.108610734 0.009743117 0.011373166
000340 4b 0e 4a 3d 1e c1 a3 bc db 0f 74 bd 66 fc 40 3e
       0.049330037 -0.019989546 -0.059585433 0.18846282
000350 5a b7 f3 3b 44 2a 4a 3d 52 5f 03 3e f9 f0 8a 3d
       0.0074376287 0.049356714 0.1282933 0.06784243
000360 b8 2b af 3d aa 8c 0a 3d 1f 39 cb bc 95 26 93 bc
       0.085532606 0.033825554 -0.02480751 -0.017962733
000370 8f f5 d7 3d 6b 08 86 3d 06 ed 98 bc 55 73 1a 3e
       0.105448835 0.06544574 -0.01866771 0.15083058
000380 82 cc 19 bd 3f 5a 26 39 19 a6 70 3d da 00 44 bd
       -0.03754855 0.00015864613 0.058752153 -0.047852375
000390 70 ed f9 bc 51 6a b4 3d b0 62 20 3d 82 cd 84 3d
       -0.030508727 0.08809341 0.039156616 0.0648451
0003a0 04 82 fe 3d be 5f 6c 3d 4b 30 a9 3d aa d4 11 3e
       0.12427142 0.057708494 0.08261164 0.14241281
0003b0 70 61 87 3b 08 8b bd bc a0 a0 a8 3d a9 dc 52 3a
       0.0041314885 -0.023137584 0.08233762 0.0008043745
0003c0 8d ff bf 3d 89 e8 30 3e a0 d0 1c bd 9a a7 3e 3c
       0.09374914 0.17276205 -0.038284898 0.011636639
0003d0 a7 41 3d 3d e0 fc 91 3b 33 40 b0 3d ce bf df 3c
       0.04620519 0.004455194 0.08605995 0.02731314
0003e0 1f 26 b6 bc b2 95 2d 3d 84 cc 18 3d 56 37 8a 3d
       -0.022234974 0.04237909 0.037304416 0.06748836
0003f0 e0 60 38 3d b9 fb 02 3d 3c a4 91 bd 8b f8 8d 3d
       0.045014262 0.031978343 -0.07111403 0.069321714

bias f4 [64]
000000 57 aa f7 bb 96 ea 86 3d ef af 84 3d 63 aa 01 bd
       -0.007558148 0.065877125 0.06478869 -0.031656634
000010 6b 02 4b 3d 4a 3b 0d 3d 50 8e a9 3b d1 76 a4 bb
       0.049562853 0.03448037 0.0051744357 -0.005019047
000020 ac 8e d0 3c 37 84 6a 3d da 3a 7f bb 4a 54 00 3d
       0.025458656 0.057254996 -0.003894499 0.031330384
000030 7a 16 03 3d 80 e9 9b 3d 41 09 4d 3d 12 ca 2e 3d
       0.032003857 0.07612896 0.050057653 0.042673178
000040 3d 49 8c 3c e3 e6 0e 3d 4c b4 01 bb 98 0e 55 3d
       0.017124766 0.03488816 -0.0019791303 0.05201587
000050 e8 ea 01 bc 95 19 4d 3d c6 3b a4 3d ab dc d6 3c
       -0.007929541 0.050073225 0.080192134 0.02622827
000060 16 10 4e 3d e3 bc 63 3d 50 b5 1b bd 53 1b 63 bd
       0.05030831 0.05560006 -0.03801471 -0.05544598
000070 24 77 a2 3c f1 0b 6a bc 63 90 9d bc d9 98 b3 bc
       0.019832201 -0.014285074 -0.019233888 -0.02192347
000080 e0 c4 1b 3d cb 0f 40 3d 38 65 f2 3c 60 2e ed ba
       0.03802955 0.04689006 0.02958928 -0.0018095486
000090 31 34 5f bc 95 52 b5 bb b3 22 a5 bc 1a 06 99 3d
       -0.013623283 -0.005533526 -0.020158147 0.07471867
0000a0 4e 24 fb 3c 25 e1 72 bd a7 68 ae 3b 8b fb 18 3d
       0.03065696 -0.059296746 0.005322534 0.037349265
0000b0 d8 f7 28 3d 2a b5 64 bd e6 1a 42 3d 2e cf 84 3d
       0.041251987 -0.055836834 0.047388934 0.06484829
0000c0 60 52 94 3d b9 3e 1e bd 2f 31 98 bc 92 40 65 b9
       0.07242274 -0.038634036 -0.01857814 -0.00021863196
0000d0 61 ad 07 3c 18 28 83 3d ac ab 30 3d a5 13 15 3d
       0.008281083 0.06404132 0.04313247 0.036395688
0000e0 f6 3a ee bc 8f cf a7 bc a7 98 00 bc d4 11 84 bd
       -0.02908085 -0.020484714 -0.007848895 -0.06448713
0000f0 e8 a7 2a bd 7e 34 81 bd 21 a6 33 3d 58 e6 24 3d
       -0.041664034 -0.0630884 0.043859605 0.040258735

weight f4 [128, 576]
000000 9f b3 98 bd 24 b3 0c 3e 73 ba 33 bc e3 e9 ba 38
       -0.07456135 0.13740212 -0.010969746 8.912736e-05
000010 78 17 b6 3d af eb 16 3d 30 4e 37 3d a2 2c a0 bd
       0.08891195 0.03684586 0.0447523 -0.07821013
000020 ff 20 c5 3c 13 04 9e bc 70 e4 41 3d ef e6 22 3d
       0.024063585 -0.019289052 0.047336996 0.039771017
000030 38 bd ad bc 60 09 c5 bd c9 9f df 3b 8a a4 05 bc
       -0.02120839 -0.09620929 0.006824468 -0.008156905
000040 6e 32 67 3c 33 92 31 3d 3e 92 1d bd 80 33 c3 3b
       0.0141111445 0.043352317 -0.038469546 0.005957067
000050 53 b3 a5 3d 11 4b bb bd 99 4e 1a 3c be c2 5a bd
       0.08090844 -0.09145177 0.009418153 -0.053408377
000060 8c 66 0b 3d be 30 56 3d 6d df df 3c 51 a9 60 bd
       0.034033343 0.052292578 0.027328217 -0.054848973
000070 eb d5 7a 3d 1f f1 ca 3d 33 f3 7a 3e 8b 14 80 bd
       0.061239164 0.099092714 0.24506836 -0.06253918
000080 dc 86 89 bd 4b b8 60 bc 8b 22 c6 3d ae 41 88 bc
       -0.067151755 -0.013715814 0.09674557 -0.016632881
000090 a8 2b 3d bd 7e c8 36 3d 59 dd 3b 3d 11 03 bc ba
       -0.046184212 0.044624798 0.04586539 -0.0014344176
0000a0 a8 0c 1f bb 58 50 9f 3c ea 35 a6 3d cb 08 9e 3d
       -0.0024269018 0.01944749 0.08115752 0.07716521
0000b0 a7 15 a7 3b 2b ec 19 bd cd 58 98 bd f4 a7 78 3d
       0.0050990167 -0.037578743 -0.074388124 0.060707048
0000c0 31 a9 1e bd 91 80 a1 3c 83 64 67 3c 4c 33 8a 3d
       -0.038735572 0.019714626 0.014123085 0.06748065
0000d0 12 1e b1 3d 05 8d 19 bd d4 23 39 bd 3e f9 02 be
       0.086483136 -0.037488002 -0.045200184 -0.12790391
0000e0 b8 f1 03 be 81 75 d8 3d 2a 6c c6 3d a8 94 d4 3d
       -0.12885177 0.10569287 0.096885994 0.103799164
0000f0 17 5e e3 3c c8 4a ff 3c 86 90 86 bc 30 b2 b8 bc
       0.027754826 0.031163588 -0.016426336 -0.022545904
000100 9c 97 c5 3d b0 85 1e 3d f6 e3 7f 3c 53 71 38 bd
       0.09648058 0.038701713 0.015618315 -0.04502995
000110 47 de ab bd 15 d4 97 bd 8f a6 a9 3b 23 fb 98 3d
       -0.083920054 -0.07413498 0.005177326 0.074697755
000120 71 49 2c 3e e6 30 4e 3c eb 29 88 3b 69 d7 f1 bd
       0.1682489 0.0125849005 0.0041553876 -0.11808664
000130 2f 76 a7 3d d4 a4 90 3d 8c 0c 59 3c 6b a3 12 3d
       0.081768386 0.070626885 0.01324762 0.03580038
000140 97 49 06 3d 3a 7d 0a bd 2e 1e d2 3d c8 d8 a1 3c
       0.032785024 -0.03381083 0.102596626 0.01975669
000150 d0 ef 96 3b 46 47 6b 3c e1 58 17 3c 31 52 59 bc
       0.0046062246 0.014360255 0.009237499 -0.013264225
000160 a0 04 fd 3c 02 78 80 bc 54 45 1f bc 9b 95 94 3d
       0.030885994 -0.015682224 -0.009721119 0.072550975
000170 84 a7 37 3d fd ad c8 bc fe 07 bd bc d9 88 2c 3b
       0.04483749 -0.024497027 -0.0230751 0.0026326685
000180 32 28 87 3d e2 32 89 3c 09 97 a4 3c c2 08 0f 3e
       0.065994635 0.016747896 0.02009155 0.13968185
000190 a6 b0 ae 3d c2 81 0c 3d 19 57 54 be 2f 19 ed bc
       0.08529787 0.034303434 -0.2073635 -0.028942673
0001a0 78 e8 e8 3c e1 f3 03 3d 41 e6 9d 3d bb e5 17 bd
       0.028431162 0.032215003 0.07709933 -0.037084322
0001b0 24 45 99 3c 39 92 5c 3d 86 1e 87 3d 80 7d dc bd
       0.018709727 0.053850386 0.06597619 -0.10766125
0001c0 16 8f b5 bb 7c fb 81 bc 86 58 83 3d 2c 8f 18 3e
       -0.005540739 -0.015866987 0.06413369 0.14898366
0001d0 0c 53 6e bc fa b7 b3 bd 5b fc 04 3e d3 2f 66 3d
       -0.014546167 -0.08775325 0.12986891 0.056197952
0001e0 d1 1c 87 3c 6d c3 70 3d c5 a6 36 bd c8 c6 b6 3d
       0.016493233 0.058780123 -0.044592638 0.08924633
0001f0 d2 62 12 3d 90 d6 98 3d d2 64 1b bd 28 99 30 3d
       0.035738774 0.074627995 -0.037937947 0.04311481
000200 4c 7d 07 3d 8b f5 0a bd a8 7b 8f bd f8 ad 09 bd
       0.033078477 -0.033925574 -0.070060074 -0.033613175
000210 84 74 d3 3d b8 28 93 3d ed 8b 37 bd 22 3d 2a bc
       0.10324958 0.07185501 -0.044811178 -0.010390552
000220 2c 13 cc 3d 9d d2 73 3d 23 d4 7b bd 40 1e a0 bc
       0.09964594 0.05952703 -0.061481606 -0.019545674
000230 da e0 56 bc eb d3 54 3d 12 45 86 3b 38 7f bd bc
       -0.013115132 0.051959913 0.0040975893 -0.023131952
000240 2a 27 d7 bd 89 a2 92 bd 86 b5 64 bd b1 aa 2f 3d
       -0.10505517 -0.07159907 -0.055837177 0.042887393
000250 b0 b4 ba 3d fb a6 a0 3d 68 2e 96 3c ff 0e 1f bd
       0.09116495 0.07844349 0.018332675 -0.03883266
000260 41 59 41 bd fa d9 0d bd 5f d2 a0 3d 6d ad bf 3d
       -0.04720426 -0.034631707 0.07852625 0.0935925
000270 22 8d 22 bd 84 38 88 bc 67 aa 17 bc 71 8f e7 bc
       -0.039685376 -0.016628511 -0.009256936 -0.02826664
000280 f3 8c ed 3c d8 33 76 bc 68 bc 3a bd 69 6b ad 3d
       0.028997874 -0.015027009 -0.045589834 0.084677525
000290 2d 63 07 3d 1d fd 2c bb 5d 22 18 bc 58 fa 84 bd
       0.033053566 -0.0026395984 -0.009285537 -0.06493062
0002a0 19 00 88 3d 98 39 21 bd ca ee 7b 3d 84 5f ca bc
       0.066406436 -0.039361566 0.061507024 -0.024703749
0002b0 d7 96 18 3d ec 58 65 3d 7d 81 80 bd 9a 37 8d bc
       0.037253227 0.055993006 -0.06274698 -0.017238427
0002c0 59 04 95 ba ec 91 16 3d 69 23 bd 3c 71 40 60 bc
       -0.0011369094 0.036760256 0.023088174 -0.013687239
0002d0 82 18 85 bd 51 d0 18 3d b0 14 6f 3d 95 af cd bd
       -0.06498815 0.03730804 0.05836934 -0.10043255
0002e0 f9 47 37 bd 17 94 b9 3c 3a 4a 5c 3d f6 3e a9 3d
       -0.044746373 0.022653623 0.053781725 0.08263962
0002f0 68 b8 0b 3d 78 7e 86 3c f7 83 80 3d 8f fa 90 3d
       0.03411141 0.016417727 0.0627517 0.0707904
000300 eb 12 8c bd c5 d8 ec 3c a1 7c 3b 3d 4e 55 cd 3d
       -0.06839546 0.028911958 0.045773152 0.10026036
000310 b1 5f c5 3d 3a 21 4d 3c 45 4f 86 bd 4b 2d bb 3d
       0.09637392 0.012520129 -0.06558088 0.09139498
000320 1e 95 2e 3d 44 6a 43 bd fe b4 fb bb 15 7f a8 3c
       0.042622678 -0.047708765 -0.007681488 0.02056841
000330 63 15 a5 3d 76 6e 73 3d 01 11 93 3c b5 62 93 bd
       0.0806072 0.059431516 0.017952444 -0.07196561
000340 48 19 ec 3d fe a3 84 3d 69 de 2e bd 20 36 b1 bd
       0.115282595 0.064765915 -0.042692576 -0.08652902
000350 89 5e 03 3d fe 30 7e 3d 98 66 4b 3d 79 c6 cf 3c
       0.032072578 0.06205844 0.049658388 0.025363194
000360 61 96 cf 3d 3b 5c 3c 3d 98 82 78 3d 3d 40 6f bd
       0.101361044 0.045986395 0.06067142 -0.05841087
000370 09 ea 6d bd 6d 26 3e bb c4 89 58 3d a8 8b 73 3d
       -0.05808452 -0.0029014603 0.05286576 0.05945936
000380 73 bc 03 3d 41 ba 68 bd f8 9c 8e 3d 31 40 d1 3d
       0.03216214 -0.05681825 0.06963533 0.10217322
000390 d9 f2 37 bc 63 b2 76 bd 0b a5 9a bb 47 9c 77 3c
       -0.011227333 -0.060228717 -0.0047193817 0.015112943
0003a0 5a 48 24 3d 0e b4 2a 3d f0 35 2c 3d 45 4b 00 3e
       0.040108062 0.04167562 0.042043626 0.12528713
0003b0 5f 72 67 3d aa e3 fe bd 33 27 12 3b ef d8 25 3c
       0.056505557 -0.12445767 0.0022301197 0.010122522
0003c0 bf c9 4d 3d 90 7b d1 3c c6 95 9e 3c 64 04 09 be
       0.05024123 0.025571615 0.019358527 -0.13380581
0003d0 eb 74 2d 3c 5c 81 56 3d 1e 18 ee 3c b1 3d 4d bd
       0.010586957 0.05236946 0.029064234 -0.05010766
0003e0 a8 73 1e 3d f7 65 d9 3d 2b 4f 42 3e 0a 58 a9 3c
       0.038684517 0.106151514 0.18975513 0.020671863
0003f0 a6 84 cc bc c5 7a 9a 3d 54 c6 d2 3d 21 02 bc 3c
       -0.024965595 0.07542948 0.10291734 0.022950234

bias f4 [128]
000000 39 04 13 bc e9 5f 60 3c e4 39 0a bd ec e3 62 bc
       -0.008973175 0.013694742 -0.033746615 -0.013848286
000010 77 8f 55 3c 7b 08 ff 3c 50 de 24 bd e2 6a 83 3d
       0.013034693 0.031131973 -0.040251076 0.06416871
000020 07 44 41 bd 8e af 97 3d ee 62 b5 3b e6 af 6a bc
       -0.047184017 0.07406531 0.005535475 -0.014324164
000030 d6 ed 17 3d 82 4c 34 3d e5 d5 c5 3c b8 4c 6b 3c
       0.037092052 0.044018276 0.024149844 0.014361553
000040 62 89 bf bc 3e f6 81 bc 7c 9d a9 3c f3 9c 07 3d
       -0.023380939 -0.015864488 0.020704977 0.033108663
000050 a7 33 b7 3c e4 0b 5b 3d cc e5 2a bd 3e 3a 9e 3c
       0.022363497 0.053478137 -0.041723058 0.019314881
000060 1d a9 59 bc 70 40 3f bc 15 45 03 bd 81 ba 28 3d
       -0.013284949 -0.011673078 -0.032048304 0.04119349
000070 69 f0 65 bb 2b 3d a5 3b 52 cf ca 3c 79 23 14 3d
       -0.0035085923 0.005042692 0.024757061 0.03616664
000080 b5 3d b4 3c be 9b 3f bd 46 f0 5d 3d 99 c2 1c 3c
       0.02200208 -0.046779387 0.05418422 0.00956788
000090 e0 f7 ce 3c bd 38 ba 3c a3 f7 cb 3c 9d db 8c 3d
       0.02526468 0.022732133 0.024898356 0.068778254
0000a0 9d bf 18 3d 17 fe 16 bd 96 81 a4 3c dc ac 81 3d
       0.03729211 -0.036863413 0.020081323 0.063317984
0000b0 25 72 ba bc 56 ca 18 3d 51 1e 60 3d df 12 24 3d
       -0.022759506 0.037302338 0.054716412 0.04005706
0000c0 55 d6 b6 bc e7 1f 21 3d ce 6b 44 bc 36 dc d8 bc
       -0.022318998 0.039337065 -0.011988593 -0.026472192
0000d0 92 9a 98 bc e0 8c a5 3b a0 86 8d bb 64 48 3a 3d
       -0.018628392 0.005052194 -0.004319027 0.045479193
0000e0 f6 87 2f 3d 42 63 e5 3c bc 24 dc bb 77 72 f5 3c
       0.04285427 0.028001431 -0.0067182463 0.029961808
0000f0 b1 88 ce 3c 06 10 b2 3c 3f ea 54 3d 73 86 8e 3d
       0.025211664 0.021736156 0.051981207 0.06959238
000100 70 c2 35 3d fa 14 93 3b 81 5b 0e 3d fa e0 59 3c
       0.044374883 0.0044885846 0.034755234 0.0132982675
000110 75 79 6a 3d 43 da 68 3d fd 7d 27 bd d1 cc 40 3d
       0.057244737 0.056848776 -0.040891636 0.04707033
000120 ad c5 85 bc 7c b7 d3 bb 07 f0 89 bc 4f b4 c0 3c
       -0.01632961 -0.006461082 -0.016838087 0.023523478
000130 98 58 01 3d 9c 3b 0d bc 4d ea 01 3d 75 50 8a 3c
       0.03157863 -0.008620169 0.031717587 0.016884068
000140 03 76 23 bc be 0f 65 3d 4b 77 06 3c 1a cb 48 3d
       -0.009976867 0.055923216 0.008207153 0.049021818
000150 d0 56 03 3d 14 bf 49 3d f9 45 a2 bc 19 49 a3 bc
       0.032065213 0.049254492 -0.019808756 -0.019932317
000160 ea 99 73 bb 46 d1 8e 3d e5 02 44 3c f4 92 7b 3d
       -0.0037170597 0.069735095 0.011963581 0.061419442
000170 96 00 be bc 0b 6c 5f 3c ac 5d 8e 3c 4e a9 17 bd
       -0.023193639 0.013636599 0.01737865 -0.037026696
000180 a3 dc 16 3d 2c f5 93 3d 70 cb 89 bc 1f 66 c4 bc
       0.03683151 0.07224497 -0.01682064 -0.023974476
000190 1f 57 48 3d ad 18 84 3c 3c ee b0 3c c7 58 3e 3b
       0.04891121 0.016125048 0.021597974 0.0029044615
0001a0 6a 2a a3 3b 83 2d 94 ba 51 b3 fb 3c 65 84 6b 3c
       0.0049794214 -0.0011305067 0.030725153 0.014374827
0001b0 89 78 bc 3c e7 94 b5 3b 75 15 21 3d 05 25 6d 3c
       0.023006694 0.005541432 0.039327104 0.014474158
0001c0 a5 e6 46 3d a3 85 8d 3d 9c a2 0c 3d f9 05 f6 bc
       0.048559804 0.06910255 0.034334764 -0.030032145
0001d0 cd 84 8f 3d 2a ac 89 3d a3 4e b2 3c 01 7d 4c bd
       0.070077516 0.06722291 0.021766013 -0.0499239
0001e0 3e 2c 45 3d 01 08 3c bc 72 b2 38 b9 3f 94 38 bc
       0.048137896 -0.011476518 -0.00017614083 -0.011265813
0001f0 9a f3 39 3d 99 2f 22 bc 4c 8d ef 3c 17 75 58 3d
       0.045398332 -0.0098990435 0.02924218 0.05284604
