comparisonLinearVsCNNVsCNN/db39Model/notAugmented/combined.csv_CNNModel16x2x2_Epochs1_ValidationLoss:0.275191_lr:0.0003__2023_07_12_15:15:01.pth (torch, 50059 bytes, 23 tensors)

weight f4 [2, 1, 3, 3]
00000000: f812 44be d4f9 8e3e aba4 d4bb b78d a03e
00000010: aba1 ff3d f37a 403e 0b19 42be 481e 29be
00000020: 4bd2 21bd 56a7 cd3c ab4c a43c 5e8a 5d3e
00000030: dcc0 9f3e b83b 85be 8bc5 163d fe39 6ebe
00000040: 8099 983e d30c 34be
-0.19147861 0.2792498 -0.0064893565 0.3135812 0.124820076 0.18796901 -0.18954866 -0.16515458
-0.03950719 0.025104206 0.02005609 0.21634814 0.31201828 -0.26022124 0.036809485 -0.2326431
0.2980461 -0.17583017

bias f4 [2]
00000000: cb9f 1c3d 2e1d 773e
0.038238328 0.24132225

weight f4 [2, 2, 3, 3]
00000000: c07c 8e3d 6422 433e 439c 46be aa10 3ebd
00000010: 2c4c 4bbe 8624 4bbc 2984 64be dc85 58be
00000020: 9852 4abe c436 4bbe 6c6d a5bd 6795 b4bd
00000030: 4dde 6fbe 912a 4d3e 5ae0 c03d 5cbc 6fbe
00000040: e364 233e 87d1 b73d 8c7c cdbd 8bf3 3dbe
00000050: 6921 99bc af7c 52be 0b35 d53d 7e57 3cbd
00000060: 5f72 253e cefb f3bd 60ae 53be 1f45 1e3e
00000070: 5631 62be 84f7 a73c f8cb 7abd 686a 213e
00000080: d499 13be acb8 c3bd 4472 febd 7606 27be
0.06957388 0.19056088 -0.19395547 -0.04640261 -0.19853276 -0.012398845 -0.2231604 -0.21144813
-0.1975807 -0.1984511 -0.08077511 -0.08817559 -0.23424645 0.20035769 0.09417792 -0.23411697
0.15956454 0.08975511 -0.10033521 -0.18549936 -0.018692689 -0.20555376 0.10410508 -0.045981877
0.1615691 -0.11913262 -0.20671988 0.15456055 -0.22089133 0.020503767 -0.061229676 0.15763247
-0.1441415 -0.09556708 -0.12424138 -0.16311058

bias f4 [2]
00000000: 4591 533e 3b5a f3bb
0.20660885 -0.007426528

weight f4 [4, 2, 3, 3]
00000000: 07ff 8a3c a44c 243e edf4 d13d 3c39 cb3d
00000010: b955 04be ffae 13bd bf11 02be 62ca 253e
00000020: 4d25 d83d 0dbe 623e 5dd4 793d 80c2 20bd
00000030: 6a36 613e e6bf 6fbe 5e24 f13d 7ce0 403e
00000040: 38a7 1dbe 7f55 603e f251 883d b456 ea3b
00000050: 647f 5cbb 2df9 62be 1642 583e 9ccb 80bd
00000060: 2c5c 49be 9716 5a3d 7174 e13d fca8 2f3d
00000070: eebf 693e bf91 383e be13 a8bd 5bcc 1abd
00000080: e15b dfbd c7c6 04be 4787 6f3e 28cc 2b3a
00000090: 67f4 543c 4daf 41bd 1d0d 52bd 75a1 363e
000000a0: 9616 74bd 9597 60be 7d33 5c3e 8d03 463e
000000b0: ed7f 113e da24 3fbc 2ac5 99bc 0ff3 a23d
000000c0: e579 c6bd 9c40 5d3e 054c 463e 4fb0 033e
000000d0: baef cabd b046 3cbe ce3b 40be ad22 2a3e
000000e0: 5f30 08bc 9d15 f43c 8bcb 043e 0b9d 3e3e
000000f0: 0dc4 fc3b 5baf 2abe 9700 4d3e 0ad1 01be
00000100: e010 e2bd 89b5 c9bd 4096 6ebe 54fd 70bd
00000110: 8f2a 18be dce6 18be d62c 5fbe fe89 9bbd
0.01696731 0.16044861 0.10251794 0.09923026 -0.12923326 -0.03605556 -0.12702082 0.16190484
0.105539896 0.22142811 0.06099354 -0.03924799 0.21993414 -0.23413047 0.117745146 0.18835634
-0.1539582 0.21907614 0.06656255 0.007151449 -0.0033645267 -0.22165366 0.2111896 -0.062888354
-0.19664067 0.0532442 0.110085376 0.042885765 0.22827122 0.18024348 -0.082068905 -0.037792545
-0.109061964 -0.12966453 0.23391448 0.0006553554 0.012997723 -0.04728632 -0.051282037 0.17835028
-0.059591852 -0.21932824 0.21504016 0.19337292 0.14208956 -0.011666501 -0.018770773 0.07956516
-0.09691218 0.21606678 0.19364937 0.12860225 -0.099090055 -0.1838634 -0.18772814 0.1661479
-0.008312314 0.029795462 0.1296827 0.18614595 0.0077138008 -0.16668455 0.20019756 -0.12677398
-0.11038375 -0.09849078 -0.23299503 -0.058835343 -0.14859985 -0.14931816 -0.21794447 -0.07594679

bias f4 [4]
00000000: 04ee 47be 0065 283d f475 013e 2b65 0bbe
-0.1952439 0.041111946 0.12642652 -0.13612811

weight f4 [8, 4, 3, 3]
00000000: 4b3d ed3c 2b8a bebb fb9f 573d 4026 0fbe
00000010: 9b06 b6bd 2bb8 c43b c3da 1abe 3087 3abd
00000020: 2bca efbc 1345 b93d 3681 d73d abcf 283b
00000030: 302d 5fbd 888f 05be a31a ecbd d64c a5bc
00000040: d85a b7bd bb58 13be 5a71 073e 38f6 ddbd
00000050: 2cdb 00be 9b18 bc3d be63 e13d d7fa 1d3e
00000060: b674 8a3d f66d 023e 4886 9fbd 5b53 76bd
00000070: 568f 643d 8879 10be 2443 253e 63cd b2bd
00000080: 0b64 f0bc 2fe3 1b3e e068 b5bd 2897 b5bd
00000090: 660b b83d 0e12 95bd c6c7 1dbd 60ad fabc
000000a0: 242f 21be 7017 4a3d 0016 14bb c024 8fbc
000000b0: 707e b53d 5e7d 92bd bbc1 683d f2ae 06be
000000c0: 86f5 65bd 208c cebd b050 58bd 5635 293e
000000d0: 4bae 0fbd 6fa0 083e 2653 afbd a240 2abe
000000e0: 3662 e3bd 23ee 0c3e 5089 243d 7ef9 b93d
000000f0: 5381 1e3e 5695 5cbd c8dc a6bd 1ffa 0f3e
00000100: 16b5 0ebe 8091 ae3d 36ee 2a3d 00c1 563d
00000110: 30ef 743d 6b68 d63c 734e fdbd 800b d7bb
00000120: be93 963d e054 293e a643 cbbd 5680 513b
00000130: 2009 61bd f696 c2bc a0ed 483d 5be6 febd
00000140: 0028 32ba 48e3 c1bd 68c3 15be a4bc 013e
00000150: c65a 833d 8882 943d be78 ca3d 0e6d f1bd
00000160: dbc8 24bd 4c67 203e 8880 c03d 8b12 5d3d
00000170: e032 d5bc 0386 1d3e 86ac 1b3d c327 f63d
00000180: 6b2c 743c 93f9 d3bd 4816 c8bd 93b9 1f3e
00000190: fc3d 063e a640 b5bd 5892 93bd 0654 093e
000001a0: de6e dcbd 8b00 1a3e 231a b9bd 3689 3fbd
000001b0: 7091 46bd a065 1abd 6e74 a93d 1396 d1bd
000001c0: 60ec e8bc 60a1 ad3d c6e2 85bd 33eb c4bd
000001d0: 5b38 e2bd cb82 eebc 2ee7 18be 5037 9b3d
000001e0: 7e2c ea3d 564f 913c 470a 283e 88d7 9b3d
000001f0: 6a24 183e 5606 4f3d f6d8 f33d 6640 f23d
00000200: 9c45 143e 36e8 c03c 4b7d cc3c 6b6c b1bd
00000210: 2bdf 42bd 13b6 f33d 6020 243e 7bb0 07be
00000220: e8e0 ae3d 00a4 bcbc 26a6 cf3d c0df 323c
00000230: 906b b2bd c363 ad3d 2365 bfbd ce0f 0fbe
00000240: 4b1b d2bc b0cb a73d a021 9a3d 5e32 b53d
00000250: 3092 f1bd 203d e2bc 1aea 05be 1b5c 3f3d
00000260: 56f3 6c3d 7bb5 0b3d 7675 c93c d681 913b
00000270: eb83 073e 08fe 9e3d 40f9 82bd 9393 c9bd
00000280: beed afbd 68d1 f73d e052 173e 9647 f03c
00000290: ebb5 723c 0f3b 08be bba2 35bd 5601 de3d
000002a0: e6e9 b33d ebe1 e23d 589b c1bd f077 63bd
000002b0: 7b52 b0bd 0390 003e 80da 21bd ae12 f7bd
000002c0: 6e5b 8c3d 8ea7 c33d 3cda 10be 70ee adbd
000002d0: b687 3f3d 0cfa 263e 50e1 803d e3bd d0bd
000002e0: 00a5 f4bc 7b61 f73d d047 f53d 9ba9 d0bd
000002f0: 5887 eebd de84 f6bd 5b0e b03d af55 13be
00000300: f615 543d 405d 853d 30ce 5ebd e889 ac3d
00000310: 6e62 9a3d c0f4 093e 302a bbbd ebe9 d43d
00000320: d692 403c 78b3 e4bd 30f4 6dbd 8031 1d3e
00000330: abe6 61ba 966f 95bd c67c debd 2b15 043d
00000340: 2630 cfbd 18c0 983d d3f4 08be d632 043c
00000350: b38b c9bd 9666 983c abe2 12bc 8096 11bd
00000360: 0be6 d03d 36b2 46bd d8e1 b9bd aa68 02be
00000370: 10c9 c23d 00f7 50bc 331e 803d e6d8 663d
00000380: 007c a6ba 4717 1a3e 4e5c a4bd 561b 8c3c
00000390: f7ab 013e 3ea2 97bd 8ee3 c03d 0081 f2bb
000003a0: 7ecd 263e ab9b dc3d 608c 9ebc 306a 743d
000003b0: dbc8 31bd 03dd 29be ab63 d3bc 7cce 00be
000003c0: 96db 10bc 6b8d 083e dbac 3fbd 4bed 923d
000003d0: ac67 00be 0849 dd3d 5693 b43d 0b65 023d
000003e0: bea7 833d ffc2 29be 3846 efbd f634 9f3c
000003f0: abe4 47bc 705a 713d 8306 8abd 273b 28be
0.02895989 -0.0058148107 0.052642804 -0.13979435 -0.08887979 0.0060034 -0.15122513 -0.04553908
-0.029271206 0.09046378 0.10522692 0.0025758545 -0.054486454 -0.13043034 -0.11528518 -0.02017824
-0.08952874 -0.14389317 0.13226834 -0.10837978 -0.12583607 0.091843806 0.110053524 0.15427719
0.06760542 0.1273726 -0.07789284 -0.060138088 0.05580076 -0.1410886 0.16138893 -0.08730581
-0.02934458 0.15223382 -0.08857894 -0.088667214 0.08986549 -0.07278834 -0.038520597 -0.03060025
-0.15740639 0.049338758 -0.002259612 -0.017473578 0.08862007 -0.07152818 0.05682538 -0.13152674
-0.056142353 -0.100853205 -0.052811325 0.16524252 -0.035078328 0.1334245 -0.08560781 -0.16626218
-0.111027166 0.13762717 0.040170014 0.0908079 0.15479021 -0.053853355 -0.081475794 0.14060257
-0.13936266 0.08523846 0.041731082 0.052430153 0.05979842 0.026172837 -0.123684786 -0.00656265
0.07352398 0.16536283 -0.09925012 0.0031967363 -0.054940343 -0.023753624 0.04905474 -0.124462806
-0.00067961216 -0.094671786 -0.14625323 0.12669617 0.06413798 0.07251459 0.09886311 -0.11788379
-0.040230613 0.15664405 0.093995154 0.053972762 -0.026025236 0.15383153 0.038006328 0.12019303
0.014903168 -0.10350337 -0.09769875 0.15598135 0.13109583 -0.08850221 -0.07205647 0.13410959
-0.10763334 0.1503927 -0.09038188 -0.046761714 -0.048478544 -0.037694573 0.0827416 -0.102337025
-0.028433025 0.084780455 -0.06537394 -0.09615173 -0.11045905 -0.029115101 -0.14931938 0.075789094
0.114342675 0.017738026 0.1641017 0.07609469 0.14857641 0.05054315 0.119066164 0.11828689
0.14479679 0.023548227 0.024962088 -0.08663257 -0.04757611 0.11899962 0.16027975 -0.13250916
0.08538991 -0.02302742 0.10139112 0.010917604 -0.08711922 0.08466294 -0.09345462 -0.13970873
-0.02564778 0.08193147 0.07525945 0.088474974 -0.11795461 -0.027617037 -0.13077584 0.046718698
0.05784925 0.03410862 0.024592143 0.0044405265 0.13233916 0.07763296 -0.06395197 -0.09842601
-0.085902676 0.12100488 0.14777708 0.02933101 0.01481388 -0.13303779 -0.044344645 0.108400986
0.08784847 0.11078247 -0.094534576 -0.055534303 -0.08609482 0.12554936 -0.03951502 -0.1206411
0.06853376 0.09553443 -0.1414575 -0.08492744 0.046760283 0.16306323 0.06292975 -0.10192468
-0.029863834 0.1207914 0.11976588 -0.101886 -0.116469085 -0.12037061 0.08596488 -0.14388154
0.051778756 0.06511927 -0.054395854 0.08424741 0.07538305 0.13472271 -0.09138906 0.10396179
0.011753758 -0.111670434 -0.058094203 0.15350914 -0.0008617441 -0.07296674 -0.108636424 0.03224675
-0.101166055 0.07458514 -0.13374643 0.008068761 -0.09841099 0.018603604 -0.008965175 -0.03554392
0.10200127 -0.0485098 -0.090762794 -0.12735239 0.09511006 -0.012754202 0.0625576 0.056359194
-0.001270175 0.15047942 -0.08025418 0.017102879 0.12663256 -0.07403992 0.094184026 -0.007400632
0.16289327 0.10771879 -0.019354045 0.05967158 -0.04340444 -0.16588216 -0.025804361 -0.12578768
-0.008841416 0.13335197 -0.046795707 0.07174166 -0.12539548 0.10804945 0.088171646 0.031834643
0.06428479 -0.16578291 -0.11683315 0.019434433 -0.012200515 0.05892414 -0.06739523 -0.16428815

bias f4 [8]
00000000: 1348 1cbe bb68 5a3d bc9e 0e3e 4eaf e23d
00000010: d62c 893d 1b5a b9bd 48b3 ae3d 4eb3 df3d
-0.15261869 0.053322535 0.1392774 0.11068593 0.06698005 -0.090503894 0.08530289 0.109228715

weight f4 [16, 8, 3, 3]
00000000: 7385 87bd 0d7b 8b3d 1fd4 05bd 05ad 8b3d
00000010: c65d 24bd 6b3f b13d ad9b 083d a90e 823d
00000020: f6ce 87bd 9381 da3d 81e1 c8bd b79a 76bd
00000030: 91d7 ca3c 024b 9d3d 8ee8 e03d df2a 94bd
00000040: 8008 0b3d 45ae 643d c09f 9ebd fe55 863d
00000050: b3f6 843d 0057 d23d 72fe 2abd 7e32 933d
00000060: 485f b1bd 5d26 7c3b 2a6d 873d bf1c 873c
00000070: d0b8 d8bd 7892 893d b44c adbc fbc9 cd3d
00000080: 0bb7 a3bb d0a9 a8bd 4002 d9bd 683f 7c3c
00000090: fdd0 b93d e989 eabc fbdc bdbd 4826 e0bd
000000a0: 22a6 b53d cffe 513d 8855 cebd efaf c1bd
000000b0: acc5 e53d 85b7 b23d d39b cf3c 8f57 5cbc
000000c0: 4303 98bd 27f5 b43d 667d 7cbd 0e23 e93c
000000d0: cfe6 973d 9f40 2b39 0543 b1bc e8d5 0e39
000000e0: 0669 b23d 6b3f 12bb 047f a0bd 7b2e 0dbd
000000f0: 381f be3d 6d29 8cb9 8940 94bd b681 ab3d
00000100: bfa4 3e3d 9f4a 4dbd c2e5 46bd 93a4 c33d
00000110: e261 aabd fec4 d2bd b302 85bc 52de e73d
00000120: 75de d63c c4aa be3d d2db 34bc 717f 6cbd
00000130: e642 133d e007 383c a9f0 71bd b231 233d
00000140: 554f cc3d b1f1 7fbc d8fd 233d 773d b1bd
00000150: eeb9 d03d 89e5 9f3d b411 863d d400 0c3c
00000160: 4099 bbbd c3fa e1b9 5704 af3d 872a f23c
00000170: 7d49 55bd c06f 64bd 2e5b bcbd bb21 793c
00000180: 7620 cd3c b216 5c3d b1ba ca3b d2af 1a3d
00000190: 9cf6 22bd 385f a8bd 158d bfbd 2976 cd3d
000001a0: 10eb 2abb 0f70 913d 415a ff3b 0cad 2dbd
000001b0: 6ba5 e23d d4ad 173b 3a98 383d b7ae a8bd
000001c0: 8c4b d33b 4d2d 3cbc 98e6 30bd c9c9 d9bd
000001d0: fa8f b1bd 7e20 82bd 4720 e3bd 4bcd 94bd
000001e0: d861 79bb bfe4 4f3d f277 cebd b86f cc3d
000001f0: 1102 98bd eef5 ba3d 79eb efbd 2be1 d3bd
00000200: 2c86 263c b3e0 cbbd c438 233c 15ff 5cbd
00000210: 7b61 cebd bf0d e03d 3d88 a4bd 769f 62bc
00000220: 73a2 ad3d 6470 b0bc 25ee 1ebd 6905 8a3d
00000230: 0d7b dabd 031d 99bd c312 ea3c 0ac6 593d
00000240: f97a c4bd 61cf 753c 07be b43d 42b3 8abd
00000250: ef8a d93d c65d 623d 26a8 673d 8bdb 283d
00000260: ecdc 0f3d 36c7 6b3d 86a0 e63d 51a3 e1bc
00000270: 515a be3d d988 c0bd 0d38 e13d a7a1 073d
00000280: 3c1a 73bc 0504 e4bd c2df e73c 376e abbd
00000290: d722 cabc 07af 3e3d 1005 c1bc 7781 873d
000002a0: 905c 6fbd 01b9 54bc a655 34bc edf3 b2bd
000002b0: 20ec ac3d 9d43 c73d ee56 4a3d 35e1 883c
000002c0: b3fe 54bd 0248 b53c 42ca c13b 8519 1bbc
000002d0: 3b82 ebbd b4b5 d03d 2f1e 88bd a824 babd
000002e0: 5dfc d03d de21 1f3d f582 dd3d d156 94bd
000002f0: 63db 61bd 36f3 e3bd c7e9 59bc 216d 42bc
00000300: 8e91 d83d 6d9a b6bd 3840 cb3d 483a 1bbc
00000310: b056 0e3d 97e0 f8bc 574b 1bbd 9b38 88bd
00000320: dded 64bd 21f1 c1bd 17d3 b03c 6ff8 0cbc
00000330: 7023 cdbd abbd d53d 5b99 36bc 081f e83d
00000340: 3127 c6bc 1793 2dbd 3a10 4ebd 4088 bfbd
00000350: 4124 9fbc 2f71 863c e637 55bd 1b39 adbd
00000360: 088e 4dbd db0e 8ebb d2b9 e1bd 8941 2cbd
00000370: 827f 8b3d 1406 d23d 7271 84bd 7d97 803d
00000380: f66b 013d 402d 8d3d 2abd 20bd 2331 dc3b
00000390: f5c0 be3d 0dfb 18bc 5824 dc3d 93a1 c23a
000003a0: 0d9e 9ebc 8943 da3d defe 66bd e415 7abd
000003b0: 3afc a4bc 426f 62bc 7d01 8b3d e924 96bd
000003c0: 1449 933d c1a8 54bd f18d a23d 6cba a53d
000003d0: a648 f8bb c5fb 2bbd 8782 b43d ad4b d73c
000003e0: 7174 1b3b 2d7f db3d a421 cdbb e7e6 1a3d
000003f0: faee 603d 327a 923d 4d74 e4bd ce1f ab3d
-0.0661725 0.068105794 -0.032672998 0.0682011 -0.04012849 0.08654674 0.03335159 0.063504525
-0.066312715 0.106692456 -0.098086365 -0.06020614 0.024760993 0.07680322 0.10981856 -0.072347395
0.033943653 0.05583026 -0.07745314 0.065593705 0.06492367 0.102705 -0.041746564 0.07187365
-0.086607516 0.0038475015 0.06612618 0.0164932 -0.10582125 0.0671739 -0.021154739 0.1004829
-0.0049961857 -0.08235514 -0.10596132 0.015395977 0.090730645 -0.028630214 -0.09270664 -0.109448016
0.08869578 0.051268395 -0.100749075 -0.09457385 0.112193435 0.0872641 0.025342857 -0.01344861
-0.07422497 0.088358216 -0.061643027 0.028459098 0.0741707 0.00016331904 -0.021638403 0.00013621862
0.08711438 -0.0022315632 -0.07836726 -0.034468155 0.09283298 -0.00026733745 -0.072388716 0.0837435
0.046543833 -0.050119992 -0.048558958 0.095528744 -0.08319451 -0.102914795 -0.016236639 0.11321701
0.026229123 0.09309915 -0.011038737 -0.057738725 0.03595247 0.011232346 -0.059067402 0.039842315
0.09976069 -0.015621589 0.040037006 -0.086543016 0.10191713 0.07807452 0.06546345 0.008545119
-0.091600895 -0.00043102176 0.0854575 0.029561294 -0.052072037 -0.055770636 -0.09197079 0.015205796
0.025039893 0.05373258 0.006186806 0.03776533 -0.039785966 -0.082212865 -0.09353081 0.10032303
-0.002608005 0.071014516 0.0077927415 -0.04240136 0.11066707 0.002314438 0.04506705 -0.08236449
0.006448215 -0.01148541 -0.04318866 -0.106341906 -0.086700395 -0.06353854 -0.11090141 -0.07265719
-0.0038052704 0.05075526 -0.100814715 0.09982246 -0.07422269 0.091289386 -0.11714835 -0.10345682
0.010163825 -0.09954967 0.009962264 -0.053954203 -0.10077187 0.10940122 -0.08033798 -0.013831964
0.0847825 -0.021537967 -0.03880133 0.06739313 -0.10668001 -0.07476237 0.0285734 0.05316738
-0.09593768 0.015003056 0.08825307 -0.06772472 0.106222026 0.05526521 0.056556843 0.041224997
0.035122797 0.05756303 0.11261086 -0.027543696 0.0929457 -0.094011016 0.10997019 0.033113148
-0.014837798 -0.11133579 0.028304938 -0.08370631 -0.024674816 0.046553638 -0.023561984 0.0661649
-0.058437884 -0.0129835615 -0.011006748 -0.087379314 0.08443475 0.09729693 0.04939931 0.01670895
-0.052000713 0.022129063 0.0059140036 -0.009466534 -0.11499449 0.10190907 -0.06646382 -0.09089023
0.102043845 0.038850658 0.10815994 -0.072431214 -0.055140864 -0.11130373 -0.013300366 -0.011866839
0.10574637 -0.08916173 0.09924358 -0.009474345 0.03475064 -0.03038053 -0.037913647 -0.06651422
-0.055890907 -0.0946982 0.02158503 -0.008604153 -0.10016525 0.10436567 -0.011144961 0.11334044
-0.02418861 -0.042376604 -0.050308444 -0.093521595 -0.019426467 0.016411392 -0.052055262 -0.08458158
-0.05018428 -0.004335267 -0.110217705 -0.042054687 0.068114296 0.102550656 -0.064669505 0.06278894
0.0315971 0.068933964 -0.0392429 0.0067197247 0.093141474 -0.009337199 0.107491195 0.0014849178
-0.019362474 0.106574126 -0.056395404 -0.061056033 -0.020139802 -0.013820471 0.06787393 -0.07331259
0.07191673 -0.05191875 0.079372294 0.08092198 -0.0075770197 -0.041988153 0.088139586 0.026281202
0.0023720528 0.10717616 -0.006260114 0.037817862 0.054915406 0.07152213 -0.11154995 0.08355676

bias f4 [16]
00000000: b551 fdbb 807d bdbd 310b dc3d 5d13 a23d
00000010: 65cc 9fbc 78b0 123d 1a69 54bd 8592 8b3c
00000020: e1a7 8b3c 7f8e bb3c 6d3b 983d 6eda 88bc
00000030: ddbb a73d ef24 4b3d b6e4 db3d fd0c eebd
-0.0077306875 -0.09252453 0.10744322 0.079138495 -0.019506643 0.035812825 -0.051858045 0.01703764
0.017047824 0.022895096 0.074332096 -0.016705718 0.08190129 0.04959577 0.107369825 -0.11623571

weight f4 [16, 16, 3, 3]
00000000: 205b 93bd 00d4 6c3c 20e0 3b3d b6b2 9cbd
00000010: 26c6 a03d 4bd4 f9bc d656 c23c 8065 22bb
00000020: 44cf a43d 3c5b a4bd 8b51 34bd 6662 a9bd
00000030: d685 8b3c 8ec1 623d 5f35 a1bd 73b6 30bd
00000040: f68c 5bbd 6b34 213c 16d8 b5bc 107f 3f3d
00000050: 7bb0 bb3c e49e 9ebd a3ab 363d 1025 953d
00000060: cb44 14bc 369b 64bd 1c33 91bd beaa 30bd
00000070: 38e2 1f3d aa68 9e3d 2ba8 473c 80ea da3b
00000080: 3032 49bd 20cb 693d 68a2 923d 17d5 963d
00000090: e305 8a3d 2afa 833d ab4a fb38 8318 713d
000000a0: a36d 643d 0eba 253d 836e 01bd bbf8 f2bc
000000b0: 36da dc3c d605 333d 1b06 4ebd 8e81 4b3d
000000c0: 48b1 0ebd de2b 3ebd de1f a2bd 9059 44bd
000000d0: d6b8 96bb fb7e 703d e636 59bd 06ca cd3c
000000e0: 1be9 273d d687 5fbb d0ba 98bc 505e 33bd
000000f0: 6ef6 403d e8e6 5ebd bef0 363d 8045 b63b
00000100: ee3b 0bbd d6fe 08bd 60f6 5bbd 1336 73bd
00000110: f3b9 9d3d 437f 9f3d e651 f8bc dbe9 f13c
00000120: e3a9 733d a015 00bd e07f 75bd a058 513d
00000130: 03d4 763d ee74 51bd 0015 e03c 0b9f b1bc
00000140: 8061 6abd ab99 8b3c e050 00bc 8382 61bd
00000150: 0302 9ebd eb36 c73b 6033 e8bc ee80 793d
00000160: 2bd2 fd3b 7207 a33d dca6 85bd a645 703d
00000170: bbc5 bbbc b068 cdbc ebcb 49bc fb1b cf3c
00000180: b0e5 96bc 5609 4cbd b6a3 3d3c ab4a e43b
00000190: 1ecd 483d 6b4d babb e839 043d 46a7 fa3c
000001a0: 4088 d03b 2bbd fd3c 9674 a43d 5bbb bcbc
000001b0: c7f2 91bd 8e20 7bbd ab26 ab3b 6686 863c
000001c0: 164f 01bc 60a7 09bd 3a7c a53d 6b65 8bbd
000001d0: 6676 82bd 235d 6fbd 6ed0 053d e313 41bd
000001e0: d67d fbbb e3e4 873d 0c0e 89bd 6e71 933d
000001f0: 0639 6b3d c07d 69bc 8615 8d3c d6b4 e03b
00000200: d683 00bc a63d d3bc 442b 843d 267b 6bbd
00000210: 1be2 7f3d 83be 2abd 1c29 903d abe8 6bbb
00000220: 089e a93d 6b6c 90bb a684 01bd 3814 2c3d
00000230: e0f4 34bd 2bfa 993d 6070 3a3c 6b28 47bd
00000240: 3ba7 b23c 800f a83c 0a37 a7bd cb8d 8f3d
00000250: 8615 a8bc 0473 9d3d d6d9 11bc 5f23 9bbd
00000260: 8b90 4bbd c6c8 833d 03d0 a43d 4a9b a4bd
00000270: 0e95 993d 8022 77bb 7fae 863d 2075 2ebc
00000280: 3bf7 4f3d 0307 273d 4031 e13c bc17 a23d
00000290: 4b01 1ebc f6e9 83bc 7e0d 7c3d ee4b 7c3d
000002a0: 1b0b a2bd 76a5 583c 006c 953c 66bc 5fbd
000002b0: 2847 84bd 7f2a 91bd d040 e2bc c095 13bd
000002c0: 5894 4a3d b643 58bd a3f5 5dbd 4b5a 7abd
000002d0: 9615 ca3c 684d 083d a743 873d 201e 8a3d
000002e0: 0b01 6b3d aba2 c9b9 5e58 173d 327b 8dbd
000002f0: 5676 603d 4c56 823d 365e 7e3d 2885 74bd
00000300: 5850 38bd ab11 fb3c b0ad c13c b68d c6bc
00000310: a62e 8b3d abf4 35bc 76eb 1f3d 763c b23c
00000320: c0d9 ddbc 4e0a 213d d651 253b a039 8dbd
00000330: 5601 bd3c ebd2 53bc 1685 febb 26e7 743d
00000340: 5bf5 8bbd 16be 453c d644 05bb cbe3 3fbc
00000350: 5322 4dbd a661 c2bc a693 a83c 3ac5 8cbd
00000360: 1600 323c 002d c33a de8c 2c3d d6db 393b
00000370: c025 223d 8319 933d 0b97 c23c 53d7 123d
00000380: 6eea 13bd 4005 ec3b a672 1c3d e06a 3f3c
00000390: 2855 833d 7b2a 8c3d 1aa8 853d 68b8 2bbd
000003a0: a8f3 223d 0b53 9ebd 9ae6 8b3d d3e9 87bd
000003b0: 8f99 8d3d 4bcb 143d f66f a03c eb97 8a3c
000003c0: 9625 8cbc f3b5 393d a3fe a83d 76a3 2d3d
000003d0: 84e8 a9bd f6c6 233d 541b a53d 60cc 913c
000003e0: e02b 2b3d 96e2 473c a024 213c 7378 a7bd
000003f0: 104d 42bd 106e 4a3d 43fb 84bd c0ab 1e3c
-0.07195115 0.014454842 0.04586804 -0.07651274 0.07850294 -0.030496737 0.023723047 -0.0024779737
0.08047345 -0.08025214 -0.044023078 -0.08270721 0.017031591 0.05536037 -0.07871508 -0.043142747
-0.053601228 0.009839158 -0.022197764 0.046752036 0.0229113 -0.0774515 0.04459728 0.0728246
-0.009049605 -0.055812083 -0.070898265 -0.043131582 0.0390341 0.07734807 0.01218609 0.0066807866
-0.04912013 0.05707848 0.07159883 0.073648624 0.06739404 0.064441994 0.00011982521 0.058861267
0.05576862 0.04046064 -0.031599533 -0.02965962 0.02695952 0.043706737 -0.05029879 0.0496841
-0.034837037 -0.046428554 -0.079162344 -0.047936976 -0.004599671 0.058714848 -0.05303087 0.025120746
0.04099379 -0.0034108064 -0.018643767 -0.043791115 0.047110014 -0.054419428 0.044663183 0.0055624843
-0.0339927 -0.033446155 -0.05370176 -0.05937774 0.077014826 0.07787945 -0.03031249 0.029530456
0.05948819 -0.031270623 -0.059936404 0.05110991 0.060260784 -0.051136903 0.027353764 -0.021682283
-0.05722189 0.017041048 -0.007831782 -0.055056106 -0.077152275 0.006079545 -0.02834481 0.060913973
0.0077460012 0.079604045 -0.065259665 0.058660172 -0.022921434 -0.025074333 -0.012316684 0.025281897
-0.01842007 -0.04981359 0.011574676 0.006966909 0.04902374 -0.0056854985 0.032281786 0.03059734
0.0063638985 0.030973991 0.080300495 -0.023038557 -0.07126384 -0.061310343 0.0052231154 0.016421508
-0.007892391 -0.033606887 0.08080335 -0.06806453 -0.06370239 -0.05843843 0.032669477 -0.047138106
-0.007674913 0.066354536 -0.06692132 0.07199369 0.05742743 -0.014251173 0.017222177 0.006857495
-0.007843932 -0.025786232 0.06453565 -0.05749049 0.06247149 -0.041685592 0.07039091 -0.0035996835
0.08282095 -0.0044074557 -0.031620644 0.04201147 -0.044178843 0.07518419 0.011379331 -0.04862253
0.021808257 0.020515203 -0.08164795 0.07009467 -0.020518076 0.07687953 -0.008902034 -0.07575106
-0.049698394 0.06434779 0.080474876 -0.080374315 0.07499133 -0.0037709773 0.06576251 -0.010648042
0.050772887 0.04077817 0.027489305 0.07914683 -0.009643863 -0.016102772 0.061536305 0.06159585
-0.079122745 0.013223043 0.018239975 -0.05462303 -0.064588845 -0.070881836 -0.027618796 -0.036031485
0.049457878 -0.05279895 -0.054189336 -0.061121266 0.024668496 0.033276945 0.066047005 0.06744027
0.05737404 -0.00038458905 0.036949508 -0.06908263 0.054800354 0.06364116 0.062101565 -0.0596973
-0.044998497 0.030648073 0.023642391 -0.024237495 0.06796007 -0.011105697 0.039042912 0.021757346
-0.02708137 0.039316468 0.002522578 -0.06895757 0.023071926 -0.012928705 -0.00776733 0.059790753
-0.06833907 0.012069246 -0.002033522 -0.011712025 -0.050081562 -0.023728203 0.020578217 -0.068735555
0.010864278 0.001489073 0.04212653 0.0028359792 0.039586782 0.071826 0.023753664 0.03584988
-0.03611224 0.0072027743 0.038195275 0.011683196 0.06412727 0.0684404 0.065262035 -0.04192391
0.03978315 -0.07730683 0.06831093 -0.06636395 0.069140546 0.036326688 0.019584637 0.016918143
-0.017107766 0.045339536 0.08251693 0.042392217 -0.08296302 0.039984666 0.08061853 0.017797649
0.04178989 0.012200018 0.009835392 -0.08177271 -0.047436774 0.04942137 -0.06493237 0.009684503

bias f4 [16]
00000000: 0810 85bd 1e8a 6dbd 8b7b ebbc 305c d73c
00000010: 9e24 76bd 830d 26bd f620 ce3c bb79 24bd
00000020: f0dc 9fbc 6b3d 393c 6058 273d 874b 8cbd
00000030: 63b6 453d 1bb2 72bd 6079 3c3d f051 20bd
-0.06497198 -0.057993047 -0.028745433 0.026289076 -0.060093515 -0.04054023 0.025162201 -0.040155154
-0.01951453 0.011306147 0.040855765 -0.06850343 0.04826964 -0.059251886 0.04601419 -0.03914064

weight f4 [16, 16, 3, 3]
00000000: 8edb 14bd 8bc4 2ebd ab95 deba d6cd 613d
00000010: a0c9 4c3c 5b72 5bbd b348 13bd cbab 67bd
00000020: c08d 4bbc d6e7 17bd 26e4 89bd d0d4 41bd
00000030: e6c5 a73c cc54 aa3d ce5a 3d3d a0d1 913d
00000040: b0f8 263d 772d 9ebd d63c 543b 766d 12bd
00000050: 9220 933d 4eac 093d 68d5 43bd cbfc f7bc
00000060: d6f7 68bc a048 8c3c 9e4e 9cbd 50b7 2fbd
00000070: 7637 e6bc 6679 b1bc 733c 6b3d 00a5 c83a
00000080: 96c9 763c 269e 803c c0bc 0fbd b6db 8c3d
00000090: 3017 353d bb4e 99bc ebd3 eebc bf53 90bd
000000a0: 4090 003c a88e 883d 76ee 1fbd 138b 02bd
000000b0: 7b00 6bbd 83ea 4abd 63e9 7f3d 0030 583a
000000c0: b881 1fbd 5e29 70bd c061 df3b ee3d 723d
000000d0: 1f41 953d 2c58 a5bd 563d 973c cb1f 793c
000000e0: 90e5 1f3d 5870 3a3d cb5b c5bc 8b33 a7bd
000000f0: 93b7 3dbd b358 5ebd ea21 84bd fb32 4c3d
00000100: 1b7e 933d 6cb6 98bd c0eb 5bbd 8bb5 58bc
00000110: 4b58 933d 8018 123d 50a1 c0bc 569c 23bd
00000120: 7e4c 99bd 4e52 933d b8ad 073d 9a25 82bd
00000130: 1a9f a23d ab50 ce3c 7673 583c d349 3bbd
00000140: c277 a43d 969a 86bc d642 a83b f6ee 753d
00000150: 061c 6d3d 0091 b9ba 686f 02bd 03c1 44bd
00000160: 769e 353d eb14 d6bb 561c 503d 96fe b03c
00000170: 5e4c 12bd 5bdd 97bc f665 163c 9cca 923d
00000180: d322 803d e0b2 893c 0e3a 32bd 48b5 a83d
00000190: 786d 733d 40ba a73d 50f1 863d a078 4c3d
000001a0: eec2 643d 40cc 803c a04f 203c 50db 563d
000001b0: b635 53bc a308 733d 4ba0 293c ebcb 37bc
000001c0: 3327 21bd a011 35bd 96eb c63c 1093 883c
000001d0: 768e 36bd 9319 9c3d 3632 023c 209d 653c
000001e0: cbd5 6dbc b3d9 58bd 2018 fdbc 8b7d 1ebc
000001f0: 5649 123d 2c44 84bd 03c9 91bd fac8 893d
00000200: 961a b5bc c6dd 993c 965d 55bc abd9 923a
00000210: 6708 8d3d 8b96 2d3c 4e99 52bd 0087 343b
00000220: 8e16 25bd 5605 fd3a 00a3 ecba 00fd 2cbd
00000230: 0b7b 4d3d 32d3 a7bd 7ea8 7a3d e2bf 9bbd
00000240: 9ab8 833d 5635 a03b ab9c 73bb 9e61 4ebd
00000250: 06b9 17bd a2f4 85bd 40e9 fdbc e22c 9d3d
00000260: abdf 67bb 064d 84bd d654 1cbb ab07 b7bb
00000270: 5b29 a7bc 720c 94bd eb9f e13c f38a 6abd
00000280: 5642 f4bb 5883 39bd 56dd a4bb 5094 843c
00000290: 7f79 a2bd eb07 68bd c000 be3c 0c96 80bd
000002a0: aea1 7ebd 8007 4a3b c301 6dbd 6bb9 34bc
000002b0: 73be 0b3d a84a 93bd 00a0 8c38 e0ec 413d
000002c0: 562d e5bb 806a a0bd f680 4a3d 3fd6 873d
000002d0: 9612 093d 5bf9 503d 7b3c bcbc 26c3 55bd
000002e0: d610 07bc 2e8e 2abd 5661 a739 aed0 75bd
000002f0: 90c3 483d 885a 17bd 2335 8f3d 568d 01bb
00000300: b037 87bd 208b 9d3c c8eb 823d 36ed 283d
00000310: 7636 bf3c 53c1 913d d20e 893d 1639 aabc
00000320: 8eb2 9c3d d319 603d ae20 25bd d080 da3c
00000330: 18e7 5a3d 2ee0 50bd 4b51 b73c abfd 513c
00000340: 1667 bf3c e6c2 6bbd 56bb ea3a 4b74 fbbc
00000350: f7ff 9dbd c01e 403c 1319 50bd 8e45 723d
00000360: ce00 063d 1808 583d 6faa 97bd 3612 813c
00000370: d0c3 a6bd c07a ad3c f622 9cbd ab82 f03a
00000380: a095 d2bc c03c d7bc c06d 62bc a045 323d
00000390: fb4b ef3c 7f82 88bd c091 8dbb 763f 273c
000003a0: 66ef 8b3d 00be f13c b832 513d 6670 bfbc
000003b0: 13db 04bd db16 1a3d 004e cabb d65b 403b
000003c0: 4e08 8fbd d3f9 0cbd 6693 9dbc 56b6 10bc
000003d0: 80e7 863c 489e 353d 7420 98bd 486a 4e3d
000003e0: cb6d f7bc 8074 a93c 0834 5c3d 207b a93d
000003f0: 2088 e13c fbb8 f4bc 56d2 3d3d 90a0 8ebd
-0.036342196 -0.042667907 -0.001698186 0.05512794 0.012499243 -0.053575855 -0.035958003 -0.05656032
-0.012423933 -0.03708633 -0.06732969 -0.047322094 0.020480108 0.08316955 0.046229176 0.07120061
0.04076451 -0.077235155 0.0032384894 -0.03574892 0.07183947 0.03361159 -0.047810942 -0.030271908
-0.014219245 0.017124474 -0.076321825 -0.04289943 -0.028102618 -0.021664333 0.057430696 0.0015307963
0.01506271 0.015700411 -0.035092115 0.06877844 0.044211566 -0.0187143 -0.029153785 -0.07047223
0.007846892 0.066678345 -0.039045773 -0.031870913 -0.057373505 -0.049540054 0.062478434 0.00082468987
-0.03894207 -0.0586332 0.0068170726 0.059141092 0.072878115 -0.08073458 0.018461864 0.015205334
0.039037287 0.045517296 -0.024091622 -0.08164128 -0.04631765 -0.05428381 -0.06451781 0.049853306
0.07201787 -0.07456669 -0.053691626 -0.013226877 0.07194575 0.035667896 -0.02351442 -0.039944015
-0.07485293 0.07193433 0.033124655 -0.06354828 0.079405025 0.02518495 0.013211122 -0.0457247
0.080306545 -0.016431134 0.0051349206 0.060042344 0.057888053 -0.0014157593 -0.031844527 -0.048035633
0.044340573 -0.0065332553 0.050808273 0.021605771 -0.03571736 -0.018538168 0.009179583 0.07167551
0.06256642 0.016808927 -0.043512397 0.08237702 0.05943057 0.08189821 0.065889955 0.049919724
0.055849962 0.015722394 0.009784609 0.052455246 -0.012891224 0.05933441 0.010353158 -0.011218051
-0.039344024 -0.04420626 0.024282258 0.016671687 -0.044569455 0.076220654 0.0079465415 0.014014512
-0.014516304 -0.05294199 -0.030895293 -0.009673486 0.03571447 -0.06458315 -0.07118418 0.06727786
-0.022107404 0.018782508 -0.013022801 0.0011203786 0.06886368 0.010594974 -0.051415734 0.0027546287
-0.040304713 0.0019303958 -0.0018053949 -0.042233467 0.05016617 -0.08194579 0.061195843 -0.07604958
0.06431694 0.0048891706 -0.0037172239 -0.050386064 -0.037041686 -0.06540801 -0.030995011 0.07674576
-0.003538112 -0.064600036 -0.0023854277 -0.005585631 -0.020405462 -0.07228936 0.027542075 -0.05726142
-0.007454197 -0.045291275 -0.005031268 0.016184002 -0.0793333 -0.056648176 0.023193717 -0.06278619
-0.06216591 0.0030827224 -0.05786301 -0.011030535 0.034117173 -0.07191974 6.7055225e-05 0.047345042
-0.00699393 -0.07832813 0.049439393 0.06632661 0.03346499 0.051019054 -0.022978058 -0.05218806
-0.00824376 -0.0416395 0.00031925243 -0.060013466 0.049014628 -0.03695157 0.06992557 -0.001976808
-0.066024184 0.019231379 0.06392628 0.041241847 0.023341399 0.07116952 0.0669228 -0.020779174
0.07651244 0.054712128 -0.04031437 0.02667275 0.053443044 -0.050995044 0.02237763 0.012816827
0.023364585 -0.057558917 0.0017908614 -0.030695101 -0.07714837 0.011726081 -0.050805163 0.059148364
0.03271561 0.052742094 -0.074055545 0.015755754 -0.08142817 0.021176696 -0.07623856 0.0018349489
-0.025706112 -0.026274085 -0.013820112 0.04352343 0.029211035 -0.06665515 -0.0043203533 0.010208001
0.06832771 0.029509544 0.05107376 -0.023369025 -0.032435488 0.037619453 -0.006173849 0.0029351613
-0.06984006 -0.03441794 -0.019235324 -0.008832535 0.01646781 0.044340402 -0.07428065 0.050394326
-0.03020372 0.020685434 0.05376056 0.08275437 0.02753073 -0.029873362 0.04634317 -0.069642186

bias f4 [16]
00000000: 6657 84bd 324d 81bd 909c 17bd e3cf 40bd
00000010: 1ba2 c3bc f629 e2bc be4e 733d f3cf 7f3d
00000020: 36fe 16bd eec5 1bbd fb87 7bbd 48f2 47bd
00000030: e641 2bbd 96d2 57bd cf4d 903d 58f1 40bd
-0.064619824 -0.06313552 -0.037014544 -0.047073256 -0.023881009 -0.0276079 0.059401266 0.062454175
-0.03686353 -0.038030557 -0.061408978 -0.04881504 -0.041810893 -0.052691065 0.07046091 -0.047105163

weight f4 [16, 8, 3, 3]
00000000: 4577 eb3d 96cc cebd c6df a83c 09ee 37bd
00000010: 0156 c83d b307 d53d 5b5c c23d b787 ce3d
00000020: a2c1 983d 0bd3 58bd a66c 6e3d 5486 99bd
00000030: c846 d6bd 40f0 09bd 162b 42bd 3a21 e9bd
00000040: f82a 5dbd 1d11 413b cb69 683c 0d54 cebc
00000050: 321f 923d a3f1 11bb 11d1 4f3d 29da 853d
00000060: 2672 39bd 51cc f6bc 3bd0 f43c 7f52 7abd
00000070: a0a6 12bd 4ade 883c c4a6 b4bd ed0f ca3d
00000080: 7dea 3fbd 3376 b3bc 7042 b03d c63a d63d
00000090: 4e66 cf3d 4340 9ebd 7e3f ed3d c81a fb3c
000000a0: 8759 e7bc ccc4 e5bc 7cc9 90bd ce35 46bc
000000b0: b97a b93c 137b ab3b dbcd 803d 5516 87bd
000000c0: ae36 f9bc 633a dabc bdb2 f43c e0bd 6dbd
000000d0: 9251 7bbd d2be 7cbd 94d9 89bc 16fb efbb
000000e0: 0397 583c 55a1 bf3d df0e d7bd 5479 b93d
000000f0: b117 c53d c0a6 06bc 2d2d 103d 4bdf 013d
00000100: b17f 74bd 04e8 103d 5ecf f0bd b5fd 3e3d
00000110: b744 e53d 904c 14bc b469 cd3d 5377 04bd
00000120: 2894 05bb 6734 513d 6330 c43d ff32 c83d
00000130: 3aa0 c0bd 3d56 df3d 63aa a2bd 0a03 9ebd
00000140: 6a88 d93d 1c4f e2bd 7020 113d f55c b53d
00000150: de0d 90bd c122 af3d f5a7 b43d 8415 c7bc
00000160: 0b95 a33c e6c2 5f3d 5398 283c 252f dabd
00000170: eff6 1b3d 9861 20bd 1b60 ba3d 722a ccbc
00000180: 05ef d6bd ff2f 0b3d 96a1 25bd b9e4 8cbd
00000190: f341 2c3d 65a4 683d 0648 89bd 4c13 8a3d
000001a0: b2a7 8b3d 3d22 d13c f6d3 69bd 8f90 d1bd
000001b0: c0ba 2d3d 3be7 d13d 3ce8 9dbd 1d8e 3c3d
000001c0: d670 63bd 3d44 58bd b048 7b3d 7545 873d
000001d0: 94f0 963d 5eda 4c3d 0933 6f3c d3c5 03bc
000001e0: cc53 e7bd ec0e 123d 8f16 063c 7030 5ebd
000001f0: a3af 163d c9a7 3a3d 4b90 72bd 6a95 3fbd
00000200: 6cf6 d1bd eb0a 433d ee66 36bd 9dda 8abd
00000210: 36a9 cdbd db92 343d cfe3 513c e752 933d
00000220: b3bf e63b d9b1 b9bc cca6 aabd 1723 ae3d
00000230: 6b7d 4e3d 3d68 7a3d 4a0f 42bd 116a d0bd
00000240: 3ee2 33bd bcd1 0d3d 8635 5a3d a966 ac3c
00000250: eda6 bebd 1811 373c 68e5 773d 3c75 993d
00000260: de06 6e3d 90f3 99bd 9fa7 c7bd e512 08bd
00000270: 04df e03d 8450 ed3d 3ce9 e13c c5ce c63d
00000280: 4c1d 333d 75a0 82bd 7bca 183d 50c9 6abc
00000290: 869f a2bd 733a cf3d d752 863b cfcf 5bbd
000002a0: e81a 683d 2486 1ebd edd7 32bc 69c1 433d
000002b0: 1a1a b33d 8d9d 2dbd 63ae babd db48 a03d
000002c0: 660e 14bd 4720 ec3d 5266 d5bd 6c43 9fbd
000002d0: 374b 093b 5e34 c53d 8925 9dbd 3b3a d93d
000002e0: 1e19 d03d da81 1d3d 2d38 76bd 4b68 40bc
000002f0: f9c5 033d 608d 87bd 9334 64bd ef90 a33d
00000300: 441d 88bd 65d8 aa3d da29 113d cd3a edbd
00000310: d4cf b7bd fd25 8cbd 1aa4 823d ee35 03bc
00000320: 879b a4bd 1731 07bd 7415 cbbd 970d 393d
00000330: 2603 553d 4cff 81bd 7e20 023d 78c9 8f3d
00000340: 2722 a63d 0582 0cbd 6d09 6bbd aeed 85bd
00000350: 1820 32bd ee40 3fbd c75b 9cbd 78c2 cabb
00000360: 8039 eb3d 25ea 86bd 49f0 cb3c 7242 e23c
00000370: 5c71 05bd 674e 663d b3ac 05bd 2f34 e43d
00000380: 7aea dd3d cd51 83bc e94c b8bd 5885 813d
00000390: bdb6 85bd 3b78 df3d 5988 ae3d 2bc1 a1bd
000003a0: c246 753d 0734 333d 65dd 90bb e3db 843d
000003b0: cdc6 92bc 601c edbd 5365 9d3d 4c7b f83c
000003c0: 9985 e53d 3536 173c 788c 94bd b9db 6ebd
000003d0: c52d 3bbd 6e22 e73d b213 e6bc 2240 5b3d
000003e0: 662e edbd 371d 2fbd cbc5 e33b 7392 b73d
000003f0: 4bf3 753d 2150 7cbd 6ad9 473d cf04 983d
0.11497358 -0.100976154 0.020614516 -0.044904742 0.09782029 0.10401859 0.09490272 0.10084479
0.074588075 -0.05293564 0.058209084 -0.07496324 -0.10462719 -0.033676386 -0.04740437 -0.113832906
-0.053996056 0.0029459663 0.014185379 -0.025186563 0.07134856 -0.002226927 0.05073649 0.065357514
-0.045274876 -0.030126723 0.029884448 -0.06111383 -0.035803437 0.016707558 -0.088208705 0.09866319
-0.046854485 -0.021906948 0.08606422 0.10460429 0.10126935 -0.07727101 0.11584376 0.030652419
-0.028240932 -0.028047942 -0.0706968 -0.012097789 0.022641527 0.0052331774 0.06289264 -0.06596056
-0.030421581 -0.02663917 0.029870385 -0.058042407 -0.06135709 -0.061705418 -0.016827382 -0.007323633
0.013219598 0.093569435 -0.10500883 0.09056345 0.096236594 -0.008218467 0.035199333 0.03170709
-0.05969209 0.035377517 -0.11758302 0.046628673 0.11194747 -0.009051457 0.10029927 -0.03234036
-0.0020382497 0.051075365 0.095795415 0.09775352 -0.09405561 0.109051205 -0.07942655 -0.077154234
0.10621722 -0.11050245 0.035431325 0.08855621 -0.07033895 0.08551551 0.08821098 -0.024302252
0.01996853 0.05462923 0.010290223 -0.10653523 0.03807729 -0.039155573 0.09100362 -0.024922583
-0.10494808 0.03398132 -0.040437303 -0.06879563 0.04205508 0.056797404 -0.067031905 0.06741962
0.06819095 0.025529021 -0.057086907 -0.102326505 0.042414427 0.10249182 -0.07710311 0.046033967
-0.05552753 -0.052799452 0.061348617 0.06605045 0.073701054 0.05001294 0.01459957 -0.00804277
-0.1129528 0.03565876 0.008184089 -0.054245412 0.036788594 0.04557017 -0.05921964 -0.04677335
-0.10252079 0.047617834 -0.044531755 -0.067799784 -0.1004204 0.044085365 0.012810661 0.07193547
0.0070418953 -0.022667812 -0.08332595 0.085027866 0.050412577 0.061134566 -0.047377862 -0.101764806
-0.043916933 0.034623846 0.0532737 0.021045046 -0.09309182 0.011173509 0.060521513 0.07493064
0.058112018 -0.07517159 -0.09748768 -0.033221144 0.10980037 0.11587623 0.027577035 0.09707407
0.04372911 -0.06378261 0.037302475 -0.014330223 -0.07940583 0.1011857 0.0040992307 -0.05366498
0.056666285 -0.038702145 -0.0109157385 0.047791872 0.08745213 -0.04238658 -0.09115293 0.07826396
-0.036146544 0.11529594 -0.10419907 -0.077765316 0.0020949373 0.09629129 -0.07673175 0.1060681
0.10161041 0.038453914 -0.060112167 -0.011743615 0.032171223 -0.06618762 -0.0557142 0.07986628
-0.06646207 0.08342055 0.035440303 -0.11583481 -0.08975187 -0.06843183 0.06378956 -0.008008463
-0.08037477 -0.0330058 -0.09916201 0.045178976 0.052004956 -0.06347522 0.03176927 0.07020849
0.08111983 -0.034303684 -0.057382036 -0.065394744 -0.04348764 -0.04669278 -0.07634693 -0.0061877333
0.11485577 -0.06587628 0.02489485 0.027619574 -0.03257881 0.056227114 -0.032635402 0.11142766
0.108357385 -0.016030217 -0.089990444 0.063242614 -0.06528995 0.10911604 0.085221 -0.07898172
0.059881933 0.04375079 -0.0044209235 0.064872526 -0.017917061 -0.11577678 0.07685342 0.03033223
0.11207122 0.009229233 -0.07253355 -0.058315013 -0.045697946 0.11285864 -0.028085563 0.05352796
-0.115811154 -0.04275247 0.006951069 0.0896348 0.060046475 -0.061599854 0.048791327 0.07422792

bias f4 [8]
00000000: c0dd 573d 0fc4 ad3d 074d c93d 5862 8ebd
00000010: 2b88 613d 72f3 25bd bf2f eabd 5beb a43d
0.05270171 0.08484661 0.09829145 -0.06952351 0.0550615 -0.04051537 -0.11434888 0.08052703

weight f4 [8, 4, 3, 3]
00000000: 5e56 d9bd 7e81 be3d 8bba 013d 92c5 16be
00000010: 3b0e 0dbd 2b7d dfbb b811 87bd ebbc fe3d
00000020: 4b4c 233d 1258 1abe e85a acbd 433f 1dbe
00000030: f622 ee3c d00b a9bd 7e9d ffbd 6a0e 1d3e
00000040: bfc4 283e 1b6a cbbd ebee 82bd cb9a c3bd
00000050: a67f d1bd a808 d8bd 10e9 06be eb5f 9dbd
00000060: 1896 8ebd b2ec 1b3e 43f6 cfbd af68 15be
00000070: 039c e73d 167b 0fbe 2b70 a7bb a3e9 e23d
00000080: de57 aebd 7352 f03d e353 ec3d 1bb8 573d
00000090: e0b9 bc3c 0e29 bcbd d057 d1bd 5bd8 4dbd
000000a0: ebe1 bcbd ab8b ab3c 3857 8fbd d645 ebbd
000000b0: 8039 fe3d 6b0d 8cbd 8b2e 62bd 38b5 0bbe
000000c0: 66c2 063e 701f ddbd 6aaf 073e 004e 34bd
000000d0: bb7f 7e3d 40a1 c63c 9657 75bd 46f7 a7bd
000000e0: 1318 d83d 56c6 683d 2bb4 99bd e8dc 0ebe
000000f0: e011 06bd e0a8 bfbd ebe0 2abd f63b 52bd
00000100: 5654 58bc 7333 e5bd 1371 1ebe eb4a 5d3d
00000110: eb75 09bd e68a 1abe 4bce 7dbd 6b3f 2cbd
00000120: 2c22 00be a01e bdbc 6bb4 933c 60da 003d
00000130: b41b 00be e055 b5bd 7b09 99bd 13bb 193e
00000140: a0d3 033e 836a 8ebd 0b87 8e3d 005c 053d
00000150: 36ab 0cbe a2eb 153e 004e d83d 1efc b53d
00000160: 02c1 213e 0367 cbbd 900f 463d 53e1 f53d
00000170: 1662 31bc d86f 913d eb50 4abc ce7e cf3d
00000180: 3cbf 043e b637 183d 4052 8d3d fb02 8f3d
00000190: d436 213e 3083 3e3d 582e 053e 5613 a7bb
000001a0: 00ec 75bd d0e7 213e 16f9 a23d 10d9 0dbd
000001b0: c442 0dbe ce06 b7bd 804e 08bd d6d2 42bc
000001c0: 9037 433d 008e ef3a 83f5 cc3d 38c7 ef3d
000001d0: a03e b03c a67c acbd 3047 5e3d 46b0 203d
000001e0: fb59 36bd f0bf 4bbd 8870 ad3d 081a 99bd
000001f0: 5319 aa3d abe3 893c a6c7 da3d 72e2 1e3e
00000200: 86fd 5c3d 2b62 053e eb0a 15bd 1087 a8bd
00000210: b00b 223d 0035 353b b6c8 92bc 3fd7 1f3e
00000220: 03b5 9abd 4bcf 69bd 66e2 e13d 46e6 40bd
00000230: 2ed0 06be 1b06 67bd 40a6 01bd eb4f b23c
00000240: 7ba0 563d ab14 69bd 0619 9fbd cb09 d3bd
00000250: 2054 1fbe f8d5 bc3d 4837 a13d 13db f13d
00000260: a828 0cbe 605f 893d 2bb8 04bd 4829 bf3d
00000270: 560b 3f3b fa43 0f3e d7bd 263e 202d 64bd
00000280: 1677 e3bc 80a2 a4bb bb02 d43d 9066 d73d
00000290: 5694 9bbd 1082 4d3d 98eb 94bd 2bff 5c3d
000002a0: ae6d d93d 3eb8 083e b8b5 8cbd b08c acbd
000002b0: a6a8 9cbd 2b93 c23c 4b24 8c3d e66f a53d
000002c0: cbe8 80bc 285a 813d 0385 ae3d 8bae f23c
000002d0: 4ebf 193e a0f8 a0bd 83be b9bd ce8e 873d
000002e0: f8d3 e13d eb79 ca3d 9b79 893d d388 99bd
000002f0: 5644 093c e4c6 02be de86 fc3d 433e abbd
00000300: ee0a 143e 6ff8 0d3e 362a a23c 0025 60bb
00000310: f8c9 99bd 1b54 22bd cbab e33c 2054 d2bc
00000320: 96df 1c3c 8068 c73d 06ee e43d 4349 03be
00000330: b337 c8bd 1bf6 09be fa63 033e 665e 9abd
00000340: abd6 e8bb dbee 9f3d 6802 b8bd 2ba0 bf3d
00000350: fc08 0a3e dbdf 57bd e0c1 97bc d8f4 d6bd
00000360: 1b92 f03d bacd 273e a055 9c3d 8b1c 2abd
00000370: ef89 14be c0ce da3d b29f 013e c694 da3d
00000380: 7bc8 48bd ab21 393b 87e7 023e 60c9 f5bc
00000390: ab4b 013d 000c a93c e0ea 41bd 5f88 1fbe
000003a0: 0b4f 8c3d fe22 a9bd 4047 673c 92ac 0f3e
000003b0: eb0f ff3d f076 243d fb3e 37bd 56ce a6bc
000003c0: 567d 3abc cb26 6f3d 78a9 ebbd d615 f83c
000003d0: b3a9 253e 5317 d23d 1a96 053e 7607 c23c
000003e0: 862a 853d 23f4 c9bd d62b a73c badc 0dbe
000003f0: 06eb 80bd 2006 903d 280f f13d 9027 743d
-0.10612176 0.093020424 0.031672042 -0.14723805 -0.0344374 -0.006820341 -0.065951765 0.12438377
0.03986768 -0.15072659 -0.084157765 -0.15356164 0.029069405 -0.08254206 -0.12481211 0.1533753
0.16481303 -0.099323474 -0.06393226 -0.09551009 -0.10229425 -0.10548526 -0.13174844 -0.076843105
-0.06962222 0.15227011 -0.101543926 -0.14590715 0.11309054 -0.14011797 -0.005109807 0.11079719
-0.08512853 0.11734476 0.115394376 0.05266581 0.02303785 -0.09187518 -0.10221827 -0.05025516
-0.09222778 0.020940622 -0.069990575 -0.114879295 0.12413311 -0.06838497 -0.055220168 -0.13643348
0.13160095 -0.10797012 0.13250509 -0.0440197 0.062133532 0.024246812 -0.05989798 -0.082014605
0.10551467 0.056829773 -0.075050674 -0.13951457 -0.03273189 -0.09358382 -0.041718405 -0.051326714
-0.013203701 -0.11191454 -0.15472822 0.054026525 -0.03355972 -0.15092048 -0.061964314 -0.042052668
-0.12513036 -0.023085892 0.018030366 0.03145826 -0.12510568 -0.0885427 -0.074725114 0.1501277
0.12873697 -0.06953909 0.06959351 0.03255844 -0.13737187 0.14640668 0.10561752 0.08885978
0.15796283 -0.09931757 0.048354685 0.12005868 -0.010826608 0.071014106 -0.012348394 0.10131608
0.12963575 0.037162505 0.069004536 0.0698299 0.15743572 0.04651183 0.1300596 -0.0050987406
-0.06003952 0.15811086 0.079576656 -0.034630835 -0.13795 -0.08936845 -0.03327799 -0.0118910875
0.04766041 0.0018276572 0.10007765 0.1170792 0.021514237 -0.08422212 0.05426711 0.039230607
-0.044519406 -0.049743593 0.08468729 -0.07475668 0.083056115 0.016832193 0.10682611 0.1551607
0.053952716 0.1302573 -0.036387365 -0.08228886 0.039561927 0.0027649999 -0.017917972 0.15609454
-0.075540565 -0.057082456 0.1102951 -0.047094606 -0.13165352 -0.056402307 -0.03165269 0.021766623
0.05239914 -0.056904476 -0.07768445 -0.10304602 -0.15559435 0.09220499 0.07871872 0.11809363
-0.13687384 0.067076445 -0.0324022 0.09334046 0.0029151044 0.13990775 0.16283356 -0.055707097
-0.027766746 -0.0050242543 0.10352083 0.10517609 -0.07596652 0.050172865 -0.072714984 0.053954285
0.10616623 0.13351533 -0.068705976 -0.084252715 -0.07649355 0.023751816 0.0684286 0.080779836
-0.015736004 0.06316024 0.08521464 0.029624244 0.15014383 -0.078599215 -0.0906954 0.06619035
0.11026758 0.09886535 0.067126475 -0.074968 0.008378109 -0.12771183 0.123304114 -0.08361485
0.14457294 0.13864301 0.019795518 -0.0034201741 -0.075092256 -0.03963099 0.027791878 -0.02567488
0.009574791 0.09736729 0.11178212 -0.12820916 -0.09776249 -0.13472788 0.12831107 -0.07537536
-0.0071056685 0.0780923 -0.08984834 0.093567215 0.1347999 -0.05270372 -0.018525064 -0.10495919
0.117466174 0.16387072 0.07633519 -0.041531127 -0.14505742 0.10683966 0.12658575 0.106729075
-0.049019318 0.0028248827 0.12783633 -0.03000325 0.031566303 0.020635605 -0.047343135 -0.15579365
0.06851014 -0.08258627 0.014116108 0.14030674 0.12454208 0.04015249 -0.044737797 -0.02036206
-0.0113824215 0.058386605 -0.11506933 0.03028385 0.16178016 0.10258355 0.1304554 0.023685198
0.06502251 -0.098610185 0.020406645 -0.13853732 -0.06294827 0.07032418 0.11770469 0.059608042

bias f4 [4]
00000000: 0b27 c1bd 6ecb ee3d 6091 18be f035 98bd
-0.09431275 0.11659895 -0.14899206 -0.07432163

weight f4 [4, 2, 3, 3]
00000000: eaac 833d 5c48 83bd 996c 5a3e dea7 3e3d
00000010: 2a2d dd3c 934b 8d3c 3c6c 33be e0de 3ebd
00000020: ccb6 51be 3d92 653c ab8a 923c ffb3 c63d
00000030: 7489 603e 66c3 4d3e ee86 0639 c015 373c
00000040: 2bbd 173e 1638 4b3d 4431 a83c 781f 603c
00000050: d054 763d e1b2 643e 0b55 a63d ef4a 48be
00000060: f57c 2abe 87b1 e53d ddf4 6c3e 2f6b 91bd
00000070: f3aa b03d 08f2 32be 29b6 e23d 2d75 b6bc
00000080: 65bd 6cbe c8ac b4bd 94e2 88bd b7c4 613e
00000090: f069 bdbd a6ca 11be 69be bf3b 2970 903d
000000a0: 6ca6 4a3d 5322 6c3d 705d 1f3e 369f 773d
000000b0: 76f8 d23d e955 9e3d 1f61 ffbd 355f 64bd
000000c0: 6c4f 9cbd 86ee 9cbd 50de 12be 4df5 bf3d
000000d0: 6591 f9bc c9b7 a63c 485f 35be 9539 bbbc
000000e0: e746 85bd db04 52be af4d 64be 92b7 24be
000000f0: f2d9 4e3e c2f4 ba3c 2831 debd 4936 703e
00000100: fcd6 e2bd 70a8 423e 0936 993b d150 ecbc
00000110: 54bb 673e 11fe 6abe eb1e 973d d169 38be
0.06429465 -0.06410286 0.21330489 0.04654681 0.026999075 0.01724795 -0.17521757 -0.04659927
-0.20479888 0.014011917 0.017888388 0.097023 0.21927434 0.2009407 0.00012829501 0.011174619
0.14818256 0.049614035 0.020531304 0.013679378 0.060139477 0.22333862 0.081216894 -0.19559835
-0.1664923 0.11215501 0.23140283 -0.07100522 0.08626356 -0.1747514 0.110699005 -0.02227267
-0.23119123 -0.08822018 -0.06683841 0.22047697 -0.092487216 -0.1423746 0.005851556 0.07052643
0.04947512 0.05764992 0.15562987 0.06045457 0.103012964 0.0773123 -0.12469696 -0.05575486
-0.07632336 -0.07662682 -0.14342618 0.09372959 -0.030464837 0.020351307 -0.17712128 -0.022854606
-0.06507664 -0.20509665 -0.22295259 -0.16085652 0.20200327 0.022821788 -0.108492196 0.23458208
-0.11076161 0.19009566 0.004675631 -0.02884713 0.22630054 -0.22948481 0.07378944 -0.18009116

bias f4 [2]
00000000: afe8 20bd 6c0b b7bd
-0.039284404 -0.089377254

weight f4 [2, 2, 3, 3]
00000000: 6568 9c3c 80bb 153e 5ebb 0dbe f80a c73d
00000010: b9a5 b9bd 149d 45be e555 21be 1636 b8bd
00000020: 188b 8bbd 2517 39be b6a2 d13d 795b 1fbe
00000030: 1efe 6c3d 6864 0a3b dbf3 533e a805 6d3d
00000040: 5025 6bbe d5ef b73d 2791 17be 1ca6 6c3d
00000050: 7646 2f3e 9931 913d 052c dfbd 83b1 fabd
00000060: 6211 a6bc b084 d83c 9e81 5cbe b9d0 c7bd
00000070: 445a 013e f2c9 b93c b1f1 ff3d 86ac bd3d
00000080: 9f58 603e 91c1 973d 3aef da3d bb49 6cbe
0.019092748 0.14622307 -0.13841006 0.09718889 -0.09064812 -0.19298202 -0.15755422 -0.08994691
-0.068136394 -0.18075235 0.10236113 -0.15562238 0.057859533 0.0021116976 0.20698492 0.057866722
-0.22963452 0.08981291 -0.14801465 0.0577756 0.17116722 0.07089538 -0.10897068 -0.12240889
-0.02027196 0.026430458 -0.2153382 -0.097566076 0.1263209 0.022679303 0.12497271 0.09261422
0.21908806 0.07409967 0.1069016 -0.23075001

bias f4 [2]
00000000: fa91 d33e 81a7 e3bd
0.4132231 -0.11115933

weight f4 [2, 1, 1, 1]
00000000: c0a0 48bf cc6f e5be
-0.78370285 -0.44811857
