linearPredictionModels/db39/super/combined.csv_wholeNetPrototype5_Epochs_1_ValidationLoss9.102644_lr0.0003_2023_08_01_09:45:38.pth (torch, 992609 bytes, 8 tensors)

weight f4 [512, 145]
000000 44 93 86 3d 6b bc 8a 3d b7 8e 53 bd f2 a5 3d 3d
       0.065710574 0.06774219 -0.051649775 0.046300836
000010 8c 77 70 3d c6 e0 62 3d ea 1a ad 3a a5 02 50 3d
       0.05870776 0.055390142 0.0013206874 0.050783772
000020 2a fd 09 3d 87 99 a9 bc b4 30 21 bb 9f 33 69 bd
       0.0336887 -0.02070309 -0.002459568 -0.056933995
000030 18 92 77 bd 0c 3d 31 bd 3e 03 93 bd 50 3b 83 3d
       -0.06044206 -0.04327111 -0.07178353 0.06407797
000040 1a 62 a5 3d 86 fc 9e bc 77 17 83 3c cd 70 5e bc
       0.08075352 -0.019407522 0.0160024 -0.0135766985
000050 5b aa 8c 3d c6 11 9d bc 2f 8d 86 bc 74 08 1b 3d
       0.0686843 -0.019173514 -0.016424743 0.03784986
000060 fb 7f b4 3c 10 fd 82 bd 14 e1 97 bd a0 46 ba bc
       0.022033682 -0.06395924 -0.07415977 -0.022738755
000070 3f f7 c8 bb e3 1d ad bd 41 a2 cd bb c2 5f 9d 3d
       -0.0061329897 -0.08452966 -0.0062754457 0.0768428
000080 ca 61 96 bb 17 4e f8 bc 8c d9 5e bd ee a7 05 bd
       -0.004589294 -0.030310674 -0.054406688 -0.032630853
000090 b5 bb 81 bc 28 db 47 bd ed 4f 47 3c 84 7b 4a bd
       -0.015836576 -0.048792988 0.012165052 -0.0494342
0000a0 35 c4 9c bc 5c a4 98 bd 35 fd 78 3d 9d 24 d2 bc
       -0.019136528 -0.07453224 0.060788352 -0.025652224
0000b0 78 56 84 bd 11 9c 4d 3b 0d c2 97 3d 52 5c 61 3c
       -0.06461805 0.003137354 0.07410059 0.013754921
0000c0 c6 d7 6e 3d 9f 6d 71 3d b1 42 c7 3a 74 62 56 3c
       0.058311246 0.058942433 0.0015202371 0.0130849965
0000d0 cb 62 36 3d 8d e8 45 3d d0 b1 1f bb 88 b2 8d bd
       0.04452781 0.04831748 -0.002436746 -0.06918818
0000e0 a8 3c 13 3c f7 57 4f bd 11 2b a6 bd 95 c7 54 3d
       0.00898663 -0.050621 -0.08113683 0.05194815
0000f0 70 07 ce 3c c6 82 34 3d fa de 2c bd 3c 55 08 3d
       0.02515003 0.044070028 -0.042204835 0.03328441
000100 83 c2 14 3e de c2 8d bd d4 8b 62 3d af 51 a3 bc
       0.14527325 -0.069219336 0.05530913 -0.01993641
000110 fd 26 57 3d 2a 3c 2d 3d 85 15 a8 3b 8b b6 d9 3c
       0.052527416 0.042293705 0.0051295185 0.026576301
000120 0f fd 3e b9 dd b9 c2 bc 40 f9 aa bc bb 27 65 bd
       -0.00018214084 -0.023770267 -0.020870805 -0.055946093
000130 99 00 a8 3d 04 46 c6 b7 54 4c 1f 3d 95 f8 09 3d
       0.08203239 -2.3636043e-05 0.03889115 0.033684332
000140 6f 3c 05 bd e2 fa ab bd 42 4f 89 bc 43 93 05 3d
       -0.032528337 -0.083974615 -0.016761426 0.032611143
000150 b1 aa 51 3d 66 67 ef 3c 64 9b 84 bd 38 da a9 3c
       0.051188175 0.029224109 -0.06474951 0.020733938
000160 cb c6 47 bd b5 e6 97 bc f7 1b 47 bd a1 5f 86 bc
       -0.048773568 -0.018542627 -0.048610654 -0.016403021
000170 8a b5 74 3b b7 3c 00 bc 10 f4 99 3d 91 e9 75 3d
       0.003733965 -0.007826976 0.07517254 0.0600372
000180 b3 de 83 bd 33 17 ce bc e6 57 80 3d f3 b6 6c bd
       -0.06438961 -0.025157547 0.06266765 -0.05779166
000190 32 ca 53 3d e2 27 69 bd 62 00 1a bc b0 14 2f bc
       0.0517065 -0.0569228 -0.009399505 -0.010686085
0001a0 46 1f 4f 3c 37 43 1e bd 8c cb 1f bd cc 2c 50 3c
       0.0126417335 -0.03863832 -0.039012477 0.012705993
0001b0 87 99 6e 3c d2 d7 96 3d 50 82 80 3d 5a 88 87 bc
       0.014562971 0.07365383 0.06274855 -0.01654451
0001c0 82 b2 7e 3d 8d 82 bd bd 73 f1 7d 3d 8c 47 af 3d
       0.062181957 -0.09253416 0.061997842 0.08558568
0001d0 81 91 80 3d 06 0d 85 3d bc 2b a3 3c 24 05 6d bd
       0.06277753 0.06496625 0.019918315 -0.05786623
0001e0 f7 47 70 bd 2a 71 e1 bc 8c 2e 88 3d 8b fa 30 3c
       -0.05866238 -0.027519781 0.06649503 0.010801922
0001f0 92 bc 80 bd 27 0c 99 3d 4e 78 a9 bd 44 7b 3b 3d
       -0.06285967 0.07473021 -0.082748994 0.045771852
000200 87 8b 33 3d 88 37 14 bd f1 d0 8b bd 04 0a 98 bd
       0.043834236 -0.03618577 -0.06826962 -0.07423785
000210 0a 1b 81 3d 45 2a d8 3c 4e b2 9a 3d f2 c4 00 bd
       0.063039854 0.026387343 0.0755354 -0.03143782
000220 5f fd 92 bd 65 21 59 bd ce 6f 3b 3c 94 6d 9b 3d
       -0.07177233 -0.053010363 0.0114402305 0.0758926
000230 3b ed e8 3c 9e d4 02 bd 5e 28 db bb f1 05 9d 3d
       0.028433433 -0.03194105 -0.0066881618 0.07667149
000240 1e ac f6 ba f6 84 3d 3c 7f 59 4e bd ac 65 25 3c
       -0.0018819605 0.011567345 -0.05037832 0.010095041
000250 b2 a7 46 bb 0d 68 8a bd b4 7e 20 3d 35 c2 ef 3c
       -0.0030312357 -0.06758127 0.039183334 0.02926741
000260 2c 68 10 3d b2 a1 b9 bd a6 f7 96 bd d1 f8 f5 3c
       0.035255596 -0.09064044 -0.07371454 0.030025871
000270 1d 83 45 3c 5c 37 bf bd ec 3f 3b 3b 20 1b 98 bd
       0.012055186 -0.09336731 0.0028572036 -0.07427049
000280 e9 47 81 bd 9a 1e 84 bd 4d 4a 92 3d 19 03 19 bd
       -0.06312544 -0.06451149 0.07143078 -0.03735647
000290 24 56 70 3c f7 48 99 3d 39 81 2e bc 69 76 92 3c
       0.014668975 0.0748462 -0.010650926 0.017878728
0002a0 75 f8 9f 3c 90 80 39 3d 83 ba 9a bd 72 74 b6 bd
       0.019527653 0.045288622 -0.075551055 -0.08908929
0002b0 a3 7e 1b 3d 2d e8 f2 bc c5 d9 8c 3d 73 be 80 3d
       0.037962567 -0.029651726 0.06877474 0.06286325
0002c0 17 b4 3d bd 9c 3d 82 3d 74 e1 42 bd 7c 35 a1 bd
       -0.046314325 0.06359407 -0.04757829 -0.078715295
0002d0 50 9d 71 3d bf ec 6e bd 0c 8b 76 3d d3 71 8d 3d
       0.058987916 -0.058331247 0.0601912 0.06906476
0002e0 0c 0a 88 bc 53 41 ba 3c 97 94 7e 3d 89 52 cf 3c
       -0.016606353 0.022736227 0.062153425 0.02530791
0002f0 33 2c df ba 60 6d e2 3c ed 6c 88 bd dd 6a 87 3c
       -0.0017026722 0.027640045 -0.06661401 0.016530449
000300 4e 46 13 3d e1 f4 19 3d 19 a0 9d 3c 8a ba a1 3c
       0.03595572 0.03758705 0.01924138 0.01974227
000310 0d 9f 87 3d 3e cc 85 bb 4f 6f 5a bd 95 49 28 3a
       0.066221334 -0.0040831855 -0.05332881 0.0006419656
000320 39 1f 92 3d 6b d1 99 bd b8 24 8b 3d 01 db 6f 3d
       0.071348615 -0.075106464 0.06794113 0.058558468
000330 73 d9 be 3b de 03 cc 3c f2 c9 e6 bc 55 8e 2e bd
       0.005824262 0.024904188 -0.028172467 -0.042616207
000340 b6 8a 99 3d fc 92 fb 3d 2f 51 aa bc f0 62 85 bd
       0.0749716 0.122838944 -0.020790664 -0.065130115
000350 2c 41 04 3e 2c c9 ad 3c 3b e4 7a bd 20 28 68 3c
       0.12915486 0.02121409 -0.061252814 0.014169723
000360 a0 bf c2 bc a3 58 fc 3c b7 ec 34 bc a3 94 74 bd
       -0.023773015 0.030803984 -0.011042765 -0.059712064
000370 8c 1d 27 bd 12 e0 8a bd 9d 8e 2f 3d 42 50 44 3d
       -0.040799662 -0.06781019 0.042860616 0.047928102
000380 62 1c 2b bd 6c 47 12 bd f6 78 84 3d 60 65 36 bd
       -0.041775115 -0.035712644 0.06468384 -0.044530272
000390 4d 70 3a 3d 37 35 7c 3d 24 42 e0 bc 21 ef a3 3d
       0.045517255 0.061574187 -0.027375288 0.080045946
0003a0 47 33 a0 bc c0 e5 41 bd 29 6a 91 3d 83 1c 63 3d
       -0.019555701 -0.047338247 0.071003266 0.055447113
0003b0 10 f4 f1 bb e6 bd 93 3d c1 94 62 bb fa ad e6 3c
       -0.007383831 0.07213955 -0.0034573528 0.02815913
0003c0 bd 09 8e 3d a0 f2 3f 3d ff 26 88 3d 52 e6 9f bd
       0.06935451 0.046862245 0.06648063 -0.07807602
0003d0 d6 d5 80 bd 49 15 0f bd bc 66 6d bd 87 7b 1b 3d
       -0.06290786 -0.03493241 -0.057959303 0.0379596
0003e0 f7 19 0c bc 98 84 87 bd a7 9d 44 bd 9a e5 0e bd
       -0.008551112 -0.06617087 -0.04800191 -0.034886934
0003f0 6e 40 99 3d e9 c7 e5 3c a6 5d 82 bc a6 4e 77 bd
       0.07482992 0.028049426 -0.015913796 -0.06037774

bias f4 [512]
000000 2d 4d a2 bd dc d8 84 3c c9 49 4b bd 51 73 9c 3d
       -0.07924876 0.016216688 -0.049630914 0.07639182
000010 2c c4 81 bd 28 e7 91 3d 36 78 f1 bc ff 35 6a 3d
       -0.06336245 0.07124168 -0.029476266 0.0571804
000020 6b ad 9b bc 30 53 a6 3c c1 b3 a1 bd 1e 8a 3a 3d
       -0.01900359 0.020303339 -0.078956135 0.045541875
000030 a8 c7 93 3d b2 48 8d 3d 15 05 a4 3d 84 28 d2 3c
       0.07215816 0.06898631 0.08008782 0.025654085
000040 48 03 0c bd 41 01 84 bb ee e0 e2 39 4d 8d 9f bd
       -0.034182817 -0.00402847 0.00043273665 -0.07790623
000050 4d 04 72 3d af 4c 3b 3d dd e7 8d 3d b7 0c 5f bd
       0.059086133 0.045727428 0.0692899 -0.054455485
000060 b5 8d 95 3d ed 6b 04 3d ae c6 9e 3d 30 34 68 3d
       0.07302419 0.03232949 0.07752739 0.056690395
000070 2a 8f 0b 3d b3 05 06 bc 8d b1 88 bd d2 98 ff bb
       0.03407208 -0.00818007 -0.0667449 -0.0078002
000080 1b 62 92 bd 8a 4e 85 3d 9c 39 32 3d 19 1e 99 3d
       -0.071476184 0.06509121 0.04351197 0.07476444
000090 f2 1c c6 bc 25 f0 93 bc 7f 14 3b bd 0b d3 04 3d
       -0.024183724 -0.018058846 -0.045673843 0.03242783
0000a0 f6 4f 0f bd 12 74 8c bd 4a 84 90 3d 9c c8 e8 bc
       -0.034988366 -0.06858076 0.07056482 -0.02841597
0000b0 c1 cc 86 bd e3 3e f6 bc e3 7b 13 3d a4 c7 87 bd
       -0.065820225 -0.030059284 0.03600682 -0.06629875
0000c0 a3 f3 b1 bc 89 ec 26 3b b8 80 25 3d 5e e9 81 3c
       -0.02172262 0.0025470576 0.04040596 0.015858348
0000d0 90 c6 b7 bc 47 3d 86 bb 34 b1 8e 3d 1e 12 8f ba
       -0.02243355 -0.0040966603 0.069673926 -0.0010915434
0000e0 26 bb 15 bd c8 a6 20 3b e5 3c 89 bd 5b d0 b4 bb
       -0.03655543 0.0024513472 -0.06701068 -0.005518002
0000f0 de 30 24 3d 58 4b f3 bb 7b 17 bc 3c fe fe 93 3d
       0.040085666 -0.007424753 0.022960415 0.0722637
000100 9e dc fb bc d5 f2 a4 bd a7 03 58 3b 03 89 84 bd
       -0.030744847 -0.08054129 0.0032961161 -0.064714454
000110 ce 18 15 3d db f2 4e 3d f3 d8 76 bd 5d ec a9 bd
       0.03640061 0.050524574 -0.060265493 -0.08297036
000120 f0 c5 b8 3b 19 44 85 3c 21 e9 37 3c 76 2e a9 bc
       0.0056388304 0.016267823 0.011225016 -0.020652037
000130 f5 64 a5 bd 69 89 1d 3d 7c 72 2a 3d 62 2d 97 bc
       -0.08075897 0.038461123 0.041613087 -0.018454257
000140 49 b0 9c 3d 99 72 1f 3d 51 30 1e bd 5f 6b e6 3c
       0.07650811 0.03892765 -0.038620297 0.02812737
000150 d3 ec e6 3c 00 08 94 3b ec 74 82 bc 3e 67 8f 3d
       0.028189098 0.0045175552 -0.015924893 0.07002114
000160 6b 82 17 3d 96 35 1d 3b aa da e4 3b 0b cd 2f 3d
       0.03698961 0.0023988239 0.0069840746 0.042920154
000170 6c ab 22 3d 2f aa 9e bd 24 4a 47 3d 25 7f ae bc
       0.039714262 -0.07747304 0.04865469 -0.021300862
000180 a2 6a 3d 3c 79 3d 40 3d 8b 9e b4 bd cb f9 45 3d
       0.011561068 0.046933625 -0.08819302 0.048333924
000190 87 ff d0 bc d3 46 c1 3c 4f 5d 68 bd 53 2b 94 bd
       -0.02551247 0.023593342 -0.05672961 -0.07234826
0001a0 ed b0 81 bc 53 23 a1 bd cf d7 fd 3c 37 88 46 3c
       -0.015831435 -0.07868066 0.030986695 0.012117437
0001b0 fb 62 e3 bc 69 a4 d7 3c 34 ab 19 bc 8d 02 3a 3d
       -0.027757159 0.026323514 -0.009379197 0.04541259
0001c0 b1 a6 2b bd b4 52 3b bd 05 e9 93 3d ed 52 93 3d
       -0.041907016 -0.04573317 0.07222179 0.07193551
0001d0 9b 2f 60 3d 81 c5 2c bd b1 2d 38 bc 9a 31 5d bd
       0.0547329 -0.042180542 -0.011241362 -0.05400238
0001e0 5c 32 92 bc 95 ac 0d bc a0 1f bf bb 81 7f 5f bd
       -0.017846279 -0.008647104 -0.0058326274 -0.054564957
0001f0 42 a0 3d bd 42 81 9f 3c 25 bb 44 bd a7 7f 4a bd
       -0.046295412 0.019470815 -0.048030037 -0.049438145
000200 87 99 5d 3d 45 64 a0 3b 22 8c 53 bd 51 4a 90 3d
       0.054101493 0.0048947656 -0.051647313 0.07045425
000210 62 7a 91 3c 58 c6 02 3d 36 2c fd bb d9 b2 b9 3a
       0.017758552 0.031927437 -0.0077262176 0.0014167681
000220 9c 02 a6 bd ab b8 8d bd dd 27 8a 3c e7 54 b3 3c
       -0.081059664 -0.06919988 0.016864711 0.02189107
000230 ad eb ec 3c d5 b6 2f bd e3 35 06 3d 2c 9d 9c bc
       0.028920973 -0.04289897 0.032766234 -0.019117914
000240 74 1c 4b 3d 6b 0d f4 3b 74 3d a2 3d 5d 63 1c bd
       0.049587682 0.0074478886 0.079218775 -0.038180698
000250 b1 fa 0a bb a6 cc 89 bc fe 5c af bd 0e 83 97 3d
       -0.0021206553 -0.016821217 -0.08562659 0.073980436
000260 73 51 15 3d 6e 18 83 bd 86 dd 91 bd 33 2b b3 3d
       0.03645463 -0.06401144 -0.0712233 0.08748474
000270 32 a3 2d bc f3 f6 fa 3c 56 c8 8a 3d 43 c1 49 3d
       -0.010597991 0.030635333 0.06776492 0.049256574
000280 f2 df 83 bb 7f 9c 80 bd 19 1d b7 3c 4f 62 9d 3d
       -0.004024499 -0.06279849 0.022352742 0.076847665
000290 bb 4f 84 3d 31 2e 70 3b 9a ef 03 3d c7 a6 6c 3d
       0.0646052 0.0036648626 0.032210924 0.05777624
0002a0 53 94 a7 bb 4c 26 ba 3c c7 b8 3d 3d a4 0c 2d 3d
       -0.005114117 0.02272334 0.046318796 0.042248383
0002b0 13 3d 47 bd 34 1e 81 bc d7 9f 8f bc b9 a4 16 bd
       -0.04864223 -0.015761472 -0.017532272 -0.036778186
0002c0 53 3b 74 3d b5 41 50 3d 2a cc 70 3d 63 04 3f 3d
       0.05962689 0.050843913 0.058788456 0.046635043
0002d0 1e 39 f2 bc 68 74 d4 b8 34 5a 36 bd fa 1d d2 3c
       -0.029568251 -0.0001013063 -0.04451962 0.02564906
0002e0 8a b1 7c bd 12 c2 b1 3c f4 1b 5b bd e4 ed 21 3c
       -0.061692752 0.021698985 -0.053493455 0.009883378
0002f0 d7 4b f6 3c 4e 5d 57 bc d6 d6 f9 bc 19 78 22 3c
       0.03006546 -0.013144804 -0.03049795 0.009916329
000300 06 45 e4 bc 81 dc 61 3d 18 fe 83 bd d7 47 0a 3c
       -0.027864944 0.05514193 -0.06444949 0.0084399795
000310 9b a3 ee bb 2c 54 a5 bd 1f 2e 38 3d 41 b0 35 3c
       -0.007282687 -0.08072695 0.04496586 0.0110893855
000320 40 a8 80 bc df d2 01 3d 29 96 4c bd cf 82 7e bd
       -0.015705228 0.031695243 -0.04994789 -0.062136468
000330 1d da ab 3c ac ee 1f 3d ed fd ee 3c 76 dd b0 3c
       0.020978028 0.039045975 0.029173816 0.021589976
000340 9a a8 5a bc 61 16 33 ba 4e 26 ea 3a f4 ad ab 3b
       -0.013345862 -0.0006831643 0.0017864199 0.0052392427
000350 68 9d 1c bd ab a1 35 3d d0 e0 69 bd 77 69 06 bd
       -0.03823605 0.04434363 -0.057099164 -0.032815423
000360 77 6f 97 3b 90 b1 4e 3d 24 00 68 bc 13 46 1e 3d
       0.004621442 0.050462306 -0.01416019 0.038641047
000370 f0 02 84 3d 96 d7 62 bc a7 47 25 3d 4d ef c5 3c
       0.06445873 -0.013845345 0.040351536 0.024161959
000380 e8 18 07 bc d6 07 9f bd 38 6b 40 3d 81 c2 8c bd
       -0.008245684 -0.077651665 0.04697725 -0.06873036
000390 f3 c3 c4 bc be b6 a8 3c 0a 21 a7 bc d2 72 70 bc
       -0.024019217 0.02059495 -0.020401496 -0.014675813
0003a0 99 09 58 3d 26 a6 9a bd 48 ea 7c bd ae fd 1d bc
       0.052743528 -0.075512215 -0.061746866 -0.0096430015
0003b0 02 b5 4c bd 13 9e 5a bd 2e 57 88 3d 42 ee b7 bc
       -0.04997731 -0.053373408 0.06657253 -0.022452477
0003c0 9a 06 d3 bc 2e 4f 76 3c ce 84 18 bd 88 5d 63 bd
       -0.025759984 0.015033526 -0.037236027 -0.05550912
0003d0 21 e4 84 bd b0 42 23 3c 6e f3 9b bd d0 ef 9f 3d
       -0.06488825 0.00996463 -0.0761479 0.078094125
0003e0 8e 22 8f bc 16 dc 44 bd 98 89 23 3d 81 23 de 3c
       -0.017472532 -0.048061453 0.03992614 0.027116539
0003f0 8c f1 0f bd ce 44 6f bd 27 ea 9d bd c4 f1 8f 3d
       -0.035142466 -0.058415227 -0.07710677 0.07028535

weight f4 [256, 512]
000000 f5 1c 10 bd 51 e4 b8 3c 52 3c 18 3b 6b 98 57 3c
       -0.035183866 0.022569807 0.0023229313 0.013158898
000010 12 f8 0c bc ef f9 29 bd 30 cc 31 3c f3 59 3b bb
       -0.008604066 -0.04149812 0.010851905 -0.002858755
000020 73 b5 d7 bc f2 16 d4 bc 6a c6 b1 bc 2a e7 91 3c
       -0.026331639 -0.025889847 -0.021701057 0.017810423
000030 79 59 7a bc 3b 50 13 bc 64 d0 8f bc 92 14 ca 3c
       -0.015280121 -0.008991296 -0.017555423 0.024668012
000040 f3 64 c7 3c 4c 99 28 3d 18 75 a3 3c 07 5e 10 bd
       0.024340129 0.04116182 0.019953296 -0.03524592
000050 b6 1e 31 3d 4a 8f 36 3d 5f 33 0b 3c b1 db 0a 3c
       0.04324218 0.044570245 0.008496135 0.00847523
000060 48 36 d0 bc 2b 46 49 bd bc 3a b1 3c 9e 4b 9d 3c
       -0.025416508 -0.049139183 0.021634452 0.019201096
000070 89 8b c6 3c 09 4a 64 ba f4 25 ae 3c 71 58 83 3c
       0.024236457 -0.0008708542 0.021258332 0.016033383
000080 e3 98 bf bb 72 84 00 bc d6 a9 d0 bc fe b7 ea ba
       -0.005847083 -0.007844077 -0.02547161 -0.0017907617
000090 2c 5f ff 3c 9e e5 dc bc c9 09 ad 3b 00 20 d8 bc
       0.031173311 -0.026964959 0.0052807075 -0.026382446
0000a0 45 23 65 3b 8e a1 ec 3b 91 24 2b 3d e2 45 1c 3d
       0.003496365 0.0072214073 0.04178292 0.038152583
0000b0 77 d6 28 bd df 8b c9 3c 2a 3d 5e bc e0 b3 18 bd
       -0.041220155 0.024602829 -0.013564387 -0.037280917
0000c0 5b eb 88 3c de 0d 62 ba e0 3f c7 bc 7c e2 2d 3d
       0.016713789 -0.0008623282 -0.02432245 0.04245232
0000d0 91 34 10 bd 48 39 94 bc 50 4e 99 bc 91 dd 22 3c
       -0.03520638 -0.01809372 -0.0187141 0.009940521
0000e0 07 20 a2 bb 9e 5f f4 bb 6d 0d 09 3d 8f 0e ad bc
       -0.0049476656 -0.0074576875 0.03346007 -0.021125106
0000f0 d9 23 b4 3c 61 a5 bd 3c ce e0 0b bd cb d0 bf bc
       0.02198975 0.023150148 -0.034149937 -0.02341499
000100 5c d0 a0 3a 29 40 b3 bc f3 17 66 3c 2f fa 8f bc
       0.0012269127 -0.02188118 0.014043796 -0.017575352
000110 77 40 70 bc 2e 6f 09 3d 80 63 0f 3d ab 62 06 bc
       -0.014663807 0.033553295 0.035007 -0.008202235
000120 26 67 b9 3c 09 0b 69 bd 20 a6 b4 bc 17 86 2f 3c
       0.022632193 -0.05689529 -0.02205187 0.010713122
000130 d5 09 1b 3d 75 89 37 bd 7c 14 24 3c 93 e2 12 bd
       0.037851173 -0.044808824 0.0100146495 -0.03586061
000140 eb 1a 29 bc 5c b1 db bb f9 d2 aa 3c 99 97 1a bc
       -0.010321359 -0.0067044925 0.020852553 -0.009435558
000150 30 1d 91 bc 64 41 19 bd ac 52 34 bd 07 1b 12 bd
       -0.017714113 -0.037415877 -0.044024155 -0.035670307
000160 74 bd 03 3b 15 b8 dc 3c 33 b0 37 bb ae bc 5a bc
       0.0020101937 0.026943246 -0.0028028607 -0.013350649
000170 b0 82 0a bd ba d9 9c bc 1a 28 7c 3c a0 ef 47 3b
       -0.03381604 -0.019146789 0.01539042 0.0030507818
000180 67 0e 7f bc 6c 74 e2 bc 3b 1a 6a bc 34 79 2e bb
       -0.015567399 -0.027643405 -0.01428848 -0.0026622536
000190 b5 e9 2a bd 53 06 8e 3c 99 d0 0c 3d d2 78 89 bb
       -0.041726787 0.017337 0.03437862 -0.004195311
0001a0 ba af 3a 3d 5a a3 00 bd de 34 8a bc 1f c3 60 3c
       0.045577742 -0.031405784 -0.016870912 0.0137183955
0001b0 69 c7 ea bc 65 b6 e0 3b 34 72 83 3c f3 ff c1 3c
       -0.02865954 0.0068576806 0.016045667 0.023681616
0001c0 82 93 58 bb d9 65 47 3d 64 cb cc bc 04 21 3b bd
       -0.0033046906 0.048681114 -0.024999328 -0.045685783
0001d0 a7 b6 09 bb ad 10 e5 bc cd fd e6 bc 20 9b 81 bc
       -0.002101341 -0.027962053 -0.028197194 -0.01582104
0001e0 dd a6 a3 3c fb 85 6b bc 33 e6 c9 bc c3 b7 2f 3d
       0.019977028 -0.014375205 -0.0246459 0.04289986
0001f0 e5 0c 37 3d eb 4e 1f bd ac fb 9a 3b cd 55 1f 3c
       0.04469003 -0.03889362 0.0047297087 0.009725046
000200 92 96 ab bc e9 60 fe 3c 7c da 20 3d f4 dd 33 bd
       -0.020945821 0.03105207 0.039270863 -0.043912843
000210 90 89 b1 3b 6e 0f 1d bc 47 d3 e0 bc 99 50 fa 3c
       0.00541801 -0.009586198 -0.027444495 0.03055601
000220 5d 8f 82 bc 7a c7 99 bb e9 ec ba ba be 16 dd bb
       -0.015937502 -0.004692969 -0.0014261279 -0.006747096
000230 f6 04 c1 bb 1f 78 a7 bc cb 5d c7 bc 0c 5f 32 bd
       -0.005890484 -0.02044302 -0.024336716 -0.043547675
000240 30 14 0a bb 42 f8 49 bc 6c 58 04 bd 2f e8 28 3d
       -0.0021069162 -0.012327256 -0.03231089 0.041237053
000250 f8 14 8c 3c 1f e2 a5 ba d3 e0 aa 3c b8 24 e5 bc
       0.017099842 -0.001265589 0.020859158 -0.02797161
000260 3a 04 93 3b bb a3 ba 3b f6 78 eb bc 44 75 0b bd
       0.004486588 0.0056957877 -0.028744202 -0.03404738
000270 ae 26 5d bc 9d 73 cc bb d8 d2 f1 3c 65 7c 59 bd
       -0.0134979915 -0.006239368 0.029519483 -0.053097147
000280 8f 7c b3 3c 23 ca e2 3c 8e df 96 3c 03 30 39 3d
       0.02190998 0.027684277 0.018417146 0.045211803
000290 14 f4 da bc ea 6e c8 3c 4a 70 83 3c 82 42 77 bb
       -0.026727714 0.02446695 0.016044755 -0.003772885
0002a0 09 46 33 3d 96 e5 37 bd 47 2b 2a bd 19 89 29 3d
       0.043767963 -0.044896685 -0.04154518 0.041390512
0002b0 5a 68 82 3c 32 e8 e4 3c aa b7 af b9 cf 3a fb bc
       0.0159189 0.02794275 -0.00033515441 -0.03066769
0002c0 ff 83 2c 3c 27 dc 23 3c 37 23 0c 3d 57 db 3b 3d
       0.010529517 0.010001219 0.03421327 0.045863476
0002d0 4b 1b 11 bd 7c d9 20 3d 30 44 de bc 42 9b 23 3d
       -0.03542642 0.03926991 -0.027132124 0.039942987
0002e0 c6 97 93 bc 90 90 ba bc e9 fc c0 3c 30 13 02 bb
       -0.018016707 -0.02277401 0.023558097 -0.0019847862
0002f0 c8 96 00 bd 1f fd a9 3c 8a e6 99 3c 4e 3d 1e 3d
       -0.031393796 0.02075058 0.018786687 0.038632683
000300 72 88 0f 3a e5 44 8e bb 10 10 98 bc 19 3d a2 bc
       0.0005475349 -0.004341709 -0.018562347 -0.019804524
000310 27 ec bf bc cf 8c 05 3d 83 09 9b 3c 19 cd 60 3b
       -0.023428036 0.03260499 0.018925434 0.0034301935
000320 aa c9 c2 3c 19 9b 23 3c c5 b7 14 bd 76 9b ca bb
       0.023777802 0.009985709 -0.03630807 -0.006183083
000330 9e 40 15 3d 45 ca 3f 3d bb c7 ea 3c 6b bf fc 3a
       0.036438577 0.04682376 0.028659692 0.0019283121
000340 9b a7 d6 bc 2f b0 96 3c 9c 8d 12 3d 63 70 f4 3b
       -0.026202967 0.018394558 0.03577958 0.0074596866
000350 d2 ba 02 3d f8 4f ee bc b4 4a 1a 3d c7 dd d2 bc
       0.031916447 -0.029090866 0.0376689 -0.025740517
000360 86 de be 3c a9 76 7a 3c 31 2d cd 3b 35 92 65 bd
       0.023299467 0.01528708 0.0062614908 -0.056047637
000370 50 5e fd 3b c7 f8 9a bc f2 43 54 3c 59 d6 00 bd
       0.00773219 -0.018917454 0.012955653 -0.031454418
000380 8a 2e 12 bc 6b 61 88 3d 38 b7 02 bd 39 28 e0 ba
       -0.008922229 0.06659206 -0.031913012 -0.0017101831
000390 48 1c 0c 3d bb fd d4 bc b7 3c 18 3d c0 9c 5f bc
       0.03420666 -0.025999894 0.037167277 -0.013648212
0003a0 2c 9a 9e bc 0e ab 09 3d f6 ed df 3c fd fc 19 bd
       -0.019360624 0.033610396 0.027335148 -0.037594784
0003b0 91 36 a8 bc 22 7a 84 bb ef f6 db bc d2 47 fb bc
       -0.020533832 -0.0040428797 -0.026851146 -0.030673895
0003c0 d1 f7 0a bd 6d 92 0b 3d 9e 44 0d bd ed 7e 7c 3c
       -0.033927742 0.03407519 -0.034489267 0.015411121
0003d0 14 ca 91 bb ec e6 6a bc ca fd eb 3c d7 ac 56 3d
       -0.0044491384 -0.014337283 0.02880754 0.052410927
0003e0 ee b2 46 3c 83 2d 06 bc 37 e7 84 bc c6 ce 06 bd
       0.012127621 -0.008189562 -0.016223533 -0.03291204
0003f0 65 86 8c 3a 59 d6 0b bd 8c 0b cf bc 70 47 09 bc
       0.0010721205 -0.034139965 -0.02527406 -0.008378848

bias f4 [256]
000000 fd 1e 12 bd 94 60 fe bc e0 2c 03 3d 28 05 0a 3b
       -0.035674084 -0.031051911 0.032025218 0.0021060202
000010 4c d6 56 bb 3d 43 fb bc 5e de a1 3c 8f 51 46 bc
       -0.003278154 -0.03067171 0.019759353 -0.012104406
000020 94 55 05 3d 0c f4 b1 bb 08 57 b6 3c 51 3a dd 3b
       0.032552317 -0.005430704 0.022258297 0.0067513366
000030 9b 05 d2 bc 63 21 38 3c 36 59 15 bc db e5 e6 3c
       -0.025637439 0.011238429 -0.009115508 0.028185776
000040 7c 30 28 bd bc 68 eb ba 5a 7f df 3c ff d6 f4 bc
       -0.041061863 -0.001796029 0.027282406 -0.029887674
000050 fa 6c c5 bc 37 01 0b 3b 05 fb c4 bc 9f 79 32 3d
       -0.024099816 0.002121044 -0.024045477 0.04357302
000060 0c 3b 82 39 e8 ed e4 bb b7 32 f4 bc 20 24 0a bd
       0.00024839526 -0.0069863684 -0.029809339 -0.033725858
000070 16 1d 06 bd 07 9e 2c bd 1f 74 d4 3c 6e 30 20 bd
       -0.032742582 -0.042142894 0.025934277 -0.039108686
000080 ce b3 ae 3c b8 01 1e bd 2b 2d 32 3c 2a ca 21 bd
       0.021325972 -0.038575858 0.010875027 -0.03949944
000090 92 02 f9 3c 3b 42 06 bd 99 e8 06 3d c7 8e 51 3c
       0.030396733 -0.032778006 0.032936666 0.012790388
0000a0 43 fc 5f bc 7e d4 06 3c d4 32 01 3d 99 7a 70 bc
       -0.013670984 0.008229373 0.031542614 -0.014677667
0000b0 ce d9 c0 bc 46 d6 13 3d 52 7c 4e bc 24 47 cc bc
       -0.023541357 0.03609302 -0.012602882 -0.024936266
0000c0 d2 50 93 bc 39 b3 42 3b 51 df 46 bc 26 fc d9 3c
       -0.017982874 0.0029708876 -0.012138204 0.026609492
0000d0 49 f9 8a bc e9 e2 22 3c 6f 7d 1d 3b 1b c1 f2 3c
       -0.016964572 0.009941795 0.0024031063 0.029633095
0000e0 f7 7b c7 3c a1 bc 30 bd 67 58 fd bc 5c 85 a9 bc
       0.024351103 -0.04314864 -0.030925943 -0.020693474
0000f0 af cb bc bc 7b cd 15 bd a0 33 cd 3b e1 0f 41 bc
       -0.023046343 -0.036572915 0.0062622577 -0.011783571
000100 3e 2d c1 3c fe f6 a0 bc 5d 0d 96 3c 4f b9 a5 bc
       0.023581143 -0.019649025 0.018316919 -0.020229964
000110 83 9c 19 bd 74 af 1a 3d ad 8a 32 bc c5 79 2d 3c
       -0.037502777 0.03776498 -0.010897321 0.010588114
000120 65 b4 31 bd f4 b9 1d 3d 4e 53 17 3a 47 e2 ff bc
       -0.04338493 0.038507417 0.0005772606 -0.031235827
000130 6a 41 30 3d 4f ae 61 bb e7 21 11 bc 27 79 f7 3b
       0.043031134 -0.0034436171 -0.008858181 0.0075522843
000140 7e 64 de 3c 32 bd c6 3c 17 d3 03 bd a1 08 15 bc
       0.027147528 0.024260137 -0.032183733 -0.009096296
000150 51 46 d9 ba 26 a0 4f bb 86 67 d4 bb 1f 0c 01 3d
       -0.0016576742 -0.003168115 -0.0064820675 0.0315057
000160 ca ae c0 bc 73 37 8d 3c 6e 9a 38 bc a2 42 cf bc
       -0.023520846 0.017238354 -0.011267288 -0.025300328
000170 0a 57 29 bd 88 ce e1 3b e5 c1 c0 bc e2 0a 0e bd
       -0.041342773 0.0068910755 -0.023529956 -0.034678347
000180 b9 97 a0 3b 11 5e 71 bc 03 2f 87 bb 38 4d 18 bd
       0.0049008993 -0.0147319 -0.0041254773 -0.037183017
000190 9f fc ed bc 71 71 ef 3b 9a 17 13 bd a3 b5 b1 3b
       -0.029051123 0.0073072244 -0.03591118 0.005423264
0001a0 90 e1 e4 bc 45 cc eb 3c a1 ee c7 3c bd c9 11 3d
       -0.027939588 0.028783927 0.02440578 0.035592783
0001b0 b8 be 14 bd 45 01 b0 bc c8 22 06 bb c5 d5 92 bc
       -0.036314696 -0.02148498 -0.0020467509 -0.017924199
0001c0 c2 0b 23 3d 70 d5 11 3d 1d b8 0c 3c 18 54 b3 3c
       0.039806135 0.03560394 0.008588818 0.021890685
0001d0 71 1e 51 bd fa b0 e4 3b da 6c d5 bc 3a 04 fb 3c
       -0.05105442 0.006979105 -0.026052881 0.030641664
0001e0 3b 58 a3 bb b0 4a 90 3c fc 2e f5 bb b8 4a 13 3d
       -0.004984883 0.017613739 -0.0074824076 0.03595993
0001f0 ae ea 26 bd 44 96 e3 bb e1 bd fe bc d0 c6 ef bc
       -0.04075115 -0.0069454033 -0.0310964 -0.029269606
000200 9c b9 a8 3c 69 b6 14 3c c5 19 87 3c d3 a4 e5 bc
       0.020596318 0.009076693 0.01649178 -0.028032696
000210 f1 fd 65 bc 51 e0 39 3c a4 39 8e 3c e4 7c 5a 39
       -0.014037595 0.011344985 0.01736147 0.00020836625
000220 39 82 06 3d 8f 84 0d bc 34 10 5d 3c 90 ae c4 3c
       0.032839034 -0.008637561 0.013492633 0.02400902
000230 f0 43 1d 3d 7a df 25 bc 42 f7 3f bc 93 fb 13 3c
       0.03839487 -0.010124082 -0.011716666 0.009032148
000240 fa de 2b 3c c1 c2 89 bb f5 8d f9 3b ad 47 46 bd
       0.0104901735 -0.0042041247 0.0076157995 -0.0484082
000250 fb 2c 28 bc 05 b1 77 bc 4f 32 bc 3c c7 50 c5 3b
       -0.01026463 -0.015117888 0.022973208 0.0060215923
000260 75 82 75 bc a4 fe fe 3c 5c da f3 3c e3 9f cb 3c
       -0.014984717 0.031127281 0.029767208 0.024856513
000270 18 fb 52 bb a3 98 04 bd 73 2f af 3c a8 fb 1f 3d
       -0.003219312 -0.03237213 0.02138493 0.039058357
000280 69 4b af 3c 7e cf 14 bd 61 10 05 bd 9c b6 a7 bc
       0.021398263 -0.036330692 -0.032486323 -0.020472817
000290 ad d0 ec bb 15 af 67 bc 0a 73 1d 3d b5 b7 18 bd
       -0.0072270245 -0.014140864 0.038439788 -0.03728457
0002a0 0a de 0b 3d 49 14 c6 bb a2 91 81 3c c2 24 d4 3c
       0.0341473 -0.0060448986 0.015816513 0.025896434
0002b0 f3 f7 df 3c 97 cc 2e bd d8 94 fc 3c 1e 99 31 bd
       0.027339911 -0.04267558 0.030832693 -0.043358915
0002c0 0d 08 2f 3c 62 d4 49 3c 47 56 77 3b 0a e9 9b bc
       0.010683072 0.012318702 0.0037740634 -0.01903202
0002d0 5a d4 25 bd 75 ef 28 3d 25 54 25 bd f0 df 4a 39
       -0.040485717 0.04124399 -0.04036345 0.00019347644
0002e0 c9 c7 de 3c 9c cc e1 bc 04 eb 1e bd ae 73 94 bc
       0.027194874 -0.027563386 -0.038798347 -0.018121567
0002f0 06 5f 32 bc dd 7a 45 3b 65 b8 f5 3c 23 0f 06 3d
       -0.010886913 0.0030133047 0.029995153 0.03272928
000300 df 91 1e 3d 6e e7 4e 3b 9d 85 d5 bb a1 63 8d bc
       0.038713332 0.0031571048 -0.006516172 -0.01725942
000310 f9 b2 9d bc e8 5c 08 3d a0 b3 b0 bc e8 f2 3d 39
       -0.01925038 0.033291727 -0.021570027 0.00018114934
000320 db 16 13 3d 80 94 b9 bc 3c 61 85 bb 85 2a a2 bc
       0.03591047 -0.022653818 -0.004070429 -0.019795666
000330 c6 67 bf 3b ac 43 3c 3c 2e 01 43 bd 10 e5 18 3c
       0.005841228 0.011490744 -0.047608547 0.0093319565
000340 f9 d2 5f 3a a3 81 e6 bc 99 61 24 bd 89 e0 ce 3c
       0.0008538212 -0.028137987 -0.04013214 0.025253551
000350 e7 7c e7 bb e6 4b 91 bc 83 1b 30 bd 29 2a 27 3c
       -0.00706445 -0.017736387 -0.042994987 0.010202923
000360 2d 70 b3 ba 31 c8 ca 3c 47 46 d0 3c 00 6a 9c 3c
       -0.0013690047 0.024753662 0.025424136 0.019093513
000370 80 6d ec 3a a7 ad c2 bc 8d 77 06 bd 9d 76 9e bc
       0.0018038005 -0.023764445 -0.032828856 -0.019343669
000380 0c 62 f8 3c f9 10 17 bd c5 fc bc 3a e5 5f a7 3c
       0.03032019 -0.03688142 0.0014418593 0.020431468
000390 f1 58 c4 3c 81 a4 e7 bc fa 0d 0e bd 59 26 e9 bc
       0.023968192 -0.028276684 -0.034681298 -0.028460668
0003a0 7d d8 05 3d e9 ae 9b bc ba 39 c7 3c e4 22 2c 3c
       0.032677162 -0.019004302 0.024319518 0.010506365
0003b0 d4 1a bc bc fe 9b 0d 3d 62 f5 a2 bc 7e 7d b8 3c
       -0.022962011 0.034572594 -0.019892398 0.022520777
0003c0 2f 0b 00 3d be d9 ef bc 20 fd 9a bb fd e8 82 bb
       0.031260666 -0.029278632 -0.004729882 -0.0039950595
0003d0 4e cc 5f bc b7 e3 0f bd 89 8a 19 3d 0e 03 9a bc
       -0.01365955 -0.035129275 0.037485633 -0.018800285
0003e0 fb 37 b3 bc cd 5e 28 bd af 46 88 bc 1d 87 32 38
       -0.02187728 -0.041106034 -0.016635267 4.256434e-05
0003f0 22 d3 86 bc f5 ef 9a bc 02 f7 2e bd 24 f5 77 bb
       -0.016458098 -0.018913249 -0.042716034 -0.0037835324

weight f4 [128, 256]
000000 5a 26 2d 3c 57 ec e1 3c 8c 15 5d 3d f8 86 2e 3d
       0.010568226 0.027578516 0.053975627 0.042609185
000010 31 59 23 3c 5e f1 19 3d 37 e9 25 3c 75 0c 6b 3c
       0.009969995 0.0375837 0.0101264035 0.014346232
000020 bc 12 c9 bc 54 b1 3a 3d 86 9e 39 bd e4 82 fa bc
       -0.024545066 0.04557927 -0.045317195 -0.030579992
000030 cd df 9f bc 07 ac 98 3c c3 00 2a bc 2a c2 4f 3d
       -0.019515896 0.018636717 -0.010376158 0.05072228
000040 94 ce 07 3d 8d 53 c4 3c ef 8f 3b 3d a9 51 ea 3c
       0.033155993 0.023965621 0.045791563 0.028603392
000050 6e ad f2 bc b2 b2 23 bd 28 b4 28 bd 26 c7 6e bd
       -0.029623713 -0.03996534 -0.041187435 -0.05829539
000060 e3 75 d4 3b 9a dd bd bc 8b c0 7c bd c0 86 a6 bc
       0.0064837798 -0.023176957 -0.06170706 -0.020327926
000070 01 d3 80 bd 75 ff 10 3d 98 ad 50 3d c1 f5 2f bd
       -0.06290246 0.035399873 0.050946802 -0.04295898
000080 da 55 55 bc 3d 7e be 3b 27 23 c4 3c 96 02 6c bc
       -0.013020957 0.0058133886 0.023942543 -0.014404913
000090 82 a3 cb bc 85 fe 20 3d 40 6c d6 bc 11 59 e2 3b
       -0.02485824 0.03930523 -0.026174664 0.00690759
0000a0 22 e3 66 bd a9 b2 1f 3c 00 bd c8 3b f6 d1 6a 3d
       -0.056368954 0.009747186 0.006126046 0.05732914
0000b0 42 62 24 3d 1c 19 06 3d 75 3d 26 bd ff f7 22 3d
       0.04013277 0.03273879 -0.040585954 0.03978729
0000c0 8f ec 96 bc 3c 1c 1f bd 5a 71 0a 3c 3c 40 84 bd
       -0.018423347 -0.038845286 0.008449877 -0.06457564
0000d0 45 c3 5d 3d c3 dd 2a bd 64 d3 22 3b fa 88 0b 3d
       0.0541413 -0.041715395 0.0024845237 0.034066178
0000e0 bb d7 1c 3d fe 1b 5f 3d e0 59 a5 3b 2e 59 dd 3c
       0.038291674 0.054470055 0.0050461143 0.027020063
0000f0 5b 07 c8 3b b0 6e 0d bd c7 ea fb bb 68 92 a0 3c
       0.0061043925 -0.034529388 -0.0076878997 0.019601062
000100 6c 65 17 3d 95 31 81 3c 8e e8 31 bd d7 85 fa 3c
       0.036961958 0.015770713 -0.043434672 0.030581398
000110 49 d3 0a 3d 2d 36 43 bd 84 81 7c bd e2 70 0e bd
       0.033892903 -0.047659088 -0.061646953 -0.034775622
000120 35 77 1d 3c be 95 6d bd d7 cb 39 3d 9a e6 41 bd
       0.009610941 -0.058004133 0.045360412 -0.04733906
000130 d1 97 62 bd 27 5f ac 3c 42 fb b5 bc 27 4f 82 bd
       -0.055320565 0.021041466 -0.022214536 -0.06362753
000140 81 86 a2 bb f1 cb ee 3c 08 79 5e bd 00 bc 87 bc
       -0.004959882 0.029149981 -0.054314643 -0.016569138
000150 90 46 0e 3d ff 37 64 3d c4 7c 31 3b 82 fa 0e bd
       0.034735262 0.055717465 0.0027082423 -0.03490687
000160 78 f3 4c bd fa da 16 bd 61 7b 1e bc dd 0d 30 3c
       -0.050036877 -0.036829926 -0.0096729705 0.010745493
000170 d1 65 15 3d 11 ec 27 bb f1 22 17 3c e3 4e ee 3a
       0.036474053 -0.0025622884 0.009224639 0.0018181469
000180 2b 94 65 bc f2 69 84 bd 28 ae 76 bd 2b 23 62 3d
       -0.014012377 -0.0646552 -0.060224682 0.05520932
000190 6c 3e 48 3d 2b 91 c8 bc 74 50 c1 bc a2 52 3a bd
       0.048887655 -0.024483284 -0.023597933 -0.04548896
0001a0 39 f0 e4 3c a6 99 0d 3d 7e b7 36 3d a4 97 81 bd
       0.027946578 0.03457036 0.044608586 -0.06327751
0001b0 d3 0f 04 bd 76 e9 1e bd 18 1c a4 3c 92 1d 0c 3d
       -0.032241654 -0.038796864 0.020032927 0.034207888
0001c0 8f 2d 9d 3c b5 7a 45 bd a2 da bc 3b 7c 58 07 bb
       0.019186763 -0.048212726 0.0057633677 -0.0020652106
0001d0 d9 40 18 bc 54 b7 2f bd 5f 9c d6 bc cb c5 31 3b
       -0.009292805 -0.042899445 -0.02619761 0.002712595
0001e0 d9 7a 09 3c b3 f2 16 bb 85 a3 16 bd 50 c0 cd 3c
       0.008391106 -0.0023032844 -0.036777038 0.025116116
0001f0 44 67 4f bd ce 40 3d bd 13 e8 10 3d c2 20 eb 3b
       -0.05063559 -0.04620438 0.035377573 0.007175536
000200 a2 1e 26 3d 77 5a 5f bd 80 ab 1e 3d 45 5d ea 3c
       0.040556557 -0.054529633 0.038737774 0.028608928
000210 a2 f5 ee 3c 97 a0 2f 3d cc 60 bf 3c 10 14 a8 3c
       0.029169861 0.04287776 0.023361586 0.020517379
000220 56 ed 63 bd bf 93 eb ba 4e 20 4c 3d 4f 37 4b 3d
       -0.055646263 -0.0017973109 0.049835496 0.049613293
000230 10 4f 2f 3b 0f 3d 51 3c 4e 0f 3a 3d e9 7d 05 3a
       0.0026750006 0.012770905 0.045424752 0.00050923094
000240 5d 95 e9 3b d1 0f 57 3d 28 7c c8 3c 31 bf 21 3d
       0.007128401 0.052505318 0.024473265 0.039488975
000250 00 2f 60 bd a6 05 c9 bc 93 d7 0c bd 23 44 6f 3d
       -0.054732323 -0.024538826 -0.034385275 0.05841459
000260 19 1e 21 bd ef 64 f8 3c e4 7f 7a bc 1a b8 74 3c
       -0.039335344 0.030321566 -0.015289281 0.014936471
000270 34 69 dd bb 1f 40 b4 ba 3b b8 97 3c a3 b0 ab bc
       -0.006756926 -0.001375202 0.018520465 -0.02095825
000280 cc 2c 2f bd c2 8a 89 ba 09 f3 49 bd c9 66 40 3d
       -0.04276733 -0.0010493624 -0.049304042 0.046973024
000290 a4 26 85 3c fd 40 33 bd 8f c4 d4 3b 24 b9 e4 bc
       0.016253777 -0.04376315 0.006493158 -0.027920313
0002a0 cf 92 b8 bb 0c 63 03 bb a9 ce 94 bc 41 31 26 3d
       -0.0056327353 -0.002004805 -0.01816495 0.040574316
0002b0 1d b8 51 3d 95 4a 98 bb 90 aa be 3c 30 94 1e 3d
       0.051200975 -0.0046475627 0.02327469 0.03871554
0002c0 a1 c6 6d 3d 4a 6f 8c 3c fe 8b 34 bd cd cd 3c 3d
       0.058050755 0.01714291 -0.04407882 0.046094704
0002d0 50 76 3c bd be 34 1f bd f9 57 99 3c e2 e7 fc 3b
       -0.04601127 -0.03886866 0.018718706 0.0077180723
0002e0 06 eb e1 bc b9 e5 1d bd 06 6f 8a 3c e4 ca de 3b
       -0.027577888 -0.03854916 0.016898643 0.006799089
0002f0 50 c9 32 bd e4 c2 83 bd 46 86 13 bc 79 bd cd bc
       -0.043649018 -0.06433657 -0.009004181 -0.025114762
000300 35 71 1c ba bb 44 51 bd a3 df 63 bd 8a b9 62 3d
       -0.0005967797 -0.051090937 -0.0556332 0.055352725
000310 b2 f9 0c 3d 34 55 fa bc 58 b9 68 bd 5d 8b 50 3d
       0.034417816 -0.030558206 -0.056817383 0.050914157
000320 93 07 82 3c d6 34 f8 bc 2f 3e 7f bc 5a 38 7f 3b
       0.015872752 -0.030298632 -0.015578791 0.00389435
000330 eb 6b 0c bd 61 7b 72 bc e9 8e cd bc 21 f8 b0 bc
       -0.034282606 -0.014799924 -0.025092559 -0.021602692
000340 f8 37 e1 bc 2c 88 e7 bc 51 07 2e bd d4 6d 6f 3d
       -0.027492508 -0.028263174 -0.042487446 0.05845435
000350 16 16 19 3d ca 3e 5d 3d f3 45 46 3c ad ed 28 3d
       0.03737458 0.05401496 0.012101638 0.04124229
000360 6f 77 b6 3c 34 96 ea 3b 4e 34 c5 bc 2f e5 c4 bc
       0.022273747 0.007159019 -0.024072792 -0.024035065
000370 3c d9 19 bc 77 45 ab 3c 2f fe 82 bc 10 2d 30 bd
       -0.009390172 0.020907147 -0.015990345 -0.043011725
000380 5d c5 2b 3d a0 86 db bc 6a 23 10 3d ad 20 77 bd
       0.041936267 -0.026797593 0.035190023 -0.060333896
000390 2c f2 6e bd 4c 20 39 bd d6 73 89 bb 41 a6 00 3d
       -0.05833642 -0.045196816 -0.004194717 0.031408552
0003a0 b6 d7 4b 3d 8f 66 5a 3c 89 67 19 3d dc 9d 8f bd
       0.049766265 0.013330116 0.037452254 -0.07012531
0003b0 37 36 1a 3d bd f5 09 bd 74 f1 6d bd f3 23 7e bb
       0.03764936 -0.03368162 -0.058091596 -0.0038778752
0003c0 02 d6 05 3d 8a a7 61 3d d6 57 86 bd 98 c1 8f 3c
       0.032674797 0.05509142 -0.06559722 0.017548367
0003d0 fa bb 7e bd 99 c6 8c bc 5e d0 4f 3d 58 14 32 bd
       -0.062190987 -0.017184542 0.050735824 -0.043476433
0003e0 b8 9e 69 bd a9 19 32 bd d5 3a 29 3d f3 30 f9 3c
       -0.05703613 -0.043481503 0.041315872 0.030418849
0003f0 b4 c2 2f 3c 93 96 6c 3d 63 5c 10 3c d8 32 b7 bc
       0.010727573 0.057760786 0.008811089 -0.022363111

bias f4 [128]
000000 7a 09 ca b9 56 b5 bf bb b8 33 84 bc 62 ef c0 3c
       -0.00038535503 -0.0058504744 -0.016137943 0.023551647
000010 e7 ea 11 3c 3a 46 57 3c 54 44 21 bd f1 97 7e bd
       0.008906103 0.013139302 -0.039371803 -0.06215662
000020 d6 5e 82 3c 8b 98 85 bd be dc 37 3d be 02 c8 3c
       0.015914362 -0.06523236 0.04488825 0.02441537
000030 bd ab 37 3c a8 d7 4e bd 2c 57 1a bd 21 13 a1 3c
       0.011210379 -0.050498635 -0.03768079 0.019662442
000040 10 98 84 bd 95 26 fc 3c 02 9e 8f 3c 5f b8 85 bc
       -0.06474316 0.030780116 0.017531399 -0.016323267
000050 d7 16 57 bd 96 ab ee ba 53 8a 34 3d 3a 84 84 bd
       -0.052512016 -0.0018209096 0.04407723 -0.06470533
000060 7b aa 31 3d be 32 aa bb c0 43 ec bc 65 38 b6 3c
       0.043375473 -0.005194037 -0.0288409 0.022243688
000070 a9 9b c4 bc a0 29 1e 3d fe cb a4 bc cb 11 24 3c
       -0.024000006 0.038613915 -0.020116802 0.010014008
000080 2d 41 63 3d 52 ea 1e bd 13 8f 1e bc 4a 5f 4d bd
       0.05548208 -0.038797684 -0.009677666 -0.050139703
000090 90 35 95 3b ec dc 39 bc 29 c1 b0 3c 38 bc 84 bd
       0.0045535043 -0.011344176 0.021576481 -0.064812124
0000a0 ca fb 72 3d a6 31 52 3d 45 bb 13 3d 94 84 f4 3c
       0.059322156 0.05131688 0.036067266 0.029848374
0000b0 6a 63 92 bc 9f 3c 1b 3d e8 5b d5 3c 7f 31 4a 3d
       -0.01786967 0.03789961 0.0260448 0.04936361
0000c0 d9 81 3c 3d ab 3e b1 bc 5a 53 30 3d 54 bf 0f 3c
       0.04602227 -0.021636328 0.04304824 0.0087736435
0000d0 b6 82 5b bd a6 1d 8b bb 34 52 e5 3b dd c0 0d bc
       -0.053591453 -0.0042454777 0.0069983248 -0.008651939
0000e0 ab d4 8c bd a6 bd cc bc 00 a0 66 3c 73 7f 03 bd
       -0.06876501 -0.024992775 0.014076233 -0.032103967
0000f0 e4 02 27 bb ff e4 8c 3c 66 7c 56 3c 27 98 a1 bc
       -0.00254839 0.017199038 0.013091182 -0.019725872
000100 0e db bc bc 89 30 43 bd d5 18 4c 3d 41 fe 48 3d
       -0.023053672 -0.04765371 0.04982837 0.0490706
000110 7a bd 97 3c b0 5f 47 3d 92 51 4a 3c f6 bc 13 bd
       0.018522967 0.04867524 0.012348549 -0.03606888
000120 7b a6 27 3d be d8 5e 3d 33 1c dd 3c ff 59 c8 bc
       0.040930253 0.05440592 0.026990985 -0.024456976
000130 be c4 59 bd 12 c1 fe 3c 04 b9 03 bc a9 6a 40 3d
       -0.053166144 0.031097922 -0.008039717 0.04697672
000140 8a b2 66 3c 75 af 43 3d c0 4b 17 3d 63 db 34 bc
       0.014080653 0.04777475 0.036937475 -0.011038634
000150 e7 0b 28 bd 80 50 1b 3d df 69 2e 3c 48 ff e8 3c
       -0.041026976 0.037918568 0.010645359 0.02844204
000160 fd e4 22 bd 81 e3 40 bd fe a0 72 3c fa 6a c2 b9
       -0.03976916 -0.047091965 0.014808891 -0.00037082267
000170 32 06 29 3d 46 d1 d7 3b 84 f1 ca 3c b4 08 16 bd
       0.041265674 0.0065862266 0.024773367 -0.036629394
000180 61 9d 19 3d d1 a3 63 bd 13 22 93 bc 28 c6 cc 3c
       0.037503604 -0.05557615 -0.017960584 0.024996832
000190 24 a7 00 bd 69 c5 ae bc 5c 73 24 bd 36 39 63 3d
       -0.031409398 -0.021334367 -0.040149078 0.055474482
0001a0 fd 7b 9e 3b f6 00 e4 bb 50 69 af 3c 0c ec 3c 3d
       0.004836558 -0.0069581224 0.021412522 0.04612355
0001b0 6c c3 57 3d 78 23 78 bd 0e 27 1e bd 22 48 53 bd
       0.052676603 -0.0605807 -0.038611464 -0.051582463
0001c0 31 10 0e 3d 61 ea 7c bd 24 99 27 3d be 91 d0 3b
       0.03468341 -0.06174696 0.04091753 0.00636503
0001d0 7c 4f e3 bc 92 8e 8d 3b 37 46 43 3d 7a c7 10 bd
       -0.027747862 0.004319974 0.047674384 -0.035346486
0001e0 9a f7 63 bd 3e 9c 4a bb 44 49 e1 bb 94 21 e6 39
       -0.055656053 -0.0030915882 -0.006875189 0.00043894036
0001f0 bf 43 3c 3d f6 5b 04 bd 7f af db 3c 2f c4 3b bc
       0.045963045 -0.032314263 0.026817081 -0.011460348

weight f4 [60, 128]
000000 ad 48 50 bc fa f0 54 bc 58 2c 81 bd 60 15 2b 3a
       -0.01271264 -0.012996906 -0.06307286 0.00065263174
000010 d2 28 00 bc 5b 11 81 bc c6 df 54 b9 2c 26 58 bc
       -0.007822232 -0.015755346 -0.00020301258 -0.013192695
000020 70 8f 2b bc 2b f7 22 bd cb d0 a6 bd b2 1c 02 3e
       -0.01047121 -0.0397865 -0.08145293 0.12706259
000030 e9 bc a5 3d 43 9b 16 3d 83 75 d3 bc 9a 97 62 3d
       0.080926724 0.036769163 -0.02581287 0.05532036
000040 91 7f b4 bd 3f 10 a2 3d 27 7c 9b bd d6 e1 33 3d
       -0.08813394 0.07913255 -0.075920396 0.043916546
000050 66 cf 45 3d 09 bb a0 bc 8b c5 cd 3b a4 ba 77 3b
       0.048293494 -0.019620435 0.0062796525 0.0037800455
000060 40 1f 8a 3d 09 c9 04 bc ec b8 4d bd 59 14 ff 3d
       0.06744242 -0.008104571 -0.050225183 0.12455053
000070 f1 e7 71 3d c3 aa 1f 3c 3d d9 00 3c 8a 6c b4 bd
       0.059059087 0.009745303 0.007864294 -0.08809765
000080 85 f2 0e bd 57 f2 30 bc 48 9d d7 3d 0f 34 55 bd
       -0.034899253 -0.010799966 0.10528046 -0.0520516
000090 13 9b af 3d 76 38 bb bd 6f ce a0 bd ad 22 a1 3d
       0.085745 -0.091416284 -0.07851874 0.07867942
0000a0 50 6a 27 3d 30 8f 66 bd b9 6d a2 3c 09 be 99 3d
       0.040872872 -0.056288898 0.01982771 0.075069495
0000b0 27 5d 77 3d 2f 87 46 3d 0b cc 33 3d 36 c8 96 3d
       0.06039157 0.048468765 0.043895762 0.07362406
0000c0 e8 aa 9c bd 91 ae 38 bd a5 4a 30 bc 88 be 15 bb
       -0.07649785 -0.045088354 -0.010759984 -0.0022849161
0000d0 24 6e 24 bd 54 99 ee 3c 59 ae b1 3d 84 a0 48 3d
       -0.0401441 0.029125847 0.08675832 0.048981205
0000e0 d4 28 46 3c ac 32 b9 3d 9d 48 61 bd 0c 8a d5 bc
       0.012094695 0.09042868 -0.05500089 -0.026066802
0000f0 c0 e2 46 bc 38 79 8f 3d 6d 93 84 bc 8d 36 16 3e
       -0.012139022 0.070055425 -0.01618358 0.14669247
000100 23 5a 2d 3d 60 7d 07 bd 21 e6 92 bc 39 d9 f0 3c
       0.04232229 -0.03307855 -0.017932 0.029400455
000110 f9 f8 2c 3d 54 33 6f 3d 0c c9 a1 bd 02 7c fc bb
       0.042229626 0.05839856 -0.07899675 -0.0077052126
000120 63 37 c6 b9 28 e1 1b 3d 3d ad d1 bc 64 a7 cd bc
       -0.0003780677 0.038056523 -0.025595302 -0.025104232
000130 7c 7a 4a 3d 6b 1b 91 3d 70 af 64 bd 44 8f b7 bd
       0.049433216 0.07085308 -0.055831373 -0.089628726
000140 8e 62 7b 3c bc 61 12 3d d2 ea 95 3d dd a3 fc 3c
       0.0153433215 0.035737738 0.07320179 0.030839855
000150 f1 1c 68 bd 4f 55 c8 3d 09 75 93 bb c9 4c 66 3c
       -0.056668226 0.09781896 -0.0045000357 0.014056393
000160 f9 00 57 bd 03 5e 9b 3c 82 cc 9e 3d 54 94 2e 3c
       -0.052491162 0.018965727 0.077538505 0.010655481
000170 2c 13 e7 3c 74 61 92 bd fd 03 8a bd 0b e5 80 3c
       0.028207384 -0.07147494 -0.06739042 0.015734216
000180 c7 99 7c 3d 41 ed a8 bd 3a 31 8e 3d fb 2d 4c 3d
       0.06167009 -0.082483776 0.06942983 0.049848538
000190 38 61 b1 3c be e3 0b bd f1 a0 51 bd c0 56 9c 3d
       0.021652803 -0.03415274 -0.051178876 0.07633734
0001a0 86 15 5f 3d 1a 74 25 3d 86 b2 9e bd 1a 09 0d bd
       0.054463886 0.040393926 -0.077488944 -0.034432508
0001b0 71 35 c9 bc 09 7b 71 bc 56 0f 70 3d 4b 10 94 bd
       -0.024561616 -0.0147388065 0.058608375 -0.0722967
0001c0 e5 0d 1a 3d 15 64 38 3c 8a c6 af bd 41 5e 99 bd
       0.037610907 0.01125433 -0.0858279 -0.07488681
0001d0 12 a7 fd 3b e0 51 82 3d d8 32 7b 3c a7 88 28 3d
       0.0077408636 0.06363273 0.015331946 0.041145947
0001e0 2b 24 a5 bd 0f 27 8b 3d 2a b2 88 3d 5f 7f 53 3c
       -0.08063539 0.06794559 0.06674607 0.012908786
0001f0 94 8f 26 3d 3a cd 36 3d b9 1d b2 3d fd c7 64 3d
       0.04066427 0.044629313 0.086970754 0.055854786
000200 74 cf 3c bd 4c 5f 38 3d 77 14 90 3d 0b ec 80 bd
       -0.04609628 0.045012757 0.07035153 -0.062950216
000210 1b e9 9d 3d f3 49 92 3d ec 9f a6 bc 5e 21 6e bd
       0.07710477 0.07143011 -0.020339929 -0.05813729
000220 f2 12 63 bd b6 55 69 3c 4a d0 da 3c 7f 71 56 bd
       -0.05543799 0.0142416265 0.026710648 -0.052354332
000230 6e d7 92 bd 0e fc 53 3d 13 0e 75 3d 22 30 a1 bc
       -0.07169996 0.05175405 0.059827875 -0.019676272
000240 f4 75 8e bd a3 fc 3e 3d 7b d5 52 bd 31 9e dd 3b
       -0.069560915 0.046627652 -0.051473122 0.0067632427
000250 1a 2a 27 bc 1f 9a f0 3c 88 55 b2 3d 5c 9d 95 bd
       -0.010202909 0.029370366 0.0870772 -0.073054045
000260 82 30 37 bd 28 9f 03 3c 08 25 67 3d bb 4d 40 3d
       -0.044723995 0.008033551 0.0564318 0.04694913
000270 90 43 3f 3c 97 48 99 bd 00 d0 a0 3c 10 63 43 3d
       0.011673823 -0.074845485 0.019630432 0.047701895
000280 d8 55 69 3d 84 7d 2f 3d 5a 6b 0e bd b0 72 93 bd
       0.056966633 0.04284431 -0.034770347 -0.07199609
000290 4e 30 f9 3c 47 fa 0c 3d cf d1 67 3c 17 d7 e9 3c
       0.030418541 0.03441837 0.014149143 0.028544946
0002a0 36 c0 27 3d c2 1f 62 3d 30 79 99 3d e2 9e 96 3d
       0.04095479 0.055206068 0.07493818 0.07354523
0002b0 e2 e0 81 bc 42 62 98 bd 51 37 dc 3c 71 4a 0b 3a
       -0.015854303 -0.07440616 0.026881846 0.0005313522
0002c0 e0 6f 80 3d 65 4f 43 3d ad dd a3 3a cd 35 0d 3d
       0.062713385 0.04768314 0.0012501978 0.034475137
0002d0 41 83 20 3b c8 4c c0 3b aa ce db 3c 40 aa 2d bd
       0.0024492296 0.005868528 0.026831944 -0.04239869
0002e0 f5 a6 28 bd c9 bf 4b bd 4c c2 e4 3c a9 b1 98 3d
       -0.041174848 -0.049743447 0.02792468 0.07455761
0002f0 51 3e 09 3d b9 d9 04 3d 56 fb 1b bd f1 3f 5f bc
       0.033506695 0.0324342 -0.03808149 -0.013626085
000300 1b a1 44 bd 1e 96 1a bc 97 65 22 bd 13 02 af bd
       -0.048005205 -0.009435205 -0.039647665 -0.085453175
000310 29 46 71 bd 14 e6 41 3d ec 93 94 bd 57 38 a3 bb
       -0.0589048 0.04733856 -0.07254776 -0.0049810815
000320 e0 20 90 3d c3 24 1a 3a 3c 14 48 3d 36 28 f8 3c
       0.070375204 0.0005880112 0.048847422 0.030292612
000330 eb 60 fd 3b 5d 49 2c bd bc ca de 3c df 65 80 3d
       0.007732501 -0.042062152 0.02719628 0.0626943
000340 40 a4 ec 3c 53 d6 10 bd 52 5d 0b bc 31 a0 ea bc
       0.028886914 -0.035360646 -0.008506136 -0.028640838
000350 f8 83 a2 bd 65 05 52 3d 7d b4 49 3d ab 10 85 bd
       -0.07935327 0.051274676 0.049244393 -0.0649732
000360 2f 16 4b 3d f8 c1 42 3d f8 ca 9b bd 13 18 80 3d
       0.049581703 0.047548264 -0.076070726 0.06254592
000370 e5 af a2 3d 3d f7 f3 bc e5 df 80 bd f8 8c 3b 3d
       0.079437055 -0.029780978 -0.062927045 0.045788735
000380 93 16 98 3c fa 7e 4c 3d fa 8f 37 3d 1d d0 df bc
       0.018565452 0.04992578 0.04481504 -0.027320916
000390 64 b3 fd bc 3e 5e f6 3b 41 23 59 bd f5 75 fd bd
       -0.03096933 0.0075185588 -0.053012136 -0.12376014
0003a0 4e 97 68 bd 7a 2f bd bc 26 8d 9c 3d db 85 53 bc
       -0.05678492 -0.023093928 0.076441094 -0.012910332
0003b0 cf 5c 9f bd 8b ad bf 3c 07 51 f9 3b 1f bc df bd
       -0.07781374 0.023398181 0.007608536 -0.10924553
0003c0 65 e6 df 3c 1c 32 29 3d e6 34 81 3d 95 16 4d bd
       0.02733154 0.041307554 0.06308918 -0.050070364
0003d0 9f 71 da 3c 8e 37 9d bd a0 b7 a1 3d 7b 77 96 3b
       0.026665507 -0.07676612 0.07896352 0.00459188
0003e0 36 33 4d bd 02 65 a0 bd 01 35 00 3d 0c 4b 13 3d
       -0.050097667 -0.07831766 0.03130055 0.035960242
0003f0 16 32 9e 3c f5 c1 d4 bc 5e 61 6a bd 54 a5 a0 bd
       0.019310992 -0.025971392 -0.057221763 -0.07844034

bias f4 [60]
000000 af f1 1e 3d 95 ac 7d bd bb 3d bd 3c 9b ff cf bc
       0.038804706 -0.061932165 0.023100724 -0.025390437
000010 e5 03 96 3d ad e0 25 3c 21 b0 ca 3c c4 d9 61 bc
       0.073249616 0.010124368 0.024742188 -0.0137848295
000020 11 6c 50 3d f2 5c 37 bd 2d 12 28 3d 7f 30 d9 3a
       0.05088431 -0.044766374 0.04103296 0.0016570239
000030 84 a6 4c bc 29 d0 01 3c 63 43 07 bd 38 09 3e bc
       -0.012490872 0.007923164 -0.03302325 -0.011598878
000040 b9 a0 3c bb ea 14 f8 bc 0e 4d ae 3d fb 3b a0 bc
       -0.0028782322 -0.03028341 0.08510791 -0.01955985
000050 54 b3 3f 3d 01 d2 cf bc 4e d6 cb 3b b4 38 80 bd
       0.04680188 -0.025368692 0.0062206155 -0.06260815
000060 fd bf 3a 3d 2f c2 43 bd 4d 60 0f bd 3c 21 38 bd
       0.04559325 -0.04779261 -0.03500395 -0.04495357
000070 df 9e 9a bc 1c 14 4a 3d d1 f1 85 3d 72 ec 27 3c
       -0.018874584 0.049335584 0.065402634 0.010249244
000080 de bc 4a bd 42 53 20 bd 4a 14 0a 3d 9c 1c 15 ba
       -0.049496524 -0.0391419 0.033710755 -0.0005688162
000090 02 29 5b bd 03 0c 2d 3d 19 c6 8b bc 3d e0 81 bd
       -0.053505905 0.042247783 -0.017062234 -0.06341598
0000a0 b1 6f 24 bc 67 b8 07 bd dd e3 13 3d c6 3e 70 bd
       -0.010036395 -0.033134844 0.03610598 -0.058653615
0000b0 89 0b fd 3c 55 5e dc 3c c2 0e 17 bd c7 f5 3e bd
       0.03088929 0.02690045 -0.03687931 -0.04662111
0000c0 42 15 6a bd 98 89 62 3c 03 85 45 3d bb f1 e1 ba
       -0.05714918 0.01382675 0.048222553 -0.0017238179
0000d0 32 12 06 bd 4d 35 72 3d 62 52 75 bd 4d 76 2a 3b
       -0.032732196 0.059132863 -0.05989302 0.0026010454
0000e0 7f d6 08 bc f7 32 3f bb de 8d 1c bd e6 9c d4 bc
       -0.008351921 -0.0029174665 -0.038221233 -0.025953721
