linearPredictionModels/db39/super/combined.csv_wholeNetPrototype5_Epochs_6_ValidationLoss4.638370_lr0.0003_2023_08_01_13:14:43.pth (torch, 992609 bytes, 8 tensors)

weight f4 [512, 145]
-0.02730847 0.057025414 -0.06922755 0.10406189 -0.06318944 0.06583629 -0.044431027 0.05573132
-0.02278574 0.062226474 -0.047921546 0.025405819 0.010455401 0.027376918 0.07196316 0.040771764
-0.17462155 -0.15182936 -0.08570025 -0.022738734 -0.074771546 -0.16842985 -0.09682994 -0.17337643
-0.006033924 -0.030617636 -0.00091745646 -0.08137018 0.05016946 -0.03509945 -0.12559454 -0.066474594
-0.0029911234 -0.008671053 -0.10780359 -0.018676382 -0.106552675 -0.03771899 0.0055391793 -0.06595581
-0.08371111 -0.1280831 -0.07984676 0.027354848 0.06732586 0.043415718 -0.11235854 -0.10714423
0.08105207 0.012641128 0.040552367 -0.00089424587 0.06605234 0.040049445 0.09870825 -0.14238027
-0.12204922 0.036871612 -0.02218951 -0.01764762 -0.031143183 -0.008367635 -0.14012256 -0.052012194
-0.28227735 0.12978606 -0.029515978 -0.10926046 0.02663358 -0.062507965 -0.123199284 -0.18561648
-0.03512861 0.2903049 -0.008544498 -0.14461197 -0.069933295 0.009478703 -0.050811764 -0.0700656
-0.015844299 0.059942633 0.07589863 -0.080689915 -0.032236226 0.0010367748 0.02571555 -0.011118584
-0.03386086 0.036880374 0.16350646 -0.008096244 -0.10427157 -0.0880678 0.029205382 -0.12056149
-0.113294564 0.014785686 0.06192606 -0.010779875 -0.016946584 0.021811869 0.14288351 0.022870561
-0.029429033 0.009578632 0.039679166 -0.041257225 0.01071282 0.0244886 0.055252235 -0.041790586
0.051562496 0.027869431 -0.09479264 0.10758765 -0.05809283 -0.07355763 -0.08485753 -0.04717707
0.096397154 0.07553233 -0.0013123048 -0.066967346 0.0076282183 -0.043040045 -0.076053776 -0.07043448
-0.016214406 -0.06891538 -0.06890346 -0.0031766258 0.025503164 0.0075194375 -0.07938161 0.03878812
0.040439762 0.05253355 0.023668088 -0.07885268 -0.032318547 -0.023984209 0.032535255 0.008092794
-0.03099948 -0.0025590486 0.033820163 0.015812296 0.0074108434 0.06261019 -0.05983315 -0.08150572
-0.11142657 0.019585244 -0.025885524 0.028865041 0.031128256 0.034391813 0.056897376 0.070698045
-0.05723833 0.016470237 -0.027039973 0.105494134 -0.029508047 0.015012392 -0.04265238 -0.062254198
-0.06834344 0.011546257 0.009301358 0.05628867 0.022084285 0.0056463946 0.0192034 0.06193298
-0.05704927 0.037557915 0.07785111 0.012712002 0.034010485 0.056863777 0.07313526 -0.04684674
-0.049059793 -0.06415024 -0.08518649 -0.019034173 0.049871154 -0.07101097 -0.1181302 -0.027170215
0.1785372 -0.013441226 0.08728206 0.02975927 -0.08280054 -0.06523719 -0.041976515 -0.04684219
-0.076400265 -0.042671256 0.013069852 0.023497583 0.051131323 0.04342298 0.11851181 -0.07573246
0.04327853 0.6209313 -0.19722532 -0.08087129 -0.36228704 0.20665744 0.04424654 0.035028707
0.11277209 0.13533865 0.03543495 0.005349544 0.12078498 -0.0022685586 -0.11961292 -0.06184096
0.093092225 0.083397 0.057642642 0.0086309975 0.15907153 -0.08681032 -0.022435106 -0.20113733
-0.026234804 0.055075314 -0.007927184 -0.09420052 0.108195566 0.027479568 0.19602956 -0.21089157
-0.11099349 0.13998674 0.05500231 -0.0236533 -0.08865778 -0.007834712 0.07926457 0.056990597
0.043613117 -0.03712999 0.06893893 0.037554514 0.06969459 0.05502833 0.009925894 0.022179931
00000000: 03b6 dfbc 7b93 693d 2cc7 8dbd 661e d53d
00000010: 7769 81bd 2dd5 863d 4ffd 35bd 8646 643d
00000020: 29a9 babc 30e1 7e3d 6249 44bd dd1f d03c
00000030: 214d 2b3c 8f45 e03c 6c61 933d 4b00 273d
00000040: fecf 32be 2879 1bbe 9d83 afbd 9546 babc
00000050: d321 99bd e078 2cbe c74e c6bd 9789 31be
00000060: 39b8 c5bb d6d1 fabc 7681 70ba 69a5 a6bd
00000070: 7e7e 4d3d 71c4 0fbd db9b 00be d523 88bd
00000080: b906 44bb 0811 0ebc 21c8 dcbd 36ff 98bc
00000090: 4a38 dabd 3a7f 1abd 0182 b53b d713 87bd
000000a0: bb70 abbd 3728 03be b386 a3bd 4617 e03c
000000b0: 24e2 893d aed4 313d 3c1c e6bd 6f6e dbbd
000000c0: a1fe a53d bc1c 4f3c 3d1a 263d d36b 6aba
000000d0: 7346 873d e30a 243d 8d27 ca3d 22cc 11be
000000e0: f1f4 f9bd b006 173d c6c6 b5bc be91 90bc
000000f0: fd1f ffbc 6818 09bc 4a7c 0fbe bd0a 55bd
00000100: a886 90be a3e6 043e 7ecb f1bc f3c3 dfbd
00000110: aa2e da3c 2d04 80bd e84f fcbd 3f12 3ebe
00000120: 04e3 0fbd d8a2 943e 39fe 0bbc 2915 14be
00000130: 3039 8fbd 904c 1b3c ff1f 50bd 8e7e 8fbd
00000140: e7cb 81bc 6886 753d be70 9b3d c140 a5bd
00000150: 220a 04bd 64e4 873a 6ba9 d23c b92a 36bc
00000160: afb1 0abd e00f 173d 3d6e 273e 1ca6 04bc
00000170: 558c d5bd e45c b4bd 2040 ef3c f1e8 f6bd
00000180: fb06 e8bd a93f 723c 2ea6 7d3d 139e 30bc
00000190: 90d3 8abc ceae b23c 0e50 123e 0b5b bb3c
000001a0: 2815 f1bc b2ef 1c3c 9f86 223d 56fd 28bd
000001b0: d384 2f3c 519c c83c 2b50 623d 9b2c 2bbd
000001c0: 3233 533d 6f4e e43c a522 c2bd ea56 dc3d
000001d0: bff2 6dbd 62a5 96bd c9c9 adbd be3c 41bd
000001e0: df6b c53d b2b0 9a3d a401 acba 2d26 89bd
000001f0: 22f6 f93b c24a 30bd 15c2 9bbd f43f 90bd
00000200: 13d4 84bc 8223 8dbd 421d 8dbd f02e 50bb
00000210: 03ec d03c 9d65 f63b d392 a2bd 4be0 1e3d
00000220: 2aa4 253d 6b2d 573d 94e3 c13c 847d a1bd
00000230: 7460 04bd 887a c4bc b043 053d a397 043c
00000240: 9ff2 fdbc b6b5 27bb 0387 0a3d ca88 813c
00000250: a9d6 f23b c539 803d 9b13 75bd 79ec a6bd
00000260: 9d33 e4bd 3c71 a03c e10d d4bc 6176 ec3c
00000270: af00 ff3c 6ede 0c3d 390d 693d 23ca 903d
00000280: bd72 6abd 97ec 863c ef82 ddbc 4f0d d83d
00000290: dcba f1bc 89f6 753c 43b4 2ebd 42fe 7ebd
000002a0: a5f7 8bbd 832c 3d3c b964 183c f38e 663d
000002b0: 1aea b43c 6405 b93b 7350 9d3c 70ad 7d3d
000002c0: 7fac 69bd 54d6 193d 6770 9f3d 0046 503c
000002d0: 944e 0b3d fee9 683d f0c7 953d 5ee2 3fbd
000002e0: ecf2 48bd 3361 83bd 4176 aebd 8eed 9bbc
000002f0: b245 4c3d 336e 91bd 3fee f1bd 1294 debc
00000300: 75d2 363e 9738 5cbc f0c0 b23d b6c9 f33c
00000310: 5493 a9bd 139b 85bd 91ef 2bbd 99dd 3fbd
00000320: be77 9cbd 0ec8 2ebd ef22 563c 017e c03c
00000330: 146f 513d 4bdc 313d 52b6 f23d 9f19 9bbd
00000340: d444 313d 5bf5 1e3f 6ff5 49be d99f a5bd
00000350: b07d b9be 029e 533e dc3b 353d 437a 0f3d
00000360: 0ef5 e63d 3796 0a3e 3d24 113d 3a4b af3b
00000370: 1e5e f73d 19ac 14bb 9ef7 f4bd f24c 7dbd
00000380: 23a7 be3d 0ccc aa3d b11a 6c3d 0769 0d3c
00000390: a6e3 223e 9cc9 b1bd d4c9 b7bc f2f6 4dbe
000003a0: 5fea d6bc a796 613d 05e1 01bc 34ec c0bd
000003b0: a395 dd3d d51c e13c f9bb 483e f6f3 57be
000003c0: 8e50 e3bd af58 0f3e 1a4a 613d 91c4 c1bc
000003d0: 3692 b5bd 2a5d 00bc 7655 a23d f96e 693d
000003e0: aba3 323d 9e15 18bd db2f 8d3d c3d2 193d
000003f0: 0abc 8e3d 6365 613d 38a0 223c b0b2 b53c

bias f4 [512]
0.07508182 -0.044765733 0.02785132 -0.12088219 0.09400064 -0.08430105 -0.07038294 -0.059713636
0.057438012 0.059511844 -0.080267526 -0.007453573 -0.016908526 0.048730996 -0.10396011 -0.06157469
-0.05938409 -0.03492557 -0.02635469 0.05462486 -0.017488645 0.056652516 -0.0016281963 0.047563866
0.017312469 -0.071432166 -0.041741837 -0.100358814 -0.11084004 0.100051954 0.031844165 -0.005055239
0.03222231 0.052437995 -0.122944064 -0.06394531 0.0754189 -0.040061995 0.020479709 -0.006556747
-0.082811065 -0.07225521 -0.025477106 -0.014743305 -0.030822044 -0.039099533 -0.090411425 -0.078717075
0.007377996 -0.018885149 -0.08779378 0.07500911 -0.06608445 -0.07480963 -0.12984936 -0.027342314
0.07708928 0.06751668 -0.06970245 0.006771385 -0.06934311 -0.14718981 -0.039919015 -0.065567695
-0.010663112 0.027841317 -0.05393937 -0.06788713 -0.043524038 0.0828469 0.10060353 0.10569237
-0.011501042 -0.020957889 0.03208287 -0.08980023 -0.018891463 -0.013076972 0.061749004 -0.0926496
0.14782783 0.057088744 -0.05968891 -0.07863354 -0.073707744 -0.015238853 -0.14783123 -0.06622462
0.05062037 0.034116663 0.05575628 -0.02242157 -0.06908468 -0.11798653 -0.094274536 0.011044771
-0.0044821245 -0.08025407 0.058712084 -0.09266493 0.09361964 -0.0061457474 -0.032930925 0.022667902
0.0783816 -0.0015336919 -0.061428614 -0.07197901 0.02257195 0.109221965 -0.16700143 -0.08798842
-0.04712242 -0.107525334 0.08560753 -0.09774374 -0.13160352 0.07819448 -0.08699137 -0.12268072
0.04014168 0.0050492436 0.07039055 0.051170982 -0.09840385 0.03706897 0.054130446 0.082619995
-0.08676164 -0.077763826 -0.059566334 -0.0353666 -0.033904433 -0.03377003 0.10651028 0.021638827
-0.027787618 -0.018214788 0.034452997 -0.07316997 -0.13767904 0.0018137149 -0.09081241 -0.040733106
0.030356433 0.025737148 -0.039530367 0.02217315 -0.027995054 -0.047770318 -0.09357048 0.0047153565
0.018958883 0.023064012 -0.08614036 -0.008507136 -0.061712347 0.12483958 -0.051791918 0.026555026
-0.029004317 -0.105582885 -0.06399454 -0.09617327 0.13902363 0.08475488 0.014380744 -0.046149086
0.11847909 0.04772471 -0.023437928 0.08121951 -0.010786781 0.054308154 0.056510318 0.05294539
-0.022481779 0.04024681 0.04046385 0.0016775806 0.08555073 0.041612808 -0.0036681404 0.10075702
0.034698244 -0.027139075 -0.048285134 -0.094278425 0.07438456 -0.07759154 -0.0500229 -0.012641492
0.041503135 -0.006504339 0.08728235 0.016152078 0.016425518 -0.0983661 -0.05058504 0.06062843
-0.016318234 0.04668009 0.091995545 -0.027687194 0.016160002 0.13378748 0.15551399 -0.075614415
0.13557488 0.084828764 -0.053693492 -0.042755444 -0.028226169 -0.09567746 -0.05456193 0.029752746
-0.13265494 0.07068691 0.0626703 -0.07431982 -0.008692688 0.0069123153 0.11272435 -0.029191278
0.00092280033 -0.08351924 0.022177674 -0.012454159 -0.032296754 -0.15789796 -0.07154917 -0.05544121
-0.09017358 0.08053117 0.050025087 -0.014036622 0.09033932 0.10259734 -0.02833396 -0.057652276
0.073296875 -0.17348383 0.024633447 -0.0150945475 -0.120241515 -0.090254 -0.09846607 -0.069109105
-0.0708192 -0.13086314 -0.066113085 0.05050148 -0.07277258 0.021245703 0.07896787 0.13221695
00000000: 7fc4 993d 465c 37bd 7428 e43c 1591 f7bd
00000010: 6883 c03d 07a6 acbd ee24 90bd 4996 74bd
00000020: 1f44 6b3d b1c2 733d 4d63 a4bd 1a3d f4bb
00000030: c083 8abc 279a 473d 0ae9 d4bd be35 7cbd
00000040: bb3c 73bd 1d0e 0fbd cae5 d7bc 51be 5f3d
00000050: 5944 8fbc 780c 683d 3469 d5ba 54d2 423d
00000060: e1d2 8d3c 074b 92bd 7df9 2abd ec88 cdbd
00000070: 1a00 e3bd 0ae8 cc3d 076f 023d 6ba6 a5bb
00000080: 8afb 033d 39c9 563d 19ca fbbd c2f5 82bd
00000090: 3975 9a3d 0c18 24bd 10c5 a73c fbd9 d6bb
000000a0: d998 a9bd 8afa 93bd 5db5 d0bc e78d 71bc
000000b0: 837e fcbc d526 20bd a029 b9bd 6b36 a1bd
000000c0: 1ec3 f13b 07b5 9abc 3acd b3bd 609e 993d
000000d0: 4957 87bd cb35 99bd 3bf7 04be fdfc dfbc
000000e0: fce0 9d3d 2f46 8a3d 28c0 8ebd 7fe2 dd3b
000000f0: c303 8ebd edb8 16be 1f82 23bd 5b48 86bd
00000100: 55b4 2ebc 7913 e43c 87ef 5cbd 6808 8bbd
00000110: 4346 32bd a3ab a93d 3909 ce3d 3e75 d83d
00000120: de6e 3cbc e1af abbc 5469 033d 2fe9 b7bd
00000130: 45c2 9abc cc40 56bc 86ec 7c3d 13bf bdbd
00000140: 2e60 173e e3d5 693d 5c7c 74bd 9f0a a1bd
00000150: 16f4 96bd 62ac 79bc 1261 17be c6a0 87bd
00000160: 4e57 4f3d eabd 0b3d b260 643d 71ad b7bc
00000170: 457c 8dbd eca2 f1bd 0213 c1bd 21f5 343c
00000180: c9de 92bb 3f5c a4bd 157c 703d 1cc7 bdbd
00000190: a7bb bf3d 4462 c9bb 94e2 06bd 09b2 b93c
000001a0: 8886 a03d 2906 c9ba 929c 7bbd bb69 93bd
000001b0: cfe8 b83c c4af df3d 6c02 2bbe 4633 b4bd
000001c0: 7003 41bd 3e36 dcbd 0053 af3d df2d c8bd
000001d0: 13c3 06be 6d24 a03d 8828 b2bd 0840 fbbd
000001e0: 9a6b 243d 2074 a53b ec28 903d aa98 513d
000001f0: f587 c9bd a2d5 173d e3b7 5d3d ac34 a93d
00000200: 16b0 b1bd a442 9fbd d4fb 73bd 91dc 10bd
00000210: 60df 0abd 7152 0abd 1022 da3d e943 b13c
00000220: dca2 e3bc 2e37 95bc 961e 0d3d 23da 95bd
00000230: bcfb 0cbe 2cba ed3a dbfb b9bd c2d7 26bd
00000240: 0eae f83c b6d6 d23c 98ea 21bd 77a4 b53c
00000250: e255 e5bc cfaa 43bd e1a1 bfbd 4783 9a3b
00000260: a94f 9b3c bdf0 bc3c 5b6a b0bd 8461 0bbc
00000270: 16c6 7cbd e5ab ff3d c323 54bd ed89 d93c
00000280: 769a edbc d73b d8bd 920f 83bd 7ef6 c4bd
00000290: 365c 0e3e f793 ad3d 369d 6b3c d306 3dbd
000002a0: 2aa5 f23d fc7a 433d e600 c0bc 6a56 a63d
000002b0: 0abb 30bc 3a72 5e3d 5d77 673d 44dd 583d
000002c0: b52b b8bc d7d9 243d 6cbd 253d 44e2 db3a
000002d0: 3935 af3d 3172 2a3d 2f65 70bb b259 ce3d
000002e0: bf1f 0e3d c452 debc a2c6 45bd 0c15 c1bd
000002f0: ef56 983d 50e8 9ebd d0e4 4cbd 431e 4fbc
00000300: 31ff 293d 5a22 d5bb 17c1 b23d 5d51 843c
00000310: cf8e 863c 2a74 c9bd 4232 4fbd 8455 783d
00000320: d1ad 85bc 9f33 3f3d 2968 bc3d 41d0 e2bc
00000330: fb61 843c 96ff 083e 0f3f 1f3e bbdb 9abd
00000340: 24d4 0a3e b4ba ad3d b5ed 5bbd 5520 2fbd
00000350: 913a e7bc 8bf2 c3bd 557c 5fbd 08bc f33c
00000360: b2d6 07be 4cc4 903d 4959 803d fd34 98bd
00000370: c76b 0ebc b480 e23b 06dc e63d 8c22 efbc
00000380: 15e8 713a 230c abbd f4ad b53c 870c 4cbc
00000390: 9a49 04bd 01b0 21be 5f88 92bd 5216 63bd
000003a0: edac b8bd 87ed a43d 1be7 4c3d dcf9 65bc
000003b0: d203 b93d 8e1e d23d 9f1c e8bc cb24 6cbd
000003c0: ac1c 963d bfa5 31be 15cc c93c 1f4f 77bc
000003d0: 2f41 f6bd 17d7 b8bd 94a8 c9bd 1389 8dbd
000003e0: a809 91bd fd00 06be 4c66 87bd a4da 4e3d
000003f0: ca09 95bd 780b ae3c e8b9 a13d e163 073e

weight f4 [256, 512]
-0.056819446 0.048360884 -0.05184584 0.058377583 -0.041141327 -0.027213601 -0.09220085 0.016877351
-0.020572789 0.018780377 -0.00414423 0.09585799 -0.016221398 0.07332096 0.0049003307 0.044759497
-0.018183554 0.0058490452 -0.0048121647 -0.07140118 0.0715275 -0.043648116 -0.08708882 0.016632764
0.041993834 -0.020754272 -0.022497984 0.0155763645 0.04438716 -0.03816308 -0.04866948 0.06854571
-0.16263174 -0.008690793 0.012665534 -0.108072825 -0.059097633 0.02797252 0.048837896 -0.06587403
-0.056356464 -0.09036897 -0.085763775 0.048933458 0.002638278 0.008063293 -0.20488603 -0.0027858051
-0.021513762 0.18399765 0.009744759 -0.08358619 -0.14787802 -0.038368948 0.021629944 0.0069684046
-0.08772112 0.0039275098 -0.018889578 -0.0300727 0.10617908 -0.059965823 -0.2155648 0.016270591
-0.0226388 0.02825447 -0.06964004 -0.07843191 -0.2000861 -0.03667747 -0.10117635 0.054786064
0.09591799 -0.074162774 0.0685548 -0.013984783 0.004056417 0.032350305 0.0316963 0.047574963
0.02936604 -0.13340156 0.05126936 -0.055694204 -0.08239723 -0.013659829 0.048005983 0.00770937
0.012031281 -0.11236412 -0.032964583 0.025063932 -0.1541421 -0.12876472 -0.073790334 0.03146283
0.03872462 0.017227756 0.014440169 0.02712579 -0.06926063 -0.06677033 -0.14109303 -0.058887318
-0.18468599 0.0043332097 -0.046891645 0.028110638 -0.0014794987 -0.076676704 -0.1337504 -0.071178116
0.08335167 0.0234444 -0.0081319 0.00986398 0.025289826 -0.097351 -0.008872732 -0.025910787
0.05897418 -0.01564827 0.08804568 -0.020563789 -0.043887317 -0.05304496 -0.09306161 -0.031171538
0.020086063 0.05572462 0.085165344 -0.1173354 -0.0068646614 -0.026655996 0.061593276 0.05631852
0.0037230619 0.059197538 -0.005649074 -0.021316588 0.11267116 0.11737713 -0.011272624 -0.03449239
0.028005078 0.03712934 0.03600621 0.0069405176 -0.011899165 0.01601378 -0.103767544 -0.03329669
0.104375936 0.008834977 -0.0188134 -0.044925537 -0.03258354 -0.023842031 0.06664602 0.0531797
-0.0597602 0.12842199 0.04388725 -0.087504186 0.022657845 0.0101382015 0.068569876 0.049011372
-0.028724195 -0.018236648 -0.057328716 -0.050734367 0.07391351 -0.082986146 0.035492606 -0.0661503
0.026443351 -0.0029894756 -0.021688564 -0.107661754 -0.051571585 0.13871577 -0.022868525 -0.05279473
0.046973594 0.055164773 -0.017693339 -0.0024178575 0.041931704 0.021082927 -0.106819935 -0.013227566
-0.03157823 0.015772114 0.025113791 -0.043802775 -0.031489152 -0.016065588 -0.10409842 -0.12395204
-0.025486968 0.0005917906 -0.08098129 0.027653905 0.011927086 0.03784156 -0.06833923 -0.123858035
-0.067380354 -0.108045764 0.030056534 0.006364761 -0.06911662 -0.07139411 0.011107908 -0.06337136
-0.12603839 -0.08092563 0.07442057 -0.0567978 0.04306534 -0.0021098286 -0.07555632 -0.054136857
0.031010078 0.004987428 0.065615006 -0.021477573 -0.03226376 -0.08098741 -0.020949366 0.081751466
-0.035921622 -0.03414293 -0.24711247 0.008835942 0.005991894 -0.06888597 -0.044979014 0.0012933246
-0.22306652 0.08822617 -0.028462604 -0.2024179 0.022528166 -0.00434536 -0.08660044 -0.055001594
-0.095420904 -0.014316658 -0.08506914 -0.11515734 -0.08816705 -0.031049011 0.0061121956 0.041070852
00000000: 82bb 68bd 1016 463d 4e5c 54bd 551d 6f3d
00000010: cf83 28bd 0fef debc cdd3 bcbd 5f42 8a3c
00000020: 4488 a8bc 4ed9 993c 52cc 87bb 3251 c43d
00000030: bde2 84bc 4d29 963d f492 a03b bc55 373d
00000040: adf5 94bc 59a9 bf3b 5daf 9dbb c83a 92bd
00000050: 037d 923d 5ec8 32bd a05b b2bd 6f41 883c
00000060: ba01 2c3d dd04 aabc b14d b8bc 0234 7f3c
00000070: 50cf 353d e450 1cbd a659 47bd b161 8c3d
00000080: ef88 26be d463 0ebc 1a83 4f3c 4955 ddbd
00000090: 5c10 72bd a026 e53c 3f0a 483d f7e8 86bd
000000a0: 09d6 66bd 5e13 b9bd eba4 afbd 736e 483d
000000b0: f6e6 2c3b e71b 043c a5cd 51be 0e92 36bb
000000c0: a13d b0bc e169 3c3e 7ba8 1f3c 3d2f abbd
000000d0: 566d 17be c228 1dbd 4831 b13c 3757 e43b
000000e0: 21a7 b3bd 57b2 803b 51be 9abc 065b f6bc
000000f0: 6b74 d93d b99e 75bd 05bd 5cbe e749 853c
00000100: 0175 b9bc eb75 e73c 709f 8ebd e9a0 a0bd
00000110: 5fe3 4cbe 1d3b 16bd 8c35 cfbd 5a67 603d
00000120: a770 c43d a7e2 97bd 7566 8c3d 6e20 65bc
00000130: b1eb 843b c181 043d fbd3 013d f7dd 423d
00000140: 0d91 f03c 6b9a 08be d2ff 513d 9b1f 64bd
00000150: e1bf a8bd 7acd 5fbc eca1 443d e29e fc3b
00000160: da1e 453c 291f e6bd df05 07bd e052 cd3c
00000170: 6dd7 1dbe e6da 03be 631f 97bd 2bdf 003d
00000180: b59d 1e3d 3921 8d3c 7596 6c3c e836 de3c
00000190: 84d8 8dbd e2be 88bd b17a 10be d433 71bd
000001a0: 531e 3dbe 99fd 8d3b 7411 40bd 4848 e63c
000001b0: bdeb c1ba ad08 9dbd ddf5 08be d5c5 91bd
000001c0: 48b4 aa3d 780e c03c a93b 05bc 889c 213c
000001d0: 9c2c cf3c f65f c7bd ef5e 11bc dc42 d4bc
000001e0: e98e 713d cd30 80bc 4b51 b43d 6475 a8bc
000001f0: 30c3 33bd ac45 59bd 1697 bebd 745b ffbc
00000200: 878b a43c 803f 643d 2b6b ae3d 8b4d f0bd
00000210: f4f0 e0bb ad5d dabc 3b49 7c3d 40ae 663d
00000220: 9dfe 733b 1e79 723d de1b b9bb 20a0 aebc
00000230: 23c0 e63d 6c63 f03d d0b0 38bc e447 0dbd
00000240: e86a e53c ef14 183d 3f7b 133d 486d e33b
00000250: b7f4 42bc 552f 833c 1484 d4bd 1c62 08bd
00000260: 0dc3 d53d 94c0 103c 8f1e 9abc d703 38bd
00000270: 5176 05bd 5d50 c3bc b57d 883d f5d2 593d
00000280: 1dc7 74bd 0e81 033e 1ec3 333d 6535 b3bd
00000290: f29c b93c b31a 263c 5d6e 8c3d 26c0 483d
000002a0: 014f ebbc 0665 95bc 84d1 6abd d7ce 4fbd
000002b0: f75f 973d a4f4 a9bd b260 113d cf79 87bd
000002c0: ba9f d83c 14eb 43bb 37ac b1bc c47d dcbd
000002d0: ba3c 53bd 820b 0e3e c656 bbbc 493f 58bd
000002e0: 6267 403d 75f4 613d 9ff1 90bc eb74 1ebb
000002f0: 94c0 2b3d 1ab6 ac3c 69c4 dabd 6fb8 58bc
00000300: 2d58 01bd 8534 813c 70bb cd3c 8a6a 33bd
00000310: c5fa 00bd fb9b 83bc 8d31 d5bd 91da fdbd
00000320: 0cca d0bc 6522 1b3a 85d9 a5bd 718a e23c
00000330: d369 433c c0ff 1a3d 70f5 8bbd 48a9 fdbd
00000340: b6fe 89bd 1947 ddbd 1f39 f63c 7c8f d03b
00000350: 048d 8dbd 1337 92bd f1fd 353c d8c8 81bd
00000360: 3510 01be 56bc a5bd d069 983d cfa4 68bd
00000370: 4865 303d 0d45 0abb 46bd 9abd 9cbe 5dbd
00000380: d908 fe3c 946d a33b 2961 863d bcf1 afbc
00000390: 0127 04bd badc a5bd 019e abbc 506d a73d
000003a0: 8d22 13bd 75d9 0bbd 0d0b 7dbe a0c4 103c
000003b0: a657 c43b 1614 8dbd ea3b 38bd c684 a93a
000003c0: 8d6b 64be ecaf b43d 682a e9bc a346 4fbe
000003d0: fd8c b83c 8663 8ebb 925b b1bd 5a49 61bd
000003e0: 096c c3bd 6a90 6abc bb38 aebd 9dd7 ebbd
000003f0: ed90 b4bd 7f5a febc d048 c83b e939 283d

bias f4 [256]
-0.061740793 0.018529763 -0.02944999 0.010632772 -0.066837445 -0.030238649 0.0046005426 0.00793498
-0.015657851 0.03328231 -0.08744191 -0.025329977 0.051030423 0.0012882078 -0.05065708 0.038616914
-0.083948836 -0.053231318 -0.01942762 -0.06888023 0.013926813 -0.07026339 -0.036031615 -0.018037489
-0.0014829843 -0.033645645 -0.1149251 0.053032994 -0.001180202 -0.11423311 -0.061103366 0.02375319
-0.029840052 -0.090004 -0.09931797 0.01730274 -0.021384513 -0.036232926 0.02917414 -0.018096978
-0.007283688 0.0003923304 0.019156117 -0.055828404 -0.06783621 -0.04635091 -0.015332591 0.0096219
0.0047113216 -0.034391224 0.10347852 0.021866668 -0.020839183 -0.030543245 -0.053873952 -0.05853502
-0.00050437445 -0.005884149 0.059957057 -0.07722314 -0.033261187 -0.0111519685 -0.022315193 0.058470063
-0.03417517 -0.068379335 -0.10384561 -0.027206415 0.008834552 -0.031483777 0.013923496 -0.014416738
0.04698514 -0.04961295 -0.07644354 -0.011800567 -0.08989621 -0.06514349 0.06490748 -0.016250964
0.032843478 0.048191503 -0.040590875 -0.019997312 -0.01915116 0.043346334 0.13277772 0.028095981
-0.12589468 -0.051373627 -0.025014346 -0.025570966 0.034617968 -0.052631088 0.031017013 0.03804483
-0.0015266979 -0.011714667 0.10693878 0.017147819 -0.039379936 0.029518735 -0.0075903544 -0.06810987
0.0056395093 0.020197596 0.018910958 -0.08399851 -0.005055451 -0.06836059 0.045207836 0.0030352704
-0.011591096 -0.04093051 0.023418268 0.010450224 -0.05867211 -0.04595785 -0.029921304 -0.014665082
-0.0358724 0.019890016 0.016464911 0.00041004005 0.005492327 -0.037590947 -0.061412334 0.019276198
-0.008582314 0.02324785 0.0019915523 0.038549975 -0.13160406 -0.045247562 -0.07478782 -0.057633124
0.025272079 -0.14669503 0.019421374 0.012817673 0.057280634 -0.019093512 0.07304693 0.018468259
-0.056739118 -0.037128843 -0.03096465 0.10389024 0.01203124 -0.021246118 0.0035527328 0.017116431
0.033304263 -0.021447873 0.009469449 -0.02522302 -0.040400475 0.017071567 -0.017108215 0.019319095
-0.08559921 -0.058265127 0.0300778 -0.004454806 -0.04795522 0.00087998045 -0.032171287 0.03143103
-0.024344103 -0.047601096 -0.032231346 -0.014299994 -0.0022970624 0.009639624 -0.041650716 -0.05419478
-0.09216993 -0.099046715 -0.06108963 0.014474017 -0.047935046 0.021340372 0.04818829 -0.004114561
-0.034837585 -0.03794201 -0.09840501 -0.024239512 0.029235478 -0.053659994 0.0738494 -0.08178864
-0.016424367 -0.0018950679 -0.05348477 -0.037555337 0.006509864 -0.034191195 -0.056966558 -0.03199427
-0.04060863 0.0036454815 -0.023988882 -0.082377695 0.014180354 0.07225031 -0.04266539 0.003072568
-0.05540166 -0.06373052 -0.01125779 -0.050779436 -0.029380172 0.009796423 0.06640545 -0.06627185
0.057076197 -0.074844584 -0.04925528 -0.0998986 0.06449738 -0.014055267 -0.008549953 8.534981e-05
-0.059033267 -0.021751337 0.100494996 -0.062324554 -0.08949816 -0.011757906 9.467512e-05 0.07607403
0.04771365 0.15051316 -0.097999595 -0.023109501 -0.104188494 -0.06283417 0.008405441 -0.10334868
-0.046923347 0.102478005 -0.041633412 0.020218728 0.05145514 -0.006639246 -0.0075282822 -0.07331181
-0.10254344 -0.024951413 0.00017002781 -0.025120866 -0.09466481 -0.113454156 -0.061895628 -0.031039944
00000000: eae3 7cbd bbcb 973c 1b41 f1bc 1435 2e3c
00000010: 12e2 88bd 0bb7 f7bc 26c0 963b b801 023c
00000020: e544 80bc 0853 083d be14 b3bd d080 cfbc
00000030: 4705 513d 15d9 a83a cc7d 4fbd c52c 1e3d
00000040: 5eed abbd 1509 5abd ac26 9fbc 1411 8dbd
00000050: 4a2d 643c 41e6 8fbd e395 13bd 5bc3 93bc
00000060: b260 c2ba 04d0 09bd da5d ebbd 2039 593d
00000070: 02b1 9aba 0cf3 e9bd 8647 7abd 0d96 c23c
00000080: 2073 f4bc 0454 b8bd 3867 cbbd 7abe 8d3c
00000090: 932e afbc fa68 14bd 9bfe ee3c 1d40 94bc
000000a0: 01ac eebb b2b1 cd39 4aed 9c3c 53ac 64bd
000000b0: b6ed 8abd 74da 3dbd 8c35 7bbc 2ca5 1d3c
000000c0: 6e61 9a3b d0dd 0cbd 8cec d33d ba21 b33c
000000d0: efb6 aabc d435 fabc efaa 5cbd 6bc2 6fbd
000000e0: ff37 04ba d2cf c0bb 8895 753d 2a27 9ebd
000000f0: e23c 08bd bfb6 36bc 5ace b6bc 4e7e 6f3d
00000100: 43fb 0bbd 770a 8cbd 02ad d4bd fddf debc
00000110: ccbe 103c 22f5 00bd 601f 643c 2f34 6cbc
00000120: 7d73 403d f336 4bbd 6e8e 9cbd 2a57 41bc
00000130: 811b b8bd f369 85bd 36ee 843d be20 85bc
00000140: e286 063d 7464 453d 9e42 26bd 67d1 a3bc
00000150: e5e2 9cbc ed8b 313d e2f6 073e 8b29 e63c
00000160: 89ea 00be 276d 52bd e3ea ccbc 347a d1bc
00000170: 92cb 0d3d b293 57bd 6417 fe3c e5d4 1b3d
00000180: 7b1b c8ba e0ee 3fbc b802 db3d 9579 8c3c
00000190: db4c 21bd 46d1 f13c 82b8 f8bb 307d 8bbd
000001a0: a2cb b83b 6e75 a53c 27eb 9a3c 6907 acbd
000001b0: 32a8 a5bb a300 8cbd da2b 393d 63eb 463b
000001c0: 95e8 3dbc c0a6 27bd abd7 bf3c 6b37 2b3c
000001d0: 2b52 70bd 4c3e 3cbd 861d f5bc d045 70bc
000001e0: f0ee 12bd 63f0 a23c 6ce1 863c a5fa d639
000001f0: faf8 b33b f7f8 19bd 808b 7bbd 1ee9 9d3c
00000200: d59c 0cbc 4672 be3c b484 023b 94e6 1d3d
00000210: 37c3 06be 8255 39bd 5b2a 99bd b610 6cbd
00000220: 6407 cf3c 3937 16be 9319 9f3c 3801 523c
00000230: 199f 6a3d ff69 9cbc a199 953d bf4a 973c
00000240: 4767 68bd 6a14 18bd 94a9 fdbc 68c4 d43d
00000250: ae1e 453c 570c aebc f7d4 683b c237 8c3c
00000260: 0d6a 083d 73b3 afbc bf25 1b3c 82a0 cebc
00000270: f87a 25bd acd9 8b3c 8726 8cbc 1443 9e3c
00000280: a34e afbd 6aa7 6ebd b865 f63c 9ff9 91bb
00000290: b16c 44bd 7dae 663a 0ac6 03bd d3bd 003d
000002a0: 496d c7bc 5ef9 42bd 0405 04bd 864a 6abc
000002b0: 508a 16bb 83ef 1d3c f199 2abd 58fb 5dbd
000002c0: 97c3 bcbd 01d9 cabd 1f39 7abd 6d24 6d3c
000002d0: 8a57 44bd 01d2 ae3c 1661 453d 70d3 86bb
000002e0: dbb1 0ebd 1569 1bbd 9188 c9bd f191 c6bc
000002f0: 3e7f ef3c 95ca 5bbd 5b3e 973d cd80 a7bd
00000300: 658c 86bc ed63 f8ba d912 5bbd a0d3 19bd
00000310: b250 d53b 110c 0cbd c455 69bd 6c0c 03bd
00000320: 3c55 26bd 08e9 6e3b 5584 c4bc a3b5 a8bd
00000330: b754 683c f8f7 933d e7c1 2ebd 235d 493b
00000340: daec 62bd 2685 82bd 9872 38bc 19fe 4fbd
00000350: b0ae f0bc 2d81 203c 95ff 873d 89b9 87bd
00000360: bbc8 693d 1e48 99bd e8bf 49bd a397 ccbd
00000370: 3417 843d 1048 66bc 1a15 0cbc d5fd b238
00000380: decc 71bd dc2f b2bc 52d0 cd3d 0848 7fbd
00000390: d04a b7bd 3ba4 40bc 518c c638 b3cc 9b3d
000003a0: 636f 433d 1f20 1a3e 03b4 c8bd 2350 bdbc
000003b0: c760 d5bd 34af 80bd fab6 093c 79a8 d3bd
000003c0: b232 40bd fddf d13d cc87 2abd bfa1 a53c
000003d0: a0c2 523d 088e d9bb cfaf f6bb 8124 96bd
000003e0: 4c02 d2bd e866 ccbc 7e49 3239 46ca cdbc
000003f0: a0df c1bd a75a e8bd 4586 7dbd 7b47 febc

weight f4 [128, 256]
0.012218443 0.008474854 -0.03105209 0.028141111 0.055460095 -0.02597489 -0.01910964 -0.019152088
-0.044095255 -0.059618462 -0.036331665 -0.03520605 -0.046401337 0.024041457 -0.015687838 -0.015651973
-0.08049219 0.028324516 -0.011852759 -0.047014263 0.035417713 -0.06091675 -0.05177417 0.0190985
-0.04628367 -0.036327995 0.007561283 0.004120174 -0.11056482 -0.06411452 0.008667943 0.040591776
0.039530803 -0.0145582585 -0.036432277 0.041558422 0.04957571 0.05816383 0.07862077 -0.032457236
0.046236966 -0.0756566 -0.026133597 0.06052021 0.049767107 0.045989998 -0.061411757 0.027602494
0.020811096 0.0054498315 -0.007096135 -0.031556338 0.028822966 0.06624737 -0.012829843 -0.061559945
0.035541758 0.010288988 0.052387547 -0.0628828 -0.024791509 -0.04366961 0.021128306 0.05215751
0.07576758 -0.05956702 0.029747637 0.025516663 -0.019123275 -0.065077014 0.026964834 0.044587083
0.03054204 0.012861875 0.03917915 0.013063774 -0.093049735 0.019036045 -0.0026121924 0.01535853
0.04566054 0.010675849 0.048543323 0.0008407634 -0.037405517 -0.057863608 0.022971505 -0.06184531
-0.0029435046 -0.08739839 -0.03498168 0.058389448 0.061396413 0.027364025 -0.011430928 -0.07334905
0.067858085 -0.024044802 0.06910044 -0.0074200975 -0.041343473 0.009225599 -0.036902927 0.038770214
-0.016137168 0.03563741 -0.05614803 0.079452075 0.021821713 -0.033320025 -0.054284204 -0.016492084
-0.013851407 0.01616607 -0.043670554 -0.07175336 0.056250636 -0.035369255 0.060261235 -0.0709194
-0.017079195 0.009127183 -0.05164589 0.022457315 0.0002687925 0.04583985 0.053613838 -0.025705168
0.03150956 -0.06631417 -0.011309351 0.017889665 -0.014316235 0.015595049 -0.003991637 -0.02169881
-0.010471556 -0.040047165 -0.06694434 -0.01813015 -0.004098294 0.01843275 0.018510764 -0.07640816
-0.09534114 -0.07313276 -0.030421339 -0.05243075 -0.007424423 -0.01815755 0.0466001 -0.080391265
-0.007365588 -0.012483398 0.009285633 -0.027528305 0.010857346 -0.013211724 0.049155485 0.010258689
-0.033108015 -0.02813887 -0.014468312 -0.026673682 -0.009968412 -0.03930275 -0.06433647 -0.022440732
0.021547548 -0.055449117 0.08690484 -0.05983333 0.03126438 0.040784057 0.049645994 0.049688984
0.01585344 -0.013772494 -0.059026077 -0.039025277 -0.0072090337 0.050696544 0.043712653 0.04259041
0.024514766 0.083707556 -0.026722033 -0.040853508 -0.0397615 -0.08017186 -0.07239356 0.019755678
-0.08848892 -0.0464598 0.03170246 -0.00038448715 -0.011464398 0.023166072 -0.05066257 -0.010573056
-0.017788423 0.020668903 0.0005356214 -0.0060973833 -0.0477371 -0.05769497 0.024159893 0.0037995323
0.070629515 0.036315847 -0.008461625 -0.03107565 -0.079499386 -0.03153459 -0.005662718 0.013308375
-0.07053471 0.072006844 -0.057557255 -0.019051036 0.03903193 0.025385834 0.019285422 -0.027185693
0.023826804 -0.06447716 -0.036782328 0.01703948 -0.011277265 -0.0710903 0.017067887 -0.0035748356
-0.06273622 -0.039967045 0.016177183 0.056596644 0.045473244 0.024765516 0.05890172 -0.10148409
0.028591761 0.009502502 0.047126006 -0.05973541 -0.061686523 -0.038447015 0.021735316 -0.015074404
0.00534359 -0.013155398 0.00033835656 0.06361602 -0.059698697 -0.041642696 0.008011346 -0.018713724
00000000: dd2f 483c 1dda 0a3c f460 febc 3088 e63c
00000010: 202a 633d 4bc9 d4bc d28b 9cbc d7e4 9cbc
00000020: 3a9d 34bd 7d32 74bd 83d0 14bd 3834 10bd
00000030: 540f 3ebd 97f2 c43c c883 80bc 9138 80bc
00000040: 17d9 a4bd d108 e83c 1332 42bc 0792 40bd
00000050: 2a12 113d d883 79bd 2711 54bd 7574 9c3c
00000060: f293 3dbd aacc 14bd a4c4 f73b 8602 873b
00000070: cf6f e2bd 794e 83bd fd03 0e3c 9043 263d
00000080: 0deb 213d c385 6ebc 033a 15bd 2a39 2a3d
00000090: e60f 4b3d 323d 6e3d ed03 a13d e1f1 04bd
000000a0: f962 3d3d d9f1 9abd 2016 d6bc 0ae4 773d
000000b0: 98d8 4b3d 0260 3c3d e58a 7bbd a01e e23c
000000c0: 087c aa3c 8094 b23b b286 e8bb 3841 01bd
000000d0: 241e ec3c b3ac 873d 4334 52bc 4826 7cbd
000000e0: 3c94 113d 2593 283c 5394 563d b3c8 80bd
000000f0: 9017 cbbc e8de 32bd 4515 ad3c 1da3 553d
00000100: 082c 9b3d 8cfc 73bd 51b1 f33c 5208 d13c
00000110: 6aa8 9cbc 1947 85bd 5be5 dc3c f2a0 363d
00000120: 4d33 fa3c 9dba 523c 517a 203d 7109 563c
00000130: dc90 bebd 7bf1 9b3c 5131 2bbb 58a2 7b3c
00000140: 8c06 3b3d c2e9 2e3c 5dd5 463d ad66 5c3a
00000150: 8736 19bd 6402 6dbd bd2e bc3c 8251 7dbd
00000160: d0e7 40bb edfd b2bd f348 0fbd c629 6f3d
00000170: ce7a 7b3d 852a e03c c948 3bbc 0738 96bd
00000180: 2ef9 8a3d 9bf9 c4bc 8884 8d3d 4a24 f3bb
00000190: c657 29bd f726 173c 8627 17bd 84cd 1e3d
000001a0: 1832 84bc 88f8 113d 7afb 65bd c5b7 a23d
000001b0: 73c3 b23c 947a 08bd 1d59 5ebd 681a 87bc
000001c0: 03f1 62bc b56e 843c e5df 32bd 6df3 92bd
000001d0: 1167 663d 5adf 10bd 7cd4 763d 313e 91bd
000001e0: abe9 8bbc 2e8a 153c a48a 53bd 67f8 b73c
000001f0: b8ec 8c39 91c2 3b3d 2f9a 5b3d a593 d2bc
00000200: 2b10 013d b9cf 87bd db4a 39bc 598d 923c
00000210: a48e 6abc 6082 7f3c 47cc 82bb b4c1 b1bc
00000220: e490 2bbc 7f08 24bd 1d1a 89bd ae85 94bc
00000230: fb4a 86bb 4700 973c e3a3 973c e27b 9cbd
00000240: 3742 c3bd a1c6 95bd 2c36 f9bc a0c1 56bd
00000250: 9348 f3bb 24bf 94bc bfdf 3e3d 2da4 a4bd
00000260: 085b f1bb 2b87 4cbc c522 183c 0a83 e1bc
00000270: 02e3 313c fd75 58bc 4357 493d 0f14 283c
00000280: 459c 07bd 7d83 e6bc 800c 6dbc c482 dabc
00000290: 8d52 23bc ecfb 20bd d7c2 83bd a0d5 b7bc
000002a0: 7c84 b03c 9d1e 63bd 2afb b13d cb13 75bd
000002b0: 140f 003d 2f0d 273d 9959 4b3d ad86 4b3d
000002c0: 13df 813c 07a6 61bc 54c5 71bd f8d8 1fbd
000002d0: c239 ecbb 2ea7 4f3d 0a0c 333d 4873 2e3d
000002e0: 31d3 c83c de6e ab3d 2ae8 dabc 0256 27bd
000002f0: f4dc 22bd 2531 a4bd 1343 94bd a9d6 a13c
00000300: ae39 b5bd a24c 3ebd 70da 013d fe94 c9b9
00000310: 2cd5 3bbc c6c6 bd3c 8e83 4fbd 9c3a 2dbc
00000320: 07b9 91bc d551 a93c f268 0c3a 8fcc c7bb
00000330: fa87 43bd 9051 6cbd f8ea c53c 9301 793b
00000340: 35a6 903d edbf 143d a1a2 0abc 5d92 febc
00000350: 93d0 a2bd 6a2a 01bd 528e b9bb 5f0b 5a3c
00000360: 8174 90bd 5378 933d 28c1 6bbd eb10 9cbc
00000370: f2df 1f3d f4f5 cf3c 76fc 9d3c 88b4 debc
00000380: 6e30 c33c 9a0c 84bd 11a9 16bd 6196 8b3c
00000390: 47c4 38bc cb97 91bd f4d1 8b3c ca47 6abb
000003a0: d97b 80bd 7cb4 23bd 0386 843c e2d1 673d
000003b0: 2742 3a3d 0de1 ca3c ee42 713d e4d6 cfbd
000003c0: 4539 ea3c 62b0 1b3c 3307 413d 1ead 74bd
000003d0: 02ab 7cbd 9e7a 1dbd 430e b23c a2fa 76bc
000003e0: 4819 af3b bd89 57bc 7365 b139 1e49 823d
000003f0: 9f86 74bd 8891 2abd 0542 033c 864d 99bc

bias f4 [128]
-0.030171202 -0.093870915 -0.035049833 0.12255878 0.00020887796 0.009598029 -0.019038226 -0.017704152
-0.014534148 0.011913952 -0.057092667 -0.023675276 0.00472361 -0.030624244 -0.0110471975 -0.014150677
-0.055808175 0.106898755 0.06765788 -0.060089078 0.08929529 -0.026702542 -0.01056236 0.01279012
-0.009255875 0.010208278 -0.02982587 0.0055538286 -0.0975371 -0.0012596715 0.015631171 -0.12827374
-0.050603725 -0.08533752 -0.04423244 -0.05314343 0.03366342 0.001700874 0.04378608 -0.06043549
0.0064907344 -0.08790057 0.016470382 -0.04211509 0.02309199 0.026302759 -0.019543018 -0.14254324
-0.07494003 -0.019649869 0.009658525 9.953356e-05 0.016429793 -0.04854349 -0.08406406 -0.043499857
-0.0629453 -0.03566067 -0.08999538 -0.07484231 0.0010905112 -0.13515213 0.010264677 -0.047410008
-0.0616432 -0.06015896 -0.06060679 -0.025308793 -0.14221664 -0.056824192 0.003931666 -0.077004835
-0.009861741 -0.013942207 0.018945592 0.020816429 -0.08722343 -0.0034445026 0.019205546 -0.03133532
-0.135971 0.072018415 0.012511815 0.023176415 0.031240394 0.030005978 -0.048367035 -0.034460977
-0.022533035 -0.024743646 -0.096327275 0.035569947 -0.08316214 -0.176278 0.06580889 -0.117772065
0.007300993 -0.013555446 0.089417 -0.06522908 -0.04369415 -0.018316818 0.013585314 -0.016596412
-0.08986421 -0.012946692 -0.05641126 0.034331597 0.0008002236 -0.07562088 -0.04439641 -0.023912422
-0.13865301 -0.062357824 -0.015469636 0.0024383932 0.026380703 -0.045029156 -0.0245878 0.011184831
-0.04772693 -0.08800799 -0.04479017 0.095669925 -0.042198364 0.05827091 -0.090473264 0.012615883
00000000: 9929 f7bc 653f c0bd 6a90 0fbd 1900 fb3d
00000010: 4006 5b39 0d41 1d3c 0ef6 9bbc 4c08 91bc
00000020: a320 6ebc bd32 433c 00da 69bd a7f2 c1bc
00000030: 83c8 9a3b b2df fabc 4eff 34bc 3ed8 67bc
00000040: 1d97 64bd bced da3d 3790 8a3d f71f 76bd
00000050: 73e0 b63d 4abf dabc c00d 2dbc a78d 513c
00000060: f4a5 17bc 9f40 273c 6255 f4bc e4fc b53b
00000070: 88c1 c7bd 901b a5ba f10c 803c 315a 03be
00000080: da45 4fbd 70c5 aebd 132d 35bd edac 59bd
00000090: a7e2 093d dcef de3a 0859 333d 348b 77bd
000000a0: 3ab0 d43b 3705 b4bd e5ec 863c df80 2cbd
000000b0: 6a2b bd3c e278 d73c ae18 a0bc dbf6 11be
000000c0: 297a 99bd c3f8 a0bc ca3e 1e3c acbc d038
000000d0: c697 863c 8ad5 46bd c729 acbd e82c 32bd
000000e0: 77e9 80bd ec10 12bd 7f4f b8bd ed46 99bd
000000f0: 7cef 8e3a 5265 0abe 2d2d 283c ff30 42bd
00000100: 957d 7cbd 3e69 76bd d33e 78bd 6354 cfbc
00000110: 3da1 11be 7cc0 68bd 34d5 803b b6b4 9dbd
00000120: 2493 21bc db6d 64bc c933 9b3c 3787 aa3c
00000130: 33a2 b2bd 2abd 61bb f354 9d3c 7759 00bd
00000140: fb3b 0bbe 647e 933d 5bfe 4c3c 77dc bd3c
00000150: dbeb ff3c 19cf f53c 831c 46bd f426 0dbd
00000160: 3397 b8bc 30b3 cabc 3c47 c5bd cbb1 113d
00000170: e950 aabd 3882 34be d0c6 863d 7b32 f1bd
00000180: 2b3d ef3b a917 5ebc 4320 b73d d396 85bd
00000190: a3f8 32bd 270d 96bc f094 5e3c 33f5 87bc
000001a0: ba0a b8bd 5d1e 54bc 7e0f 67bd 4a9f 0c3d
000001b0: 19c6 513a 1fdf 9abd 03d9 35bd fce3 c3bc
000001c0: 0efb 0dbe eb6a 7fbd 5b74 7dbc 73cd 1f3b
000001d0: 581c d83c 7e70 38bd 5b6c c9bc 9540 373c
000001e0: 507d 43bd 883d b4bd e675 37bd 98ee c33d
000001f0: 31d8 2cbd 7aad 6e3d 0c4a b9bd d9b2 4e3c

weight f4 [60, 128]
0.04180384 -0.058024734 0.02363434 0.13546374 -0.049337063 0.012110736 -0.0068859546 -0.024647435
-0.04269207 0.016718743 0.0006728756 -0.05040047 -0.003370574 -0.03544003 0.019999862 0.040340602
0.074198045 -0.0033154245 0.0047132275 0.07299222 -0.010979383 -0.03519506 0.09756637 -0.022650747
-0.063082464 0.050421976 0.028692676 0.025745505 -0.0029750206 -0.012297968 0.0021581107 -0.09771735
0.019254757 -0.032379165 0.017935092 0.050503578 0.073028155 0.08309457 -0.011720278 -0.009881017
0.09266975 -0.02587093 0.03630098 -0.038920444 0.027704826 0.071741745 0.006355014 0.012927719
0.022037411 0.008690744 0.010527468 0.008229951 -0.048127934 0.0591233 -0.0069890143 -0.03326273
-0.009125538 0.03556809 0.038006537 -0.07195007 -0.004510819 -0.09900977 0.07536311 0.0036168783
0.042888273 -0.060900077 -0.045727912 -0.02586083 0.014391531 -0.018985512 -0.021006515 -0.050646957
-0.065432824 0.041395687 0.0027300648 0.037845064 0.012432604 -0.057671648 -0.012635262 0.06843189
-0.094522625 0.04014609 0.013796244 0.014665542 0.046240903 0.041044574 -0.00881569 0.012584738
-0.05782187 0.020276569 0.06699478 0.009601009 -0.06585653 -0.023491789 0.009366492 -0.067614205
-0.021743637 -0.06731107 0.02175069 -0.0007462559 0.16242003 0.04090174 -0.07265852 0.0046815323
0.045608778 0.06854087 0.081494085 0.00017613957 0.06390802 -0.006673254 -0.056550242 0.019296244
-0.05126705 -0.003639028 0.041025005 -0.005858119 -0.07021383 0.06640785 0.027034743 -0.000867395
0.008605247 0.07083158 -0.016489204 0.11471302 0.024465611 -0.03589307 0.0093958415 -0.01600244
-0.06539558 -0.012147622 -0.007937747 -0.016358538 0.058586843 0.0038108672 -0.017190434 0.13739924
-0.036444534 -0.01683529 0.36164108 -0.05222218 -0.1319476 0.012682132 0.033696525 0.07510157
-0.0135257365 -0.06555188 0.015394086 -0.021307345 -0.0016811052 0.033092003 0.10973149 0.020348264
0.04809047 0.021777181 0.08276195 -0.008640259 0.043026507 -0.015141929 -0.04395918 0.10984901
0.0063453335 -0.008020619 -0.036466055 -0.012292915 -0.05177509 0.04887198 0.10003504 -0.041751333
0.081999205 0.033101887 0.1250661 0.030382069 -0.3416679 0.037722595 0.04960845 0.008485164
0.08385324 0.4075005 0.03201732 0.024504328 0.008865474 -0.020525249 -0.0520341 0.07341869
-0.116116636 -0.034945555 0.053233802 -0.059919357 -0.0017953205 0.098613344 -0.021555793 0.06381829
-0.012778911 -0.038636733 -0.075346224 0.12954101 -0.20836942 -0.021996744 0.09943059 0.009141484
-0.060483433 -0.011345088 0.059665453 -0.073813386 0.033048436 -0.12433303 -0.10315559 -0.050840363
0.00234138 -0.41511792 -0.059310846 0.044610776 0.005946155 -0.03745077 0.023059493 -0.011000974
0.10203563 0.013107909 0.02865962 -0.13464518 -0.018273791 -0.26428378 -0.27442688 0.07584223
0.0005131663 -0.02703203 0.095660046 0.072258055 -0.09381251 0.07088861 0.0035507695 -0.16469038
-0.0032385862 -0.052374218 -0.032871887 0.029262798 0.044130746 0.030196777 0.06551725 -0.05867096
0.06086572 -0.006782281 -0.06153378 -0.002407667 0.079020716 0.022379596 0.08866176 -0.04159905
-0.057947814 -0.01736453 -0.04402131 0.012039804 0.0027873854 -0.18564111 0.36350995 -0.07426267
00000000: 813a 2b3d 58ab 6dbd ce9c c13c 02b7 0a3e
00000010: a915 4abd 1c6c 463c 93a3 e1bb 6be9 c9bc
00000020: e1dd 2ebd bff5 883c eb63 303a b970 4ebd
00000030: d9e4 5cbb 9129 11bd c0d6 a33c 303c 253d
00000040: 25f5 973d 9847 59bb 6b71 9a3b f27c 953d
00000050: dfe2 33bc b228 10bd e1d0 c73d 0f8e b9bc
00000060: 6131 81bd 4687 4e3d e70c eb3c 3de8 d23c
00000070: 90f8 42bb 6b7d 49bc 176f 0d3b 0920 c8bd
00000080: 27bc 9d3c 04a0 04bd 9dec 923c d7dc 4e3d
00000090: c98f 953d 7c2d aa3d 6906 40bc fde3 21bc
000000a0: a3c9 bd3d 46ef d3bc 56b0 143d 0b6b 1fbd
000000b0: 3bf5 e23c 56ed 923d b93d d03b c9ce 533c
000000c0: cd87 b43c 9f63 0e3c 677b 2c3c ebd6 063c
000000d0: cc21 45bd 462b 723d 1a04 e5bb 803e 08bd
000000e0: 4883 15bc d8af 113d beac 1b3d 8f5a 93bd
000000f0: 7ecf 93bb a2c5 cabd f957 9a3d 2609 6d3b
00000100: 9dab 2f3d 5c72 79bd 314d 3bbd 17da d3bc
00000110: 75ca 6b3c 8187 9bbc db15 acbc 2f73 4fbd
00000120: a501 86bd 868e 293d e3ea 323b 6d03 1b3d
00000130: 1fb2 4b3c 1b39 6cbd 2104 4fbc 0526 8c3d
00000140: 1495 c1bd 3a70 243d a409 623c be47 703c
00000150: 1a67 3d3d 5b1e 283d af6f 10bc 3830 4e3c
00000160: a0d6 6cbd 0c1b a63c 8f34 893d 8d4d 1d3c
00000170: cadf 86bd da71 c0bc ea75 193c 5179 8abd
00000180: b61f b2bc 63da 89bd 812e b23c 63a0 43ba
00000190: 7051 263e 9588 273d fdcd 94bd 8a67 993b
000001a0: 45d0 3a3d 285f 8c3d 5fe6 a63d 1bb2 3839
000001b0: 35e2 823d 50ab dabb 3aa1 67bd 2813 9e3c
000001c0: 66fd 51bd c27c 6ebb d609 283d 77f5 bfbb
000001d0: 45cc 8fbd d700 883d f777 dd3c e561 63ba
000001e0: 06fd 0c3c 2610 913d 5e14 87bc a9ee ea3d
000001f0: 1b6c c83c 9d04 13bd 04f1 193c 8d17 83bc
00000200: 1eee 85bd d206 47bc 530d 02bc 5702 86bc
00000210: c2f8 6f3d bebf 793b f4d2 8cbc 63b2 0c3e
00000220: dd46 15bd 29ea 89bc 0529 b93e ede6 55bd
00000230: 461d 07be b8c8 4f3c 5e05 0a3d dace 993d
00000240: 0d9b 5dbc 1040 86bd 7a37 7c3c be8c aebc
00000250: 8858 dcba 7b8b 073d e7ba e03d 67b1 a63c
00000260: 83fa 443d 0f66 b23c 197f a93d df8f 0dbc
00000270: 903c 303d da15 78bc 8b0e 34bd 85f8 e03d
00000280: 84ec cf3b ea68 03bc 6e5d 15bd 3968 49bc
00000290: 1e12 54bd fc2d 483d 2cdf cc3d 7203 2bbd
000002a0: 33ef a73d d895 073d 5411 003e d1e3 f83c
000002b0: 18ef aebe 0283 1a3d 3b32 4b3d 5b05 0b3c
000002c0: 3fbb ab3d e8a3 d03e 9824 033d 4dbd c83c
000002d0: 7e40 113c 9124 a8bc b521 55bd 8a5c 963d
000002e0: 8fce edbd 1223 0fbd b00b 5a3d 006e 75bd
000002f0: f650 ebba cbf5 c93d c695 b0bc 2ab3 823d
00000300: a35e 51bc 8d41 1ebd 1f4f 9abd 66a6 043e
00000310: cb5e 55be 8432 b4bc 44a2 cb3d 2ac6 153c
00000320: 7abd 77bd bfe0 39bc c363 743d 792b 97bd
00000330: cc5d 073d 51a2 febd 3d43 d3bd fc3d 50bd
00000340: d771 193b 568a d4be eeef 72bd cab9 363d
00000350: f7d7 c23b fb65 19bd 43e7 bc3c 6e3d 34bc
00000360: 0ef8 d03d 8ec2 563c 94c7 ea3c 6de0 09be
00000370: ebb2 95bc 3450 87be ae81 8cbe 2c53 9b3d
00000380: 0286 063a 4772 ddbc 6ae9 c33d 08fc 933d
00000390: c620 c0bd 0c2e 913d 07b4 683b 98a4 28be
000003a0: 763e 54bb 5986 56bd aca4 06bd 89b8 ef3c
000003b0: 71c2 343d 3b5f f73c e82d 863d f650 70bd
000003c0: 554e 793d e63d debb d80a 7cbd f3c9 1dbb
000003d0: 9dd5 a13d 6a55 b73c 4c94 b53d c463 2abd
000003e0: b05a 6dbd 0f40 8ebc b04f 34bd 9942 453c
000003f0: 91ac 363b b418 3ebe fa1d ba3e 0717 98bd

bias f4 [60]
-1.0752339e-06 0.0001253632 0.00010799554 -0.00012539641 3.177333e-05 -0.00011376174 8.034586e-06 -0.00022831718
0.00021475114 -0.00017090108 0.00012242327 -0.00013961428 0.00022064477 -0.00020805812 0.00015892129 -7.922366e-05
0.0001644999 -0.00013762542 0.0001028692 2.6874477e-05 9.9650526e-05 -6.806905e-05 5.102427e-05 4.2877633e-05
0.00013462493 5.3444874e-05 3.0283356e-05 -8.3440165e-05 0.000115614566 3.1330484e-05 6.0814396e-05 9.562759e-06
-5.4915665e-05 -2.2229568e-05 9.6086325e-05 -5.642423e-05 0.00016500625 1.930116e-05 -2.4759687e-05 0.00012147845
0.00020766661 0.00010908071 0.00013239632 -7.994167e-05 8.5510525e-05 0.000104231025 -4.1531235e-05 0.00017493842
9.8602104e-05 0.00013737884 5.4455893e-05 -5.6391822e-05 6.0457073e-06 0.00021000426 6.1561565e-05 0.00022122687
4.2843556e-05 -6.457896e-05 -4.5380184e-05 -3.140118e-05
00000000: c150 90b5 ee73 0339 aa7b e238 d87c 03b9
00000010: 5a44 0538 5e93 eeb8 49cc 0637 6d68 6fb9
00000020: d22e 6139 e933 33b9 bf5e 0039 6c65 12b9
00000030: e15c 6739 2d2a 5ab9 1ca4 2639 e124 a6b8
00000040: 9b7d 2c39 8b4f 10b9 7bbb d738 8070 e137
00000050: 78fb d038 4bc0 8eb8 e502 5638 82d7 3338
00000060: 1b2a 0d39 ff29 6038 0309 fe37 99fc aeb8
00000070: 1976 f238 da68 0338 f612 7f38 bd6f 2037
00000080: 3f55 66b8 a279 bab7 f481 c938 0ea9 6cb8
00000090: 8705 2d39 ede8 a137 06b3 cfb7 3fc2 fe38
000000a0: 15c1 5939 43c2 e438 ded3 0a39 5ba6 a7b8
000000b0: 1d54 b338 9b96 da38 d331 2eb8 ad6f 3739
000000c0: 9ac8 ce38 5a0d 1039 9267 6438 4286 6cb8
000000d0: 3bdc ca36 9734 5c39 9d1a 8138 23f9 6739
000000e0: ebb2 3338 916e 87b8 9a56 3eb8 c3b4 03b8
