linearPredictionModels/db39/super/combined.csv_wholeNetPrototype5_Epochs_30_ValidationLoss4.514654_lr0.0003_2023_07_31_06:35:21.pth (torch, 992619 bytes, 8 tensors)

weight f4 [512, 145]
000000 55 2c a7 3b f1 c5 9e bd 82 c3 98 be ea ba 78 3e
       0.0051017203 -0.07752598 -0.2983666 0.24290052
000010 b7 c0 93 bd 0a cd 16 be da d3 db 3d 0c 9b 19 be
       -0.07214492 -0.14726654 0.10733767 -0.15000552
000020 f3 25 44 be bf 29 3a bd c7 1b 98 3c 5b 34 55 3d
       -0.19155101 -0.04544997 0.018567933 0.052051883
000030 93 3e 8a bd c2 a7 79 be da 59 6b bd 6b 97 86 3e
       -0.06750216 -0.24380401 -0.057458736 0.26287398
000040 eb 93 e9 be ad 31 87 be 1a c5 07 be 25 87 99 be
       -0.45620665 -0.26405087 -0.13258782 -0.2998592
000050 6a 11 23 bd c0 c5 83 bd c7 97 d9 bc 4f 13 35 be
       -0.03981153 -0.06434202 -0.02656163 -0.17683147
000060 2e f5 95 bd a7 25 32 bc ae 36 96 3c 52 84 32 be
       -0.07322155 -0.010873235 0.01833662 -0.17433289
000070 71 c3 cf bd 06 e7 5d bd d6 f8 05 bf 23 17 4b bd
       -0.10144699 -0.0541754 -0.5233282 -0.04958261
000080 ec 74 45 3e fa d1 c8 bd 0b 52 65 3e ab b7 fb bd
       0.19282883 -0.09805675 0.22394578 -0.12290891
000090 b1 52 6c bc d9 9a e5 3d ea df 9e be f0 73 09 3e
       -0.014424012 0.112111755 -0.31030208 0.13423133
0000a0 7a e2 f1 3d 8e 97 43 3e 5e a3 24 bd 4e 12 63 be
       0.11810775 0.19100782 -0.04019486 -0.22174951
0000b0 22 06 a1 3d b3 76 17 be 7e 96 28 3e eb d5 87 bd
       0.07862498 -0.14791374 0.16463658 -0.066325985
0000c0 00 3e 87 3d 3e b4 ca 3d 99 f2 fb be d8 d9 bb bb
       0.066036224 0.0989766 -0.49208525 -0.005732756
0000d0 09 df 3c 3d 4d 3e 44 bd b7 60 80 be 7b 0e 29 bd
       0.04611114 -0.047910977 -0.25073788 -0.041273575
0000e0 6d bc 33 be 34 2b bd bc a8 5c 2a bc f5 d5 8e bb
       -0.17552347 -0.02309189 -0.0103980675 -0.0043590018
0000f0 39 77 00 bf db d1 89 3e af b5 f8 bd 40 7f cc be
       -0.5018192 0.2691792 -0.121440284 -0.39940834
000100 5e 3d 46 3e be 3c a6 bd a5 61 21 3a f1 2a 19 bd
       0.19359347 -0.081170544 0.0006156213 -0.037394468
000110 dd 5a 67 bd eb 55 31 3e ef 38 b3 3e a1 79 ed 3d
       -0.05648314 0.17317931 0.35004374 0.115954645
000120 17 62 a2 bc 6f 08 55 3e eb fd 94 3d 88 69 1c 3c
       -0.019822164 0.20803998 0.072749935 0.009546645
000130 0f a8 12 3c 13 fa 90 bd f2 73 04 be 53 7a c1 bd
       0.008951201 -0.07078948 -0.12934855 -0.094471596
000140 c1 1e 66 3d b4 ca cd 3d cf 75 b1 3d 70 1d e2 bc
       0.056181673 0.10048428 0.08665048 -0.027601928
000150 08 97 57 3e 07 b4 fb bd 81 14 6d 3e 9d 8d 9c bd
       0.21053708 -0.12290197 0.23152353 -0.07644198
000160 f7 50 a1 3c 2a 29 db bc 70 67 70 3d 83 9e 21 bd
       0.019691927 -0.026753027 0.058692396 -0.03945781
000170 c6 49 e1 bc 09 67 39 be 45 be 17 bc 2c 8b 91 3c
       -0.027500998 -0.18105711 -0.009261672 0.017766558
000180 37 88 42 bd a2 e0 a8 3d f5 02 76 bc 93 13 30 3d
       -0.047493186 0.0824597 -0.015015353 0.042987417
000190 43 8e 7c bd 3c 1f 7c 3d 28 e5 ba 3b 42 ba 96 bc
       -0.06165911 0.061553225 0.005703587 -0.018399362
0001a0 bc a6 f9 3c 2b 84 fd 3b 16 00 90 bc 5c 3c 02 bd
       0.030475013 0.007736703 -0.017578166 -0.031795844
0001b0 a0 37 8a bd 26 1c e9 bc 6b 2d e2 3d 04 2d 1e bd
       -0.06748891 -0.028455805 0.11043819 -0.03861715
0001c0 2c 15 66 3b 07 21 2b 3d ef ef fb bd 74 90 97 3d
       0.0035107834 0.041779544 -0.12301623 0.07400599
0001d0 9b ed 3b bd 7c 46 60 bc 59 9a 5a bd 97 fb 68 bd
       -0.045880895 -0.01368868 -0.053369854 -0.05688056
0001e0 3c ac 93 bd 3c ab b0 bd b1 2c c3 3c 85 e0 8f bd
       -0.072105855 -0.0862641 0.023825021 -0.070252456
0001f0 2e 88 86 bd 9e a7 31 3d 70 a8 62 bd b8 b8 80 3d
       -0.06568943 0.043372743 -0.055336416 0.06285232
000200 77 2d 54 3d aa 9e 2f 3d e8 60 a1 3c 06 8c 09 bd
       0.05180117 0.042875923 0.019699529 -0.033580802
000210 c6 e4 86 3d 01 e6 b9 bc 9a bc 5b 3d db 88 8e 3a
       0.06586604 -0.022692682 0.05364666 0.0010874526
000220 42 4f 3d bd 43 40 af bc 13 22 26 3d 6a 89 d5 bc
       -0.046218164 -0.021392947 0.04055984 -0.0260665
000230 ca 1a db 3c 2f 68 56 3d 53 9d 0a 3d 16 d0 95 bd
       0.026746172 0.05234545 0.033841442 -0.0731508
000240 cd 26 bf 3b 2f 56 7b be c0 5a 4e be b7 50 47 be
       0.005833483 -0.24544595 -0.20151806 -0.19464384
000250 97 6f ca 3d 3c 61 b1 3e 07 54 ee bd 19 a8 8f be
       0.09884565 0.34644496 -0.11637121 -0.28057936
000260 c2 7e 46 3e 40 75 df bd 8a 8b 32 3d 22 81 c4 be
       0.19384292 -0.109110355 0.043590106 -0.3837977
000270 14 bf bc bc f6 46 0c be ee 2d 8c 3d 77 13 83 3d
       -0.023040332 -0.13698944 0.06844698 0.06400197
000280 ec 36 34 be 69 33 a7 3c 18 86 d2 be 4e 9c 82 3c
       -0.17599076 0.020410256 -0.4111793 0.015943673
000290 2c c6 b4 be 20 3a 45 bd ac e6 68 3d 32 1a 93 3c
       -0.35307443 -0.048151135 0.05686061 0.017956827
0002a0 43 76 d8 bd 8d 08 8e 3b 16 2f 0f 3e 6f 70 86 3d
       -0.10569432 0.0043345154 0.13982806 0.06564414
0002b0 2d 35 e0 3c d5 84 2d be 3d 8c b2 bd 1f 24 8a 3e
       0.027369106 -0.16945203 -0.087181546 0.26980683
0002c0 24 42 a9 bd 26 94 80 3e 0e 0d d5 be 9d 12 62 be
       -0.082645684 0.25113028 -0.41611522 -0.22077413
0002d0 40 f9 b5 3e 0d f9 1e 3e e4 3d 47 3d c1 45 4c 3e
       0.35541725 0.15524693 0.048643008 0.19948484
0002e0 fb 99 32 be c8 b2 96 be 1d ac d7 3d 72 89 98 bd
       -0.17441551 -0.29433274 0.10530875 -0.074480906
0002f0 0a ce 58 be 22 cc 44 bd 07 a5 d5 bd 96 f7 27 bc
       -0.21172348 -0.04804624 -0.10431867 -0.0102519
000300 2f 4e 82 3d 28 0e ef bb a3 f3 72 be a9 ce 64 be
       0.063625686 -0.0072953887 -0.23725753 -0.2234446
000310 68 74 e7 bd 48 87 47 3d 19 21 db ba 15 5c c7 be
       -0.113014996 0.048713 -0.0016718238 -0.3893744
000320 d9 4b 9c 3d 36 e3 44 3d 2b a3 6c 3e 64 d6 67 3e
       0.07631654 0.048068248 0.23109119 0.22640377
000330 9c bc d2 bd 2e fc 76 bd 44 52 01 3d 6c 51 c9 bd
       -0.10289881 -0.06029909 0.031572595 -0.09829983
000340 3c 07 71 be 68 e9 a7 3e 7d 7e a4 bc ae c0 61 3d
       -0.23537916 0.32795262 -0.020079846 0.055115394
000350 79 e8 d3 bc 7f e5 9b bc 4c 7b 0f be 34 bc 14 be
       -0.025867688 -0.01903033 -0.14011878 -0.14524919
000360 89 6a 6d bc 88 f4 6f bd 49 70 e5 bd 52 6a 05 be
       -0.014490732 -0.058582813 -0.11203057 -0.13028839
000370 51 5c e2 bd ea 08 5d 3e 72 18 9b bc 52 6b 8c 3d
       -0.11052764 0.21585432 -0.018932555 0.06856407
000380 de 15 a6 bc 0e 9e 83 3d 04 a1 88 3e 93 da 74 bc
       -0.020274099 0.06426631 0.26685345 -0.01494469
000390 5b 62 a1 bd 66 99 20 be ac 0b ca bc 97 09 42 3e
       -0.07880088 -0.15683517 -0.024663769 0.1894897
0003a0 2a ad ad bb af 3c 8d b9 52 5e 4c bd cd 3a 59 bd
       -0.005300184 -0.00026938829 -0.04989464 -0.053034592
0003b0 68 5a 98 bd 20 21 14 3e ee be bc bd 15 42 b5 3d
       -0.074391186 0.14465761 -0.092161044 0.08850495
0003c0 ca 21 8f bc 78 1c 27 3d cc 0d 16 be a6 03 84 b8
       -0.017472167 0.040798634 -0.146537 -6.29493e-05
0003d0 e1 24 02 bd 7a 8f 98 3a 68 7e 32 bc 60 22 17 be
       -0.03177345 0.0011639439 -0.010894395 -0.14759207
0003e0 15 25 5b ba 55 af 80 3b e5 7a 50 bd e9 60 c4 bd
       -0.00083597127 0.003927151 -0.05089845 -0.09588797
0003f0 b0 43 b7 3a 40 53 4b 3c 80 9f c2 bc 03 61 98 3c
       0.0013981964 0.012409985 -0.023757696 0.018600946

bias f4 [512]
000000 3b 45 c2 bd 72 7c 98 bd b8 5d e2 bd 0b 4d 4c bd
       -0.09485861 -0.07445611 -0.11053032 -0.04987816
000010 95 b3 28 bd 32 c3 7c bd f2 2e 8b bc 15 f6 a7 3d
       -0.041186888 -0.06170959 -0.016990159 0.08201233
000020 53 86 d1 3d ff f4 23 3e fb 48 3a bd 2c 0a 2a bd
       0.102306984 0.16011427 -0.045479756 -0.041513607
000030 f3 72 90 3c d6 00 e4 bc 66 5e 01 be 9c 6a de 3d
       0.017632937 -0.02783243 -0.12633666 0.10860178
000040 0e d5 52 bd cb 45 09 be 35 a9 aa bd d5 cb 3c bd
       -0.051472716 -0.1340553 -0.08333055 -0.046092827
000050 dc 0c a0 3b ad de 4e bd 1c f6 49 3d a7 d0 b1 3c
       0.0048843455 -0.05050533 0.049306974 0.021705939
000060 fb 18 73 bd cb 9b f4 bd e5 80 ba 3c 97 b5 2b bd
       -0.059349995 -0.11943778 0.02276654 -0.041921224
000070 7c bf e1 bd 22 7c ca bd 16 86 67 3e a6 b3 d7 3d
       -0.11022851 -0.09886958 0.22609743 0.10532312
000080 07 d3 26 3e 5d 78 e2 bd 66 5a d2 bd c6 b0 e9 bc
       0.16291438 -0.11058114 -0.102711484 -0.028526675
000090 aa 31 52 be 75 11 86 3d 34 6a 12 be ae 68 ec bc
       -0.20526758 0.065462984 -0.14298326 -0.028858509
0000a0 4e 04 3d be 0b 0d d6 3c f7 82 03 bd 51 49 3d be
       -0.18458673 0.026129266 -0.03210732 -0.18484999
0000b0 14 d5 ee bd 3b 33 55 3c 6e 3c 15 be 5f 1d 5c bd
       -0.11661735 0.013012703 -0.14573833 -0.053738948
0000c0 84 5a 5b be 60 94 52 39 f1 fe a1 bd 4a be 40 3d
       -0.21421248 0.00020082435 -0.07909954 0.047056474
0000d0 fe 37 57 be 2e 82 d9 bd 65 9f 4c be 10 80 80 be
       -0.21017453 -0.10620533 -0.19982679 -0.25097704
0000e0 c7 45 34 be e8 20 5f 3e 32 b1 42 be ff 59 f7 3d
       -0.17604743 0.21789896 -0.19012907 0.12077712
0000f0 8c 10 b3 bd 31 a1 10 be 82 5e 10 be 1f 31 ba 3d
       -0.087433904 -0.1412399 -0.14098552 0.090914
000100 85 a5 57 be 95 d1 a3 3d 1e d4 43 be 6f 8f ba bd
       -0.21059234 0.07998959 -0.19123885 -0.09109389
000110 f5 a8 d0 bd fa 50 8c bd 12 bf 30 be 28 18 5c bd
       -0.10188476 -0.068513826 -0.17260388 -0.053733975
000120 f2 8b 12 3e 35 33 ec bd 1e 1d 5e be b9 07 4d bd
       0.14311197 -0.115332045 -0.21690795 -0.050056193
000130 1c 4f 26 3c 85 4b 9d bd 3e 0a 87 3e c1 3e 00 bd
       0.010150697 -0.0768042 0.26375002 -0.031309847
000140 14 fe 52 3e 4d 04 44 be 15 c5 ab 3c 3a 42 09 be
       0.20604736 -0.19142266 0.020968 -0.1340417
000150 60 16 73 3c ac 7b 8a 3c 9b 81 8f 3e 15 45 8c be
       0.014836878 0.016904674 0.2802857 -0.27396455
000160 9b 9f 16 3b 54 4b b7 3d fa 3f 6c bc ac 40 dc 3d
       0.0022983316 0.089499146 -0.01441955 0.10754523
000170 6a fc 11 3e d7 63 3f bd 8c af a0 bd a8 eb 2c bd
       0.14256445 -0.046726074 -0.07845983 -0.042216927
000180 7c 81 2c 3d 06 5d 0f 3e 33 90 90 3d 49 c6 71 be
       0.042115673 0.1400033 0.07058754 -0.23610796
000190 70 ff 12 bd c0 0c e8 bd db 50 6e 3e 13 8a 5e be
       -0.035888135 -0.11330557 0.23273031 -0.21732359
0001a0 a1 2c 7a 3e 1f 3b b7 bd a0 9b ce bc 02 fe 8c 3d
       0.24431087 -0.08946823 -0.025220692 0.06884386
0001b0 52 a8 17 bd 5a 52 c0 bb 49 99 0c be 0d 4e ac 3c
       -0.037025757 -0.005869192 -0.13730349 0.021033311
0001c0 f9 67 00 be c5 ac 24 3e 76 98 b3 bd a1 84 25 be
       -0.12539662 0.16081531 -0.08769314 -0.16163875
0001d0 0b f8 40 3e f7 4e f6 bd e5 85 7a 3c 26 ba 02 be
       0.18844621 -0.1202678 0.015290712 -0.12766322
0001e0 9c 9a cf bd 95 71 34 be 87 42 ab bd 0c 77 66 bd
       -0.10136911 -0.17621453 -0.083622985 -0.056265876
0001f0 fc d6 ac 3b 3f 17 19 3e d1 ed c4 bd 12 87 f3 bb
       0.0052746516 0.14950274 -0.096156724 -0.007431873
000200 8e 84 0d bd c0 35 cc bd 2a 10 20 be 69 91 7c bd
       -0.034550242 -0.099711895 -0.15631166 -0.06166211
000210 2e 09 84 be 64 96 a0 3d 70 f0 8a 3c fe 5f 4d be
       -0.25788254 0.07841185 0.016960353 -0.2005615
000220 04 cc 30 be 00 ce 11 bd 76 37 1f be 88 74 8c be
       -0.17265326 -0.035596848 -0.155485 -0.27432656
000230 6e 5a a3 3c c8 4a 30 3c b3 fa 8b 3d e0 99 0c 3e
       0.019940581 0.010760017 0.068349265 0.13730574
000240 5b fa 37 be d7 c3 02 bc 11 08 b8 bc aa 9f d7 bd
       -0.17966597 -0.007981262 -0.022464784 -0.105285004
000250 d7 99 e8 3b d9 3b 55 be 3f 41 b6 3c c4 ec 36 3c
       0.0070984173 -0.20823611 0.022247909 0.011164848
000260 52 c9 81 3d b9 0e 33 bd 04 55 0c be 1f d1 e9 bd
       0.06337227 -0.043715212 -0.13704306 -0.1141684
000270 ec 67 4c bd b6 59 84 bc d8 7c 43 be 4f b3 4a be
       -0.049903795 -0.016156059 -0.19090593 -0.19794963
000280 fe 91 da bd 0b c2 0b be 90 f1 97 bd 3f 0b a5 bd
       -0.10672377 -0.1364824 -0.07419121 -0.08058786
000290 3f 0f ef 3b 52 59 55 bd 14 39 dd bd d0 11 06 be
       0.0072955186 -0.052087136 -0.108019024 -0.13092732
0002a0 21 84 b3 bd 28 40 60 3e bc c8 8b 3c 49 87 3f bd
       -0.08765436 0.21899474 0.017063491 -0.046759877
0002b0 f3 a0 14 be 48 04 bb bd 52 82 18 be d2 7e b5 bd
       -0.14514522 -0.09131676 -0.14893463 -0.0886208
0002c0 a6 c3 e6 3d 71 49 25 be 52 27 e2 bd 84 71 86 bd
       0.11267786 -0.16141297 -0.11042656 -0.0656462
0002d0 36 0f ba bd ca 33 e8 bd cf ef 99 bd 85 c1 98 3c
       -0.090849325 -0.11338003 -0.07516443 0.018646965
0002e0 1a 05 cf bd 08 e5 77 bd 42 d4 ae 3d ad 05 33 be
       -0.10108395 -0.060521156 0.08536579 -0.17482634
0002f0 f4 47 0b be 75 2c d1 bc 3d 6e b2 bd d6 46 61 be
       -0.13601667 -0.025533894 -0.087124325 -0.21999678
000300 7d b8 6f be 99 83 68 be 16 fd 01 3e b7 92 8f 3b
       -0.2341022 -0.2270645 0.12694201 0.0043815034
000310 64 32 55 be fc 68 1b 3d f6 66 d1 3d e6 32 56 bd
       -0.20820004 0.037941918 0.10224716 -0.052294634
000320 b7 a7 21 be 15 e6 b2 bc 27 f1 56 3d c1 c0 03 bd
       -0.15786634 -0.021838227 0.052476075 -0.032166246
000330 3d 2a 13 be 9d e5 fc bd 01 c8 49 be 9a 5d 21 be
       -0.14371581 -0.12348483 -0.19705202 -0.15758362
000340 c5 20 86 3e 16 d8 95 bd 7c a9 18 bd 0a a7 36 be
       0.26196876 -0.07316606 -0.037271008 -0.17837158
000350 c8 8b 38 3e f0 fe 4c 3d 3d ff 54 bd d8 7b 3e 3d
       0.18022072 0.050047815 -0.052001227 0.046504825
000360 f5 77 d8 bd e4 5c 54 be aa 21 ab bd 06 34 80 be
       -0.10569755 -0.2073856 -0.0835603 -0.2503969
000370 a8 24 21 3d 88 26 2a bd fe fa 1e 3d f4 e1 fe bd
       0.0393416 -0.041540653 0.038813584 -0.12445441
000380 05 74 ad bd 3e b2 f5 3c 34 dd 06 be 37 86 1b 3e
       -0.084693946 0.029992219 -0.1317032 0.15187918
000390 ae 27 f2 3c 95 21 75 3d 8b 2b 63 be a8 13 12 be
       0.029559936 0.05984648 -0.22184579 -0.14265311
0003a0 3c 81 ce 3c 63 f2 3b be 53 5d 44 3d 90 19 00 3c
       0.025208108 -0.18354182 0.047940563 0.007818595
0003b0 88 1f fd bd 77 6f 0e be 65 cc 36 be ea 43 8d bc
       -0.1235953 -0.13909708 -0.17851408 -0.017244298
0003c0 3d 39 b0 3d 28 29 09 bd 5c 86 cb bd 00 e2 b4 3d
       0.08604667 -0.033486515 -0.099377364 0.088321686
0003d0 7a f2 7c bd 97 e4 f1 3d 26 6e b9 bd ed 47 8f bd
       -0.06175468 0.11811178 -0.09054212 -0.06996141
0003e0 07 78 8c bd ce d8 6e 3e 19 e4 b7 bc 58 0a 20 3e
       -0.06858831 0.23324892 -0.022447633 0.15628946
0003f0 ec 1c 25 be 29 15 70 bd 7d 7d 5b bc 39 58 5e 3d
       -0.16124314 -0.05861393 -0.013396618 0.054283354

weight f4 [256, 512]
000000 83 28 85 3d 6b 09 33 3c 75 94 0d 3e 8b 9d c4 3c
       0.065018676 0.010927538 0.13826163 0.024000904
000010 0a 99 1d 3e e1 1b 55 be d0 23 53 3d c3 4b 70 bd
       0.15390411 -0.20811416 0.051547825 -0.058666002
000020 44 b8 8b 3e 7b 2c 09 3e 94 df ef 3b 73 0a 0d bf
       0.2728902 0.13395874 0.0073203538 -0.5509407
000030 e1 f3 d9 bd 46 e7 8f bd 88 9f 1b be b9 65 86 be
       -0.10642219 -0.07026534 -0.15197575 -0.26249483
000040 d1 01 3d 3e 3b 2e f9 3d a7 f2 37 be 3b de a0 3d
       0.18457724 0.12167021 -0.17963658 0.07854887
000050 48 64 99 3d 0e 18 8f be 45 12 e6 bc f0 98 18 bd
       0.0748983 -0.2794804 -0.028084883 -0.037255228
000060 3b 83 a2 bd 35 7b 93 be 8f ce e2 bd b2 ee 85 bd
       -0.079351865 -0.28804937 -0.11074554 -0.06539668
000070 3b 03 29 be 16 df 37 3e 4c ea 51 3e ad 6e 13 be
       -0.16505139 0.17956194 0.20499533 -0.14397688
000080 53 f5 2a bc 19 23 3f 3e 0c 28 0a 3c 1c 5f 49 bd
       -0.010434466 0.18665732 0.0084323995 -0.04916297
000090 ba fd 12 3d f9 a1 70 bd 71 18 83 3d 88 60 67 bc
       0.035886504 -0.05874822 0.06401146 -0.014122136
0000a0 a6 9b 1f bd 68 7c 2d 3d 52 e1 d7 bd 68 14 24 3e
       -0.038966797 0.04235497 -0.10541023 0.1602341
0000b0 bb ed c8 3c bd 7c e2 be 32 10 82 bd 2d ed c1 3d
       0.024527421 -0.44235793 -0.06350745 0.09469066
0000c0 81 48 85 be df ef e7 3c 37 6b 9d 3e ed e4 48 3e
       -0.2603188 0.028312622 0.3074586 0.19618578
0000d0 a3 c2 65 be 69 1c 50 be fe 47 c7 3d b5 5d a9 bd
       -0.2243753 -0.20323338 0.09730528 -0.08269826
0000e0 f3 9b 06 be 91 66 c9 3b c3 ba d6 3d d3 04 02 3c
       -0.13145427 0.00614626 0.10484841 0.0079357205
0000f0 92 f7 d5 bc 2f a8 2d be f4 10 76 3c be 07 89 be
       -0.026119027 -0.16958688 0.01501869 -0.2676372
000100 c0 86 dd be 32 29 57 3d 8c 56 15 3e 04 a3 45 be
       -0.4326687 0.05252952 0.14583796 -0.19300467
000110 b0 19 ba 3d f5 4d 13 be 0c 44 8a be f4 1b d0 bd
       0.09086931 -0.14385207 -0.2700504 -0.10161582
000120 4a aa 07 be 11 f2 66 be bc 78 aa 3c f6 e1 51 3e
       -0.13248554 -0.22553279 0.020809524 0.20496354
000130 65 b7 c2 3c 46 51 c2 3b 8d 9a 9e 3b 4e 61 34 3e
       0.02376909 0.0059300987 0.004840201 0.17615244
000140 c1 39 8d 3d 1a 90 c0 bd 89 b9 4d be e6 74 dd 3d
       0.06895781 -0.09402485 -0.20090307 0.10813312
000150 27 64 0c bd 56 f8 fc 3d 32 8b 62 3d 02 73 2b bd
       -0.0342752 0.12352054 0.05530853 -0.041857727
000160 8e 05 be 3d b4 3b 86 bd 86 16 a8 3c 3b f0 c4 bc
       0.09278403 -0.06554356 0.020518553 -0.024040332
000170 16 d6 20 be 2a 8d 07 3e 4e f0 ff bd 6c 63 a1 3d
       -0.15706667 0.13237444 -0.12497006 0.07880291
000180 f8 44 13 3e ae 93 1a 3d 8b f3 86 bd 8c 05 cf 3c
       0.14381778 0.037738495 -0.06589421 0.0252712
000190 33 52 65 3e 55 80 86 be 7d fe 57 3d fb a8 0a be
       0.22394638 -0.26269785 0.052732933 -0.13541023
0001a0 be 2b 1a be 48 34 6d be b0 8c 85 3d 14 f5 b8 bc
       -0.15055749 -0.23164475 0.06520975 -0.0225778
0001b0 38 3a 46 3d 13 06 66 be 3b f3 cd bd 51 73 34 bd
       0.048395365 -0.22463255 -0.10056158 -0.044055287
0001c0 c3 55 c0 bd df 50 17 3d 1a de c1 be 3c 63 20 be
       -0.09391358 0.03694236 -0.37864763 -0.15662855
0001d0 9a 53 9a 3d c1 ee 3d bc 2b a3 2a 3e 0b 34 26 3c
       0.07535477 -0.011592568 0.16663806 0.010144244
0001e0 f9 62 e5 3d 9f e1 a6 3d 0c 9d 72 bd e6 69 3b be
       0.11200518 0.081485026 -0.059231803 -0.18302116
0001f0 fa 89 b7 3c eb 1d df bc 0f ef 80 bd bf 16 3d be
       0.02240466 -0.027235946 -0.06295597 -0.18465708
000200 35 43 21 bd ed 54 dc bd 5b 2c 2d bd 13 ce 90 be
       -0.039370734 -0.10758386 -0.04227863 -0.28282222
000210 a8 01 8c be 44 62 e5 be 1c 38 db 3d bc 08 6f 3c
       -0.27345014 -0.44801533 0.107040614 0.014589485
000220 df 90 57 3d 9f c8 d5 bb 51 9f c4 bc a9 66 20 bd
       0.052628394 -0.00652416 -0.02400175 -0.039160404
000230 d3 41 66 3e 54 33 ec bc 75 73 03 bc 6a d7 f3 3d
       0.22486047 -0.028833069 -0.008023133 0.11906321
000240 61 13 c5 3d c2 31 21 3d 58 ea 92 be c6 29 2e 3c
       0.09622837 0.039354093 -0.28694415 0.010630077
000250 11 cc ae 3d 54 5b c5 be d0 73 83 3e 09 ea 88 3e
       0.08535016 -0.3854624 0.25674295 0.26741055
000260 3e 46 98 3c 12 b3 27 be b8 88 88 be 95 c1 9b 3e
       0.018588182 -0.16376904 -0.26666808 0.3042113
000270 40 6e 11 bd 0a e1 71 bc 63 aa 53 3c 1c 07 88 bc
       -0.035505533 -0.014763126 0.012919041 -0.016604953
000280 b3 cf 94 be c4 3d 85 bd 43 2b 5d 3e dd 56 af be
       -0.29064712 -0.065059215 0.21598534 -0.3424596
000290 c3 cd 3f bd 00 b2 ef bc 0e 71 f7 3d 0d 28 10 ba
       -0.04682709 -0.029259682 0.1208211 -0.0005499132
0002a0 00 92 b6 bb bc 18 c5 bc 0d 35 21 3e 26 2e 6c 3e
       -0.005571604 -0.024059646 0.15742894 0.23064479
0002b0 c9 d4 5c be b5 f8 69 be b9 c9 85 bd 39 77 3d be
       -0.21565546 -0.2284878 -0.06532616 -0.18502511
0002c0 1a 21 15 bd 19 b7 ac 3e 67 3e 3e bd 3e 68 8c bd
       -0.03640852 0.33733442 -0.04644623 -0.0685582
0002d0 8e 6e dd bd 31 b3 85 be aa 9c 84 3c 1f f9 08 be
       -0.10812102 -0.26113275 0.016187984 -0.13376282
0002e0 0b 71 39 3c 18 64 27 3d c2 94 27 bc 96 09 63 be
       0.011318455 0.04086694 -0.010228338 -0.22171625
0002f0 40 f1 3d be 9e c6 b6 3d d1 7e 2f 3b df 24 05 3c
       -0.18549061 0.08924602 0.002677847 0.008126467
000300 25 58 39 bd 79 02 89 be 74 a5 f7 3d c7 9c 8d 3d
       -0.045250077 -0.267597 0.120921046 0.069146685
000310 39 ba 23 be 98 9d 16 3e d0 1a cc 3d 09 58 87 be
       -0.15989007 0.14708555 0.099660516 -0.26434353
000320 f0 2a 8b be bc b8 01 3e a1 66 c4 bb 97 e8 33 3d
       -0.27181196 0.12668127 -0.0059936796 0.043922987
000330 9a b2 ce 3d e0 c5 78 bd 68 99 71 bb e3 3c 1b be
       0.10092659 -0.060735583 -0.003686512 -0.15159945
000340 f4 90 09 be 7f d3 1e 3e 5f da f6 3d c8 97 aa be
       -0.13434201 0.15510367 0.1205337 -0.33318925
000350 be f6 e4 3c e9 b4 53 bd a8 18 a0 bd 3e db a0 3d
       0.027949687 -0.0516862 -0.07817203 0.07854317
000360 86 17 b1 3d df 3d f6 3d ba 32 a2 3d 0b a9 12 3e
       0.08647065 0.1202352 0.079198316 0.14322297
000370 b5 16 21 be c9 f5 30 3e e7 18 01 be 48 78 5b 3d
       -0.15731318 0.1728126 -0.12607156 0.053581506
000380 83 57 39 3d ea df 58 bd 00 7a a5 be d4 d3 19 3d
       0.045249473 -0.052947916 -0.3231964 0.03755553
000390 54 77 22 3e 0f 4a 86 bd da 0e 32 bd 5a 41 55 3e
       0.15865833 -0.06557094 -0.043471195 0.20825711
0003a0 2c e3 8d 3e 71 ad 00 be 2e e4 33 bd b3 11 19 3d
       0.2771238 -0.12566163 -0.04391878 0.037370395
0003b0 c0 d4 94 be 59 1d 83 3d 61 24 62 be 67 5a fb 3d
       -0.29068565 0.06402082 -0.2208419 0.12273102
0003c0 22 02 4e 3d 82 16 0c be a3 4f 2c 3e a4 11 ab 3b
       0.050295003 -0.13680461 0.16827254 0.005220609
0003d0 37 dd 0c be 7a 59 3c 3e f1 0c d8 3d 03 be 91 bd
       -0.13756262 0.18393508 0.105493434 -0.0711632
0003e0 ba f1 ba 3c dd f1 84 3e 90 72 3f b9 14 9d 81 3c
       0.022820342 0.25965777 -0.00018257857 0.015821971
0003f0 cc 3f 1c 3e 8f 98 30 bd ab 0f 0d 3d 69 a9 b7 3d
       0.15258712 -0.04311424 0.03443877 0.08967859

bias f4 [256]
000000 f9 34 4f 3e 8d 4b 30 be 61 20 38 3e 4a 69 46 bd
       0.20235051 -0.1721632 0.17981102 -0.048440255
000010 8d 9f 9d bc 31 d8 d3 bb 63 49 ab 3d 21 57 de bc
       -0.019241119 -0.006464981 0.08363607 -0.027141156
000020 a2 1f 21 bd c3 8d 31 bd 38 14 cd bd 6b 77 86 ba
       -0.039336808 -0.043348085 -0.10013622 -0.0010258978
000030 bc 65 16 3d b2 e6 a7 3d 6a 53 f8 3c 74 1a 7f 3d
       0.036718115 0.081982985 0.030313212 0.062281087
000040 f3 81 9b 3d 0c e5 3a 3c 0c 95 36 3d cb 82 45 3e
       0.07593145 0.011407148 0.044575736 0.19288175
000050 94 1a 78 be 89 0d 8b 3b 45 c0 d8 bd e9 83 cd bc
       -0.24228889 0.004243557 -0.105835475 -0.025087314
000060 7f c6 c1 bd 7c 76 69 bc 45 90 4c bd 85 9b 13 3d
       -0.09461688 -0.01424944 -0.049942274 0.036036987
000070 a6 04 08 bd 03 8b b4 bc 01 e8 f4 3c 36 45 76 3e
       -0.033207558 -0.022038942 0.029895784 0.2404984
000080 fa ef 0f bd db ce 46 bd 3d 57 9f 3c e5 7a 7a 3d
       -0.03514097 -0.048537116 0.019450778 0.061152358
000090 b5 9b dd bc c1 07 09 bc 2c 46 d7 bd 38 28 a2 3d
       -0.027051786 -0.008363665 -0.10511431 0.07917827
0000a0 50 27 4f 3d 5c 23 87 bc f7 88 42 3e 52 31 7e bd
       0.0505746 -0.016496353 0.1899756 -0.062058754
0000b0 ec 98 b4 bd 25 f0 38 be 7d 7f d8 bd 66 a9 e5 bc
       -0.0881823 -0.18060358 -0.105711915 -0.028034877
0000c0 2f 82 d0 bd fb d6 9e 3d 35 e0 ae ba 0d 0f 0f 3e
       -0.101810805 0.07755848 -0.0013341965 0.13970585
0000d0 fe 16 4d be 8e 50 0e be f9 90 e5 bd da 7d 94 bd
       -0.20028302 -0.13897917 -0.11209292 -0.07250567
0000e0 fa 23 85 bd dd 1a 0f be eb 92 92 bb e8 94 3b be
       -0.065010026 -0.13975091 -0.0044730804 -0.18318522
0000f0 a7 00 7a bd 5f 70 74 3c 5c 2b f3 3c 55 4c 41 3d
       -0.06103578 0.0149193695 0.029683761 0.047191937
000100 d2 2b 51 3e 8a ad c5 3c 0e 74 41 bd c1 24 eb ba
       0.20426872 0.024130601 -0.04722982 -0.0017940031
000110 55 59 22 3f 2c d7 07 3e 03 30 00 bd 3a 04 b3 3d
       0.6341756 0.13265675 -0.031295788 0.087410405
000120 99 43 cd bd 20 de 8b bd f6 e1 c3 3c c3 3a 1e 3c
       -0.10022659 -0.06829476 0.023911458 0.009657565
000130 7d 93 01 bc 9a bc c1 3c ff 79 ac bd 78 f6 0b bb
       -0.007908699 0.023649503 -0.084217064 -0.0021356624
000140 9c 57 8b bd f8 b2 ff bc 05 4d ad 3c 4f 0f d8 3b
       -0.068038195 -0.031213269 0.02115489 0.006593622
000150 ba dd f9 bc 84 1f bc bd 98 b5 1e be cf e0 38 3c
       -0.030501235 -0.09185699 -0.1549896 0.011284067
000160 4b 5f 86 bd 86 81 b6 b9 30 f8 19 be 11 dc f9 3b
       -0.065611444 -0.00034810248 -0.15036082 0.007625111
000170 9e 90 4a be 26 14 2c bd 32 fc 0a 3e 31 64 92 bc
       -0.1978173 -0.042011403 0.13572767 -0.01787004
000180 a8 d9 2e bd d9 68 03 be 6b 1c e5 3a cb d7 33 3c
       -0.042688042 -0.12832965 0.0017479783 0.010976742
000190 87 6b 87 bd da e8 60 bc 13 96 0d bd e5 b3 36 be
       -0.06612306 -0.013727391 -0.03456695 -0.17842062
0001a0 58 2d 8c bd 1f 46 3b 3d d8 6a 4e bb ba 73 e3 3d
       -0.06844586 0.04572117 -0.003149679 0.111060575
0001b0 6d af 36 3e b7 93 22 be a4 27 ff 3b 5f a6 3e bd
       0.17840357 -0.15876661 0.007786708 -0.046545383
0001c0 c9 fe 17 be d0 a9 dc 3e 11 e4 47 3b 82 4e d7 3a
       -0.14843287 0.43098307 0.0030500928 0.0016426595
0001d0 72 e5 69 3c 03 06 cd 3d f1 b4 ef bd 9f 9f 46 3c
       0.014275895 0.10010912 -0.11704434 0.012123018
0001e0 4f a4 05 bd 2e 9e b0 bc da d6 4e 3d fc c3 fb 3e
       -0.0326274 -0.021559801 0.050497867 0.49172962
0001f0 d0 dc 49 3d ca 5d a3 3d 69 bd bc bc e5 74 66 3d
       0.04928285 0.07976873 -0.023039537 0.056263823
000200 be 28 fb 3e 09 ec 76 3d da ca ee bc 17 37 16 3e
       0.4905452 0.060283694 -0.029149462 0.14669453
000210 94 83 15 bb 7d a5 5a 3e ff a6 83 bc 73 f7 2e bd
       -0.0022814022 0.21352191 -0.01607084 -0.042716455
000220 f7 04 88 bc 64 04 98 bd ad 73 9f 3e 93 6b 59 3d
       -0.01660393 -0.074227124 0.3114294 0.053081106
000230 51 97 56 bd 39 33 96 bd a2 1d 66 3d 82 12 e9 bc
       -0.0523904 -0.07333989 0.056180604 -0.028451208
000240 8e 26 9f bd 97 98 61 bd 79 fb d1 bd e8 94 8b bd
       -0.077710256 -0.05507716 -0.10253043 -0.06815511
000250 8f c5 ea bd 70 95 1c bd 55 06 d0 3c 43 13 95 bd
       -0.114634626 -0.038228452 0.025393644 -0.072790645
000260 b3 5f 61 bc c9 1b f1 3c 72 07 5d bc 0b 51 a4 bd
       -0.013755727 0.029432194 -0.013490545 -0.0802327
000270 1d 4e 47 be 2c fd 27 3c 20 9b 67 3d d9 ec 59 bb
       -0.19463392 0.010253232 0.056544423 -0.0033252744
000280 a9 86 9c 3c 80 e9 13 be dc de f3 3d a8 91 a4 bd
       0.01910718 -0.14444542 0.119077414 -0.08035594
000290 20 01 10 be d9 04 d2 3d 90 8d dd be 69 62 85 bd
       -0.14062929 0.10254831 -0.43272066 -0.06512911
0002a0 de 11 91 bd b8 c1 af bd 20 57 2a bb 54 b8 47 be
       -0.07083486 -0.08581871 -0.0025991872 -0.1950391
0002b0 9f d7 f2 bc 67 58 ea 3d 7b a2 0b 3d 36 2c bd 3d
       -0.029643832 0.11442643 0.0340905 0.09236948
0002c0 4a 70 a0 3e c6 0d 7c 3d 1c 91 b0 bc 90 55 a3 bd
       0.3133567 0.061536573 -0.021553569 -0.07975304
0002d0 e9 52 34 3d 08 96 bb bd 30 80 02 3e 10 a5 dc bd
       0.04402438 -0.091594756 0.12744212 -0.10773671
0002e0 bf b2 7f bd ef 75 7e bd 0c 0e e6 3d 5f 64 42 bc
       -0.062426325 -0.06212419 0.11233148 -0.011864751
0002f0 14 80 a4 3c fe 73 a0 bd 1e 51 30 b9 b2 90 56 bc
       0.020080604 -0.07834624 -0.00016814886 -0.0130960215
000300 7d 44 2f bd 74 a4 8d be 9e b2 b0 3c b8 6d e6 bc
       -0.042789925 -0.2766453 0.021569546 -0.02812849
000310 31 cf 2b bd e1 f0 0f 3d da 12 99 bd 84 a2 97 bc
       -0.04194564 0.03514183 -0.07474299 -0.01851011
000320 dc 11 e0 bc 9d eb 1a bb 46 f8 b3 3c b8 69 19 be
       -0.027352266 -0.0023638972 0.021968972 -0.14981735
000330 e2 7c d2 3c d1 85 15 3e 7a 4f 05 3d 8c 03 05 3e
       0.025694314 0.14601828 0.032546498 0.12989634
000340 37 d0 8a bd 1f a3 f3 bd 4a 9d a1 bc 67 40 77 3c
       -0.06777995 -0.11896347 -0.019728322 0.015091038
000350 69 04 fe 3d 69 e3 3e bd ca 90 f1 bd 87 1a 44 be
       0.12403185 -0.046603594 -0.117951944 -0.19150744
000360 ad 6c 8d bd 7b 85 8e 3d 71 dd 3b 3d db 67 40 3b
       -0.06905494 0.06959053 0.04586548 0.0029358778
000370 db 47 29 bd 4c 68 9b 3c 72 3b e2 bd 71 7b 80 be
       -0.041328292 0.018970631 -0.110464945 -0.25094178
000380 e4 ae 12 bd b7 16 33 bc 70 2d c1 3d cd f9 c5 3d
       -0.03581132 -0.010930709 0.09432495 0.09666786
000390 9e b3 dd bd c1 91 1c 3e 20 42 21 bd 8e e6 b6 3d
       -0.10825275 0.15289976 -0.039369702 0.089306936
0003a0 b1 1b 08 3d 9b 14 46 3d 37 f3 75 be f4 ce 91 bd
       0.033229534 0.048359495 -0.2401856 -0.07119551
0003b0 7b 66 dd be af 8a 07 be 17 9b cd bb 78 e2 19 bb
       -0.4324225 -0.13236497 -0.0062745917 -0.0023480933
0003c0 f1 9b 6b 3b 79 c1 06 bd a9 96 52 bd 9d c2 95 3d
       0.0035951103 -0.032899354 -0.051413212 0.0731251
0003d0 0b d6 f0 3d 8b 84 53 3e 81 af e0 bc 83 1d f2 3d
       0.117595755 0.2065603 -0.027427437 0.11822035
0003e0 7e a4 aa bc bd 86 d3 3a bc 26 c4 bd 1d d4 83 bd
       -0.02083039 0.0016138178 -0.095777005 -0.06436942
0003f0 5a f6 ac bd 53 a2 96 bd 19 2c 86 3d ea ef 30 bd
       -0.08445425 -0.0735518 0.0655138 -0.04319755

weight f4 [128, 256]
000000 66 c7 30 3e 4f 6f 45 bf c9 a0 32 bf 1e c3 44 3d
       0.17263564 -0.7712297 -0.6977659 0.04803764
000010 8d 29 10 bd 06 c3 84 bc 50 34 6d 3b 63 b4 81 3c
       -0.035195876 -0.016206276 0.003619451 0.015833085
000020 f2 68 ee bd 9f 22 80 3c 40 80 92 3d 5b 3d 60 bb
       -0.116411105 0.015641509 0.07153368 -0.0034216258
000030 e3 4f 68 bd 70 a5 aa bb 9b da 81 bd 79 ac 2b 3e
       -0.05671681 -0.00520771 -0.06340524 0.16765012
000040 10 1f 37 bf 27 e8 79 3e f7 d1 8a be 9d d2 68 3d
       -0.7153177 0.24404965 -0.27113315 0.05684148
000050 4f 97 82 be aa c3 54 3d d1 e9 fd bb cf f3 a6 bc
       -0.25506064 0.051944412 -0.0077488204 -0.020379929
000060 6d 82 5f 3e 16 af 79 3c 24 e8 87 3c 7d 58 c9 3d
       0.21827097 0.015239498 0.016590185 0.09831331
000070 f5 77 71 3c 65 52 39 be 86 da 22 be e0 41 c3 3d
       0.014738073 -0.18097837 -0.15903673 0.09534049
000080 7a 0c 2e 3f bf 70 0f 3e 59 54 6b bf f4 2f 39 3e
       0.6798779 0.14007853 -0.9192558 0.18084699
000090 a6 04 a8 be 35 32 b4 bc 15 eb 5d 3d 1d ce 07 3f
       -0.32816046 -0.021996597 0.05417927 0.5304888
0000a0 8d 1e 0e bf b6 0a ac bc 45 9d 20 bf 89 5d f3 3d
       -0.55515367 -0.021001201 -0.62739974 0.11883075
0000b0 53 8d 14 bf ab 2d 3f be 8e dc b6 bb 81 a3 04 3e
       -0.58028144 -0.18669765 -0.0055804914 0.12952997
0000c0 eb 82 af 3e 3d 25 6c be ef 5d 63 3e 2d b3 3d bf
       0.3427957 -0.2306108 0.22203802 -0.74101526
0000d0 94 40 22 bf 5f 60 96 bd b7 3d 0e be 95 b1 21 3d
       -0.6337979 -0.073426 -0.1389073 0.039475996
0000e0 60 65 1f bc 16 b9 6c be 7c 86 66 bd 95 19 6e be
       -0.0097287595 -0.2311748 -0.056280598 -0.23251946
0000f0 eb 8e a0 3d a8 81 d7 3e 4b 47 7f 3d 13 b6 8c 3d
       0.078397594 0.42091107 0.06232385 0.068706654
000100 7e 25 3a 3e 01 5b 46 bc b3 16 cc be 45 c6 de 3d
       0.18178365 -0.012106658 -0.39861068 0.10877661
000110 ec 4d e0 3b 2c 63 7c 3d 5e 48 91 be 47 2e 99 bd
       0.0068452265 0.061618015 -0.28375524 -0.0747953
000120 dc fd 00 bd 82 d0 93 bd b2 da 5a 3d 80 6b 1f bc
       -0.0314921 -0.07217504 0.05343122 -0.00973022
000130 44 2c 0c 3c f0 21 7f be 4c 13 9b 3d 76 02 ea bc
       0.008555476 -0.2491529 0.0757204 -0.028565627
000140 b2 ad 70 3e 49 bd 90 3c d7 a8 5b 3e 29 53 2f be
       0.2350376 0.017668383 0.21451126 -0.17121567
000150 4b 26 4f bc 92 a6 bf 3e 57 16 95 bd 7a db d0 3d
       -0.012643407 0.3743177 -0.072796516 0.10198112
000160 4d 86 4d bd 3b dc 6b 3c 3b 76 90 be 6e 89 84 3b
       -0.050176907 0.014395769 -0.28215203 0.004044703
000170 71 73 cc bc 6a 5b f7 bc a4 0f c8 3d a7 65 fa bc
       -0.02495739 -0.030194957 0.09768608 -0.03056605
000180 b3 e8 4f bd 74 dc 86 3e 0a b5 97 3a 63 0b e0 3c
       -0.05075903 0.26340067 0.001157434 0.02734918
000190 7d 14 a7 3d c7 ff 73 bd 12 fa 78 bd a1 60 59 3e
       0.08158205 -0.0595701 -0.06078536 0.21228267
0001a0 c9 16 c1 3e 59 2d 04 3e 26 b3 0a bf 9c a0 9d be
       0.37712696 0.12907924 -0.5417961 -0.30786598
0001b0 7a fc 93 be bf 04 d6 be 4a 4d 49 3d 27 54 d4 3e
       -0.28903562 -0.41800496 0.049145974 0.41470453
0001c0 01 c4 91 3e da 41 d3 bc df c9 92 3e c4 80 05 bd
       0.28469852 -0.025788236 0.2866964 -0.032593504
0001d0 62 4c 76 be e9 fa c4 3d 8a 70 d9 be 1b 61 6f 3e
       -0.24052575 0.0961817 -0.42468673 0.23376887
0001e0 19 22 76 3c 76 ec a8 bd ca 37 12 be d8 77 18 3d
       0.015022778 -0.08248226 -0.14279094 0.037223667
0001f0 00 a6 de be a6 7c 20 3e 90 bb 72 3d 70 72 9f 3c
       -0.43486023 0.1567255 0.059260905 0.019463748
000200 bf 57 9d 3d 95 7a 6b 3e b6 a2 52 bf a0 59 71 3b
       0.07682752 0.2299598 -0.8227953 0.0036827102
000210 c2 b9 90 be f2 c0 8c 3d 87 28 f0 3c 26 e4 99 bc
       -0.28266722 0.06872739 0.0293162 -0.018785547
000220 f4 fc 9d 3c c2 0f 95 bc 2d 53 a2 3d 39 03 e9 be
       0.019285657 -0.01819599 0.07926021 -0.4551027
000230 7b 42 aa be d3 c9 98 bc f5 c0 56 3d 14 32 c7 3c
       -0.33253846 -0.018650925 0.052430112 0.024315871
000240 69 d8 c8 3d 62 18 f7 3d cc 7f 25 bf 7f bf 15 be
       0.09806902 0.120651975 -0.6464813 -0.14623831
000250 75 6c 09 3e ae be ca bc db a8 0d 3c 97 a2 3a bd
       0.1342028 -0.024749126 0.008646215 -0.045565214
000260 1b 29 cb 3b 0d b5 ce be 46 2d 6b bc 07 b2 b5 be
       0.0061999685 -0.40372506 -0.014354056 -0.35487387
000270 12 e7 87 3e 04 bc 64 bd b9 94 25 bd 3c b5 5e bd
       0.2654348 -0.05584337 -0.040425036 -0.054372057
000280 8b 39 32 bd d1 95 24 3e 78 75 b5 be 9a 8b ce bc
       -0.04351191 0.16072775 -0.35441184 -0.025213052
000290 58 d7 18 bf 37 28 09 be 88 cf 93 bd e4 86 2f bd
       -0.5970359 -0.13394247 -0.07217318 -0.04285325
0002a0 ae 5d a9 3d 20 70 af be f1 e0 d5 bc 22 85 1a bf
       0.08269821 -0.34265232 -0.026108237 -0.60359395
0002b0 6a 2c e0 bc b8 19 13 bd af ec c4 3d 0f 05 5c bf
       -0.027364928 -0.0359132 0.09615456 -0.8594522
0002c0 bc df 4e 3e 64 ae 01 bf fb 9e f3 bb 77 19 09 be
       0.20202535 -0.50656724 -0.0074347234 -0.1338862
0002d0 c4 0c 8d be 2e 7d 22 bc d6 db 81 bd bc 26 ad bd
       -0.27548802 -0.0099175405 -0.063407585 -0.084546536
0002e0 04 a4 18 bd 1d 8d 54 3e 54 d6 37 3e 16 90 b2 3c
       -0.037265792 0.20756955 0.17952853 0.021797221
0002f0 12 fb 83 be 31 12 34 bd 4c dd 82 bb bb 51 a0 3c
       -0.2577749 -0.04396266 -0.003993666 0.019570222
000300 e3 2c 98 bd 95 ea e7 bb 49 85 25 3d 65 14 df 3d
       -0.074304365 -0.007077525 0.040410314 0.10892562
000310 a0 cf 79 bb 1f 62 80 bd 97 66 cb 3c 92 13 09 3d
       -0.003811814 -0.06268715 0.024829192 0.03346593
000320 04 00 4b be f9 72 7d bd a5 dc 1d 3c b9 fd 67 3e
       -0.19824225 -0.061877225 0.009635125 0.22655381
000330 f3 70 22 be ef c0 19 3e c2 06 12 3d 8e a2 24 3e
       -0.15863399 0.15015005 0.035650976 0.16077635
000340 63 4d 24 bd 52 d1 66 3e d5 b4 5a bd 75 3e 7a 3d
       -0.040112864 0.22540787 -0.05339511 0.06109472
000350 13 1b d3 3d ae 00 dd bd 37 ec d5 bd d9 03 26 3e
       0.10307898 -0.10791145 -0.10445445 0.16212405
000360 35 c9 09 bf 2f 94 26 be 3f 2a 09 3f 5d 0b 94 3c
       -0.5382264 -0.16267465 0.5358009 0.018071825
000370 e3 6e 97 bc 19 27 12 3e 1d b6 c8 3e e9 6d 03 bf
       -0.018485492 0.14272727 0.3920144 -0.51339585
000380 82 d5 7d bb 04 36 53 3d ee 64 06 bf e0 b1 23 3f
       -0.0038731997 0.051565185 -0.52497756 0.6394329
000390 70 f3 84 3c 63 69 09 be de 4d 0b bd 86 15 29 bf
       0.016229361 -0.13419108 -0.034009807 -0.6604847
0003a0 68 ba 81 3c 43 ef a6 be 18 0b d8 be db 08 fd 3c
       0.015835956 -0.32604417 -0.42195964 0.030888012
0003b0 07 b4 01 bf 2e 92 50 3e 4e ae fd 3d eb 65 d9 3c
       -0.50665325 0.20368263 0.123867616 0.026537856
0003c0 99 ed 2f bc 38 39 88 bc ce ad 0e 3f 56 e4 9f bd
       -0.0107378 -0.016628847 0.55733955 -0.078072235
0003d0 93 d0 48 bd 5b 66 b6 bd 7f 67 04 be b1 23 31 bf
       -0.049027037 -0.089062415 -0.12930106 -0.69195086
0003e0 8d 98 b0 3b 85 c2 64 bc cc 79 02 bf d8 bd dd 3a
       0.005389279 -0.013962393 -0.509671 0.001691754
0003f0 c9 da 49 3d 9a 2e a2 bc 0a 51 7f be 6f a1 06 3d
       0.049280915 -0.019797612 -0.24933258 0.0328688

bias f4 [128]
000000 31 02 20 3e da d8 7c bc de 6e fa bd 9d 5b 14 3f
       0.15625836 -0.015432561 -0.122281775 0.5795229
000010 f5 05 22 3e 88 46 2f 3d 82 24 51 bd a9 f8 83 bd
       0.15822585 0.042791873 -0.051060207 -0.064439125
000020 18 aa d7 be 2d 94 00 be 24 73 b0 3c 15 c1 8c bd
       -0.4212196 -0.12556525 0.021539278 -0.06872765
000030 d9 b9 57 bd b6 48 6c bc 6b 1d 79 bd ad 19 35 bd
       -0.052667473 -0.0144216325 -0.06081907 -0.04421394
000040 5d 09 36 bd 61 20 49 3e d2 a1 ee 3c e0 98 db 3e
       -0.044442523 0.19641258 0.029129896 0.42890072
000050 fc 4f bb be 35 ff 27 3d 1b 98 88 be e0 e1 e3 3e
       -0.3658446 0.04101487 -0.26678547 0.44508266
000060 32 4c 8d 3e 09 bb 1f 3e d6 a8 06 be db dc 09 be
       0.27597195 0.15598692 -0.13150343 -0.13463156
000070 49 d4 36 bc dd f6 36 bd 46 d7 50 be b1 d5 bd bd
       -0.011159011 -0.04466902 -0.2039462 -0.09269274
000080 91 68 96 bd c0 3d d4 bd 03 66 4c bc f0 68 93 bd
       -0.07344163 -0.103633404 -0.012475493 -0.071977496
000090 65 00 ca bc ce a5 d5 bc 0d 66 b2 bd fb 8f d0 be
       -0.024658391 -0.026080038 -0.08710871 -0.40734848
0000a0 56 6a d7 bd e5 48 eb bd 2e 9a d2 bd ee da a0 bd
       -0.10518329 -0.11488513 -0.10283314 -0.078542575
0000b0 d4 bc 49 bc 44 44 36 3e af 81 44 be 1a 20 9f bd
       -0.012313087 0.17799479 -0.19190095 -0.07769795
0000c0 19 f6 62 bc 7e d4 a5 bd 8a 52 5e be b7 15 87 bc
       -0.01385262 -0.0809717 -0.21711174 -0.016489847
0000d0 3d 75 e3 3c 5f d6 45 bb 9c e7 e4 3e bc 85 a3 3e
       0.027765865 -0.003018759 0.44707954 0.3193797
0000e0 50 b0 9e be 19 3b 28 3e d6 7d 2c be e9 79 8a bd
       -0.3099389 0.16428794 -0.16844878 -0.06761534
0000f0 57 e9 ab bd b3 b0 25 bc fb 80 93 bc 73 87 00 bd
       -0.083941154 -0.010112929 -0.018005839 -0.031379174
000100 2c 51 3a bd 25 dc 2c 3f 82 7d 19 3d 18 83 05 bc
       -0.045487568 0.67523414 0.03747321 -0.008148931
000110 58 d2 66 ba cb 12 af 3e 91 24 be bd 4e 14 41 bd
       -0.00088051474 0.34194025 -0.09284318 -0.047138505
000120 4f 93 ea bd 9a 29 9a bd a4 58 69 bd 36 7a ef bd
       -0.11453878 -0.07527466 -0.0569693 -0.11693232
000130 5a 3f 5c 3f 91 e9 92 bd 2e 6d cf 3d 37 34 96 bd
       0.86034167 -0.071734555 0.10128246 -0.07334178
000140 1d 65 62 3d c3 84 1f be 5a 19 17 bd a2 99 33 be
       0.05527221 -0.15577988 -0.03688941 -0.17539075
000150 da 0f 3b be 28 2a d2 bc 94 0c 8b 3e 31 52 eb 3e
       -0.18267766 -0.025654867 0.27158034 0.45961145
000160 79 53 45 bd 96 35 29 be 2a 70 24 bd 70 60 94 3e
       -0.04817531 -0.16524348 -0.04014603 0.28979826
000170 f7 00 e5 3c e6 c6 f5 3e 5c b6 34 be 29 56 07 3f
       0.027954562 0.4800331 -0.1764769 0.52865845
000180 c0 10 c2 bd 73 c0 3d 3e a6 1d d0 3e a1 96 4d be
       -0.09475851 0.18530445 0.4064762 -0.20076992
000190 c1 ed db bd fc 28 fb bc af a9 e0 3e 0f 62 84 bc
       -0.10738707 -0.030659191 0.43879458 -0.01616004
0001a0 08 8f 9e be b1 a5 d0 bd b2 17 cf 3e 17 55 38 bd
       -0.309685 -0.10187853 0.40447766 -0.045003023
0001b0 df 75 d4 3b 9e 46 ff 3c d3 e1 52 3f 19 83 47 be
       0.006483778 0.031161603 0.8237583 -0.19483604
0001c0 94 ee f3 bb d6 a8 1e be 87 2c f6 bd c7 e0 64 3f
       -0.007444212 -0.15494093 -0.12020212 0.89405483
0001d0 8b a3 e3 bd 5c be e1 bd fa 15 2a be f7 6c 0a 3c
       -0.11115178 -0.11022636 -0.16609946 0.008448831
0001e0 e4 e6 21 bd b6 cd ab 3d e4 98 be 3d 11 be 5b be
       -0.039526835 0.083888456 0.09306505 -0.21459223
0001f0 de df 00 be ca 9b 88 be 85 44 79 be ff cc b8 bc
       -0.12585399 -0.26681358 -0.24342544 -0.022558687

weight f4 [60, 128]
000000 73 c3 06 bb 63 3a b2 3c 0a a5 af 3a 8a 6e f7 3c
       -0.0020563274 0.021756357 0.0013400626 0.030204076
000010 3a 33 62 ba 79 bc 33 bc 4b e9 9f bc 5c d7 d1 bc
       -0.0008628849 -0.010970228 -0.019520422 -0.025615387
000020 2c 9a 94 bd 4f 99 16 bc f9 31 85 3b bd fd f2 3d
       -0.072559685 -0.009191825 0.004064795 0.11864803
000030 57 2e 57 3c 99 4e 18 bd b0 a7 a7 3d d6 17 f6 bc
       0.013133607 -0.03718433 0.08186281 -0.030040663
000040 22 8c 6d 3c bb 9f fb 3b d5 b7 52 3d b7 ee 76 bd
       0.014498742 0.0076789535 0.051444847 -0.06028625
000050 0d d9 8d bd c6 9b 8a bc 85 ba a2 3d 93 b0 e2 bb
       -0.06926165 -0.016919982 0.07945732 -0.006918022
000060 26 42 c3 bd 5f 31 58 bc 65 57 26 3d 9b fc 8c 3c
       -0.09534101 -0.013195365 0.04061069 0.017210295
000070 19 f2 48 3d e9 83 31 3d dd 76 45 3a 53 08 37 bd
       0.049059007 0.04333869 0.00075326656 -0.044685673
000080 0c 6d 29 3d 59 70 f0 ba 86 6b ec 3c 57 b0 06 bc
       0.04136376 -0.0018344029 0.028859865 -0.008220754
000090 a7 c1 72 3d 75 a3 c8 bc ad 5e 88 3c 72 23 05 be
       0.059266713 -0.024492005 0.016646707 -0.13001803
0000a0 67 f6 01 3d 41 08 1f 3d 5d 06 73 3c 84 3f 40 bc
       0.03172913 0.03882623 0.01483306 -0.011733893
0000b0 05 96 c8 3c 36 f6 3a 3b c9 2a f5 3a c3 93 a9 ba
       0.024485597 0.00285281 0.0018704768 -0.0012937713
0000c0 c7 e8 8a bd 0f e6 83 bd ff e1 29 3b 60 20 7d 3d
       -0.0678268 -0.064403646 0.0025922058 0.061798453
0000d0 2a 94 2c 3d 20 a6 04 3e ba aa c3 3c c0 25 b8 be
       0.042133488 0.12953997 0.02388512 -0.359663
0000e0 62 48 02 bc 47 62 2d 3d 58 17 16 bd 2c c4 06 3d
       -0.007951828 0.042330053 -0.036643356 0.032901928
0000f0 cc 15 1d bd 37 64 38 bc f2 c0 ff 3c e4 92 a7 3c
       -0.038350865 -0.011254362 0.031219933 0.020455785
000100 5a 1a fd bb 76 3c c8 3b 94 c7 c5 3d 4d 3d 67 3d
       -0.0077240886 0.006110723 0.09657207 0.056454945
000110 6e 34 8d 3b 0a 1b 23 bb e9 ef 27 3b d3 e3 b9 bb
       0.0043092286 -0.0024887943 0.0025625175 -0.0056729107
000120 e8 e7 be bc db 30 9a bc 4c 7d 1a 3d 10 9c b6 3a
       -0.02330394 -0.018822124 0.03771715 0.0013932008
000130 d2 e1 49 3e b5 b8 8e bc f8 29 d3 3c d6 a9 0c 3c
       0.1971505 -0.01742206 0.025776848 0.008585414
000140 63 dd 6a 3c b3 39 90 bd be ab f4 3d ca 07 aa 38
       0.014335009 -0.07042255 0.1194682 8.1076825e-05
000150 82 af d6 3d 43 84 99 bb 99 be 6c bc 5a a6 f1 3b
       0.10482694 -0.0046849563 -0.014449739 0.007374567
000160 cc 6a ab bc f5 d7 e9 ba 5a 39 5b bc ae 63 20 bd
       -0.020924948 -0.001784085 -0.013380373 -0.039157562
000170 f3 5b 77 3d f7 e5 d2 3d fe 28 ad 3c b6 85 7a 3a
       0.060390424 0.102977686 0.02113771 0.00095566676
000180 85 b3 71 bb c4 47 c7 3c bb f0 2b 3c 49 55 d3 3d
       -0.0036880684 0.024326213 0.010494406 0.10319001
000190 36 08 cc bc 1b 44 10 3c 8e 97 ae 3d 2c f9 11 3c
       -0.024906259 0.0088053 0.085250005 0.008909505
0001a0 ea 47 26 bd 4a 62 08 bc 91 eb b2 3d 60 0c 26 3d
       -0.040595926 -0.008324215 0.08736337 0.040539145
0001b0 f9 6d ac 3d ac bd 30 bc ec 42 ee 3c 8c fb 97 3b
       0.08419413 -0.010787409 0.029084645 0.004638141
0001c0 5d ac 97 3c 02 9c 98 3b e3 68 49 3d f6 27 cf 3d
       0.018514806 0.0046572695 0.049172293 0.10115044
0001d0 bc 0d b8 3d c8 ca 58 bc a0 37 de 3b 31 bb 10 3d
       0.089869946 -0.013231941 0.0067815334 0.03533477
0001e0 8d 0b a3 3d 21 2d 68 3c ab b3 99 bc 01 9e 19 3c
       0.079611875 0.014170916 -0.01876243 0.00937605
0001f0 b8 bd 6a bd 32 ff 31 bc 05 4c e7 3c 9c 7d c6 3d
       -0.057309836 -0.010864066 0.028234491 0.09691927
000200 cb d5 da 3c 9b 26 a6 3c 79 f5 03 bd 79 91 bf ba
       0.026713273 0.02028208 -0.032216523 -0.0014615498
000210 9b bc 19 bd 50 31 9c bd 41 13 0a 3d 39 c3 9e bb
       -0.037533384 -0.07626593 0.03370977 -0.0048450497
000220 9b 89 85 3d ce c6 11 bb 94 86 14 bd e7 08 b7 3c
       0.06520387 -0.002224374 -0.036261156 0.022343112
000230 e2 80 bf bd d2 e5 83 3c b4 0c b9 3c 9c b6 2b 3b
       -0.09350754 0.016100798 0.022589065 0.0026201373
000240 ef cd 75 3d 9d 54 f5 3c fa 60 40 bc d6 14 d1 bd
       0.060010847 0.029947573 -0.011741871 -0.10209052
000250 77 18 68 3e 88 83 46 bf b9 2f dc 3e 5e fc b1 bd
       0.22665583 -0.7754445 0.4300516 -0.08690713
000260 3e f7 c3 bd ed 9c 63 3d da 70 8c 3d 7a 78 fa 3e
       -0.09568642 0.055569578 0.06857462 0.4892004
000270 d2 09 14 3d 9c f6 f8 3b 42 5f 20 3c 6b a0 e3 3c
       0.036142178 0.0075977575 0.009788336 0.027786454
000280 98 a1 dc 3e 41 6f e4 ba 26 da 3c bd 80 49 fa bd
       0.43092036 -0.0017428176 -0.04610648 -0.1222105
000290 d5 de 29 3f c3 55 69 bd c7 d4 d1 3b dc aa 0c 3d
       0.6635564 -0.056966554 0.006403539 0.03434263
0002a0 88 88 bb bd 48 e7 0a 3b 7a 4f 99 3c 04 a6 09 be
       -0.09156901 0.0021194983 0.018714655 -0.13442236
0002b0 9f 05 29 3c 4b db 9f bc 7b 0a 0d be 4c bd cc 39
       0.010316282 -0.019513747 -0.13773529 0.0003905095
0002c0 69 6b 87 bc 67 e6 a2 bc 5e 95 36 bd 21 28 1e bc
       -0.01653071 -0.019885255 -0.04457604 -0.009653122
0002d0 0e 7d 52 be c9 be 80 3c 67 11 0f 3d da eb 83 3a
       -0.20555517 0.015715973 0.034928706 0.0010064796
0002e0 bc 42 8f 3f 62 32 3d 3b d9 5d 9a bd c6 6e 3e bc
       1.1192241 0.0028869142 -0.07537431 -0.01162309
0002f0 e1 a4 5d 3e f1 ae cd 3b 6e 5a 1b bd 6c ce 85 3e
       0.21644928 0.006276958 -0.037928037 0.2613405
000300 5a 0e f9 bc e6 e9 24 bb b1 46 08 3d ae 9d 0b bc
       -0.030402351 -0.0025163828 0.03327054 -0.0085214805
000310 71 9a 10 bc 19 d6 bd 3d c7 73 d3 ba 8a e0 62 3c
       -0.008825884 0.092693515 -0.0016132527 0.01384748
000320 46 98 53 bd 25 59 4c 3d 9f 43 6f bd f7 1a 5b 3d
       -0.05165889 0.049889702 -0.058414098 0.053492513
000330 e3 7a d3 b9 bc f6 6c bd 23 51 6d bd f5 71 2e 3e
       -0.00040336614 -0.05785249 -0.057938706 0.17035659
000340 de 67 95 be eb 04 31 3d c0 8c 63 39 cb 50 16 3e
       -0.29180807 0.04321758 0.0002170084 0.14679258
000350 e1 36 4c 3c ee ce 01 bd 9d f2 a8 bd 6e 40 7b bd
       0.012464256 -0.031691484 -0.082494 -0.06134074
000360 94 aa 8d bc 67 bb 3b be 4b c9 10 bc 21 69 29 3e
       -0.017293252 -0.18333207 -0.0088370545 0.1654401
000370 8a 2c fa 3a 42 aa eb bd d4 8e 13 3d aa 58 dc 3c
       0.001908676 -0.115070835 0.036024883 0.026897747
000380 cf 47 17 bd a1 5c 05 be 3a 22 bb 3d b7 7a fe bb
       -0.036933716 -0.13023616 0.091373876 -0.0077660936
000390 8b e3 99 3d 5d 78 f9 3b d5 d1 60 3b e5 23 c7 bb
       0.075141035 0.0076132254 0.0034304757 -0.006077277
0003a0 31 23 01 3e 62 36 20 3d cd ee 43 3e 5c 65 88 3c
       0.1261108 0.039114363 0.19134064 0.016649894
0003b0 28 d5 17 3f be c9 d4 3c c1 f6 43 3a 66 c8 37 bd
       0.59309626 0.025975104 0.0007475429 -0.04486885
0003c0 36 6e aa 3b 61 92 91 3e 49 76 ad bd 6c 53 8a b9
       0.0052011264 0.2843199 -0.08469827 -0.00026383565
0003d0 80 70 9d bd b5 3b ea bc 3f 61 68 3e 45 d3 c4 3d
       -0.07687473 -0.028592924 0.22693346 0.09610609
0003e0 19 43 c9 bc bb be 13 bf 5f 59 ea 3c bf 7c 2e bf
       -0.024568127 -0.57712907 0.028607069 -0.681591
0003f0 f2 b3 9e bc 1b 86 9e 3e 8b 22 0d be c4 5d d7 ba
       -0.019372914 0.3096169 -0.13782708 -0.0016431143

bias f4 [60]
000000 df ab 17 38 c5 22 9f 37 70 65 ab 38 c5 0b ca b8
       3.6161273e-05 1.8970468e-05 8.1728096e-05 -9.634303e-05
000010 89 75 50 39 7a 96 e7 b7 01 6d e1 36 3b 63 6b 38
       0.00019880211 -2.7607417e-05 6.7182123e-06 5.612078e-05
000020 8f bb 68 38 48 a4 91 38 4c 27 05 39 76 08 9c b7
       5.5487788e-05 6.9447386e-05 0.00012698508 -1.860059e-05
000030 79 ad c6 38 e0 bd 5a b8 c7 87 ac 37 c4 0a f7 b7
       9.4736875e-05 -5.2152085e-05 2.0567224e-05 -2.9449708e-05
000040 72 b4 f2 37 22 dd 91 37 d1 8b 42 39 74 a4 88 38
       2.8932674e-05 1.738832e-05 0.00018553367 6.515617e-05
000050 ba 91 a2 b7 4d a7 83 38 be 3b 07 39 22 07 41 b8
       -1.9379764e-05 6.277729e-05 0.00012896859 -4.602143e-05
000060 b4 84 d0 37 6b ce 86 b8 95 f2 56 39 f3 2e cb b8
       2.4857327e-05 -6.428066e-05 0.00020498999 -9.688539e-05
000070 9b 29 a8 38 6f ea 90 38 42 8a 0f 36 d1 21 50 38
       8.018614e-05 6.910122e-05 2.1389137e-06 4.962256e-05
000080 69 0d a2 37 7d 98 ff 38 03 62 c5 37 1d b1 26 38
       1.931815e-05 0.00012187751 2.352987e-05 3.9742434e-05
000090 f9 ae 2e b8 61 4d 19 38 3e 07 0d 39 c6 ac be 38
       -4.164779e-05 3.6550107e-05 0.00013449506 9.0920876e-05
0000a0 d8 33 73 39 e6 07 f5 38 d8 d5 6b 38 de 6d 1e 39
       0.00023193599 0.000116839816 5.6227524e-05 0.00015108983
0000b0 23 d3 79 38 61 de 46 b6 86 9e ba 38 72 9b 0d 39
       5.9562863e-05 -2.963374e-06 8.8986984e-05 0.00013504716
0000c0 c9 f8 84 39 e3 d4 3a 39 7d 78 fd b7 f4 61 71 39
       0.0002536236 0.00017817649 -3.0216057e-05 0.00023020041
0000d0 51 75 fa 37 bf 22 56 39 6c 08 7b 38 3a 0f 56 39
       2.9856952e-05 0.00020421574 5.9850907e-05 0.00020414303
0000e0 dd 49 8f 37 26 d8 b8 38 5c e7 c5 b7 ab a3 47 39
       1.7081324e-05 8.8140645e-05 -2.3591965e-05 0.0001903909
