linearPredictionModels/db39/trainPredctionLocal/cleanedCombine.csv_wholeNetPrototype5_Epochs_10_ValidationLoss0.517397_lr0.0003_2023_08_14_09:33:12.pth (torch, 992679 bytes, 8 tensors)

weight f4 [512, 145]
000000 03 82 6d 3c 5e 24 f2 b8 26 4d 92 3d 06 89 4b 3d
       0.014496329 -0.00011546233 0.07143621 0.049691223
000010 ce cd 8a 3d 46 21 ef 3b 5f 59 31 3c b6 b5 14 3c
       0.067775354 0.0072976677 0.01082453 0.009076526
000020 b0 93 ce 3c 41 34 89 3a 34 55 71 bc 67 49 85 3d
       0.025216907 0.0010467843 -0.014729787 0.06508141
000030 b6 18 fb 3c f1 3e 38 bd d9 60 f0 bc eb 2a 68 bc
       0.030651432 -0.0449819 -0.029343056 -0.014170389
000040 b4 f4 a8 bd bf 6f 30 3d e7 da 32 bd 19 68 d8 bc
       -0.082497984 0.04307532 -0.043665793 -0.026416825
000050 0c 3b 9c bd 2c 6d 6d bc cf c3 73 bd ca 9a c5 3c
       -0.0762845 -0.014491361 -0.05951291 0.02412166
000060 33 63 a7 3d 7b aa cc 3b c2 fe 96 bd ce e2 ff bb
       0.081732176 0.006245909 -0.0737281 -0.0078090196
000070 5f 9c 7c 3d 36 1a 96 bc 9b f5 50 bd 91 b5 69 3c
       0.061672565 -0.018323045 -0.051015478 0.01426448
000080 ec 60 c0 3b 8d 32 76 3c 44 dd 76 bd bc d1 b3 3c
       0.005870929 0.015026701 -0.06026961 0.021950595
000090 0d 36 74 3d 8e 40 f1 bc 72 09 56 3c bf cb 8e 3d
       0.05962186 -0.029449727 0.013063775 0.06972455
0000a0 4b 0e d6 bc 7d 41 c2 3c c0 15 72 3d 96 9f 55 bd
       -0.026129862 0.023712868 0.059102774 -0.052154146
0000b0 d3 6c 86 3c ba d6 83 bd 33 66 44 bc ab 32 1e bd
       0.016409313 -0.0643744 -0.011987257 -0.03862254
0000c0 30 12 92 bd c2 3d ca bc bd cb f6 3c ba da c9 bc
       -0.07132375 -0.024687652 0.030126447 -0.02464043
0000d0 d8 28 64 3c d6 00 ca bd d3 da 11 bd 29 41 39 3d
       0.0139257535 -0.09863441 -0.035609078 0.045228157
0000e0 f7 69 86 3d ac da ed 3c cf 50 47 bd f7 a9 b4 bd
       0.0656318 0.029034935 -0.04866105 -0.08821481
0000f0 9b e2 62 bd 90 93 db bd db 21 49 bd f0 f3 3d bd
       -0.05539189 -0.10721505 -0.049104553 -0.046375215
000100 83 48 26 3c 48 23 99 3d b7 03 f5 bc d0 78 6b 3d
       0.010149124 0.074774325 -0.029908998 0.057488263
000110 66 d7 53 bd 0a d8 b3 3c dc c5 8f 3d 6b 3e 54 bd
       -0.05171909 0.021953601 0.070201606 -0.05181734
000120 63 6a 50 3c b7 33 33 3d 1b 47 ee bc 0b 88 85 3d
       0.012720677 0.04375049 -0.02908664 0.06520089
000130 cd f4 39 3d 4e 18 d4 3b 57 35 3a 3d a3 88 ec 3d
       0.045399476 0.006472624 0.045461025 0.11549499
000140 1b 73 f2 bc fa 35 e4 3c 3d 0d 93 3d 56 ec 6d 3d
       -0.029595902 0.02785777 0.071802594 0.058086716
000150 93 8c 93 bd a4 df be 3a 45 6a c7 3c 7a 2d 25 3c
       -0.07204547 0.00145625 0.024342665 0.010081643
000160 ea dc 1e 3c 05 c1 0c 3d 54 83 69 3d df bb 4d bb
       0.009696225 0.034363765 0.05701001 -0.0031392497
000170 4f 10 9d bb f4 5d 7c 3d f7 46 39 3d 5a cb 6a 3d
       -0.004793204 0.06161304 0.045233693 0.057322837
000180 ac 70 2b 3d bd b4 1a bd 44 11 16 bc 99 62 c0 bc
       0.0418555 -0.03777002 -0.00915939 -0.023484515
000190 b6 07 42 bc 98 c5 02 ba b6 e6 82 3d 6a 9f 26 bd
       -0.011842659 -0.000498855 0.06391661 -0.040679373
0001a0 c3 0d 2e bd 6a e9 c2 bc 10 74 01 3b 99 7a d8 3b
       -0.042493593 -0.023792941 0.0019753017 0.0066064117
0001b0 6e b6 05 bd c1 ff a5 bd 13 a2 cd 3a 97 85 2f 3d
       -0.03264468 -0.08105422 0.0015688561 0.04285201
0001c0 c6 a8 b3 bc 7b 03 0e 3d fe 19 42 3c da 81 3d 3d
       -0.021931063 0.034671288 0.011847017 0.046266414
0001d0 ef 5d 7e bd a6 d3 87 bd 87 b9 92 3d ab de 31 bb
       -0.0621013 -0.066321656 0.07164293 -0.0027140777
0001e0 ae fa fb 3c 76 61 a3 bc 33 68 83 bd c2 d6 91 bb
       0.030759182 -0.019943934 -0.06416359 -0.00445065
0001f0 64 e0 16 3d 74 94 54 bc af cd 43 bd 1a 45 64 3d
       0.03683509 -0.012974847 -0.047803577 0.055729963
000200 e1 1e c5 3c e1 3e a6 3c 36 fd af 3c 6d 9e 7c bd
       0.024062576 0.020293655 0.021483045 -0.061674524
000210 17 0d aa 3d 4b b1 52 3c dd 49 0a 3d 08 bf 40 3d
       0.08303278 0.012859653 0.033761848 0.04705718
000220 d5 7f 5b bd 93 6c a6 bd 6b a3 bb bc 2d 6c 93 bd
       -0.053588707 -0.08126178 -0.022905072 -0.07198367
000230 6e ee 70 bd dd 07 fc bb 85 67 66 bd 1a a8 23 3d
       -0.058821134 -0.007691367 -0.056251068 0.039955236
000240 6a 7f 41 3d 53 ef 40 bd 39 c9 02 3c d3 af a8 bc
       0.047240652 -0.047103237 0.0079825455 -0.020591652
000250 e7 8e 3c bc 0b da 20 bd 99 24 c6 bd 06 8f 08 bd
       -0.01150868 -0.039270442 -0.09674949 -0.033339523
000260 13 b9 11 bd af d1 12 bd 3d 97 86 3c a0 30 55 bd
       -0.03557689 -0.0358445 0.016429538 -0.052048326
000270 e8 9d 1f 3d 17 3a 08 bd e3 0d 27 bc b6 c2 81 bd
       0.03896895 -0.033258524 -0.010196182 -0.06335966
000280 13 67 a8 bd 56 f2 77 bc 9b f9 78 bd 83 9d 4c bc
       -0.08222785 -0.015133461 -0.060784917 -0.012488726
000290 2c 09 9d bd c7 d1 22 bd 0e 69 c8 bb ad 37 68 3c
       -0.07667765 -0.03975084 -0.006116039 0.01417343
0002a0 d5 1b 27 bd d1 d6 da ba 5e 83 c1 bc 39 87 6b bc
       -0.040798027 -0.00166961 -0.023622211 -0.014375501
0002b0 00 34 89 3c cf 8c 6e 3d a0 e9 02 3d 9f 62 f4 bc
       0.016748428 0.058239754 0.031961083 -0.029832182
0002c0 20 a6 0c 3d f4 0b 1d bd 6d bd 4c bd f9 9f 12 3c
       0.034338117 -0.038341478 -0.049985338 0.008949273
0002d0 c4 2a b5 3c b2 df 63 bd c2 98 15 3b ef aa 2e bc
       0.022115119 -0.055633254 0.0022826646 -0.010660871
0002e0 b0 37 a1 bc 65 53 b9 bd 5c 6f af bd cf bf 95 bc
       -0.019679874 -0.09049109 -0.08566162 -0.018279938
0002f0 b4 68 14 bd 4a cd 85 3d a0 ec a0 bc 67 a0 8a bd
       -0.036232665 0.065332964 -0.019644082 -0.067688756
000300 cc 2c a7 bd bc 90 9c bd e0 6c 6f bd 97 18 1b 3d
       -0.08162841 -0.076447934 -0.05845344 0.037865248
000310 ab 5e 8b bd 5f 67 dc bd dc 4a a9 3d ee 87 12 3d
       -0.06805166 -0.10761904 0.082662314 0.035774164
000320 8e 03 11 bd 63 89 e7 3c 00 3e a7 bd bf 93 70 bd
       -0.03540378 0.028263753 -0.081661224 -0.05873465
000330 21 ec 39 3d 44 53 a6 bd ad ae 46 3d 1e ac f5 bc
       0.045391206 -0.081213504 0.048506428 -0.029989298
000340 04 31 45 bc 33 1f 2e bd 1d 61 ff 3b 34 0b ac bd
       -0.012035612 -0.042510223 0.007793559 -0.08400574
000350 53 75 dc 3c db 94 a5 bd 6f d4 dd 3c b0 3d cf 3c
       0.026911413 -0.080850326 0.027078835 0.02529797
000360 7d 74 b6 bc 56 2f e2 bc d5 81 42 3d 56 ae 6a 3c
       -0.022272343 -0.027610462 0.0474871 0.0143237915
000370 4d 05 a1 3c 21 0c 54 bd db 07 d2 3b 1a f4 99 bd
       0.019655848 -0.05176938 0.006409628 -0.07517262
000380 b0 a6 76 bd 28 98 8c 3d 98 32 86 bc c3 e7 d7 3c
       -0.06021756 0.06864959 -0.016381547 0.02635563
000390 2e 07 88 3d 73 f6 b0 3c c6 e6 9b bb 91 11 88 bc
       0.066419944 0.021601891 -0.004757735 -0.016609939
0003a0 d3 53 24 bd 0e da 77 ba c9 54 47 bd 53 6b 3d bd
       -0.040119004 -0.0009454795 -0.04866484 -0.04624493
0003b0 10 86 6b 3d 27 45 1b bd 88 6e 99 bd 3a 62 1e 3d
       0.0575009 -0.037907746 -0.07491785 0.038667895
0003c0 54 e8 aa 3d 12 cf 8c bd 2f 00 67 bb 4d 41 7d bd
       0.08345094 -0.06875433 -0.0035247912 -0.061829854
0003d0 c2 13 84 bd 6e 31 63 bd 35 d6 db bc 6f a7 15 bd
       -0.06449081 -0.05546706 -0.02683554 -0.03653663
0003e0 c3 8a c8 bb 34 5a 77 bd 63 52 bd 3c c4 4c 59 3d
       -0.0061200573 -0.06038876 0.023110574 0.053051725
0003f0 0b cb a8 bc 10 3c 12 bd 29 63 1e bb 93 1e 49 bd
       -0.020604631 -0.03570181 -0.002416799 -0.049101423

bias f4 [512]
000000 46 e9 af bd fc 69 32 bc d3 47 25 bc 7f 51 89 3d
       -0.08589415 -0.010889526 -0.010087925 0.06704997
000010 a3 5e c6 bd 89 f7 61 bd 52 91 df bc df 26 8b 3c
       -0.09686019 -0.05516771 -0.027290974 0.016986309
000020 38 db 88 3c 72 85 6a bd c9 68 77 bb d6 ca 80 bd
       0.016706094 -0.05725617 -0.0037751666 -0.06288688
000030 7d 9e 43 3d 0d 2c 1c bd ad db 28 bd eb f7 18 ba
       0.047758568 -0.038127948 -0.041225124 -0.00058352825
000040 70 30 06 bd b0 13 98 bd 95 61 67 bd fd 86 7c 3d
       -0.032761037 -0.0742563 -0.056489546 0.061652172
000050 0f 70 f1 bc 9f 1c 22 3d 8d c8 c9 bc d6 fe 9c bb
       -0.029472379 0.039578076 -0.024631763 -0.004791121
000060 8c 55 4f 3d e7 ec 2d 3d 8f fc 79 3d fb b1 2e bd
       0.050618693 0.042462256 0.061031874 -0.042650204
000070 a2 21 9f bd 34 c9 3f bd 6c 74 3a bc 79 e1 51 3d
       -0.07770087 -0.04682274 -0.011380296 0.051240418
000080 76 e9 22 3d 0e b7 6a 3d 98 cd 56 3d 40 c2 00 bc
       0.039773427 0.05730348 0.052442163 -0.007858813
000090 f2 f1 4c bd ca f4 79 3d 9a ea 02 3d 79 91 a6 3c
       -0.050035425 0.061024465 0.031962015 0.020333039
0000a0 03 74 90 3c 7a b5 8d bd 71 c6 32 bd 03 f9 1f 3d
       0.017633444 -0.069193795 -0.04364628 0.039055835
0000b0 0e f9 7d bd cd 7d aa 3c 1c 72 95 3d d5 33 92 3d
       -0.062005095 0.02081194 0.07297155 0.071387924
0000c0 f6 c7 47 3d 8d 6f 75 3d 84 05 bb 3c 72 48 07 bd
       0.048774682 0.059920836 0.022829778 -0.033028074
0000d0 eb 45 c0 3d f4 48 8e bd f5 e9 f8 bc 4c d1 ac 3c
       0.09388336 -0.069475085 -0.030384997 0.021095894
0000e0 21 5e 8c 3d e1 3e 7f bd 39 07 61 bd b1 6e 88 3d
       0.06853891 -0.062315825 -0.05493853 0.06661738
0000f0 b1 c7 0a bc b1 d7 7c bd 56 bd f6 3c c3 bf 8e bd
       -0.008470462 -0.061729137 0.03011958 -0.069701694
000100 c0 b5 83 bd 37 28 4d bd fc 05 17 bd a6 e2 c0 bc
       -0.064311504 -0.05008718 -0.03687094 -0.023545574
000110 21 cd 0b bd 78 53 1e bd b7 fc 77 bd c4 b2 b3 bd
       -0.034131173 -0.03865382 -0.060543742 -0.08774331
000120 d1 ce 82 3b 15 a7 19 3d 9d 69 a0 bc 79 c6 86 3d
       0.0039919396 0.037512857 -0.01958161 0.065808244
000130 5c 46 50 bd 02 3d 7f bd a7 e3 4d 3d d7 cf dd bc
       -0.05084835 -0.06231404 0.050265934 -0.027076645
000140 ab 59 80 3d 1e b4 8d 3d c6 46 fc 3c 31 44 a1 3d
       0.06267103 0.0691912 0.030795466 0.078743346
000150 f0 2a f8 3c 76 0e 6f 3c 62 00 1c bd 4b 7c 19 3c
       0.030293912 0.01459085 -0.038086303 0.009368013
000160 a0 07 c5 bc e8 49 50 3d 61 b2 99 3d df 17 3f bc
       -0.024051487 0.050851732 0.07504726 -0.011663406
000170 2f a2 af 3c f5 ff 0a 3d d6 83 58 bd 0a 69 42 bd
       0.02143964 0.033935506 -0.052860104 -0.047463454
000180 51 23 88 3d bd 36 06 bd 3a a1 6b bd 3f a4 81 bd
       0.06647361 -0.032767046 -0.057526805 -0.063301556
000190 a7 a2 91 bd 32 d7 84 bd 74 fb 2d 3c aa 78 21 3d
       -0.071111016 -0.06486358 0.010619033 0.039421715
0001a0 14 ef 71 3d 6f 22 0e bd 75 73 09 bc 80 70 29 bd
       0.059065893 -0.034700807 -0.0083893435 -0.041367054
0001b0 89 4f a6 3d c0 b4 2c bd 63 ca c5 bd c2 14 a7 bb
       0.08120639 -0.042164564 -0.09657743 -0.00509891
0001c0 9c 25 ac 3c a6 10 8c 3d e5 02 82 3d 97 e3 38 3d
       0.021014027 0.06839113 0.06348208 0.04513892
0001d0 a5 9b 0e 3c 98 4d 18 3d 70 8c 22 bd 0d c8 4f 3d
       0.008704101 0.037183374 -0.039684713 0.050727893
0001e0 7c c3 d5 ba d0 7d a2 3d 70 26 54 3c 1e 4f ba bc
       -0.0016308869 0.07934153 0.012948617 -0.022742804
0001f0 72 0b ad bc df 7e 68 bd 94 cd 70 bd 26 ec 50 3d
       -0.021123622 -0.05676162 -0.058789805 0.05100646
000200 db 0e 97 bd e8 e1 fe bc d5 f1 95 bd 94 40 a8 bd
       -0.0737588 -0.03111358 -0.073215164 -0.08215442
000210 bd 73 5e bd 60 0a 2f bc bd fb a1 bd 1a b0 36 3d
       -0.054309595 -0.010683626 -0.079093434 0.044601537
000220 b0 d1 93 bd ba 1f 82 bd 9e 05 97 bd 4c 8f 85 bc
       -0.07217729 -0.063537076 -0.07374118 -0.01630368
000230 38 81 5f bd 11 3f e0 bb 11 39 6e 3d 29 0d 6b 3d
       -0.054566592 -0.0068434556 0.05815989 0.057385597
000240 28 24 48 3d 5e 8d 96 3b 1d 38 8d 3d ca 0f 54 3c
       0.048862606 0.004594489 0.068954684 0.0129432175
000250 c2 30 a3 3d ab 44 99 bd 86 83 9f 3c b1 55 74 bc
       0.07968284 -0.074838005 0.019471895 -0.014913009
000260 ec 24 e6 bc 09 e8 f0 3c d7 f1 12 bd da 19 45 3d
       -0.028093778 0.029407518 -0.035875168 0.048120357
000270 b2 95 4c bd fe 55 20 ba ba 87 9e 3d e7 7b 3a bd
       -0.049947448 -0.00061163295 0.077407315 -0.04552832
000280 8d af 8b bd 8b 3c b9 bc 9c 48 93 bd 3a 4f 5e 3d
       -0.06820593 -0.022611877 -0.071915835 0.054274775
000290 33 92 23 bd f0 6f 57 bd cb f9 30 bd 79 be b1 bd
       -0.03993435 -0.052596986 -0.04320697 -0.08678908
0002a0 95 ab 36 3d fe 70 84 3d 62 88 40 3d 63 72 1c 3b
       0.044597227 0.06466864 0.047005065 0.002387189
0002b0 6e 8e 2f 3c 5d d1 a1 bd 9d ba 2f 3d f5 a7 2d 3c
       0.01071511 -0.07901261 0.042902578 0.010599126
0002c0 7c b1 99 bd 84 c1 3c bd 45 a0 61 3d 34 fc 52 bc
       -0.075045556 -0.04608299 0.055084486 -0.012877513
0002d0 cd b0 ba 3d 84 2f 85 3d d3 8a 0d bd e8 f5 6c 3c
       0.09115753 0.065032035 -0.03455622 0.0144629255
0002e0 e7 03 2e bd 87 ed 97 3c 5c 66 a7 3d 9f 59 61 3d
       -0.04248419 0.018545879 0.081738204 0.05501711
0002f0 f9 86 8b 3d 7c ba 4d bd d9 38 47 bb 26 94 e1 3c
       0.06812853 -0.050226673 -0.0030398874 0.027536463
000300 f0 d6 9a bd 4e 8c a9 b8 80 18 7a bd 95 38 1b 3c
       -0.07560527 -8.084682e-05 -0.06105852 0.009473939
000310 3e e7 5d 3c 0a 21 c5 bc 8e 31 87 bd 1a f9 98 3d
       0.013543902 -0.024063606 -0.06601249 0.07469387
000320 7d aa 91 bd 94 b8 71 3d 87 95 3d bd 95 d3 26 bc
       -0.07112596 0.059013918 -0.04628518 -0.010182281
000330 d1 fc 4c bd 8a c6 f4 bc c7 a3 bb bc 90 5c 1e bd
       -0.050045792 -0.029879827 -0.022905244 -0.038662493
000340 ef 8d ea bb 62 8c 84 bd c4 0d 19 bd 3e aa 8a 3c
       -0.007158033 -0.064720884 -0.037366644 0.01692688
000350 aa ae 89 bd 8f 36 9b bc 85 28 ac bc db 77 40 3d
       -0.06722768 -0.018946914 -0.021015415 0.046989303
000360 6c 93 9a bd 3f f2 4c 3d 9c 25 6d 3c bf 77 0f bc
       -0.0754765 0.05003571 0.014474299 -0.008756577
000370 37 e3 69 3c 9e 95 97 bd 65 07 8b 3d 9c bb 14 bc
       0.014275364 -0.07401584 0.0678852 -0.009077933
000380 5f c0 b6 bc f4 41 39 3c 12 b4 e9 bc ca 18 a0 bd
       -0.022308527 0.011307228 -0.028528247 -0.07817228
000390 c0 9b 65 bc a4 9c 2f 3d 9b 9b 4a 3d 19 85 62 3c
       -0.0140141845 0.042873994 0.049464803 0.013825678
0003a0 2f 96 66 3d b6 d8 9a 3d 89 03 4a 3d a7 64 d7 3c
       0.05629557 0.075608656 0.049319778 0.026293112
0003b0 37 ff ad 3c cc ab 33 bc 0d e6 22 3d ea a7 54 3d
       0.02123986 -0.010966253 0.039770175 0.051917948
0003c0 7d e3 64 3c cc c5 f2 bc fd 19 72 bd 8f a5 7e bd
       0.013970253 -0.029635333 -0.059106816 -0.062169608
0003d0 7e bd ac 3c 29 a7 5a bd d0 54 32 bd d1 84 1e bd
       0.02108645 -0.053382073 -0.043537915 -0.038700882
0003e0 6a 8c 43 bd 36 80 8e 3d 48 6b 00 3d bf 72 55 bd
       -0.04774133 0.06958048 0.03135231 -0.052111384
0003f0 04 23 50 3b 02 55 89 3d 34 97 8d 3d 54 4f b0 3d
       0.0031759152 0.06705667 0.06913605 0.08608881

weight f4 [256, 512]
000000 c9 e3 b2 3c 3d 72 06 bc e1 ed cb 3b b2 4c 83 bb
       0.021837132 -0.0082059475 0.0062234257 -0.0040069455
000010 cc f2 98 3c b6 69 d6 3b c7 3d 6d bc 3c f6 04 3d
       0.018670462 0.0065433634 -0.014480061 0.03246139
000020 26 7e 46 bd 3e 60 d5 bc 19 1a 39 3c 05 61 01 bd
       -0.04846015 -0.026046868 0.011297726 -0.031586666
000030 d8 ab ca 3c 5a 26 df 3c f1 fd b4 bc 46 ca 84 3c
       0.024740145 0.027239967 -0.022093745 0.016209733
000040 e5 b8 09 bc 10 d2 96 3c 74 75 c4 bc 30 05 3a bd
       -0.008405899 0.018410712 -0.023981787 -0.045415103
000050 a6 52 58 bd 5e ea eb bc 44 da 4f bd c6 94 ab 3c
       -0.052813195 -0.028798278 -0.050745264 0.020944964
000060 88 3e d9 bc 8a 0f 14 bc c5 d0 11 bd 70 62 04 3d
       -0.026519075 -0.009036908 -0.03559949 0.03232044
000070 5c 52 ff bb 40 60 38 bd f9 19 23 bd e0 2a 1a 3d
       -0.0077918004 -0.045013666 -0.03981969 0.037638545
000080 ea ad 08 3d d1 3a 26 bd 08 96 aa 3c 57 33 38 bd
       0.033368982 -0.040583435 0.020823494 -0.044970836
000090 53 fa 16 bd 45 79 9d 3c ba 79 4c bc 32 6f 37 3c
       -0.03685982 0.019222865 -0.012480194 0.011195945
0000a0 e5 13 02 3d d6 3d 63 bc da ff ed 3b ef 28 e8 ba
       0.031757254 -0.013869723 0.007263166 -0.0017712394
0000b0 ea f9 cb bc 29 0d 5f 3c b0 5a ec bb 89 03 c6 3b
       -0.024899442 0.0136139775 -0.007212959 0.006042902
0000c0 6d b8 b3 bc c9 95 f7 3c e7 22 9f bc c7 99 a3 3c
       -0.021938527 0.03022279 -0.019425822 0.019970788
0000d0 d6 b0 29 bc 97 43 07 3c 12 38 3e bd f9 44 91 3b
       -0.010357102 0.008255861 -0.04644019 0.004433271
0000e0 37 49 05 3d ac 4f d9 3b f5 ce e1 ba 6a 96 e8 bc
       0.032540526 0.006631812 -0.0017227816 -0.028392036
0000f0 19 25 a1 bc 96 92 cc bb a9 fa fe 3b ad fb 51 3c
       -0.01967101 -0.0062430603 0.007781346 0.012816352
000100 b1 74 1c 3d af 75 ab 3c 20 d0 8f 3c 1a 2e 18 3b
       0.038197223 0.02093014 0.017555296 0.0023220838
000110 e0 87 84 3c 71 15 fd bb 51 6b aa bc 0c 00 32 bc
       0.016178071 -0.0077235033 -0.020803126 -0.010864269
000120 57 b0 f2 bc e0 90 71 bc 62 02 8c 3b 33 86 a6 bb
       -0.029625101 -0.014744014 0.004272745 -0.0050819158
000130 2b ff 19 3d e2 df 32 bd a7 3d 52 3b 53 95 e2 bb
       0.037596863 -0.043670543 0.0032080205 -0.0069147735
000140 7d 74 08 bd ea 38 a7 bc 2e 56 ca bb 7a c7 9e 3c
       -0.033314217 -0.02041288 -0.006174824 0.019382227
000150 0b 76 f4 3c 6f 50 a5 bc 10 ef 04 3c 4b c4 66 3c
       0.029841444 -0.020179955 0.008113638 0.014084886
000160 bc d1 8a 3b f4 4f 80 3c 64 3f 19 3c c4 5a c5 bc
       0.004236428 0.015663125 0.009353492 -0.024091132
000170 a1 b6 c8 ba cd 42 15 3d 92 89 02 3c 22 1b 8c 3a
       -0.0015313217 0.03644066 0.00796737 0.0010689239
000180 aa 74 5c bc 44 83 16 bd ad 27 1e bc 46 4a a5 bc
       -0.013455549 -0.03674628 -0.009653014 -0.020177018
000190 ed 80 13 3d 05 93 06 3c d6 b0 3f 3b d4 cf 43 bd
       0.036011625 0.008213763 0.002924969 -0.047805622
0001a0 5e 24 a8 3c 11 85 14 bb b7 f2 e0 bc 6a 33 74 3c
       0.020525154 -0.0022662322 -0.027459485 0.014904836
0001b0 d3 8f 04 bd 95 c9 a1 3c 82 c4 64 bc ad 69 8b 3b
       -0.032363724 0.019749442 -0.013962867 0.004254541
0001c0 23 c8 0e 3d 73 db 81 3c 7a 2f 34 bd b7 ad b0 bc
       0.034858834 0.015851712 -0.04399059 -0.021567209
0001d0 dd e9 1c bd d0 0d 0b 3d 24 c4 95 b9 a5 db 99 3c
       -0.038308967 0.03394872 -0.0002856563 0.018781492
0001e0 04 b9 e9 bb 77 11 5e 3c 8c 1a 3e bd f5 22 22 3d
       -0.0071326513 0.013553969 -0.046412036 0.03958412
0001f0 83 85 81 3b 69 1e 27 bd d2 ae fc bc ea 73 e8 3c
       0.0039526834 -0.040800486 -0.03084508 0.028375585
000200 eb 75 08 3c 7e 86 f9 3c 50 28 9f bc 0e 24 32 bd
       0.008328895 0.030459639 -0.019428402 -0.043491416
000210 d5 12 54 3c 14 ed b0 bc 00 e5 f6 3c 38 27 22 bd
       0.012943943 -0.021597423 0.030138493 -0.039588183
000220 cb 08 d2 3c 44 b9 7b bc 53 ee 6a bc 23 26 dd bc
       0.025638958 -0.015363995 -0.0143390475 -0.026995724
000230 95 81 a7 3b f7 21 70 bb c9 d1 1d 3d f3 95 b3 3c
       0.005111883 -0.0036641338 0.038530145 0.021922087
000240 e6 99 ba 3a 17 77 22 bd b9 28 d6 bc 31 16 97 bc
       0.0014236539 -0.039664354 -0.026142465 -0.018443199
000250 37 66 96 3c c5 02 f9 bb 1e 1b ef 3c aa 21 e6 3c
       0.018359287 -0.007599207 0.029187735 0.028092224
000260 ed 7c 84 3c 76 7a e5 3c 09 18 9a 3c 89 b6 2b bd
       0.01617285 0.028012495 0.018810289 -0.041922126
000270 de df 50 bb 6e 6a ce bc cd 6d 5a bc ef d1 48 bd
       -0.0031871716 -0.025197234 -0.013331843 -0.049028333
000280 25 73 20 bd fe ef fe bc c6 b5 ed bc 82 0c 56 3c
       -0.03917231 -0.031120297 -0.02901734 0.0130645055
000290 0d 77 83 bc ab a3 ea bc 84 67 de bc b6 28 13 3d
       -0.016047979 -0.028642496 -0.02714897 0.035927497
0002a0 fa 7b 95 3b 18 f4 29 bc cb a9 14 3c ef 70 96 3b
       0.0045618983 -0.010373138 0.009073685 0.0045910995
0002b0 c0 0b 23 3c 73 6e 55 3c 61 a7 33 3c 68 ed 40 bd
       0.009951532 0.013026821 0.010965199 -0.04710141
0002c0 4d 01 42 bd e6 22 f9 3c 2a 8d b4 bc ad 16 1d bd
       -0.04736452 0.030412149 -0.022039969 -0.038351703
0002d0 31 af 7d 3a e5 f3 7c 38 c6 73 11 3d 0b 7b b2 3c
       0.00096772896 6.0308626e-05 0.0355108 0.021787187
0002e0 f7 d6 8a bc 1b 47 90 bc 91 20 1c 3d 98 81 49 bc
       -0.016948206 -0.01761203 0.038116995 -0.012298964
0002f0 95 66 15 3d 54 7b 26 bd 2e 9b e0 3c c3 cf 36 37
       0.036474783 -0.04064496 0.027417745 1.0896419e-05
000300 f7 9a c0 3c f4 43 be bb bc 01 87 bc c7 e4 8e bc
       0.023511393 -0.0058064405 -0.01648032 -0.017443074
000310 dc e7 f0 3c b5 c2 6a bc 25 e2 82 bc 7f a6 98 3c
       0.029407434 -0.014328648 -0.015976975 0.018634079
000320 16 f5 fe bc 39 1d 3f bc 59 27 3d bd df 59 52 bd
       -0.031122725 -0.011664682 -0.046180103 -0.05135524
000330 09 83 ea bc b7 6f 5f bc e9 f0 5b bc a6 fc 7b bb
       -0.028626936 -0.013637475 -0.013424137 -0.003845015
000340 2a 5c 8c 3b 28 07 96 bc e3 35 bf 3b 58 9c 1c bd
       0.0042834477 -0.01831396 0.005835281 -0.03823504
000350 23 b3 7d bb 0c bd 80 3c f9 07 80 3c f7 80 3b bc
       -0.003871151 0.015715145 0.015628802 -0.011444322
000360 73 35 00 bd c8 36 4c 3c 30 42 93 3c 26 12 a7 ba
       -0.031300973 0.012464233 0.017975897 -0.0012746498
000370 dc 3b 22 bd 9d 71 d7 bb 82 a8 25 bd 65 8e 6d bc
       -0.039607868 -0.006574823 -0.040443905 -0.0144992815
000380 05 6a 99 ba c8 f5 0c 3d fd 1c 94 bc be 71 33 bd
       -0.001170457 0.034414083 -0.018080229 -0.043809645
000390 98 ff c9 bc ad 57 b1 3c 05 79 cd 3c a1 70 b6 bc
       -0.02465801 0.021648252 0.02508212 -0.022270503
0003a0 8d ed 12 3d 57 dd 99 bc 34 f9 04 bd f1 28 22 3c
       0.035871077 -0.0187823 -0.03246422 0.0098974565
0003b0 a9 40 8e bc 37 ba 26 3d 02 70 38 bd 72 52 98 3c
       -0.017364817 0.040704932 -0.045028694 0.018594
0003c0 d2 4e 34 3c ff 71 1b bd d0 47 d3 bc fb 9e 0e 3d
       0.01100512 -0.037950512 -0.025791079 0.034819584
0003d0 9a bc e4 3c fb 63 43 bd 27 a1 f6 3c fa 6f 3b bd
       0.027921963 -0.04770277 0.03010614 -0.045761086
0003e0 71 e3 e0 3c 62 67 8a bc 36 b9 e3 3b 3f d9 7d 3b
       0.027452203 -0.016895 0.006949569 0.0038734225
0003f0 62 b0 07 3c de 01 cd bc 5e 72 91 3c 6c 8f 23 bc
       0.008281799 -0.025025304 0.01775473 -0.009982925

bias f4 [256]
000000 b2 20 7c 3b 01 45 f8 bc ae c9 1f bb 2d 1e 46 bd
       0.0038471636 -0.030306341 -0.0024381685 -0.04836862
000010 56 d6 8f bb fa 81 13 bc 8e 1c d7 3b 41 57 1b bd
       -0.0043895645 -0.009003157 0.0065646833 -0.03792501
000020 d3 9d dd 3b 72 57 97 3c 84 6d e7 bc 8e fa a2 3c
       0.006763199 0.018474314 -0.028250463 0.019894864
000030 2e c2 02 3c 02 d4 36 bd e7 8c 74 bc 57 2c 17 3c
       0.007980866 -0.04463578 -0.014926172 0.00922688
000040 8d c8 a7 bc d0 92 24 bd 22 89 fc bb 6e b0 c3 bc
       -0.020481372 -0.040179074 -0.007706777 -0.02388784
000050 61 84 4f 3c 71 77 bc 3c ec 30 0c 3c 94 14 c9 bc
       0.012665839 0.023006173 0.008556586 -0.024545945
000060 11 d2 09 bc 77 31 c1 bc 4e fa 98 bb bf 6f 72 bc
       -0.0084119 -0.023583157 -0.0046685105 -0.01479715
000070 23 4b 04 bd 2a 5c 72 3c 09 64 3b bd 9b 38 b3 3c
       -0.03229822 0.014792481 -0.045749698 0.021877578
000080 6d 73 02 bd f3 b2 07 3d 7e 97 20 3a 0e d1 d7 ba
       -0.03184836 0.033129644 0.000612609 -0.0016465501
000090 61 b9 31 3c bf d1 e4 bc 11 6e 4a bd ca 01 8b 3c
       0.01084742 -0.027932046 -0.049421374 0.016968627
0000a0 b0 59 07 bd 81 ad 06 bd 37 20 b0 bc 48 ac b6 3b
       -0.033044517 -0.03288031 -0.021499736 0.0055747367
0000b0 99 0d 72 3c a4 e9 30 3c 16 c6 10 bd 19 65 3b 3c
       0.01477375 0.010797892 -0.03534516 0.011437678
0000c0 a7 23 14 3d c1 99 ed bc 3e b5 6d bb e0 c4 48 3b
       0.036166813 -0.02900398 -0.003627136 0.0030634925
0000d0 81 60 e9 bc 0f 8d 38 3c 7f 3e 90 3c 14 80 45 bd
       -0.0284884 0.0112641 0.017607925 -0.048217848
0000e0 83 70 e2 bc 74 9c 0a 3c cf 4a 19 3c 0d 50 0e 3c
       -0.02764154 0.008460153 0.009356215 0.008686078
0000f0 ca 80 94 bb b4 33 d8 3a 9e 65 4d 3d 44 84 8b bc
       -0.0045319544 0.0016494901 0.050145738 -0.017030843
000100 22 a3 3b bd 13 6d 02 3d 9e 8e 65 bd 15 67 04 3c
       -0.045809872 0.031842303 -0.056044213 0.008081217
000110 f6 25 e0 3b e3 8f 08 3d 03 9e ec bc 22 c4 16 bc
       0.006840463 0.033340346 -0.02888394 -0.009202035
000120 25 7c 9d bb f9 bf 14 bd 41 72 a3 3b c4 16 f9 bc
       -0.004806059 -0.036315892 0.0049879854 -0.030406363
000130 d5 72 60 bb 62 93 fc 3c 50 bf c5 bc 00 3b 17 3d
       -0.0034248133 0.030831996 -0.024139076 0.0369215
000140 25 9b 33 bd 79 f3 f2 3c 63 52 3a 3c ff 57 c5 3c
       -0.04384913 0.029657112 0.011372182 0.024089811
000150 93 36 a9 3c 6c 00 10 bc cf de ec bc 0d 5b b8 3c
       0.020655906 -0.008789163 -0.028914837 0.022504354
000160 73 3e fc 3c 20 e9 c2 bc 4c 79 3f 3c 67 53 a5 bc
       0.030791497 -0.023792803 0.011686634 -0.02018137
000170 bc 1b 3e bd 5c 1f 8c bc 5a b3 1b bb c0 d6 d7 bc
       -0.04641317 -0.017104797 -0.0023758025 -0.026347518
000180 52 78 33 bd d1 56 45 bd c2 d3 ac bc f7 1b f6 bc
       -0.04381592 -0.048178498 -0.021097068 -0.030042632
000190 dc 9e 39 3a a0 f5 67 3c d4 32 34 3d 80 04 fd bb
       0.0007080862 0.014157683 0.043993786 -0.0077214837
0001a0 ad 0d ac bb 99 2c 28 bd 0b 5a bf bc 7d 9c f9 bc
       -0.0052506537 -0.041058157 -0.023358366 -0.030470127
0001b0 2c ff 06 3c 40 43 14 bc ac 4a 7d bc 3e ad d1 3c
       0.008239549 -0.009049237 -0.015459698 0.025595304
0001c0 63 d6 8f 3c 2e f2 f1 bc 41 de 8d bc f5 c3 0f bc
       0.017558282 -0.029534426 -0.017317893 -0.008774747
0001d0 ed a0 8a bc bd 93 19 bd 11 98 5f 3c 09 a3 a8 bb
       -0.016922439 -0.03749441 0.013647095 -0.0051463884
0001e0 41 5a d8 b9 bd 5f d7 3c 02 f3 31 bc 49 3f 07 bd
       -0.00041265975 0.026290769 -0.01086116 -0.033019338
0001f0 1b b5 c5 3c 2e fa 0a 3d 09 7e 61 bc 2b 9b a7 bc
       0.02413421 0.033929996 -0.013762959 -0.020459732
000200 59 a7 80 bc 38 b7 8e bc aa 75 46 3c da 0a 56 3c
       -0.015704798 -0.01742135 0.012113014 0.013064111
000210 f1 18 e0 bc 83 80 1a bc bc ee 56 3d fb 4b 01 3c
       -0.027355643 -0.009430054 0.05247377 0.00789165
000220 ed 36 df 3c 13 e7 b0 bc cb de 9e 3a c2 8d 71 3c
       0.02724787 -0.02159456 0.0012120841 0.01474327
000230 95 63 1e bd 1f f8 40 bc 1f 92 14 bd 21 3c 18 bc
       -0.038669188 -0.011777907 -0.036272164 -0.00929168
000240 e7 6a 2f bd 08 07 0c bc ec 84 09 3d 24 d1 92 bc
       -0.04282656 -0.008546598 0.03357403 -0.017921992
000250 f8 23 96 3a a7 da de bc a6 bc a5 bc 57 a0 4b 3c
       0.0011454811 -0.027203871 -0.020231556 0.012428365
000260 c6 f9 f0 3c 5b ce f0 3c b4 e7 06 3c 97 d1 1e bc
       0.029415976 0.029395273 0.008233953 -0.009693525
000270 b6 38 28 3d 0b aa f4 bc cb 96 23 3c f8 3b 89 bb
       0.04106971 -0.029866239 0.009984682 -0.004188057
000280 12 e4 b1 bb 4b 94 df bb 3f 97 9c bc cb d1 8e bc
       -0.0054287994 -0.006823098 -0.019115089 -0.017434021
000290 98 8a 2a 3c 5f bb fa bc 6c e4 17 bc bd 4e d9 bc
       0.01040902 -0.030606924 -0.009270769 -0.026526803
0002a0 98 5e 0c 3d 68 41 96 bb d4 3f 1b bd 56 b9 f4 bc
       0.0342699 -0.0045854338 -0.037902668 -0.029873531
0002b0 d2 6c a6 bc 30 78 6c bb a4 4c 99 3c a9 4a 40 bd
       -0.020315561 -0.003608238 0.018713303 -0.0469462
0002c0 a9 30 85 bc f8 1e 05 3c 73 2e 49 3c cb 65 29 3d
       -0.016258555 0.008125059 0.012279141 0.041356843
0002d0 59 45 81 3c c7 7e 3e bb 18 2f 1f bc ce d4 89 3b
       0.015780138 -0.0029067264 -0.009715818 0.0042062765
0002e0 5f f8 a3 3c 9e 01 9f bc 9f 61 d6 bb 54 1a 44 bd
       0.020015894 -0.01940995 -0.006542399 -0.04787667
0002f0 17 5b 21 3d 7b ca 8a 3c 21 a0 57 bc 1a 67 36 bd
       0.03939351 0.016942253 -0.013160736 -0.04453192
000300 80 34 d5 bc ee bf 35 bd bc fe a1 3c 8e 78 12 bc
       -0.02602601 -0.04437249 0.019774787 -0.008939875
000310 0a 21 48 bc 76 96 fa 3a 53 83 bd bc 06 29 0f 3d
       -0.012214908 0.0019118327 -0.02313391 0.034951232
000320 da b2 82 bb 6e ef 09 3c c8 90 e9 bc 15 14 8a bb
       -0.003988606 0.008418901 -0.02851142 -0.0042138197
000330 9b 9a 60 bc c7 59 bc 3c 92 66 6c bc d5 99 22 bd
       -0.013708736 0.022992028 -0.014428752 -0.039697487
000340 16 40 dc bc fe dd 5b 3c c8 2d 31 bd 60 bc d5 3c
       -0.026886027 0.013419626 -0.04325655 0.0260908
000350 d4 81 2f 3d 7e 50 90 3c 6c da d0 3b 18 f5 17 bd
       0.042848423 0.017616507 0.006373694 -0.037098974
000360 48 9e 00 3d 28 b6 4a 3c 45 5e 09 bd 46 98 34 bd
       0.03140095 0.012372531 -0.033537168 -0.04409053
000370 7a 4f 05 3d e1 05 db bc b7 49 01 3c 91 41 25 bd
       0.032546498 -0.026736202 0.00789111 -0.040345732
000380 12 56 31 3d df 0c 81 bb f3 5c 09 3d 59 28 4b bc
       0.043294974 -0.003938302 0.03353591 -0.012399756
000390 7f 84 bf bc 69 2a 28 bd b6 52 f8 3c b1 ca 3d 3d
       -0.023378609 -0.04105607 0.030312877 0.04633588
0003a0 14 d0 d2 bc 8e a8 fc 3c d9 d7 47 bc 25 b3 a8 3c
       -0.025733985 0.030842092 -0.012197458 0.020593235
0003b0 40 08 a7 bc 1e 80 1e 3d 62 28 e4 3c 06 4e 07 bd
       -0.020389676 0.0386964 0.027851287 -0.033033393
0003c0 a4 dc 5d bc 99 a2 36 3d 3d 92 b8 bb c0 8c 58 bc
       -0.013541374 0.04458866 -0.0056326673 -0.013217151
0003d0 0b 1c 09 3d 3a 09 82 b9 7e 1d 42 3c 29 eb 27 bd
       0.03347401 -0.00024802407 0.011847852 -0.04099575
0003e0 60 c4 a5 3c e1 95 b5 3c f9 fb ce 3c 16 de f9 bb
       0.02023524 0.022166194 0.025266634 -0.0076253517
0003f0 34 48 42 bd d0 74 30 bd 27 4c 7f 3c 4c e7 bb bc
       -0.04743214 -0.04308015 0.015582121 -0.02293744

weight f4 [128, 256]
000000 83 d8 96 3c 81 15 51 bd 6c c9 4e 3d 6e 78 b4 3c
       0.018413788 -0.0510459 0.05048506 0.022030082
000010 9d 83 a3 bc d8 0b 13 3d f1 2f 5a bb 6e 4e 56 bd
       -0.019960219 0.035899967 -0.0033292735 -0.05232089
000020 06 d3 f5 bc bc 9a 09 bc e5 d9 4f 3c 42 12 fd bc
       -0.03000785 -0.008398708 0.012686227 -0.030892495
000030 47 71 8b 3b 7a 8c 44 3d 45 52 c4 bc 40 29 c4 3c
       0.004255447 0.04798553 -0.02396501 0.02394545
000040 23 f1 eb bc 98 9e 4c bc fd a9 73 bd 20 63 87 bc
       -0.028801506 -0.012488984 -0.059488285 -0.016526759
000050 3f 42 3d bd a8 2e 4a 3d d8 66 0d 3d a0 b1 49 3d
       -0.046205755 0.0493609 0.034521908 0.049241662
000060 3a 41 56 3d 90 bb f3 bb b4 aa 9e 3d 10 03 ec 3c
       0.0523083 -0.0074381307 0.07747403 0.028810054
000070 f1 21 e3 bc 3f 46 b0 bc 65 6b 33 3d f9 e8 af 3c
       -0.027726145 -0.021517871 0.04380359 0.021473395
000080 28 b7 40 bc 43 5e 26 bd df bc 07 bc 69 5b 3c bd
       -0.011762418 -0.04061724 -0.0082847765 -0.045985613
000090 ac 5f 89 3c 63 18 c5 bc e1 9f 39 3d 57 0c 40 bc
       0.016769253 -0.02405948 0.045318488 -0.011721692
0000a0 6e aa 41 bd 15 dc 04 3d 23 91 1b 3c 66 46 13 3c
       -0.047281675 0.03243645 0.0094950525 0.008988952
0000b0 44 84 3b 3d 11 3b 8a 3c 99 f4 7e bd f5 f1 04 bc
       0.045780435 0.016873868 -0.062244985 -0.008114328
0000c0 bb b2 13 3d 04 77 c2 bc d1 cd 5d bc f7 a6 3e bd
       0.036059123 -0.023738392 -0.01353784 -0.04654595
0000d0 ae e8 0e bd 23 f6 2f 3c 5f ec 91 bd ef 23 35 3d
       -0.03488987 0.010739836 -0.07125162 0.044223722
0000e0 eb d9 ed bb 89 2c e6 bb 45 92 2b 3b 7a ec e6 ba
       -0.007258644 -0.007024352 0.0026179713 -0.0017618083
0000f0 a1 3f cb bc 46 03 f2 bc d7 80 2a 3d dd 65 82 bd
       -0.024810614 -0.029542577 0.041626777 -0.06367085
000100 60 40 09 bd f0 7a 9a 3b 0a 4b 0c bc d2 f4 74 bd
       -0.03350866 0.0047143623 -0.008562813 -0.05980379
000110 40 9a 0c 3d 1c f0 30 3d 54 e0 84 bd a0 4b 62 bd
       0.03432679 0.043197736 -0.064881 -0.055247903
000120 4c f8 dd 3b f0 74 8e bd c3 64 01 bd c5 c3 b1 b9
       0.006773984 -0.06955898 -0.031590234 -0.0003390593
000130 07 81 07 bd 18 24 40 bd b5 2a 76 3d 88 7c 3a 3d
       -0.033082034 -0.04690942 0.060099322 0.04552892
000140 cf 97 46 3c c0 ce 57 bc ec c4 85 bd a3 b9 46 bd
       0.012121155 -0.013171852 -0.065317005 -0.04851688
000150 07 7b 6d bc 3f d6 c1 bb 99 07 83 bc bf 1e 91 3c
       -0.014494664 -0.0059154327 -0.015994834 0.017714856
000160 29 8b b4 3a 35 f9 4a bd 32 9b bb bc d1 30 55 bc
       0.0013774383 -0.04955407 -0.022901151 -0.013012127
000170 48 da 9d 3c bd 82 6c bd 99 4f 45 3d 39 e7 0f 3d
       0.019269124 -0.05774187 0.048171613 0.03513262
000180 5a cf 73 3c d3 0a 84 bd 84 5f e5 bc 1c 65 0d 3d
       0.014880979 -0.06447377 -0.027999647 0.034520254
000190 fc b9 4e 3b 57 8f 0d 3c d7 53 b7 3c ba 83 84 bd
       0.003154396 0.008640132 0.022378845 -0.06470437
0001a0 37 bd 62 bc 15 d3 4d 3d 6f 8d bd bc 52 35 1d 3d
       -0.013839058 0.05025013 -0.02313873 0.03838093
0001b0 b1 bd ea bc bf 7b 42 bd 92 fa b7 3b 2d 8a 6a bc
       -0.028654905 -0.047481295 0.005614587 -0.01431517
0001c0 c1 3b e1 3b 1d 72 78 bd ba 4a ea bb a0 64 d4 bb
       0.0068735783 -0.060655702 -0.0071500214 -0.006481722
0001d0 a7 20 0a 3d 40 c6 a8 bb e2 c0 3d bd 37 a5 f1 3c
       0.033722546 -0.0051505864 -0.046326526 0.029497726
0001e0 41 02 46 bd a2 e4 4a bd 93 6e 2c bc f1 18 44 bc
       -0.048341993 -0.049534447 -0.01052441 -0.011968837
0001f0 8b 30 1d bd 5b 69 5e 3d 4b 8a 95 bd b9 0f ce 3b
       -0.038376372 0.054299694 -0.07301768 0.0062884954
000200 ff 80 a8 bc ec 87 8d bc 63 f0 48 3c 69 1d 2e 3d
       -0.020569323 -0.017276727 0.012264344 0.042508516
000210 fa f2 68 3d e1 d3 68 3d e1 c2 be 3c 13 e3 d8 bc
       0.056872346 0.05684269 0.023286285 -0.026475465
000220 37 00 4f bc 85 87 18 3d b4 46 14 bc 15 ad 8a bb
       -0.012634329 0.037238616 -0.00905006 -0.004232059
000230 0b 25 42 3d 65 83 81 bd 70 eb 50 3d 2b 10 01 bc
       0.04739861 -0.0632389 0.05100578 -0.00787739
000240 a3 67 42 3c 33 d2 31 bd d1 48 2d 3c f9 d8 cc bc
       0.011865529 -0.043413352 0.010576443 -0.025005804
000250 0c cd 3a bd 16 bb 12 bd d9 01 b0 3b 36 5b b4 bc
       -0.045605704 -0.03582295 0.005371314 -0.022016149
000260 eb 0b 27 bd e8 cd 92 3c 8d 5b 87 3b 19 69 2e bd
       -0.04078285 0.01792045 0.0041307868 -0.042580698
000270 ea ad 7d bd 31 cb 0a 3d 6d 1b 17 bd 44 66 fe ba
       -0.061933435 0.033885185 -0.03689139 -0.001940914
000280 96 2f 00 bd 84 d8 9b 3c 48 69 9a 3c 17 d7 70 3c
       -0.03129538 0.019024141 0.01884903 0.014699719
000290 78 9d 2a 3d 4a 00 79 b9 c2 47 29 3c cd ef 0c bd
       0.04165408 -0.00023746598 0.01033205 -0.03440838
0002a0 32 2d 1e bd b2 06 fc bb 5b 81 13 3c b6 68 30 bc
       -0.03861732 -0.007691228 0.009003009 -0.0107671525
0002b0 a5 11 98 bb e9 c7 11 3c 59 0e c8 3b bd 92 5e bb
       -0.0046407753 0.00889776 0.006105226 -0.0033961975
0002c0 50 45 58 bd 4e 4f f1 3c 8d d5 c9 bc 87 f5 fe bc
       -0.052800477 0.02945676 -0.024637962 -0.031122936
0002d0 b1 e7 ce bc 91 9b c9 bc 72 0d 41 bb 21 a8 72 3c
       -0.025256963 -0.024610313 -0.0029457477 0.014810593
0002e0 b0 c9 9b 3b e4 2d 55 bd da 69 22 bd 2d e3 11 3d
       0.0047542676 -0.052045718 -0.03965173 0.035617042
0002f0 41 1e 69 bb 7f 80 73 3d 97 17 67 3c 9a eb 7a bd
       -0.0035571011 0.059448715 0.014104745 -0.061259843
000300 ee 9a 1e bc fd a1 e4 3c 7a 6a a2 bc af a6 74 3d
       -0.009680493 0.027909273 -0.019826163 0.059729274
000310 f9 7f e1 3c bc 84 37 3d 25 0a 54 3c d9 c7 06 3c
       0.027526842 0.04480432 0.012941872 0.008226358
000320 85 57 e2 3c 20 cd a8 3c 8b 04 c4 3c de 85 3b bd
       0.027629623 0.020605624 0.023927948 -0.045781963
000330 52 96 05 3d c3 4d 2b 3d d5 da 12 bd bf 90 09 bd
       0.03261406 0.041822206 -0.035853226 -0.033585306
000340 c0 09 20 bc e6 1a 8b 3b ff 68 4c 3b 84 87 9c bc
       -0.00976795 0.00424515 0.0031190512 -0.019107588
000350 2d d2 80 bd 43 ae e7 3c a3 32 bc 3b 11 4b d8 bc
       -0.06290088 0.028281337 0.005743341 -0.026402982
000360 79 18 84 bc ed e6 8f bd a8 a3 e5 bb 7a 74 73 3c
       -0.01612495 -0.070264675 -0.0070080347 0.014859313
000370 9e 4d 1c 3c d7 21 bc 3c f0 ea ad bc c2 13 0d bd
       0.00953999 0.022965355 -0.021230191 -0.03444267
000380 38 14 ec bc 76 51 a9 3c c5 7a 2c 3d d6 18 3e bd
       -0.028818235 0.020668726 0.04210927 -0.046410404
000390 00 6f f1 bc fd 64 5f bd 03 17 80 bd 13 61 b1 bd
       -0.029471874 -0.05453967 -0.06254389 -0.086610936
0003a0 46 75 4d 3d 83 26 25 3d 1a 5d 5e bc 97 52 3a bd
       0.05016067 0.04031993 -0.013572002 -0.04548892
0003b0 2a b3 b7 3c 2c a1 24 3d fd 85 15 bc 7b 46 8e bc
       0.0224243 0.040192768 -0.009126184 -0.017367592
0003c0 4c 73 af bc ad c8 56 bd ee 43 12 bb 3b ac 52 3a
       -0.021417283 -0.052437473 -0.0022318321 0.00080365286
0003d0 dc 7e 1b 3d a9 3c 13 bc 2e 7a 7c bd ad 0c 6a 3c
       0.03796278 -0.0089866305 -0.061639957 0.014285249
0003e0 14 c8 59 bd 39 73 63 bd eb 2d 10 bd 1a 33 f8 3c
       -0.053169325 -0.055529807 -0.03520004 0.030297805
0003f0 d6 88 af bc 76 db 17 bd bb 31 09 bd e7 2e 05 bd
       -0.021427553 -0.03707453 -0.033494692 -0.032515433

bias f4 [128]
000000 36 29 74 bb 5b 03 92 bc 76 fe 93 bd 98 8a bd 3c
       -0.003725601 -0.017823866 -0.07226269 0.023137376
000010 68 82 cf bc a7 e2 33 bd 6a 8a 3e bd 89 16 5f bd
       -0.025330737 -0.043917324 -0.04651872 -0.05446485
000020 aa 50 6d bd a1 d4 5d 3c 86 7c 0f bd 80 14 67 3c
       -0.057938255 0.013539464 -0.035030864 0.014104009
000030 99 2b 5b 3c 88 36 73 bc c6 66 18 3c f6 6b 47 3d
       0.013377094 -0.014844544 0.009301847 0.048686944
000040 23 4f 94 ba 6d d9 2c bd 9d 8a ca 3b 09 dd fe 3c
       -0.0011315088 -0.04219954 0.006181075 0.031111257
000050 4e ef fa bc 44 8b 66 bd b0 e3 98 ba 97 94 2c bc
       -0.030631687 -0.056285158 -0.0011664536 -0.010533473
000060 20 7e 59 bd 88 84 8e 3c c4 32 d0 bc 7b 66 1a 3c
       -0.053098798 0.01739718 -0.025414832 0.009423847
000070 d3 e7 29 3c 65 7c 28 3c c9 61 a7 bc 13 9c f6 bc
       0.010370213 0.010283564 -0.02043237 -0.030103719
000080 09 f2 d5 ba f4 2b a7 bc 27 e8 e8 3b 3f b4 13 bd
       -0.0016322742 -0.0204067 0.007107753 -0.036060568
000090 78 5c 2f bc e1 7c 28 bd 51 cc af 3b e2 d7 5d 3c
       -0.010703199 -0.04113472 0.0053649326 0.01354024
0000a0 d4 7c b6 3c 6f 2a 19 bd 5b 24 c8 3c 4f 87 2b bd
       0.02227632 -0.037393983 0.024431398 -0.041877087
0000b0 70 fe ce 3c f0 2a 1d bd 6e e3 dc 3c 14 68 1e 3d
       0.02526781 -0.038371027 0.026963916 0.038673475
0000c0 94 62 4e 3d d6 7c 49 bd e7 8f 2b bc 34 d9 88 bd
       0.05038698 -0.04919132 -0.010471321 -0.06682053
0000d0 93 e6 9e 3d 34 33 98 bd 73 8c 76 bd c9 e2 43 bc
       0.07758822 -0.07431641 -0.060192537 -0.011955925
0000e0 d1 29 40 bd 71 ad 9c bc 35 89 e1 3c f9 9c 9c 3c
       -0.04691488 -0.019125672 0.027531246 0.01911782
0000f0 f4 33 9f bc a0 ca 5a 3d 66 4a 88 bc 32 c4 f0 bc
       -0.019433953 0.053415895 -0.016637038 -0.029390428
000100 0f 25 de 3b de 6e de 3c f0 b4 c1 bc 66 69 a1 3d
       0.00677932 0.027152475 -0.023645848 0.07881431
000110 00 dc 27 3d e8 9e b8 bc dd 4e d0 bc 59 63 d7 bb
       0.040981293 -0.02253671 -0.02542823 -0.0065731225
000120 c6 2e 60 3d e5 1a ec 3c 45 79 bb b9 51 b1 8b 3c
       0.054732107 0.028821418 -0.00035757772 0.017052324
000130 0e de 6c bd 3d 54 1e bd ea c2 1d 3d 1f af 9c bb
       -0.057828955 -0.038654555 0.038515963 -0.0047816182
000140 96 c0 7a 3d 01 9f 2f 3d d5 c6 44 bd c2 cb 80 bd
       0.06121882 0.042876247 -0.048041184 -0.06288864
000150 00 0c 4f bd f4 41 23 bd 5b 16 d2 bb be f2 93 3b
       -0.050548553 -0.03985782 -0.0064113564 0.004515021
000160 49 23 30 3d 2f 81 18 bd af 1c f2 bc 1f 3b 81 3d
       0.0430024 -0.037232574 -0.029554693 0.063101046
000170 e8 30 c1 bc dd fc 9c bd d5 76 2b 3d 09 ee 20 bc
       -0.02358289 -0.07665417 0.041861374 -0.009822377
000180 10 fe 38 3d d8 1b a0 bc 97 ea 0f 3d 49 1e 83 bc
       0.045164168 -0.019544527 0.03513583 -0.016005652
000190 76 90 38 3d 97 20 95 3b fe bf f6 bc 4d c5 6c bd
       0.045059644 0.004551004 -0.030120846 -0.05780535
0001a0 46 3c a8 bc 27 3a 35 3d 2b 06 3d bd dd 61 53 3c
       -0.020536553 0.04424491 -0.04614846 0.01290175
0001b0 d2 f4 2c bd be ce 15 bc 55 08 49 3a 67 04 43 bd
       -0.042225666 -0.009143529 0.0007668783 -0.04761162
0001c0 b2 bb 63 3d d6 c6 72 bc 90 cc b5 3c db 8f 03 3d
       0.055598922 -0.014817914 0.02219227 0.032119613
0001d0 e3 9d d4 bc 90 c8 6c bd 02 be 8c 3c 34 e1 c7 bc
       -0.025954193 -0.05780846 0.017180447 -0.024399377
0001e0 22 db b1 3c e7 be dd bc 6b 54 34 bd 99 f2 ef 3c
       0.021710936 -0.027068568 -0.04402582 0.029290484
0001f0 61 8b 26 bd 05 9e 76 bc 96 96 30 bd dc 09 fd bc
       -0.040660266 -0.015052323 -0.04311236 -0.03088849

weight f4 [60, 128]
000000 03 af a0 3d a8 61 7e 3d 8d 90 dc bc 0f 4c a8 bc
       0.07845881 0.06210485 -0.026924396 -0.02054408
000010 7b fa 01 bc 01 d7 3e 3d 58 ef 85 3d 5c 02 49 bd
       -0.007933254 0.046591762 0.06539792 -0.049074516
000020 e0 b0 8b bd aa bc 27 bc 4f 0c ee bc 7e df f8 bd
       -0.068208456 -0.010237852 -0.029058604 -0.12152003
000030 d6 29 a7 3d c7 80 5e bd af c6 10 bc 5c 2a c1 bd
       0.081622764 -0.05432203 -0.008836432 -0.094319075
000040 c0 ee a1 bc 2e 1a 81 3d 29 c8 95 3d 06 56 8a 3d
       -0.019767165 0.063038215 0.07313568 0.06754689
000050 b0 22 d8 3a 7e e5 1c 3d c5 74 f1 3c a8 e7 c8 3d
       0.001648983 0.0383048 0.029474625 0.0980981
000060 2d de 93 bc f6 43 3b 3d 57 5f 96 3b d0 be 97 bd
       -0.018050278 0.04571911 0.004589002 -0.074094415
000070 6c 00 ac 3c 72 9f c2 3c bf 84 b5 bd 5a d7 99 3d
       0.020996295 0.02375767 -0.0886321 0.07511778
000080 16 44 c0 3d 37 53 91 bd ff fb be 3d 63 a9 9a 3c
       0.09387986 -0.0709595 0.09325408 0.018879598
000090 49 bd 31 bd 78 f4 f8 bd 38 7f 63 3d 46 19 dc 3c
       -0.043393407 -0.12156004 0.055541247 0.02686752
0000a0 70 4d 3c bd 87 d6 1e 3d 59 77 72 3d 39 40 a0 3d
       -0.045972288 0.038778808 0.05919585 0.078247495
0000b0 18 30 50 bd ad eb 7f 3d bd e4 b8 3c bd 22 d7 bd
       -0.050827116 0.062480617 0.022570008 -0.10504673
0000c0 32 d7 dc 3c 7f f6 35 3d ee 7b 8e 3d 25 9e 46 bd
       0.026958082 0.04442453 0.069572315 -0.048490662
0000d0 d6 55 7d 3b b9 2f f6 bc 3e fd 94 bd 91 1f 82 3d
       0.0038655899 -0.030052053 -0.072748646 0.06353677
0000e0 49 66 4f 3d 3f fe 0c 3d c9 01 a0 bd 00 51 82 bd
       0.050634656 0.034422155 -0.078128405 -0.06363106
0000f0 0f 82 78 3d a2 5b a9 3c 3e cd 03 bc ff b6 d2 bd
       0.06067091 0.020673577 -0.008044539 -0.1028881
000100 92 ee f8 3d f5 43 e8 3d 61 13 bc 3d 37 36 45 bd
       0.12154879 0.11341087 0.09183384 -0.048147406
000110 e4 3e 36 bd 03 36 80 bc 13 cd 2b bd 1d bf 28 3d
       -0.04449357 -0.015650755 -0.04194362 0.041197885
000120 9e 7f bd 3c 76 cf 6f 3d e2 00 77 bd 28 90 7a bd
       0.023132142 0.05854746 -0.060303576 -0.061172634
000130 50 8d 6e 3d f1 c8 f5 3c 6a 2c 82 3d e1 cb 39 bd
       0.058240235 0.030003043 0.063561276 -0.04536045
000140 a3 ef f8 3d 06 93 25 bd d4 a1 26 bd 6d 1c 0e bd
       0.12155082 -0.040423416 -0.040681675 -0.034695078
000150 a9 2d 38 bd 78 5c f5 3c ab 3f d0 3c 0f 76 1b bc
       -0.04496542 0.02995132 0.025420984 -0.009488597
000160 90 c2 97 3d b1 b3 df bc 0a bf e9 bc fb e8 b7 bc
       0.07410157 -0.027307363 -0.028533477 -0.022449961
000170 5c 4d f3 3c 1a 6f 9e bb 5e ce 55 3d fe e2 71 bc
       0.029699974 -0.0048350217 0.05219876 -0.014763592
000180 eb a5 de bc aa f6 b8 bd d3 30 84 3d cb fe 31 3d
       -0.027178725 -0.090314224 0.06454625 0.04345588
000190 7a 07 ba 3d 58 9a c1 3d aa d6 87 3d 5e c2 18 3d
       0.09083457 0.09453267 0.06632741 0.037294738
0001a0 62 45 e0 3c 30 5f 87 3c 61 69 a3 bd ab ca 75 3d
       0.027376834 0.016524881 -0.07979084 0.060007732
0001b0 d0 6b 71 3d e5 51 10 3b b2 c4 89 bd 41 63 7b bc
       0.05894071 0.002202147 -0.0672697 -0.015343488
0001c0 a2 4b 3b 3a 7a 35 65 bd 2d 20 6c bd d1 cd 80 3c
       0.0007144754 -0.055959202 -0.057647873 0.01572314
0001d0 b7 13 69 bb 18 b9 72 3d 7e 63 23 3d 0b a6 ad ba
       -0.003556473 0.05925855 0.039889805 -0.0013248337
0001e0 32 3e bc 3d e5 1c 2f 3d 63 e2 cc 3d b2 fa 78 bd
       0.0919155 0.042752165 0.10004117 -0.060785957
0001f0 10 f2 7b bd 3c 14 56 3d 3b c6 68 3d 8f e3 90 bd
       -0.061510146 0.05226539 0.056829672 -0.07074653
000200 06 2c 7e bd c8 39 80 3c 94 b1 11 3d e3 b7 d2 3c
       -0.062053703 0.015652552 0.035569742 0.02572245
000210 19 0c 33 3e 09 e7 97 3c 41 49 c3 3d 8b 31 65 bc
       0.17485084 0.018542783 0.095354564 -0.013988863
000220 c1 33 e2 bb 2d c9 26 3d 6c ad f6 3b 4a e4 d0 39
       -0.006903142 0.0407192 0.0075279977 0.0003984294
000230 c2 4a 54 3d 66 e7 37 3d 37 a2 1f 3d 96 28 80 3b
       0.051829107 0.044898413 0.03897306 0.003911088
000240 6f f7 15 be 93 a1 12 be ac 69 10 3b 0c 7b aa bb
       -0.1464517 -0.14319448 0.0022035642 -0.0052026566
000250 27 21 83 bd cc c2 32 3e 2f 45 ba bd 12 64 ce ba
       -0.06402808 0.17457122 -0.09095227 -0.0015746376
000260 18 6e 40 3e 4e 9d 8a ba cd fb f3 bc 97 6e 86 bd
       0.18791997 -0.0010575445 -0.029783154 -0.06564062
000270 a0 f1 a6 bd 0f cc 30 bb 42 0c 19 3d b5 d7 10 bd
       -0.08151555 -0.0026977097 0.037365206 -0.035361964
000280 6e 12 94 bd 09 e6 34 3d ad ef d9 bd 0c 88 50 bc
       -0.07230078 0.04416469 -0.10641418 -0.012727749
000290 7f 8e 21 bc a3 b5 d7 bc 1f 76 a8 bd 31 bf 2c bd
       -0.009860634 -0.026331728 -0.08225655 -0.04217452
0002a0 49 92 64 be a2 46 df bb ac 2c 91 bd 3a 25 c1 3c
       -0.22321428 -0.00681384 -0.070885986 0.023577321
0002b0 6f 70 13 be 68 20 f1 bb d4 92 fa 3c 6e 37 3f 3e
       -0.14398359 -0.0073585995 0.030587591 0.18673488
0002c0 e3 7e 45 bd e3 6c 90 3c fd 97 1e 3d 4e bd 91 3c
       -0.04821671 0.017630046 0.038719166 0.017790463
0002d0 3e 67 c2 bb 31 46 63 be 02 dd 8e 3d 27 e3 1d bc
       -0.0059327176 -0.22194745 0.06975748 -0.009636677
0002e0 87 cd 98 bd 38 0c b8 bc 70 a8 1e bd a4 00 08 bc
       -0.07461076 -0.022466764 -0.038734853 -0.008300934
0002f0 99 a1 c1 bc dd ec c5 3b 3f 04 53 bd 87 eb 88 bd
       -0.023636626 0.006040199 -0.05151772 -0.06685548
000300 c1 28 f5 bc 43 4d 69 3c 30 6b a9 bd f6 50 be 3b
       -0.02992666 0.014239612 -0.082723975 0.005807991
000310 d4 4c 3c bd 55 f6 7f bd b5 c1 96 bd 0e d3 be 3c
       -0.045971707 -0.06249078 -0.073611654 0.023293998
000320 4e 27 97 3d 4c bd 4a 3c 41 36 39 3d df 33 9b bd
       0.07380544 0.012374233 0.045217756 -0.07578253
000330 8d 81 7c 3d d8 d8 8b bc 79 75 d2 bb c5 69 3e bd
       0.061646987 -0.017071173 -0.0064226952 -0.04648759
000340 07 4f a2 3d 35 5c 0b bd 2d 8c 3e 3e 6b 79 ec bb
       0.079252295 -0.034023482 0.1860816 -0.0072166226
000350 37 ce 5e bd b9 21 4b 3d 89 9e 85 3d 3f b5 81 bd
       -0.05439588 0.049592707 0.06524379 -0.06333398
000360 62 dc 4b bc 53 40 1a be bc 16 88 be ba 43 d1 bd
       -0.01244268 -0.150636 -0.26579845 -0.10217996
000370 b6 a2 dd ba 23 69 42 3c cc 8c 87 bd e5 0f f7 bb
       -0.0016909454 0.011865887 -0.06618652 -0.0075397366
000380 31 9e 94 bd d8 1e ef 3b d6 ae 5c bd 1c 35 b5 3d
       -0.07256735 0.007297378 -0.053877674 0.088480204
000390 14 6e 83 3d 99 46 81 bd 63 bb c1 bd ac 89 a8 3d
       0.0641748 -0.063122936 -0.09459569 0.08229384
0003a0 88 9c 73 bd 91 60 45 3d 10 8f 0c 3e 42 a4 fb 3c
       -0.05947545 0.048187796 0.13726449 0.030717973
0003b0 0f 05 18 be 06 43 09 bd 0c 42 15 bd 92 5c 87 bd
       -0.1484568 -0.033511184 -0.03643994 -0.06609453
0003c0 1e 0a 48 bd ed 03 61 3d 8d ca d4 3c 26 5d af bc
       -0.048837774 0.054935385 0.02597549 -0.021406721
0003d0 31 bd 5f 3d 3e 2e 8c 3c fa 15 b2 bb 83 c6 6f 3a
       0.054623786 0.017111894 -0.0054347487 0.0009146707
0003e0 95 57 5e 3d f3 33 0d 3c 7a e0 95 3c 83 0d c5 ba
       0.054282743 0.008618343 0.018295515 -0.0015033934
0003f0 bc 5f ab bc e2 3f 1b 3d 4d 94 d9 bc e6 93 90 bc
       -0.020919673 0.03790272 -0.026559973 -0.017648648

bias f4 [60]
000000 c7 21 4f 3d b7 dd d7 bb 06 11 96 bd 4c 4f 4e 3b
       0.050569322 -0.0065877098 -0.07327466 0.003148037
000010 44 e0 a1 bd e7 8a e4 3b f7 3c 77 bd 66 c9 ef 3b
       -0.079041034 0.0069745663 -0.060360875 0.0073177097
000020 d4 49 5c bd a5 3d 42 3d 64 31 05 bc 54 91 4e bd
       -0.053781345 0.04742207 -0.008129451 -0.050431564
000030 1f 30 06 3d 68 e7 8a 3b 2c ff 72 bb 00 ac 71 3c
       0.032760736 0.0042390116 -0.0037078364 0.014750481
000040 70 4b 43 bb 1a c6 a0 3c 19 b4 bb 39 b8 25 b8 bc
       -0.0029799603 0.019625712 0.00035801603 -0.022478923
000050 42 bd d4 3c 38 43 ba 3c 12 bd 31 bc d9 90 30 bc
       0.025969151 0.02273713 -0.0108483005 -0.010776722
000060 14 21 20 3d 1f f0 53 bd 11 c9 8b bb d9 e6 06 bd
       0.039094046 -0.05174267 -0.0042659123 -0.032934997
000070 e5 6c 21 3b ff 75 28 bd 79 97 55 bd 0c 01 7d bc
       0.0024631557 -0.041128155 -0.05214641 -0.015442144
000080 8e d5 05 bc a2 49 15 3c da 55 75 3c c8 f4 ff 3c
       -0.008168591 0.009111794 0.014974082 0.03124465
000090 fe 11 74 3c 35 e3 fd bc cc f6 62 3b 6c 90 03 bd
       0.014896868 -0.03099213 0.0034631966 -0.032120153
0000a0 a6 69 1d bd af 8a 34 bd 04 5a 8c bd 58 5f 28 bd
       -0.038430832 -0.04407757 -0.068531066 -0.041106552
0000b0 3e 1a 70 bd e3 dd 83 bc d9 0e 12 bd 68 26 1f 3d
       -0.058618777 -0.016097015 -0.03565869 0.038854986
0000c0 ce 65 d9 bb b6 54 2f 3b 1b 19 9f bc 26 5d 82 3b
       -0.0066344505 0.0026753373 -0.01942115 0.0039783893
0000d0 2a 82 0b bd 14 7a 27 bd 9b c5 2c 3d 64 61 6f ba
       -0.03405968 -0.040887907 0.04218064 -0.0009131639
0000e0 ed ba cb 3c 0c 65 55 3b 72 97 95 bd f0 97 0c 3d
       0.024869407 0.003256145 -0.073042765 0.034324586
