linearPredictionModels/db39/trainPredctionLocal/cleanedCombine.csv_wholeNetPrototype5_Epochs_4_ValidationLoss0.424021_lr0.0003_2023_08_14_08:28:14.pth (torch, 992669 bytes, 8 tensors)

weight f4 [512, 145]
000000 c4 fa bb bd d3 9d 7f 3c 4b 61 28 3d 88 be 19 bd
       -0.09178689 0.015601593 0.04110841 -0.03753522
000010 26 6e 86 bd 49 cd d8 3a 34 b0 99 bc c2 c9 1b bc
       -0.06563978 0.0016540672 -0.018760778 -0.009508552
000020 31 d4 c9 3a ab 4b 0b bd 60 96 de bd f9 a0 5a bd
       0.0015398321 -0.03400771 -0.108685255 -0.05337617
000030 d1 7c 08 3c 2b d2 cf bc dd 16 41 bd f3 a7 34 bd
       0.00833054 -0.02536877 -0.047140945 -0.04410548
000040 35 dd 19 3d 2e 8f 7a 3c 7b 51 b8 bd 50 f3 ad bd
       0.037564475 0.015292926 -0.08999916 -0.08493674
000050 6e b1 84 3d f1 95 47 3d 28 42 10 ba d8 db a3 3b
       0.064791545 0.04872698 -0.0005503022 0.0050005727
000060 97 2d 65 3d 58 79 b7 bc 94 70 3c bd 53 da af bc
       0.05595168 -0.022396728 -0.0460058 -0.02146641
000070 08 c7 ec 3c d5 53 2c 3d 2f 50 9e 3c d4 a5 c9 bc
       0.0289035 0.042072136 0.019325344 -0.024615206
000080 e2 47 d8 bc 49 5b 93 3b 0b 16 e3 ba d3 e5 d9 bc
       -0.026401464 0.004496966 -0.0017325295 -0.026598847
000090 52 47 2b bd 1e 76 22 bd bc 77 ac bd 08 c9 01 3d
       -0.041816063 -0.039663427 -0.08421275 0.03168586
0000a0 92 50 c5 bd 1e 3f 7a bc 02 a3 23 3d fe 49 ae bd
       -0.09634508 -0.015273837 0.03995038 -0.08510207
0000b0 41 b9 dd ba 30 09 fc 3d ad 08 4e 3d a2 8f bc 3c
       -0.0016916172 0.1230644 0.050301243 0.023017708
0000c0 9c 0b 73 bd 0e d8 3e bd 57 58 75 3b 98 c6 88 3d
       -0.059337243 -0.046592765 0.0037436688 0.06678504
0000d0 24 4e 88 3d 48 e4 49 bd 9e 01 7f 3d d5 5e 44 3d
       0.06655529 -0.04928997 0.0622574 0.047942
0000e0 c3 1e 4a 3d b6 a2 2c bd e1 97 77 3b 5e 41 dc 3a
       0.049345743 -0.04214736 0.0037779736 0.0016804149
0000f0 ac 9f 94 bd af 76 ef bc 2e 09 c1 3c 64 d1 84 bc
       -0.072570175 -0.029231397 0.023563948 -0.016213126
000100 5b fb 23 be 77 81 c1 bd db 81 81 3d b0 75 95 3b
       -0.16013853 -0.094485216 0.06323596 0.0045611486
000110 47 1a 5b bc 99 cf 59 3c 5d 85 aa 3d 90 54 28 be
       -0.013372964 0.013294124 0.08326218 -0.16438508
000120 93 df a7 bd d7 30 c6 bd d2 2b 2e bd c6 0a 8f ba
       -0.0819694 -0.09677284 -0.04252226 -0.0010913245
000130 37 bb 19 bc 86 fd 04 3d 3c bd db 3d 7e 64 d0 bd
       -0.009383014 0.03246834 0.10729453 -0.10175417
000140 75 7c f6 3d 2e 8a f6 3d 93 e1 54 bd 2c 32 da bd
       0.12035457 0.120380744 -0.051972937 -0.10654101
000150 f1 42 21 be 93 bc 12 3e 30 18 44 bc f4 21 6e bc
       -0.15748192 0.14329748 -0.011968657 -0.014534462
000160 1b b0 eb bc c8 91 fc bc 38 25 82 3d 90 92 5b 3c
       -0.028770497 -0.030831233 0.06354755 0.013401642
000170 24 21 d2 3c 6b 50 94 bd 37 c2 f5 3c 7d 89 87 3d
       0.025650568 -0.07241901 0.029999835 0.06618021
000180 a4 d3 b1 3c de 98 a7 bb 3a 4c 46 bb ea d7 39 bd
       0.021707363 -0.0051146587 -0.0030257837 -0.045371927
000190 a5 ef b4 bd d9 77 be bc b0 0c 15 3d e1 e8 30 bd
       -0.08834771 -0.023250507 0.036389053 -0.04319084
0001a0 b4 a5 f2 bc 6f 28 87 3d 46 a4 b8 3d 55 60 22 3c
       -0.029620029 0.06599509 0.09015708 0.009910663
0001b0 77 33 df 3c 4b ed d4 3d 51 4e 02 3d 7d 2b 13 3d
       0.02724622 0.103968225 0.03181297 0.035930146
0001c0 e1 ee 29 bc 85 f6 b9 3d 02 4a 1b 3d 62 0f b8 3a
       -0.010371895 0.09080223 0.037912376 0.001404267
0001d0 37 10 a0 3d 56 ae 8c bc 97 76 1d 3d f0 91 86 3d
       0.07815593 -0.017172974 0.038443174 0.06570804
0001e0 f2 b6 1f 3b 77 b6 86 bd e5 0f b2 3c ef 74 94 3c
       0.0024370519 -0.06577771 0.021736095 0.018122165
0001f0 dc 39 97 3d e8 c9 5d 3c 11 ee eb 3b e6 c6 25 bd
       0.07384083 0.013536908 0.0072000106 -0.040472887
000200 cb 9a b0 3c 1a 68 5b 3c 14 5c 41 3d 7e 51 9d bd
       0.021558186 0.013391519 0.047206953 -0.07681559
000210 a3 77 2e 3d b6 2b de bc cf f9 03 3c a4 7c 81 bd
       0.042594563 -0.027120452 0.0080551645 -0.063226014
000220 71 73 39 3b 8c 8a 99 3d fa 39 a3 bd 82 69 74 bd
       0.0028297568 0.07497129 -0.079700425 -0.059670933
000230 fb 78 61 3d d2 e7 18 3d d0 2c 54 bc 25 11 a9 bc
       0.055047017 0.037330456 -0.012950137 -0.020638058
000240 f3 b8 5a bd e9 93 01 3d 57 0d de bc e7 54 c8 bd
       -0.053399038 0.0316352 -0.02710597 -0.09781819
000250 8c a5 8e 3c 1a 97 76 3d e7 67 de 3c b5 2a 6a 3d
       0.017412923 0.060202695 0.027149154 0.057169635
000260 ee 95 21 3d ed 08 55 bd fd 48 8e 3d e1 7f 85 3c
       0.039449625 -0.052010465 0.06947515 0.016296329
000270 15 e6 8e 3d d0 f6 39 bb 52 42 5c bd 5f 72 64 3d
       0.069774784 -0.0028375871 -0.053774185 0.055773135
000280 f1 96 8d bd 9d 0e 21 bd 66 b4 55 bd cc 9f 39 bd
       -0.069135554 -0.039320577 -0.052173994 -0.04531841
000290 91 48 54 3d 98 10 8d 3d 74 6d 7b bc fd 4c 9b bd
       0.051827017 0.06887931 -0.01534592 -0.07583044
0002a0 07 80 85 bd 5b 22 94 3d 7d 53 93 bd a6 6c 98 bd
       -0.0651856 0.07233115 -0.071936585 -0.07442598
0002b0 e0 50 54 bd 82 48 d1 3c 75 c4 43 bd 13 7a 33 bd
       -0.05183494 0.02554727 -0.047794778 -0.04381759
0002c0 f5 af a2 3b 11 6f 4d bd a6 19 e7 3c af 02 bf bd
       0.0049648234 -0.05015475 0.028210472 -0.09326684
0002d0 55 89 2d bb 66 67 cf bc 56 f7 84 bd a3 4f 74 bc
       -0.0026479561 -0.025317859 -0.06492488 -0.014911565
0002e0 aa 74 bc 3d 7c 3f 75 3d 80 48 18 bb 42 5a 43 bd
       0.092019394 0.059874997 -0.0023236573 -0.0476935
0002f0 a7 b4 99 bc 8d 4c 9e 3d 9f 66 95 3c 0b d6 8e 3d
       -0.0187629 0.07729445 0.01823741 0.06974419
000300 20 47 a0 3d 0d be 06 bd 30 e8 73 3c d1 c4 34 3d
       0.07826066 -0.03289609 0.014886901 0.04413301
000310 80 b4 8d 3d bc c8 f3 bc 01 11 19 be 5c 46 15 bd
       0.06919193 -0.029758804 -0.14947893 -0.036444053
000320 2d 56 3e bc 8c c3 71 bd 63 cf 7f bd cb 53 be bc
       -0.011617226 -0.05902438 -0.06245364 -0.023233315
000330 4d c6 ae 3d 06 d6 92 bd 4c ab 45 bd c2 f0 af 3d
       0.085339166 -0.07169728 -0.048259065 0.08590843
000340 e2 00 10 bd 46 8a 4c 3e a3 e5 5a bd 34 73 70 bc
       -0.035157092 0.19974622 -0.053441655 -0.014675904
000350 dd c4 ec bc d7 46 dd bc 6b 7f 07 3c ea c2 09 3d
       -0.028902465 -0.027011318 0.008270125 0.03363315
000360 63 34 3f 3d 95 2f 8b bd 2f 72 cb 3d 3f b0 15 be
       0.04668082 -0.06796185 0.09933888 -0.14618014
000370 62 32 4a bd d0 c0 b4 bd e0 3d c4 3b 23 ca 1d be
       -0.049364455 -0.088258386 0.0059888214 -0.1540914
000380 07 a3 7a 3d f4 3b 03 bd f4 7e be 3d c4 f8 e8 3d
       0.06119063 -0.032039598 0.09301558 0.11375573
000390 c2 1c c4 bc a8 ef e4 3d 9f 1d 99 3d bc 05 ba bc
       -0.023939494 0.11178523 0.07476353 -0.022707812
0003a0 3f 46 ea 3d 96 96 4f 3a d1 e5 37 3d 05 5d 80 3d
       0.1143918 0.00079188624 0.044896904 0.06267742
0003b0 77 3b 5d 3d 60 57 91 3c 28 6d a8 bc 8f d7 b2 bc
       0.05401179 0.017741859 -0.020559862 -0.021831302
0003c0 31 d5 59 3d 04 93 0a 3c 39 19 b5 bd c7 8a e3 bc
       0.05318183 0.008457903 -0.088427015 -0.027776135
0003d0 26 68 8c 3d 6d e0 76 bc 1f b7 44 bd 8c 49 4a 3c
       0.06855802 -0.015068156 -0.0480262 0.0123466365
0003e0 63 dc 7a 3d 94 76 af bd 58 d7 9c 3d eb 39 22 3d
       0.061245333 -0.08567539 0.07658261 0.039606016
0003f0 10 84 78 3d 82 ae 74 3d d0 ef c8 bd dd ab 61 3d
       0.06067282 0.059736736 -0.098113656 0.055095542

bias f4 [512]
000000 b5 83 86 bc 1c 26 76 bc 60 50 80 3d 04 6f 03 3d
       -0.016420225 -0.015023734 0.0626533 0.032088295
000010 f9 e8 ab bc 24 ae 60 3d ba 81 fb 3c 83 96 44 3c
       -0.020985113 0.054853573 0.030701507 0.011998775
000020 11 37 bb bb 38 b2 5f 3d ac 3b 90 3d fd c0 40 bd
       -0.0057133515 0.054613322 0.070426315 -0.047059048
000030 e2 c7 c7 bb 96 3e 71 bd 51 ad 00 bd 1a 59 25 3d
       -0.006096826 -0.058897577 -0.031415287 0.040368177
000040 d1 4e 0b bc 23 8a 96 3c c2 d3 08 3b 97 ff 23 3d
       -0.008502678 0.018376416 0.002087817 0.04003867
000050 b5 f3 28 ba 92 00 bd 3a eb e6 53 3d a7 4b a3 bd
       -0.00064450066 0.0014419726 0.051733892 -0.07973414
000060 9b ab 92 bd 6f 03 7a 3d cf e7 26 bd 1d c9 91 3d
       -0.071616374 0.06103843 -0.040748414 0.071184374
000070 f0 bf ae bd 8a 24 89 3b 4c 96 e8 ba ec f4 cc bc
       -0.08532703 0.004185264 -0.0017744987 -0.025019132
000080 e9 0d 11 3c 83 c5 69 3d 9b 5b 84 bd 7e 36 4a 3d
       0.008853414 0.057073127 -0.06462785 0.049368374
000090 27 e8 01 bd cc 1b fe bc 27 e7 a1 3d b7 d9 82 3d
       -0.03171554 -0.031019114 0.07905417 0.06389182
0000a0 f9 99 44 bd 5d 7e 41 3d bf b2 ef 3b f5 6a 83 3d
       -0.047998402 0.04723965 0.0073150094 0.06416885
0000b0 b5 c1 58 bc 44 7a a3 bc 7b cb e1 3c 1d 93 8c 3d
       -0.013229777 -0.019955762 0.027562847 0.06863997
0000c0 83 43 0c b9 d0 58 9b 3d 55 c4 81 3d bf 38 4e bc
       -0.0001337659 0.07585299 0.063362755 -0.0125867715
0000d0 9b 1f 7b 3d a4 70 6f bd c0 20 39 3d b4 ef 21 bd
       0.06130944 -0.05845703 0.04519725 -0.03953524
0000e0 a6 6b 90 bd f8 a6 80 3d 55 16 82 bd 45 e5 4d bc
       -0.07051782 0.06281847 -0.06351916 -0.012566869
0000f0 5b fe 6c bd 9c ec 88 bd da ca c4 bc 3b 3b 79 bd
       -0.05785976 -0.06685755 -0.024022508 -0.060847502
000100 00 5c 70 3c 1e 42 c2 bc 53 a1 1a 3d fe 9d 6e 3d
       0.014670372 -0.023713168 0.037751507 0.05825614
000110 79 cd 98 3d 6c 89 9d bb 43 30 96 bd d8 61 0c bd
       0.07461066 -0.0048076417 -0.07333424 -0.034273
000120 0a 77 1d bd b5 07 8d 3d db b7 9c 3d f0 a2 8c 3c
       -0.038443603 0.068862356 0.07652255 0.017167538
000130 74 66 34 bd ac ab 99 3d ca 26 b1 3c 2b b4 0d 3d
       -0.04404302 0.07503447 0.021624941 0.03459565
000140 aa fa 26 bd db 35 05 3d 22 a4 be 3c 57 e3 54 3d
       -0.040766396 0.032522064 0.023271624 0.05197462
000150 2f 1b 00 3d 2c 3f 05 3d 3c 98 57 bd 3c e1 62 bd
       0.031275924 0.03253095 -0.052635416 -0.05539058
000160 0b e6 f1 bc e5 bb a6 3b a9 7b b6 bd 18 16 10 bd
       -0.029528638 0.0050883167 -0.08910305 -0.03517732
000170 08 35 24 3d 16 67 08 3d c7 96 20 bd 26 9c 4f bd
       0.040089637 0.033301435 -0.039206292 -0.050686024
000180 aa 41 8c bd 95 f5 74 3d 74 24 81 bd 50 aa 7b 3d
       -0.06848462 0.059804518 -0.06305781 0.06144172
000190 55 fd a8 bd 21 f4 84 3c cd 41 84 3c 5d a8 92 bc
       -0.08251444 0.016229691 0.016144658 -0.017902547
0001a0 6f ef 91 bd 2a 48 7b bc 98 f5 42 bd ae ed af bd
       -0.071257465 -0.0153370295 -0.047597498 -0.08590256
0001b0 c6 97 78 3d 3b ce 2e 3d e8 5b b2 3c 07 cf 79 3d
       0.060691617 0.042677145 0.02177234 0.060988452
0001c0 34 c8 08 bd 50 69 49 3c f3 f2 09 bd 31 c6 98 3d
       -0.033394054 0.012293175 -0.03367896 0.07459677
0001d0 62 13 46 bc f4 63 a1 bd 53 31 55 bd 78 f4 5e 3d
       -0.012089582 -0.07880393 -0.052048992 0.054432362
0001e0 d5 2f 86 bd 02 29 94 bd 67 34 ef 3c f0 df 55 bd
       -0.06552092 -0.07234384 0.029199792 -0.052215517
0001f0 6c ea 46 3d 0e ce 34 3c 93 e1 08 3d 89 a5 99 bd
       0.048563406 0.011035455 0.03341825 -0.075022765
000200 f1 c6 1c bc 5b b0 e0 bc 11 35 a3 3d 00 e9 8e bb
       -0.009568916 -0.027427843 0.07969106 -0.004361272
000210 66 dc 82 3c 14 19 2b 3d b3 fb 80 3d de 59 4b 3d
       0.015974235 0.041771963 0.06298008 0.04964625
000220 7b 92 83 bd 03 15 71 bd 2a 9e 65 3d a8 99 f8 bb
       -0.06424423 -0.05885793 0.05605904 -0.0075866766
000230 48 63 e6 3c 29 c8 86 3a 76 41 10 bd ac e9 35 bd
       0.028123513 0.0010283041 -0.03521868 -0.0444123
000240 20 ca 96 bc ca 87 9f 3d c6 d2 9d bd aa fb a5 3d
       -0.018406928 0.077895716 -0.077062175 0.08104642
000250 22 9b a3 bd c3 0b 52 bd 9c 64 a8 3d 50 da 99 bd
       -0.079885736 -0.051280748 0.08222315 -0.07512343
000260 62 4e 7c 3d d1 64 27 bc ee 21 a7 3d 3c e2 fd bb
       0.06159819 -0.010216908 0.081607684 -0.0077479165
000270 3e 1e 56 3c 92 49 44 bd 56 da 7c b8 7f 22 1c bd
       0.013068734 -0.047921725 -6.0284823e-05 -0.038118836
000280 af c3 8b 3d 53 2b f5 bc e1 5a bc 3c e9 74 62 3d
       0.06824433 -0.029927885 0.022992553 0.055287275
000290 1b fa 63 3c da 8f 96 bd a4 84 16 3d fd ec 79 bd
       0.01391461 -0.07351656 0.03674759 -0.061017025
0002a0 59 49 b6 3c 21 e5 28 bb 15 db 11 bd 90 6b 21 3d
       0.022251772 -0.0025771337 -0.035609324 0.03940922
0002b0 11 d2 a9 bd dc bd 8c 3d 32 4f ae bd 9e 93 dc 3b
       -0.0829202 0.0687215 -0.08511199 0.0067314645
0002c0 50 24 d7 bc f8 30 c5 3c a1 9e 73 3d 30 b9 34 3d
       -0.026262432 0.024071202 0.059477452 0.04412192
0002d0 3d f1 1b 3c 06 b3 f2 bc 04 eb 06 bc 00 54 cf bc
       0.009517965 -0.02962638 -0.008234743 -0.025308609
0002e0 2d a4 58 bd d9 ee e6 bc ba ae 25 bd 0f 63 8d 3d
       -0.052890945 -0.028190063 -0.040449835 0.069036596
0002f0 d8 a4 8f 3d 1b b0 12 bd bf 60 93 3c d5 34 84 39
       0.07013863 -0.03581248 0.017990468 0.00025216365
000300 58 5c 80 bd 51 18 3c 3c ed 8c 2e bb 7d e9 c9 bc
       -0.06267613 0.011480407 -0.0026634291 -0.024647469
000310 78 c2 bd 3d 51 af 28 bc a6 2c cf bc 64 81 12 bd
       0.092656076 -0.010295705 -0.025289845 -0.035767928
000320 04 09 39 bd ce 0e 8f bd 15 10 f5 bc 6d 04 27 bd
       -0.045174614 -0.06985246 -0.029914895 -0.040775705
000330 86 9b 9b bc 9c 7c 21 bd 9e 97 c6 bc e6 bb d3 bc
       -0.018995058 -0.039425477 -0.024242219 -0.025846433
000340 8a 20 9b bc 34 65 6d bd 95 dd 53 3d f1 bf 62 bd
       -0.018936414 -0.057957843 0.05172499 -0.05535883
000350 e9 b7 44 3c 39 27 15 bc c1 fc c0 3c e8 d4 93 3d
       0.012006738 -0.00910359 0.023558022 0.07218343
000360 a5 e5 88 3d 61 c8 11 bc 8e 40 3a 3d 2b 2c 92 bc
       0.06684426 -0.008897872 0.04547172 -0.017843327
000370 55 40 26 bd b9 5d 0f bc 44 57 85 bc 87 75 3c bd
       -0.040588696 -0.008750373 -0.016276963 -0.04601052
000380 b6 bb a8 bc 8b 42 f2 bc be 01 8d bd 31 51 03 3c
       -0.02059732 -0.029572746 -0.06885098 0.008014963
000390 be 25 e4 bc 69 df a1 3d b3 76 54 3d 39 5d b8 bd
       -0.027850028 0.0790394 0.051871013 -0.09002156
0003a0 37 cd 46 bd 67 29 b9 3d 9a fa 67 bd d2 10 32 bb
       -0.048535552 0.090411 -0.056635477 -0.002717067
0003b0 4e 64 98 3a 4c af 4c 3d 8c c4 a5 3c 0d 9a d3 bb
       0.0011626573 0.049971864 0.020235322 -0.0064575733
0003c0 80 ef 92 bd 55 0e 65 bd 3f 27 94 3b fb 75 21 bd
       -0.07174587 -0.05592187 0.00452128 -0.039419156
0003d0 fd 1e 0c bc d5 03 74 bc 15 76 ac bd 9c 0c 48 3d
       -0.00855231 -0.014893492 -0.0842096 0.04884015
0003e0 91 05 56 bd d1 8d bd bc 5e c3 96 3d 4c 00 82 3d
       -0.052251402 -0.023138912 0.07361482 0.06347713
0003f0 4e 9f 77 bc 09 64 34 3d 9b 8d 26 bc 8d 5c 95 3d
       -0.015113665 0.044040713 -0.010165597 0.07293043

weight f4 [256, 512]
000000 51 c7 17 be fc 9b 47 3a 05 84 c0 bd 27 2e ed bc
       -0.14822127 0.0007614491 -0.09400181 -0.028952671
000010 be bc d7 bd 74 ab 24 bd fa fd 96 bc df 94 65 3d
       -0.105340466 -0.040202573 -0.018431652 0.056050178
000020 f6 a6 94 39 a0 e8 98 3d 2a fc 45 3c 33 c1 2d ba
       0.00028353155 0.07466245 0.012084046 -0.0006628215
000030 3d f2 47 3d c4 25 9f bd 93 47 e2 3c 23 85 97 3c
       0.048815 -0.07770875 0.02762202 0.018496102
000040 a5 14 87 bd e2 90 9c bb c1 fe 25 3d 50 c6 35 3d
       -0.065957345 -0.0047780136 0.040526155 0.04437858
000050 f1 3e 0f 3c 32 c3 65 bd b0 f4 55 bb 75 4f a4 bc
       0.008743034 -0.056094356 -0.0032647066 -0.02005742
000060 a8 a2 d4 bd 4a 16 28 bc 48 4f 22 bd 2a df e4 3c
       -0.10382587 -0.01025922 -0.03962639 0.027938444
000070 3a ca 58 3d 89 f4 7b 3d 72 f3 00 3d 1e 9b 5a bd
       0.052927233 0.061512504 0.031482168 -0.053370588
000080 66 43 76 3d c3 c4 04 3d 46 cb fd 3c ca f3 0e bd
       0.06012287 0.03241421 0.030980717 -0.034900464
000090 6b 51 1d bd 74 14 a1 bd 4e 1a c0 bd ce cd c1 3c
       -0.038407724 -0.07865229 -0.09380017 0.023657706
0000a0 dc cc 7f 3d e3 7f c4 bd b6 61 10 3c 37 78 1a 3d
       0.06245123 -0.09594705 0.008812359 0.037712302
0000b0 23 e5 8e bd bb 38 6b 3d ac 5c 4c bc b7 af 1f bd
       -0.06977298 0.05742715 -0.012473267 -0.038985934
0000c0 cf 77 fd 3c a6 82 d4 bc 06 49 75 3c a5 4c 91 3c
       0.030940918 -0.025941204 0.014971023 0.017736742
0000d0 01 f1 89 bc 46 2f 63 3d fd a7 a4 3d 62 e4 20 bd
       -0.016838552 0.055465005 0.08039854 -0.039280303
0000e0 06 85 83 3a 3e 72 57 bd c0 81 2f 3d d4 ea 24 bd
       0.0010034151 -0.052599184 0.04284835 -0.040263012
0000f0 08 66 a5 bb 8e 3b 02 bd d0 a1 b3 bb d4 9b c0 bc
       -0.0050475635 -0.031795077 -0.005481936 -0.023511805
000100 8c 8c 38 bd ef ba 5b bb a1 4e a4 3b bb db 94 bc
       -0.04505591 -0.003352817 0.005014256 -0.018171182
000110 c5 5b 1c bb 9e ef 51 bd 92 53 f5 bc 2a 91 b1 3c
       -0.002385841 -0.051253907 -0.029947076 0.021675665
000120 e8 24 04 bd 11 45 73 3a ea 44 ed bc 09 4e 72 3c
       -0.03226176 0.0009280006 -0.028963525 0.014789113
000130 74 1a e0 bc f5 62 9a bc e8 77 86 3c f3 58 e1 3b
       -0.027356364 -0.018846015 0.016414598 0.0068770587
000140 26 4f 1c bc 90 85 99 3c 89 f2 04 bd 49 8f 52 bd
       -0.009540355 0.018740445 -0.032457862 -0.05140618
000150 e0 1d 95 bc 21 9c 97 3c e0 88 0b bd e3 d1 88 bd
       -0.018202722 0.018507065 -0.03406608 -0.06680658
000160 77 82 01 bd 5a a2 61 3a 28 07 89 bc 4c 33 c3 bd
       -0.03161856 0.0008607261 -0.016727045 -0.095312685
000170 e3 8f 51 bc 1e c7 c0 3b c8 97 0c 3d 4a 80 88 3c
       -0.012790653 0.0058831116 0.034324437 0.016662735
000180 40 7f 83 bb cf ad 0f 3c 3d c3 ab bd 49 15 30 bd
       -0.004012972 0.008769467 -0.08386848 -0.04298905
000190 18 d1 f1 3c 90 84 a2 bb 83 e4 0d 3c b5 46 90 3c
       0.029518649 -0.0049596503 0.0086604385 0.01761184
0001a0 55 ae 99 bd 6e 4e e7 bc 52 f8 f8 3c ac 18 85 3d
       -0.07503954 -0.02823564 0.030391846 0.064988464
0001b0 64 1b bd bd 1a 30 06 3d b8 f4 8f 3d b5 5d 71 3d
       -0.0923374 0.032760717 0.07029098 0.058927257
0001c0 50 65 ab bc e7 77 1a bc 04 c8 39 3d 57 cd e7 3c
       -0.020922333 -0.009428001 0.045356765 0.028296156
0001d0 be 85 80 bd bb 11 49 bc 89 04 e9 bc 3d 4f 7e 3d
       -0.06275509 -0.012272294 -0.028444545 0.062087286
0001e0 d5 d3 98 3c 37 7d e5 bc be 8e 63 3c e7 ee 93 bd
       0.018655697 -0.028013809 0.013889013 -0.072233014
0001f0 1a 92 74 3d a5 fe 4e bd aa 9c ae bc 3e 0d 05 bd
       0.059709646 -0.050535817 -0.021314938 -0.03248333
000200 07 88 52 bd 32 69 b9 bc fa 1b 43 bd 14 65 98 3b
       -0.051399257 -0.022633169 -0.047634102 0.0046507213
000210 17 a8 ca bc eb b1 56 bd 73 a7 f8 bd 0c fe 91 3d
       -0.024738355 -0.05241577 -0.121413134 0.07128534
000220 1b 1e 99 bd d0 68 ac bc 10 2b 6d bc 65 7a b0 bc
       -0.07476445 -0.021046072 -0.014475599 -0.021542737
000230 9c f2 22 bc 8e 1d ad bc 51 c0 0f bc 7d c6 37 bd
       -0.009945538 -0.021132257 -0.008773879 -0.044867028
000240 c3 9a af bc be 75 39 bc 87 80 87 3d b9 58 55 3d
       -0.0214361 -0.011319576 0.066163115 0.052086566
000250 fa 07 35 3d 28 e6 69 bc b8 e7 bd bd 7e af 03 bd
       0.04419706 -0.014276065 -0.092727125 -0.032149784
000260 e3 e5 00 3d 1c 92 9f 3d 15 97 6d 3d e4 78 ef 3c
       0.031469237 0.0779154 0.05800541 0.02923245
000270 91 0d 41 3d e8 05 d5 bb 77 45 aa 3d 2b 42 39 bd
       0.04713208 -0.006500948 0.083140306 -0.04522912
000280 18 2b 4d 3d 06 e7 87 bd e6 a1 fc 3c 10 c4 a3 bd
       0.050089926 -0.06635861 0.030838918 -0.0799638
000290 f4 d0 86 bd 7c 73 6b bd f3 a7 e5 3c 97 b7 8f bd
       -0.065828234 -0.05748318 0.028034186 -0.07017439
0002a0 79 43 a4 3d 7c b7 2a 3d 9b 10 0b bd 77 40 0c 3b
       0.08020682 0.04167889 -0.033951383 0.0021400729
0002b0 e5 31 c2 3d 2e f6 86 bd d0 29 81 3c 48 a3 2e bd
       0.09482173 -0.06589924 0.015767008 -0.042636186
0002c0 41 51 15 bd 2f 48 98 3b b1 d2 a9 3c bf 1f cb 3d
       -0.036454443 0.004647277 0.020730348 0.099181645
0002d0 2c e3 b0 3c 82 8c 33 bc 08 fd 2e 3d db 45 20 3d
       0.021592699 -0.010958793 0.04272178 0.03912912
0002e0 e9 a4 11 bd 12 97 03 3d 43 03 39 bd b8 98 ad 3c
       -0.03555766 0.032126494 -0.045169126 0.021190986
0002f0 a9 8b 41 bc ec f5 c8 3c 9d cb d6 bd 2e 36 75 3c
       -0.011813083 0.024531327 -0.10488055 0.014966531
000300 80 2d 3f bd a7 55 7a bc bb 3c b6 bc 52 b7 07 be
       -0.04667425 -0.01527921 -0.022245755 -0.13253525
000310 ab 5f c3 bc 74 e9 8a ba 56 f4 27 bb 94 a1 c6 bc
       -0.023849329 -0.0010598139 -0.0025627813 -0.024246968
000320 35 96 c0 3d 55 6f 91 bc 37 05 cf bd ac 7d 92 3c
       0.0940365 -0.017753283 -0.101084165 0.01788219
000330 81 b1 88 bb a1 d0 b1 3d 5f 3c 4f bd 00 e7 39 3d
       -0.0041715507 0.08682371 -0.050594684 0.045386314
000340 8e cc 62 3d 7c eb c0 bc 21 7a 1a bd d0 68 f9 bc
       0.05537086 -0.023549788 -0.037714127 -0.030445486
000350 14 ab 50 bd b1 fe 59 bd 9f 74 1b 3c 8c 93 06 3d
       -0.050944403 -0.05322141 0.009488254 0.032855555
000360 6a 83 0a 3d a8 32 a9 bb 57 31 93 bc 70 6a c8 3b
       0.033816732 -0.0051635094 -0.017967863 0.006116204
000370 90 f0 67 3d 46 82 f8 3c 5f 9e 96 bb a8 28 5e 3d
       0.056625903 0.030335557 -0.004596516 0.05423799
000380 14 36 0f bd 0a 1a 86 3d 1a c1 4d bd 35 62 d8 3c
       -0.034963682 0.06547935 -0.050232984 0.026414016
000390 3b 43 64 3c 0c 05 1c 3d a5 93 fe bc 33 e9 c6 bc
       0.013932045 0.03809075 -0.031076262 -0.02428112
0003a0 b9 61 4e 3d 56 06 cd bd 4b c8 90 bc a8 d0 34 3d
       0.050386164 -0.10010974 -0.017673632 0.044144303
0003b0 d9 9c 29 bd 33 05 6c 3a 4a ef b7 3d da 0b 62 bd
       -0.041409347 0.000900346 0.08981188 -0.055187084
0003c0 aa 23 28 3d 49 6d 7f 3d 45 92 87 3c 90 08 6a bb
       0.041049637 0.06236008 0.016549239 -0.003571067
0003d0 1c b7 f8 3c cd a0 d0 3b a8 56 14 bd 51 52 d5 39
       0.03036075 0.006366825 -0.036215454 0.00040687856
0003e0 48 c9 0f bd c2 d2 7c 3c a9 53 1f bd c9 53 f9 bb
       -0.035104066 0.015431108 -0.038898144 -0.007608865
0003f0 5f b7 21 3c ae 55 30 3d 04 be fd ba b7 99 69 3d
       0.009870379 0.04305046 -0.0019358997 0.05703136

bias f4 [256]
000000 b5 5a a5 bc 60 c1 be bc 1c eb b4 bb dd ac 3d 3d
       -0.020184854 -0.023285568 -0.0055211913 0.046307433
000010 a4 c4 97 bb 95 66 4a bc d0 86 57 3c 35 10 00 3d
       -0.0046315957 -0.012353559 0.0131547 0.031265456
000020 c2 ee eb bb 89 ef 03 bd a2 f7 6d 3b 0f f6 31 bd
       -0.007200093 -0.03221086 0.003631093 -0.04344755
000030 25 2a 4e bb 7a 91 71 bc ec b2 78 bb 60 e7 12 bc
       -0.0031458226 -0.014744157 -0.0037948443 -0.008966297
000040 87 2c 3d bd 2e db 57 39 36 90 e4 bc 70 65 31 b9
       -0.046185043 0.00020585649 -0.027900796 -0.00016917824
000050 c7 7a 29 3b 40 1a 93 3c a0 bb df bc cc f5 03 3d
       0.0025860535 0.017956853 -0.027311146 0.032216832
000060 19 35 47 3c fb 39 01 bc 86 2b 0d 3d 8b ab 8d bb
       0.012158656 -0.007887359 0.034465335 -0.004323428
000070 33 51 cc 3b 05 01 3c bc ce 21 3e 3b 90 78 e5 bc
       0.0062352656 -0.011474852 0.0029011848 -0.02801159
000080 41 ae b9 ba 33 79 38 bd 69 ee 1a 3d 31 61 d7 bc
       -0.0014166312 -0.04503746 0.037825022 -0.026291462
000090 f0 88 cb bc a9 97 04 bd 1e 3e bb bc 0c 6a fc bc
       -0.02484557 -0.032371197 -0.022856768 -0.030812286
0000a0 5a cd f9 bc 2a 77 a8 bc 02 00 b0 3c b7 c0 f3 3c
       -0.030493427 -0.020564634 0.021484379 0.02975498
0000b0 ca 43 3f 3c 1f b5 d2 bb d5 2e 35 3c f6 b1 19 3d
       0.011673877 -0.0064302827 0.011058529 0.037523232
0000c0 c5 87 2b bd 5a f5 be 3c ad 48 ea 3c b4 84 b3 3c
       -0.041877527 0.023310352 0.028599108 0.021913864
0000d0 ac 79 6f 3c 13 e1 39 bd e0 2f 9f bb 67 0f 43 bc
       0.014616411 -0.045380663 -0.004858002 -0.011905528
0000e0 7e 0b 53 bd 17 54 21 3c 24 40 11 bd 25 2c 97 3b
       -0.05152463 0.009846709 -0.03546156 0.0046134167
0000f0 02 04 1b bc ec ed 93 bb 81 5a 2a 3d 21 bc d4 3c
       -0.009461405 -0.0045144465 0.041590218 0.025968613
000100 cd b0 56 bc 42 c5 cd bc b7 bd a0 3b 73 56 e5 bc
       -0.013103676 -0.025118474 0.0049054283 -0.027995324
000110 6a a0 20 3d 4f d8 33 bd 21 d7 95 3b 4e e1 ca ba
       0.039215483 -0.04390746 0.0045727645 -0.0015478523
000120 e1 de db 3c ba be 76 3b f9 7a 41 3c 44 28 f9 bc
       0.026839675 0.0037650303 0.011809104 -0.030414708
000130 09 02 d6 3c 83 71 50 bc 8b d7 03 bd 20 ab 1a bc
       0.026124017 -0.012722376 -0.03218798 -0.009440213
000140 39 cc 21 bd 68 20 e8 bc 99 7e 0f 3d 94 9e 2e bd
       -0.039501403 -0.028335765 0.035032842 -0.0426317
000150 ec 7a 82 bc 23 0c 76 3b 7f 9d 31 bc c2 0d 26 bd
       -0.015927754 0.0037543855 -0.010840773 -0.040540464
000160 ee 89 8b 3c 54 47 a0 3a 07 8c fa bb 01 f7 0f 3d
       0.017033543 0.0012228289 -0.007646087 0.03514767
000170 ab a5 42 bc a9 07 ba 3c ae 97 07 3d fd d1 28 bd
       -0.011880319 0.02270873 0.033103637 -0.041215885
000180 dd c1 3c 3c c9 d3 7d 3d ee 35 48 3c 58 1a dc bc
       0.01152083 0.061969552 0.012219889 -0.02686803
000190 86 36 24 3d d5 8b ce bc c0 a1 25 3d a7 e0 86 bb
       0.04009106 -0.025213161 0.04043746 -0.004116136
0001a0 88 84 27 bd 5c 59 e3 bc a1 02 cd 3c 22 b0 27 3c
       -0.040897876 -0.02775257 0.025025668 0.010234864
0001b0 8c dc cf 3c b3 cf 19 bd fd 56 1d 3d 01 b7 e9 3c
       0.02537372 -0.037551593 0.038413037 0.028529646
0001c0 8a b4 43 bb dc 3e 43 3b 71 7a 32 3d 0c 5f b1 3c
       -0.0029862248 0.0029792106 0.0435738 0.021651767
0001d0 14 1e 17 3d 45 a3 09 bc e0 66 4c bc e6 ed 2b 3d
       0.03689392 -0.008400743 -0.012475699 0.041974925
0001e0 12 fb 01 3c 98 14 79 3c 30 87 8a bc 71 e8 eb bc
       0.007933395 0.015202664 -0.016910166 -0.02879736
0001f0 0c 73 e3 3b b1 01 0c 3d fd c1 eb bc 38 25 94 3c
       0.006941205 0.0341813 -0.028779024 0.018084154
000200 ef 3d 69 bc a5 29 72 bc 5c 39 27 bb 20 7a cc 3c
       -0.0142359575 -0.014780437 -0.0025516367 0.024960577
000210 b8 a7 65 3c d9 d7 44 bb 32 c3 c7 3c 46 6c b8 bc
       0.014017038 -0.0030035882 0.024385069 -0.022512566
000220 bc 6d 92 bc 70 38 4b b8 5d e2 d0 3c 8c c2 7b bc
       -0.017874591 -4.8451533e-05 0.025498563 -0.015366208
000230 97 10 86 3c ec 32 b2 3c 36 00 86 3c 6d ea d5 3c
       0.016365333 0.021752797 0.016357522 0.02611276
000240 cb fc e9 3c 53 83 35 bc bb 82 df bc ae 4f 1a bc
       0.028562924 -0.011078673 -0.027284017 -0.009418411
000250 f5 74 59 bd e2 b7 87 3c 31 b0 ee bc b6 f2 b1 bc
       -0.053090055 0.016567174 -0.029136749 -0.021722179
000260 3c c6 55 bd 91 1f 91 3b a5 09 11 bd 9b 0e f2 3c
       -0.052191004 0.004428812 -0.03540959 0.02954798
000270 8c 28 02 bd 2e b0 14 3d c2 98 4e bd 3e a5 4f 3a
       -0.03177695 0.03630083 -0.05043865 0.00079210463
000280 3a f1 1c bd 7e 56 e6 bb ee 98 40 bc cc 0b 0b 3d
       -0.03831599 -0.0070293536 -0.011755211 0.033946797
000290 9e ab 6c bb 6a 92 97 3c f2 c4 ea bc 3f 87 29 3d
       -0.0036113034 0.018502433 -0.028658364 0.041388746
0002a0 cd 7b 08 3b 79 d4 1d bd c6 df 12 bd ae f8 bf 3c
       0.0020825744 -0.038532708 -0.03585794 0.02343401
0002b0 47 69 58 bc 2d bf 06 bd e6 9d 3a 3b 91 fd de 3c
       -0.013208694 -0.032897163 0.0028475462 0.02722052
0002c0 db 50 a0 3c cc f5 f9 3c b6 2c 8a bc 76 f4 55 bd
       0.019569805 0.030512713 -0.016867023 -0.05223509
0002d0 49 f5 af bc b0 5f 2b 3d b2 28 4d bc 59 3f 2c bd
       -0.021479266 0.0418393 -0.01252191 -0.0420526
0002e0 b5 44 e8 3a 3b d9 f5 3a c2 56 9f 3c 3a 59 81 bc
       0.0017720672 0.0018756756 0.019450549 -0.015789617
0002f0 57 c1 fe bc 3d 2b 02 bd 17 29 e9 3c 69 db 0e 3d
       -0.031098051 -0.031779516 0.028461976 0.034877215
000300 f8 71 9a 3c 35 12 a8 bc 11 a4 bd bc bd 69 b7 bc
       0.018853173 -0.020516494 -0.023149522 -0.022389287
000310 a2 f4 85 3b 44 e0 6b bc 50 8f 79 bc 95 8f f4 bc
       0.0040880004 -0.014396731 -0.015231922 -0.029853621
000320 46 78 4a 3c ac 13 54 ba bc 28 0b bc f2 7f 1a 3c
       0.012357777 -0.00080900895 -0.008493599 0.009429919
000330 da 0f ec 3c 4d e4 06 3d 2b 7b 1d 3c 71 2d 10 3d
       0.028816152 0.03293257 0.009611885 0.035199586
000340 31 14 b4 bc 39 44 e9 3c 0d 46 13 39 6b e8 5d ba
       -0.021982284 0.028474914 0.00014045108 -0.0008465114
000350 2c 1f d3 bc 49 b0 f9 bc a4 38 27 3b 7f ee 93 3c
       -0.0257717 -0.030479567 0.0025515938 0.01805806
000360 78 a0 29 3d 9d 4b 27 3c 97 88 ee 39 28 fb 3e 3b
       0.0414128 0.010210899 0.00045496665 0.00291414
000370 0e 08 c9 bc 8c 06 d2 bc 8b 99 25 3c 50 b5 43 3d
       -0.024539974 -0.025637887 0.010107408 0.047780335
000380 f7 d3 b2 3b 0f fd fc 3c 32 ec 8a 3c e4 0f cb bc
       0.005457397 0.030882386 0.01695833 -0.02478785
000390 ab e2 ba bc 64 75 4f 3b df cf 9e 3c b8 10 cf bc
       -0.022813162 0.0031655664 0.01938623 -0.025276527
0003a0 90 6f 5f 3b aa c6 15 3d a8 ed 20 3c c4 c7 a0 3c
       0.0034093596 0.036566414 0.009822287 0.019626506
0003b0 66 4b 4e bd f8 39 5b bb 64 99 c7 39 1f c5 39 bc
       -0.050364874 -0.00334513 0.00038070523 -0.011338501
0003c0 a3 ca 41 bd 6a cb 3d bd fd 33 18 3c 34 6c a8 3c
       -0.04731239 -0.04633657 0.009289739 0.020559408
0003d0 28 03 50 3c 65 32 63 bd 89 32 37 bd 20 cf df bc
       0.012696065 -0.05546798 -0.04472593 -0.027320445
0003e0 b6 fb 67 3c 17 df 80 3c 1a d7 e9 3b b7 3b 28 3c
       0.014159134 0.015731378 0.007136238 0.010268143
0003f0 e9 cd d6 bb 05 7e d7 b9 f9 11 5c bd 86 9c 19 bd
       -0.006555308 -0.00041101887 -0.053728078 -0.037502788

weight f4 [128, 256]
000000 98 68 6d 3c 11 82 38 bc 7e 0f a8 3c 0f 8d 11 bc
       0.014490269 -0.011261479 0.0205152 -0.008883729
000010 50 3a 5d 3d 73 e4 3b bd 8e d9 7f bd 1e e6 99 3b
       0.05401069 -0.045872163 -0.062463336 0.0046966216
000020 a5 11 b1 3a 65 02 bf 3c 3e 53 20 3d b4 93 4d 3d
       0.0013509287 0.023316571 0.039141886 0.05018969
000030 21 c9 61 bd 2c dd ae 3c f5 13 0c bd 23 5a b1 bc
       -0.055123452 0.021345697 -0.03419872 -0.021649426
000040 66 b1 67 bd a6 ee 28 3d de 78 2d bd 1a c0 1b 3d
       -0.056565665 0.041243218 -0.042351596 0.038025
000050 9a e8 b1 bc 73 f8 1d bc 6d 7d 0b bc 9e 95 27 3c
       -0.021717358 -0.009641754 -0.008513791 0.010228543
000060 36 0c 7e 3c 13 d6 e0 3c 10 00 31 bd eb 9c 22 bd
       0.015505841 0.027445829 -0.04321295 -0.03970043
000070 5d 8b 68 bd 0d 21 19 bd 5a 99 16 bd 34 da 3a bd
       -0.056773532 -0.037385035 -0.03676734 -0.04561825
000080 c5 b5 43 3d 5b 18 25 3d 73 88 5a 3d 7d 3f 84 bd
       0.04778077 0.04030643 0.053352784 -0.06457422
000090 a4 6d f0 3b f0 0c ca 3c c2 10 6f bd ae 3f 64 bd
       0.007337289 0.024664372 -0.05836559 -0.055724792
0000a0 c4 fc ce bc d3 3e cc bc c4 99 cf 3a 32 d9 42 bd
       -0.025267012 -0.0249323 0.0015838672 -0.047570415
0000b0 05 bc 63 bd 2e 35 3b bd 3c d3 12 3d 89 38 3b 3d
       -0.05559923 -0.045705013 0.03584598 0.045708213
0000c0 69 aa 77 bc 52 10 d6 3c 27 d7 1d bd bc 26 b5 bc
       -0.015116313 0.026130829 -0.038535263 -0.022113197
0000d0 d0 4f c8 3c d2 bb 47 3d b0 b7 85 3c 24 00 20 bd
       0.02445212 0.048763104 0.01632294 -0.039062634
0000e0 d8 de 14 3d 23 24 66 3c f6 7c 51 3d 0b fd 51 bd
       0.036345333 0.014046702 0.051144563 -0.05126671
0000f0 b9 49 83 bd 66 53 16 bd 34 cc 40 bd 21 66 52 bc
       -0.06410546 -0.03670063 -0.047069743 -0.012841732
000100 34 40 05 3c 95 91 d7 3c f7 3d ae bb af 6c c5 bc
       0.008132983 0.026314536 -0.0053174454 -0.024099676
000110 08 dc 26 bd ed 22 c7 ba 47 2b 57 bd 24 9c 08 3c
       -0.040737182 -0.0015192904 -0.052531507 0.008338008
000120 cb a0 50 bd 89 f1 2a bd 53 e0 8c bd 19 a7 99 bd
       -0.050934594 -0.041734252 -0.06878724 -0.075025745
000130 48 f6 a9 bb 34 55 13 bd 7a 77 ca bc 0f 75 67 bd
       -0.0051868297 -0.035969928 -0.024715174 -0.05650812
000140 b1 9c 0e 3d ba cf 5d bd aa 09 a0 bc cf 1d 3a bc
       0.0348174 -0.05415318 -0.019535858 -0.011359646
000150 99 d3 fb bc 7e 65 40 bd 6e f5 67 3d 5e 15 83 3c
       -0.030740546 -0.04697179 0.056630544 0.0160014
000160 21 5e cf 3c 66 7f 19 bc 3b 96 6b 3b ac 56 92 bc
       0.025313439 -0.009368753 0.0035947699 -0.017863594
000170 fe aa 39 3d 84 f0 0e 3d f3 e9 70 bc 16 e3 5d 3d
       0.045329086 0.034897342 -0.014704215 0.054171644
000180 34 dd 7b 3c b8 8c 4b bd 22 41 93 3c 2d 6b f4 3c
       0.015372563 -0.049694747 0.017975394 0.029836262
000190 f6 51 10 3d fc f9 20 bc e8 ee 29 3c 73 34 74 bd
       0.035234414 -0.009825226 0.010371901 -0.059620332
0001a0 90 9d 81 bd eb 02 f3 bc 80 b0 fa bc 7a b5 b0 3c
       -0.06328881 -0.029664477 -0.03060174 0.02157091
0001b0 58 c4 ba 39 2d e4 1f 39 20 e1 23 3c 75 76 62 bd
       0.00035622972 0.00015248424 0.010002404 -0.05528875
0001c0 18 6d 45 bc a2 e4 92 bb 75 26 4a bd 92 c9 6e 3c
       -0.012049936 -0.0044828216 -0.04935308 0.014574425
0001d0 38 f4 fb bc bb b1 6b bd 0e 82 7e bc 3c bf 28 3d
       -0.030756101 -0.057542544 -0.015533937 0.041198
0001e0 0d 31 7c 3d e6 66 1b 3d 65 cd 69 bd 85 00 49 bd
       0.061570216 0.03793993 -0.057080645 -0.04907276
0001f0 47 ec 27 3c 59 0a a8 3b 3e 97 09 3d 74 f8 1d bd
       0.010249204 0.0051281867 0.0335915 -0.03856702
000200 a5 f1 fb 3c 11 ec 82 3c d3 f3 a6 bb 6a 28 55 3d
       0.030754874 0.015981706 -0.005094984 0.052040495
000210 27 e8 19 bd 05 32 fd bc 98 6a 53 bd 35 42 58 bd
       -0.037574913 -0.03090764 -0.051615328 -0.052797515
000220 0f e7 9f bb e8 da e0 bc ed d0 12 bd ea e8 e0 3b
       -0.0048798393 -0.027448133 -0.03584378 0.006863703
000230 41 c0 50 bd 47 91 1c 3d b1 32 c0 3a d5 5b 26 3d
       -0.050964598 0.038224485 0.0014663545 0.04061492
000240 3f 02 89 3b 80 de 25 bc c2 2e 4c bc a4 43 18 3c
       0.004181176 -0.010123849 -0.01246232 0.0092934705
000250 9a 79 96 3c 4d cb 53 3d 11 6f 9d bc e2 69 f9 bc
       0.018368531 0.051707555 -0.019218 -0.030445997
000260 64 55 3e bc eb 5d 9d 3c 25 1a 27 bd 28 7e ed 3c
       -0.011617038 0.019209823 -0.040796418 0.02899082
000270 2f 99 57 bd db 80 f1 3b 40 42 0a bd 5c b5 44 bc
       -0.05263632 0.007370097 -0.033754587 -0.01200613
000280 e9 05 2d 3d 4d 8a 14 3c 97 bc 6f 3d 33 d8 17 3d
       0.042241964 0.009066177 0.058529463 0.037071418
000290 77 ec 7e 3c c1 80 2c 3c 7d c2 0b bc 64 a0 57 3d
       0.015559307 0.010528744 -0.008530256 0.052643195
0002a0 e3 b3 24 bd ed b0 4e 3c de 59 63 bd 64 90 22 3b
       -0.040210616 0.012615425 -0.055505626 0.0024805302
0002b0 f0 1b f2 3c 47 9b 63 bd c8 96 18 bd 92 12 a0 3c
       0.029554337 -0.055568006 -0.03725317 0.019540105
0002c0 57 5e 5a 3d ea 8c 65 bc ef e3 1a bd 31 c6 83 bd
       0.053312626 -0.014010647 -0.03781503 -0.064342864
0002d0 ba 2a 6f bd 6f 81 8d bd 99 1d e8 3c bf fa 3c bd
       -0.058390357 -0.06909453 0.028334426 -0.046137568
0002e0 14 2a 04 3c 75 8a a8 3c 3f 4b 65 3d 30 21 43 3d
       0.008066673 0.020573834 0.055979963 0.047639072
0002f0 ba 17 84 bd 7d 9b 50 bc 0d 88 3b bd 83 bc 46 3d
       -0.06449838 -0.012732384 -0.045784045 0.048519623
000300 3c b6 f6 3c 00 08 4a bd 23 10 85 bd 2d c1 34 3d
       0.030116193 -0.049324036 -0.064972185 0.04412954
000310 ff 0b 5b 3d 80 c4 58 3c 72 ce 59 3c 44 8d 35 3c
       0.053478237 0.013230443 0.013293849 0.011081044
000320 09 ec b7 3c 63 aa 35 bc 78 4e 41 bc 80 a1 e7 3c
       0.022451418 -0.011087987 -0.011798494 0.028275251
000330 60 8f 4d bd d8 8f 49 bd e9 0f bf 3c 77 8c bd 3c
       -0.05018556 -0.049209446 0.023323016 0.023138268
000340 35 22 e4 bc 03 c1 75 bd 48 e8 31 3d 0f 43 ca bc
       -0.027848342 -0.059998523 0.04343441 -0.02469018
000350 1c fa 35 3d 88 45 39 3d 1e 13 ef bc 57 e2 51 3d
       0.044427976 0.045232326 -0.02918392 0.051241245
000360 2c d9 e2 3b f4 d5 44 bd 30 01 45 bc 76 93 42 bd
       0.0069228616 -0.048055604 -0.012024209 -0.04750391
000370 1f 19 99 bc 56 93 f3 bc 49 07 74 bd 6c e1 32 bd
       -0.018688736 -0.029733341 -0.05957726 -0.04367201
000380 58 9a 20 3d fd cc 69 3b 2b 96 2c bd cf 4b 0d 3d
       0.039209694 0.003567516 -0.0421354 0.034496125
000390 73 28 86 bc 47 74 b1 3b 8f 4d 27 3d b9 85 25 bd
       -0.01637671 0.0054154727 0.04084545 -0.04041073
0003a0 53 5c 69 3d 84 42 e9 bc 44 7b 17 bd 48 82 10 3d
       0.056972813 -0.0284741 -0.03698279 0.035280496
0003b0 89 fe 2d 3d 16 eb 5e 3d be b6 26 3d e6 44 40 bd
       0.04247907 0.054423414 0.04070162 -0.046940707
0003c0 cb c4 7c 3b be 61 95 3c 81 5e 6d 3d e0 cf ba 3b
       0.0038569446 0.018235084 0.057951454 0.00570105
0003d0 80 90 03 3b 60 69 1c 3d 6a a7 94 bc 8a 77 b7 bc
       0.0020075142 0.03818643 -0.018146235 -0.022395868
0003e0 45 2a 8b 3c 10 12 90 3c e8 2f 45 bd a7 b0 3f 3d
       0.01698793 0.017586738 -0.04814139 0.04679933
0003f0 1b 85 17 bc d1 a7 51 bc a7 a3 1a bd 3a 99 65 bd
       -0.009248043 -0.012796358 -0.037753727 -0.05605433

bias f4 [128]
000000 8d 3c 44 3d a0 d4 ad 3b 52 82 71 bd f3 e8 f0 bc
       0.04790931 0.005304888 -0.058962174 -0.029407954
000010 ce 64 00 3c e8 a4 fa bc db 3a 9c 3b 22 21 8a bd
       0.007836534 -0.030596212 0.0047677583 -0.06744601
000020 65 3c 53 bd 4b 3c 8c 3c 4e 24 95 bc 34 5a 3a 3d
       -0.05157127 0.017118594 -0.018205788 0.04549618
000030 ca 95 6e bd c0 53 a6 bc af a8 07 39 95 86 e7 3c
       -0.05824832 -0.020303607 0.00012937443 0.028262416
000040 51 ef 09 3c 93 82 8f 3c 5d 31 88 3b 15 4a 23 bd
       0.008418874 0.017518317 0.004156275 -0.039865572
000050 a9 62 18 3d d5 bf 35 bd 78 25 20 bd c6 6f 99 b9
       0.037203465 -0.0443724 -0.039098233 -0.00029265712
000060 6d 6b 29 bd ee df dc bc b3 bb 69 3d a2 4e d5 bc
       -0.041362215 -0.026962247 0.05706377 -0.026038472
000070 11 52 e4 bc de 5d 2c bd 6e 96 cf bb ee 95 d6 3c
       -0.027871164 -0.042081706 -0.0063350713 0.026194539
000080 4b 3b 2a 3c a8 98 10 bc 02 8f 65 3d ba c4 28 bd
       0.010390113 -0.008825459 0.056044586 -0.041203238
000090 e0 a5 8f 3d a8 4c f8 bc 0b e6 8e bb 73 7f fd 3c
       0.0701406 -0.03030999 -0.0043609194 0.030944562
0000a0 c1 a8 b6 bc 96 50 4d 3d 0b e0 38 bd 42 0a fe 3c
       -0.022297265 0.05012568 -0.04513554 0.03101075
0000b0 74 4f 8f 3d 01 da d9 bc 6b 3e 60 bd 02 eb 41 bc
       0.06997576 -0.02659321 -0.054747026 -0.011835815
0000c0 17 b2 13 3d d6 98 1a 3d 78 d4 2f 3c 5a fb 6c bd
       0.03605851 0.037743412 0.010731809 -0.057856895
0000d0 7d e1 70 3c 89 6b 37 3d 44 ae 2b 3d 18 1f 35 bd
       0.014702198 0.044780288 0.04191424 -0.044219106
0000e0 18 da 6a bc 01 b2 23 bd 9b 76 79 3c 0e a1 3b 3d
       -0.014334224 -0.03996468 0.015226032 0.04580789
0000f0 eb b9 80 bc 0a 5d 6f 3c e7 d6 9d 3c 2c 3c 04 bd
       -0.015713653 0.014609585 0.019267512 -0.032283947
000100 b6 c6 f9 bc 5f c3 3e bc a4 6d a6 bc 34 74 1d bd
       -0.03049026 -0.01164326 -0.020315953 -0.038440898
000110 08 08 47 bd 16 c3 54 bd 78 b0 b5 3c 65 c0 17 3d
       -0.048591644 -0.05194386 0.022178873 0.037048716
000120 aa 00 3e bd d2 d5 58 bd 08 25 84 3c 74 19 47 3c
       -0.046387352 -0.05293829 0.01613094 0.012152065
000130 4c ba 94 3d 1a d6 e9 bb 4b 9b dd 3c cc e7 83 3c
       0.07262096 -0.0071361186 0.027051589 0.01610174
000140 ac ce 4f bd 1b 7a 0e 3c d7 60 23 3c 08 65 ae 3a
       -0.050734207 0.008696104 0.009971819 0.0013305256
000150 2e e3 0c bd 41 ef 33 3d f2 e6 9d bc 84 21 12 bc
       -0.034396343 0.043929342 -0.019275162 -0.008919124
000160 56 c4 57 bd f6 e1 b4 bc 8d de 70 bc 79 b0 ed bc
       -0.052677475 -0.022080403 -0.014701498 -0.029014813
000170 45 bd 02 3d 33 6f b0 bc 88 a1 07 bd c5 e9 9a 3d
       0.031918783 -0.021537399 -0.033113033 0.07564119
000180 d5 a6 cf bb 76 07 30 3d 1c c8 53 bc 3b 77 52 3d
       -0.0063370266 0.042975865 -0.012926128 0.05138324
000190 4b 9b 15 bc 22 18 44 bd 65 ea 16 3c d9 6b dc 3c
       -0.009131263 -0.047874577 0.009211157 0.026906895
0001a0 07 cf d5 bc 56 b9 6a bd 78 72 17 3c 3c 2e 65 3d
       -0.026099695 -0.057305656 0.0092436 0.055952296
0001b0 f9 ee eb bc 7e 77 02 3d 57 75 9c 3a 14 15 ca bc
       -0.028800474 0.031852238 0.0011936825 -0.024668254
0001c0 71 2a 66 bd b8 e3 9f bd a8 73 ef 3c f0 ba 3a bc
       -0.05619282 -0.07807106 0.029229954 -0.011397108
0001d0 5e 3e 42 bd dc 20 81 bd c6 6d b0 bc b3 1b b3 3b
       -0.04742276 -0.063050956 -0.021536719 0.0054659485
0001e0 51 25 71 3d 91 ff 31 3b 92 9a 55 bc bf 9f 2d 3d
       0.05887348 0.0027160386 -0.013037341 0.042388674
0001f0 90 ce d7 3c ed 95 35 bd 63 3d 7d bd 3a 48 6b bd
       0.026343614 -0.044332433 -0.06182612 -0.057441927

weight f4 [60, 128]
000000 3b 43 80 bd f8 6b 14 3c 22 46 28 bd 27 9c 29 bd
       -0.06262823 0.009058945 -0.04108251 -0.041408684
000010 99 23 75 3d 1a 3d 88 3d 60 b9 03 3c 1c 98 cd bc
       0.0598484 0.06652279 0.008039802 -0.025096945
000020 72 94 60 3d 95 3e 20 3d 1f 0e 55 bd d6 42 e3 3b
       0.05482907 0.039122183 -0.05201542 0.0069354577
000030 ce 49 59 3d 8c fb 9a bd 2f 19 dc bb d6 ac 9c bd
       0.0530489 -0.0756751 -0.0067168693 -0.07650153
000040 4e 23 f7 bd 08 6d 4c bc 27 ea dc 3c 6e d1 5e bd
       -0.12067281 -0.012477167 0.026967121 -0.054398946
000050 66 68 0a bb 03 43 e5 3c df 96 a7 3d fb 93 00 3d
       -0.0021119355 0.027986055 0.08183073 0.031391125
000060 e0 55 ba bc 31 1c 6b 3c cd e0 76 3d f4 70 8b bc
       -0.022746027 0.014349983 0.06027298 -0.017021634
000070 7d df 81 3d bb 97 58 3d ea 2f 9c bb 0a 27 08 3d
       0.06341455 0.052879076 -0.004766454 0.033240356
000080 82 1a cb bc 6c 0a cd 3d 0d ec 2b 3d 38 e3 ae ba
       -0.024792913 0.100117534 0.041973162 -0.0013342863
000090 1f f3 02 3d fe c7 38 3d 53 ae 92 bd e1 3c c4 3c
       0.03197014 0.045112602 -0.07162156 0.02395481
0000a0 e8 43 0e bc 50 02 9d 3d 37 d3 46 3c 22 aa 66 3d
       -0.008683182 0.07666457 0.0121353185 0.056314595
0000b0 cf f6 f5 3c 74 38 0e bd 6e 3d a0 3c 92 2c 41 3d
       0.030024914 -0.034721807 0.019560542 0.047161646
0000c0 2c 90 27 bd 33 c1 6a bd bb 10 1c bd c1 6e 70 3d
       -0.040908977 -0.057313155 -0.038101893 0.058699373
0000d0 96 0f bd bd c0 7f 16 be d7 6c 39 3b 9a 95 0e bd
       -0.092314884 -0.1469717 0.0028293633 -0.03481064
0000e0 f1 2e 84 3d 32 9b 6d bd f9 41 0b be 75 cc 84 bc
       0.06454266 -0.058009334 -0.13599385 -0.016210774
0000f0 e0 bb af bc 9b 06 2a bd c5 ed 89 bc 87 40 6c 3b
       -0.02145189 -0.041510206 -0.01683701 0.0036049203
000100 0d c1 49 3d d1 05 f7 3d f4 c8 d1 bc d0 32 56 bd
       0.049256373 0.12061656 -0.025608517 -0.052294552
000110 28 13 6a bc a6 0e e6 3b 30 87 0c bd 7d 28 e8 bb
       -0.014286794 0.007020789 -0.034308612 -0.0070849047
000120 fd f2 b5 3c bc 16 3c bd f6 39 02 ba 29 97 15 3d
       0.022210592 -0.04592012 -0.00049677433 0.03652111
000130 b6 27 45 bd a3 ea 26 bd 5c 0c bc 3c 74 9d 75 bc
       -0.048133574 -0.04075111 0.022955112 -0.014991153
000140 4f a7 33 bd e9 ff 54 3d 27 8b 16 3d e5 f7 9a bd
       -0.04386073 0.052001867 0.0367538 -0.075668134
000150 d1 f5 8d 3d 35 ef d8 bc 85 74 a0 3d 41 ff 84 3d
       0.069316514 -0.02648125 0.07834724 0.06493998
000160 56 d7 28 bd fe c4 e4 3c 3d f5 d0 3c a4 5c 85 bd
       -0.041220985 0.027925964 0.025507564 -0.065118104
000170 cc 66 bb bc 17 ca 28 bd c2 0d 6e 3d 48 e5 06 3e
       -0.022876166 -0.041208353 0.05811859 0.13173401
000180 42 b3 88 bd 3d f9 89 3c 43 b8 22 3d e0 59 a7 bd
       -0.06674816 0.016842479 0.039726507 -0.08171439
000190 6a 4f 8b 3d e6 c5 83 3d 74 9f d0 bd 66 ee 0b bd
       0.068022564 0.064342305 -0.10186663 -0.0341629
0001a0 18 dd 95 3b 23 90 3b 3d 61 0f dc bb bb d6 a3 3b
       0.0045734756 0.045791756 -0.0067157005 0.004999963
0001b0 25 ae b4 3d 5b 59 25 bc b1 46 7d bc d4 08 f0 bc
       0.08822278 -0.010092105 -0.015458749 -0.029301085
0001c0 5b 06 a2 ba 90 5f 30 bc fc 97 46 bd 2c 28 9f 3c
       -0.0012361513 -0.010764971 -0.048484787 0.019428335
0001d0 03 cb 34 bd 5d 2f a0 3d 28 88 9d bd 90 c6 2a bd
       -0.04413892 0.07821534 -0.07691985 -0.04169327
0001e0 63 42 59 3d 8c e1 94 3c 61 42 1a 3b 80 b4 14 bd
       0.053041827 0.018173955 0.00235381 -0.03630495
0001f0 a9 1e 50 bc 05 c2 7c bd 50 a6 0f 3d 7a c0 bb bc
       -0.012702622 -0.06170847 0.035070717 -0.022918928
000200 78 cf 8a 3c eb ec 2e 3b e2 4b f0 3a 04 5d 65 3d
       0.016944632 0.0026691507 0.0018333162 0.05599691
000210 de f6 84 3e c0 b5 74 bc 0b 33 8e bb fe b8 93 be
       0.25969595 -0.014935911 -0.004339581 -0.28852075
000220 3f 77 4b 3d 6a 99 4c 3e db d4 6c 3e fb 69 c5 3d
       0.04967427 0.19980398 0.23128073 0.09639355
000230 eb fb da bd af a5 a1 be b4 f4 0d 3d 00 8f 62 bc
       -0.10692581 -0.3157172 0.034657195 -0.013828039
000240 2e c8 8e 3d c3 4b f6 bd ae 81 d1 3d 34 0f 0f 3d
       0.06971775 -0.12026169 0.102298126 0.03492661
000250 ce 5b 28 3b 32 02 50 bd 94 64 8f 3d fc f4 2c bd
       0.0025689485 -0.050783344 0.07001606 -0.042225823
000260 3e f8 95 3d 28 77 81 3c a1 b4 95 bc fe 28 9a 3d
       0.07322739 0.015803888 -0.018274607 0.0752735
000270 3a 91 7b bc 9e db 7c bd 75 52 72 3d 9f 4c c8 bd
       -0.015354449 -0.06173288 0.05916067 -0.09780239
000280 7b 69 5b bd 18 ed 48 bd 3b 3e 5d bd de 0e a1 3e
       -0.05356739 -0.049054235 -0.054014426 0.31456655
000290 fe bb d5 bb 51 8c 7e 3c 08 e0 07 bd 4d d3 e2 bd
       -0.0065226546 0.015536384 -0.033172637 -0.11075459
0002a0 c9 36 90 bd 74 9f 90 bd 2d c4 ec 3c cb 8a 82 bd
       -0.070416994 -0.07061663 0.028902138 -0.06374129
0002b0 b5 be 63 3d 68 d7 17 be 92 b9 a7 3e 9a 8f 40 3c
       0.055601794 -0.14828265 0.32758766 0.011752987
0002c0 5b f7 cc 3b 37 94 a6 ba ee ba aa 3d 25 0c 03 be
       0.006255073 -0.0012708966 0.08336435 -0.12797602
0002d0 c3 6c 75 3b 94 4d 43 bd 97 4f 96 bc 6d 03 6d bd
       0.003744886 -0.047681406 -0.018348498 -0.057864595
0002e0 52 30 87 3b b2 f9 1c 3d 19 55 eb bb 8b 3d 47 3c
       0.0041256333 0.038324066 -0.0071817753 0.012160669
0002f0 9e 65 95 bc b0 de ea bd db fd 80 3d 8f 34 35 be
       -0.018236931 -0.114682555 0.06298419 -0.17695831
000300 f5 7c 90 3b 28 78 b0 3b 55 6e 80 3d 03 3a 47 3d
       0.0044094273 0.0053854175 0.06271044 0.04863931
000310 01 dc 33 3d 21 9b 13 be 0c 31 1f 3b 38 96 5d 3e
       0.043910984 -0.14414646 0.0024290709 0.21639335
000320 32 b0 38 bc e8 8b 0d bd 0b 05 f5 3d e2 3e 69 be
       -0.011272477 -0.034557253 0.119638525 -0.22777894
000330 ed 91 94 3d a0 a3 6f be 94 36 b4 3d cb 27 f4 bb
       0.07254396 -0.23402262 0.087994725 -0.0074510328
000340 5e 32 9c 3c 67 c2 64 bd 54 0e 03 bc 22 af 1b 3b
       0.019066986 -0.05584946 -0.007999022 0.002375551
000350 22 6f c4 bb 35 37 44 be 10 42 e7 3c 0c 00 93 bc
       -0.0059946934 -0.19161685 0.028229743 -0.017944358
000360 6a 24 ca bc b8 c4 36 bc ad 94 78 bd 0e e3 98 bb
       -0.024675567 -0.0111553 -0.060688663 -0.004665739
000370 96 2d 46 bd 40 7b 76 3d 8c 49 3f bd c4 e7 68 3c
       -0.048383318 0.060176134 -0.046701 0.0142154135
000380 2a 54 04 bd f3 ac 29 3e 88 cb 91 3d e1 80 4a bd
       -0.032306828 0.16569881 0.07118899 -0.049439315
000390 d4 7a 68 bc e2 e5 e0 3c 12 da a9 3c ca 3e 46 3e
       -0.014189441 0.027453367 0.020733867 0.1935989
0003a0 6c f6 fb 3c 57 18 02 3d 85 25 95 3d 91 98 35 bd
       0.030757152 0.031761494 0.07282547 -0.04433495
0003b0 bd 58 1e 3d 9e 39 dc bb 3e 5d 47 3e c2 ad 4d bc
       0.038658846 -0.0067207357 0.19469163 -0.012553634
0003c0 4e f9 c3 bb 13 bc 11 3e d4 9c 86 bd 54 d7 86 bd
       -0.005980647 0.14231901 -0.06572881 -0.06584039
0003d0 3a 4d 41 bd 13 be 93 be 6c 3c 10 bc 70 6e 76 3d
       -0.04719279 -0.28855953 -0.008803468 0.060163915
0003e0 2c 5c 18 be 70 43 a4 bc f4 99 b3 bd 19 5e 50 3b
       -0.14878911 -0.020051688 -0.087695986 0.0031794368
0003f0 b7 a6 1e 3d 46 82 b8 bd c1 a6 ae 3d c2 70 82 bc
       0.03873321 -0.09009223 0.085278995 -0.015922908

bias f4 [60]
000000 82 4b 38 bd bf 26 7a 3c 3b 5d da 3b 5d 86 a1 bb
       -0.044993885 0.015268027 0.006663946 -0.0049293474
000010 ae f0 0a bd 2e b1 76 ba 08 ba 12 bb 29 9f 52 bc
       -0.033920936 -0.0009410557 -0.0022388715 -0.01285533
000020 9b 58 ad ba 56 39 82 3b 52 2e 6e bc 27 59 f1 ba
       -0.0013225259 0.00397412 -0.014537411 -0.001841341
000030 86 ec 25 bc 71 39 f5 b8 40 eb f9 3c 16 c2 8b 3c
       -0.010127192 -0.0001169321 0.030507684 0.01706032
000040 ed 07 00 bc b5 c8 71 bb 09 c4 5c 3c eb bc 14 bc
       -0.00781439 -0.0036893312 0.013474473 -0.009078245
000050 f2 e9 9d 3c 6b 7e 73 b8 b2 12 82 bc 65 18 b0 3c
       0.019276593 -5.805345e-05 -0.015878055 0.021496007
000060 21 e3 5f 39 c6 f6 b4 3a bb b7 a4 3b 2b 09 f4 39
       0.0002135155 0.0013806454 0.005026785 0.00046546137
000070 45 81 fe bc dc d0 86 bb 50 c2 b0 bc 1e cc c8 38
       -0.0310675 -0.0041142534 -0.02157703 9.574763e-05
000080 73 55 3c bb 59 2a 65 38 92 0d c8 3c c5 af 9a bc
       -0.0028737455 5.4637294e-05 0.024420533 -0.018882642
000090 b4 d1 7d 3b d8 fe 00 39 34 a6 c2 ba 47 42 ec bc
       0.003872973 0.00012301968 -0.0014850558 -0.028840197
0000a0 76 3d 2c 3d 9e 3b 10 3d d1 5e 65 bc 41 69 91 3c
       0.0420508 0.035213105 -0.013999657 0.017750384
0000b0 87 bb 98 bc d9 f5 2c 3c 86 97 47 ba e4 a0 70 3c
       -0.018644108 0.0105566615 -0.00076138263 0.014686797
0000c0 6e c7 1d bd 60 b4 53 38 65 36 03 bb e4 97 27 bb
       -0.03852027 5.0474307e-05 -0.0020021435 -0.0025572712
0000d0 bc 56 6e bb 27 ed 87 3c 7e 3a a2 3c 97 ef 90 3b
       -0.0036367616 0.016592575 0.019803282 0.0044230926
0000e0 c8 12 a5 3a 0c 22 70 39 70 f1 f7 3b d7 dc 16 b8
       0.0012594098 0.00022900867 0.0075666234 -3.596846e-05
