linearPredictionModels/db39/mega/cleanedCombine.csv_wholeNetPrototype5_Epochs_10_ValidationLoss0.418623_lr0.0006_2023_08_12_16:33:16.pth (torch, 992679 bytes, 8 tensors)

weight f4 [512, 145]
0.1064873 0.084297724 -0.05793051 -0.09229131 -0.24792787 -0.08748891 -0.34756517 -0.5472556
-0.17701559 -0.081860326 -0.49611253 0.07782679 -0.36070722 0.1719312 0.04826772 -0.4879227
-0.37687424 0.21231014 0.27669096 -0.28355515 0.1820154 0.055123612 0.021565033 -0.18806674
-0.049342904 -0.083828144 -0.4348261 -0.09883526 0.047581892 -0.03963653 -0.4816287 -0.024113704
0.26246738 -0.20513672 -0.2321718 -1.1095672 0.037322458 -0.5566224 0.2411746 0.27584156
-0.011736471 -0.30782208 -0.02283518 -0.3584762 0.06585925 -0.470845 -0.0147517035 -0.07658953
0.13686468 -0.020401418 -0.052172866 -0.09011343 -0.13797595 0.04438498 -0.0900731 0.09484333
-0.12547518 -0.16695428 -0.49415523 -0.5162561 -0.14680222 0.16138792 -0.12922785 0.12572719
-0.073398985 -0.2778585 -0.11492373 -0.068210185 0.016920546 -0.28933722 0.26690876 -0.14976783
0.20322627 0.06082035 -0.18688254 -0.16262838 0.07277104 0.15759926 0.10410918 -0.13148004
-0.15478477 -0.05290264 -0.56708574 -0.029905746 0.07614964 -0.20751843 -0.046260517 -0.044144087
0.037473947 0.30292696 -0.25108856 -0.022336641 -0.05535618 -0.008047818 -0.12802969 -0.1449008
0.15184213 0.26560816 -0.039973617 0.037869837 0.04381532 0.1383166 0.010536381 0.2134501
-0.04955578 0.10557159 0.07365455 0.013268765 0.016175192 -0.27918452 -0.18370831 -0.05116479
-0.04066555 -0.023108248 0.16211036 0.015811738 -0.10002376 -0.038280565 0.15266392 0.14194007
-0.08792766 -0.088050984 0.15839264 0.0073206034 0.16882221 0.08487665 -0.07709424 -0.0012024429
0.06953118 -0.051682316 0.009325938 -0.04318298 0.09151048 0.06321493 0.008322191 0.07101555
-0.011273953 -0.021697 0.015580423 -0.029363746 -0.08026362 0.0033308547 0.057302557 -0.020897977
-0.041411072 -0.13186114 -0.020947212 0.0046338476 -0.08657179 -0.133084 -0.120730735 0.03016329
0.038780633 -0.09807612 0.044682845 0.0071623363 0.002071774 -0.06199627 -0.097158745 -0.040163808
-0.07750085 -0.10309828 0.041100334 0.028574951 -0.1147559 -0.10899383 -0.29603353 -0.057523448
0.08774565 0.01408202 -0.09435384 -0.11171719 -0.042241707 -0.15880975 -0.27429172 -0.07438439
-0.1583118 0.07808116 0.013679987 -0.16228765 0.106960684 -0.14633922 -0.07029428 -0.092487946
-0.16541198 0.058312505 0.24110524 0.039739482 0.11364474 -0.07037771 -0.06565767 -0.11338069
-0.29306033 0.012346525 -0.16599911 -0.21372174 0.13356878 -0.10966783 -0.047173496 0.102964096
-0.16137274 -0.046084873 -0.10989594 0.11629885 0.12680008 -0.16077831 -0.071527876 -0.14193396
-0.076067835 -0.20778126 -0.16450901 -0.092207685 -0.07147452 -0.07249651 0.1004366 -0.08062483
0.073260285 0.18440455 0.19631743 -0.18860903 0.029730061 -0.0019352643 -0.36153072 0.2823829
0.09018571 0.021562561 -0.21654464 -0.14395289 -0.026624504 0.076230064 -0.13775335 -0.18671492
0.31521654 0.15657975 0.21825077 -0.03413744 -0.19040456 0.42540255 -0.26474383 0.3342648
0.019213684 -0.03147386 0.0023289246 0.12840551 0.11906602 -0.27268192 -0.027497618 -0.34913966
0.06404784 -0.033552907 0.10052758 0.18332301 0.046466436 0.19635397 -0.040074725 0.10365702
00000000: 0316 da3d 49a4 ac3d 8b48 6dbd 3a03 bdbd
00000010: cee0 7dbe 632d b3bd 10f4 b1be f118 0cbf
00000020: 9343 35be 63a6 a7bd 7602 febe a763 9f3d
00000030: 9eae b8be bc0e 303e 5fb4 453d 01d1 f9be
00000040: a9f5 c0be d467 593e 70aa 8d3e 242e 91be
00000050: 3f62 3a3e 4cc9 613d 27a9 b03c 9194 40be
00000060: c91b 4abd 17ae abbd 87a1 debe 246a cabd
00000070: 3be5 423d ea59 22bd 0998 f6be 1a8a c5bc
00000080: 2062 863e 5c0f 52be 72be 6dbe 4c06 8ebf
00000090: 6fdf 183d ce7e 0ebf 79f6 763e 1b3b 8d3e
000000a0: 544a 40bc db9a 9dbe d810 bbbc 318a b7be
000000b0: 37e1 863d 9912 f1be 21b1 71bc f9da 9cbd
000000c0: 4126 0c3e e020 a7bc 37b3 55bd 648d b8bd
000000d0: 9149 0dbe 06cd 353d 3f78 b8bd 383d c23d
000000e0: 917c 00be 10f6 2abe ea01 fdbe 5c29 04bf
000000f0: 5253 16be e042 253e 4e54 04be a1be 003e
00000100: 3552 96bd 7843 8ebe 225d ebbd c8b1 8bbd
00000110: f59c 8a3c 0224 94be 44a8 883e bd5c 19be
00000120: 8c1a 503e c21e 793d 235e 3fbe 0e88 26be
00000130: fc08 953d b361 213e 3237 d53d b4a2 06be
00000140: e67f 1ebe 70b0 58bd 882c 11bf e5fc f4bc
00000150: 58f4 9b3d b67f 54be ab7b 3dbd 6ed0 34bd
00000160: 487e 193d 3e19 9b3e ae8e 80be 55fb b6bc
00000170: 29bd 62bd ffda 03bc 371a 03be e060 14be
00000180: 817c 1b3e cbfd 873e 60bb 23bd 671d 1b3d
00000190: b177 333d dea2 0d3e c9a0 2c3c aa92 5a3e
000001a0: 00fb 4abd eb35 d83d 32d8 963d 3c65 593c
000001b0: d681 843c 46f1 8ebe 081e 3cbe 2c92 51bd
000001c0: eb90 26bd 824d bdbc 4200 263e 9e87 813c
000001d0: 42d9 ccbd 15cc 1cbd ee53 1c3e bd58 113e
000001e0: 6b13 b4bd 1354 b4bd ae31 223e ace1 ef3b
000001f0: bbdf 2c3e cfd3 ad3d 96e3 9dbd 4a9b 9dba
00000200: 5d66 8e3d d6b0 53bd d2cb 183c a3e0 30bd
00000210: d969 bb3d d476 813d cd59 083c 9a70 913d
00000220: 63b6 38bc e8bd b1bc 0845 7f3c 3d8c f0bc
00000230: 4161 a4bd 784a 5a3b 16b6 6a3d 3c32 abbc
00000240: a89e 29bd 9b06 07be 7d99 abbc 88d7 973b
00000250: 8d4c b1bd 2c47 08be ad41 f7bd 0119 f73c
00000260: 71d8 1e3d 22dc c8bd 5c05 373d 08b2 ea3b
00000270: 9ac6 073b cdef 7dbd 2afb c6bd ce82 24bd
00000280: c4b8 9ebd 3125 d3bd d358 283d 0416 ea3c
00000290: 2405 ebbd 2838 dfbd b591 97be b59d 6bbd
000002a0: feb3 b33d 46b8 663c 963c c1bd fbcb e4bd
000002b0: a405 2dbd 069f 22be f76f 8cbe d856 98bd
000002c0: 7d1c 22be 04e9 9f3d 0622 603c bc2e 26be
000002d0: 340e db3d f3d9 15be 73f6 8fbd 526a bdbd
000002e0: c261 29be 18d9 6e3d 4be4 763e dec5 223d
000002f0: 93be e83d 3022 90bd 8777 86bd 2334 e8bd
00000300: 010c 96be 1449 4a3c acfb 29be dfd9 5abe
00000310: 41c6 083e 8799 e0bd ff38 41bd d7de d23d
00000320: e53e 25be 7ec3 3cbd 1f11 e1bd 172e ee3d
00000330: e1d7 013e 12a3 24be 357d 92bd 2357 11be
00000340: 74c9 9bbd 9cc4 54be 0d75 28be 62d7 bcbd
00000350: 3c61 92bd 0d79 94bd b4b1 cd3d a21e a5bd
00000360: 7d09 963d 8cd4 3c3e 7007 493e ba22 41be
00000370: 758c f33c b2a8 fdba 8e1a b9be 7e94 903e
00000380: 49b3 b83d f8a3 b03c e1bd 5dbe 6368 13be
00000390: a21b dabc 821e 9c3d 370f 0dbe 3232 3fbe
000003a0: 1064 a13e 7156 203e 217d 5f3e b3d3 0bbd
000003b0: 6af9 42be 5dce d93e 818c 87be c224 ab3e
000003c0: 0466 9d3c bcea 00bd dfa0 183b bc7c 033e
000003d0: e3d8 f33d f79c 8bbe af42 e1bc 6fc2 b2be
000003e0: 842b 833d c66e 09bd 67e1 cd3d 07b9 3b3e
000003f0: 9753 3e3d 0411 493e 6525 24bd 224a d43d

bias f4 [512]
-0.066840455 -0.0952365 -0.16360341 -0.095162906 -0.020223998 0.09076579 -0.105794415 -0.0654605
-0.040173315 0.010717761 0.0018942902 -0.029505733 -0.1780512 -0.21123956 -0.19275266 -0.06366352
-0.015754363 -0.22383526 -0.10627221 -0.028919183 0.020556059 0.07979563 -0.13179187 -0.09958386
0.0021064542 0.0065361937 -0.03963438 -0.054624498 0.00053284067 -0.06111374 -0.057898078 -0.1030354
0.016855992 -0.08471229 -0.015534223 -0.12094743 0.08532603 -0.080527686 -0.013540455 -0.0970437
-0.13012913 0.07513918 -0.26787037 -0.10066239 0.058650173 0.08172671 -0.0297999 -0.27987963
0.013961812 0.155609 -0.0051528877 -0.009587065 0.034842346 -0.08967911 0.030450555 0.033300497
-0.117031574 -0.19491155 -0.078749 -0.04960862 -0.09873995 -0.13209265 0.059154976 -0.055220235
-0.07661255 0.0023918932 -0.28050217 -0.102832 -0.013916202 -0.13395308 0.098477274 -0.079459995
-0.038910575 -0.17785387 -0.07198267 -0.064451516 -0.042662337 -0.102305144 0.03254034 -0.052894045
-0.051102478 -0.050818413 -0.06047594 -0.09917136 -0.06849848 -0.040624496 -0.032072917 -0.072584465
0.015588478 0.04855043 -0.06553567 -0.1580514 0.08108493 -0.07370424 -0.25142744 -0.11992288
0.11407577 -0.15783316 -0.10842427 -0.03904706 0.012640299 -0.13541138 -0.08977515 -0.17647032
0.14826798 0.0016764211 -0.067270055 0.024384493 -0.11646074 -0.04189296 -0.019855503 -0.1480437
-0.0030326743 -0.1783638 -0.18652385 -0.056762356 -0.04112976 -0.17685583 -0.11510656 -0.06433822
-0.11622565 -0.13679825 -0.18981265 -0.028465204 -0.031031895 -0.031616338 0.039267596 -0.16209614
-0.003181151 -0.13973106 0.0025946156 -0.19153687 -0.16050734 -0.0038704032 -0.1999413 -0.084047854
-0.00054960256 -0.11664623 -0.11515626 0.05282776 -0.03564039 0.048666824 -0.10615539 -0.15242177
-0.05240049 -0.036104914 0.053623937 0.04830098 -0.14405371 -0.14299726 -0.11898705 -0.021823801
-0.026770577 -0.13382787 -0.107370034 -0.12657355 -0.0014415857 -0.18324675 0.04145718 -0.10584147
0.22134756 -0.137528 -0.11787726 -0.070724174 -0.08662074 0.007093972 -0.14722061 -0.03884594
-0.13730542 -0.09822318 -0.26820415 -0.035524875 -0.08723594 -0.19318052 -0.05151163 0.057307176
0.032596864 -0.07832791 0.027854575 -0.028615702 -0.12417402 -0.056158405 0.07083312 -0.10090934
-0.02718793 -0.04919447 -0.24476895 -0.12448415 -0.11208767 0.13806392 -0.058894455 -0.1993393
-0.03127658 0.068133965 0.049351122 -0.15349184 -0.08824901 -0.025281986 0.03832979 -0.06767493
-0.19408037 0.028552001 0.08713809 -0.07722233 -0.06419605 -0.07845061 0.015345882 -0.029254366
-0.08249304 -0.1743934 -0.093841985 -0.14796533 -0.037434664 -0.20755008 -0.06707162 0.03262258
-0.01985563 -0.10674866 -0.11053631 -0.018888865 -0.080913104 -0.13284223 -0.120208316 0.07353535
0.20647149 0.03607238 -0.13832313 -0.20683251 0.07447195 0.085492685 0.0016582345 -0.08571837
0.04169171 0.036857154 -0.031056296 -0.047180377 0.066367075 -0.09701622 0.05754497 -0.0905802
0.17134374 -0.21268724 -0.14353542 -0.069228314 -0.09176769 -0.19873136 -0.19104747 -0.063765004
-0.069417454 -0.08180499 -0.0780871 -0.051266305 0.06567137 -0.07149193 -0.060660757 0.044612646
00000000: a6e3 88bd 5b0b c3bd a787 27be c5e4 c2bd
00000010: ccac a5bc 6ae3 b93d beaa d8bd 2810 86bd
00000020: c68c 24bd 8c99 2f3c d549 f83a 02b6 f1bc
00000030: 0e53 36be 2f4f 58be f460 45be 0562 82bd
00000040: 4b0f 81bc 1235 65be 3fa5 d9bd ece7 ecbc
00000050: 2e65 a83c e46b a33d 73f4 06be 9ff2 cbbd
00000060: 700c 0a3b 912d d63b a957 22bd f0bd 5fbd
00000070: 55ae 0b3a 6752 7abd 8926 6dbd 3904 d3bd
00000080: 9415 8a3c a37d adbd 4183 7ebc 49b3 f7bd
00000090: 6abf ae3d b3eb a4bd c9d8 5dbc d9be c6bd
000000a0: 9240 05be 92e2 993d 4e26 89be 1528 cebd
000000b0: 2a3b 703d 5560 a73d eb1e f4bc 624c 8fbe
000000c0: 15c0 643c f757 1f3e 8ed9 a8bb 1113 1dbc
000000d0: d9b6 0e3d aea9 b7bd 7173 f93c 1a66 083d
000000e0: 40ae efbd e596 47be 2847 a1bd 6932 4bbd
000000f0: 2c38 cabd 4c43 07be 7d4c 723d 9d2e 62bd
00000100: 0ae7 9cbd 4fc1 1c3b fb9d 8fbe 9599 d2bd
00000110: c800 64bc ff2a 09be 74ae c93d ecbb a2bd
00000120: b260 1fbd 531f 36be a66b 93bd 28ff 83bd
00000130: b4be 2ebd 5c85 d1bd 0549 053d 6da7 58bd
00000140: d550 51bd f826 50bd 9fb5 77bd 5b1a cbbd
00000150: ee48 8cbd df65 26bd e45e 03bd 2aa7 94bd
00000160: d166 7f3c d1dc 463d 9137 86bd 3ad8 21be
00000170: db0f a63d 40f2 96bd 19bb 80be 209a f5bd
00000180: 8fa0 e93d 049f 21be 8b0d debd cfef 1fbd
00000190: 4219 4f3c 48a9 0abe 09dc b7bd a3b4 34be
000001a0: 90d3 173e 5cbb db3a e2c4 89bd fdc1 c73c
000001b0: f882 eebd f497 2bbd 02a8 a2bc c598 17be
000001c0: d5bf 46bb 00a5 36be 1c00 3fbe a57f 68bd
000001d0: ae77 28bd b219 35be fdbc ebbd c2c3 83bd
000001e0: b707 eebd d714 0cbe 3f5e 42be dc2f e9bc
000001f0: 9a36 febc 2280 01bd 0fd7 203d 88fc 25be
00000200: dc7a 50bb a915 0fbe 6d0a 2a3b 3e22 44be
00000210: 095c 24be 97a6 7dbb 6abd 4cbe 4821 acbd
00000220: 3413 10ba 38e4 eebd 0cd7 ebbd ec61 583d
00000230: a8fb 11bd dd56 473d ff67 d9bd 7414 1cbe
00000240: e5a1 56bd bfe2 13bd c6a4 5b3d 40d7 453d
00000250: d182 13be e06d 12be 7caf f3bd d4c7 b2bc
00000260: f84d dbbc 2c0a 09be d2e4 dbbd 7f9c 01be
00000270: 97f3 bcba 09a5 3bbe 01cf 293d 6ac3 d8bd
00000280: efa8 623e 24d4 0cbe a269 f1bd d6d7 90bd
00000290: 3766 b1bd 8d74 e83b 00c1 16be ec1c 1fbd
000002a0: cb99 0cbe 3c29 c9bd 0e52 89be 8882 11bd
000002b0: c2a8 b2bd 1dd1 45be dcfd 52bd eeba 6a3d
000002c0: 4a84 053d 626a a0bd 472f e43c 7a6b eabc
000002d0: f34e febd 5b06 66bd f410 913d 8ea9 cebd
000002e0: 39b9 debc 2480 49bd b6a4 7abe 8cf1 febd
000002f0: 388e e5bd a160 0d3e 503b 71bd 9a1f 4cbe
00000300: df1b 00bd d289 8b3d 6724 4a3d f72c 1dbe
00000310: e6bb b4bd 2b1c cfbc b3ff 1c3d 2799 8abd
00000320: 01bd 46be e3e5 e93c 7475 b23d be26 9ebd
00000330: 3879 83bd b7aa a0bd 4b6d 7b3c daa6 efbc
00000340: 1cf2 a8bd 2f94 32be 3a30 c0bd 3984 17be
00000350: 1755 19bd 0288 54be d85c 89bd 419f 053d
00000360: 46a8 a2bc 0b9f dabd dc60 e2bd d2bc 9abc
00000370: c5b5 a5bd cb07 08be c72f f6bd b499 963d
00000380: 436d 533e a2c0 133d 94a4 0dbe e7cb 53be
00000390: c084 983d ca16 af3d 1e59 d93a 1d8d afbd
000003a0: edc4 2a3d 87f7 163d c669 febc 3640 41bd
000003b0: 76eb 873d 71b0 c6bd 46b4 6b3d 1d82 b9bd
000003c0: bc74 2f3e afca 59be f3fa 12be 93c7 8dbd
000003d0: b3f0 bbbd 3c80 4bbe f3a1 43be 3a97 82bd
000003e0: bd2a 8ebd 6089 a7bd 21ec 9fbd 9efc 51bd
000003f0: b67e 863d 5c6a 92bd 6a77 78bd c0bb 363d

weight f4 [256, 512]
-0.34925538 0.12678428 0.14920847 0.12801936 0.10360347 -0.13717236 -0.009657978 -0.163706
0.016188085 -0.23891029 -0.2617781 0.0031054665 -0.0148186525 0.00048700458 -0.10566983 -0.3810102
-0.39271888 0.047529247 0.08790493 -0.16256292 -0.0042682444 -0.05234445 0.03819258 0.11604146
-0.29117715 -0.011273122 -0.072028354 -0.31321916 -0.028515173 0.024149645 0.05522813 0.26093128
-0.6251635 -0.38788164 0.08452387 0.07837941 -0.17928827 0.14503469 0.2832472 -0.2635835
0.0030570533 0.032250267 0.032021936 0.14926296 0.30797255 -0.118573785 0.21523441 -0.019542066
0.05647294 -0.21000132 0.08046895 0.17218308 -0.13131748 0.06493519 -0.088561565 -0.14041623
0.0531819 -0.022574814 -0.17055205 0.23064537 -0.12164766 0.18793061 0.13762404 -0.049965695
-0.0044900673 0.13823457 -0.004528848 0.005886826 -0.027245527 -0.10198523 0.086435735 -0.2289041
-0.42329982 -0.07346438 -0.048941072 -0.22450991 0.00685741 -0.072493255 0.043819614 0.15696049
-0.19687416 0.08756816 0.17710707 0.09563098 -0.25935677 -0.6567681 -0.093066305 0.17095731
0.24821213 -0.12590557 -0.34459037 -0.079554655 0.5058105 -0.12130425 -0.112518825 -0.19024426
-0.15149926 0.055420373 0.02395028 -0.019275637 0.05108554 -0.09039897 0.14772722 -0.06607378
-0.03128609 0.06473757 0.06812377 -0.3670271 -0.052600134 -0.1224579 -0.001245932 -0.027552884
0.058802526 0.044362772 -0.029533034 0.024561927 0.060931966 0.11049039 -0.1283228 0.25440937
0.13332203 0.032179847 -0.29424945 0.059516717 -0.16984975 -0.1790084 -0.43718562 -0.08262771
0.004644139 -0.043081544 -0.2355574 0.24524774 -0.09542768 -0.19413207 -0.06654799 0.059835836
0.015897589 0.02941073 0.1710595 0.036013454 0.099536076 -0.10240864 0.075586125 -0.28734758
-0.11613497 0.11115817 -0.31026253 -0.21961758 0.10612225 -0.052618563 -0.004342867 -0.11407115
-0.041711014 -0.31682888 0.005741711 0.02581962 -0.06417341 -0.023532722 -0.036759406 0.0035466375
-0.043206826 0.116904676 0.16045655 0.06701824 -0.043202974 -0.03571813 -0.26918316 -0.19391839
0.25301144 -0.024866663 -0.07697088 -0.20582667 -0.02482577 -0.18178798 -0.3885165 0.33746716
0.16864468 -0.0053706574 -0.10670632 0.09049808 0.11340389 0.013902396 0.045534186 -0.057189308
0.1089398 -0.2070722 -0.058216043 -0.06851947 0.16101229 -0.011006507 0.08390833 -0.11867874
-0.012854905 0.124750264 0.09534486 -0.27664098 0.08510982 -0.029425075 0.04548458 -0.23779134
0.071277305 0.108348794 0.059400268 0.0119229285 -0.06600433 -0.06792092 0.11719665 -0.1831066
-0.07867066 0.069429114 0.19317983 -0.219233 0.110560544 -0.07901049 -0.10399634 -0.14032927
0.20290823 -0.043480173 -0.06435839 0.31793514 -0.09212478 0.15342492 0.118418545 -0.09180563
0.049298 0.02086268 -0.15901476 0.015952505 -0.11928113 0.11327513 -0.20470726 -0.18089528
-0.042500533 0.19436091 -0.049958676 -0.55342764 -0.2245264 0.0700929 -0.16466244 -0.19173248
-0.024101263 -0.044727746 0.095320106 0.18259686 0.10647076 0.019395748 0.04687676 -0.1250694
-0.13583763 -0.14901257 0.13359727 0.0037850512 -0.09263565 0.093090765 -0.15397307 0.12575863
00000000: 9ad1 b2be bdd3 013e 1bca 183e 8217 033e
00000010: 0e2e d43d e976 0cbe 7f3c 1ebc 8ca2 27be
00000020: e09c 843c e6a4 74be c707 86be 1585 4b3b
00000030: efc9 72bc a654 ff39 6d69 d8bd c513 c3be
00000040: 7312 c9be 07ae 423d 8007 b43d e576 26be
00000050: a1dc 8bbb 2267 56bd d36f 1c3d 25a7 ed3d
00000060: 2c15 95be e7b2 38bc 9a83 93bd 435e a0be
00000070: a798 e9bc 7ad5 c53c e436 623d c998 853e
00000080: b70a 20bf 6c98 c6be da1a ad3d 6285 a03d
00000090: 5897 37be f983 143e c705 913e 6bf4 86be
000000a0: d858 483b db18 043d 6f29 033d 64d8 183e
000000b0: 94ae 9d3e d0d6 f2bd 6966 5c3e af16 a0bc
000000c0: 2b50 673d 960a 57be e8cc a43d c350 303e
000000d0: 1778 06be befc 843d c45f b5bd 46c9 0fbe
000000e0: 44d5 593d d1ee b8bc 32a5 2ebe 4d2e 6c3e
000000f0: 6922 f9bd e270 403e 51ed 0c3e d4a8 4cbd
00000100: 6a21 93bb 5d8d 0d3e bb66 94bb 47e6 c03b
00000110: 0332 dfbc a2dd d0bd 3805 b13d d665 6abe
00000120: c1ba d8be 7e74 96bd 6f76 48bd ede5 65be
00000130: 20b4 e03b 5877 94bd 327c 333d 40ba 203e
00000140: 6199 49be ef56 b33d 8e5b 353e 2dda c33d
00000150: 69ca 84be f421 28bf 8c99 bebd 6f0f 2f3e
00000160: 522b 7e3e 64ed 00be 266e b0be 8ded a2bd
00000170: cc7c 013f 5d6e f8bd 4570 e6bd 64cf 42be
00000180: 9f22 1bbe 7900 633d 6133 c43c f1e7 9dbc
00000190: 123f 513d 1823 b9bd ce45 173e b151 87bd
000001a0: d825 00bd 2295 843d 7a84 8b3d faea bbbe
000001b0: 3d73 57bd 35cb fabd 8a4e a3ba 96b6 e1bc
000001c0: ebda 703d bdb5 353d 43ef f1bc 1836 c93c
000001d0: cc93 793d c948 e23d 0d67 03be f241 823e
000001e0: 9285 083e 04cf 033d dda7 96be cdc7 733d
000001f0: 18ed 2dbe fa4d 37be cbd6 dfbe b838 a9bd
00000200: dd2d 983b 4676 30bd f635 71be 3922 7b3e
00000210: 966f c3bd 8fca 46be 504a 88bd 6c16 753d
00000220: a93b 823c c5ee f03c 392a 2f3e d882 133d
00000230: 92d9 cb3d 9fbb d1bd e6cc 9a3d 391f 93be
00000240: 2cd8 edbd e5a6 e33d bbda 9ebe 6ee3 60be
00000250: 9f56 d93d 9086 57bd 9c4e 8ebb 239e e9bd
00000260: 2bd9 2abd 6537 a2be f624 bc3b ab83 d33c
00000270: 596d 83bd b2c7 c0bc 0891 16bd b46e 683b
00000280: a4f9 30bd b86b ef3d b94e 243e dc40 893d
00000290: 9af5 30bd 2d4d 12bd 60d2 89be 8b92 46be
000002a0: b78a 813e 2cb5 cbbc e9a2 9dbd 3ac4 52be
000002b0: 6a5f cbbc a126 3abe a2eb c6be 7fc8 ac3e
000002c0: 31b1 2c3e 57fc afbb d888 dabd 0f57 b93d
000002d0: 4c40 e83d e0c6 633c 0e82 3a3d 563f 6abd
000002e0: d41b df3d bc0a 54be f273 6ebd f053 8cbd
000002f0: 68e0 243e a354 34bc 21d8 ab3d d70d f3bd
00000300: 619d 52bc 117d ff3d 2a44 c33d e3a3 8dbe
00000310: 0f4e ae3d db0c f1bc 0a4e 3a3d 937f 73be
00000320: d6f9 913d f9e5 dd3d b24d 733d 6358 433c
00000330: 472d 87bd 201a 8bbd cc04 f03d 4c80 3bbe
00000340: 151e a1bd da30 8e3d efd0 453e 9e7e 60be
00000350: 916d e23d 40d0 a1bd 08fc d4bd 7ab2 0fbe
00000360: 2dc7 4f3e 4418 32bd 55ce 83bd 65c8 a23e
00000370: ebab bcbd 6c1b 1d3e 6c85 f23d 9704 bcbd
00000380: b3ec 493d 36e8 aa3c c4d4 22be d4ae 823c
00000390: aa49 f4bd cbfc e73d c89e 51be 9d3c 39be
000003a0: 0a15 2ebd 8c06 473e 78a1 4cbd 6fad 0dbf
000003b0: 40ea 65be de8c 8f3d 459d 28be 8555 44be
000003c0: 0370 c5bc 7134 37bd 3037 c33d acfa 3a3e
000003d0: 580d da3d d5e3 9e3c d801 403d 3112 00be
000003e0: 0519 0bbe c096 18be b9cd 083e 9f0e 783b
000003f0: c2b7 bdbd 5fa6 be3d 1eab 1dbe dfc6 003e

bias f4 [256]
0.11161474 0.025396643 0.004868003 -0.15895742 -0.14661941 0.038341198 -0.14359523 -0.06910115
-0.04276223 0.2430497 -0.14770016 -0.106803074 0.018336348 0.052058175 -0.08208542 -0.08810833
0.3875009 -0.20502657 -0.014542927 -0.041706305 -0.024096433 -0.061669324 0.049410526 -0.008868114
-0.20707001 -0.05632009 -0.026046017 -0.19431092 -0.052580588 -0.03600947 -0.066690944 -0.020189498
-0.058727868 -0.016657684 0.14289382 -0.06379642 -0.0777917 0.105859324 -0.041464716 -0.04828647
-0.056700107 -0.060163748 -0.2481833 0.16850714 -0.13288027 -0.1463347 -0.10317641 -0.019089056
-0.16253133 -0.01956327 0.026619907 0.016800676 -0.053275216 -0.09228225 -0.038130295 -0.1728978
-0.037130363 0.26002726 0.06670491 0.018649312 -0.034965873 0.22127686 -0.15841877 -0.065230064
-0.102099225 -0.014373721 -0.067734785 -0.0018629746 -0.028883792 -0.06909578 0.240966 -0.072019845
0.014956764 -0.10076417 -0.023307107 -0.14416349 -0.07794721 0.2116105 -0.00036403726 -0.06121204
0.038137153 0.0084270425 -0.06373184 -0.13672246 -0.0002460422 0.0022835643 -0.033866018 -0.037251562
-0.07032975 -0.05765447 -0.1636084 -0.009064817 -0.09993145 0.007415281 -0.44589916 0.2908687
0.3301891 0.044537477 -0.15851878 -0.031189715 -0.052409813 -0.008276092 0.012108667 -0.08624458
-0.039198745 0.04210106 -0.22844604 0.049191177 -0.033012994 -0.096145935 0.012848016 0.109217085
-0.2559814 -0.035988864 -0.12778558 0.015339371 -0.05901805 -0.03857857 -0.035294592 -0.006754934
-0.02225423 -0.005271311 0.25574264 0.16486023 -0.011526735 0.16825482 -0.24486658 -0.024330832
0.025396213 -0.1970472 -0.0048534623 -0.16288187 -0.012465043 -0.08953065 -0.051638655 -0.093062416
0.044584356 -0.2622996 -0.009659006 0.05383808 -0.040270627 -0.11119949 -0.10805141 -0.09791923
-0.0493112 -0.027907418 -0.03353504 -0.00623596 -0.020891223 0.024350401 -0.1880272 0.026031835
0.6461487 0.050087158 -0.06941074 -0.016107747 -0.1392515 -0.06268714 -0.1790839 -0.0309524
-0.09849762 0.31901842 -0.052348625 -0.0060504684 -0.038632832 -0.05177856 -0.12569605 -0.06998051
-0.023889082 -0.0791421 -0.18489157 -0.1693037 -0.006326106 -0.062186193 -0.09331977 -0.012372359
-0.042052962 -0.016214443 -0.20391054 -0.09729885 -0.12255678 -0.061608605 -0.23956981 -0.0803519
0.013956515 0.1825201 -0.13868108 -0.0013441613 -0.079446495 -0.013489608 -0.04660077 0.12105803
-0.16368727 0.048892163 -0.063303925 -0.02176117 -0.25216514 0.21467163 -0.02318271 -0.061712157
-0.02481643 -0.10238825 -0.021994807 0.09079596 -0.046811637 0.025863072 -0.0021625976 0.102826774
-0.053206198 -0.05242132 -0.12056284 -0.11658421 -0.10116899 -0.11465352 -0.010357203 0.00783055
-0.22100095 -0.072160356 -0.05560052 -0.05270618 -0.2907746 -0.041448653 -0.0043242616 0.13154484
-0.058362655 -0.07622264 -0.06177733 0.010424721 -0.0684769 -0.0026421999 -0.26651227 0.014720945
-0.05961123 -0.10667529 -0.0329259 -0.06193391 -0.18212652 0.2315577 0.18147694 -0.058532104
-0.10501978 -0.044704374 -0.067606695 -0.011395116 0.037911374 -0.0043591554 -0.1339905 -0.050852727
-0.022336576 -0.27750304 -0.07014186 -0.2095065 -0.027245859 -0.07995298 -0.014754422 -0.08032351
00000000: 4596 e43d 9f0c d03c c583 9f3b bcc5 22be
00000010: 6623 16be a90b 1d3d a10a 13be e784 8dbd
00000020: 7327 2fbd 05e2 783e b63e 17be 92bb dabd
00000030: 1c36 963c f43a 553d 671c a8bd 2472 b4bd
00000040: 8566 c63e 7cf2 51be 7545 6ebc 3bd4 2abd
00000050: e265 c5bc f998 7cbd b162 4a3d 914b 11bc
00000060: 290a 54be e5af 66bd 755e d5bc 71f9 46be
00000070: be5e 57bd aa7e 13bd 4395 88bd 7264 a5bc
00000080: a28c 70bd b275 88bc c252 123e b3a7 82bd
00000090: 4151 9fbd c6cc d83d e8d6 29bd 09c8 45bd
000000a0: 5f3e 68bd 436e 76bd c323 7ebe 238d 2c3e
000000b0: c411 08be c3d8 15be 274e d3bd a760 9cbc
000000c0: 9d6e 26be 2743 a0bc fe11 da3c 92a1 893c
000000d0: 1d37 5abd 7afe bcbd 832e 1cbd 1f0c 31be
000000e0: 0216 18bd 4b22 853e 959c 883d 71c6 983c
000000f0: 6038 0fbd 6796 623e 8838 22be 5797 85bd
00000100: 6619 d1bd c17f 6bbc 89b8 8abd 0e2f f4ba
00000110: b49d ecbc 1782 8dbd cbbf 763e 247f 93bd
00000120: 370d 753c 725d cebd 8cee bebc 989f 13be
00000130: c9a2 9fbd 6cb0 583e 41dc beb9 7ab9 7abd
00000140: b435 1c3d 9411 0a3c d785 82bd f900 0cbe
00000150: 3aff 80b9 daa7 153b 18b7 0abd 1895 18bd
00000160: 0b09 90bd 1827 6cbd f688 27be 9984 14bc
00000170: dca8 ccbd e3fb f23b e54c e4be beec 943e
00000180: 8c0e a93e ee6c 363d bf52 22be 9381 ffbc
00000190: acab 56bd 7298 07bc 6e63 463c 00a1 b0bd
000001a0: dd8e 20bd 2972 2c3d c2ed 69be b07c 493d
000001b0: a238 07bd 29e8 c4bd 7c80 523c 35ad df3d
000001c0: fe0f 83be 0f69 13bd 39da 02be fc51 7b3c
000001d0: e9bc 71bd 9004 1ebd 1091 10bd 7e58 ddbb
000001e0: 814e b6bc f6ba acbb b3f0 823e 1fd1 283e
000001f0: a1da 3cbc fe4a 2c3e 4ebe 7abe 7451 c7bc
00000200: b80b d03c bec6 49be cb09 9fbb 81ca 26be
00000210: 2e3a 4cbc d85b b7bd 0e83 53bd 8297 bebd
00000220: 169e 363d 224c 86be cf40 1ebc 5285 5c3d
00000230: d0f2 24bd 8fbc e3bd 0f4a ddbd e189 c8bd
00000240: 8afa 49bd 199e e4bc 0a5c 09bd 0657 ccbb
00000250: 1224 abbc 7e7a c73c 348a 40be b740 d53c
00000260: 006a 253f 3128 4d3d 3827 8ebd 65f4 83bc
00000270: f297 0ebe 1e62 80bd c561 37be e38f fdbc
00000280: 1fb9 c9bd 6256 a33e 836b 56bd 0243 c6bb
00000290: 763d 1ebd c115 54bd 77b6 00be f151 8fbd
000002a0: 09b3 c3bc 4115 a2bd 3754 3dbe f35d 2dbe
000002b0: 394b cfbb f3b6 7ebd 701e bfbd 6fb5 4abc
000002c0: ba3f 2cbd 27d4 84bc edcd 50be 9f44 c7bd
000002d0: 0dff fabd 4e59 7cbd ca51 75be 898f a4bd
000002e0: dea9 643c 8de6 3a3e 6a02 0ebe 922e b0ba
000002f0: d8b4 a2bd 8403 5dbc 73e0 3ebd 46ed f73d
00000300: a39d 27be 2643 483d 7da5 81bd 7b44 b2bc
00000310: ca1b 81be e1d2 5b3e abe9 bdbc e3c5 7cbd
00000320: d34b cbbc eeb0 d1bd 742e b4bc 3bf3 b93d
00000330: 8fbd 3fbd cbde d33c 5eba 0dbb d896 d23d
00000340: beee 59bd bdb7 56bd a6e9 f6bd b4c3 eebd
00000350: b031 cfbd 77cf eabd 42b1 29bc b54b 003c
00000360: 134e 62be cfc8 93bd 5fbd 63bd 6fe2 57bd
00000370: 69e0 94be 10c6 29bd 89b2 8dbb b1b3 063e
00000380: ae0d 6fbd 9e1a 9cbd 3a0a 7dbd 73cc 2a3c
00000390: 9e3d 8cbd c228 2dbb 4c74 88be 1e30 713c
000003a0: e82a 74bd 9378 dabd 4fdd 06bd 69ae 7dbd
000003b0: 607f 3abe 761d 6d3e 17d5 393e 5cbf 6fbd
000003c0: 9c14 d7bd ef1b 37bd 6175 8abd 95b2 3abc
000003d0: f548 1b3d 3fd7 8ebb ce34 09be f34a 50bd
000003e0: 32fb b6bc e114 8ebe 89a6 8fbd df88 56be
000003f0: b532 dfbc 63be a3bd 88bc 71bc a780 a4bd

weight f4 [128, 256]
0.018037992 0.032407816 -0.016992372 0.028197505 -0.044139497 0.007693337 0.04772122 -0.026226431
-0.03651344 -0.0364781 -0.01403343 -0.031972695 -0.059549283 -0.02931183 -0.02447968 0.033755098
-0.08145207 0.0026156588 0.034704585 -0.027393857 0.0205848 -0.06520338 0.0032422307 -0.05892544
-0.0574792 -0.029803455 0.010964755 -0.0034284226 0.0584088 0.0029735772 0.046385914 -0.042863164
-0.036644883 0.028013786 -0.024789479 -0.012816149 0.042748068 -0.0018307373 -0.030069917 -0.015491069
0.03543477 -0.036886495 0.023997836 -0.042527225 -0.055890515 -0.022402754 -0.033354484 -0.021698922
-0.01184191 -0.031522013 0.011951543 -0.013184048 0.020899981 -0.07643891 -0.06381275 0.027605081
-0.034363173 0.022834983 -0.004211197 -0.07636282 0.010857902 -0.063280314 0.033533618 0.038521096
-0.060248442 0.055416904 -0.057126455 0.030623013 0.030403674 -0.059291493 -0.06852413 -0.083296366
-0.03270504 0.028048994 -0.055856295 -0.058979895 -0.06079186 -0.03596575 -0.042591758 0.033089556
-0.032971703 -0.03173853 -0.006885068 0.05876046 -0.057823423 0.008194176 -0.010534726 -0.08808102
0.038686976 -0.06317332 0.019161502 0.055454854 -0.05949368 0.038058087 -0.04938406 -0.006029979
-0.07042284 -0.04499389 -0.039111283 0.014098808 0.052408047 0.044516735 0.046942636 -0.027268495
-0.04990475 -0.051667567 -0.010748025 -0.05941263 -0.0029141735 -0.041529134 0.007104166 -0.031631958
-0.039002273 -0.01823776 -0.023699403 -0.059992395 -0.018144593 -0.03147136 0.03738181 -0.013091696
0.014226412 0.044263367 -0.06551175 -0.043309655 0.034817535 -0.070044756 0.0035226326 0.024199791
0.001459457 0.018940486 0.036694344 0.005606152 0.017473299 0.020784806 -0.039606057 0.0047626817
-0.09031298 0.017016074 -0.00040695842 0.056408115 0.007318765 -0.014569482 -0.061357904 -0.051052406
0.018625112 0.048368383 0.040523533 -0.039296214 0.012614861 -0.03208372 0.027840575 -0.03033565
-0.11903572 -0.04016552 -0.009897229 0.052752897 -0.057202697 0.01367072 -0.055545397 0.03976325
0.04161046 -0.08992869 0.05689929 0.0060438304 -0.017955614 0.014655884 -0.015633225 -0.031113803
0.048667125 -0.011234589 0.038877305 -0.0059116036 0.03850823 0.043335717 -0.022276307 -0.03386967
-0.033106558 -0.005466701 -0.0068287645 0.0011884139 -0.03169511 0.030316258 0.0050339666 -0.010113932
-0.05835945 -0.053643346 -0.03294599 -0.0245987 0.044787996 0.039702915 0.014941932 -0.061623167
-0.067351885 0.038485076 0.022974674 -0.01707827 -0.002833555 -0.029863825 -0.061221514 0.04000005
-0.0033911453 0.036684483 -0.0024398293 -0.11178702 -0.022057625 0.015871935 -0.041776095 -0.060860608
-0.06603805 -0.054355707 -0.017785624 -0.05552195 -0.044955555 -0.054269817 -0.021962738 0.011598982
-0.010547914 0.010248206 -0.03344237 -0.054970298 0.035878927 0.016058085 0.03739646 -0.042850975
-0.05289888 -0.0036461542 0.029681688 -0.081735134 0.058134135 -0.06383935 0.03157856 0.042820454
-0.01743033 -0.036701906 0.04575893 0.021619998 -0.0681088 -0.0110700065 -0.025926568 0.023634294
-0.0070937253 0.033101246 0.020770848 -0.043499876 -0.01664008 -0.056355886 0.045468263 -0.07281344
-0.03333304 -0.07789164 -0.011285889 -0.033089902 0.035209112 0.008868535 0.02586265 0.012829042
00000000: 69c4 933c 0fbe 043d 9633 8bbc 74fe e63c
00000010: 9ecb 34bd 6318 fc3b 5377 433d d0d8 d6bc
00000020: 1e8f 15bd 0f6a 15bd 79ec 65bc cdf5 02bd
00000030: f3e9 73bd 5d1f f0bc 9c89 c8bc c942 0a3d
00000040: 58d0 a6bd 796b 2b3b 6526 0e3d 1569 e0bc
00000050: 74a1 a83c 5a89 85bd 9b7b 543b cd5b 71bd
00000060: 4f6f 6bbd 6026 f4bc 84a5 333c 63af 60bb
00000070: 113e 6f3d 59e0 423b 28ff 3d3d 4991 2fbd
00000080: f218 16bd 2b7d e53c 4e13 cbbc d3fa 51bc
00000090: 9918 2f3d 5af5 efba 3055 f6bc 41ce 7dbc
000000a0: 0d24 113d 4b16 17bd 1c97 c43c 0731 2ebd
000000b0: 74ed 64bd fb85 b7bc b69e 08bd f0c1 b1bc
000000c0: 9204 42bc 3a1d 01bd 68d0 433c e801 58bc
000000d0: 7036 ab3c 018c 9cbd 42b0 82bd 0d24 e23c
000000e0: 66c0 0cbd 6e10 bb3c 15fe 89bb 1c64 9cbd
000000f0: 57e5 313c 1c99 81bd 8c5a 093d 4cc8 1d3d
00000100: 12c7 76bd d6fc 623d 6efd 69bd 1ddd fa3c
00000110: 2011 f93c a3db 72bd 6156 8cbd 4997 aabd
00000120: b8f5 05bd 01c7 e53c 92c9 64bd e794 71bd
00000130: e300 79bd d350 13bd b274 2ebd ea88 073d
00000140: 560d 07bd 4300 02bd 239c e1bb cfae 703d
00000150: 41d8 6cbd dd40 063c d899 2cbc d263 b4bd
00000160: 3c76 1e3d 0361 81bd 95f8 9c3c a124 633d
00000170: a5af 73bd cce2 1b3d f146 4abd 2197 c5bb
00000180: da39 90bd 834b 38bd 2733 20bd b0fe 663c
00000190: d2a9 563d 2e57 363d ec46 403d 2e62 dfbc
000001a0: ec68 4cbd 5fa1 53bd 7c18 30bc a85a 73bd
000001b0: b8fb 3ebb 741a 2abd 10ca e83b 8390 01bd
000001c0: d9c0 1fbd 5b67 95bc 4025 c2bc 96ba 75bd
000001d0: f8a3 94bc 1de8 00bd ab1d 193d 8e7e 56bc
000001e0: e615 693c 814d 353d 062b 86bd 7765 31bd
000001f0: d59c 0e3d a073 8fbd f8db 663b a43e c63c
00000200: 404b bf3a 1429 9b3c cf4c 163d d0b3 b73b
00000210: 2a24 8f3c e644 aa3c f639 22bd 4510 9c3b
00000220: 03f6 b8bd 4b65 8b3c 095d d5b9 320c 673d
00000230: 40d2 ef3b d6b4 6ebc 6d52 7bbd 541c 51bd
00000240: b193 983c ed1d 463d 01fc 253d 11f5 20bd
00000250: 90ae 4e3c 386a 03bd eb11 e43c 7882 f8bc
00000260: 00c9 f3bd 9a84 24bd fd27 22bc 6c13 583d
00000270: 604d 6abd 28fb 5f3c 9283 63bd cade 223d
00000280: bb6f 2a3d 882c b8bd 3b0f 693d 530b c63b
00000290: a717 93bc 3c1f 703c 4011 80bc 60e2 febc
000002a0: 2e57 473d 4811 38bc cf3d 1f3d 20b6 c1bb
000002b0: ceba 1d3d cb80 313d cd7c b6bc ecba 0abd
000002c0: be9a 07bd 0322 b3bb d4c3 dfbb 8ec4 9b3a
000002d0: bbd2 01bd cd59 f83c f9f3 a43b e8b4 25bc
000002e0: 520a 6fbd 20b9 5bbd 60f2 06bd 3783 c9bc
000002f0: 9e73 373d 869f 223d 01cf 743c 9368 7cbd
00000300: c9ef 89bd 87a2 1d3d 6235 bc3c bae7 8bbc
00000310: 2ab3 39bb fba4 f4bc 69c3 7abd 18d7 233d
00000320: fa3d 5ebb 7842 163d 8be5 1fbb 98f0 e4bd
00000330: 31b2 b4bc dc05 823c 691d 2bbd f948 79bd
00000340: f53e 87bd 17a4 5ebd 28b3 91bc fc6a 63bd
00000350: 5123 38bd 074a 5ebd 33eb b3bc a809 3e3c
00000360: 28d1 2cbc 17e8 273c defa 08bd 8928 61bd
00000370: c8f5 123d 3f8c 833c 082d 193d 8184 2fbd
00000380: 7fac 58bd 51f4 6ebb 0327 f33c c064 a7bd
00000390: 0f1e 6e3d 35be 82bd 8558 013d 8064 2f3d
000003a0: 0dca 8ebc bd54 16bd b76d 3b3d 6c1c b13c
000003b0: a07c 8bbd f95e 35bc f463 d4bc b59c c13c
000003c0: 7b72 e8bb 2c95 073d a027 aa3c ed2c 32bd
000003d0: c750 88bc 6ed5 66bd ee3c 3a3d 361f 95bd
000003e0: 3a88 08bd a785 9fbd 73e8 38bc 4789 07bd
000003f0: 6e37 103d 554d 113c e8dd d33c e730 523c

bias f4 [128]
-0.14596494 -0.11070241 0.044971608 -0.08706941 -0.04175743 -0.17552799 -0.09457201 -0.19415711
-0.40096414 -0.086815216 -0.10037003 -0.084202185 -0.1723166 -0.020378144 -0.062385924 0.8438361
-0.03553628 0.2577498 -0.06351224 0.30383036 0.30764 -0.03596138 0.8809283 -0.1652295
-0.24595559 -0.35741666 0.81420785 -0.07176314 0.05391937 0.32811344 -0.14156006 -0.1338468
0.18921126 -0.14593397 0.26550004 -0.18712908 -0.12506545 -0.10022121 -0.14455621 -0.09090881
-0.11369967 -0.13217014 -0.10887737 -0.24318594 0.0992079 -0.01614815 -0.1017648 0.21054828
-0.12843674 0.14235172 -0.03045785 -0.39737645 -0.38900003 -0.009954418 -0.07050221 0.00080648815
-0.018040536 -0.10542111 -0.13168077 0.15481815 -0.19474085 0.30180869 -0.013074697 0.2544728
-0.057336077 -0.12402555 -0.0074838856 1.0511464 -0.1110327 -0.01051752 -0.07842198 -0.12286411
-0.14334477 -0.0671875 -0.1468743 -0.13542342 0.28114128 -0.1505067 -0.060418446 -0.122819476
-0.07586999 0.2585034 -0.4541545 -0.1512551 -0.028718857 -0.026537389 0.028199831 -0.18762283
-0.10106307 -0.09699028 -0.16433698 0.42045414 -0.12319214 0.4454675 0.0022898533 -0.2744371
-0.17423002 -0.11084832 0.047477525 -0.058045957 -0.17541493 0.70075345 -0.15847678 -0.024940083
-0.062130347 -0.15615012 -0.069345854 0.11071234 -0.092322625 -0.1797805 -0.17224409 -0.08711326
0.79843056 -0.1062677 -0.14218563 -0.009899606 0.23597616 -0.026098749 -0.08582354 -0.14510103
-0.39629573 -0.034914304 -0.1260663 -0.18418598 -0.076925956 -0.08310617 -0.08207928 -0.13155292
00000000: d577 15be f2b7 e2bd 2634 383d 7251 b2bd
00000010: d709 2bbd 9cbd 33be f8ae c1bd 1fd1 46be
00000020: 2c4b cdbe 2dcc b1bd cd8e cdbd 3272 acbd
00000030: c373 30be 11f0 a6bc 6288 7fbd a505 583f
00000040: 7e8e 11bd c8f7 833e b512 82bd a78f 9b3e
00000050: fd82 9d3e 3d4c 13bd 8484 613f ec31 29be
00000060: c8db 7bbe 51ff b6be ed6f 503f 8ef8 92bd
00000070: 8fda 5c3d 7cfe a73e 1ff5 10be 230f 09be
00000080: 99c0 413e b76f 15be 9fef 873e c49e 3fbe
00000090: 2811 00be c740 cdbd 8b06 14be 662e babd
000000a0: 5fdb e8bd 9c57 07be 19fb debd bc05 79be
000000b0: 832d cb3d 2049 84bc 106a d0bd f899 573e
000000c0: ec84 03be a6c4 113e be82 f9bc ed74 cbbe
000000d0: 032b c7be db17 23bc 7663 90bd 816a 533a
000000e0: bfc9 93bc 06e7 d7bd 53d7 06be a688 1e3e
000000f0: 256a 47be ab86 9a3e 4137 56bc 424a 823e
00000100: 3cd9 6abd 1c01 febd 623b f5bb f78b 863f
00000110: 1d65 e3bd ad51 2cbc b49b a0bd 2ea0 fbbd
00000120: f9c8 12be 9a99 89bd 3766 16be 70ac 0abe
00000130: c0f1 8f3e 6e1e 1abe 5579 77bd c788 fbbd
00000140: ba61 9bbd 8f5a 843e f086 e8be 9ee2 1abe
00000150: cf43 ebbc f064 d9bc 5503 e73c 3320 40be
00000160: 28fa cebd d7a2 c6bd f447 28be c445 d73e
00000170: 294c fcbd 5114 e43e 5d11 163b 0583 8cbe
00000180: 5b69 32be 7204 e3bd cb77 423d 99c1 6dbd
00000190: f99f 33be 9464 333f bd47 22be 254f ccbc
000001a0: 647c 7ebd d1e5 1fbe 3305 8ebd 27bd e23d
000001b0: a513 bdbd 6118 38be c160 30be 7068 b2bd
000001c0: f265 4c3f e1a2 d9bd 1c99 11be f531 22bc
000001d0: bca3 713e 0bcd d5bc 41c4 afbd 5d95 14be
000001e0: 46e7 cabe 4d02 0fbd 8617 01be 409b 3cbe
000001f0: 5b8b 9dbd 9133 aabd 2e19 a8bd cfb5 06be

weight f4 [60, 128]
-0.06390552 -0.03694823 0.023587598 -0.019377327 0.0034939884 -0.0014355981 0.0073469435 0.0012026547
0.006092735 -0.061760027 0.043617528 0.0032967874 -0.113508776 -0.0024180075 -0.020071592 0.006973141
0.0028108286 0.0003140062 0.023243014 -0.0033215838 0.0065209805 -0.010109087 0.0028608537 0.0915025
-0.0035165336 0.017218348 -0.006648097 -0.023242999 -0.006220289 0.0018057105 0.0077715935 0.068691544
-0.004034583 -0.06962554 0.0036636395 -0.002362165 0.029372992 0.00088927394 0.014631205 -0.03608246
-0.04790348 0.08410425 0.01704505 0.008664802 0.0030296524 0.027544558 -0.003562139 -0.0044373567
0.04646379 -0.0051982845 -0.01770174 -0.008193279 -0.0017504805 -0.0013976716 -0.07377142 0.014948982
0.03492027 -0.061279245 -0.092699215 -0.0030421622 0.004047825 0.000623322 0.011015235 -0.008760091
-0.050020214 -0.07097905 0.0019020928 -0.008103468 -0.017781818 0.06698774 0.0046951054 -0.06553301
-0.015664153 0.04279502 0.06846099 -0.027164089 0.00023381342 0.018991768 0.03665203 -0.03524553
0.04230257 -0.00013452614 0.003280367 -0.0005220373 0.005555399 0.008643947 -0.0074927877 -0.0031971117
-0.01581964 -0.02368249 -0.026315456 0.004044751 0.0015618671 -0.0016675502 0.04908325 0.011161888
-0.001547436 -0.06366049 -0.002944524 0.015564349 -0.008161125 0.00899778 -0.04890115 0.019857869
-0.009328659 0.06591331 -0.051584307 -0.00192951 0.07460574 -0.039618872 0.01647661 -0.047106367
-0.12489958 -0.02419076 -0.088971585 0.017783605 -0.0030370357 -0.05370308 -0.07556637 -0.0027853695
-0.0010788661 -0.0029642375 0.009900937 0.041731175 -0.005248008 0.10218296 0.11065856 -0.0059585217
-0.04010612 -0.077913925 -0.0060350606 -0.026994145 0.007500018 -0.12804717 0.06510117 0.0760997
0.617526 0.009998166 0.010757915 -0.050345782 -0.21321744 0.062301446 -0.02991629 9.849013e-05
0.0011515501 0.0881072 -0.041777186 0.0042229495 0.0041500856 0.12489299 -0.0013184313 0.0013514314
-0.0013585768 0.16361748 0.00060183497 -0.11485181 0.3557031 0.0028898788 -0.00013452818 0.016744688
0.009413136 0.03544763 0.11107399 0.00048321384 -0.022537246 -0.20472799 0.025212618 -0.054564513
-0.017921027 -0.04136593 0.06488008 -0.6211625 -0.009018126 -0.26651114 0.010095791 -0.0011531212
-0.06210189 -0.011107043 -0.0063487315 -0.073432565 -0.06860985 -0.06830703 0.06711884 -0.05361977
-0.017417096 0.08258201 0.12413111 -0.014287148 0.039448477 -0.009049546 -0.2468934 -0.015467052
0.07392343 -0.081571534 -0.009096115 0.00054603716 0.02274945 0.017009184 -0.03859864 0.015215236
0.0014433943 0.024794335 0.09091604 -0.0026436518 0.011519 -0.0101200845 -0.12160805 0.053099718
0.026205366 -0.16036884 -0.02095607 -0.009418126 0.0024144007 0.037816465 0.162919 0.0020411687
0.0006129285 0.07185199 -0.08161757 0.009066121 0.07099611 0.0108106965 -0.030443871 -0.0025721872
0.01011673 0.085551724 0.043180443 -0.0017228823 0.09263916 -0.001045508 0.07959554 0.0742875
0.00019610554 -0.046071135 0.041068465 0.038675953 -0.020501914 -0.1283075 -0.06226204 0.076035894
-0.00027579814 0.072148494 -0.06291322 -0.06853634 0.008070984 -0.009495264 0.025873441 -0.027798247
-0.24500673 0.007833584 -0.082243875 0.07195984 -0.25802627 -0.0687111 0.036413822 -0.004593587
00000000: e6e0 82bd 0757 17bd c73a c13c 33bd 9ebc
00000010: 66fb 643b ae2a bcba a1be f03b 65a2 9d3a
00000020: 91a5 c73b 15f8 7cbd 4ba8 323d ea0e 583b
00000030: 4a77 e8bd 6f77 1ebb 2e6d a4bc f27e e43b
00000040: e135 383b 33a1 a439 2268 be3c eeae 59bb
00000050: f3ad d53b 96a0 25bc 297d 3b3b aa65 bb3d
00000060: a575 66bb 7e0d 8d3c 48d8 d9bb 1a68 bebc
00000070: 91d3 cbbb 97ad ec3a daa8 fe3b 27ae 8c3d
00000080: 8934 84bb d697 8ebd ac19 703b 8dce 1abb
00000090: a19f f03c 2a1e 693a b9b7 6f3c 34cb 13bd
000000a0: 7036 44bd d93e ac3d 10a2 8b3c d0f6 0d3c
000000b0: 228d 463b 20a5 e13c c772 69bb 3f67 91bb
000000c0: d150 3e3d 5f56 aabb 3d03 91bc 1a3d 06bc
000000d0: 6170 e5ba 1432 b7ba 7815 97bd 93ec 743c
000000e0: 8f08 0f3d f2ff 7abd 16d9 bdbd 035f 47bb
000000f0: 9ea3 843b 6e66 233a 3f79 343c 7c86 0fbc
00000100: ffe1 4cbd 775d 91bd a54f f93a 69c4 04bc
00000110: 2dab 91bc de30 893d 66d9 993b 2c36 86bd
00000120: 1c52 80bc d549 2f3d 4735 8c3d 3987 debc
00000130: d02b 7539 a094 9b3c 7020 163d 9e5d 10bd
00000140: 7645 2d3d 960f 0db9 6dfb 563b 55d9 08ba
00000150: 110a b63b 579f 0d3c 0f86 f5bb a286 51bb
00000160: 3198 81bc c801 c2bc 8393 d7bc d589 843b
00000170: 90b7 cc3a b391 daba 850b 493d 5ae0 363c
00000180: 56d3 caba 6e60 82bd eaf8 40bb 9c01 7f3c
00000190: 3db6 05bc 6d6b 133c 924c 48bd f8ac a23c
000001a0: 3bd7 18bc 8ffd 863d 114a 53bd 9de7 fcba
000001b0: e5ca 983d 6647 22bd f5f9 863c 9bf2 40bd
000001c0: 5acb ffbd b32b c6bc bc36 b6bd ecae 913c
000001d0: 0109 47bb c3f7 5bbd 8ac2 9abd bf8a 36bb
000001e0: bd68 8dba a743 42bb 8a37 223c 4fee 2a3d
000001f0: 7bf7 abbb 4d45 d13d f5a0 e23d b43f c3bb
00000200: 5146 24bd 5691 9fbd c2c1 c5bb d322 ddbc
00000210: b6c2 f53b cc1e 03be c353 853d 29da 9b3d
00000220: 2f16 1e3f 59cf 233c f741 303c 6137 4ebd
00000230: ac55 5abe cd2f 7f3d 0213 f5bc 7c8c ce38
00000240: 9cef 963a 8c71 b43d 8e1e 2bbd ab60 8a3b
00000250: 71fd 873b e5c7 ff3d 37cf acba 8322 b13a
00000260: 4612 b2ba 578b 273e 76c4 1d3a 6d37 ebbd
00000270: b71e b63e 1f64 3d3b 2210 0db9 282c 893c
00000280: 8e39 1a3c 8931 113d c37a e33d dd57 fd39
00000290: 08a0 b8bc 37a4 51be b18a ce3c 0a7f 5fbd
000002a0: 1ecf 92bc 526f 29bd d9df 843d 8104 1fbf
000002b0: c3c0 13bc 2674 88be d168 253c 5424 97ba
000002c0: 8d5e 7ebd 51fa 35bc 0509 d0bb d063 96bd
000002d0: 5283 8cbd 8ee4 8bbd 9a75 893d 67a0 5bbd
000002e0: 4cae 8ebc c220 a93d 7438 fe3d a414 6abc
000002f0: ba94 213d 8c44 14bc a0d1 7cbe 8569 7dbc
00000300: 2b65 973d fa0e a7bd df07 15bc ef23 0f3a
00000310: 0e5d ba3c d856 8b3c 9c19 1ebd 5349 793c
00000320: 4730 bd3a 7d1d cb3c 3032 ba3d 1e41 2dbb
00000330: 30ba 3c3c b6ce 25bc a40d f9bd 177f 593d
00000340: a3ac d63c bb37 24be 10ac abbc 7c4e 1abc
00000350: ec3a 1e3b 70e5 1a3d 3dd4 263e 21c5 053b
00000360: efac 203a 2327 933d 1d27 a7bd 118a 143c
00000370: 6966 913d 591f 313c 6d65 f9bc 2492 28bb
00000380: a4c0 253c be35 af3d fadd 303d 56d2 e1ba
00000390: 9ab9 bd3d 6d09 89ba fd02 a33d 0b24 983d
000003a0: aea1 4d39 16b5 3cbd 6837 283d ad6a 1e3d
000003b0: a1f3 a7bc 0b63 03be 7b06 7fbd b5b8 9b3d
000003c0: 0099 90b9 97c2 933d a5d8 80bd c85c 8cbd
000003d0: 293c 043c 0692 1bbc 8af4 d33c 26b9 e3bc
000003e0: 0be3 7abe 6f58 003c 7a6f a8bd ae5f 933d
000003f0: 051c 84be 68b8 8cbd a926 153d cd85 96bb

bias f4 [60]
0.0025080997 -0.00012088748 0.0025175754 0.00034244184 0.0016417513 0.00019714465 -0.001787329 0.00013684241
0.0018811402 -3.4388228e-05 0.0013130968 -0.00011065096 0.0012867276 0.00035447304 0.001315154 -0.00046348135
-0.0005240274 -0.00046989686 -0.00050065934 -0.00059148745 0.00019751376 7.945857e-05 -5.6658067e-05 -0.0010889493
0.0001114003 -0.00019356789 0.00017830072 -4.2370797e-05 -5.7206576e-06 0.0002817262 0.00019014964 4.9875274e-05
0.00023238716 -0.00027244512 -2.0900683e-05 0.0006329022 -0.00035728965 0.00040438378 -9.905728e-05 -4.222471e-05
-0.00013589447 9.093569e-05 8.488582e-06 0.00022891434 9.022549e-05 0.00016106009 0.0002634077 -0.0001972322
-0.00042806714 -0.00011293378 -3.7598278e-05 0.00012079624 3.0302055e-05 -0.00019646034 0.00026196 -8.533813e-05
-0.0003564029 0.00014949599 -0.00017100175 -0.0002782993
00000000: ee5e 243b f984 fdb8 e8fd 243b c489 b339
00000010: 0830 d73a 9db8 4e39 cf44 eaba 5b7d 0f39
00000020: 9790 f63a 143c 10b8 381c ac3a 480d e8b8
00000030: 6aa7 a83a 91d8 b939 3f61 ac3a 6aff f2b9
00000040: e25e 09ba 7d5c f6b9 ae3e 03ba 0d0e 1bba
00000050: b21b 4f39 ffa2 a638 23a4 6db8 13bb 8eba
00000060: 959f e938 7cf8 4ab9 3cf6 3a39 4cb7 31b8
00000070: 13f4 bfb6 a7b4 9339 e862 4739 2b31 5138
00000080: f4ac 7339 f7d6 8eb9 e053 afb7 59e9 253a
00000090: 9b52 bbb9 7903 d439 f9bc cfb8 701a 31b8
000000a0: e57e 0eb9 bab4 be38 2f6a 0e37 ba08 7039
000000b0: 7137 bd38 3de2 2839 fc19 8a39 1ed0 4eb9
000000c0: 336e e0b9 ddd6 ecb8 d8b2 1db8 fd53 fd38
000000d0: 2b31 fe37 ec00 4eb9 ad57 8939 8ff7 b2b8
000000e0: 96db bab9 06c2 1c39 ef4e 33b9 b3e8 91b9
