linearPredictionModels/db39/mega/cleanedCombine.csv_wholeNetPrototype5_Epochs_50_ValidationLoss0.417467_lr0.0003_2023_08_16_07:42:30.pth (torch, 992679 bytes, 8 tensors)

weight f4 [512, 145]
00000000: 4ba4 1fbe d627 143c 8e9d f8bd 8c47 3dbe
00000010: 001b 4cbe 6957 08be 3697 a3bd 97a2 9cbc
00000020: b8cc 02be 57d9 efbc 6819 31be 7eab a5bb
00000030: d216 0f3d d9ba 89bd 2ec7 843d 8104 4cbe
00000040: 7595 8d3e 7ca5 edbd 4c0c d3be dbeb c6bd
00000050: 4b65 88bb 77f5 b33d eec4 8a3d 8bd3 d33d
00000060: 376f 4b3d 5e21 173e b7e5 7dbe a693 93bd
00000070: a13a f2bc 8600 cbbc 90ce 12be 9742 9cbd
00000080: 5595 8fbd 1354 b4bd 0bfc 81bd 11fa d5bd
00000090: a174 873d 0a58 023c 8325 953d b057 a23c
000000a0: 9219 093e 53cc da3b aaa9 6c3c de1a 07bd
000000b0: b924 9d3d 5bb9 3e3e 2eea 00be af9d be3d
000000c0: 0425 063d ba54 8cbe 19c5 60be 491e 3e3e
000000d0: 169b 833c 642f 2c3c 0517 063e b7bc 28be
000000e0: dae8 5abd b447 ddbd 5088 46be ea3f f53d
000000f0: b691 94bd c70e 3abd fc35 ae3d f52a 0e3c
00000100: 3661 a2be 14a9 f6bb 904d cdbd 69ba adbc
00000110: 3617 ab3d 7726 bf3c c1a6 51be 8b11 0a3e
00000120: 0e55 323c 351f afbd a0a4 2e3e f990 2d3e
00000130: 5475 2cbd 163e 04be cef9 ba3e 94b8 b7be
00000140: 3b7c ca3d fc94 033e d8f9 b6be ad8c 7ebe
00000150: 37fe 753e 11de 3e3e 71a7 e1bd f785 fabd
00000160: 1de8 2a3e 23bf 1c3e cdf4 b8bd 103c d13c
00000170: d9ea b83d 8875 2cbc 346b a1be 0b4a a2be
00000180: 5699 3a3e 69db 0e3d f642 edbd c33f 27be
00000190: 708e d03d 971b 42be d7c7 34bd d917 18be
000001a0: eed3 053c 3a88 1abe f2f6 19bc 8d8f e0bc
000001b0: 3200 1d3c ffff 05be ad64 cd3c bd8b 8e3c
000001c0: 7ac2 9d3d 5820 d73d a490 5a3d 2272 c1bd
000001d0: 7ca6 a0bd 7736 95bd 4a80 a3bd 9883 f33c
000001e0: 5259 11be ad7b b6bd e802 fdbd 1a66 073d
000001f0: 8c52 37bc 5400 543d 625f 2cbd fcba 823c
00000200: 5a4e 043c 7eb9 523d 2d34 02bd ffe8 e5bc
00000210: b494 3abd 35b7 b9bb f922 adbc 2df7 67bd
00000220: 715f 5ebd ad01 9abc 3ab2 863c 231b a53d
00000230: 79e4 0fbd 8e6c 05bd 5724 2fbd c9d4 c2ba
00000240: 95c7 e23c 7e37 bebb 6396 363d 6213 a03d
00000250: ff95 333d bc4e 97bb 3c6a 00be a01e 843d
00000260: da9d 653d 6add 09be fdd2 8dbb 8e3a 033e
00000270: 7c83 2bbe b323 4c3d db3e 16bc d75b 97bd
00000280: 8a75 fb3c e261 bf3d c35b 8cbd 6586 b23d
00000290: a061 ae3d 2444 863d 2946 dabd 299f c03d
000002a0: e41a ce3d 230e 893c 1b6b 82bc 7ecb df3c
000002b0: 2be6 57bd d98b 3c3d c71a b3bc 5193 7a3d
000002c0: 0f03 f53c 59e0 923d 633a a13d e5dc 18bd
000002d0: eb84 243c 371f e4ba 165a 1ebd bedb f9bb
000002e0: 0b92 42bd 531a c1bb 60af 67be 6f1c 2d3d
000002f0: ef2d 96bd 464e 36bd eb62 a2bd 0f67 21bd
00000300: 03f9 dabd 2b48 433a 7328 723d a430 3fbd
00000310: ced7 8bbd 5b38 90bd 7a3a dabd 74cf 213c
00000320: c9e0 613d ceab 273d 73b9 f33d b768 3f3c
00000330: 53f2 3cbe f402 8f3b 2607 8abd d157 89bd
00000340: 956b 833d 1615 88bf 3aed 933d 5dd4 aebd
00000350: ea30 fd3d e461 e63d 7acb 543e 72a6 423c
00000360: 8f9e 003e d056 3a3e f237 06be d697 88bd
00000370: 4ee9 cd3d 5994 1fbb f9aa 91bb 856d 4d3e
00000380: f47d 943d 3afc 91bd 46c8 a1bc 97f0 debd
00000390: a5cf c73d 3e4c 003d 4937 6b3c cb3d 983c
000003a0: 62db 853d f4a4 ed3c 99d6 3d3e fc55 04be
000003b0: 1d20 833e 56c7 f73d 51a8 95bc 91a7 23be
000003c0: 96a9 13bd 0652 bc3c 967c 9a3d cd07 c6bd
000003d0: 4e64 d8bc 42a9 0d3d 851b 48bc fbff a73c
000003e0: b6a2 923c f28e eabb 83e1 303d 04fe c43d
000003f0: 235b 013d 4276 b9b9 918b 723d 231e 35bd
-0.15590017 0.009042701 -0.12139426 -0.18484324 -0.19932175 -0.13314594 -0.079878256 -0.019120498
-0.12773407 -0.02927844 -0.17294848 -0.005055844 0.034933873 -0.067250915 0.06483303 -0.19923593
0.2765309 -0.11603829 -0.4122032 -0.097129546 -0.0041624657 0.08787053 0.067758426 0.10343083
0.04966661 0.14758822 -0.2479466 -0.07205896 -0.029568972 -0.024780523 -0.1433661 -0.076298885
-0.07010905 -0.088050984 -0.063469015 -0.10448087 0.06614042 0.00795556 0.072825454 0.019817203
0.1338866 0.0066771894 0.014444748 -0.032984607 0.0767302 0.18625395 -0.12589332 0.093074195
0.032750145 -0.2740839 -0.21950187 0.1856624 0.016065162 0.010509346 0.13094719 -0.16478239
-0.05344472 -0.10804692 -0.19387937 0.11975081 -0.07254355 -0.04542425 0.085063905 0.008677234
-0.3171479 -0.00752748 -0.100245595 -0.021207051 0.083540365 0.023333771 -0.20473768 0.13483255
0.010884536 -0.08550874 0.17054987 0.16949834 -0.04210408 -0.12914309 0.3651871 -0.3588301
0.09886976 0.12849802 -0.3573749 -0.24858351 0.24022757 0.18639399 -0.11018265 -0.12232583
0.16690107 0.15307288 -0.09031067 0.025541335 0.09029169 -0.0105260685 -0.31527102 -0.31697115
0.18222556 0.034877215 -0.115850374 -0.16332917 0.10183418 -0.18955837 -0.044135895 -0.14852847
0.008168204 -0.15091029 -0.009397255 -0.0274122 0.009582566 -0.13085936 0.02507242 0.017400617
0.07703109 0.10504216 0.053360596 -0.09445597 -0.078442544 -0.07285779 -0.079834536 0.029725835
-0.14194229 -0.08910308 -0.1235407 0.033056356 -0.011189114 0.051758125 -0.04208315 0.015958302
0.008075321 0.05144643 -0.03178804 -0.028065203 -0.04555197 -0.005667592 -0.02113484 -0.05663221
-0.05429024 -0.018799627 0.016442407 0.080618165 -0.035129998 -0.03257423 -0.042759266 -0.001486444
0.027683059 -0.005804955 0.044577014 0.07816197 0.04384422 -0.00461754 -0.12540525 0.06451154
0.056058742 -0.13463369 -0.0043281303 0.12815306 -0.16749376 0.049838733 -0.009170259 -0.07390564
0.030695695 0.093448415 -0.0685344 0.0871704 0.08514714 0.065559655 -0.10657913 0.094053574
0.10063723 0.016730374 -0.015920212 0.027318712 -0.05270974 0.046031807 -0.021863354 0.061175648
0.029908685 0.07171697 0.078724645 -0.037320036 0.010041456 -0.0017404322 -0.03866013 -0.0076250723
-0.04750256 -0.0058930307 -0.22625494 0.042263445 -0.0733298 -0.04450824 -0.07929023 -0.039404925
-0.106920265 0.00074494135 0.059120607 -0.046677247 -0.06828271 -0.07041999 -0.10655685 0.009876121
0.055146012 0.04093533 0.11900606 0.011682681 -0.18451814 0.0043643657 -0.06739645 -0.06706203
0.06417004 -1.0631435 0.07222982 -0.08536599 0.12362845 0.1124914 0.20780745 0.011880504
0.12560485 0.18197179 -0.13107279 -0.066695854 0.10054265 -0.0024349897 -0.0044454304 0.2006131
0.07250586 -0.071281865 -0.019748818 -0.108857326 0.09756402 0.03132271 0.014356443 0.018584153
0.065359846 0.02900932 0.18538894 -0.12923425 0.25610438 0.12098567 -0.018268736 -0.1598189
-0.0360504 0.02298833 0.07543294 -0.09669457 -0.026415017 0.034585245 -0.012213592 0.020507803
0.017899852 -0.0071581537 0.043183815 0.09618762 0.031581055 -0.0003537406 0.059215132 -0.044218194

bias f4 [512]
00000000: b2a5 03be 5161 c73d 1b38 04bd cd9c 80bd
00000010: 9332 babd 8786 67bc cd54 cb3c 0d17 d4bd
00000020: 2840 7dbd 9c00 65bd fd1f fc3c ddf2 843d
00000030: e997 c43d ba49 96bd e85e b139 2b6a 87bd
00000040: 36b1 413b 36e6 5cbd a4fe 1a3c c093 b4bd
00000050: 5cc4 9fbb a958 cfbd 0437 43bc 922e 213d
00000060: d7aa 463c e136 d5bb 92c2 ae3d 575d 983d
00000070: 1dc6 ee3d 1a5f 0c3d b5c4 953c 15c7 2a3d
00000080: 8805 bdbd 0a01 03be dd12 c53c e1ac 99bd
00000090: b519 dd3c 61a1 843b e292 853d 6391 e2bb
000000a0: 452b 12bd 5045 f4bc 38fd 143c 6212 baba
000000b0: a66b d1b7 315e 98bd 821d b9bd f14b 04bc
000000c0: 3354 b53d f5ae ed3c c886 b4bc d364 603b
000000d0: 667e 11be c9bc d4bb 6e8e a6bd d98f abbc
000000e0: 28fd 673d 8288 133d ac7b 883c 0ecd 683c
000000f0: 7f81 21bd d5da 99bc 7df0 f6bd 592c b4bd
00000100: ad0e cbbd 857b aa3d 822f 2abd c4ef b63c
00000110: adf3 d2bd 0a9b 193e fbb4 543d 4329 1e3d
00000120: 5c02 b13d c6f2 cdbd f320 a13d 6cf2 1b3d
00000130: 92cc ddbd e0c1 a1bd b6b4 47bd 868f 24bd
00000140: 7f9a b0bc 9714 933d e0d0 c83c 8b10 c7bd
00000150: 5b50 543b e277 0bbd a4bc 00be e65e d2bc
00000160: e3dc b53b 75df 803c 1d75 643d 13df c63d
00000170: 47d9 3f3d 567d 5d3d 5ddb fb3c 0e1d 213c
00000180: 5404 91ba 4a21 813d 10cc 58bd c7c0 1abe
00000190: 7125 0a3c 22bc 98bd 7f6b bcbd 85b7 81bc
000001a0: 8abf c73d 6df0 c9bd d6f2 8dba 5f82 9c3d
000001b0: 65e7 b93d ac1f 91bd 9864 97bd b5a4 6fbc
000001c0: 0042 483d 03d5 a5bd f74b c5bd e6f8 2fbe
000001d0: b6c4 56bd af27 2fbd c2f4 a2ba cb29 6cbd
000001e0: d1ea 97bd 1cfb d5bd c27d 82bc 7098 5bbd
000001f0: ba29 fbbd 4181 863c e465 5bbd 0826 163d
00000200: dba0 abbd 46d3 bf3d b590 26bb 594c 213d
00000210: b050 063e c94f 933d a242 22bd d6c2 96bd
00000220: 4bff 35bd 2abd d33b fa3e cfbc a379 dc3b
00000230: 11cb 313e 90d8 dfbd acbb b8bc 5e37 ddbd
00000240: a1af e03b 3e65 4cbc e2a8 8d3c 0a0a e6bc
00000250: 4f29 2dbd 92d7 603d 2f83 663d e937 47bd
00000260: af27 903d ec39 41be b2c7 7e3b fa37 afbc
00000270: 980d 1d3d 1dc3 f7bd fd13 0bbd ebe3 36bd
00000280: 4084 ad3c e905 dc3d 98da 87bc 5658 a5bd
00000290: 8e5d 63bd 3724 4fbd 79d5 2a3d e1f2 43bc
000002a0: 4a41 dabd cd2e bcbd a7d7 fcbd 831c 82bd
000002b0: 07fe 62bd beb6 9c3c a57c ba3c 4756 87bd
000002c0: cca2 2abc 6487 d13d 34b7 a2bd 8485 26bd
000002d0: 6153 38bd d9ca 5d3d 2cec e1bc 7215 0dbd
000002e0: 75a0 f73c df9f c1bd 3869 4cbc 2bf9 c13d
000002f0: c4a2 753c ceeb 83bd bab1 27bb 4db1 bdb8
00000300: 3549 8ebc 9224 83bc b3b0 113e 9f35 c03c
00000310: 7f75 a93c 7670 fc3c e674 50bd 0a4c 8abc
00000320: 8c61 703b a900 efbd 13cc fa3d 511b 0c3d
00000330: 9913 983c 54c6 153c d758 d2bd 126a 79bc
00000340: 5dbd a6bc b307 123d 15f5 3cbd 5beb 9f3d
00000350: 217b 86bd 0083 02be 209c 303d 01ca 223a
00000360: a58a e83d 065a a83c 4d4f cf3d 0b53 b73c
00000370: fecd c3bc a451 afb9 4fda 8ebd ad8c a5bb
00000380: 5fa0 ca3d cd53 f53c f3af 3abd 504f 75bd
00000390: 47bc acbd c2f6 84bd b45e 92bd 5ac7 b4bd
000003a0: 1bec b93c b751 1f3d 11e8 cb3c f563 833b
000003b0: 08b8 8bbc 7df1 0ebc ffa8 503a a247 aa3c
000003c0: 58b4 16bd 1406 82bc 6981 16bd 244f 37bc
000003d0: 883d 3abd f275 bdbc 1512 52bd 4494 1cbd
000003e0: 5710 42bd 17d5 dfbd 4968 03bd c7dd 9abd
000003f0: b444 e6bc 7dc8 5c3d a422 56bd 32b9 873c
-0.12856176 0.097353585 -0.03228007 -0.062799074 -0.090916775 -0.014131195 0.02482071 -0.10355959
-0.061828762 -0.055908784 0.030776972 0.06491635 0.09599287 -0.07338281 0.00033830781 -0.06612047
0.002955509 -0.053930484 0.009460125 -0.088172436 -0.004875703 -0.101243325 -0.011914972 0.039351054
0.012125692 -0.006506786 0.08533205 0.07439678 0.11658881 0.034270383 0.018282274 0.041693766
-0.092295706 -0.12793365 0.024056846 -0.07503677 0.026989797 0.004047558 0.06522156 -0.006914304
-0.035685796 -0.029818207 0.009093575 -0.0014196152 -2.496487e-05 -0.074398406 -0.09038831 -0.0080747465
0.0885395 0.02901409 -0.022036925 0.0034239783 -0.14208373 -0.0064922315 -0.08132635 -0.020942615
0.056637913 0.036018856 0.016660534 0.014209045 -0.039430138 -0.018781105 -0.12057588 -0.08797521
-0.099149086 0.08324341 -0.041549213 0.022331126 -0.10300384 0.15000549 0.05193041 0.03861357
0.08643028 -0.10056071 0.07867613 0.03807299 -0.10830034 -0.07898307 -0.048756324 -0.040175937
-0.021558044 0.071816616 0.024513662 -0.09719952 0.0032396528 -0.034049876 -0.1257196 -0.025680017
0.0055500134 0.015731553 0.05577575 0.09710517 0.04683807 0.054074608 0.030744249 0.009833587
-0.0011063912 0.063051775 -0.052928984 -0.15112601 0.008431778 -0.074577585 -0.09200191 -0.01583458
0.0975333 -0.09860311 -0.0010829817 0.07642054 0.09077338 -0.07086119 -0.073922336 -0.014626672
0.048891068 -0.080972694 -0.0963363 -0.17184791 -0.052433692 -0.042762455 -0.0012432563 -0.057657044
-0.074178346 -0.10448286 -0.015929107 -0.053612173 -0.12263818 0.016419055 -0.053563967 0.036657363
-0.0838029 0.09366469 -0.0025415842 0.03937945 0.13116717 0.07192952 -0.039614327 -0.07361381
-0.04443292 0.006461759 -0.025298584 0.0067283674 0.1736262 -0.10929978 -0.022550426 -0.10801576
0.006856874 -0.01247531 0.017292444 -0.028080959 -0.042275723 0.054893084 0.05627745 -0.048637304
0.07038819 -0.18869752 0.0038876352 -0.021388996 0.038343042 -0.12097762 -0.03395461 -0.044650953
0.021181226 0.10743315 -0.016583726 -0.08073489 -0.055509143 -0.050571647 0.04170749 -0.011959762
-0.10656984 -0.09188614 -0.1234582 -0.063530944 -0.05541804 0.019130107 0.022764513 -0.06608253
-0.01041479 0.10230902 -0.079450995 -0.040654674 -0.04500139 0.05414853 -0.027578436 -0.03444428
0.030227879 -0.09454321 -0.012476258 0.09471353 0.01499242 -0.064414605 -0.002558811 -9.045247e-05
-0.017368892 -0.016008649 0.14227562 0.023463069 0.02068591 0.030815344 -0.050892733 -0.016881961
0.0036679236 -0.11670048 0.12245955 0.03420574 0.018564032 0.009141523 -0.10270851 -0.015223043
-0.020353967 0.035651874 -0.046132166 0.07808562 -0.06566454 -0.12745285 0.043117642 0.00062099105
0.11354569 0.020550739 0.10122547 0.022378465 -0.023901936 -0.00033439428 -0.06975233 -0.0050521703
0.098938696 0.029947186 -0.045577955 -0.05989009 -0.084343486 -0.06492378 -0.071469694 -0.08827086
0.022695592 0.03889629 0.024890931 0.0040097185 -0.017055526 -0.0087245675 0.00079597527 0.02078611
-0.036793083 -0.015872039 -0.03674451 -0.011188302 -0.045468837 -0.02312753 -0.051286776 -0.038227335
-0.047378864 -0.109293155 -0.032081876 -0.07561832 -0.028108932 0.053902138 -0.05227913 0.0165678

weight f4 [256, 512]
00000000: ec73 353b aae3 56bd 30b1 153d 6566 c53c
00000010: d3d6 713a a5cd 2ebd 7b80 0fbd 88bd 0abd
00000020: 1185 eb3c 1f9a f9bc eaae acbc 1249 01bd
00000030: 4947 9b3c d7b3 3ebd dded 42bc bdc2 02bd
00000040: 5107 b7bc b6eb 19bc 3810 74bc ecc4 29bd
00000050: 0ae8 1bbd be33 04bc c3d0 b03b 2519 ce3c
00000060: a85f 88bc a22c de3b fd9a 0e3c 4023 123d
00000070: cbd6 c03c f76a 073c 13c2 853c 51fb 1abd
00000080: eb88 b43c 8d37 483c c0fd 093d b54c 93bc
00000090: face 8639 c61d 053d 7e67 07bd 6f03 04bd
000000a0: 4ef1 e4bb 1533 7aba 1603 e1bb 81bd 983a
000000b0: 9b0a 93bc 512f 583c 0e9a c5bc 251a 283d
000000c0: 5cb9 5cbc 7a2d 09bc 8819 c9bb 3cfe 0dbc
000000d0: f2cb 03bd 3300 333d 8b2c 3cbd 7037 0bbd
000000e0: 5f0a 34bd 9696 e43a 8100 ba3c fcff 2dbd
000000f0: 11cf 24bd d46b d23c 9fb0 e4bb 4958 ad3b
00000100: e0bf c1bb e3eb d4bc 452d dbbc 6907 7abc
00000110: 0e43 dcbc 24cb 5b3b 3977 f9bc 0f64 3dbc
00000120: 4edc fb3b 6163 abbc e4cc 1a3d db51 863c
00000130: 1a45 10bd be46 5a3b 162a 66bd 7465 6d3b
00000140: e501 b7bc 3254 8fbc e9ba bdbc 1a56 ef3a
00000150: 9bf6 123d 59b8 74bc e2c3 a0bc b5b1 083c
00000160: 6d50 d13c da69 d1ba 2aac 33bb 2bdc 043c
00000170: 237b 1dbd 2c55 033d daba ffbb 707a 33bd
00000180: eb14 953c 1113 ec3c 2fd6 b0bc 8bff 4dbd
00000190: a73b 23bd f316 0dbd 94e8 c63b a997 4bbc
000001a0: 1fc5 1fbd 9d8c a0bc 9ea7 2a39 9881 603c
000001b0: 9a39 1f3c 16a9 593c f2a7 fb3b f16a 383d
000001c0: 8d7c e73c 99db 39bd cbe2 32bd 6f8b 4fbc
000001d0: e5e4 eebc 4d97 cabc 240b bebc 031d 3ebd
000001e0: 259f 9fbc 4d06 1ebd efc1 1f3c 0ad1 c9bb
000001f0: 289d ee3b 9312 53bd 2678 df3c 3d59 5dbb
00000200: 9ff3 953c 56a9 7cbd 0aaf 77bc 1286 e33a
00000210: fc23 98bc 6101 71bc a983 c1bc 169d bc3c
00000220: 14e5 3ebd c6d0 d8bc 9442 b33c f1ea 1c3d
00000230: d4e5 193d 3ed7 633c 461c 15bd b553 afbc
00000240: 0628 26bd 9766 ba39 142f ef3c 4283 74bb
00000250: 8fda eabc f0db 8dbc 54c5 123d d7b4 43bd
00000260: 0d81 073c c820 68bc b54f 003d 2cef 2cbd
00000270: df00 1fbd 972c c4bc cde2 c63c b729 663c
00000280: e2f0 72bd 1852 5fbd 54c3 09bd 15af 4ebc
00000290: a2c5 53bc de53 20bd 0418 653b 8124 2fbc
000002a0: b865 d73c ae16 60bb d888 13bc c7c2 b8bc
000002b0: b495 923b 5481 123c a101 163d 958e 963c
000002c0: 4732 103c 4964 7abc 2462 d93a dcc0 e0bc
000002d0: 05cd 01bd ea86 6abb 2d2c bdbc acad 0cbd
000002e0: ecf3 1cbd 3d2b b73c 155a 29bd 8fb1 0e3d
000002f0: 121d 193d 08fd 0a3c 7b74 30bc 0584 8abb
00000300: d097 383c 0e5e e53c 1d96 4fbd 682a a9bc
00000310: 843f 0cbd 7f1c bf3c 06f6 35bd 136a cebc
00000320: 8c69 1abd 85b7 e1bb d5c3 303d 9a13 a1bc
00000330: 71e1 e9bc aa5a f5bc be30 8aba 5343 33bd
00000340: c6b5 063d 37eb 27bc 994d 413d 2497 99bc
00000350: d4ea 6b3c ffc0 743c 5746 133c 8093 04bd
00000360: e6df db3c a56c 30bd 20d1 143d a8e8 1ebd
00000370: 186f a4bc 6654 d9bb 2a9a 7cbc ec2b 1a3d
00000380: 87fa f1ba dd5b 74bc 7b25 a43c 16ec 893b
00000390: 516f 033a 57ac 07bd e8a6 853c 2725 60bc
000003a0: 6adf 063d c44a 34bc add7 08bc 6f37 39bc
000003b0: 2984 cbbc 9cc0 ea3c 9dcc 2abc 7631 45bc
000003c0: 2a73 d8ba 05c2 053c 0bc5 193d b594 64bc
000003d0: bae8 00bd 0e31 18bd 0a0f eab7 d8b8 00bb
000003e0: c445 183d 24a9 8d3c b5b3 563c ec28 0ebd
000003f0: 1d88 99bb c478 50bd 0990 533c b610 a5bc
0.0027687503 -0.05246321 0.036545932 0.024096677 0.0009225432 -0.042676587 -0.035034638 -0.033872157
0.028749974 -0.030468998 -0.0210795 -0.031563826 0.01895489 -0.046558227 -0.011897531 -0.031924
-0.022342356 -0.009394577 -0.014896445 -0.041447565 -0.038063087 -0.008068977 0.00539598 0.025158474
-0.016647175 0.006780223 0.008703944 0.03567815 0.023539921 0.0082652485 0.016327893 -0.03783733
0.022037944 0.012220276 0.03368926 -0.017980913 0.0002571268 0.032499097 -0.033057682 -0.032229837
-0.0069867736 -0.0009544355 -0.006866823 0.0011653156 -0.017949393 0.013194875 -0.02412131 0.04104056
-0.0134719275 -0.008372659 -0.0061370768 -0.008666571 -0.03217692 0.043701362 -0.045940917 -0.033988416
-0.043955203 0.0017439898 0.022705318 -0.042480454 -0.040236536 0.025686182 -0.0069790627 0.0052900654
-0.005912766 -0.025991386 -0.026754985 -0.015260556 -0.026887443 0.003353783 -0.030452358 -0.0115595
0.0076861745 -0.020921411 0.037793055 0.016396454 -0.03522215 0.0033306326 -0.05619248 0.00362238
-0.02233977 -0.017496202 -0.023160415 0.0018259913 0.035879713 -0.01493653 -0.019624654 0.00834315
0.025551045 -0.0015976981 -0.002741585 0.008109133 -0.03844751 0.032063648 -0.007804257 -0.043817937
0.018198451 0.028817685 -0.021586506 -0.050292533 -0.03985181 -0.034445714 0.006070206 -0.012426295
-0.03900635 -0.0195983 0.00016274906 0.013702773 0.009718323 0.013284942 0.0076799328 0.045023862
0.028257633 -0.04537544 -0.043673318 -0.012667521 -0.02916188 -0.024730349 -0.023198672 -0.046414386
-0.019485066 -0.038580228 0.009750827 -0.0061589526 0.007281918 -0.051531386 0.02727897 -0.0033775114
0.018304644 -0.06168493 -0.015117416 0.0017358682 -0.018571846 -0.014709801 -0.02362235 0.023024123
-0.046605185 -0.026466738 0.021882333 0.038309995 0.037572697 0.013906298 -0.036403917 -0.02140222
-0.040565513 0.0003555312 0.029197253 -0.003730968 -0.02866867 -0.017316788 0.035832718 -0.047779884
0.008270514 -0.014167972 0.031326015 -0.04222028 -0.03881919 -0.023947043 0.024278069 0.0140480315
-0.059311755 -0.05452165 -0.033633545 -0.012614985 -0.012925537 -0.039142482 0.0034956941 -0.010689856
0.02629362 -0.0034193206 -0.009004794 -0.022553815 0.0044734124 0.008941967 0.036622647 0.018378535
0.00880105 -0.015282699 0.0016585034 -0.027435713 -0.031689662 -0.0035785981 -0.023092354 -0.034345314
-0.03831856 0.022359485 -0.041345675 0.0348373 0.03738124 0.008483179 -0.010769959 -0.0042271637
0.011266664 0.02799895 -0.05068027 -0.020650104 -0.03424026 0.023329018 -0.04442408 -0.025197065
-0.037698314 -0.0068883323 0.04315551 -0.019662667 -0.028549882 -0.029950459 -0.0010543091 -0.043765377
0.032888196 -0.010248951 0.047193144 -0.018748827 0.014399249 0.014938592 0.008988938 -0.03236723
0.026840162 -0.04307236 0.03633225 -0.038796097 -0.020072505 -0.0066323755 -0.015417615 0.037639543
-0.0018461504 -0.01491448 0.020037403 0.004209052 0.0005013841 -0.03312334 0.016314939 -0.013680733
0.032927908 -0.011004154 -0.008352202 -0.01130472 -0.024843292 0.028656296 -0.01042476 -0.012035718
-0.0016513814 0.008163934 0.03754143 -0.01395147 -0.031471945 -0.037156157 -2.7901977e-05 -0.0019641425
0.03717591 0.017292567 0.013104369 -0.034706995 -0.0046854154 -0.05089642 0.012912759 -0.02014957

bias f4 [256]
00000000: 2014 38bd e9d0 e0bd bbc2 f93d b63c 7c3d
00000010: 6b3d 82bd a7ee 9c3d 90e4 47be 1355 cf3d
00000020: 6f25 183b d9c2 c83c ad5a 43bd 7881 3f3c
00000030: 4eb9 d93d f618 3b3d 5e49 a5bb 3706 0ebb
00000040: 5361 34bd bcbb 303e ca3b 603c 0124 c53d
00000050: 327e 9bbd 1d34 2bbd 116d 623d dbf2 3ebd
00000060: ac72 803c dc4c f2bc ace1 65bd e36e 93bc
00000070: 27c0 f9bc 2729 dbbd 009e b2bd 1669 853d
00000080: b025 9ebc 70c3 0f3d 82b2 973d e437 a8bb
00000090: ff0c fc3b 66c0 5bbd 8f5b c3bb 7b4a c8bc
000000a0: eb29 8abd 74a7 ae3c 1317 a4bc 4f91 b7bc
000000b0: c345 053d fc5b a9bd 6bd4 05be 8dd4 bc3c
000000c0: eb32 92bd 518a f6bc abaf e13d b7d6 053e
000000d0: 26fc 12bd 9baf 8ebd 39c5 c0bc 0480 43bd
000000e0: 6a68 8ebc bb14 743d 265d 493d 0808 553d
000000f0: 461c d1bc 9bdf af3d 7be2 6fbd 3db6 aa3d
00000100: 0f2d 4cbe 9fd5 88bd 54c3 103d a5d9 b8bb
00000110: bb1a 9dbd f598 68bd 9717 903d 5d66 7ebb
00000120: b626 1abd eecc a3bc aefb 0b3c 6480 16bd
00000130: cb05 2d3d 03f5 e73c 07f2 c3bd 8f5f 85bd
00000140: 9664 cabc 080f b9bd 8146 d93d 5ddb e3bc
00000150: e708 72bd 3e2c 783b cb9c c0bc bd36 97bd
00000160: 0633 5e3c a144 ceba d9eb 15bd 51e8 f6bc
00000170: e02c 39bb b964 1abe 53e7 c9bd ba58 8ebd
00000180: b327 62bd b108 673c 5e4e a73b 059c bebd
00000190: 9cb4 903b a336 2cbd 5f4c 17bd b8d0 5ebd
000001a0: 29a0 adbd 341e 203e 49f9 4b3d 3dce 92bc
000001b0: 6bd1 c03d a62c 083d 6be8 d33d 3fe8 7cbd
000001c0: f30d 56bd 3be4 623d 9d45 8d3a c21a acbd
000001d0: d1b8 663d bbdd 023e 38de 01bd 6ead 3fbd
000001e0: ec8d 56bd b456 16bc 3b20 d2bd 88ff 85bc
000001f0: 17e6 623c 4de9 bf3d 6f23 1c3e 3866 eebc
00000200: 213a d03d 3711 423d f4d3 b13c 1bdf 0fbc
00000210: e7ac fa3c 50b1 d3bc 1f88 56bd 8f3f 073e
00000220: c2f9 f33d eba4 993c c167 94bd 1612 adbd
00000230: 188f 5e3c 9e8e e2bd 90d6 fb3d adde 75bd
00000240: ccbc 543d 8d62 65bc 8a3d cf3c cf7b 13bd
00000250: 7b9a 023d 5366 013d c691 be3a 75de 52bc
00000260: 406e 60bd 60e5 a4bc c442 07bd edf6 81bd
00000270: aaef b73c 2e62 5f3d 330d 673b aa27 f03d
00000280: 42fe 58bd 9d32 bf3c 79f3 21bc 6663 ce3b
00000290: b2f1 71bd 9b80 eebd 2ffb 893d af1c 95bd
000002a0: 7ffd 4bbd 2c18 be3c 5ae8 463d c29d b4bd
000002b0: 7b15 c73d a52d ce3d 207f 843c 16d5 833d
000002c0: 55e4 293a ea5a 1d3e 6e18 e93d f7ff 17bc
000002d0: a2ca c7bd 9e53 823d 1067 cf3c f45d 67bd
000002e0: 53db a73d 708d 403d 2b5f a3bc a46d b53d
000002f0: 3940 4fbd b36a 41bd 3f53 a5bd 9d9b a23d
00000300: 9e4b 913c 160e 3bbd f325 72bc 8842 133e
00000310: 0374 d13d 6ced f7bc c7c4 223d 8df5 e4bc
00000320: 3983 54bd 720f 50bd 576e e63c b129 ca3d
00000330: 97e7 88bc f2ac e73d ac6a 6cba 34e1 b23c
00000340: 504d c9bd 14c5 a2bc 1b97 423d fa0b 1dbd
00000350: 7e05 793c b52b 04bd 47bb 893c bbe2 203d
00000360: 167b 473e c20e debb 48b3 193d 7184 54bd
00000370: 34f3 8ebd 4da9 b83c 6751 c4bb 4b95 4abd
00000380: 26c3 b33d 2504 aa3d 6d8d 4a3d 28d6 58bd
00000390: bc56 013e 6b57 9dbd 68a4 e4bd e379 40bb
000003a0: 1d87 00bc 1da3 033d b733 27bd 0691 25bd
000003b0: 4dca 88bc 2058 41bd 70c4 c73a fbb8 c83d
000003c0: 1757 0bbd ad69 1b3e ca53 39bd e00e a73d
000003d0: e50e 443d 7da7 a03c 2c5d fc3d e78c 5f3e
000003e0: 8e41 cabc a051 a0bd 811c 88bc 46de 18be
000003f0: b889 c1bb 64c7 293d ad47 f0bc 7a58 3a3d
-0.044941068 -0.109773465 0.12195345 0.061581336 -0.06359371 0.07662707 -0.19520783 0.101236485
0.0023215672 0.024506973 -0.047693897 0.011688583 0.10631047 0.0456781 -0.0050441464 -0.0021671185
-0.044038128 0.17259115 0.01368613 0.09626008 -0.07592429 -0.041797746 0.055279795 -0.046618324
0.01567968 -0.029577665 -0.05612342 -0.01799721 -0.030487133 -0.107012086 -0.08721542 0.06514184
-0.01930508 0.035098493 0.074070945 -0.005133616 0.007691979 -0.053650282 -0.0059618424 -0.024449578
-0.067462765 0.021320082 -0.020030534 -0.022408156 0.032537233 -0.08269498 -0.13069312 0.02305057
-0.07138618 -0.030095251 0.11019834 0.13070188 -0.035885 -0.06967088 -0.023531543 -0.047729507
-0.017383773 0.059590083 0.0491611 0.052009612 -0.025526177 0.08587571 -0.058565598 0.083355404
-0.19939063 -0.0668137 0.03534253 -0.0056411796 -0.07671114 -0.056786496 0.070357494 -0.0038818337
-0.037634574 -0.019995179 0.008543892 -0.036743537 0.042241853 0.028315073 -0.095676474 -0.06512367
-0.024706166 -0.0903607 0.10609151 -0.027814562 -0.05909052 0.0037868167 -0.023512265 -0.073834874
0.01356197 -0.0015737006 -0.036601875 -0.030140074 -0.0028255507 -0.15077485 -0.09858575 -0.06950517
-0.05521364 0.014101193 0.0051057776 -0.09307102 0.0044160616 -0.042044293 -0.036938068 -0.05439827
-0.08477814 0.15636522 0.049798284 -0.017920608 0.09414943 0.033245705 0.103470646 -0.061744925
-0.052259397 0.05539344 0.0010778193 -0.08403541 0.0563286 0.12779896 -0.031706065 -0.046796255
-0.05238144 -0.009175945 -0.10260054 -0.016357198 0.013848803 0.093706705 0.15247892 -0.029101476
0.10167337 0.0473797 0.021707512 -0.00878122 0.030600024 -0.025841385 -0.05237591 0.1320784
0.11912872 0.018755397 -0.07246352 -0.08450715 0.013583921 -0.11062358 0.12296784 -0.060026813
0.051937863 -0.014000547 0.025297899 -0.036006745 0.031885605 0.031591725 0.0014539293 -0.012870421
-0.054792643 -0.020128906 -0.033022657 -0.063459255 0.022453148 0.05453699 0.003525567 0.11726315
-0.052976854 0.023339564 -0.009884709 0.0062984703 -0.05906839 -0.11645623 0.067373626 -0.072808616
-0.0498023 0.023204885 0.04856143 -0.088191524 0.09720894 0.100673 0.0161739 0.06437127
0.00064808625 0.15366712 0.11381613 -0.009277335 -0.09755446 0.06363605 0.025317699 -0.056486085
0.0819613 0.047009885 -0.01994284 0.08858803 -0.050598357 -0.047220897 -0.080725186 0.07939837
0.017736252 -0.04566773 -0.014779556 0.14380848 0.102272056 -0.030264579 0.039738443 -0.027949119
-0.051882956 -0.05079598 0.028128786 0.09871233 -0.016711993 0.113122836 -0.0009018581 0.0218359
-0.09829199 -0.019869365 0.047507387 -0.0383415 0.015199063 -0.032268245 0.016812934 0.039278727
0.19480547 -0.0067766616 0.03752449 -0.05188412 -0.06979981 0.022541666 -0.005991149 -0.049458783
0.08777456 0.08301572 0.04945128 -0.05293861 0.12630743 -0.07682689 -0.111641705 -0.0029369525
-0.0078447135 0.03213798 -0.040820803 -0.04042151 -0.016698027 -0.047203183 0.0015241038 0.09800907
-0.034018602 0.15177031 -0.045245923 0.08157134 0.047865767 0.019611115 0.123224586 0.21831094
-0.024689462 -0.07828069 -0.016615154 -0.1492854 -0.00590631 0.04144992 -0.029331053 0.045494534

weight f4 [128, 256]
00000000: fa47 453d e8b6 9cbd a3f0 973a 71b8 2d3d
00000010: 01a2 2e3c 640d 0ebc 0baa 9bbd dd0d f4bc
00000020: a3f5 9c3c 0e77 cdbc 019b 363d 9439 b3bc
00000030: bebe 4fbd 096f 21bd 1942 9a3c 6011 87bb
00000040: 8805 b5bc af5e 29bc 8a0b 27bd ada2 8abd
00000050: ae1e 4e3d 6f22 613d c439 523d d4b3 8fbd
00000060: f469 9b3c 2160 603d 4f18 9ebc 6725 1b3c
00000070: 8639 77bc 09ea 013d 444c d7bc 57b1 a83c
00000080: 78f5 1f3d a4f0 6abc d07f abbd d40d a33c
00000090: 18a3 193d fe14 ffbc 9903 18bd 148f 633d
000000a0: 0640 523d 6d15 023c 1122 c8bd afcb 633d
000000b0: df56 11bc a8d4 37bd b438 ddbd f0a9 143c
000000c0: 1a4b e13b 45e1 8c3c df92 dbbb 77eb fe3c
000000d0: e248 4ebd 779e 46bc 9539 083d 5a5c 62bd
000000e0: fe46 f0bc c410 b5bd c647 aebd 2464 6fbd
000000f0: ac8c 513d 8718 91bd d7f9 233d 88a0 ecbd
00000100: 53a8 7fbd acd1 203d e01f 12bd b2e8 2abd
00000110: b367 aebd 36d4 43bd 8e50 a7bc e379 80bb
00000120: b647 7c3d 1e36 14bd 37c9 1c3d 087f 91bd
00000130: 99b6 dabc d7c1 1bbd 48b6 bdbc 76b2 2b3c
00000140: 9f94 13bd 3ea6 86bc e255 afbd bf3a a1bd
00000150: 7355 2f3d 997d 523d 693b d4bc 1b07 bebd
00000160: 9f83 6abd debe 57bd 6435 88bd a5a4 d6bc
00000170: 4277 abbd 60fd 24bd 5883 ba3c 0da2 6e3c
00000180: 4c03 c1bc 9895 b7bd 3575 783c 6cbe 2dbd
00000190: 8148 0abc a361 4b3d 688f 12bd 5a35 1abd
000001a0: 2712 6cba 3e10 afbd eb4e b6bc 1b22 47bd
000001b0: 7056 e8bc c134 d7bc 202f 79bd 8e5d 7fbc
000001c0: 5554 713b ca1a 1f3c d01c 1c3d 6362 8fbd
000001d0: 212b 2cbd 75f2 2bbc 9249 ca3d b6c1 8bbc
000001e0: 4791 c9bd 259f 533d 0f89 b6bd 25e4 1fbd
000001f0: 8f34 6ebd e426 87bd 5285 84bd 94cb 6bbd
00000200: 379a 89bd 44d6 6a3d 32b1 b83b 607f e23c
00000210: c641 6ebd 8642 80bc 5ed8 6c3b 8b76 9bbd
00000220: 723b 96bd 83a4 f8bc 0179 e7bd b91c d1bd
00000230: aadb 0bbd 4c7d 81bd 1d9e 653c 116a f73c
00000240: e504 35bd 8341 04bd b62c 9ebd 2d8f 84bc
00000250: e6a7 e33b f206 a6bb 6283 dd39 3f7f 46bd
00000260: 7f4d c9bd 3700 adbb 5025 38bd 06cf 19bc
00000270: c749 8e3d 6215 28bc 23ef 233d 33be 01bd
00000280: 4795 b6bc 9986 a83c 50c8 6b3c a638 893c
00000290: a537 81bd d66b f53c e1b1 013c 6f08 373d
000002a0: 4d7a 553d 973b 62bd 0937 6fbd 5009 5bbd
000002b0: 2b70 b6bd ee1b 633c 327a 393b caa7 c73c
000002c0: 0dae 7cbd 7ef4 1fbd 7027 0ebd a547 b1bd
000002d0: c171 0fbd e4fb 94bd d696 9abc 66da f23c
000002e0: cfa0 24bd 6f31 503d 9e0c 1e3d 2655 71bd
000002f0: 6383 e73c a926 80bd e872 6e3d f8a1 5c3b
00000300: 70c8 07bd af93 4b3d dad6 9c3c bcc9 79bc
00000310: 2b65 8ebd 8286 86bc 39b7 41be 11c2 4fbd
00000320: c2a8 d13c b55f 81bc 6b1e aebc fd40 0fbd
00000330: cbc0 82bb bfaf a3bd befd 863c b75c 82bd
00000340: 0820 02bc 34db 89bd cf61 dd3c 897e 8b3c
00000350: 9c1f 01bd 4aab 75bd cf5a 25bd 7df5 233c
00000360: 3f44 96bd 01ed ee3a 9e83 c8bc 42d9 893c
00000370: af14 813a a50c ad3c 52ba 2ebd 93a0 733d
00000380: f66b 9bbd 0bdc 06bd 157d 373d 4cfd 51bd
00000390: 3831 3abd 336e 2ebd 5fb9 a2bd fc8c 9d3c
000003a0: 45eb 7a3c 5ef6 cbbd 57da e6bc ed23 453d
000003b0: c42b e53b 4fcf 913c 72e8 3cbd b06a 86bc
000003c0: 3b6a 17bc caac 90bc 9b82 b73c 992a b2bd
000003d0: b853 27bd 6f31 1e3d 94f3 05be 6c8e ef3b
000003e0: 78d2 25bc 91c7 acbc e43b 1ebd 3fb2 fb3b
000003f0: 2bec 94bc 2bb1 863c e354 103d ec78 213c
0.048164345 -0.07652074 0.0011592101 0.042412225 0.010658742 -0.008670185 -0.076007925 -0.029791767
0.019160097 -0.025081184 0.044581417 -0.021878041 -0.050719015 -0.039412532 0.018830346 -0.0041219443
-0.022097364 -0.010337516 -0.04078249 -0.06769309 0.050322227 0.05496448 0.05132462 -0.07016721
0.01897142 0.054779176 -0.0192987 0.009469367 -0.015089398 0.031717334 -0.026281483 0.020592375
0.039052457 -0.0143396 -0.08373988 0.019904055 0.037509054 -0.03113794 -0.037112806 0.05555637
0.05133059 0.007939679 -0.09772123 0.05561417 -0.008870809 -0.04488054 -0.10801831 0.009073719
0.006875408 0.01719726 -0.006700858 0.031118138 -0.050362475 -0.012122742 0.03325804 -0.055263855
-0.029330727 -0.088410884 -0.085097834 -0.05844511 0.051159546 -0.07084756 0.040033188 -0.115540564
-0.062416386 0.03926246 -0.03567493 -0.04172582 -0.08515873 -0.047809802 -0.020424154 -0.00392078
0.061591826 -0.036184423 0.03827783 -0.071043074 -0.026698397 -0.038026657 -0.023158208 0.01047956
-0.036030408 -0.016436692 -0.08561303 -0.07872533 0.0428061 0.05138931 -0.025907235 -0.09278699
-0.05725443 -0.05267226 -0.066508085 -0.026201556 -0.08372356 -0.0402807 0.022767708 0.014565003
-0.023561142 -0.089640796 0.015164663 -0.04241793 -0.008440138 0.04965366 -0.035781294 -0.037648536
-0.00090053905 -0.0854802 -0.022254428 -0.04861651 -0.02836153 -0.026270272 -0.060835958 -0.01558627
0.0036823947 0.009710977 0.038113415 -0.07001188 -0.04203332 -0.010494818 0.09877314 -0.017060142
-0.098421626 0.051665444 -0.089128606 -0.039035935 -0.058155593 -0.06599215 -0.06470741 -0.057567194
-0.06718867 0.057333246 0.0056363577 0.027648628 -0.058168195 -0.01565672 0.0036139707 -0.0759097
-0.07335557 -0.030351883 -0.113023765 -0.102105565 -0.034145035 -0.063227266 0.014014748 0.030201944
-0.04419412 -0.03228904 -0.07723372 -0.016181553 0.0069475053 -0.005066746 0.00042250293 -0.048461195
-0.09829234 -0.0052795666 -0.04495746 -0.009387737 0.06947666 -0.010259004 0.04002298 -0.03167553
-0.022287978 0.020571994 0.01439102 0.016750645 -0.063094415 0.029958647 0.007915945 0.044685777
0.05211859 -0.05523261 -0.058402095 -0.053475678 -0.08908113 0.013861639 0.0028301594 0.024372
-0.061689425 -0.039051525 -0.03470558 -0.08656243 -0.035020594 -0.07274607 -0.018870752 0.029645156
-0.04019242 0.050828394 0.03858625 -0.058919095 0.028260892 -0.06257374 0.058215052 0.0033665877
-0.033150136 0.04970139 0.019145418 -0.015245851 -0.0695289 -0.01642156 -0.1891755 -0.050722186
0.025593165 -0.015792707 -0.021254739 -0.034974087 -0.003990268 -0.07992505 0.016478416 -0.0636534
-0.007942207 -0.06731263 0.027024178 0.01702811 -0.031524286 -0.059977807 -0.040369805 0.010007259
-0.07337236 0.0018228592 -0.024476822 0.01682723 0.0009848083 0.021124193 -0.042658158 0.059479307
-0.07588951 -0.032924693 0.044797022 -0.051266953 -0.045457095 -0.042585563 -0.07945513 0.019232266
0.015314882 -0.099591 -0.028180284 0.048129965 0.0069937427 0.017799048 -0.046120115 -0.016408294
-0.009241636 -0.017660517 0.022401145 -0.08699531 -0.040851325 0.038621362 -0.13081199 0.007310679
-0.01012098 -0.021091254 -0.038631335 0.0076811607 -0.01817902 0.016441902 0.035237204 0.00985549

bias f4 [128]
00000000: e173 12bd 80cb a53c 19e9 60bd 5a5c b3bd
00000010: f029 4dbc c7ea 50bb b898 24bd a523 6bbd
00000020: f12d e6bc b949 3abd 1172 bcbc 1635 b9bd
00000030: 6303 29bd 15eb 9cbd 48e4 ebbc 779c d2bd
00000040: 824a 87bc 25b8 ebbc 4cf5 b3bc d000 7cbd
00000050: 3323 863d f818 6cbd 2b5b d7bc 033e a8bc
00000060: 83f9 55bd 21c6 38bc 43db 33bd 0d99 7fbb
00000070: e7c0 00bd 4629 9e3b 4321 033d 8fbe 4bbd
00000080: e38f 083d 8d25 76bc 78af 02be 8516 b4bc
00000090: d80b 9dbd 64e1 c7bd 64d4 6e3c adcc 953d
000000a0: c1a3 a6bd 9739 22bd 0bd6 b8bd 62f4 b23e
000000b0: b526 b7bd 711b c8bd 5071 bfbd 6a2e fcbd
000000c0: 7da0 8f3d 9ccc 08bd c300 fc3d a860 493d
000000d0: d5bb 85bd 60fe 603c c3f8 e63d 2eaf 42bd
000000e0: 731a a5bc f915 8cbd d01e f53c dbfe 1abd
000000f0: 674c 72bd 2e98 223e fc4e 00be cc06 56bd
00000100: 2370 473c 1a35 67bd 5930 a73b a9ee 9ebd
00000110: bae9 153b 0c7b a9bd a28d 783c 2e11 ddbd
00000120: 2180 fdbc 5f01 d83a 81b1 d9bd d36d eabd
00000130: 5296 fdbd 732e 70bd c658 17be 45c3 073d
00000140: 62d3 f83c 2434 21bd 9696 14bd 353d d73c
00000150: 1af3 92bd 2fbd 343a 0bb3 5bbd 004a 36bd
00000160: 87d2 21bd a599 b53c e201 a7bd 80f8 50b8
00000170: 21ab 273b b503 b1ba 73fd 7cbb 185b 88bd
00000180: c183 8cbd 5a79 9abd 6618 9bbd 0401 29bd
00000190: c361 27be 756c a9bd 611c 3bbd b4dd 09bd
000001a0: 0a22 82bd 8bcb eb3b d992 8cbd d170 a43b
000001b0: 62ec 08bd 3d46 b73b d2bf 183d 862c 473e
000001c0: 737d 5dbd b835 133d c3b5 81b9 ef66 c2bd
000001d0: b7e1 3abc 49e8 2d3b d95c f8bc 29c4 78bd
000001e0: b7c2 083c f0be bb3c 5b39 80bd d15f 1ebd
000001f0: 4d7f 16be e236 bf3d 836b 97bc 62e0 bebd
-0.035755042 0.020238638 -0.0549098 -0.08757849 -0.012522206 -0.003187822 -0.040184706 -0.05740704
-0.028098078 -0.045480464 -0.02300361 -0.090433285 -0.041262995 -0.07662026 -0.028795376 -0.102837496
-0.01651502 -0.02877433 -0.021967553 -0.061524212 0.065496825 -0.057641 -0.02628859 -0.020537382
-0.052239906 -0.011277706 -0.043910276 -0.0039001137 -0.031433966 0.0048266975 0.032014143 -0.049742278
0.033340346 -0.015023601 -0.12762249 -0.021983394 -0.07668275 -0.09759787 0.014577005 0.073144294
-0.08136702 -0.039605703 -0.090252005 0.34952074 -0.0894293 -0.09770859 -0.093477845 -0.1231354
0.070130326 -0.033398256 0.12304833 0.049164444 -0.06529967 0.013732523 0.11277916 -0.047530346
-0.020154214 -0.068401285 0.02992192 -0.037840705 -0.059154894 0.15878364 -0.1253013 -0.052252576
0.012172732 -0.056447126 0.005102199 -0.077603646 0.0022874908 -0.082754225 0.015170487 -0.107942924
-0.030944886 0.0016479901 -0.10629559 -0.114467286 -0.12382187 -0.058638047 -0.14779958 0.033145208
0.030374233 -0.039356366 -0.036276422 0.026274303 -0.07175274 0.00068946456 -0.053637546 -0.044504166
-0.039507415 0.02216799 -0.08154656 -4.9822498e-05 0.0025584179 -0.0013505133 -0.0038603216 -0.06658
-0.068610676 -0.07542677 -0.07573013 -0.041260734 -0.16345887 -0.0827264 -0.04568136 -0.0336587
-0.06354149 0.007195895 -0.068639465 0.0050183316 -0.033428557 0.00559309 0.03729231 0.19450578
-0.054074716 0.035939902 -0.0002474022 -0.09492289 -0.011406354 0.0026536158 -0.03031771 -0.060733948
0.008347205 0.022918195 -0.0626094 -0.038665596 -0.14696999 0.0933664 -0.018483883 -0.093201414

weight f4 [60, 128]
00000000: eddd 773d 4dfb f73c ab24 be3d 9504 52bc
00000010: 74dc 473d 1c97 893d e5bc 203c 0913 113d
00000020: 2e18 9ebc a3d6 d43a 047e ab3d d2d6 d13d
00000030: faf1 c83c 3105 fa3c 0701 c7bc d529 3e3d
00000040: aa56 103d 0cd3 34bd c1af a43d 5071 d73d
00000050: 7bd9 b0bc 4c1a 5c3d 79f9 4bbd a4a5 433a
00000060: 64f5 61bc 275d dfbc 715a 69bc 50cc bebc
00000070: 2a32 2b3b 70d6 82bd f7f4 f33c 28cf d33a
00000080: f39b 513d 0bc4 653b 1d37 22bd eed2 e03c
00000090: 00c4 37bc e265 073d 55a0 523c 9fad 2e3a
000000a0: 358a 2c3c 4e49 b03d 81b7 8abd 7da1 69bd
000000b0: 1a18 103d 3ea6 863b 6188 5e3d c9d4 2a3d
000000c0: 9171 00bd 2924 aabd cb33 3ebd 6f41 88bb
000000d0: 7f9a 08bc 32d4 07bd e5c1 aeba e891 bfbc
000000e0: 3df7 663d 5f5d cc3c ad23 3f3d dddb 05bd
000000f0: 5a7e 1e3d c0d0 b93d 5557 293d 17b0 9d3c
00000100: 83c3 8a3d 3f89 873c 0498 dd3d ee3b fa3c
00000110: 338c a2bc 4885 253d e315 fbbc c67e 193d
00000120: 8f40 c73c ec06 833d ad2c 753c f614 8dbc
00000130: 9d6e f83a d87d 66bd 56a6 2abc 17c5 2a3c
00000140: 5560 c7b9 3e97 2f3d c08f b53d 1025 20bd
00000150: 1be3 713d ea66 063d b18f 2f3c 3432 0cbd
00000160: 8b3b 2ebe 9ef1 a73d 1c9a 043d a33d da3d
00000170: f87f 03bd e85a 543d e35c ab3c 7292 32bd
00000180: 89ff ef3c b8ea dabb b4eb 6dbb baf3 92bd
00000190: 458a bd3d b633 683d 5480 afbc 62b9 eb3d
000001a0: c7d5 73bc 7533 1a3d 3e8c 6f3c b034 693c
000001b0: 5988 b23d cac0 22bd d18d 28bd 9d53 aa3d
000001c0: 31a9 3dbd a582 54bd e5f5 a7bc 5172 423d
000001d0: 2f58 b6bb 1c63 0abc 938c 91bc aa49 e0bd
000001e0: 0627 113d dcd4 4bbd 9e2d 903d 648f 3a3d
000001f0: 16b1 56bb d5b9 653c 4fda 4abd 1620 a3bd
00000200: 2e39 adba 9e39 493c ee42 c0bc 30af 4d3c
00000210: e576 9fbc 2193 463c dd96 97bd 8dae df3b
00000220: 5be9 383d b80d 30bd e065 853c 4975 223d
00000230: feee 80bd cf50 35bd dba6 79bd 7019 393d
00000240: 29b9 df3b be85 3bbd fc5c 0b3c 779d 8a3c
00000250: 2c87 383c 48f0 67bd 0a50 113d 2f22 b03d
00000260: a481 4fbd e2a7 923c a2df 06bd 4df9 fd3d
00000270: c041 e0bd b14e 8c3d 4850 acba 3e63 9bbc
00000280: 467d b1bc 1aa2 c6be 5bb0 60bd f04f 57bd
00000290: a2a6 1bbb 627e 733a d540 853b ff22 02be
000002a0: 71cd 4dbd dbe5 b03d 7086 e0bc 4f9f 4539
000002b0: c0ba 603c 4bff a13d fd90 4a3d 1448 0abb
000002c0: 7fba c1ba 71ee 95bd 31be 5d39 ef6a 0b3d
000002d0: 4884 de3c e6b3 953a 909e 28bb cd99 73bd
000002e0: c21b 053d 0cc8 34bb 30b2 013d 75c0 babe
000002f0: 1b3f 913d 7c66 033d 9b04 61bd f12a 8dbc
00000300: 2e99 5fbd cd02 183d fac2 893b c0b3 3c3d
00000310: 6403 1b3c c9a9 fd3e a0e3 c538 7003 133e
00000320: 8a09 a0bd 19f7 87bd cb78 e5bc a086 073e
00000330: 3675 4e3c f202 83bc 7658 b9bc 8d03 34bd
00000340: 8639 c83a 5a1d bebd 7875 afbc bd78 ebba
00000350: 2d6e 27bd 1c57 813d 243e 27ba 2a5b e43b
00000360: 076c 0a3d 89cd 843c 3177 f4bc a4b3 c7bb
00000370: 0b5d 413d e5ca da3d c877 3cbd 9716 823d
00000380: da90 363d e24d 5c3d ce70 053d a43c 2cbc
00000390: 191f b8be 29d3 ddbd 394f 8bbd 0425 1f3d
000003a0: 00fe 1bbc 72ec 563d 35df 23bd 2064 87ba
000003b0: 3e4f d33d 9e55 893d 5993 17bd 98ac 383c
000003c0: 30eb fb3a 40c4 f93d 638f 923d b616 b53c
000003d0: 0275 503d 0e96 e5bc cdd2 da3a 5f89 15be
000003e0: 60df a4bd 554f db3c 65ae c8bd df07 1abd
000003f0: 9b4f f63d 825f 0b3b 7f79 18bd 99bd cabc
0.06051438 0.030271197 0.092843376 -0.012818475 0.048794225 0.06718275 0.009810661 0.035418544
-0.01929864 0.0016238283 0.08373645 0.10246052 0.024529446 0.030520054 -0.024292482 0.046426613
0.0352389 -0.044146582 0.08041335 0.105196595 -0.021588078 0.053736016 -0.049798463 0.0007463342
-0.013791416 -0.027266098 -0.014242754 -0.023290783 0.002612243 -0.06388557 0.029779894 0.001615976
0.051174115 0.0035059478 -0.03960334 0.02744433 -0.011216164 0.033056147 0.012855609 0.0006663445
0.010530998 0.08607732 -0.06773282 -0.057038773 0.035179235 0.004109173 0.05432928 0.041706834
-0.031358305 -0.08307678 -0.046436112 -0.004158191 -0.008337616 -0.03316135 -0.0013332932 -0.023385003
0.05638813 0.024946867 0.046664882 -0.03268038 0.038694717 0.09073019 0.041343052 0.019249005
0.06775572 0.016544936 0.1082001 0.030546155 -0.019842243 0.04041031 -0.030650085 0.037474416
0.024322776 0.063978046 0.014964265 -0.017221909 0.0018953864 -0.056272358 -0.010415634 0.010422966
-0.0003802801 0.042868845 0.08865309 -0.039097846 0.059054475 0.03281299 0.010715411 -0.034227565
-0.17014901 0.08200382 0.032373533 0.106562875 -0.032104462 0.051844507 0.020918315 -0.043596692
0.029296653 -0.0066808127 -0.003630382 -0.071753934 0.092548884 0.05668994 -0.021423496 0.11509968
-0.014882511 0.03764673 0.014620839 0.014233753 0.087174125 -0.03973464 -0.04115087 0.08316729
-0.04630393 -0.051882405 -0.020502994 0.047472302 -0.0055647115 -0.008446481 -0.017767226 -0.1095155
0.035437606 -0.049763545 0.07039951 0.045546904 -0.003275936 0.014021357 -0.0495246 -0.07965104
-0.0013215893 0.012281803 -0.023469415 0.012553975 -0.019465873 0.012120039 -0.07401822 0.006826228
0.04514442 -0.042981833 0.01628393 0.039662633 -0.06295584 -0.04426652 -0.06095014 0.045190275
0.0068274927 -0.045781843 0.008506056 0.016920788 0.011262696 -0.056625634 0.03547672 0.0860027
-0.050660744 0.017902318 -0.032928117 0.12401066 -0.10950041 0.06850947 -0.0013146484 -0.01896822
-0.02166618 -0.3879555 -0.054855686 -0.05256647 -0.0023750444 0.0009288547 0.0040665665 -0.12708662
-0.050244752 0.086375915 -0.027407855 0.00018846731 0.0137164 0.079100214 0.049454678 -0.002110009
-0.0014780312 -0.0732087 0.00021147054 0.034037527 0.027162686 0.0011421412 -0.0025729276 -0.059472848
0.032497175 -0.0027585058 0.031664073 -0.36474958 0.070921145 0.03208016 -0.054936033 -0.01723239
-0.054589443 0.037112046 0.004204151 0.04606986 0.009461258 0.49543598 9.4360905e-05 0.1435678
-0.078143194 -0.06638927 -0.0280117 0.13234949 0.012601187 -0.015992615 -0.02262519 -0.0439487
0.0015275932 -0.09282942 -0.021418318 -0.001796506 -0.040876556 0.06315443 -0.0006379804 0.0069688754
0.03379443 0.016211288 -0.029841991 -0.006094413 0.047207873 0.1068323 -0.04601267 0.06351965
0.044571735 0.053785212 0.032578282 -0.010512505 -0.35961226 -0.10831291 -0.0680222 0.03885366
-0.009521008 0.052471586 -0.04000779 -0.0010329522 0.103178486 0.06705783 -0.037005756 0.011271618
0.0019219872 0.12195635 0.07156255 0.022105556 0.050892837 -0.028025653 0.0016694904 -0.14603184
-0.08050418 0.026771227 -0.09798888 -0.037605163 0.12026902 0.0021266644 -0.037225243 -0.02474861

bias f4 [60]
00000000: b9ab acbb 4ca8 1cb8 3e78 56b9 2c47 f9b8
00000010: 4c75 1abb 8094 30b8 847b cd39 0711 32b8
00000020: 3018 28ba 316e 32b3 d0db 32ba 0321 b5b8
00000030: 946b a0b9 bc16 f4b8 8828 4db9 07e0 cbb9
00000040: 97cc a9b9 04e3 85b8 053c 1db6 08cf b536
00000050: 83c0 0238 275b abb8 6cad e9bb 5e28 16b9
00000060: 02d0 5435 da42 2e39 8edc 7fb9 af3c 9639
00000070: 3356 3e37 0638 2d38 34d8 4539 b506 5cb9
00000080: aae8 2939 d67a b539 9d7e bbb7 d7d3 7d39
00000090: cc08 20b8 fbaf 9839 7cea 9c39 bc68 8e37
000000a0: 90cd e738 ab51 bc38 8da4 cbb7 ecf3 ce37
000000b0: 557b 1739 0d47 db38 4e6a 3539 e833 22b9
000000c0: 636d d139 1ff8 ff38 36e6 9cb9 d487 ceb9
000000d0: 2cf6 b8b9 f3a9 3839 b89f bf39 e9bf 5439
000000e0: e6b0 8839 147e 8339 536c 1f39 a74b 7d39
-0.0052694944 -3.7350037e-05 -0.00020453424 -0.00011886502 -0.002356845 -4.209997e-05 0.00039192673 -4.2454365e-05
-0.00064122956 -4.1544073e-08 -0.0006822916 -8.6369015e-05 -0.0003059773 -0.00011639061 -0.00019565423 -0.0003888609
-0.00032386623 -6.384219e-05 -2.342976e-06 5.418322e-06 3.1173706e-05 -8.170894e-05 -0.007131269 -0.00014320153
7.9278846e-07 0.00016618837 -0.00024400858 0.00028655442 1.1344952e-05 4.129859e-05 0.00018867926 -0.00020983334
0.0001620377 0.0003461453 -2.2351096e-05 0.00024206877 -3.8155165e-05 0.00029122815 0.00029929343 1.697649e-05
0.00011053227 8.9797504e-05 -2.427611e-05 2.4670699e-05 0.00014446427 0.00010455968 0.00017301107 -0.0001546886
0.00039945086 0.00012205564 -0.0002992616 -0.00039392582 -0.00035278627 0.00017610918 0.0003654936 0.00020289388
0.0002607174 0.00025080203 0.00015203776 0.00024156143
