linearPredictionModels/db39/mega/cleanedCombine.csv_wholeNetPrototype5_Epochs_20_ValidationLoss0.795391_lr0.0003_2023_08_14_01:55:20.pth (torch, 37847 bytes, 2 tensors)

weight f4 [60, 145]
0	0x3d23dc1a	0.040004827
1	0xbbb25240	-0.005441934
2	0xbc312d83	-0.0108140735
3	0xbc304a8c	-0.010759961
4	0xbd387bd0	-0.04503995
5	0x3ca74027	0.020416332
6	0x3c241ce9	0.010016658
7	0xbd1c8bcc	-0.03821926
8	0xbbf1be7f	-0.007377445
9	0x3d504a9a	0.050852396
10	0x3cb4aa33	0.022053814
11	0xbe6e3087	-0.23260699
12	0xbc3c09da	-0.011476958
13	0xbd35eac3	-0.04441334
14	0xbca115bb	-0.019663682
15	0xbd052b6b	-0.03251211
16	0xbd2ca6ed	-0.04215138
17	0x3ac3a8d3	0.0014927633
18	0xbcbf1f19	-0.023330258
19	0xbc9bb50c	-0.019007228
20	0x3d2a3d47	0.041562345
21	0xbd303033	-0.043014716
22	0x3d725d74	0.059171155
23	0x3bf8a24e	0.0075877076
24	0x3da91a17	0.08256929
25	0x3d015807	0.03157809
26	0xbd83c58b	-0.06434163
27	0x3a343c15	0.0006875408
28	0xbc1bf872	-0.009519683
29	0x3ce1cda1	0.027563872
30	0x3c301865	0.010748004
31	0xbc58735f	-0.0132111
32	0x3d81d330	0.06339109
33	0xb9ba6e01	-0.00035558644
34	0x3c891bd2	0.016736899
35	0x3d48b226	0.04899802
36	0x3bcbb507	0.0062166485
37	0xbd099cab	-0.033596676
38	0xbcd57429	-0.026056366
39	0xbbbb86f1	-0.0057228734
40	0xbd219ae9	-0.039454374
41	0x3c30d65f	0.010793298
42	0xbcdd314f	-0.027001051
43	0x3c118b69	0.008883336
44	0x3d66642e	0.056247883
45	0xbc968ea1	-0.018378558
46	0xb805efe0	-3.1933072e-05
47	0xbd36a77a	-0.04459331
48	0xbc3cd740	-0.011525929
49	0x3d64790c	0.0557795
50	0x3d42cbc4	0.047557607
51	0xbc5b0eff	-0.013370275
52	0x3d2e3b95	0.04253729
53	0xbd6db32c	-0.0580322
54	0x3cb0b86f	0.02157232
55	0xbd487356	-0.048938118
56	0xbaf74ec6	-0.0018868081
57	0xbd811293	-0.06302371
58	0xbc4d2ba3	-0.012522611
59	0x3c351aa8	0.011053719
60	0x3cff9d26	0.031202864
61	0xbcab0557	-0.02087657
62	0x3af1fd0d	0.0018462256
63	0x3cd84931	0.026402088
64	0x3fc4eb68	1.538434
65	0xbdbf932f	-0.09354245
66	0x3d9c533d	0.07633064
67	0x3d569e52	0.05239708
68	0xbca1d249	-0.019753592
69	0x3aeefa9a	0.0018232644
70	0x3caebc22	0.021329943
71	0x3d7a56da	0.061117984
72	0xbc613167	-0.013744689
73	0xbd61e64f	-0.05515128
74	0xba0e39c2	-0.00054254767
75	0x3d2e324c	0.042528436
76	0xbc8b6094	-0.017013825
77	0xbc6a6ee8	-0.014308669
78	0x3d6b11ab	0.057389896
79	0x3d3061cf	0.043062028
80	0x3ac165f8	0.001475512
81	0xbd4460d1	-0.047943894
82	0xbca52462	-0.02015895
83	0x3c344a97	0.011004112
84	0x3cbfefb4	0.023429729
85	0xbbffc264	-0.0078051556
86	0x3ca35845	0.019939551
87	0x3c6a3c09	0.01429654
88	0x3af9b1de	0.0019050201
89	0xbd4a95d2	-0.049459286
90	0xbbf59369	-0.0074943793
91	0x3cb96c84	0.022634752
92	0x3c3ee2e6	0.0116507765
93	0xbc3c445e	-0.011490909
94	0xbcb14d94	-0.021643437
95	0x3c1f5fb6	0.009727409
96	0x3ce0bafc	0.027432911
97	0x3c0ffcbf	0.008788287
98	0x3c1d6122	0.009605678
99	0x39ac9182	0.00032914808
100	0x3cac104a	0.021003861
101	0xba9786e8	-0.0011560591
102	0x3bad926d	0.0052969963
103	0x3b95fe02	0.004577399
104	0x391b8309	0.00014830766
105	0xba5ef75e	-0.00085054885
106	0xb90fc024	-0.0001370912
107	0x3b6c05a3	0.0036014102
108	0x3c2c9b4c	0.010535073
109	0x3c1aa077	0.009437672
110	0x3c0f6a41	0.00875336
111	0x3c2c8008	0.010528572
112	0xbc1720ef	-0.009224161
113	0x3cbf756e	0.023371425
114	0x3c52e945	0.012872999
115	0x3cadf3b9	0.02123438
116	0xbc3a4867	-0.011369801
117	0xbbfb2d6e	-0.0076653278
118	0x3c38d2be	0.011280714
119	0x3b851550	0.0040613785
120	0x3a8d1af1	0.0010765475
121	0x3c92917b	0.017891636
122	0xbcac91a0	-0.021065533
123	0x3b774d4b	0.003773528
124	0x3c4b02d2	0.012390809
125	0x3c45e540	0.012078583
126	0xbc1bcaea	-0.009508828
127	0xbbc10d02	-0.005891443
128	0xbc1cab55	-0.009562333
129	0x3c418c85	0.011813288
130	0xbc6d458d	-0.014481914
131	0x3c8b38f0	0.016994923
132	0x3b387076	0.0028143204
133	0x3d85f1d4	0.06540266
134	0x3d9ef355	0.07761256
135	0x3da0c698	0.07850379
136	0xbcd544cd	-0.026033783
137	0xbb8cb252	-0.0042937184
138	0x3d801f44	0.062559634
139	0x3d04a5a1	0.03238452
140	0xbd5a98ed	-0.053368498
141	0x3d621f5a	0.05520568
142	0xbd3782ef	-0.044802602
143	0xb916e21d	-0.00014389349
144	0x3a680cc2	0.0008851999
145	0x3c40cb46	0.011767214
146	0x3c90d281	0.017678501
147	0xbbafe7d9	-0.0053682146
148	0xbcba5570	-0.022745818
149	0x3c164ac1	0.009173096
150	0xbbb4072e	-0.00549402
151	0x3b4e47d9	0.003147593
152	0x3b882468	0.0041547306
153	0x3cc659a1	0.02421266
154	0xbce2e5b5	-0.027697423
155	0xb91eafab	-0.00015133496
156	0xbf58c30b	-0.8467261
157	0x3c198ded	0.009372217
158	0x3c1cf44e	0.009579731
159	0xbd176bf0	-0.03696817
160	0xbb7c1bde	-0.0038468759
161	0x3b6f18ff	0.0036483405
162	0x3c803ec9	0.015654938
163	0xba5bbd3e	-0.00083823863
164	0xbce04e7b	-0.027381172
165	0x3c0439fa	0.008070463
166	0x3b45c8ba	0.0030179457
167	0xbc30ead3	-0.010798174
168	0xbc09a862	-0.008401962
169	0x3a18f447	0.000583474
170	0xbc4b6f02	-0.012416603
171	0x3b8742d2	0.0041278386
172	0xbac9cb91	-0.001539575
173	0x3cf29318	0.029611155
174	0x3c16b096	0.009197375
175	0x3b54f5f8	0.0032495242
176	0x3b754e8a	0.0037430846
177	0xbc3fa274	-0.011696447
178	0xbc29c07a	-0.010360831
179	0x3bd05dbc	0.0063588303
180	0xbc47f564	-0.012204502
181	0xbc2d4851	-0.010576324
182	0xbc67c798	-0.014146708
183	0x3bbfb514	0.0058504436
184	0x38bb1495	8.9206886e-05
185	0xb9953682	-0.00028460106
186	0x39a066f5	0.00030594287
187	0x3d993e29	0.07482559
188	0x3b2f8f35	0.002678824
189	0xbce2ce6f	-0.027686326
190	0xbc1b2bf5	-0.009470929
191	0x3ba22e26	0.004949349
192	0x3c2c841e	0.010529546
193	0x3b1c4558	0.0023845043
194	0x3c2ce102	0.010551693
195	0xbac18298	-0.0014763651
196	0x3b8c9748	0.004290495
197	0xbcb55515	-0.022135297
198	0xbbef918f	-0.007311053
199	0xbaef34ab	-0.0018249949
200	0x3cc3bd17	0.023893876
201	0x3c29214e	0.010322882
202	0x3bf36201	0.0074274545
203	0x3c003bb2	0.0078267325
204	0xbc6d74c1	-0.014493168
205	0xbcab50c4	-0.020912535
206	0xbc9eb93d	-0.019375438
207	0xbc787682	-0.015164973
208	0x3c8f689e	0.01750594
209	0xbca4fe13	-0.020140683
210	0x3b728612	0.0037006182
211	0xbc6effe3	-0.014587375
212	0xbc669528	-0.014073648
213	0xbbfecdb9	-0.007775989
214	0xbb667317	-0.0035163814
215	0x38e75c62	0.00011032146
216	0xbbc33e16	-0.005958329
217	0xbbe5f699	-0.007017922
218	0xba2abf3a	-0.00065134803
219	0xbb9678fd	-0.0045920596
220	0xbbe44031	-0.00696566
221	0x3b458e98	0.0030144807
222	0xbb7deaae	-0.0038744616
223	0xb9f9e202	-0.0004766137
224	0xbb4fab23	-0.0031687699
225	0x3b2a330c	0.0025970368
226	0x3c3a3d75	0.011367192
227	0x3bdd1b0b	0.0067476085
228	0x398ff7c0	0.00027459674
229	0x3b0e844c	0.0021746336
230	0x3c02075d	0.007936326
231	0x3b8611bc	0.0040914696
232	0x3bb35a51	0.005473413
233	0x3b64146c	0.0034802211
234	0xbb994a70	-0.004678063
235	0x3bcf489d	0.006325795
236	0xbae61ef1	-0.0017556829
237	0xbb88b3a0	-0.0041718036
238	0x3b2a3038	0.0025968682
239	0xbb1acacb	-0.002361941
240	0x3b122508	0.0022299904
241	0x3ba1386a	0.004920055
242	0xbab9a214	-0.0014162683
243	0xbb9a91ab	-0.004717072
244	0xba77720c	-0.00094392966
245	0xbb19ef38	-0.0023488533
246	0xbc1755a8	-0.009236731
247	0x39a0588f	0.0003058356
248	0xbbb8eda5	-0.005643564
249	0xbb53f630	-0.0032342784
250	0xbb6a55e4	-0.0035756761
251	0xbb73758a	-0.0037148916
252	0x3a1d3c33	0.0005998045
253	0x3b598f23	0.0033196888
254	0xbbdb5685	-0.0066936635
255	0xba0dce0b	-0.0005409426

bias f4 [60]
0	0x3dcc10a0	0.099641085
1	0x3b2f2bbd	0.002672895
2	0xbc354e77	-0.011066071
3	0x3dd7a2cd	0.10529099
4	0xbd9d095d	-0.076678015
5	0xbc92aaf9	-0.017903792
6	0x3c9ca1da	0.019120146
7	0xbbeb285e	-0.007176443
8	0xbd2aff66	-0.041747473
9	0xbdf19460	-0.117958784
10	0xbc8d8065	-0.017273137
11	0xbd017fc4	-0.031615987
12	0x3df444a4	0.11927155
13	0x3d4d320b	0.050096553
14	0xbd05b6b5	-0.032644946
15	0xbe000090	-0.12500215
16	0xbc54b60a	-0.012982855
17	0xbd09d992	-0.033654757
18	0xbca68adc	-0.020329885
19	0x3d20fe7a	0.039305188
20	0x3c24a3c7	0.010048813
21	0x3cd33eb1	0.02578673
22	0xbcd121c1	-0.02552879
23	0xbcc0d927	-0.023541046
24	0xbd9bc822	-0.07606532
25	0xbd83cd99	-0.06435699
26	0x3c8a19cb	0.016858002
27	0x3c947e52	0.01812664
28	0x3d27f4b7	0.041004863
29	0x3d47d105	0.04878332
30	0xbd58961f	-0.05287754
31	0x3cf43ccb	0.029814145
32	0xbd59120d	-0.05299573
33	0xbc1bf6fc	-0.009519335
34	0xbdd11d7c	-0.10210702
35	0x3dbf3731	0.09336699
36	0xbcc25b6c	-0.023725234
37	0xbb5c4532	-0.003361058
38	0xba95cbfe	-0.0011428592
39	0x3d6ba994	0.05753477
40	0xbd9783a9	-0.07398159
41	0x3d5a7eb8	0.053343505
42	0xbd5dee31	-0.054182235
43	0x3d51561d	0.051107515
44	0x3cf6d386	0.03013016
45	0x3cc7b5fc	0.02437877
46	0xbd816c67	-0.06319504
47	0x3c94126e	0.018075194
48	0x3d8f762c	0.07004961
49	0x3da00cbc	0.07814929
50	0xbd992356	-0.07477443
51	0x3c809279	0.015694844
52	0x3db2353f	0.08701562
53	0x3d98da72	0.0746354
54	0x3b9399db	0.004504425
55	0xbd14b591	-0.036305968
56	0xbda06343	-0.07831433
57	0x3da4cf3f	0.080473416
58	0x3d3a7c5f	0.045528766
59	0x3bc06d73	0.0058724224
