linearPredictionModels/db39/mega/cleanedCombine.csv_wholeNetPrototype5_Epochs_25_ValidationLoss0.465854_lr0.0030_2023_08_13_05:44:45.pth (torch, 992679 bytes, 8 tensors)

weight f4 [512, 145]
0	0xbf1adb44	-0.6049082
1	0xbef86a72	-0.4851871
2	0xbdfdad3c	-0.123865575
3	0xbee7f98f	-0.45307586
4	0xbef53eec	-0.47899568
5	0xbefe359d	-0.4965028
6	0xbf12958e	-0.5725945
7	0xbec29bdf	-0.38009545
8	0xbdd77ab1	-0.105214484
9	0x3da5d462	0.080971494
10	0xbf180bd6	-0.5939306
11	0x3d4a5a1c	0.04940234
12	0xbe9af541	-0.3026524
13	0xbf0c82be	-0.54886997
14	0x3c3d7d66	0.011565542
15	0xbe598aed	-0.21244402
16	0xbe68e690	-0.22744203
17	0xbf00d065	-0.50317985
18	0xbee7fbf6	-0.45309418
19	0xbf097622	-0.5369588
20	0xbf0dc1eb	-0.5537402
21	0xbef36bcb	-0.47543177
22	0xbe9dc043	-0.30810747
23	0xbea817ff	-0.32830808
24	0x3d689e96	0.056791864
25	0xbef2f7fe	-0.47454828
26	0xbe9d4e46	-0.3072378
27	0xbed2f502	-0.4120255
28	0xbf0b25d4	-0.54354596
29	0xbefc2951	-0.49250272
30	0xbe7ce571	-0.246969
31	0xbe5ca001	-0.21545412
32	0xbf032aca	-0.51237166
33	0xbf0e72ba	-0.5564381
34	0xbf0ec764	-0.55772996
35	0xbe412918	-0.18863332
36	0xbf128f79	-0.5725017
37	0xbeeb0699	-0.4590347
38	0xbef1d7dc	-0.47235
39	0xbf1667b1	-0.5875197
40	0xbeebbb7c	-0.46041477
41	0xbc91b6e4	-0.017787404
42	0x3d0a52f8	0.03377053
43	0xbe6467bd	-0.22305198
44	0x3c68f950	0.014219597
45	0xbe141ac3	-0.14463334
46	0xbefd21bd	-0.49439803
47	0xbed64cab	-0.41855368
48	0xbf0e0045	-0.5546916
49	0xbf1f9f64	-0.62352586
50	0xbdb0d260	-0.08633876
51	0xbdafa75c	-0.08576843
52	0xbeb57d8c	-0.35447347
53	0x3d9d95fe	0.07694624
54	0xbe511765	-0.2041908
55	0xbf136da4	-0.57589173
56	0xbf015dc2	-0.5053369
57	0xbf06df4d	-0.5268448
58	0xbebdef7a	-0.3709677
59	0xbdb650fc	-0.08902165
60	0xbf11d582	-0.5696641
61	0xbee6396b	-0.4496568
62	0xbf056fcd	-0.5212372
63	0xbd76cbf7	-0.06025311
64	0xbeea2a9f	-0.45735642
65	0xbdb70b9c	-0.08937761
66	0xbeb71806	-0.35760516
67	0x3e886a63	0.26643667
68	0xbcee83fd	-0.029115671
69	0xbe992e20	-0.29918003
70	0x3df3d03d	0.11904953
71	0x3ba5b3f1	0.005056851
72	0xbe57704d	-0.21038933
73	0x3d909ac3	0.070607685
74	0xbd233c84	-0.039852634
75	0xbe35a76e	-0.1773965
76	0xbe291071	-0.16510178
77	0x3ebecd67	0.37266085
78	0xbd54d80f	-0.051963862
79	0x3db140fa	0.086549714
80	0x3d4c0e35	0.049818236
81	0xbe065768	-0.1311928
82	0xbe56c925	-0.20975168
83	0xbe1dacdb	-0.1539797
84	0x3dc18fb7	0.094512396
85	0x3e8d1c15	0.27560487
86	0x3dcf3767	0.10117989
87	0xbe8aad9e	-0.27085584
88	0xbd819b77	-0.06328481
89	0xbd262d03	-0.04057027
90	0x3caaabb4	0.020833828
91	0x3e0463c6	0.12928686
92	0xbe4e23b6	-0.2013081
93	0x3edc6621	0.43046668
94	0x3e9f4af6	0.31111878
95	0xbd0fc822	-0.03510297
96	0x3e56c40c	0.20973223
97	0xbd44b35f	-0.048022624
98	0x3b657cb3	0.0035016953
99	0x3ddaac72	0.106774226
100	0xbe0d9d25	-0.13829477
101	0x3e9080f5	0.28223386
102	0xbde56ac8	-0.112020075
103	0xbe8ca3f1	-0.27468827
104	0xbe048b3e	-0.12943742
105	0xbe6d9ddd	-0.23204751
106	0xbe94a264	-0.29030144
107	0xbdc4cf2c	-0.096098274
108	0x3e022220	0.1270833
109	0x3e9bac22	0.30404764
110	0x3cf1a2bf	0.029496549
111	0xbb2e029a	-0.0026551844
112	0x3da11a1b	0.07866307
113	0xbdda9daa	-0.10674603
114	0x3c9edbf2	0.019391987
115	0xbc776a34	-0.015101004
116	0x3d59f176	0.05320879
117	0xbe1ae1a9	-0.15125145
118	0xbc1d1857	-0.009588323
119	0x3dbd02fb	0.09229084
120	0x3bd3bc67	0.0064616683
121	0x3dab5796	0.08366315
122	0xbe1d70e7	-0.153751
123	0xbd973911	-0.073839314
124	0xbd3f9102	-0.04676915
125	0x3dc0c128	0.09411842
126	0x3d8c22cd	0.06842575
127	0xbbf1ca58	-0.0073788576
128	0x3e6b0e3c	0.22954649
129	0x3d2199b5	0.039453227
130	0x3de19433	0.11014595
131	0xbd74918f	-0.059709128
132	0x3d6910f1	0.056900922
133	0x3d3a0641	0.04541612
134	0x3cc30e50	0.023810536
135	0x3d266ef4	0.040633157
136	0xbcba94fb	-0.022776118
137	0x3da1d0ad	0.0790113
138	0x3d53ba3b	0.051691275
139	0xbd1b166a	-0.037863173
140	0x3d1e6575	0.038670976
141	0xbd3f0914	-0.046639517
142	0xbd556109	-0.052094493
143	0xbce03bfc	-0.027372353
144	0xbd826f58	-0.063688934
145	0xbc69ad85	-0.014262562
146	0xbea7d73d	-0.327814
147	0x3e2d2797	0.16909634
148	0x3e1c71dc	0.15277809
149	0xbedc108d	-0.42981377
150	0xc00833a4	-2.128152
151	0x3d6f64f7	0.058445897
152	0x3f163eb0	0.58689404
153	0x3f375b53	0.71623725
154	0xbd263393	-0.04057653
155	0xbf26820c	-0.65042186
156	0x3d6e4433	0.05817051
157	0x3ed5eb83	0.41781244
158	0xc00adb9e	-2.1696544
159	0xbc442990	-0.0119728
160	0x3f8d5e78	1.1044455
161	0xbea6cf43	-0.32580003
162	0xbe0257b2	-0.12728766
163	0x40160626	2.3441253
164	0xbe25c15c	-0.16187042
165	0xbb073cda	-0.0020635636
166	0x3d9e2d79	0.07723517
167	0x3f149366	0.5803741
168	0x3ed3dab7	0.41377804
169	0x3c4ea657	0.012612901
170	0x3e87a778	0.26494956
171	0x3f3d1c0c	0.7387092
172	0xbf824224	-1.0176435
173	0xbfe5b41c	-1.794559
174	0xbb9a9e25	-0.0047185593
175	0xbedb8760	-0.4287672
176	0x3f4ced88	0.80049944
177	0x3aef9c1b	0.0018280776
178	0x3f426e17	0.75949234
179	0xbf36cb3d	-0.71403867
180	0x3e5f8b37	0.2183045
181	0x3ea86bda	0.32894784
182	0x3dccc1bb	0.09997889
183	0xbf90ffb8	-1.1328039
184	0xbf2076d8	-0.6268134
185	0xbef270e1	-0.47351745
186	0x3ecfdafb	0.40596756
187	0xbd1fcffe	-0.039016716
188	0xbf8f791f	-1.1208838
189	0xbc63d0af	-0.0139047345
190	0x40166655	2.3499959
191	0xbe86ff2b	-0.26366553
192	0xbef3e88d	-0.4763836
193	0xbee387ab	-0.44439444
194	0xbfc2ae09	-1.5209361
195	0xbe6fb912	-0.23410442
196	0x3da12b40	0.078695774
197	0xbfd6d66e	-1.6784189
198	0xc0234a8d	-2.5514252
199	0xbd1399c0	-0.0360353
200	0x3ee9218f	0.45533416
201	0x3e7d5ef8	0.24743259
202	0xbf056150	-0.5210161
203	0xbd778a5f	-0.060434695
204	0xbe7cce46	-0.24688062
205	0xbf9ccf09	-1.2250682
206	0xbf57a514	-0.84236264
207	0xbfc0117d	-1.5005337
208	0xbf64c66f	-0.89365286
209	0x4100b080	8.043091
210	0xbf16bdd0	-0.5888338
211	0x40c79a88	6.2376137
212	0xc035f7b5	-2.8432438
213	0x3fa83a1a	1.3142731
214	0xc0446f81	-3.0693057
215	0xc01b1359	-2.423056
216	0xc0227b3d	-2.5387719
217	0x4015bd7e	2.3396907
218	0xc0345ff6	-2.818357
219	0xbf8874f1	-1.0660688
220	0xbf275999	-0.6537109
221	0x3fe88e09	1.8168346
222	0xc04d1416	-3.204351
223	0x3f7bb627	0.9832482
224	0xbea91089	-0.33020428
225	0x4018844a	2.3830743
226	0xc050b584	-3.2610788
227	0xbf8787b8	-1.0588293
228	0xbfff2567	-1.9933289
229	0x3f2623b7	0.64898247
230	0xbf97bad6	-1.1853893
231	0xbf902721	-1.1261941
232	0xc01fca6e	-2.4967303
233	0x3fe36948	1.7766504
234	0xbfb42e23	-1.407658
235	0xbf61a521	-0.8814259
236	0xbf9a245a	-1.2042344
237	0x3fbe188c	1.4851241
238	0xc00e7dc4	-2.2264261
239	0xbfc7a293	-1.5596489
240	0xbfce0395	-1.6094843
241	0x3fa67ded	1.300718
242	0x3e478969	0.19486012
243	0xbed321aa	-0.4123662
244	0xbf177db3	-0.59176177
245	0x3f689164	0.9084685
246	0xbcdf960f	-0.027293233
247	0xbec8a89a	-0.39191133
248	0xbf2d450b	-0.67683476
249	0x3dc2e9a8	0.09517223
250	0xbc92c271	-0.017914983
251	0x3ec6ebcc	0.38851774
252	0xbe8f79de	-0.28022665
253	0x3cf4ee34	0.02989874
254	0x3e7eeed3	0.24895792
255	0xbe08b92f	-0.13351892

bias f4 [512]
0	0xbf1e631e	-0.6186999
1	0x3b64ba55	0.0034901102
2	0xbf305fb1	-0.68896013
3	0xbf67a73f	-0.9048957
4	0xbf6c873b	-0.92393845
5	0xbf1cfc62	-0.61322606
6	0xbf0b5e9a	-0.54441226
7	0xbf37a525	-0.71736366
8	0xbf995ad5	-1.1980845
9	0xbf6326af	-0.887309
10	0xbf276ad4	-0.6539738
11	0xbf1cc52b	-0.61238354
12	0xbf807e6e	-1.0038583
13	0xbf7f7c8c	-0.9979942
14	0xbf124bc5	-0.57146865
15	0xbf5b313f	-0.8562202
16	0xbf468cfd	-0.7755888
17	0xbf12351d	-0.57112294
18	0xbf7ffd1f	-0.9999561
19	0xbf08a9f8	-0.5338435
20	0xbf8a3584	-1.0797582
21	0xbf3bba93	-0.73331565
22	0xbfbfd49c	-1.4986758
23	0xbf4d6ec2	-0.8024713
24	0xbf117af9	-0.56828266
25	0xbf032c6b	-0.5123965
26	0xbf932492	-1.1495535
27	0xbf2fc52d	-0.6866024
28	0xbf34b94c	-0.7059524
29	0xbf211ea4	-0.6293738
30	0xbf746517	-0.9546675
31	0xbed1902a	-0.409303
32	0x3ebc89b2	0.36823803
33	0xbf86931f	-1.0513648
34	0xbf24a71e	-0.643175
35	0xbeb195c2	-0.3468457
36	0x3e70cb66	0.2351509
37	0xbeb8231f	-0.35964295
38	0xbe32e3d9	-0.1746973
39	0xbf680a23	-0.9064047
40	0xbfcc917f	-1.5981902
41	0xbe6cba61	-0.23117973
42	0xbf4e488f	-0.80579466
43	0xc0030f0a	-2.047793
44	0xbf9c27b2	-1.2199614
45	0xbf82f358	-1.0230513
46	0xbf35f98d	-0.7108391
47	0xbf938788	-1.1525736
48	0xbe7e5fdc	-0.24841255
49	0xbf5ccfd4	-0.8625462
50	0xbf2994d6	-0.6624273
51	0xbfe5bf0e	-1.794893
52	0xbf349e42	-0.7055398
53	0xbf7f041f	-0.99615663
54	0xbf927f01	-1.1445009
55	0xbf4c1072	-0.79712594
56	0xbf472e56	-0.7780508
57	0xbf857dfa	-1.042907
58	0xbf1f6650	-0.6226549
59	0xbf231ec2	-0.6371881
60	0xbf42e0bd	-0.76124173
61	0xbf3ddc1e	-0.74164
62	0xbf55f661	-0.8357907
63	0xbe8178e8	-0.25287557
64	0xbdaebf2f	-0.08532559
65	0xbf82f8fc	-1.0232234
66	0xbe814570	-0.2524829
67	0xbf442580	-0.7661972
68	0xbfc1dacb	-1.5144895
69	0xbf381add	-0.7191599
70	0x3dbcbc9b	0.09215661
71	0xbf6fd4d9	-0.93684155
72	0xbf7574c4	-0.95881295
73	0xbf66156b	-0.8987643
74	0x3e5909b8	0.21195114
75	0xbf670953	-0.902486
76	0xbf415890	-0.7552576
77	0xbf6bf45c	-0.9216974
78	0x3faa0c90	1.3285084
79	0xbf0c1714	-0.54722714
80	0xbf987fc4	-1.1913991
81	0xbf785ace	-0.97013557
82	0xbf4af9de	-0.7928752
83	0xbf4f223a	-0.809116
84	0x3e1631a5	0.14667375
85	0xbf9e5c51	-1.2371923
86	0xbf6a6b7f	-0.91570276
87	0xbe8d9e5f	-0.2765989
88	0xbf0d2890	-0.5514002
89	0xbf836117	-1.0264004
90	0xbf3ed7e1	-0.74548155
91	0xbf479cda	-0.7797371
92	0xbf18a990	-0.5963373
93	0xbf42add9	-0.7604652
94	0xbf7040f9	-0.9384914
95	0xbf8c00b6	-1.0937717
96	0xbfa4209f	-1.2822455
97	0xbf1bb4b3	-0.608226
98	0xbf296356	-0.661672
99	0xbe8b2576	-0.27177018
100	0xbf764b5d	-0.96208745
101	0xbf6979dd	-0.91201574
102	0xbf4c4b3f	-0.79802316
103	0xbf7f07c7	-0.9962124
104	0xbf1869c5	-0.5953639
105	0xbf1de55c	-0.616781
106	0xbf86e7b3	-1.0539459
107	0xbf1fd9c1	-0.6244164
108	0xbf8e67e7	-1.1125458
109	0x3e924bfa	0.2857359
110	0xbf5fd5a3	-0.8743536
111	0xbf48765a	-0.7830559
112	0xbf708f36	-0.9396852
113	0xbf3f434d	-0.7471207
114	0xbf9e13ca	-1.2349789
115	0xbf4750b0	-0.77857494
116	0x3da72687	0.081616454
117	0xbf5d5a8f	-0.86466306
118	0xbea9b1d9	-0.331435
119	0xbf12e270	-0.57376766
120	0xbf8139b5	-1.0095736
121	0xbf961d96	-1.1727779
122	0xbf58784e	-0.8455857
123	0xbf460924	-0.773577
124	0xbf4ef3c9	-0.80840737
125	0xbf0f0f1c	-0.5588243
126	0xbf3f3567	-0.7469086
127	0x3e418fc8	0.18902504
128	0xbf377520	-0.71663094
129	0xbf34642b	-0.70465344
130	0xbf37fe00	-0.7187195
131	0xbf693c3a	-0.91107523
132	0xbf552587	-0.8326039
133	0xbfa0c3bb	-1.2559732
134	0xbf77a559	-0.96736676
135	0xbf10b37e	-0.56523883
136	0xbf3731a8	-0.71560144
137	0xbf470fd6	-0.7775854
138	0xbf879a87	-1.0594033
139	0x3d199c72	0.037502714
140	0xbf31d7f0	-0.6947012
141	0xbf489775	-0.78356105
142	0xbf35043d	-0.7070959
143	0xbed54bfc	-0.41659534
144	0xbf4d8d68	-0.80293894
145	0xbf9a200e	-1.2041032
146	0xbf5dcc36	-0.86639726
147	0xbefd13bd	-0.49429122
148	0xbf182f4a	-0.5944716
149	0xbf93a6aa	-1.1535237
150	0xbf59d4bf	-0.8509025
151	0xbf9b9581	-1.2155
152	0xbf4ebc1c	-0.8075578
153	0xbf50be1c	-0.81540084
154	0xbf7fec10	-0.9996958
155	0xbf2526ed	-0.6451252
156	0xbf1f9a11	-0.6234446
157	0xbf4877fe	-0.78308094
158	0xbf4c1373	-0.7971718
159	0xbe75de9d	-0.24010701
160	0xbf948590	-1.160326
161	0xbf712e18	-0.9421096
162	0xbf06c107	-0.52638286
163	0xbf74120e	-0.9534005
164	0xbf553b2e	-0.83293426
165	0x3fcd43f4	1.6036363
166	0xbf455970	-0.77089596
167	0xbf16503e	-0.5871619
168	0x3f681637	0.906589
169	0xbf3a0650	-0.7266588
170	0xbf4cf737	-0.8006472
171	0xbf0bf91c	-0.54676986
172	0xbf5c2c7b	-0.8600537
173	0xbf49e327	-0.7886223
174	0x3f3050dc	0.6887338
175	0xbf1433b7	-0.5789141
176	0xbf9fc8f5	-1.2483202
177	0xbf87ebce	-1.0618837
178	0xbf5720f0	-0.84034634
179	0x3e3c34c9	0.18379511
180	0xbee7f266	-0.45302123
181	0xbf828d86	-1.019944
182	0xbf90f3f8	-1.1324453
183	0xbf85d257	-1.0454816
184	0xbf53a442	-0.8267251
185	0xbea618a7	-0.32440683
186	0xbf05f982	-0.52333844
187	0xbfb8e313	-1.4444298
188	0xbf7e9651	-0.99448115
189	0xbf489fa5	-0.783686
190	0xbf60438b	-0.8760306
191	0xbf1b4ef6	-0.6066736
192	0xbf18cae5	-0.5968459
193	0x3dbd8c86	0.09255318
194	0xbf396fb2	-0.7243606
195	0xbf3721f6	-0.71536195
196	0xbf524918	-0.8214278
197	0xbf63102a	-0.8869654
198	0xbf699d63	-0.9125578
199	0xbf655cdf	-0.89594835
200	0xbf21b946	-0.6317333
201	0x3ea991e8	0.3311913
202	0xbf23c8ae	-0.6397809
203	0x3bba45cc	0.00568459
204	0xbf0ed650	-0.55795765
205	0xbe4fb623	-0.20284323
206	0xbf812bc1	-1.0091478
207	0xbf299ea8	-0.66257715
208	0xbf629047	-0.885014
209	0xbf244174	-0.64162374
210	0xbf43a73b	-0.7642705
211	0xbf18e23f	-0.59720224
212	0xbf3a6dec	-0.7282398
213	0xbf06ce57	-0.526586
214	0xbf56ccf4	-0.83906484
215	0xbf5225a0	-0.8208866
216	0xbf600433	-0.8750641
217	0xbf4cb2d5	-0.79960376
218	0xbe2534a0	-0.16133356
219	0xbf42997e	-0.7601546
220	0xbfb367b8	-1.4016027
221	0xbf4ee4ef	-0.80818075
222	0xbf0895a7	-0.5335335
223	0xbf8c1cc5	-1.094628
224	0xbf3d63d9	-0.7398048
225	0xbf9c1234	-1.2193055
226	0xbf786621	-0.97030836
227	0xbf179115	-0.5920575
228	0xbf7712d1	-0.96513087
229	0xbf4164f3	-0.7554466
230	0x3f18a059	0.5961967
231	0xbea3248d	-0.31863824
232	0xbebd1ce6	-0.3693611
233	0xbeec3852	-0.4613672
234	0xbee507b4	-0.4473244
235	0xbf9e8a46	-1.2385948
236	0xbf4fced2	-0.8117496
237	0xbf59d5be	-0.8509177
238	0xbf20cfb8	-0.62816954
239	0xbf35f782	-0.7108079
240	0xbfb9add2	-1.4506171
241	0xbf413ba5	-0.75481635
242	0xbf26792f	-0.6502866
243	0xbe973a37	-0.29536602
244	0xbf3f95e7	-0.7483811
245	0xbeab0fb6	-0.33410424
246	0xbfa08756	-1.2541301
247	0xbf204144	-0.6259959
248	0xbfacef80	-1.351059
249	0xbf1421b4	-0.57863927
250	0xbf0a00d0	-0.5390749
251	0xbf165d7a	-0.58736384
252	0xbee1a0c3	-0.44067964
253	0xbf91664b	-1.1359342
254	0xbece00be	-0.4023494
255	0xbe177979	-0.14792432

weight f4 [256, 512]
0	0xbd0d2d57	-0.034467068
1	0xbd3a255a	-0.045445777
2	0xbccaef14	-0.024772204
3	0xbc853df8	-0.0162649
4	0x3d26b432	0.04069919
5	0x3cf74392	0.030183587
6	0xbb256400	-0.0025236607
7	0xbd3a9cdd	-0.045559753
8	0xbc4acd28	-0.012378015
9	0xbd2cfb5a	-0.042231895
10	0x3d25fd03	0.040524494
11	0xbc42d1a6	-0.011890804
12	0x3d24272f	0.04007643
13	0xbdc0fc4f	-0.09423124
14	0x3d300da9	0.042981777
15	0xbd126208	-0.03573802
16	0xbbe51eb9	-0.006992188
17	0x3b302be6	0.0026881634
18	0x3c465cc7	0.012107081
19	0x3c0490b5	0.0080911415
20	0xbd580111	-0.052735392
21	0xbd3497a4	-0.04408993
22	0xbd46eb80	-0.048564434
23	0xbc975063	-0.018470949
24	0xbbc5c4af	-0.0060354094
25	0xbcfadb58	-0.03062217
26	0xbcdc6c93	-0.026907241
27	0xbd2478ff	-0.040154453
28	0xbc24e35b	-0.010063971
29	0x3ca3c7b6	0.01999269
30	0xbc661eb4	-0.014045406
31	0xbcc04d5b	-0.023474386
32	0xbdd31009	-0.10305793
33	0x3cb81841	0.022472503
34	0xba87a4f4	-0.0010348842
35	0x3ca457f5	0.020061472
36	0xbb87512a	-0.0041295486
37	0xbcc7f283	-0.02440763
38	0xbc972d4e	-0.01845422
39	0x3b5cfd16	0.0033720187
40	0xbd34ef49	-0.044173513
41	0x3bcac8a6	0.00618847
42	0xbe0580ad	-0.13037367
43	0xbccbe381	-0.024888756
44	0xbcef899d	-0.029240424
45	0xbd072e60	-0.03300321
46	0xbd0b6516	-0.03403195
47	0xbd1c6aff	-0.038187977
48	0xbc41db9d	-0.011832145
49	0xbd74f220	-0.05980122
50	0xbb364b45	-0.002781586
51	0xbdcaf7d5	-0.099105515
52	0xbd2985b2	-0.041387267
53	0x3d00751f	0.031361695
54	0x3bf65155	0.0075170198
55	0xbd45cacf	-0.048289116
56	0xbd071ff9	-0.032989476
57	0x3c867d59	0.016417192
58	0xbd156068	-0.036468893
59	0xbcdd2d1e	-0.026999053
60	0xbc99d596	-0.018778604
61	0xbc8b013f	-0.016968368
62	0xbb5b3371	-0.003344741
63	0xbd3f3c88	-0.046688586
64	0x3d2f429b	0.04278813
65	0x3bbc370c	0.005743867
66	0xbd88d029	-0.066803284
67	0xbc914470	-0.017732829
68	0x3d031d34	0.032010272
69	0x3cbbb492	0.022913251
70	0xbd74cfff	-0.059768673
71	0x3ac23350	0.0014816318
72	0x3d85a880	0.065262794
73	0x3d91c7e9	0.07118208
74	0xbd6cebbc	-0.057842
75	0xbd74af24	-0.05973734
76	0xbca03ccc	-0.01956024
77	0x3d3adf35	0.045623023
78	0xbdfd50bc	-0.123689145
79	0xbbad3fee	-0.005287162
80	0xbc9877cf	-0.018611817
81	0xbd097918	-0.03356275
82	0xbc51bd01	-0.01280141
83	0x3bc8bea6	0.0061262427
84	0x3ce74565	0.028231332
85	0xbccb8e4b	-0.024848124
86	0xbc34ef52	-0.0110433865
87	0x3cd19fef	0.025588958
88	0x3b7ee720	0.0038895085
89	0xbc7f1ebe	-0.015571294
90	0xbc70d814	-0.014699955
91	0x3ca07b4a	0.019590039
92	0x3c4f525c	0.012653913
93	0xbdd6d204	-0.10489276
94	0x3d3a3425	0.045459885
95	0xbc52795c	-0.012846317
96	0xbc7df576	-0.015500417
97	0x3c85b28b	0.016320487
98	0x3cfe0dfb	0.031012526
99	0x3ca0cbd5	0.019628445
100	0xbd4d981b	-0.050193887
101	0x3ca73a4e	0.020413544
102	0x3c9bdb3b	0.019025436
103	0xbcc1a051	-0.023636015
104	0x3b22add7	0.0024822855
105	0x3aefdacf	0.0018299463
106	0x3ceed03c	0.029152028
107	0xbc52e057	-0.01287087
108	0xbd4dc4d2	-0.05023653
109	0xbc4b49ae	-0.012407703
110	0xbc9265ef	-0.017870871
111	0xbceabd56	-0.028654736
112	0x3c50e7d8	0.012750588
113	0xbd0e09fb	-0.034677487
114	0xbce1181d	-0.027477318
115	0xbaf9cb05	-0.0019057697
116	0xbd938dbf	-0.0720477
117	0x3d05a596	0.03262862
118	0xbd33f65f	-0.04393613
119	0x3cac898d	0.021061683
120	0xbd5bf87a	-0.053703763
121	0xbd088684	-0.03333141
122	0xbd5096f6	-0.050925218
123	0x3cd21c8e	0.025648382
124	0xbd473760	-0.048636794
125	0xbd60b08c	-0.05485587
126	0xbe1ffcfd	-0.15623851
127	0x3d9d2b20	0.07674241
128	0xbd051f9b	-0.032500844
129	0xbdeebdb8	-0.1165728
130	0x3c861d53	0.016371405
131	0x3ce94f55	0.028480211
132	0xbcdc556d	-0.026896203
133	0x3c910df3	0.017706847
134	0x38820a4f	6.200803e-05
135	0xbd1efd63	-0.038815867
136	0x3c131038	0.008976035
137	0xbcae2970	-0.021259993
138	0x3b1cd570	0.002393093
139	0xbd6145cd	-0.054998208
140	0x3cc55fbe	0.024093505
141	0xbc941d32	-0.018080328
142	0xbd3c91bd	-0.046037424
143	0xbc882a1e	-0.016621646
144	0xbd2b2fb0	-0.041793525
145	0xb965d720	-0.00021919282
146	0x3cd4966e	0.025950637
147	0xbc962e76	-0.018332701
148	0x3c4645ed	0.012101633
149	0xbda92ed6	-0.08260886
150	0x3d01e705	0.031714458
151	0xbda91beb	-0.08257278
152	0xbd6ee08c	-0.058319613
153	0xbce00c43	-0.027349597
154	0xbcce9f07	-0.025222315
155	0xbd7c298c	-0.06156306
156	0xbcaa1afe	-0.020764824
157	0xbc109851	-0.008825378
158	0xbd3249a0	-0.043527246
159	0xbd859394	-0.06522289
160	0x3ca7ca9e	0.020482358
161	0x3c2b78c9	0.010465809
162	0xbc6f18e9	-0.014593341
163	0xba41068f	-0.0007363343
164	0xbc781e3f	-0.01514393
165	0xbe03eded	-0.1288373
166	0x39acf5ad	0.0003298944
167	0xbcd7b0f8	-0.026329502
168	0xbe003088	-0.12518513
169	0xbc474583	-0.012162569
170	0x3a65a3aa	0.00087600446
171	0x3c5f597d	0.0136321755
172	0xbde66ff3	-0.11251821
173	0x3bff929a	0.0077994587
174	0xbd01878a	-0.0316234
175	0xbd0a030f	-0.033694323
176	0x3cd352e3	0.02579636
177	0x3d31b4a2	0.043385155
178	0xbc8d41ce	-0.017243292
179	0xbd26075d	-0.040534366
180	0xbad1fbf0	-0.0016020518
181	0xbc7c4735	-0.015397836
182	0xbd013be4	-0.031551257
183	0xbd1a634c	-0.037692353
184	0xbcd01b7b	-0.025403729
185	0x3b4581fd	0.0030137294
186	0xbdfd0a5d	-0.12355492
187	0xbd3aea5a	-0.04563365
188	0xbc33efbe	-0.010982452
189	0xbd14dffd	-0.036346424
190	0x3cd1b9a2	0.025601212
191	0xbc09e870	-0.008417234
192	0xbc148e29	-0.009067097
193	0xbda817f4	-0.08207694
194	0xbca9fdcb	-0.0207509
195	0xbd3dcb4f	-0.04633647
196	0x3acf29dc	0.0015805322
197	0xbcde0d14	-0.027105846
198	0xbd0094ea	-0.031392016
199	0xbab6a063	-0.0013933297
200	0x3d5b9345	0.053607244
201	0xbda9249c	-0.08258936
202	0xbc4ccb5c	-0.0124996565
203	0xbdcd6895	-0.10029713
204	0xbd2e0351	-0.04248363
205	0xbc84b129	-0.016197758
206	0xbc8cb4e3	-0.017176097
207	0x3d3317d1	0.043723885
208	0xbd520a2d	-0.051279236
209	0x3b26c9d1	0.0025449882
210	0xba64ee4e	-0.000873302
211	0xbd63aff7	-0.055587735
212	0x3c4a7fd6	0.01235958
213	0x3d574012	0.052551337
214	0xbc56a755	-0.0131014185
215	0x3ce6d405	0.02817727
216	0xbd6dd8d7	-0.058068123
217	0xbcea5803	-0.02860642
218	0xbdda68e2	-0.10664536
219	0x3d3a5b36	0.04549714
220	0xbd13657a	-0.035985447
221	0xbc24c146	-0.010055846
222	0xbd216eff	-0.039412495
223	0xbd2dedd1	-0.042463128
224	0x3c95ffcb	0.018310448
225	0xbc967411	-0.018365892
226	0xbd17de52	-0.037077256
227	0xbd861f86	-0.06548981
228	0xbce6df20	-0.028182566
229	0x3bb3607e	0.0054741492
230	0xbd531a20	-0.051538587
231	0xbb9529f6	-0.0045521213
232	0xbd02f5c6	-0.03197267
233	0xbdc19649	-0.09452493
234	0xbd83df01	-0.06439019
235	0xbd313aef	-0.043269094
236	0x3d257f37	0.040404525
237	0x3d053bf1	0.032527868
238	0x3aa92b31	0.0012906549
239	0xbcbdf85d	-0.023189718
240	0x3d5910b3	0.05299444
241	0xbc187681	-0.009305597
242	0xbe0a9372	-0.13532808
243	0xbd52a8c0	-0.051430464
244	0xba9acc4b	-0.0011810152
245	0xbd680c4f	-0.056652363
246	0x3d4e14d1	0.05031282
247	0xbd40a36f	-0.047030862
248	0xbd0d1bd3	-0.034450363
249	0xbdd3fb79	-0.10350699
250	0xbd421a76	-0.047388516
251	0xbcf76e5c	-0.03020399
252	0xbc30dba7	-0.010794557
253	0xbde5b034	-0.11215249
254	0xbc8ff3c9	-0.0175723
255	0xbdea4218	-0.11438388

bias f4 [256]
0	0xbe21361e	-0.157433
1	0xbe66df7c	-0.2254619
2	0xbe7ddb42	-0.24790671
3	0x3c8fc4a1	0.017549815
4	0xbdc104cf	-0.09424745
5	0xbe5bfe0c	-0.2148363
6	0xbf263605	-0.6492618
7	0xbe5acdd6	-0.21367583
8	0xbd6eccc6	-0.058300756
9	0xbfd74781	-1.6818696
10	0xbdc2951c	-0.095010966
11	0xbcff994d	-0.03120103
12	0xbfe8a7a3	-1.8176159
13	0xc089b331	-4.303124
14	0xbeeaf708	-0.45891595
15	0xbe182819	-0.14859046
16	0xbd941ceb	-0.07232078
17	0xbe79ca34	-0.2439354
18	0xbe2c4a8d	-0.16825314
19	0xbf2a0ba5	-0.6642402
20	0xbda62442	-0.081123844
21	0xbe5eb886	-0.21750078
22	0xbe0a0dff	-0.13481902
23	0xbfc15363	-1.5103573
24	0xbd839e0d	-0.0642663
25	0xc0022628	-2.0335789
26	0xbe0f8007	-0.14013682
27	0xbe61f76d	-0.22067042
28	0xbe37aa5f	-0.17936085
29	0xbe3f508a	-0.18683067
30	0xbea1f3ea	-0.31631404
31	0xbe0732f1	-0.13203026
32	0xbe1a102b	-0.1504523
33	0xbd964106	-0.07336621
34	0xbe498f22	-0.19683507
35	0xbd3385b5	-0.043828685
36	0xbe50a704	-0.20376211
37	0xbe2629e2	-0.16226915
38	0xbd7b665c	-0.061376914
39	0xbe09eef4	-0.1347006
40	0xbdfb4593	-0.122691296
41	0xbeb8a149	-0.3606055
42	0xbf399fd7	-0.7250952
43	0xbe38a841	-0.18032934
44	0xbd13ce9d	-0.036085714
45	0xbe6a03ca	-0.22853008
46	0xbe31ea9e	-0.17374656
47	0xbc214a68	-0.0098444
48	0xbe719511	-0.2359202
49	0xbf9b1a26	-1.2117355
50	0xbdd534fb	-0.10410496
51	0xbe083e38	-0.13304985
52	0xbe48c6bb	-0.1960706
53	0xbde8fdcc	-0.11376533
54	0xbea062ab	-0.31325278
55	0xbdf00020	-0.11718774
56	0xbdc01371	-0.09378708
57	0xbe039d70	-0.12853026
58	0xbdeced11	-0.11568654
59	0xbd27c42b	-0.040958565
60	0xbff59c95	-1.918841
61	0xbebce860	-0.36896038
62	0xbe7f3299	-0.24921645
63	0xbeae3268	-0.34022832
64	0xbe20dd20	-0.15709352
65	0xbdd5b73f	-0.10435342
66	0x3fdca552	1.7237952
67	0xbe0f7ad7	-0.14011703
68	0xbdd4ac53	-0.10384431
69	0xbe14c1bc	-0.14527029
70	0xbe0f8072	-0.14013842
71	0xbf1ad7ca	-0.6048552
72	0xbe230afe	-0.15922162
73	0xbe4bdec0	-0.19909191
74	0xbe4e3d6f	-0.20140623
75	0xbe4e181a	-0.20126382
76	0xbe58500f	-0.2112429
77	0xbec43194	-0.38319075
78	0xbe2b1121	-0.16705753
79	0xbe1a9aef	-0.15098165
80	0xbeff6dde	-0.4988851
81	0xbdb177ce	-0.08665429
82	0xbe4fa8b7	-0.20279203
83	0xbe77d27a	-0.24201384
84	0xbe0102bd	-0.12598701
85	0xbda63abf	-0.08116674
86	0xbe3a5475	-0.1819628
87	0xbe03a1a5	-0.12854631
88	0xbe90dc18	-0.28292918
89	0xbe51747f	-0.20454596
90	0xbe531880	-0.20614815
91	0xbe0eaf90	-0.1393416
92	0xbe8814db	-0.2657841
93	0xc02f3759	-2.7377532
94	0xbd12d3b0	-0.035846412
95	0xbe4635fb	-0.1935653
96	0x3fc604a0	1.5470161
97	0xbdb090c3	-0.08621361
98	0xbe8ffcc6	-0.28122538
99	0xbcc74a9d	-0.02432757
100	0xbec8e04d	-0.39233628
101	0xbde0d4bb	-0.10978075
102	0xbe19b1e7	-0.1500927
103	0xbe37742f	-0.17915414
104	0xbde157ed	-0.11003099
105	0xbe817502	-0.25284582
106	0xbe00767b	-0.12545197
107	0xbf1ef9b8	-0.6209979
108	0xbf52d6bb	-0.823589
109	0xbd9cb661	-0.076519735
110	0xbe372c6e	-0.17888042
111	0xbe85cae8	-0.26131368
112	0xbdf1ce2e	-0.11806904
113	0xbe1f7e24	-0.15575463
114	0xbe7a4258	-0.2443937
115	0xbf8097ce	-1.0046327
116	0xbe356f66	-0.17718276
117	0xbe162100	-0.14661026
118	0xbe6b50fc	-0.22980112
119	0xbe50637d	-0.20350452
120	0xbdb78eb1	-0.08962763
121	0xbd9f4cd2	-0.07778324
122	0xbed85ad2	-0.4225679
123	0xbed9a538	-0.42508864
124	0xbe509f6d	-0.20373316
125	0xbddc00da	-0.1074235
126	0xbe41ba28	-0.18918669
127	0x3ec31d95	0.38108507
128	0xbe0476ee	-0.12935993
129	0xbeb9d43a	-0.3629473
130	0xbdc06f71	-0.09396256
131	0xbe083a66	-0.13303527
132	0xbc662e75	-0.014049162
133	0xbee36a76	-0.4441716
134	0xbeb07c48	-0.3446982
135	0xbea5a688	-0.32353616
136	0xbe92f763	-0.28704366
137	0xbe21e019	-0.15808143
138	0xbf150ba1	-0.5822087
139	0xbea11687	-0.314625
140	0xc019e204	-2.40442
141	0xbe507dec	-0.20360535
142	0xbe4aaa4f	-0.1979153
143	0xc0314fd9	-2.7704985
144	0xbfd451cb	-1.6587461
145	0xbe5ae557	-0.21376549
146	0xbeea89cb	-0.45808253
147	0xbe5898de	-0.21152064
148	0xbf00d9ea	-0.5033251
149	0xbe1d65a9	-0.15370812
150	0xbdd87eab	-0.10571035
151	0xbe50450c	-0.2033884
152	0xbeefeaa2	-0.46858698
153	0xc02d3bac	-2.706767
154	0xbe712062	-0.2354751
155	0xbdc95635	-0.09830896
156	0xbee1447a	-0.43997556
157	0xbe23df2e	-0.16003105
158	0xbe254ae7	-0.16141854
159	0xbdf91ad6	-0.12163322
160	0xbdd2a7fa	-0.10285945
161	0xbdd10015	-0.10205094
162	0xbdd7cc46	-0.10537009
163	0xbeb10cb8	-0.34580016
164	0xbe46d3dd	-0.19416757
165	0xbe0415c6	-0.12898931
166	0xbe96ead8	-0.29476047
167	0xbdde9125	-0.10867528
168	0xbd6dd0f8	-0.058060616
169	0xbd67643c	-0.056492075
170	0xbd9f2136	-0.07770006
171	0xbe41b865	-0.18917997
172	0xbef008bd	-0.46881667
173	0xbd055926	-0.03255572
174	0xbe826bb7	-0.25472805
175	0xbe800771	-0.25005677
176	0xbd9dd7d1	-0.07707179
177	0xbe64a9fe	-0.22330472
178	0xbe8b2196	-0.27174062
179	0xbf250fb3	-0.6447708
180	0xbdb13864	-0.08653334
181	0xbd9ab47a	-0.075539544
182	0xbea12aa3	-0.31477842
183	0xbdd76cfb	-0.10518833
184	0xbd0cb44f	-0.034351643
185	0xbec3624d	-0.38160935
186	0xbde50913	-0.111833714
187	0xbd4d6310	-0.0501433
188	0xbdce091e	-0.10060333
189	0xbe0825ec	-0.13295716
190	0xbd747649	-0.059683118
191	0xbe951c6c	-0.29123247
192	0xbe3d2433	-0.1847084
193	0xbe169346	-0.14704618
194	0xbd844d58	-0.06460065
195	0xbdac74db	-0.08420726
196	0xbdf7c640	-0.1209836
197	0x4040219a	3.0020509
198	0xbe88d389	-0.2672389
199	0xbce6d069	-0.02817555
200	0xbdb1834a	-0.086676195
201	0xbe9d9e0c	-0.30784643
202	0xbe0897fd	-0.13339229
203	0xbdece57c	-0.11567208
204	0xbd927c9b	-0.07152673
205	0xbda8b7ef	-0.082382075
206	0xbe23f92c	-0.1601302
207	0xbe9e4d8a	-0.30918533
208	0xbec1dd91	-0.37864354
209	0xbdc2e8a9	-0.09517033
210	0xbe5154d1	-0.20442511
211	0xbe853d95	-0.26023546
212	0xbd83a907	-0.06428724
213	0xbd8a2cb6	-0.06746809
214	0xbe953d19	-0.29148176
215	0x3fc80544	1.5626607
216	0xbecc18c8	-0.39862657
217	0xbe501939	-0.20322122
218	0xbf079fc6	-0.5297817
219	0xbfee9fe3	-1.8642544
220	0xbde28c9f	-0.110619776
221	0xc093c9d5	-4.6183877
222	0xbe2512c0	-0.16120434
223	0x3f28536c	0.6575229
224	0xbe2e6d59	-0.170339
225	0xbeb6cd3c	-0.35703456
226	0xbedc7c78	-0.43063712
227	0xbd928ac5	-0.071553744
228	0xbe826ca3	-0.25473508
229	0xbe31bed5	-0.17357953
230	0xbe2043bd	-0.1565084
231	0xbeb5e12e	-0.3552336
232	0xbe100bcc	-0.14067
233	0xbe756649	-0.239648
234	0xbe3a1529	-0.18172134
235	0xbea39e1a	-0.3195656
236	0xbe4438b4	-0.19162256
237	0xbdedaebc	-0.116055936
238	0xbe4fd82c	-0.20297307
239	0xbe7aa343	-0.24476342
240	0xbe8071ae	-0.2508673
241	0xbdef275e	-0.116774306
242	0xbe5fee09	-0.21868147
243	0xbc69374d	-0.014234376
244	0xbdcd855a	-0.100352004
245	0xbe9d2160	-0.30689526
246	0x3f0aacb9	0.54169804
247	0xbde85afd	-0.1134548
248	0xbdf12aa2	-0.1177571
249	0xbd61390d	-0.05498605
250	0xbd8c43c6	-0.06848864
251	0xbe073ad2	-0.13206032
252	0xbedacecd	-0.427359
253	0xbf191f7f	-0.59813684
254	0xbed259ff	-0.41084287
255	0xbfa1f123	-1.2651714

weight f4 [128, 256]
0	0x3caa6fa8	0.020805195
1	0xbaac60c0	-0.0013151392
2	0xbc7c3e00	-0.015395641
3	0xbd4fb46a	-0.050709166
4	0x3c6bd000	0.014392853
5	0x3b5dec20	0.0033862665
6	0xbdf55c99	-0.11980552
7	0x3a92cec0	0.0011200532
8	0xbd0d7e9a	-0.034544565
9	0xbe16933e	-0.14704606
10	0xbd2b65cc	-0.041845128
11	0x3c7b8788	0.015352137
12	0xbd05b766	-0.032645606
13	0xbbc6949d	-0.0060601966
14	0x3cba97f8	0.022777542
15	0x3c59d900	0.013296366
16	0xbd2095a8	-0.039205223
17	0xbd76f2ce	-0.06029015
18	0x3d4c6c56	0.049908005
19	0xbd3e9ae2	-0.046534427
20	0x3d332424	0.04373564
21	0xbd2257c0	-0.039634466
22	0xbce55c58	-0.027998134
23	0xbd3650e2	-0.04451073
24	0xbca2d694	-0.01987771
25	0xbd744e00	-0.0596447
26	0xbd272530	-0.04080695
27	0x3dbdeaf2	0.09273328
28	0xbd5622e3	-0.052279364
29	0xbd5baf56	-0.05363401
30	0xbd00b700	-0.031424522
31	0xbced6908	-0.028980747
32	0xbc60e398	-0.013726138
33	0xbd2377d2	-0.03990919
34	0x3d53bef0	0.051695764
35	0xbccfb8a0	-0.02535659
36	0xbd61d308	-0.055132896
37	0xbc9683c8	-0.018373385
38	0xbd20a282	-0.03921748
39	0xbd77bcc4	-0.060482755
40	0x3c7ac428	0.015305556
41	0xbd1949fe	-0.03742408
42	0xbde6ab54	-0.11263147
43	0x3d2e3e84	0.04254009
44	0xbc3055c0	-0.010762632
45	0xbcddd780	-0.027080297
46	0x3c79b0b8	0.015239887
47	0xbd74083c	-0.059578165
48	0xbce8ef38	-0.02843438
49	0xbd8b17b5	-0.06791631
50	0x3d3a7cd2	0.045529194
51	0x3c69d970	0.014273033
52	0xbd72d998	-0.059289545
53	0xbd5e451e	-0.054265134
54	0xbd777cb6	-0.060421668
55	0xbc061f98	-0.0081862435
56	0xbd470e98	-0.048597902
57	0xbc7434c0	-0.014905155
58	0xbcb2771c	-0.021785311
59	0x3cf78f28	0.03021963
60	0xbd889f28	-0.06670982
61	0x3c3120f0	0.010811076
62	0xbd3fb660	-0.046804786
63	0x3ca1b9b0	0.019741863
64	0x3cddf508	0.027094379
65	0x3c9eeb90	0.019399434
66	0xbd71a02f	-0.058990654
67	0x3ccdb8e4	0.025112577
68	0x3ba7b6b0	0.0051182136
69	0x3b513c80	0.003192693
70	0xbd74e19c	-0.05978547
71	0x3d252cf2	0.040326066
72	0xbc87f7c4	-0.016597636
73	0x3c93c528	0.018038347
74	0x3d3b55a2	0.045735963
75	0x3c807d80	0.015684843
76	0xbd5e402c	-0.054260418
77	0x3d079e02	0.033109672
78	0xbd6089a8	-0.05481878
79	0xbceed77c	-0.029155485
80	0xbdbc54dd	-0.09195874
81	0xbd7a5bfe	-0.061122887
82	0xbd500930	-0.050790012
83	0x3d74efa2	0.059798844
84	0xbd046878	-0.03232619
85	0x3cefd03c	0.029274099
86	0x3d145d44	0.036221758
87	0xbd56f63e	-0.05248093
88	0x3cf3ccf4	0.029760815
89	0xbc8b0250	-0.016968876
90	0xbcb796d4	-0.022410788
91	0xbd51ca80	-0.05121851
92	0x3d0c7b6a	0.034297384
93	0xbd8dbd19	-0.06920833
94	0x3d7d1e34	0.061796382
95	0x3cb94794	0.022617139
96	0xbdad3b3f	-0.08458566
97	0xbc6dc500	-0.0145123005
98	0x3d42fcee	0.047604494
99	0x3b8424b0	0.004032694
100	0xbd053a36	-0.032526217
101	0xbd12bf56	-0.035827003
102	0xbacd4380	-0.0015660375
103	0x3d323980	0.043511868
104	0xba2e9980	-0.00066604465
105	0x3c11aec8	0.008891769
106	0xbd1d5d92	-0.038419314
107	0xbd40fac5	-0.047114152
108	0xbd1570f8	-0.03648469
109	0xbd41c726	-0.047309063
110	0x3e050c55	0.12992986
111	0x3c7d21c8	0.015449949
112	0xbd1d1ad6	-0.03835567
113	0x3bd92600	0.0066268444
114	0x3d2855c0	0.041097403
115	0xbd58c337	-0.052920546
116	0xbd3b2f9c	-0.0456997
117	0xbd00071a	-0.031256773
118	0xbd39f3c0	-0.045398474
119	0x3cdd2cec	0.02699896
120	0xbbbc7010	-0.0057506636
121	0x3c9ea24c	0.019364499
122	0xbd9e7cce	-0.07738648
123	0x3caa06e8	0.020755246
124	0x3b78b540	0.003794983
125	0xbaa03f40	-0.0012225881
126	0xbc05d8a0	-0.008169323
127	0xbe6bb6c0	-0.23018932
128	0x3d7b1aa8	0.06130472
129	0xbb62b240	-0.0034591109
130	0xbc3dc8a0	-0.011583477
131	0x3c36e750	0.011163548
132	0xbced34f8	-0.028955922
133	0xbcae6dac	-0.02129253
134	0xbdcf9c88	-0.10137278
135	0xbc09fa28	-0.008421458
136	0xbd414cc2	-0.047192343
137	0x3d401704	0.04689695
138	0xbd3fa094	-0.046784
139	0x3d476b56	0.048686348
140	0xbc391648	-0.011296816
141	0xbc73dca8	-0.0148841515
142	0xbcdd3ec8	-0.027007475
143	0xbe7601a3	-0.24024062
144	0xbe18c6b2	-0.14919546
145	0xbd2a8894	-0.041634157
146	0xbc678fa8	-0.014133371
147	0x3c550fa8	0.013004221
148	0xbc1a7ab8	-0.0094286725
149	0x3d33867a	0.04382942
150	0xbd660a08	-0.05616191
151	0x3bc754d0	0.0060831085
152	0xbd74d2cc	-0.059771344
153	0xbcf382de	-0.029725488
154	0x3d235aec	0.03988163
155	0xbc943b54	-0.018094696
156	0xbd6a4f06	-0.05720427
157	0x3cdb5654	0.026774563
158	0x3c094a18	0.008379482
159	0xbd294c6a	-0.04133264
160	0xbaa80000	-0.0012817383
161	0xbc038f88	-0.008029826
162	0x3cb08d98	0.021551892
163	0x3ce7c128	0.028290346
164	0xbd7dd982	-0.06197501
165	0xbd7fb96e	-0.0624327
166	0xbd46d59d	-0.04854356
167	0xbc84e158	-0.016220734
168	0x3d0b470e	0.03400331
169	0x3c9629f8	0.01833056
170	0x3d1c7c82	0.038204677
171	0x3cbae4a4	0.022814102
172	0x3d1bbaee	0.038020067
173	0xbc720c88	-0.0147734955
174	0xbd865f9e	-0.06561206
175	0x3e0783c7	0.13233863
176	0x3d4a219a	0.04934845
177	0x3d227fe0	0.039672732
178	0xbd46cba2	-0.048534043
179	0xbcdbe468	-0.026842311
180	0x3cc6156c	0.024180137
181	0xbbfb2bb0	-0.00766512
182	0xbdaa6b28	-0.0832122
183	0x3d7d2cda	0.061810352
184	0x3bc83b00	0.006110549
185	0xbd14d85c	-0.03633915
186	0x3be2d7a0	0.006922677
187	0xbd0efd4a	-0.034909524
188	0xbd29a14c	-0.04141359
189	0xbcf07660	-0.02935332
190	0xbd1c45bc	-0.03815244
191	0xbce5be14	-0.028044738
192	0xbd492d44	-0.049115434
193	0xbd7a2d3c	-0.061078295
194	0xbcfab07c	-0.030601732
195	0x3c26a608	0.010171421
196	0xbd2e3428	-0.04253021
197	0xbde39648	-0.11112648
198	0x3c398878	0.011324041
199	0x3cc0732c	0.023492418
200	0xbcc300f4	-0.023804165
201	0x3c97077c	0.018436186
202	0xbc038d50	-0.008029297
203	0x3d6c92f2	0.057757325
204	0xbcc525d8	-0.024065897
205	0x3c9fd4d0	0.019510657
206	0xbd594240	-0.053041697
207	0x3cae06d4	0.02124349
208	0xbc9e5270	-0.019326419
209	0x3d040b46	0.032237314
210	0xbd060812	-0.03272254
211	0xbd3cc038	-0.04608175
212	0xb839c000	-4.428625e-05
213	0x3c9dd3e4	0.019266076
214	0x3c4d1128	0.012516297
215	0xbcf9aafc	-0.03047704
216	0x3d43983e	0.04775261
217	0xbc5a34d8	-0.013318263
218	0xbcbb23bc	-0.022844188
219	0xbd841eab	-0.06451162
220	0x3cba2b40	0.022725701
221	0x3cc939ff	0.024563788
222	0x3cd66adc	0.026174001
223	0xbda4a995	-0.08040158
224	0xbd0c1f18	-0.03420934
225	0xbd0675a6	-0.032827042
226	0xbd3dce40	-0.046339273
227	0x3d44ecba	0.048077323
228	0xbd776ce6	-0.060406588
229	0x3ccf58b0	0.025310844
230	0xbd24cfee	-0.04023736
231	0xbc9c41fc	-0.019074433
232	0x3ca07af4	0.019589879
233	0xbd531b42	-0.051539667
234	0xbd4143be	-0.047183745
235	0x3cb11878	0.021618113
236	0xbd307bf4	-0.04308696
237	0x3d6ac8f8	0.057320565
238	0x3c5ba5e0	0.013406247
239	0xbd52e308	-0.051486045
240	0xbd230aa4	-0.03980507
241	0x3cf04d7c	0.029333822
242	0x3c327d58	0.010894142
243	0xbc038f38	-0.0080297515
244	0x3bce1f70	0.0062903687
245	0xbd0e3780	-0.034720898
246	0xbe095b8e	-0.13413832
247	0x3d6a377c	0.05718182
248	0x3cb36438	0.021898374
249	0xbc62c37a	-0.013840551
250	0x3cc77c34	0.024351217
251	0x3d20130e	0.039080672
252	0xbc7fea20	-0.015619785
253	0xbc6dc558	-0.014512382
254	0xbd9eda2c	-0.07756457
255	0xbd87f760	-0.0663898

bias f4 [128]
0	0xbf1257dc	-0.5716531
1	0xbf097656	-0.5369619
2	0xbf118dde	-0.568571
3	0xbf1b650c	-0.6070106
4	0xbf03670a	-0.513291
5	0xbeeb390a	-0.45941955
6	0xbece7af5	-0.40328184
7	0xbe3d2187	-0.18469821
8	0xbf3b1b00	-0.73088074
9	0xbf2a02d0	-0.6641054
10	0x3fc0600f	1.5029315
11	0xbef4345c	-0.47696197
12	0xbf44f63a	-0.7693821
13	0xbf09ba5f	-0.53800005
14	0xbf21e632	-0.63241875
15	0xbf0cac13	-0.54950064
16	0xbeebd6a5	-0.46062198
17	0xbf856dcf	-1.0424136
18	0xbf0616b3	-0.52378386
19	0xbf36ba55	-0.7137807
20	0xbe879f1c	-0.26488578
21	0xbea8895e	-0.32917303
22	0xbeb7b567	-0.35880587
23	0xbf7eb7a7	-0.9949898
24	0xbe8834b0	-0.26602697
25	0xbf12d708	-0.5735936
26	0xbeae6379	-0.34060267
27	0xbf254cae	-0.6457013
28	0xbeed7a93	-0.4638258
29	0xbf0c3e46	-0.5478252
30	0xbe62ca14	-0.22147399
31	0xbf17c245	-0.59280807
32	0xbf2377ef	-0.6385488
33	0xbf2a7d81	-0.66597754
34	0xbe9c8ab1	-0.30574563
35	0x3f92c108	1.1465158
36	0xbdb154e6	-0.08658771
37	0xbf37ff15	-0.718736
38	0xbe878673	-0.26469764
39	0xbeca618a	-0.3952754
40	0xbedb04fd	-0.42777243
41	0xbeeffdc5	-0.46873298
42	0xbe51e8cb	-0.2049896
43	0xbeac89cc	-0.3369888
44	0xbec497b8	-0.38397002
45	0xbeb11764	-0.34588158
46	0xbf19b26f	-0.60037893
47	0xbf53e71b	-0.82774514
48	0xbeed3293	-0.46327648
49	0xbee43e72	-0.44578892
50	0xbea548a0	-0.3228197
51	0x3ffcf8b7	1.9763402
52	0x3f919b96	1.1375606
53	0xbf1ed535	-0.6204408
54	0xbf30070e	-0.68760765
55	0xbf184132	-0.5947448
56	0xbf045e98	-0.5170684
57	0xbf11f097	-0.57007736
58	0xbe3e3f15	-0.18578751
59	0xbe8db236	-0.27675027
60	0xbe9f8271	-0.31154206
61	0xbedac06f	-0.4272494
62	0xbeaf6f82	-0.3426476
63	0xbf4b53d5	-0.7942479
64	0xbe372e38	-0.17888725
65	0xbedb5005	-0.42834488
66	0xbef63dea	-0.48094112
67	0xbe9e6dce	-0.3094315
68	0xbe8bec12	-0.27328545
69	0xbefe93db	-0.4972218
70	0xbebaf65b	-0.3651608
71	0xbe9553d4	-0.29165518
72	0xbe81e9ee	-0.25373787
73	0xbe65c316	-0.224377
74	0xbebb1ff2	-0.3654781
75	0xbeab970c	-0.33513677
76	0xbf1fd337	-0.62431663
77	0xbf56cbc3	-0.83904666
78	0xbe88a920	-0.26691532
79	0xbe9fe5b7	-0.31229946
80	0xbf6b2ff5	-0.9187005
81	0xbf183d91	-0.5946894
82	0xbf092726	-0.5357536
83	0xbf2ab7d0	-0.66686726
84	0xbe2fe071	-0.17175461
85	0xbf515084	-0.8176348
86	0xbf7bd1fa	-0.98367274
87	0xbef84921	-0.48493293
88	0xbf0c9b30	-0.549243
89	0xbe895e0f	-0.26829574
90	0xbee4789a	-0.44623262
91	0xbf1923a8	-0.5982003
92	0xbf2feb3b	-0.6871831
93	0xbf4473c3	-0.7673914
94	0xbdf3638b	-0.11884221
95	0xbea0b5c7	-0.31388685
96	0xbeda1934	-0.42597353
97	0xbf17ca09	-0.59292656
98	0xbebf6ae1	-0.3738623
99	0xbe1e19f9	-0.15439595
100	0xbf35d8a3	-0.71033686
101	0xbd7872b7	-0.060656276
102	0xbef484d3	-0.47757587
103	0xbedeac87	-0.43491003
104	0xbf090dd8	-0.5353675
105	0xbef89e69	-0.48558357
106	0xbeb80baa	-0.359464
107	0xbe74ca71	-0.2390535
108	0xbf060280	-0.52347565
109	0xbf1c9ffe	-0.6118163
110	0xbe9fd2bc	-0.31215465
111	0xbee8a592	-0.4543882
112	0xbf1bf3a7	-0.6091866
113	0xbef24192	-0.4731565
114	0xbf457b05	-0.7714084
115	0xbf20a794	-0.62755704
116	0xbed18a31	-0.40925744
117	0xbf0efd7d	-0.5585554
118	0xbea1ce14	-0.31602538
119	0xbf29dfcd	-0.6635712
120	0xbf6907eb	-0.91027707
121	0xbe7f22ac	-0.2491557
122	0xbef3c31e	-0.476098
123	0xbe90ae5d	-0.2825803
124	0xbec98f24	-0.3936702
125	0xbf164c4d	-0.58710176
126	0xbf41feb7	-0.7577929
127	0xbf555259	-0.8332878

weight f4 [60, 128]
0	0xbe974b31	-0.29549554
1	0xbdca1571	-0.09867371
2	0xbecbcb45	-0.3980352
3	0x3c310ba3	0.010805997
4	0x3cd17f3e	0.02557337
5	0x3e8039de	0.2504415
6	0xbb6a297b	-0.003573029
7	0xbe038e76	-0.12847313
8	0x3e097086	0.1342183
9	0x3e9ead9c	0.30991828
10	0x3d1eadd1	0.038739983
11	0xbe597699	-0.21236648
12	0x3da1f54e	0.07908116
13	0xbe08c74f	-0.1335728
14	0xbe4ef5fa	-0.2021102
15	0xbdcb8cb7	-0.099389486
16	0x3c3e0ddf	0.011599987
17	0x3e8eabee	0.27865547
18	0x3d5afe40	0.053465128
19	0xbe01c6ac	-0.12673444
20	0x3dbd80e5	0.092531
21	0xbc6e62c8	-0.0145499185
22	0x3cb08e93	0.02155236
23	0x3dee7434	0.11643258
24	0x3b99a490	0.004688807
25	0xbca859f1	-0.0205507
26	0x3db7caa7	0.089742
27	0xbe00a9a2	-0.1256471
28	0xbd8c81d3	-0.068606995
29	0xbe6ebf2f	-0.23315118
30	0xbd1bc9d9	-0.038034294
31	0x3e313a7c	0.17307466
32	0xbda5b6d2	-0.08091511
33	0xbe69154a	-0.22762027
34	0x3e1664b7	0.14686857
35	0x3c5b1db1	0.013373778
36	0xbe406254	-0.18787509
37	0x3dbbab6b	0.09163555
38	0xbf007b46	-0.501881
39	0xba1debd2	-0.00060242147
40	0x3dfc297c	0.123126
41	0x3bf19523	0.007372515
42	0xbd634ff0	-0.055496156
43	0xbeab75c0	-0.33488274
44	0xbc839893	-0.016063964
45	0xbe464758	-0.19363153
46	0xbd17e50b	-0.037083667
47	0x3e77cf13	0.24200086
48	0x3ec1dc59	0.37863424
49	0xbd443161	-0.047898654
50	0xbe3af20d	-0.18256398
51	0x3dd86ae5	0.105672635
52	0x3c9cc921	0.019138874
53	0xbec5daca	-0.38643485
54	0xbe4b3f4e	-0.19848368
55	0x3cd754e3	0.026285594
56	0xbe51da1e	-0.20493361
57	0xbdfe9f41	-0.12432719
58	0xbe5ef5c8	-0.21773446
59	0xbd151b3e	-0.036402933
60	0xbe5b6dfb	-0.21428673
61	0xbde270c1	-0.11056662
62	0xbdf27bfb	-0.11840054
63	0x3e44b2f0	0.19208884
64	0x3c977bf8	0.01849173
65	0x3e5e7a3b	0.21726315
66	0x3d8ae1b7	0.06781333
67	0xbed248a2	-0.4107104
68	0xbd1fa8d0	-0.03897935
69	0xbea18d09	-0.31552914
70	0xbf0cf1ab	-0.55056256
71	0x3e2228c0	0.15835857
72	0x3d1e5f9c	0.0386654
73	0x3e2c8f90	0.1685164
74	0xbdb0f95c	-0.086413115
75	0xbdaf94e9	-0.08573324
76	0xbe2afce4	-0.16698033
77	0xbc466c8f	-0.012110843
78	0xbd80ca61	-0.06288601
79	0xbdd5039d	-0.1040108
80	0xbb7a5943	-0.0038200177
81	0xbe0a0c91	-0.13481356
82	0xbe9f1d8e	-0.31077236
83	0x3e6694f7	0.22517763
84	0x3f0e7471	0.55646425
85	0xbe54c2a6	-0.20777377
86	0x3cc8a0c2	0.024490718
87	0xbe3cfa88	-0.18454945
88	0xbd00eae4	-0.03147401
89	0xbe67bc5b	-0.22630446
90	0xbdb0c4fe	-0.08631323
91	0x3eaeebbc	0.34164226
92	0x3d75bf75	0.05999704
93	0x3e22f601	0.15914156
94	0x3d4508e3	0.04810418
95	0x3bed5b06	0.007243517
96	0xbec6ea09	-0.3885043
97	0xbe375d28	-0.1790663
98	0xbde04381	-0.10950375
99	0x3c282b88	0.010264285
100	0xbee8d6d7	-0.4547641
101	0x3ad5785f	0.0016286484
102	0xbdbdfc81	-0.09276677
103	0xbe5a20f3	-0.21301632
104	0xbe60395f	-0.21896885
105	0xbea6ba8a	-0.32564193
106	0xbe318f9a	-0.17339936
107	0xbeba4325	-0.36379352
108	0xbd972e86	-0.073819205
109	0xbd3a06c8	-0.045416623
110	0x3e2c9050	0.16851926
111	0xbd4fc9eb	-0.050729673
112	0xbc5f99f5	-0.013647546
113	0xbe6e939f	-0.232985
114	0x3df7313b	0.12069937
115	0xbee1d045	-0.4410421
116	0x3dabfe0f	0.08398067
117	0xbed6d421	-0.41958717
118	0xbe8a577d	-0.27019873
119	0xbd210333	-0.03930969
120	0xbec7a087	-0.3898966
121	0xbee77f32	-0.4521423
122	0xbe637f3c	-0.22216505
123	0xbe4a6e5c	-0.19768661
124	0xbd9c2e45	-0.07626013
125	0x3d8a2f0d	0.067472555
126	0xbe12c65b	-0.14333479
127	0xbde57401	-0.112037666
128	0xbe9d67d1	-0.30743268
129	0x3a92b23e	0.0011192036
130	0x3dea0e9e	0.11428569
131	0x3c406fa3	0.011745366
132	0xbe12c4fb	-0.14332955
133	0xbe60afdb	-0.21942084
134	0x3ec1a380	0.37820053
135	0xbebad234	-0.36488497
136	0x3d08057d	0.03320836
137	0x3d7ae906	0.061257385
138	0x3b9073d5	0.0044083395
139	0x3d5b6782	0.05356551
140	0x3e282129	0.164189
141	0xbe6681e2	-0.22510484
142	0x3e697259	0.22797526
143	0xbe8036cb	-0.25041804
144	0x3d74e149	0.05978516
145	0xbd6c2cfc	-0.057660088
146	0x3e171e6d	0.147577
147	0xbe440bd5	-0.19145139
148	0x3e8b391c	0.27192008
149	0xbeabfdf1	-0.3359218
150	0x3e94849c	0.29007423
151	0x3eb2d158	0.34925342
152	0x3e21d27b	0.15802948
153	0x3e873816	0.26409978
154	0x3e69e50a	0.22841278
155	0xbcea8fe1	-0.02863306
156	0xbdc0aaf3	-0.09407606
157	0xbdeb6be3	-0.11495187
158	0xbe03b9db	-0.12863867
159	0x3dbbccef	0.09169947
160	0xbd955215	-0.072910465
161	0xbe7f7ffd	-0.24951167
162	0x3e1fb46a	0.15596166
163	0xbed3f425	-0.41397205
164	0xbce14039	-0.027496444
165	0x3e7b42ea	0.24537244
166	0xbcbe593c	-0.02323591
167	0xbd5eb92b	-0.05437581
168	0x3dfdd65c	0.123944014
169	0x3d68e1f9	0.05685613
170	0xbe888b18	-0.2666862
171	0xbea465b7	-0.32108852
172	0x3e18d2c1	0.14924146
173	0x3d8c1230	0.068394065
174	0x3dc7f95c	0.097643584
175	0xbbf39003	-0.007432939
176	0x3e4167e5	0.18887289
177	0xbdb8f963	-0.09031942
178	0x3dc87121	0.097872026
179	0xbb50ce74	-0.0031861337
180	0x3ed86c71	0.42270234
181	0x3ded177d	0.11576746
182	0xbe5f31ef	-0.21796392
183	0xbe2592e8	-0.16169322
184	0x3e66518c	0.22492045
185	0xbba3fe5b	-0.005004687
186	0x3daa04ee	0.083017215
187	0xbe5137da	-0.20431462
188	0x3e3688d1	0.17825629
189	0x3e1a2eb6	0.15056881
190	0x3ec702d5	0.38869348
191	0xbdb01286	-0.08597283
192	0x3e9c2625	0.30497852
193	0x3db67b3d	0.089102246
194	0x3e1c7afd	0.15281291
195	0x3efaec25	0.4900829
196	0x3db10bc0	0.08644819
197	0xbe6a827f	-0.22901343
198	0xbec7e3e3	-0.3904105
199	0xbd0b5a7e	-0.034021847
200	0x3df42582	0.119212165
201	0x3d8749b0	0.06605852
202	0xbeb5f1b7	-0.35535976
203	0xbe58b109	-0.21161284
204	0x3d50ed39	0.051007483
205	0x3b55bbea	0.0032613226
206	0x3e0c493d	0.13699813
207	0xbdde3bd2	-0.108512536
208	0x3e56714f	0.20941661
209	0x3e0f06be	0.13967416
210	0xbe3a2037	-0.18176351
211	0xbd821e3b	-0.06353422
212	0xbe42cf38	-0.1902436
213	0xbe2924ad	-0.16517897
214	0xbe277282	-0.16352275
215	0xbd8d9ada	-0.06914301
216	0xbe5f5486	-0.21809587
217	0x3e853fe6	0.26025313
218	0x3e55bae1	0.2087207
219	0xbebdbfd1	-0.37060407
220	0xbdad9668	-0.08475953
221	0xbe32bee7	-0.17455636
222	0x3e2c793b	0.16843121
223	0x3d96ee6b	0.07369693
224	0xbe3ead53	-0.18620805
225	0x3e6f69a9	0.2338015
226	0xbead00b8	-0.3378961
227	0xbc59b308	-0.013287313
228	0x3e3b7eb5	0.18310054
229	0x3dc09de2	0.09405114
230	0xbe651f69	-0.22375263
231	0x3da7459b	0.08167573
232	0x3f0ad90e	0.5423745
233	0xbe2f5c77	-0.17125116
234	0x3e7a89c3	0.24466614
235	0x3e3a554b	0.18196599
236	0x3bab0e34	0.005220199
237	0x3d1da5dd	0.038488258
238	0x3e0765e1	0.13222457
239	0xbed90353	-0.4238535
240	0xbe853c91	-0.2602277
241	0x3e4f56ae	0.2024791
242	0x3e99d610	0.3004613
243	0x3eedf402	0.46475226
244	0x3eb870eb	0.3602365
245	0xbdbfaed1	-0.093595155
246	0x3e6edc88	0.23326313
247	0x3e69e9b9	0.22843064
248	0xbcdae2f9	-0.026719557
249	0xbe6f81fe	-0.23389432
250	0xbe816a9d	-0.25276652
251	0xbe0fc9df	-0.14041851
252	0xbe27ea75	-0.16398032
253	0xbe86944b	-0.26285014
254	0xbdb553a5	-0.088538446
255	0xbef51301	-0.4786606

bias f4 [60]
0	0xb9fa80f1	-0.00047779785
1	0xb9aacf24	-0.0003257926
2	0x397e7a28	0.00024268834
3	0xba2dfcd6	-0.0006637102
4	0x3b939234	0.0045035128
5	0x3a8e1c19	0.0010842114
6	0xbb7f021a	-0.0038911165
7	0xb95c3dd6	-0.0002100387
8	0x3a2d31d0	0.0006606849
9	0xba022732	-0.0004964947
10	0xbb073c04	-0.0020635137
11	0x3a94df0c	0.0011357977
12	0x3aa7e3db	0.0012808995
13	0x3ac7ffd4	0.0015258738
14	0xbba9fc55	-0.005187551
15	0xbaa0053d	-0.0012208592
16	0xbb6869e4	-0.0035463506
17	0xb9b52549	-0.0003455079
18	0xbb617d2f	-0.003440689
19	0x3ad24697	0.0016042766
20	0xbb806757	-0.003918569
21	0xbae3e181	-0.0017385931
22	0xbb5f20e4	-0.0034046704
23	0xba759622	-0.000936838
24	0xbb64937d	-0.003487795
25	0x3b5b6451	0.0033476541
26	0xbb86f31e	-0.0041183373
27	0x39d9d888	0.00041550794
28	0x3b97dde8	0.0046346076
29	0x3b086036	0.00208093
30	0x3bb58815	0.005539904
31	0x3b590e06	0.003311993
32	0x3b23c91d	0.00249917
33	0x3a22b13a	0.00062062184
34	0xbb1188d1	-0.0022206793
35	0x39d8776a	0.000412877
36	0xb8992a98	-7.303542e-05
37	0x3a0829d2	0.000519422
38	0xbac3bcd0	-0.001493359
39	0x3a13e073	0.00056410505
40	0x394a5030	0.00019294093
41	0xb9d12748	-0.00039892853
42	0x3afba357	0.0019198459
43	0x3aeaae39	0.0017904706
44	0xbb6bef0f	-0.0036000644
45	0x39f2b122	0.0004628981
46	0x3aba1f11	0.0014199932
47	0x3a717209	0.0009210413
48	0x39fc04d1	0.00048068774
49	0xba97c324	-0.0011578542
50	0xba871f48	-0.0010309005
51	0xbb01b82a	-0.0019793608
52	0x3a9b91cd	0.0011869014
53	0xba371fd5	-0.00069856393
54	0xb903f9cf	-0.00012586194
55	0xbacc8cca	-0.0015605923
56	0x3a97d587	0.0011584022
57	0x3a33d9ad	0.00068607443
58	0x39dfc6ed	0.00042682086
59	0xbb34d584	-0.0027593086
