linearPredictionModels/db39/mega/cleanedCombine.csv_wholeNetPrototype5_Epochs_25_ValidationLoss0.400800_lr0.0003_2023_08_15_08:05:43.pth (torch, 992679 bytes, 8 tensors)

weight f4 [512, 145]
0	0xbe1bc14f	-0.1521046
1	0x3db4b1bc	0.08822963
2	0xbe004b53	-0.12528734
3	0xba9c604d	-0.0011930555
4	0xbbece322	-0.007229225
5	0x3dade758	0.08491391
6	0xbdb763e7	-0.08954602
7	0x3d8b3243	0.06796696
8	0xbe02bfbc	-0.12768453
9	0x3c558b24	0.013033662
10	0xbc6bff64	-0.014404152
11	0x3e974525	0.2954494
12	0xbd4620f5	-0.048371274
13	0x3c2bfb88	0.010496981
14	0xbc694ea5	-0.014239942
15	0xbd8cf647	-0.06882911
16	0xbb268950	-0.0025411434
17	0x3d41c093	0.047302794
18	0x3dc4a003	0.09600832
19	0x3d2282dc	0.03967558
20	0x3de0ae97	0.109708
21	0x3d000674	0.031256154
22	0xbe46b89d	-0.19406362
23	0x3dc0baa5	0.094105996
24	0xbd2faba4	-0.0428883
25	0x3dd9ee12	0.106411114
26	0xbd8e6dd9	-0.069545455
27	0xbe25e8a1	-0.16202022
28	0xbda3b570	-0.07993591
29	0xbcf0b6c5	-0.029384026
30	0xbd9b0984	-0.07570174
31	0x3d814058	0.06311101
32	0xbd8af8e4	-0.06785753
33	0x3d1cb39c	0.038257226
34	0x3d007914	0.03136547
35	0xbdf42c06	-0.11922459
36	0xbc5b0e19	-0.01337006
37	0xbe262a3b	-0.16227047
38	0x3cec50c8	0.028847113
39	0x3da892cc	0.08231124
40	0x39d63d1f	0.000408628
41	0x3c9e437a	0.019319285
42	0xbd1a2556	-0.037633263
43	0xbd33d112	-0.043900557
44	0x3da0e651	0.07856429
45	0xbd8ac8bf	-0.067765705
46	0xbd37f772	-0.044913717
47	0x3d6fe2cc	0.0585659
48	0xbd90ebb7	-0.07076209
49	0x3d0f76cf	0.035025414
50	0x38bef056	9.104672e-05
51	0x3d2de1cb	0.04245166
52	0x3c9db2db	0.019250324
53	0xbe30f54c	-0.17281073
54	0xbd5f1765	-0.05446567
55	0x3c971d4e	0.01844659
56	0x3d3131ba	0.043260314
57	0xbde90702	-0.1137829
58	0xbbf25c9f	-0.007396295
59	0x3e6eebb4	0.23332101
60	0xbe0a18c5	-0.13486011
61	0xbd5b73b0	-0.053577125
62	0x3b267e35	0.0025404815
63	0xbdec641c	-0.11542532
64	0x3e6e7141	0.2328539
65	0xbe2c6a61	-0.16837455
66	0x3c4e4c78	0.012591474
67	0x3d90da10	0.07072842
68	0xbdd87c5d	-0.105705954
69	0x3dcca94f	0.099932306
70	0xbe00e3ae	-0.12586853
71	0x3e10aa39	0.14127435
72	0xbde56467	-0.11200791
73	0x3e855b54	0.2604624
74	0xbd796fc2	-0.060897596
75	0x3f101785	0.5628589
76	0x3df237d2	0.11827053
77	0x3e56c365	0.20972975
78	0xbdc1dbba	-0.09465738
79	0x3e03d87b	0.1287555
80	0x3d938bbf	0.07204389
81	0x3dc4fc7d	0.09618471
82	0x3d3a54e6	0.04549112
83	0x3e8b996b	0.27265486
84	0x3dcabd40	0.09899378
85	0xbe65e149	-0.2244922
86	0xbcf46ab2	-0.029836033
87	0x3e816a69	0.25276497
88	0xbe0467bd	-0.12930198
89	0xbd16b643	-0.036794912
90	0xbd9ae4d7	-0.07563179
91	0x3e34ec06	0.17668161
92	0xbd90892d	-0.07057414
93	0x3e4241c2	0.18970397
94	0x3e8c2350	0.2737069
95	0xbbfcb1c7	-0.0077116224
96	0x3d7493e9	0.05971137
97	0xbcd03e9f	-0.025420485
98	0x3c977524	0.018488474
99	0x3d1b4be2	0.037914164
100	0xbd2df71d	-0.042471994
101	0x3dba9e74	0.09112254
102	0x3df4e29e	0.11957286
103	0x3d8cec65	0.06881026
104	0xbc02e4b8	-0.007989101
105	0x3c10a059	0.008827292
106	0xbda79b3f	-0.08183908
107	0xbcc165be	-0.023608085
108	0xbcfa4c5f	-0.030553995
109	0x3d4d7ee2	0.050169833
110	0xbcfb683f	-0.030689357
111	0xbe100425	-0.14064081
112	0xbb06cde0	-0.0020569488
113	0x3df7096e	0.120623454
114	0x3dafc660	0.08582759
115	0x3dd75c21	0.10515619
116	0xbd1c23b1	-0.038119975
117	0xbccef745	-0.025264392
118	0x3da17b29	0.07884819
119	0x3d86e777	0.06587117
120	0xbde226f2	-0.110425845
121	0xbcad07a2	-0.021121804
122	0x3d828730	0.06373441
123	0x3db0e008	0.086364806
124	0xbc01992c	-0.007910054
125	0x3cb0106c	0.021492206
126	0xbd2544ad	-0.040348697
127	0x3db6f815	0.08934037
128	0x3c498003	0.012298587
129	0x3d8394df	0.06424879
130	0xbd94376b	-0.07237133
131	0xbca2d8d3	-0.01987878
132	0x3cbb5e33	0.022872066
133	0xbd967061	-0.07345653
134	0x3d2dd5d2	0.042440243
135	0xbd931c68	-0.071831524
136	0xbb95ea64	-0.0045750607
137	0x3d3f9a96	0.046778284
138	0x3da55091	0.080720074
139	0x3cb03ad0	0.021512419
140	0xbcb0b35a	-0.021569896
141	0x3c16e3e6	0.009209609
142	0x3c11210e	0.0088579785
143	0xbcf710e5	-0.030159423
144	0x3ccf6d31	0.025320621
145	0x3ddd2585	0.10798172
146	0xbd96486b	-0.073380314
147	0x3db67e07	0.089107566
148	0x3e2e72ec	0.17036027
149	0x3bc15a58	0.0059006624
150	0x3d1849fa	0.037179925
151	0xbd02b076	-0.031906568
152	0x3de9e5db	0.114207946
153	0xbce57a11	-0.028012307
154	0xbc900b84	-0.017583616
155	0xbdd3950f	-0.10331165
156	0x3b5d5fbb	0.0033778984
157	0xbc9e35e6	-0.01931281
158	0xbdc0d2fb	-0.09415241
159	0x3caa227e	0.0207684
160	0x3d3ed823	0.046592843
161	0x3cf72a6e	0.0301716
162	0x3e35962f	0.17733072
163	0xbe29db54	-0.16587573
164	0xbd8de6db	-0.06928798
165	0xbe120523	-0.14259772
166	0x3e050927	0.12991773
167	0xbe2814c4	-0.16414171
168	0x3df3de01	0.11907578
169	0xbd38fe7b	-0.045164566
170	0x3c5d3885	0.013502245
171	0xbd772b42	-0.06034399
172	0xbe83b73f	-0.25725743
173	0xbdd2d4ae	-0.10294472
174	0xbd0cbd03	-0.034359943
175	0x3d2a2487	0.04153874
176	0x3e0159f2	0.12631968
177	0xbdc068e5	-0.09395007
178	0xbe0123ce	-0.12611315
179	0x3d836790	0.06416237
180	0xbdb27332	-0.08713378
181	0xbdf7e1f5	-0.12103645
182	0x3c4881dc	0.012237992
183	0x3d97dba5	0.07414941
184	0xbdc598f7	-0.09648316
185	0x3db009ab	0.08595594
186	0x3cfcfb2c	0.030881487
187	0x3c18db5d	0.009329644
188	0xbdea7748	-0.11448532
189	0x3d1f8390	0.038943827
190	0x3d5c85ea	0.053838648
191	0xbd70abbc	-0.05875753
192	0xbd9fbeac	-0.0780004
193	0xbd9a7553	-0.07541909
194	0x3cfc5502	0.030802254
195	0x3d9784fe	0.07398413
196	0x3e14406a	0.14477697
197	0x3dcc68cc	0.09980926
198	0x3d902433	0.070381545
199	0xbdeca848	-0.115555346
200	0xbe139438	-0.1441201
201	0xbc2f91e4	-0.010715935
202	0xbd4e654f	-0.050389584
203	0xbe7e9b23	-0.24863867
204	0xbd02caf0	-0.031931818
205	0xbdeb16ec	-0.114789814
206	0xbdbe54ac	-0.09293494
207	0x3cd59ad0	0.026074797
208	0xbe0fa5b4	-0.14028054
209	0xbeb3e851	-0.3513818
210	0x3c7a6982	0.015283944
211	0x3e328210	0.17432427
212	0x3e6855ad	0.22688933
213	0xbd317c87	-0.04333165
214	0x3e7d0f16	0.24712786
215	0xbd3ae4d7	-0.045628395
216	0x3bcc8136	0.006240989
217	0xbd9909b8	-0.07472557
218	0x3e921693	0.28532848
219	0x3de44dc1	0.11147643
220	0x3e20741a	0.15669289
221	0x3d90e5a5	0.07075051
222	0x3e927857	0.28607437
223	0x3e2b906f	0.16754316
224	0xbdedafd9	-0.11605806
225	0x3ddb0339	0.10693974
226	0x3da4a253	0.080387734
227	0x3e829df4	0.25511134
228	0xbdcab4f7	-0.098977976
229	0x3ea1301d	0.3148202
230	0xbbacb927	-0.0052710953
231	0x3e1b61a0	0.1517396
232	0xbd8a6c23	-0.06758907
233	0xb8d6f8a4	-0.00010250628
234	0x3d8bb391	0.06821359
235	0x3e03ba17	0.12863956
236	0xbe219117	-0.15778004
237	0x3de3e808	0.11128241
238	0xbc2b325c	-0.010449018
239	0x3e60dca4	0.21959168
240	0xbdcdddfd	-0.100521065
241	0xbc572c39	-0.013133102
242	0xbd904ce4	-0.07045916
243	0x3c8af894	0.016964234
244	0xbd83dc16	-0.064384624
245	0x3d967eed	0.07348428
246	0xbc9caa8d	-0.019124294
247	0xbb886fa0	-0.0041636974
248	0xbd376ec5	-0.044783372
249	0x3cb2be84	0.02181936
250	0x3bf642f7	0.007515307
251	0x3d11e35d	0.03561722
252	0xbd08e4f8	-0.033421487
253	0x3ce8384a	0.028347153
254	0x3d4df8fa	0.05028627
255	0x3d2e12fc	0.042498574

bias f4 [512]
0	0xbc8403b5	-0.016115049
1	0xbd69d5ee	-0.057088785
2	0xbdaed163	-0.08536031
3	0xbb22e1f5	-0.002485392
4	0xbd943dd4	-0.07238355
5	0x3cebface	0.028806116
6	0xbb6d5c58	-0.0036218371
7	0x3e0e810f	0.1391642
8	0x3cf283df	0.029603897
9	0x3d77dcaa	0.060513176
10	0x3cc17f1d	0.023620183
11	0x3aca2160	0.0015421323
12	0xbd42c2e3	-0.04754914
13	0xbdba46de	-0.09095548
14	0xbc971161	-0.018440904
15	0xbd9f32ed	-0.07773385
16	0x3d1ad09a	0.037796594
17	0x3d471d3f	0.048611876
18	0x3d6ae0ac	0.05734317
19	0xbdafc8f7	-0.08583253
20	0xb9d1714f	-0.00039948008
21	0xbdd74734	-0.10511628
22	0x3d8f0acf	0.069844835
23	0xbd80cbdc	-0.06288883
24	0xbc40361b	-0.01173165
25	0xbde60223	-0.11230876
26	0xbb375e68	-0.0027979854
27	0x3d886c78	0.06661314
28	0xbda92bf8	-0.082603395
29	0xbd518db2	-0.05116052
30	0x3d2ae37f	0.041720863
31	0x3d34f36b	0.044177454
32	0x3c20e0e8	0.009819247
33	0x3cdce38d	0.026963973
34	0x3bf57740	0.0074910223
35	0xbdd2d503	-0.10294535
36	0xbd084fb3	-0.033279132
37	0xbc1c6f9e	-0.009548096
38	0x3c4862ee	0.012230618
39	0x3da230d2	0.07919468
40	0x3d3339a4	0.043756142
41	0x3d2a263b	0.041540366
42	0xbd65cb8c	-0.05610232
43	0xba26ca65	-0.00063625566
44	0xbd1023e0	-0.035190463
45	0x3d2676dc	0.040640697
46	0xbd38defc	-0.04513453
47	0xbbe912a8	-0.0071128197
48	0xbd2825f5	-0.041051824
49	0xbcfb1a1f	-0.030652104
50	0xbce4fd8c	-0.027952932
51	0xbcda975e	-0.026683506
52	0x3d245dc8	0.0401285
53	0xbdc2840c	-0.09497842
54	0x3dd82d46	0.1055551
55	0x3d27fdb5	0.04101344
56	0xbd68ebe6	-0.056865595
57	0x3cd35c62	0.025800887
58	0xbd721825	-0.059105057
59	0x3d220ead	0.039564777
60	0xbd50b966	-0.05095806
61	0xbde5b790	-0.112166524
62	0x3cfa23b4	0.030534603
63	0x3dd1482a	0.10218842
64	0xbd48bf48	-0.049010545
65	0xbd8e5ba5	-0.069510736
66	0x3bc66fc2	0.006055803
67	0x3b3c5abd	0.0028740608
68	0xbd150da2	-0.036389954
69	0x3c786a19	0.015162014
70	0x3c370973	0.011171686
71	0x3cec3eba	0.028838504
72	0x3d38e91e	0.045144193
73	0x3d9e032a	0.07715447
74	0xbcc1126d	-0.023568356
75	0xbd9ffecf	-0.07812273
76	0xbd2f6dcc	-0.04282932
77	0xbc67900b	-0.014133464
78	0xbdcc23e3	-0.09967782
79	0xbdb27af4	-0.08714858
80	0xbd11a7cf	-0.035560425
81	0x3db7f73a	0.089827016
82	0x3b9dcd16	0.004815708
83	0x3d60f5cd	0.054921914
84	0xbda40f4d	-0.08010731
85	0xbd96f837	-0.07371562
86	0x3de419b0	0.11137712
87	0xbdef3cf2	-0.11681546
88	0x3c7fb72c	0.015607636
89	0x3d37e254	0.044893578
90	0x3d0679c3	0.032830965
91	0x3d64e04d	0.055877972
92	0xbdb7aba3	-0.08968284
93	0x3d2daaa9	0.042399082
94	0x3c1fa251	0.009743289
95	0xbcb55743	-0.022136336
96	0xbd07dcc2	-0.033169515
97	0x3dcc7b06	0.09984402
98	0xbd74f3e2	-0.059802897
99	0x3cb5e96e	0.022206035
100	0x3d37e835	0.044899184
101	0x3cfdad08	0.030966297
102	0x3c1c9b13	0.009558457
103	0xbcd7ca08	-0.026341453
104	0xbd55f39e	-0.052234285
105	0xbdcfd682	-0.10148336
106	0xbda7be99	-0.081906505
107	0xbd81b033	-0.063324355
108	0xbdda0be7	-0.106468014
109	0xbcbcb621	-0.023036065
110	0x3d7c5453	0.061603855
111	0xbdd59f75	-0.10430805
112	0xbdd4c590	-0.103892446
113	0xbddaf37d	-0.10690973
114	0xbbe299f5	-0.0069153258
115	0x3bcf75e6	0.0063311933
116	0x3c7e6961	0.015528054
117	0xbd535f35	-0.05160447
118	0xbd8d9a1d	-0.069141604
119	0xbd6c33cf	-0.057666596
120	0xbd059c01	-0.03261948
121	0xbc29dcc9	-0.010367581
122	0x3cebbbbb	0.02877604
123	0xbca8233e	-0.020524617
124	0x3d60dc93	0.054897856
125	0xbdc81410	-0.097694516
126	0xbd7aeb12	-0.061259337
127	0xbd198181	-0.03747702
128	0xbd61b064	-0.05509986
129	0xbce23889	-0.027614849
130	0x3daa0a29	0.08302719
131	0x3db9b30c	0.090673536
132	0xbc48f536	-0.012265494
133	0x3c2545bd	0.010087428
134	0x3dab21f9	0.08356089
135	0xbc0504b3	-0.008118796
136	0x3d9b0d7b	0.075709306
137	0x3d3574aa	0.044300713
138	0xbda43739	-0.080183454
139	0x3d4056a6	0.046957634
140	0xbd0ce5a9	-0.03439871
141	0xbd6ed0c0	-0.05830455
142	0x3c1de684	0.009637479
143	0xbb8977e6	-0.004195201
144	0xbd8d3025	-0.068939485
145	0xbda78df9	-0.08181376
146	0xbda49525	-0.080362596
147	0xbc1eed77	-0.009700171
148	0x3caf5992	0.021405015
149	0xbbdca3b2	-0.006733381
150	0x3d2a526f	0.04158252
151	0xbdacded0	-0.084409356
152	0xbd896d77	-0.06710332
153	0x3d96954a	0.073526934
154	0x3dcab1ac	0.098971695
155	0xbdb8df54	-0.090269715
156	0xbdf4e0ae	-0.11956917
157	0x3dc32117	0.09527796
158	0x3dac916a	0.08426173
159	0xbdf1c761	-0.11805607
160	0xbd1e40fa	-0.038636185
161	0x3ac2c4eb	0.0014859712
162	0x3bf924d4	0.007603267
163	0xbbabb929	-0.0052405787
164	0xbd9496f2	-0.07255353
165	0x3d98cd25	0.07461003
166	0xbcd97569	-0.026545243
167	0xbba231d5	-0.004949788
168	0x3b9ceaa9	0.004788716
169	0xbd2e7c53	-0.042599034
170	0xbcf97122	-0.030449454
171	0xbc0a8163	-0.0084537
172	0x3b8f3f6d	0.0043715746
173	0xbcc3f439	-0.023920165
174	0xbd20823c	-0.0391867
175	0x3d8f222b	0.06988939
176	0x3d7a830d	0.061160136
177	0xbc64a4e6	-0.0139553305
178	0x3d8cd004	0.06875613
179	0x3cff6e08	0.031180397
180	0xbd514e8c	-0.0511003
181	0xbd325a01	-0.043542866
182	0x3b82b0fd	0.003988384
183	0xbdd56193	-0.104190014
184	0xbd2029a1	-0.0391022
185	0xbd773885	-0.060356636
186	0x3df722b4	0.12067166
187	0xbdc30378	-0.09522146
188	0xbd3d72e2	-0.04625214
189	0xbcd1aeac	-0.025595985
190	0x3cbb9f56	0.022903126
191	0xbbd6a496	-0.006550382
192	0xbd9ca910	-0.076494336
193	0x3d44294d	0.04789095
194	0xbde79e6f	-0.11309516
195	0xbc788b39	-0.015169912
196	0xbd881993	-0.06645503
197	0x3d7eda8e	0.06222015
198	0xbdb3e62a	-0.08784135
199	0xbcac4911	-0.021030935
200	0x3db36ff0	0.08761585
201	0xbdabe878	-0.08393949
202	0x3aa17968	0.0012319507
203	0x3dadfce3	0.084955
204	0xbc4d6e48	-0.0125385
205	0xbe05e3fd	-0.13075252
206	0xbc5e7aab	-0.013579051
207	0x3dd4914b	0.10379275
208	0x3d1bcd7d	0.038037766
209	0xbc7cd155	-0.015430768
210	0x3b06c152	0.0020562005
211	0x3d2e5d65	0.042569537
212	0xbd8c3a17	-0.06847017
213	0x3c35f6fa	0.011106247
214	0x3de36759	0.111036964
215	0xbd27510e	-0.040848784
216	0x3d060d4d	0.03272753
217	0x3c5a3a6e	0.013319595
218	0xbd9a89cb	-0.07545813
219	0x3d8a6e22	0.067592874
220	0x3c16b718	0.009198926
221	0xbda5df5b	-0.08099242
222	0xbcec3109	-0.028831976
223	0x3bd0c176	0.0063707186
224	0x3dd614ea	0.10453208
225	0x3d2156cf	0.039389428
226	0x3ce6008a	0.028076429
227	0x3cd0607f	0.025436638
228	0xbd86e602	-0.06586839
229	0xbdd24aa2	-0.10268141
230	0xbdc3c5d8	-0.0955922
231	0xbe0809e1	-0.13285019
232	0xbd831e46	-0.064022586
233	0x3ccdef70	0.025138587
234	0x3d46c8bb	0.048531275
235	0xbd5745e7	-0.0525569
236	0xbc6bcb2b	-0.014391701
237	0x3d4b42ed	0.049624372
238	0xbd5442d3	-0.05182154
239	0xbe0d7494	-0.13814002
240	0x3b3b29de	0.002855889
241	0x3da8e9fa	0.082477525
242	0xbddbc4f9	-0.10730929
243	0x3d278bfc	0.040904984
244	0x3e0b2982	0.13590053
245	0x3d0f7555	0.035024006
246	0x3c55c861	0.013048262
247	0xbd1342c9	-0.035952363
248	0xbd22265d	-0.039587367
249	0xbce5d2b3	-0.02805457
250	0xbdc4ab5b	-0.09602996
251	0x3c3efaf4	0.011656512
252	0x3d2db52b	0.042409103
253	0x3d4b4be4	0.04963292
254	0x3d7d68e6	0.061867617
255	0x3de5664c	0.11201152

weight f4 [256, 512]
0	0xbe2ee4dd	-0.17079492
1	0x3dadf3ae	0.08493744
2	0xbdec0503	-0.115243934
3	0x3d171cdf	0.036892768
4	0x3cf28521	0.029604496
5	0x3d3eb853	0.046562504
6	0xbe261df8	-0.1622237
7	0x3d7e3c8f	0.062069472
8	0xbe033d95	-0.1281646
9	0x3e1f24e7	0.15541421
10	0x3cdf2118	0.02723746
11	0xbd0d9510	-0.034565985
12	0x3dadf6ac	0.084943146
13	0x3d85dfe9	0.06536848
14	0xbe45bbec	-0.19309968
15	0x3c47178e	0.012151612
16	0x3d31eabf	0.043436762
17	0x3d311b57	0.043238964
18	0xbe10aeba	-0.14129153
19	0xbe0ad159	-0.13556422
20	0x3d50b01a	0.050949194
21	0xbe58d70e	-0.21175787
22	0xbd4bd18e	-0.049760394
23	0x3c185d76	0.009299627
24	0xbe4f03ce	-0.20216295
25	0xbde6a02a	-0.112610176
26	0xbdc5e584	-0.09662917
27	0xbd31e2e8	-0.043429285
28	0xbcc4f8b5	-0.024044374
29	0x3d4782f7	0.048708882
30	0x3d4dd950	0.050256073
31	0xbd8e1495	-0.069375195
32	0x3dae3849	0.08506829
33	0x3e3a38f3	0.18185787
34	0x3d36e38c	0.0446506
35	0xbd4cce41	-0.050001387
36	0x3da857e7	0.08219891
37	0x3db1ff2e	0.0869125
38	0x3d87b0a6	0.0662549
39	0xbdb8e960	-0.09028888
40	0xbb564e12	-0.0032700342
41	0xbdd59b2e	-0.10429989
42	0xbe0603f5	-0.13087447
43	0xbd56f494	-0.05247934
44	0xbcc06638	-0.023486242
45	0x3bad246a	0.005283882
46	0xbd5c3cf2	-0.05376906
47	0x3e2bfb74	0.1679514
48	0x3e1ccf7e	0.15313527
49	0x3d26d2e2	0.040728457
50	0xbe828a62	-0.25496203
51	0xbd8bb273	-0.06821146
52	0x3d8bc40f	0.068245046
53	0xbc31e424	-0.010857616
54	0xbb38d0e0	-0.002820067
55	0x3d1fd078	0.03901717
56	0x3c6896f2	0.014196144
57	0xbdcca32d	-0.09992061
58	0x3e04f48d	0.12983914
59	0xbdae6a37	-0.085163526
60	0xbb464a0a	-0.0030256533
61	0xbab460f9	-0.001376181
62	0x3ded6469	0.11591417
63	0xbdb269e9	-0.08711607
64	0xbd6487f6	-0.055793725
65	0xbe4a1730	-0.19735408
66	0x3da1c17b	0.078982316
67	0xbc3267a7	-0.01088897
68	0xbd9e7033	-0.07736244
69	0xbd9a6a64	-0.07539824
70	0x3d6cfd18	0.057858557
71	0xbe1a87a1	-0.15090801
72	0x3d3fdf18	0.04684362
73	0xbb98be26	-0.0046613393
74	0xbd9f05a9	-0.077647515
75	0x3c8b896a	0.017033298
76	0xbb5f53c2	-0.0034077023
77	0x3d90eca6	0.07076387
78	0xbcce152d	-0.025156582
79	0xbe144d29	-0.1448256
80	0xbc93a0e6	-0.018021058
81	0x3cbfc95b	0.023411443
82	0xbd22f908	-0.039788276
83	0xbe8d943b	-0.27652153
84	0xbe35bc74	-0.1774767
85	0x3d811f2d	0.063047744
86	0x3b9cb2f8	0.004782077
87	0x3dad549f	0.08463406
88	0xbd34c3bf	-0.04413199
89	0x3c4f85c4	0.01266617
90	0x3c2246b9	0.009904557
91	0x3c4c6d64	0.012477253
92	0xbc102976	-0.008798948
93	0x3ce45d86	0.027876627
94	0x3ca5aa4a	0.020222802
95	0x3b5cf31c	0.003371424
96	0x3cd0ebcd	0.025503064
97	0x3dabd10b	0.08389481
98	0xbd6e8d5c	-0.05824028
99	0xbdd75fd5	-0.105163254
100	0x3d3bd597	0.045857992
101	0xbd5d07d3	-0.05396254
102	0xbb9ff215	-0.0048811533
103	0xbdf350eb	-0.11880668
104	0x3d32069f	0.043463346
105	0x3d94a5f3	0.07258215
106	0xbd0c9ca3	-0.034329068
107	0xbd62b1ae	-0.05534523
108	0xbdc28939	-0.094988294
109	0xbe081ef2	-0.13293055
110	0x399191dd	0.00027765232
111	0x3d4c6982	0.049905308
112	0x3ccd74ac	0.025080048
113	0xbd064c83	-0.03278781
114	0x3bdfd03a	0.0068302425
115	0xbde8bed8	-0.113645256
116	0x3c9e4aa0	0.019322693
117	0x3d4cc42c	0.04999177
118	0xbe6f2636	-0.2335442
119	0xbd9bd960	-0.0760982
120	0x3d668a4c	0.056284234
121	0x3c88bf69	0.016692834
122	0x3db563e2	0.08856942
123	0xbce6beee	-0.028167214
124	0x3c56b1ba	0.013103897
125	0xbd799cf9	-0.060940716
126	0x3e21942e	0.15779182
127	0x3c08342a	0.008313218
128	0xbbec0970	-0.0072032735
129	0xbbcfe342	-0.00634423
130	0x3d569724	0.052390233
131	0xbdcfc0f1	-0.101442225
132	0xbc5ab991	-0.013349907
133	0x3d752e67	0.059858706
134	0x3d0e8bfd	0.034801472
135	0xbe3fc270	-0.18726516
136	0xbe054fdb	-0.13018744
137	0xbb9217e6	-0.0044584153
138	0xbe9772ed	-0.2957987
139	0x3d132d50	0.035931885
140	0xbb723b0d	-0.0036961467
141	0xbd9037ee	-0.07041918
142	0xbe1a800c	-0.15087909
143	0xbc42d562	-0.011891695
144	0xbe31e183	-0.17371182
145	0xbc2d04b6	-0.010560205
146	0x3db92a49	0.090412684
147	0xbd8b22c7	-0.067937426
148	0x3bd7519c	0.006571008
149	0xbdbffac2	-0.09374
150	0xbc0ed4a0	-0.008717686
151	0x3da8273d	0.08210609
152	0x3c6866b2	0.014184641
153	0x3d00941a	0.03139124
154	0x3dc10c91	0.09426225
155	0xbe459ed5	-0.19298871
156	0x3d70f80e	0.058830313
157	0x3e0e55f9	0.13899983
158	0xbe0ebcc7	-0.139392
159	0x3e1e1af9	0.15439977
160	0x3b77c2f2	0.0037805405
161	0xbe8a2d2b	-0.26987585
162	0xbd33adfc	-0.043867096
163	0xbd97e6b1	-0.07417048
164	0x3dba9008	0.09109503
165	0xbdd2c78c	-0.10291967
166	0x3c4765c7	0.012170262
167	0xbdd4672a	-0.103712395
168	0x3d328dd3	0.043592285
169	0xbe10056d	-0.1406457
170	0xbdd95650	-0.10612166
171	0xbda75732	-0.08170928
172	0xbd84b648	-0.0648008
173	0x3db5efdb	0.088836394
174	0xbc4d0357	-0.012513003
175	0xbe1e8b73	-0.15482883
176	0x3cd2fedf	0.025756298
177	0x3d099e4e	0.033598237
178	0xbc929e2a	-0.017897684
179	0xbd3f4697	-0.04669818
180	0xbde9353d	-0.113871075
181	0xbda2947c	-0.079384774
182	0x3dfcd661	0.12345577
183	0xbe2706cc	-0.16311187
184	0x3b979c3e	0.00462678
185	0x3cf5c01d	0.029998833
186	0x3d1eb288	0.03874448
187	0x3d574612	0.05255706
188	0xbd45083f	-0.048103567
189	0xbd42dc38	-0.0475733
190	0xbd106d53	-0.03526051
191	0xbe566077	-0.20935236
192	0x3d670f31	0.056410972
193	0x3d4bcf03	0.04975797
194	0xbdc7bcbc	-0.09752795
195	0xbe0867f9	-0.13320912
196	0x3dcee18a	0.10101612
197	0xbe025bc6	-0.12730321
198	0x3c0a53eb	0.008442859
199	0xbd99a416	-0.07502
200	0x3d8c5094	0.068513066
201	0x3cc08d13	0.02350477
202	0x3b8c756d	0.004286459
203	0xbde1f9c4	-0.11033967
204	0x3c52636a	0.012841085
205	0x3dcf5ac1	0.10124732
206	0xbe916c89	-0.28403118
207	0x3cd8d49d	0.02646857
208	0xbe230071	-0.15918137
209	0x3c130b49	0.008974859
210	0xbdb2e8ba	-0.08735795
211	0xbdebbd29	-0.11510689
212	0x3ce92543	0.02846015
213	0x3dadc4aa	0.08484776
214	0x3ced328f	0.028954772
215	0xbc50ecde	-0.012751786
216	0x3d2d682c	0.042335674
217	0x3d9a279e	0.07527088
218	0xbc2a99c8	-0.010412641
219	0xbe285ebe	-0.16442391
220	0x3d66a5bb	0.056310397
221	0xbca1e121	-0.01976067
222	0x3d0176b1	0.031607334
223	0xbe965caa	-0.29367572
224	0xbaccd248	-0.0015626634
225	0xbe0b404b	-0.13598745
226	0xbda5cf33	-0.08096161
227	0xbe11c0da	-0.14233723
228	0x3da453b7	0.0802378
229	0x3dd362df	0.103215925
230	0xbbabf905	-0.0052481913
231	0xbd0908cf	-0.033455666
232	0xbd05a138	-0.032624453
233	0xbd7d2265	-0.06180038
234	0xbe0409b4	-0.12894326
235	0x3cc94b74	0.024572112
236	0xbc27db88	-0.010245211
237	0x3c082bd8	0.008311234
238	0x3de70025	0.112793244
239	0x3d19cd93	0.037549566
240	0x3c92d6b0	0.017924637
241	0x3d92de53	0.07171311
242	0x3d04bcb9	0.032406542
243	0x3c9b8464	0.018984027
244	0x3d93abaf	0.072104804
245	0xbe34c04a	-0.17651477
246	0xbe20b83e	-0.15695283
247	0xbab7855b	-0.0014001535
248	0x3dbbdc69	0.09172899
249	0xbbcc45c2	-0.0062339017
250	0x3a7860b4	0.0009474859
251	0x3da7ceb0	0.081937194
252	0x3c3f2fac	0.011669081
253	0xbddeac67	-0.10872727
254	0x3d98a43a	0.07453199
255	0x3dd2e7f9	0.102981515

bias f4 [256]
0	0x3b88ab87	0.0041708383
1	0xbcd19b4a	-0.025586743
2	0xbd523553	-0.051320385
3	0xbd443d54	-0.04791005
4	0xbd336665	-0.043798823
5	0xbc40147a	-0.011723632
6	0x3e0b06b8	0.13576782
7	0xbd71ebdf	-0.059062835
8	0xbd10a793	-0.03531606
9	0xbc93e77d	-0.018054718
10	0x3cb06bb5	0.021535734
11	0xbd78b433	-0.060718726
12	0x3e28425f	0.16431569
13	0x3b24576d	0.0025076524
14	0xbd71bed4	-0.05901988
15	0xbd808ed5	-0.06277243
16	0xbd946961	-0.07246662
17	0xbe011170	-0.12604308
18	0x3cc1b765	0.02364702
19	0x3d89d179	0.06729407
20	0x3e1a3648	0.15059769
21	0xbd643a70	-0.055719793
22	0xbceb2d15	-0.02870802
23	0x3c913484	0.017725237
24	0xbcf7e585	-0.03026081
25	0xbc25034b	-0.010071586
26	0x3afbda3e	0.0019214822
27	0x3d11c595	0.03558882
28	0xbd5aefde	-0.05345141
29	0xbc5868c5	-0.013208573
30	0x3dc08e7f	0.09402179
31	0xbb73daf6	-0.0037209368
32	0xbd48cb34	-0.049021915
33	0x3d7483d2	0.059696026
34	0xbd78814f	-0.060670193
35	0x3c696d8a	0.014247308
36	0xbdaabcba	-0.08336778
37	0xbcde848f	-0.027162818
38	0xbd54f913	-0.05199535
39	0x3b6592df	0.003503017
40	0x3c27c2fe	0.010239361
41	0x3c5c4294	0.013443608
42	0xbd07c316	-0.033145033
43	0xbd4b0d1e	-0.049573056
44	0xbcd738a1	-0.02627212
45	0xbd10ec46	-0.035381578
46	0x3bea8893	0.007157394
47	0x3cbd938e	0.023141649
48	0xbd2913e2	-0.041278727
49	0xbc624e6c	-0.013812643
50	0xbd208051	-0.039184872
51	0xbc6ec566	-0.014573431
52	0x3cf4ad87	0.0298679
53	0x3d9aebe7	0.07564526
54	0x3d9e5e49	0.07732827
55	0xbd3b5a16	-0.04574021
56	0x3c03abab	0.008036534
57	0x3beaa5c3	0.0071608736
58	0x3be22e1c	0.0069024693
59	0x3cd1f015	0.025627175
60	0x3d5d36a4	0.054007187
61	0xbc89e571	-0.016833039
62	0xbd86a149	-0.065737315
63	0x3c086440	0.008324683
64	0xbc8ac39b	-0.016938975
65	0xbc9d1bd3	-0.019178307
66	0xbd769a0d	-0.060205508
67	0xbb9cfdb0	-0.004790984
68	0xbd09d43b	-0.033649664
69	0xbd5a9945	-0.053368825
70	0xbcb1b84c	-0.021694325
71	0x3c886032	0.016647432
72	0xbcdcbbc6	-0.026945006
73	0x3d981692	0.0742618
74	0xbbfdb577	-0.0077425796
75	0xbcb20c0a	-0.021734256
76	0xbc8e09a2	-0.017338578
77	0xbd22038a	-0.039554156
78	0xbc4480e0	-0.011993617
79	0xbd04c4c4	-0.032414213
80	0xbd0872ff	-0.033312794
81	0x3e171b54	0.14756519
82	0xbc89ec2e	-0.016836252
83	0xbc3fdc6b	-0.011710267
84	0x3d928708	0.071546614
85	0x3c817daf	0.015807
86	0xbbbe55b7	-0.005808558
87	0x3db73279	0.08945174
88	0xbdc2ee1d	-0.09518073
89	0xbd425ad8	-0.047449917
90	0xbd58eb63	-0.052958857
91	0x3c6cd9f1	0.014456258
92	0xbd2e4073	-0.042541932
93	0xbc021c69	-0.007941344
94	0x3d854b1d	0.06508467
95	0x3d95e202	0.07318498
96	0x3c4db831	0.012556122
97	0xbc137e6c	-0.009002309
98	0xbd376b63	-0.044780146
99	0xbd19800a	-0.037475623
100	0xbe190494	-0.14943153
101	0xbd1fb205	-0.038988132
102	0x3c77bfcd	0.015121412
103	0x3d02aae2	0.031901248
104	0xbd2f0755	-0.0427316
105	0x3cf4ba1f	0.029873906
106	0x3da9451d	0.082651354
107	0xbd67d656	-0.05660089
108	0xbcf12da5	-0.02944071
109	0xbc3ae70e	-0.011407627
110	0x3cf0e7bc	0.029407375
111	0xbc8dcb32	-0.017308805
112	0x3c65c8cf	0.014024927
113	0x3d5c5236	0.05378934
114	0xbd75bf82	-0.05999709
115	0xbd826d51	-0.06368507
116	0xbd4bac3f	-0.049724814
117	0xbdada4cd	-0.08478699
118	0x3d79f872	0.06102795
119	0xbbfb8639	-0.0076759127
120	0x3da71044	0.08157399
121	0xbbc564c2	-0.006023974
122	0xbd837645	-0.064190425
123	0xbd81583c	-0.063156575
124	0xbbb5ae3a	-0.005544451
125	0xbdb52775	-0.088454165
126	0x3be7e753	0.0070771365
127	0xbd8bcec4	-0.06826547
128	0x3c24927f	0.010044693
129	0xbc6e8cb3	-0.0145599125
130	0x3cc08469	0.023500638
131	0x3d8ee1f3	0.0697669
132	0xbd611d73	-0.054959726
133	0xbd32fc0c	-0.043697402
134	0xbd451253	-0.04811318
135	0xbcf4b218	-0.029870078
136	0x3c7dce9d	0.015491155
137	0xbd551432	-0.052021213
138	0x3b84f1d0	0.0040571466
139	0xbd15820a	-0.036500968
140	0x3bad607b	0.0052910424
141	0xbc45e5d5	-0.012078722
142	0xbd5f1142	-0.054459818
143	0xbdd053b3	-0.10172214
144	0x3b679b73	0.0035340458
145	0x3d9b10c3	0.075715564
146	0xbd3b5958	-0.0457395
147	0xbd165894	-0.03670557
148	0x3d4dda7b	0.050257187
149	0xbd56bb1e	-0.052424543
150	0xbd4711d5	-0.04860099
151	0xbcc86589	-0.024462478
152	0xbca936e3	-0.020656055
153	0xbc8a366f	-0.01687166
154	0x3cabcae1	0.020970764
155	0xbde97705	-0.11399654
156	0x3cc69380	0.024240255
157	0xbc761f94	-0.015022177
158	0x3da5470b	0.08070191
159	0x3c99371c	0.018703036
160	0xbd18fe07	-0.037351634
161	0xbc9c9a73	-0.019116616
162	0xbdeb8e63	-0.115017675
163	0x3b26b578	0.0025437754
164	0x3d64b399	0.05583534
165	0xbd1dd973	-0.038537454
166	0x3b8ef9fe	0.0043632975
167	0x3c8ac281	0.01693845
168	0x3b05a294	0.0020391094
169	0xbcc9d4c8	-0.024637595
170	0xbc89a4ed	-0.016802276
171	0xbca01730	-0.019542307
172	0xbdc4f49e	-0.096169695
173	0xbc8e0817	-0.017337842
174	0xbcbf7342	-0.023370389
175	0x3d29fe6f	0.041502412
176	0xba8295e6	-0.0009962886
177	0xbd55710b	-0.05210976
178	0xbc542bb6	-0.012949875
179	0xbb17f414	-0.0023186253
180	0x3ccffc29	0.025388794
181	0x3c43b712	0.011945503
182	0xbccd743c	-0.025079839
183	0xbd0c3023	-0.034225594
184	0x3d98034a	0.07422502
185	0xbd86b77d	-0.06577966
186	0xbbf7400a	-0.007545476
187	0xbd02abfc	-0.0319023
188	0xbd5dc3de	-0.05414187
189	0x3ca019ac	0.019543491
190	0x3cf0e857	0.029407663
191	0xbd08db3f	-0.033412214
192	0x3caae700	0.020862103
193	0x3d6fefc0	0.058578253
194	0x3b265456	0.0025379858
195	0x3cc074f1	0.023493262
196	0x3bb10d2a	0.0054031806
197	0x3cb39bf3	0.021924948
198	0x3ca96a9d	0.02068072
199	0xbddaa883	-0.10676672
200	0x3d087500	0.033314705
201	0xbd3e06af	-0.046393093
202	0xbc1e37ce	-0.00965686
203	0xbd93a17a	-0.072085336
204	0xbcec75eb	-0.028864821
205	0x3dc29885	0.09501747
206	0xbb6efb7c	-0.0036465814
207	0xbd1a3869	-0.037651453
208	0xbd5646b5	-0.052313525
209	0xbd80eefc	-0.06295583
210	0xbd347caa	-0.0440642
211	0xbc6a9632	-0.014318036
212	0x3d550f80	0.052016735
213	0x3d915a5f	0.07097315
214	0xbcd18124	-0.025574274
215	0xbc70ac06	-0.014689451
216	0x3d59d173	0.053178262
217	0x3acbfc07	0.0015562781
218	0xbc00daf2	-0.007864701
219	0x3ddcb9ea	0.10777648
220	0x3e21e9b8	0.15811813
221	0xbc62ab3c	-0.013834771
222	0xbe1fcc31	-0.15605237
223	0xbdd19972	-0.102343455
224	0x3ce7f58b	0.028315326
225	0xbd5055ba	-0.050863005
226	0xbc4768da	-0.012170995
227	0x3d36cfef	0.044631895
228	0x3db40ee1	0.087919004
229	0x3da534ad	0.08066688
230	0xbd981b9e	-0.074271426
231	0xbc861399	-0.016366767
232	0xbdc35b13	-0.095388554
233	0x3d75df4b	0.060027402
234	0xbe080e39	-0.13286676
235	0x3da5b58e	0.080912694
236	0xbb0b03b9	-0.0021211936
237	0x3d0e6770	0.034766614
238	0xbdb4bffc	-0.088256806
239	0x3c3125aa	0.0108122025
240	0xbc82a941	-0.015949847
241	0xbd1462de	-0.0362271
242	0x3d835860	0.064133406
243	0xbd8f1ff1	-0.06988514
244	0xbd02eb55	-0.03196271
245	0xbcfdd02e	-0.030983057
246	0xbd31198f	-0.043237265
247	0x3ddf3953	0.108996056
248	0xbcfd908a	-0.03095271
249	0xbd59d343	-0.05317999
250	0xbd699911	-0.05703074
251	0xbd9f5817	-0.07780474
252	0x3d3949a3	0.04523624
253	0x3c50b15c	0.012737598
254	0xbd3be2ce	-0.045870595
255	0xbd06b800	-0.03289032

weight f4 [128, 256]
0	0xbcef57d9	-0.029216694
1	0xbc93ff3e	-0.018066045
2	0x3d1262b9	0.03573868
3	0xbd81377a	-0.063094094
4	0x3b70cfc4	0.0036744932
5	0x3d0351c3	0.032060396
6	0x3dd4345e	0.10361551
7	0xbd1a0a2f	-0.037607368
8	0x3c5d3cda	0.013503278
9	0xbd334f03	-0.043776523
10	0x3d00be99	0.031431768
11	0x3d3a86f2	0.04553885
12	0x3dbdb010	0.09262097
13	0xb99268c5	-0.0002792535
14	0xbba49514	-0.0050226543
15	0x3d05f0e1	0.032700423
16	0x3d7ccef4	0.061720803
17	0xbde72612	-0.11286558
18	0x3c81e5ed	0.015856707
19	0x3d091d0d	0.03347497
20	0x3e433007	0.1906129
21	0x3d5b8f5d	0.05360352
22	0x3cf36c8e	0.029714849
23	0x3b6956f6	0.0035604811
24	0xbd550035	-0.05200215
25	0x3c1ccbc1	0.009570063
26	0xbbeef13e	-0.007291942
27	0x3b935632	0.0044963593
28	0x3bce14cb	0.0062891
29	0x3d4c79d4	0.04992087
30	0x3dd60608	0.10450369
31	0x3acdbbb1	0.0015696195
32	0x3cd0b662	0.025477592
33	0xbd189bf2	-0.037258096
34	0xbd20d32d	-0.039263893
35	0xbd2a349b	-0.041554075
36	0x3d5b113a	0.053483225
37	0x3ccee574	0.025255896
38	0x38836c73	6.266767e-05
39	0xbd1a1e67	-0.03762665
40	0xbbbcca06	-0.0057613878
41	0xbd9c5857	-0.07634037
42	0x3d4449a4	0.04792179
43	0xbd679eb8	-0.05654785
44	0xbd501e8d	-0.050810385
45	0x3d7e1e96	0.062040888
46	0x3ce6dd53	0.028181707
47	0x3d16331d	0.03666984
48	0xbc147f12	-0.009063499
49	0xbc5c82ec	-0.013458949
50	0xbd90b1cc	-0.07065162
51	0xbc025b13	-0.007956284
52	0xbcab9031	-0.02094278
53	0x3da09ec5	0.07842783
54	0x3d5e34ed	0.054249693
55	0xbd3b2be8	-0.04569617
56	0xbc54cbd3	-0.012988049
57	0xbc494dfd	-0.01228666
58	0x3d98ca88	0.07460505
59	0xbd6e0bf9	-0.058116887
60	0xbc95a481	-0.018266918
61	0xbd0421d4	-0.032258824
62	0x3a0d8995	0.00053992245
63	0x3c0d0938	0.008608155
64	0xbd320ec2	-0.043471105
65	0xbb9e4d54	-0.0048309956
66	0xbd9a667d	-0.07539079
67	0xbcbbacc6	-0.022909533
68	0xbad29233	-0.0016065299
69	0x3d86fd88	0.06591326
70	0x3abee8a0	0.0014565177
71	0xbc57b39d	-0.013165382
72	0xbdb328e9	-0.08748037
73	0x3cebe038	0.02879344
74	0xbd0d45b9	-0.03449032
75	0xbbf629c6	-0.007512304
76	0x3d3c3f57	0.045958843
77	0x3ca88daa	0.020575363
78	0xbcc77274	-0.024346568
79	0x3bb06742	0.005383403
80	0x3d32740b	0.0435677
81	0xbbd5dab7	-0.006526317
82	0x3cf6df6b	0.03013583
83	0xbc2b2008	-0.010444649
84	0x3d87cc61	0.06630779
85	0x3d2bfa6a	0.04198686
86	0x3d6fb330	0.058520496
87	0x3db54b83	0.08852293
88	0xbcf50c8a	-0.029913206
89	0xbc886691	-0.01665047
90	0xbd31b20d	-0.043382693
91	0xbd052fa1	-0.032516126
92	0x3cdcae22	0.026938502
93	0xbaf5d312	-0.001875492
94	0x3d6ad9bc	0.057336554
95	0x3d27d550	0.040974915
96	0x3d1979a1	0.03746951
97	0x3d2fcaf2	0.042918153
98	0x3c0a0c3e	0.00842577
99	0x3d805940	0.06267023
100	0x3d447ccd	0.04797058
101	0xbd243459	-0.040088985
102	0x3c1d8d97	0.009616277
103	0x3cf0df64	0.029403396
104	0xbf218d49	-0.6310621
105	0x3d47b9c8	0.04876116
106	0x3daccd75	0.08437625
107	0x3bd3210b	0.006443148
108	0xbd1bac23	-0.03800596
109	0xbd4586c3	-0.048224222
110	0x3d6b5b87	0.057460334
111	0xbc1b53aa	-0.009480396
112	0xbd43325e	-0.047655456
113	0x3d06e04a	0.032928742
114	0xbb61db80	-0.0034463108
115	0x3c163516	0.00916793
116	0xbd165346	-0.03670051
117	0x3d3bab56	0.045817696
118	0xbd362a8c	-0.04447417
119	0xbd9abda3	-0.075557016
120	0x3d20be12	0.039243765
121	0xbc95b97e	-0.018276926
122	0x3d314b75	0.043284852
123	0x3c9cb796	0.01913051
124	0xbccdfa01	-0.025143625
125	0x3ce5e1a6	0.0280617
126	0x3ce65e23	0.02812106
127	0x3db6e907	0.08931165
128	0xbb33a348	-0.0027410556
129	0xbcd25d34	-0.025679208
130	0xbd4cb34e	-0.049975686
131	0x3c8cbd4d	0.01718011
132	0xbcd2eb1e	-0.025746878
133	0x3bd9d025	0.006647127
134	0x3d0fcae6	0.03510561
135	0x3cafb55e	0.021448787
136	0xbcc29cfc	-0.023756497
137	0x3c49f2c1	0.012325943
138	0x3d1368f4	0.035988763
139	0xbccae72b	-0.024768433
140	0xbcd4dd09	-0.025984304
141	0x3ca07813	0.019588506
142	0x3ced02e9	0.028932052
143	0x3a0e99ca	0.00054397865
144	0x3d138837	0.036018576
145	0xbd121839	-0.03566763
146	0x3d692dd2	0.056928463
147	0x3d92a210	0.07159817
148	0xbbfcbdf5	-0.0077130743
149	0xbc602f74	-0.013683189
150	0xbcddbc6e	-0.02706739
151	0x3c74ea81	0.014948488
152	0x3cf3e11b	0.029770425
153	0xbcd5ec05	-0.02611352
154	0xbc4143bb	-0.011795933
155	0x3cd2cb47	0.025731696
156	0x3bc605fb	0.0060431934
157	0xbbc9e512	-0.0061613405
158	0x3c30fa1d	0.010801819
159	0x3d8138d4	0.06309667
160	0x3b89b882	0.0042029032
161	0x3d5f0cba	0.054455496
162	0xbe24ad82	-0.16081813
163	0x3cf6b85e	0.03011721
164	0xbcae0236	-0.021241289
165	0x3be1398e	0.006873316
166	0x3d4ebb72	0.05047173
167	0x3d7d6bcc	0.06187038
168	0x3ce2dd5f	0.027693449
169	0x3c811aac	0.015759788
170	0x3d3d6e7c	0.046247944
171	0x3b4745c2	0.003040657
172	0xbc666eb2	-0.014064478
173	0x3d698dc4	0.057019964
174	0xbcf0c78a	-0.029392023
175	0x3c93c14a	0.018036503
176	0xbce3e918	-0.027821109
177	0x3e07e80d	0.13272114
178	0x3d056a05	0.03257181
179	0x3d07cc59	0.033153865
180	0xbb5c25aa	-0.0033591785
181	0x3c5e37c5	0.013563101
182	0xbd6c729b	-0.057726484
183	0xbe511902	-0.20419696
184	0xbc7d55e8	-0.015462376
185	0xbe09c23f	-0.13453005
186	0x3d0da18e	0.0345779
187	0x3d0f4b65	0.03498401
188	0x3d57559a	0.05257187
189	0xbd235649	-0.03987721
190	0x3d06712f	0.032822784
191	0x3d99fd13	0.07518973
192	0xbd8ec081	-0.06970311
193	0xbcf631d8	-0.030053064
194	0xbd3b5fd3	-0.045745682
195	0xbcbec179	-0.023285614
196	0xbd20aaf9	-0.039225552
197	0xbd19cec1	-0.03755069
198	0xbcf4e86e	-0.029895987
199	0xbcb295c1	-0.021799924
200	0xbc2bf649	-0.010495731
201	0xbd42418b	-0.047425788
202	0x3d27a5f6	0.040929757
203	0xbd0db48e	-0.03459602
204	0xbcd57ca1	-0.026060404
205	0x3a90eee5	0.0011057524
206	0xbd01fd3a	-0.031735636
207	0xbcedcc33	-0.029028034
208	0xbd4e1faa	-0.050323166
209	0xbbcbecf9	-0.0062233177
210	0xbcb08582	-0.021548036
211	0xbba35db7	-0.004985537
212	0x3d60d316	0.054888807
213	0xbcfc30cd	-0.030784989
214	0xbcd75032	-0.026283357
215	0x3c9a390e	0.018826034
216	0xbc4eeb5a	-0.012629354
217	0xbbda1dd4	-0.006656388
218	0xbcb83133	-0.022484398
219	0x3d8ca03b	0.06866499
220	0x3dffd80e	0.12492381
221	0x3c950242	0.018189553
222	0xbc1606da	-0.009156907
223	0xbce133c3	-0.027490502
224	0xbc9fcc6a	-0.019506652
225	0xbd42d1c1	-0.04756332
226	0x3d21802d	0.03942888
227	0x3d8ba124	0.068178445
228	0x3d76fca4	0.06029953
229	0xbd291656	-0.041281067
230	0x3cdc215b	0.026871374
231	0xbd41171d	-0.047141183
232	0xbcbe2645	-0.023211608
233	0x3c82653a	0.01591741
234	0xbc5d9d74	-0.013526309
235	0xbd859b26	-0.06523733
236	0x3c4be2f8	0.01244425
237	0x3d924751	0.07142509
238	0x3cfcb0da	0.030846048
239	0xbd5cbd18	-0.05389127
240	0xbd97d8fb	-0.074144326
241	0x3af2da9e	0.0018528288
242	0x3cd0bad1	0.025479706
243	0xbcdc152c	-0.026865564
244	0x3d3d045c	0.046146736
245	0xbd9c3c8c	-0.07628736
246	0xbcbf928b	-0.023385307
247	0x3df551bf	0.119784825
248	0xbbb48348	-0.005508814
249	0xbd507578	-0.050893277
250	0x3c8626b6	0.01637588
251	0xbc45553e	-0.012044249
252	0xbca21a53	-0.019787943
253	0xbbeafa50	-0.007170953
254	0x3cba8071	0.022766324
255	0xbd22ffae	-0.039794616

bias f4 [128]
0	0x3e98cd4e	0.29844135
1	0xbd19c17f	-0.037538048
2	0xbd6e4c1d	-0.058178056
3	0xbb502eb9	-0.003176613
4	0xbc3080aa	-0.010772863
5	0x3da3a172	0.079897776
6	0x3ba63860	0.0050726384
7	0xbc3e2596	-0.011605641
8	0xbc90b33d	-0.017663592
9	0x3e22065c	0.15822738
10	0xbd447735	-0.047965247
11	0xbca9ffb6	-0.020751815
12	0x3dedce79	0.11611647
13	0xbd243e33	-0.04009838
14	0x3d322a29	0.04349724
15	0xbc603789	-0.013685116
16	0xbca897cf	-0.0205802
17	0xbd942f01	-0.07235528
18	0xbc0854c8	-0.008320995
19	0xbd4a8180	-0.049439907
20	0x3d0db48b	0.034596007
21	0xbd6046cc	-0.054755017
22	0x3e0b9839	0.13632287
23	0xbdef7ed1	-0.1169411
24	0x3e256059	0.16150035
25	0xbc9a8787	-0.018863453
26	0xbd7011dd	-0.058610786
27	0xbdb5d931	-0.088793166
28	0x3e0dcd3a	0.13847819
29	0x3d7e7e91	0.062132422
30	0xbda27f63	-0.07934453
31	0xbd2dca0a	-0.042429008
32	0xbe09caea	-0.13456312
33	0xbdb917ee	-0.09037767
34	0x3e315548	0.17317688
35	0xbdbd3f4b	-0.09240588
36	0x3b178d55	0.0023125012
37	0xbdca3e85	-0.09875206
38	0xbd9e5a20	-0.07732034
39	0xbd1b46ca	-0.037909307
40	0x3e3f92a2	0.1870828
41	0xbb7960f5	-0.0038052176
42	0x3e519bef	0.2046964
43	0xbd3c8d49	-0.046033178
44	0x3d5c84ff	0.053837772
45	0xbd14388e	-0.036186747
46	0x3e81c441	0.25345042
47	0xbcbe5d14	-0.023237742
48	0x3e66e8af	0.22549699
49	0x3b16d849	0.00230171
50	0xbdb89ad2	-0.09013905
51	0xbca62cc1	-0.020285012
52	0xbcdd9ac8	-0.027051345
53	0xbc5516b8	-0.013005905
54	0xbd96b080	-0.073578835
55	0xbcf720d8	-0.030167028
56	0xbe0c6553	-0.13710527
57	0xbd1354f9	-0.035969708
58	0xbd1cf0a9	-0.03831545
59	0x3cecc780	0.028903723
60	0xbd3598c2	-0.044335134
61	0xbd13da89	-0.036097083
62	0xbc4234db	-0.011853422
63	0xbcc99928	-0.024609163
64	0xbdb3ac0a	-0.08773048
65	0xbc68d47b	-0.014210816
66	0xbcc415a1	-0.023936095
67	0xbd75ee48	-0.060041696
68	0xbdf3ee9a	-0.11910744
69	0x3ca2701c	0.019828849
70	0xbd9d2a1f	-0.076740496
71	0x3d3378e1	0.04381645
72	0x3bfa3690	0.007635899
73	0xbda01ece	-0.078183755
74	0x3df9f063	0.12204053
75	0x3be039fa	0.006842849
76	0x3d4484d0	0.047978222
77	0x3e09728d	0.13422604
78	0xbcc34daf	-0.023840753
79	0xbc7dfce9	-0.015502193
80	0xbe170998	-0.14749753
81	0x3cc845a8	0.024447277
82	0x3b99e8e3	0.0046969517
83	0xbd03ca6e	-0.032175474
84	0x3e163da2	0.14671949
85	0xbcf9ae65	-0.030478666
86	0xbdb98ec1	-0.09060431
87	0xbda207c0	-0.079116344
88	0x3c9171c6	0.017754447
89	0x3e3028b5	0.17203029
90	0x3d982b92	0.074301854
91	0x3c736d38	0.014857583
92	0xbd8992f7	-0.067174844
93	0xbd8ed9a1	-0.06975103
94	0xbd25da2d	-0.04049127
95	0x3dbb3d6e	0.09142576
96	0xbd90454e	-0.07044469
97	0xbda8ce98	-0.0824253
98	0xbd5fa3ac	-0.05459945
99	0xbd745cb0	-0.059658706
100	0xbe10feff	-0.14159773
101	0xbdf5cf3a	-0.12002416
102	0xbddd9876	-0.10820095
103	0xbdbdd71d	-0.09269545
104	0xbdaca3e4	-0.08429697
105	0xbda2a729	-0.079420395
106	0x3c9d85f4	0.019228913
107	0xbd356862	-0.044289
108	0x3cc41e03	0.023940092
109	0x3cc3c9f9	0.023900019
110	0xbe022416	-0.12709078
111	0xbdc5528e	-0.09634887
112	0x3d249a4d	0.040186215
113	0xbdb1db91	-0.08684457
114	0xbd3d29b7	-0.04618236
115	0x3d3a2576	0.04544588
116	0xbd3dacc5	-0.046307344
117	0x3c0f1170	0.008732185
118	0x3def4c72	0.11684503
119	0xbd93fc37	-0.072258405
120	0x3b9c99d6	0.004779081
121	0x3d3f0ba6	0.04664197
122	0xbda21dd7	-0.07915848
123	0x3d6ed4cd	0.05830841
124	0xbdeb29fa	-0.11482616
125	0xbd97082e	-0.07374607
126	0xbdcb70c7	-0.0993362
127	0x3d98e304	0.07465175

weight f4 [60, 128]
0	0x3e124240	0.14283085
1	0xbd21c910	-0.03949839
2	0x3d49c4f5	0.0492601
3	0xbc3b85bf	-0.011445462
4	0x3c00b0ff	0.007854699
5	0x3ae13122	0.001718078
6	0x3b8c0bdc	0.0042738747
7	0xbd57503d	-0.052566756
8	0x3d695b01	0.056971554
9	0x39d739f3	0.0004105117
10	0x3d8ac81d	0.0677645
11	0x3ce8686f	0.02837011
12	0xbc20c71e	-0.009813098
13	0x3ae894cb	0.0017744539
14	0xbd9aa666	-0.07551269
15	0xbcde9fe8	-0.027175859
16	0xbd80c72f	-0.06287991
17	0x3d74da3b	0.059778433
18	0x3d87bac9	0.06627423
19	0xbc7cbfb1	-0.015426562
20	0xbce9d058	-0.028541729
21	0x3c2e7c6f	0.0106497845
22	0x3af1b3ab	0.0018440386
23	0xbdecf700	-0.11570549
24	0x3c6a5e3c	0.014304694
25	0x3d7f0a97	0.06226596
26	0x3cd65f40	0.026168466
27	0x3d1ca443	0.03824259
28	0x3bfe2afd	0.0077565894
29	0x3c3bff8d	0.011474502
30	0xbbd281fe	-0.0064241877
31	0xbda1e7da	-0.0790555
32	0x3c019910	0.007910028
33	0x3ad27539	0.0016056664
34	0x3b530ac8	0.003220247
35	0xbb099526	-0.002099344
36	0xbd08fe5d	-0.033445705
37	0x3b7b74d4	0.0038369196
38	0x3d820efb	0.063505135
39	0xbc4446c6	-0.011979764
40	0xbb60029e	-0.0034181247
41	0x3d853823	0.06504848
42	0xbcd4d236	-0.025979143
43	0x3c7c0999	0.015383148
44	0xbbd0394a	-0.0063544856
45	0x3c804c20	0.0156613
46	0x3d226a4d	0.039652158
47	0xbbc96119	-0.006145608
48	0x3cb2b63e	0.021815415
49	0x3c852d00	0.01625681
50	0x3d89596a	0.067065075
51	0xbd4c4c8d	-0.049877692
52	0xbd774939	-0.060372565
53	0x3c902b92	0.017598901
54	0xbbf89032	-0.007585549
55	0xbbfe0f2c	-0.0077532735
56	0xbc02dc22	-0.007987054
57	0x3c62e97f	0.013849615
58	0xbd46d75e	-0.048545234
59	0x3d23302d	0.039840866
60	0x3d7b7ecd	0.061400224
61	0xbcffcf6b	-0.031226834
62	0x3c032808	0.00800515
63	0x3b776d04	0.0037754187
64	0xbcd6bb2d	-0.0262123
65	0xbb78db13	-0.0037972375
66	0x3da21b6b	0.07915386
67	0xbb217c9d	-0.0024640926
68	0x3b1092d6	0.0022060177
69	0x3c091abc	0.00836819
70	0x3c9d9f71	0.019241067
71	0x3c2bc43f	0.0104838
72	0xbca3ca83	-0.019994026
73	0x3d2154bb	0.039387446
74	0xbc8b90ae	-0.017036762
75	0x3c1b0794	0.009462256
76	0xbc073d48	-0.008254357
77	0xb9ac7937	-0.0003289671
78	0xbb76860d	-0.0037616522
79	0xbc5296f8	-0.012853377
80	0x3c208f55	0.009799798
81	0xbb4702a5	-0.0030366566
82	0x3b11babe	0.002223655
83	0xbb56a8e8	-0.0032754485
84	0x3b71db0e	0.0036904248
85	0x3c5993cb	0.0132798655
86	0xbc9f0fc9	-0.019416707
87	0x3b0d0cfe	0.0021522637
88	0xbdd04890	-0.1017009
89	0xbbfef22e	-0.007780335
90	0x3d176f73	0.03697152
91	0x374fb36d	1.2379937e-05
92	0xbd8e7ff6	-0.06958
93	0xbd1b6e76	-0.03794714
94	0xbba05cbf	-0.0048938687
95	0xbb78fe69	-0.0037993437
96	0xb8fccb35	-0.00012054147
97	0xbd84eb62	-0.06490208
98	0xbdb9f583	-0.09080031
99	0x3c02bfac	0.007980268
100	0xbbc6df9b	-0.0060691363
101	0xbb804d39	-0.0039154557
102	0xbb84ed5c	-0.0040566158
103	0x3d294da6	0.041333817
104	0x3d5b16f9	0.053488705
105	0x3c670bab	0.014101903
106	0x3c2ecade	0.0106684845
107	0x3bcfc06e	0.006340078
108	0x3b68271f	0.0035423709
109	0xbb96cac7	-0.0046018097
110	0x3c449d73	0.012000429
111	0xbd264e2e	-0.0406019
112	0x3d436b5c	0.047709808
113	0x3a739159	0.0009291373
114	0x3d714db4	0.058911994
115	0x3bc2c58e	0.0059439605
116	0xbca58208	-0.020203605
117	0x3cb1b7f6	0.021694165
118	0x3d1aa11c	0.037751302
119	0x3c827892	0.015926633
120	0x3b2e6879	0.0026612564
121	0xbb68653c	-0.003546073
122	0xbd449907	-0.0479975
123	0x3aad5931	0.0013225434
124	0x3ae0031c	0.001709077
125	0xbd9f8fce	-0.077911004
126	0xbd2b0834	-0.04175587
127	0x3b259454	0.0025265412
128	0x39d4ec28	0.0004061174
129	0xbd0c3679	-0.034231637
130	0xbc03fc89	-0.008055815
131	0xbb992654	-0.0046737585
132	0x3dbbce48	0.091702044
133	0x3d80b8e8	0.06285268
134	0xba57fea3	-0.0008239543
135	0x3d204c86	0.03913548
136	0x3cffa220	0.031205237
137	0xba53fe4b	-0.0008086904
138	0xbd45f54b	-0.048329633
139	0xbdb34597	-0.087535076
140	0xbe443e42	-0.19164374
141	0xbe330365	-0.17481764
142	0xbd973cb3	-0.07384624
143	0xbac56212	-0.0015059134
144	0xbb376ff8	-0.0027990323
145	0xbbb7c909	-0.005608682
146	0x3d40e0b8	0.04708931
147	0xbd4b8c46	-0.049694322
148	0xbc987631	-0.018611046
149	0xbca3bff4	-0.019988991
150	0xbb1cc242	-0.0023919498
151	0xbd58debd	-0.052946795
152	0x39c7cb65	0.00038107779
153	0xbcd9803b	-0.026550403
154	0x3d59e827	0.053199913
155	0xbd1d4c4d	-0.038402844
156	0xbbb498fe	-0.005511402
157	0x3e2d22e4	0.16907841
158	0x3c3bc9fe	0.011461733
159	0xbce04616	-0.02737717
160	0x3e99f01a	0.30065995
161	0x3dc58afd	0.096456505
162	0x3c320f98	0.010867976
163	0x3e457b20	0.1928525
164	0xbcf9f261	-0.030511083
165	0x3f0c656d	0.54842263
166	0x3ce87f69	0.028381066
167	0x3bf78f96	0.0075549586
168	0x3a85e7c4	0.0010216166
169	0xbb6cc3af	-0.0036127379
170	0x3a01d87f	0.000495322
171	0x3cbf217c	0.023331396
172	0xbe04b8ea	-0.12961164
173	0xbddc4942	-0.1075616
174	0xb9cc84ef	-0.00039008955
175	0x3c1cda39	0.009573513
176	0x3b489ee1	0.0030612277
177	0x3ce0b098	0.027427956
178	0x3ca5bf6e	0.020232882
179	0x3d649670	0.05580753
180	0x3c5aa542	0.013345065
181	0x3db632d6	0.08896415
182	0xbddee2ae	-0.108830795
183	0x3eb0761c	0.3446511
184	0xbf019232	-0.506137
185	0x3ccb4fa8	0.024818256
186	0x3c47c395	0.0121926265
187	0xbda04234	-0.07825127
188	0x3c159f51	0.009132222
189	0x3ddb8517	0.10718744
190	0xbf1af106	-0.6052402
191	0x3d535949	0.05159882
192	0x3ced2cf6	0.028952103
193	0xbd54a24c	-0.05191259
194	0x3c92463e	0.01785576
195	0x3ecc4695	0.398976
196	0xbe142690	-0.14467835
197	0x3d94c902	0.07264902
198	0xbd851eb1	-0.064999945
199	0xbdef5de0	-0.11687827
200	0xbd741d6e	-0.05959838
201	0xbc2a9b89	-0.010413059
202	0xba6d96e0	-0.00090633146
203	0x3e17e9b1	0.1483524
204	0xbcbdbd64	-0.023161598
205	0xbe8628dc	-0.26203048
206	0x3db1bfc3	0.08679154
207	0xbd123f63	-0.03570498
208	0x3cd10204	0.025513656
209	0x3eb30a22	0.34968668
210	0x3b09aab5	0.002100629
211	0xbd921a62	-0.07133938
212	0x3dc0eb8d	0.09419928
213	0xbcaa65fc	-0.020800583
214	0x3c7ee70b	0.015558015
215	0x3ce226f1	0.02760646
216	0x3d7337b8	0.05937931
217	0xbba71f44	-0.0051001627
218	0x3b82d3ec	0.003992548
219	0x3ede2a08	0.43391442
220	0x3d28c970	0.04120773
221	0x3d07a40a	0.033115424
222	0xbdcb772e	-0.09934841
223	0xbda2533e	-0.079260334
224	0x3cf7465c	0.030184917
225	0x3c626fa4	0.0138205625
226	0x3d2640bd	0.040589083
227	0xbdb37d79	-0.087641664
228	0xbe8df80b	-0.27728304
229	0xbb9b03a4	-0.0047306586
230	0xbd70d3e3	-0.05879582
231	0x3c58f994	0.013243098
232	0xbbcdf79e	-0.006285622
233	0x3d8f324b	0.069920145
234	0x3d9d27c0	0.07673597
235	0x3dca2a66	0.09871368
236	0xbe7fe466	-0.24989471
237	0xbd8b8ac3	-0.06813576
238	0x3d5351b0	0.051591575
239	0xbc892ff1	-0.016746493
240	0x3c95471b	0.018222382
241	0xbcccaa53	-0.02498356
242	0xbd525b7d	-0.05135678
243	0xbe397917	-0.18112598
244	0x3cf355f8	0.029704079
245	0x3d893e10	0.067012906
246	0xbb9a8d3e	-0.0047165444
247	0xbd15c4d4	-0.036564663
248	0xbad702ce	-0.0016404034
249	0xbb764243	-0.0037576116
250	0xbd8efed9	-0.06982202
251	0x3e083f5d	0.13305421
252	0x3e24680c	0.16055316
253	0x3ccae721	0.024768414
254	0x3cd55977	0.026043637
255	0x3c7acef5	0.015308131

bias f4 [60]
0	0x38bff7b2	9.1537266e-05
1	0x3a05fc32	0.00051111274
2	0x38fd2d61	0.000120724326
3	0x39c91402	0.00038352615
4	0xb8088a22	-3.2553573e-05
5	0x3a2eb377	0.00066643156
6	0x3930ff8a	0.00016879864
7	0x39e76102	0.0004413203
8	0x39314cc8	0.00016908639
9	0x398cac3a	0.000268312
10	0x39288773	0.00016072187
11	0x399359dc	0.00028104975
12	0xb92e1222	-0.00016600688
13	0x39e1df4d	0.00043081716
14	0x38c21104	9.25381e-05
15	0x39946143	0.00028301225
16	0x389b748a	7.412683e-05
17	0x38af8c34	8.370765e-05
18	0xb9256553	-0.00015773372
19	0xb95603ce	-0.00020410048
20	0xb89d5f53	-7.504099e-05
21	0x38bcf913	9.010932e-05
22	0xb8f1184b	-0.000114963004
23	0xb88d2eea	-6.732142e-05
24	0x380cc4d0	3.3561897e-05
25	0xb94fb639	-0.00019808942
26	0x39342e54	0.00017183396
27	0x389f38d3	7.592295e-05
28	0xb8328602	-4.256331e-05
29	0xb982984f	-0.0002490901
30	0xb88d9f96	-6.753129e-05
31	0xb9234709	-0.00015571354
32	0xb68a14c8	-4.1151397e-06
33	0xb99c2eae	-0.00029789418
34	0xb9338cff	-0.00017123295
35	0x3858e7bd	5.1714236e-05
36	0x384a2272	4.8192633e-05
37	0xb89bee3e	-7.435352e-05
38	0x3884a210	6.324437e-05
39	0xb9b80fb2	-0.0003510691
40	0x37e2ebf8	2.7051181e-05
41	0xb930f919	-0.00016877464
42	0xb90cd01b	-0.00013428966
43	0x37926f6c	1.7456441e-05
44	0x39192ead	0.00014608605
45	0x38884efe	6.499699e-05
46	0xb8ef973b	-0.00011424577
47	0x3849e69e	4.8136913e-05
48	0x39467736	0.00018927161
49	0xb8d89955	-0.00010328243
50	0x398f43f2	0.0002732571
51	0x39554fbf	0.0002034297
52	0xb981f7f8	-0.00024789548
53	0xb885577f	-6.3582316e-05
54	0x39392d51	0.00017659857
55	0xb8eaa2a2	-0.00011188282
56	0x39824f9b	0.00024854843
57	0xb9b8acbe	-0.00035223918
58	0xb96a31b3	-0.00022334493
59	0x3905adc3	0.000127486
