linearPredictionModels/db39/mega/cleanedCombine.csv_wholeNetPrototype5_Epochs_4_ValidationLoss0.465718_lr0.0006_2023_08_11_21:59:56.pth (torch, 992669 bytes, 8 tensors)

weight f4 [512, 145]
000000 6a 4e f1 bd f7 cc c0 3d b3 42 02 bd 1d 26 12 be
       -0.117825344 0.09414094 -0.03180189 -0.14272352
000010 79 23 4e 3c 41 aa 87 bb 14 7e 2f bd 8d 00 92 bb
       0.0125816995 -0.004140169 -0.042844847 -0.004455632
000020 b5 50 b3 3d 61 5b a7 3d 8d 2a 86 bd b0 45 17 3d
       0.08755628 0.08171726 -0.06551085 0.036931694
000030 f0 0a 41 bd c8 7e ea 3c dc a4 dc 3c 9d c4 c2 bc
       -0.04712957 0.028624907 0.02693408 -0.023775393
000040 49 47 9a bd da c0 25 bd 2d cb f4 bd 02 45 af 3d
       -0.07533128 -0.04046712 -0.11952815 0.08558084
000050 8c 15 47 3d a2 10 4f bd 94 1d 32 3c 1d 7e a8 bb
       0.048604533 -0.05055297 0.01087131 -0.005141987
000060 15 4c 90 bc 41 35 a1 bd 95 0d 2b bd af b4 47 3d
       -0.017614404 -0.078714855 -0.041761 0.048756298
000070 fa 90 32 3d d2 ae 38 3d dd 6b 5a bd 76 c8 37 be
       0.04359529 0.045088597 -0.053325523 -0.17947564
000080 53 02 b0 3d 0b 0f 1a 3d 7b 32 99 3d c1 4a c5 3c
       0.08594193 0.037612002 0.074803315 0.024083497
000090 82 ac 0b bd 44 93 f0 3c 93 87 e1 bc 89 7f 28 3d
       -0.034100063 0.029367097 -0.027530467 0.041137252
0000a0 98 5d be bc 9d 1c 59 b9 97 c2 41 3d 31 f5 8a 3d
       -0.023237988 -0.00020705392 0.047304716 0.06785048
0000b0 2d 72 03 bd 7c 81 9e 3d a7 29 02 be 82 00 a9 3d
       -0.03209131 0.07739541 -0.12711202 0.0825205
0000c0 34 68 39 3d 7f 63 45 3d 0d 73 92 3d 7c c0 83 bd
       0.04526539 0.04819059 0.071508504 -0.06433198
0000d0 22 be d1 bd bd e7 8d bc 56 16 c9 bc 04 64 d0 bd
       -0.10241343 -0.017322415 -0.024546783 -0.101753265
0000e0 3f 00 65 3c 8b 18 3b bd da f3 46 bd bd 27 00 be
       0.013977109 -0.045677703 -0.0485724 -0.12515159
0000f0 5f 14 ca bd 80 4c e5 3b c3 df c9 bd 8a 5e 26 3d
       -0.09867167 0.006997645 -0.09857132 0.040617503
000100 70 5a 06 bf 0c 7f 1e be b7 ae 64 3b fa 07 7d 3d
       -0.52481747 -0.15478152 0.0034894177 0.061775185
000110 69 4e 33 3d ec c4 6e bc 14 83 85 3d 56 e8 4b bc
       0.04377595 -0.014573317 0.06519142 -0.01244553
000120 da 4d 01 be d9 60 f6 3c 67 43 cc bd 9b 3d 20 bd
       -0.12627354 0.030075477 -0.099737935 -0.03912125
000130 1e 70 fc 3d 2e ed 9e 3d f7 62 4c bc 38 0e 6b bc
       0.12326072 0.07760082 -0.012474767 -0.014346652
000140 2d 4b 0c bd 43 e3 40 3d a9 32 58 3d a5 3f a5 3c
       -0.03425138 0.047091734 0.05278269 0.02017195
000150 f5 af 22 3c 53 8e f5 3d 5c 2f 19 bd 14 3e 32 bc
       0.009929647 0.11990037 -0.03739868 -0.010879058
000160 b9 5f a8 3b 9f 6e da bc fb 73 21 bd 3c 0b f0 3d
       0.005138364 -0.026664076 -0.03941725 0.11720893
000170 1a c2 ce bc dd a5 e8 3c 8b 97 e3 3c d3 0a f6 bc
       -0.02523904 0.028399402 0.027782222 -0.030034458
000180 1f fa be 3c d8 36 5f bc 3b f8 64 3c ff 2c 78 bc
       0.023312626 -0.013623916 0.013975198 -0.015147447
000190 56 5d 43 3d ec 7e 30 3c 85 a7 3a 3d 08 d9 47 bc
       0.047696434 0.010772448 0.045569915 -0.01219774
0001a0 95 40 20 bd 3b e8 4d bb e8 fc 41 bd 0e 1c ab 3d
       -0.03912409 -0.0031418938 -0.04736033 0.083549604
0001b0 33 72 9f 3d d4 33 88 3d 63 f3 02 bc 88 72 bb bd
       0.07785454 0.066505104 -0.007992598 -0.091527045
0001c0 87 27 3e 3d f5 d5 80 bd b3 47 02 3d 5e 7c bb bc
       0.046424415 -0.06290809 0.03180666 -0.022886451
0001d0 37 df 02 3c 1c a1 86 3d 29 5b 40 3c 88 bd 67 bb
       0.007987789 0.06573698 0.011740484 -0.0035360772
0001e0 b4 49 f2 3d bc 75 67 3d 99 11 04 3d 25 c7 bf bd
       0.11830464 0.056508765 0.032243345 -0.09364156
0001f0 af 6f ec 3a 4c 6b 2e bd 6a b3 52 bc ab 34 55 bd
       0.0018038655 -0.042582795 -0.012860158 -0.05205218
000200 cf df 85 3d 27 2d cb 3a 60 1d 81 bc 50 37 71 bd
       0.06536829 0.0015501127 -0.015761077 -0.05889064
000210 0b fc 74 bd 1d 6b 85 3b eb ab c1 3c b9 ba 00 3d
       -0.05981068 0.004071607 0.023641547 0.031428073
000220 d0 81 86 3b bf 16 41 bd 1c 58 a4 bc ed 93 8a bd
       0.0041048303 -0.047140833 -0.020061545 -0.06766496
000230 73 35 48 bd 35 7c 68 3b 58 58 8f bd 88 90 82 3d
       -0.0488791 0.0035474424 -0.06999272 0.063752234
000240 f2 db 5e 3d dc cc 9a bd 2c 58 c6 bc d4 b2 99 3c
       0.054408975 -0.07558605 -0.024211966 0.01876203
000250 67 6d 21 bd f9 fc 69 3c 51 98 83 3d 43 07 48 3b
       -0.039410975 0.014281505 0.064255364 0.0030521906
000260 fe ca 91 3d 23 c1 4f 3d 0b 69 81 3d c4 00 ad 3d
       0.07118796 0.0507213 0.063188635 0.08447412
000270 f0 4b 33 3d 8f 0a d3 3c 83 f2 3f bd bb a4 39 3d
       0.04377359 0.02576187 -0.046862137 0.045323115
000280 bd ba 08 bd 96 ea f2 3c 7a 88 f8 3a a1 25 d2 bb
       -0.033381213 0.029652875 0.0018961572 -0.006413177
000290 33 d1 a2 3d 81 d2 8f 3d 3b 58 b7 bb 85 15 95 bd
       0.07950058 0.07022572 -0.0055952347 -0.07279495
0002a0 d1 46 05 bd 2f 15 3f bd fc d6 1f 3d fd 39 d9 3c
       -0.03253824 -0.04665106 0.039023384 0.026516909
0002b0 b5 1e 4d bd e5 89 93 3d 55 b5 f6 3c e3 15 0a bc
       -0.050078113 0.07204036 0.030115763 -0.00842807
0002c0 74 a8 ae bb 16 9d 86 bd 86 8e d1 bb 74 5e f9 bc
       -0.00533014 -0.065729305 -0.006395164 -0.030440547
0002d0 9c 10 91 3d 23 07 35 bd 9b 60 53 bd 7f de 8d bc
       0.07083246 -0.04419626 -0.051605802 -0.017318008
0002e0 eb 17 0a bc 93 fb 83 bd 97 5d 29 bd bd 00 72 bd
       -0.008428554 -0.06444468 -0.04134902 -0.059082735
0002f0 00 f4 55 3c 6e 2f 79 bd c7 53 22 3d 76 3e 6e 3d
       0.013058662 -0.060836248 0.039630678 0.058165036
000300 1d 76 54 3c 52 3a 64 3d 77 5a 8d bb 39 d1 cd bc
       0.0129676135 0.05571968 -0.0043137628 -0.02512418
000310 b9 19 97 bd 83 d6 35 bd d4 46 63 3c e6 36 0a 3d
       -0.07377953 -0.044394027 0.013871867 0.03374376
000320 83 a5 61 3d 55 c6 46 bc 9b 0b 33 bd f0 55 74 bd
       0.055089485 -0.012132247 -0.04371224 -0.05965227
000330 b1 fb 80 bd 71 3b cd bb 67 3b f9 3c 56 39 63 3d
       -0.06298006 -0.0062631895 0.030423833 0.0554746
000340 1b b9 b5 3c da e4 7d 3f bd ed 02 bd 4d 39 5e 3c
       0.022182992 0.99177325 -0.031965006 0.013563466
000350 60 74 25 bc fd 0d 3d 3c 6c 8c 36 bc 5d 0e be 3d
       -0.010098547 0.01153898 -0.011141878 0.09280083
000360 d7 ed 76 3d 9f 44 15 bd 81 35 97 bd bf e0 68 3d
       0.060285416 -0.036442395 -0.07383252 0.05685496
000370 a9 93 0e 3e 07 c1 53 bd 3e d0 c8 3d ad 39 c4 bc
       0.13923515 -0.051697757 0.09805344 -0.023953283
000380 e2 3d 53 bc ca 6b 2d 3b 6c 48 13 bd d1 99 a1 bd
       -0.012893172 0.0026461952 -0.03595774 -0.07890666
000390 57 ce 19 bd 51 ba 8c ba e0 1a 17 3d 43 97 2f bd
       -0.037550297 -0.0010736679 0.036890864 -0.042868864
0003a0 27 71 34 3d 6a 8c 88 bc 06 b2 e8 bb 3d 9b 7e 3d
       0.044053223 -0.016668517 -0.0071013 0.062159766
0003b0 66 87 7e bd d1 d6 36 bd c2 4f 94 bc ba 83 61 3d
       -0.062140845 -0.04463846 -0.018104438 0.055057265
0003c0 27 3f 16 bd 71 42 2d 3d ff ef 54 bd 7f eb a0 3c
       -0.03668132 0.04229969 -0.05198669 0.019643543
0003d0 2a c5 50 bd a9 e8 b8 bb 32 1f 19 3d 43 92 15 bd
       -0.05096928 -0.0056429696 0.037383266 -0.03651644
0003e0 ed 12 c8 3b b2 ef ef bb 6c f5 14 3d f2 83 98 bd
       0.0061057718 -0.007322275 0.036366865 -0.074470416
0003f0 47 b2 b2 3d 4a 5e ab 3b 2f 68 9b bd d8 09 0f 3d
       0.0872541 0.005229746 -0.07588231 0.034921497

bias f4 [512]
000000 42 81 e0 3b 97 ec 4c 3d 9c 2b 5a bd 55 63 1b 3c
       0.006851346 0.050030317 -0.053264245 0.009484132
000010 13 12 26 bd 88 a4 ac bc 94 e8 00 bd 8d be 59 bd
       -0.04054458 -0.021074548 -0.031471804 -0.05316024
000020 f5 f4 7e bd 26 d8 41 bd 6a 1d d4 bd cd 76 15 3d
       -0.062245328 -0.047325276 -0.10357173 0.03649025
000030 83 2f 8e bc f9 cb c1 bd fb e8 47 3d ca 3e 7b 3d
       -0.01735664 -0.09462733 0.048806172 0.061339177
000040 83 92 40 3d cf 46 af 3c 33 b3 90 3c 4d 3c 3d bd
       0.047014724 0.021396069 0.017663574 -0.046200085
000050 75 0c ec bc 43 de 14 bc cb ef ee bd 2c 0c 71 3c
       -0.028814534 -0.009086194 -0.11666831 0.014712375
000060 95 d3 5a 3d 5c 2c 8b 3b 97 92 7b bd ae 3f 31 bd
       0.053424437 0.0042472314 -0.061419096 -0.04327362
000070 17 a6 4f bb 6b f4 51 bd 14 af e9 3b a1 f0 55 bc
       -0.003168469 -0.051258486 0.0071314666 -0.013057859
000080 39 2f 84 3d 63 8a 82 bb 2f 3d 05 ba ee ee 23 3d
       0.064543195 -0.003983782 -0.00050826644 0.040022783
000090 f1 8e 15 be ce 92 e1 3c c6 37 75 bd ed 9b a5 bb
       -0.14605309 0.027535822 -0.059867643 -0.005053988
0000a0 12 8c 3d 3d 73 00 c1 bc 69 96 07 bd 0f 63 d0 bc
       0.04627616 -0.023559785 -0.033102427 -0.02543786
0000b0 2e 59 09 bd 44 b6 09 3d ce 3b 1f bd ef 4c 35 3d
       -0.033532314 0.033621088 -0.038875394 0.044262823
0000c0 e1 58 36 bc c5 fd fb bd 4d 51 c4 3c 3a c8 15 bc
       -0.011129589 -0.12304262 0.023964548 -0.009141976
0000d0 52 51 61 3c ae 6a cd bc 0c b1 9e bd 76 02 55 3c
       0.013752298 -0.025075283 -0.07748613 0.013001075
0000e0 fa 73 42 3d 62 d7 7e bd 22 15 a2 bd a5 d9 3b 3d
       0.047473885 -0.062217124 -0.07914187 0.04586186
0000f0 9a 12 1d 3b c0 60 90 bc be 1f ef bd 89 04 8f bc
       0.0023967386 -0.017624259 -0.11675976 -0.017458217
000100 dd ed 92 bd 06 9b 99 bd 83 46 db bd e1 07 ce bb
       -0.07174275 -0.075002715 -0.107068084 -0.0062875603
000110 6c 2c 62 3d 5f a3 94 bd 04 6b 59 3d 57 81 52 bd
       0.055218145 -0.07257723 0.053080574 -0.05139288
000120 b8 12 44 3d b2 bd 59 3d 10 47 17 39 e3 d0 2e bd
       0.047869414 0.053159423 0.00014426955 -0.04267968
000130 f8 51 8c 3b 37 a8 0c bd e2 09 ff bb c2 ad 04 3d
       0.0042822324 -0.03434011 -0.0077831605 0.03239227
000140 71 94 8b bd 13 4e ad bc f4 a0 d3 bc b0 19 0d 3d
       -0.06815422 -0.021155393 -0.025833584 0.034448326
000150 47 7d 9c 3d df 83 9b 3d 58 f2 28 3d 25 0a 91 bd
       0.07641082 0.07593512 0.041246742 -0.07082013
000160 c5 7b 36 bd ba f7 50 3c 91 09 6a bd 15 97 80 bc
       -0.04455163 0.012754375 -0.05713803 -0.015697042
000170 ad 29 f3 bc cc 6c 22 3d f7 0a af bc ed e6 06 bd
       -0.029682958 0.039654538 -0.021367533 -0.03293507
000180 8e e5 a3 bc d5 3b ab bd 6c 15 8f 3d 67 5b 65 bc
       -0.020006921 -0.083610214 0.06986508 -0.013998843
000190 c0 44 b8 bc cf 89 47 3d d8 11 97 3d 83 53 46 bd
       -0.02249372 0.04871541 0.0737645 -0.048419487
0001a0 06 e2 f5 3c d4 5a 47 3d 65 04 9a bc 08 29 1f 3a
       0.030015003 0.048670605 -0.018800924 0.0006071483
0001b0 e2 9e ae 3c 08 72 13 3d e3 02 30 3c 41 16 32 3d
       0.021315996 0.03599742 0.010742876 0.043478254
0001c0 d0 e3 e5 3c 2b f7 64 bd 21 cb 7f 3d 46 32 4f 3d
       0.028062731 -0.05589978 0.06244958 0.050585054
0001d0 de 9e 33 bd 65 b2 5b bd 31 44 64 bc 14 60 00 bd
       -0.04385268 -0.053636927 -0.013932274 -0.031341627
0001e0 28 d6 63 bd 39 b6 97 bc f2 bb 7a bd e3 d1 39 3c
       -0.055624157 -0.018519508 -0.061214395 0.011341545
0001f0 e1 32 c0 3c 28 cb 42 3d 0f 47 39 bd 0a 2b 3b 3c
       0.023461761 0.047557026 -0.045233782 0.0114238355
000200 a3 f0 a9 bd 43 5d 9c 3d fa 53 85 b9 32 2d 7c bd
       -0.08297851 0.07634976 -0.00025430304 -0.06156654
000210 9e c6 b9 bc e8 d1 ef bc 5f cb 5f 3d 42 56 e0 bd
       -0.022677716 -0.029274896 0.05463731 -0.10953952
000220 a0 5a 38 bd 0e 01 aa bd 4a 33 11 bc 43 83 50 3d
       -0.0450083 -0.083009824 -0.008862326 0.05090643
000230 b7 1a 29 bd 46 27 92 bd 3b 1c c3 3c b4 2a 8d bd
       -0.041285243 -0.07136397 0.023817172 -0.068929106
000240 63 c7 c1 3c 29 f5 b6 3d f0 1e d7 3b d1 2e bb bb
       0.023654645 0.08933479 0.0065649673 -0.005712368
000250 e2 08 39 3d 41 6f 93 3d 74 cd 98 bb 75 a2 86 3c
       0.045174487 0.071989544 -0.004663164 0.016434887
000260 6b 89 20 3c 4d 07 87 bb 8f 40 0a bd 0c 90 15 bd
       0.009798388 -0.0041207434 -0.033752974 -0.036514327
000270 e3 0e 72 3d c0 7c 0b 3c 53 44 55 3c f6 8c a3 bd
       0.05909623 0.008513629 0.013016778 -0.079858705
000280 00 f0 8d bd 93 25 7a bc f5 fd 08 bc ed 35 8b bd
       -0.06930542 -0.015267747 -0.008361329 -0.06797395
000290 66 cd c2 bd 31 ba 9e bd f9 d9 a0 bc 0e 6a 93 3c
       -0.09511833 -0.07750357 -0.019635187 0.017994907
0002a0 42 21 b8 bd 43 3b de 3b 06 f5 33 bb 99 f9 91 bd
       -0.089907184 0.006781967 -0.0027459278 -0.07127685
0002b0 48 f0 6b bb 00 de 54 3d a2 95 34 3c 1e 88 13 bd
       -0.0036001373 0.05196953 0.011022003 -0.036018483
0002c0 3a e7 ba 3d 37 54 d7 bd a8 f9 92 3d cc 84 96 3d
       0.09126134 -0.105141096 0.071765244 0.07349548
0002d0 cc cc b2 bd ec e9 03 3d bb 2e 58 bd 4d 90 f6 bb
       -0.08730468 0.032205507 -0.05277894 -0.007524526
0002e0 4c b1 4e bd c8 84 a4 bb bb a7 1a 3d 15 1a 5f 3c
       -0.050462052 -0.0050207116 0.037757616 0.013617058
0002f0 a6 18 a9 bc 71 50 ce 3d 0a 40 16 3d 5f 52 ee bd
       -0.020641636 0.10073937 0.036682166 -0.11636805
000300 87 5a 18 bd bf de 71 bd 42 10 fa bc f5 8a 92 bd
       -0.03719571 -0.059050318 -0.03052533 -0.0715541
000310 50 7d 4b bd e9 79 81 bd 7a 12 9e bd be c0 1d bd
       -0.049680054 -0.06322081 -0.07718368 -0.03851389
000320 ca 96 dc 3c 98 2d 8d bd 46 be 64 3d da 9c d4 3b
       0.02692737 -0.06893462 0.05584552 0.0064884247
000330 ba 02 f4 bd 91 03 4e bd 14 46 a8 3c 83 bd a5 bd
       -0.119145826 -0.05029637 0.020541228 -0.08092787
000340 dd fa cf bd 6a e3 84 3d ac 8e 26 bd f1 ba 04 bd
       -0.1015527 0.06488688 -0.040663406 -0.032404844
000350 77 d1 b2 3d a3 79 32 3b 50 05 03 3b 79 be 92 3d
       0.087313585 0.0027233146 0.001999218 0.07165236
000360 da 22 83 bd 79 e0 c5 3c f4 b4 b3 bd 9f a2 be bd
       -0.06403132 0.024154888 -0.087747484 -0.09308361
000370 69 78 5b bd 0f 35 96 bd ef 9c a4 bd 18 f5 2e bd
       -0.05358163 -0.07334339 -0.08037745 -0.04271421
000380 01 7a 61 bb d2 08 0d bd b8 70 88 bd 8b c5 b2 bd
       -0.0034404995 -0.03443224 -0.066621244 -0.087290846
000390 6b 22 36 bd 9e 8f b9 3d 01 35 97 bd 73 29 5e bc
       -0.044466417 0.09060596 -0.073831566 -0.013559687
0003a0 d7 53 6e 3c a4 f8 a8 3d a4 8b 9b 3b 6e 15 e2 39
       0.014546356 0.082505494 0.004746871 0.00043122045
0003b0 38 7c 98 bd da f4 f6 bb 08 43 6c 3b 2e c5 77 bd
       -0.07445568 -0.007536513 0.0036050696 -0.06049078
0003c0 aa 50 3f bc 12 39 8a 3c a6 c4 ed bd dc 7e 64 bb
       -0.011676947 0.016872916 -0.11609773 -0.0034865653
0003d0 96 8b c7 3b 84 fb 9a bc 9c bc c1 bd 29 b6 3f bd
       0.006089638 -0.01891876 -0.094598025 -0.04680458
0003e0 1d e1 12 bd 35 54 7a 3b fe b2 bb bb 86 55 3f 3d
       -0.035859216 0.0038197164 -0.0057281246 0.04671242
0003f0 44 ec 1b 3c 7b 9f bc bc 05 54 48 3d 5f 75 16 3d
       0.009516779 -0.023025265 0.048908252 0.036733028

weight f4 [256, 512]
000000 6d 78 9c bb fa da 1e bd 6f b9 a2 bc 65 8a 93 bb
       -0.004775098 -0.03878305 -0.019863812 -0.004502582
000010 75 23 ab 3c c0 b1 cb bc 20 a9 2a bd 74 e3 9d bb
       0.02089093 -0.024865031 -0.041665196 -0.0048183743
000020 3b 51 13 3c 87 1a 00 bd b3 0f 08 bd 2f 23 00 bd
       0.008991535 -0.0312753 -0.033218097 -0.031283554
000030 3b 77 c6 3c b5 03 3c 3c 8e 7c b0 3c 15 c1 ce 3c
       0.024226775 0.011475493 0.021543767 0.025238553
000040 a9 5b 58 bb 83 fe 77 3b 78 06 4f bd 11 7e 32 3c
       -0.0033013618 0.003784091 -0.05054328 0.010894314
000050 f5 f8 b3 bc 75 7c 80 3c 87 3c c4 bc 98 a6 9c bc
       -0.021969298 0.015684346 -0.023954643 -0.019122407
000060 48 9b a4 bc 6d be 22 3d 01 51 76 3b c8 2f 4a 3b
       -0.020093575 0.039732385 0.0037584903 0.0030851234
000070 ff 1d 3a b9 bf ee 3d bd fc 79 ca 3c d5 2b 2b 3c
       -0.00017749517 -0.046370264 0.02471637 0.010447462
000080 a5 68 06 3d c1 82 01 bc ae 00 59 3c 4d e2 9d 3c
       0.03281464 -0.007904709 0.013244791 0.019272948
000090 63 f9 81 bc bf eb e3 3b de dc 2f bc 88 71 74 bc
       -0.015865987 0.0069555934 -0.010733811 -0.014919646
0000a0 02 a8 7d bc 14 ea 2e bd f2 e8 e0 bc 9e 2a 78 3c
       -0.015481951 -0.042703703 -0.027454827 0.0151468795
0000b0 97 d7 7c 3c c5 d2 3c 3c 70 6e 25 bd 94 87 48 bd
       0.01543226 0.011524861 -0.040388525 -0.048957422
0000c0 ef f0 a7 3c 97 1d 54 bb 4e 4f 05 bd f8 0c 92 bc
       0.020500628 -0.003236627 -0.032546334 -0.01782845
0000d0 bc ee 32 bd 1c c9 52 bd 11 fe d0 bc 21 0a 51 bd
       -0.043684706 -0.051461324 -0.025511773 -0.05103505
0000e0 b2 0e 8d bb 7c 4e 2f bd c8 3d 8b bc 97 d0 53 bd
       -0.0043047303 -0.042799458 -0.016997233 -0.0517126
0000f0 9c 7c 3e bd 64 09 fa bb 1f bf 9e 3c fb bc 13 bd
       -0.046505556 -0.007630514 0.019378243 -0.036068898
000100 f1 a0 da bc 4d d1 22 bd 3d a4 6a 3c c7 3f 91 bc
       -0.026688071 -0.039750386 0.014321384 -0.017730607
000110 aa 0a 85 3c bc 44 57 3c ed 18 f8 bc 68 3f 0a 3d
       0.016240437 0.013138946 -0.030285323 0.033751875
000120 ea 18 00 bd 89 36 8b bc bc be 8d bc 9b f3 22 bd
       -0.03127376 -0.016993778 -0.017302863 -0.0397831
000130 4a 6b d5 3b 0c 7f 7f 3c d0 4b 8c bc 26 1f 9d 3c
       0.006513034 0.015594255 -0.017125994 0.019179892
000140 99 19 22 bc cb ab 22 bd c9 ce aa bc 53 4e a7 bb
       -0.009893798 -0.039714616 -0.020850556 -0.0051057725
000150 52 f6 a7 bc ad 11 c9 3c 38 5c c5 3b ed a9 05 bc
       -0.020503197 0.024544561 0.006022956 -0.008158189
000160 ea c5 02 bd e6 66 67 3a 5e 79 12 bd 98 fd 98 bc
       -0.031927027 0.0008827284 -0.035760276 -0.01867561
000170 40 92 07 bb c9 62 10 bd 1f 06 4a bd 96 33 b9 3c
       -0.0020686537 -0.03525046 -0.049322244 0.022607606
000180 2d 96 7c 3c 36 3c 03 bc df 28 24 3c c0 77 5e bb
       0.015416664 -0.008009961 0.01001951 -0.0033945888
000190 c5 78 f7 bb f5 ca 04 3d bd 4b b8 bc 32 d3 94 bc
       -0.0075522386 0.032420117 -0.022497052 -0.018167112
0001a0 aa a5 3f bb d0 41 24 3a 02 ea 9a bc 8b 75 83 bc
       -0.002924303 0.00062659103 -0.018910412 -0.01604726
0001b0 89 34 99 3c 47 3d 25 3c b4 76 d0 3b 7c 09 1c 3d
       0.018701809 0.01008541 0.0063618068 0.038094983
0001c0 22 e7 08 3c a4 6b 13 bd b3 20 01 3d f8 f7 07 bd
       0.008355888 -0.035991326 0.031525325 -0.033195466
0001d0 65 9a 08 bd 4d de e7 3c 2c e8 ed 3b 7c 64 aa bc
       -0.033350367 0.028304243 0.007260343 -0.020799868
0001e0 2c e9 1e bd d4 8a a9 3c 18 5f aa 3c 98 1d 2a bd
       -0.03879659 0.020696081 0.020797297 -0.04153213
0001f0 b0 14 f6 bc 52 51 ee bb ec 8c 0e bd d9 76 16 bd
       -0.030039161 -0.0072728777 -0.034802362 -0.036734436
000200 02 8b 61 3b 00 d3 c2 3c d6 a3 2b bd 22 6d a4 3c
       0.003441513 0.023782253 -0.041904293 0.02007157
000210 9e c6 c6 3c 83 0f c1 bc 7f 62 96 bc 27 cb 5a 3c
       0.02426463 -0.023566967 -0.018357513 0.013354099
000220 b6 fd ff bc a6 32 e9 3c 48 6f 0e 3d 2b 8c 0e 3a
       -0.031248908 0.028466534 0.034774095 0.0005437757
000230 53 eb 8e bc 27 5b a1 3c c5 9d 7c 3c 59 d9 8f bc
       -0.017446196 0.019696785 0.015418475 -0.017559694
000240 f8 10 22 bd e0 52 54 bc a6 17 9c 3c ce cc a7 bc
       -0.039566964 -0.012959212 0.019054245 -0.0204834
000250 38 f6 32 bd 6d fe 1e 3c cc d2 d2 bb e3 f0 d5 bc
       -0.043691844 0.0097042145 -0.0064338204 -0.02611584
000260 a3 07 30 3a 71 ee 13 bc 80 7e 55 3c 3a 94 36 bd
       0.0006715005 -0.009029017 0.013030648 -0.044574954
000270 54 28 eb bc 86 71 11 3d 40 84 48 bd 83 05 e6 3b
       -0.028705753 0.035508655 -0.04895425 0.0070197
000280 f1 86 fc 3c 1e 8d 21 bd 73 93 02 bd 37 db f5 bc
       0.030826064 -0.03944122 -0.0318789 -0.030011756
000290 40 66 54 bc 2a 7a 11 bd dc f4 15 3b 8c df 8b 3b
       -0.012963831 -0.035516895 0.0022881543 0.004268592
0002a0 0b c0 99 bc e2 0f 7e 3c 94 10 10 bb ad f5 d3 bc
       -0.018768331 0.015506716 -0.0021982538 -0.025873983
0002b0 a8 c0 f6 bc d4 ce 93 bc 6f 2a c3 3c 7a 91 27 bc
       -0.030121163 -0.01804296 0.023823945 -0.010227555
0002c0 37 ec ce 3c 78 61 b1 3c e5 59 0a bd 23 f2 e2 bc
       0.02525912 0.021652922 -0.033777136 -0.02770335
0002d0 18 33 ab 3c ed 9e 3f bc b3 c5 67 3c 7a 6b b0 bb
       0.020898387 -0.011695606 0.014146256 -0.005383906
0002e0 4b 3f cc bc 53 2b 1d bd dd 3b 2b bd 9d 3f 42 3c
       -0.024932524 -0.038371395 -0.041805137 0.011855987
0002f0 7b 06 5c bd a9 d2 00 bd 77 50 31 bd e7 44 12 bd
       -0.053717118 -0.0314509 -0.043289628 -0.03571024
000300 10 f5 44 bc f3 e8 3f bc e1 b5 fe 3a aa 4d 04 3d
       -0.012021318 -0.011713254 0.0019432866 0.03230063
000310 93 7e c0 ba 33 4b 2f bd 09 51 89 bc 97 57 37 3c
       -0.001468616 -0.042796325 -0.016762273 0.011190317
000320 f8 15 0d 3d 14 86 ef 3c 89 95 2a bd 30 7b 1a 3c
       0.03444478 0.029238738 -0.041646514 0.009428784
000330 e3 68 bd 3b c2 49 65 3b 06 13 26 bd 6d 39 dd bc
       0.0057803257 0.003498659 -0.040545486 -0.027004922
000340 3e 00 3c bd ba 63 5b 3c 42 7b ef bc 7f 74 d6 3c
       -0.04589867 0.013390476 -0.029233579 0.026178597
000350 76 73 1c 3b ab e1 37 bd 87 23 88 bc 67 e0 12 3d
       0.002387253 -0.044892948 -0.016618503 0.035858538
000360 e9 6c 8b 3b 3c 88 1c bd 93 08 6a bc 73 76 5a 3b
       0.0042549265 -0.03821586 -0.014284271 0.0033334761
000370 0f 54 02 3d 36 72 33 bd 73 6f 19 bc 50 6c ca bc
       0.031818446 -0.043810092 -0.0093649505 -0.02470985
000380 61 1b db 3c 98 70 0d 3c 77 4d 86 bc 07 88 49 bd
       0.026746454 0.0086328015 -0.01639436 -0.04920199
000390 f0 87 4c bd 63 04 86 3c 77 bf 9c 3c 0d 19 ed bc
       -0.049934328 0.016359514 0.019134266 -0.02894261
0003a0 60 ee f6 3c 81 1e 10 3b 88 0f 06 bd 0f 15 3c 3d
       0.030142963 0.0021990838 -0.032729656 0.04591852
0003b0 1b 3a 6e bc 68 f7 11 bd f9 77 73 3c fa 6e 36 bc
       -0.014540221 -0.035636336 0.014860147 -0.011134857
0003c0 00 29 95 3c 29 19 3b bd 42 19 04 bd 8b c4 ea bb
       0.018208027 -0.04567829 -0.03225065 -0.007164543
0003d0 64 fe 6d 3b 0f 10 cf 3c da 98 38 bd 0d fc 15 bd
       0.0036314959 0.025276212 -0.045067646 -0.036617327
0003e0 c1 bc 5e bd 33 b1 d9 bc 7e f6 ef 3c 17 d4 04 3d
       -0.05437923 -0.026573753 0.029292341 0.032428827
0003f0 2f 95 4a bd 17 35 df bc b0 7d 21 bd 60 62 3e 3c
       -0.04945868 -0.027246995 -0.039426506 0.011620134

bias f4 [256]
000000 36 4b 08 3d 77 9a 4c bd 0a bf fc bc c4 33 a5 3d
       0.03327485 -0.049951997 -0.030852813 0.08066514
000010 54 5d c7 3c ef 57 66 3b d2 34 b8 3c 04 90 6a bc
       0.024336495 0.0035147627 0.022486124 -0.014316563
000020 1d f9 1d bd 4a 3f fc bc 45 16 33 3c c7 4b e9 bc
       -0.03856765 -0.030791897 0.010930602 -0.028478516
000030 da db 8b 3c 08 b4 47 3d 34 b3 5c bd 9b c0 52 bd
       0.017072607 0.048755676 -0.05388184 -0.051453214
000040 ba f9 9b bb 0f b9 93 bd 3a f9 dc 3a a9 5f 01 3d
       -0.0047599943 -0.072130315 0.0016858943 0.03158537
000050 aa ef ee bc 20 61 b4 3c cc f9 74 bd ee b1 0d bd
       -0.029167015 0.022018969 -0.059808537 -0.034593515
000060 3e 83 14 bc b9 cf af 3d 06 56 90 3c 99 c5 f2 3c
       -0.009064494 0.08584542 0.017619144 0.029635238
000070 80 5b 21 bd a0 d3 31 bd 14 fc a7 bc 95 dc eb bb
       -0.0393939 -0.043414712 -0.020505942 -0.0071979263
000080 d6 55 95 3b 00 53 87 3c 21 1f 9e 3c fc a1 a4 bc
       0.0045573516 0.01651907 0.019301953 -0.020096771
000090 f4 6f 82 3d aa e3 91 3c 84 93 e6 3c 02 cd 8b bc
       0.063690096 0.017808754 0.028146513 -0.017065529
0000a0 ac ba 79 bd ed 8e e7 bc 73 73 ea bc 97 52 de bc
       -0.06096904 -0.028266395 -0.028619504 -0.027138991
0000b0 62 ed 56 bd 87 79 22 bd 52 8b fc 39 19 bb 4a bd
       -0.05247248 -0.03966668 0.00048168987 -0.049494836
0000c0 33 4c 7b 3c 88 cb f0 bc e6 b5 8f bc 7f 28 15 bc
       0.0153379915 -0.029393926 -0.01754279 -0.009103893
0000d0 5f 6c 1f bd d5 45 37 bd 34 93 6e 3c ce fe e4 bc
       -0.03892171 -0.04474433 0.014561463 -0.027953532
0000e0 2b b5 ba bb 13 71 4c 3c ab aa 88 bd a6 d8 28 3c
       -0.0056978664 0.012478131 -0.06673177 0.010305559
0000f0 5a 5f 41 3d 87 19 a0 3c c3 d7 26 3c cf cc 21 bb
       0.047210075 0.019543422 0.010183278 -0.0024688726
000100 7c 5d 35 bd d6 c0 c5 bc e4 72 5b bd 3e a8 83 bd
       -0.044278607 -0.024139803 -0.053576365 -0.06428574
000110 9d a3 cf 3c 8d d3 da 3b 57 f9 ba bc 1a f2 ce 3c
       0.025346572 0.006678051 -0.022823973 0.025261927
000120 c4 ca 77 bd f6 4e 5c bd 64 cb 87 bd a7 f7 91 bd
       -0.060496107 -0.05378624 -0.066305906 -0.07127314
000130 f3 8d 7c bc d0 0d c2 3c a2 f4 76 bd bd af 1b bd
       -0.015414703 0.023688227 -0.060291894 -0.038009394
000140 1e ba b6 bc 13 ec 46 bc 6e 64 30 3d 72 fe 20 bd
       -0.022305544 -0.012141245 0.043064527 -0.039305158
000150 02 17 7c bb 83 6d 42 3a 79 36 13 bd c0 a1 e7 3b
       -0.0038465862 0.0007416831 -0.03594062 0.0070688426
000160 ae 3d a6 bc 52 f9 24 bd 43 6d a1 3c 5d c1 db bb
       -0.020293083 -0.040276833 0.01970542 -0.0067064003
000170 6b 97 d3 bc 66 74 c3 3c 67 8b 04 3c 07 e3 30 bd
       -0.025829038 0.023859214 0.008089877 -0.04318526
000180 c9 0e e6 bc bb 88 2c bb ed 67 ee bd 11 7a 7d b9
       -0.028083222 -0.0026326615 -0.11640916 -0.00024173433
000190 af 3d a0 bc 3f ac df bc 06 f7 12 bd d5 50 2e bd
       -0.019560663 -0.027303813 -0.03588011 -0.042557556
0001a0 b0 83 54 bd ac cb be 3b 3f 15 05 bd ea 76 57 bc
       -0.0518834 0.0058226194 -0.032490965 -0.01315091
0001b0 25 75 30 3d 05 83 00 bd 5a 57 74 bc 00 c4 e3 bb
       0.043080468 -0.03137495 -0.014913404 -0.0069508553
0001c0 08 5d 1c bd 30 fa bf bc eb 80 40 bc be 9a fe bc
       -0.03817466 -0.023434728 -0.011749486 -0.031079646
0001d0 82 48 c8 bb 1e f7 80 bd 55 66 63 bd 8b a1 5c 3c
       -0.006112159 -0.06297134 -0.055517513 0.013466249
0001e0 22 71 a2 3d e5 e9 78 3a 61 51 47 bc 69 1b 3f bd
       0.079317346 0.0009495302 -0.012165398 -0.046657
0001f0 9d 8c 75 3c 0d 69 56 3c 3f 36 13 bc 18 ef 04 3d
       0.014987138 0.0130865695 -0.008985101 0.03245458
000200 2a 17 4f bd 1d a8 14 bc 48 d0 f0 bc 33 aa c4 bc
       -0.0505592 -0.009073284 -0.029396191 -0.024006939
000210 84 2d 38 3d 01 52 83 3c eb 88 65 bc d1 aa 75 3c
       0.044965282 0.016030313 -0.014009695 0.014994339
000220 62 06 53 3d ae 38 30 b9 a9 b3 7a bb 5e 4b 61 bd
       0.05151976 -0.00016805783 -0.0038254058 -0.055003516
000230 0e 8a 20 bd f0 ce 8d bb 18 b0 94 3c 87 1a ee 3c
       -0.03919416 -0.0043276474 0.018150374 0.029065384
000240 20 6b 3c bd ad 6e 11 bd c5 fd d8 bc 8e aa 70 bc
       -0.0460006 -0.03550594 -0.026488194 -0.014689101
000250 81 5c c7 3c 88 6a 75 3b 5d 3a f0 bc 2a 08 0a bd
       0.024336101 0.003744753 -0.029324705 -0.033699192
000260 4a cb e4 bc 2b ba a7 3b d3 87 81 bc ac f0 9b bd
       -0.027928967 0.0051186285 -0.015811836 -0.07614264
000270 ac dd 5d bc 2d f7 a3 3c 31 57 c2 bd cc 25 c7 3d
       -0.01354162 0.020015324 -0.09489287 0.09724006
000280 24 3e cd 3c c5 ee 39 bd c8 a0 97 39 78 44 80 3c
       0.025054045 -0.045393724 0.00028920756 0.015657648
000290 b5 cc 9b bc 5f 6f 1e bc 8b 65 6b bc c6 18 7f bb
       -0.01901851 -0.009670108 -0.014367471 -0.0038924678
0002a0 72 25 61 bd ec 91 35 bd d8 86 11 bd 13 0b 89 bd
       -0.05496735 -0.044328615 -0.035528988 -0.06691565
0002b0 08 20 14 bc 4e 6a 6a bd c7 5f 13 bd 8c f3 bd bb
       -0.00904084 -0.057230286 -0.035980012 -0.0057968553
0002c0 f9 e2 1e bd 7a 08 10 bd 4e 4b 14 3c af 26 6f bb
       -0.038790677 -0.035164334 0.009051157 -0.0036491563
0002d0 b7 61 81 bd 82 4d 41 3b ac de 48 bd ff b6 2a 3c
       -0.06317466 0.002949566 -0.04904048 0.010419606
0002e0 ac bf 47 ba db a5 43 bc a8 f9 26 bd 49 14 52 3c
       -0.0007619809 -0.0119413985 -0.040765435 0.012822219
0002f0 f8 5b 70 3c c7 10 13 bd 54 39 24 bd 5b 4a 33 bd
       0.014670365 -0.035904672 -0.040093735 -0.043772083
000300 af a1 82 3b 32 38 e9 3b 84 c1 1f 3d 7f f2 16 bd
       0.0039865593 0.0071172947 0.03900291 -0.036852356
000310 e3 95 68 bd 23 a8 b8 bb e6 09 2d 3d d6 11 29 bd
       -0.056783568 -0.005635278 0.042245768 -0.041276775
000320 b9 a8 f7 bc ac c3 39 3d 82 d1 6a 3c 95 6f 08 3d
       -0.03023182 0.045352623 0.014332177 0.033309538
000330 7f 2e 07 bd cb 03 3b bd af 88 5e ba 1a 2e 3e bd
       -0.033003327 -0.045657914 -0.00084889954 -0.046430685
000340 0a 93 2d bd 98 d9 20 bd 0d 62 7c 3d f5 6e 98 3d
       -0.042376556 -0.039270014 0.061616946 0.074430384
000350 b7 e0 56 bd 09 4d d3 bd ce 51 b1 3c df 31 36 bd
       -0.0524604 -0.10317428 0.021645453 -0.044481155
000360 4f d4 6b 3c 10 17 1c bd 80 a7 cc bc ac a7 35 bd
       0.01439388 -0.03810793 -0.024982214 -0.044349357
000370 9b 18 08 bd 7c 3b 11 bd c1 4b 01 bc 12 51 1b bd
       -0.03322659 -0.03545712 -0.007891596 -0.03791911
000380 e0 5b ba bb d9 b8 5d 3c 5b 88 73 3d 6c a1 fd bc
       -0.005687222 0.013532841 0.05945621 -0.030960761
000390 1f ea 1a 3d 3d 9e 2c bd 89 4b 48 bc 01 05 8e bc
       0.03782093 -0.042143095 -0.01222504 -0.01733637
0003a0 0a 90 a1 bd 55 44 ff bc 2a f6 67 bc 21 3e 1e bd
       -0.078888014 -0.031160513 -0.014157811 -0.03863347
0003b0 c2 b2 33 bc 6c ee 8f 3b 9b cb 76 bc a5 53 10 bc
       -0.010967912 0.004392436 -0.015063192 -0.008809005
0003c0 1c 3f 3c bc 1e 85 a3 bc e5 c4 16 bd ef 60 b7 3a
       -0.011489656 -0.019960936 -0.036808867 0.001399068
0003d0 4d a1 e1 3b ab c6 93 bd cb 04 b4 3a 1a b1 3d 3c
       0.0068856836 -0.07215627 0.0013734339 0.011577869
0003e0 dd 26 e6 bb c1 ea fb bc 6f e5 b3 bb 42 4b 3c bb
       -0.007023676 -0.030751588 -0.005489997 -0.002873138
0003f0 c6 48 0d 3d ea a5 93 3c 8b ca 9f bc 0c 48 f6 ba
       0.03449323 0.01802345 -0.01950576 -0.0018789782

weight f4 [128, 256]
000000 d3 0f 61 bd 4f 7e 5f 3d e0 fc 39 3d d7 30 16 bc
       -0.05494673 0.054563817 0.045407176 -0.009166918
000010 52 f7 94 bd 65 6a 24 bc b5 78 46 bd 30 c7 74 3d
       -0.07273735 -0.010035132 -0.04845496 0.059760273
000020 fc 4c 40 3d 7f 38 53 bd e5 04 83 bd 4d 89 f3 3c
       0.046948418 -0.05156755 -0.06397418 0.029728556
000030 80 0b 8d 3a af 01 c5 bc 57 f6 51 bd 47 9c c1 bb
       0.0010760874 -0.024048654 -0.05126032 -0.0059085223
000040 a9 c4 e2 bc 90 4e d6 bc eb 86 48 bd 6b 7d 8f 3a
       -0.027681665 -0.026160508 -0.048956793 0.0010947412
000050 8d 7f 57 3d 7d 05 38 3d 0d 46 13 3d 4c 34 8a bd
       0.052611876 0.04492711 0.035955478 -0.06748256
000060 58 06 61 bd 9b e4 fd bc 65 c2 34 3d 35 21 4b 3c
       -0.05493769 -0.030992797 0.0441307 0.012398054
000070 b1 a2 d0 ba 86 46 22 bd d5 13 6c bd b4 45 2c 3d
       -0.0015917626 -0.039618038 -0.0576361 0.04205866
000080 b9 e1 52 3d 1b e0 24 3d c9 3a c8 3c 97 54 98 bc
       0.051484797 0.040252786 0.024442093 -0.018595023
000090 9f 37 a1 bd fb 5d 27 3c ba 9b 48 bd 72 d1 2d 3d
       -0.07871937 0.010215278 -0.048976637 0.04243607
0000a0 9e 86 8c bb 4f d0 2c bd a6 35 8f bd 97 a5 19 3d
       -0.0042885086 -0.042190846 -0.069926545 0.037511434
0000b0 8c 86 ad bc fa 2d b7 3c 38 58 f6 bc 33 7f 15 3d
       -0.021182321 0.02236079 -0.030071363 0.03649826
0000c0 46 d5 15 3d aa e7 32 bd cd 1d 49 bd f3 e5 12 3d
       0.036580347 -0.043677963 -0.049100686 0.035863828
0000d0 f2 d5 2d bb a7 13 71 bd 69 df 65 3d 29 93 cf bc
       -0.0026525226 -0.058856633 0.056121264 -0.025338726
0000e0 38 28 61 3c 05 fa 57 3d ba 21 90 bc 7f 5c 1b bd
       0.013742499 0.05272867 -0.017594207 -0.037930008
0000f0 b4 31 00 bc 21 d2 86 bd bb 7a fe 3a b2 01 09 bd
       -0.00782435 -0.06583048 0.0019415239 -0.033448882
000100 b3 b7 18 bd ab 99 06 3d cf 85 0b bd 35 b4 58 3d
       -0.037284564 0.032861393 -0.034063157 0.052906234
000110 27 ad 5b bd d2 5d b8 bc 94 0a 36 bd e0 d3 2f bd
       -0.053631928 -0.022505675 -0.04444368 -0.04292667
000120 57 33 2e bb f4 bd 60 bd 52 c7 0c bc 8a 64 36 bd
       -0.0026580894 -0.054868653 -0.008592444 -0.044529475
000130 b5 6e 18 bd a0 b1 85 3b bb ac 8b 3a 00 38 6c bd
       -0.037214953 0.0040800124 0.0010656336 -0.057670593
000140 e0 23 88 bc bf e6 37 bd 86 84 0e bd 46 36 78 bd
       -0.016618669 -0.04489779 -0.034794353 -0.060598634
000150 84 aa 01 bd 0c 74 36 3c 14 95 d8 bc 6e b9 55 3d
       -0.031656757 0.011136066 -0.026438273 0.052178793
000160 c6 c1 f1 3c 46 7f 61 bd 10 91 bc 3c 26 da 3e bd
       0.029511344 -0.055053018 0.02301839 -0.04659476
000170 dc ca 71 bd 5e 12 44 bd 57 d4 92 3a 51 b2 09 bd
       -0.059031352 -0.04786908 0.0011202198 -0.03361732
000180 09 92 93 bc 02 a6 68 bc 5a 93 e1 3c 9d ae 53 bc
       -0.01801397 -0.014199736 0.027536083 -0.012920049
000190 52 50 41 3d bc af 58 bd a5 a2 39 3d 6b b2 59 bc
       0.04719574 -0.05290197 0.045321126 -0.013287167
0001a0 95 93 0d 3d 8c e4 dd 3c ec 7a 2d bd c0 ae 6b 3c
       0.034564573 0.027086519 -0.042353556 0.014384925
0001b0 d6 01 50 3b 1c a8 0c 3d ac ad 15 bb 46 81 6c bd
       0.0031739376 0.03434001 -0.0022839112 -0.057740472
0001c0 68 e0 ed bc 22 5f 9e 3b 39 d5 12 3d b3 fa 4c 3d
       -0.02903767 0.004833118 0.035847876 0.050043773
0001d0 fb 6b 78 bd cb 0f ef 3c 83 16 b6 bc 6b 53 2d bd
       -0.060649853 0.029182335 -0.022227531 -0.04231588
0001e0 59 63 09 bd 13 e4 f4 3c 73 20 00 3d 57 e5 66 3d
       -0.03354201 0.02989391 0.031280946 0.05637106
0001f0 64 33 a3 3b 71 f4 9b bd fa df cf 3b 18 6f a5 3c
       0.0049804915 -0.07614983 0.0063438388 0.020194575
000200 2e 8b 27 3d 97 3e 0e bd 35 3b 56 bd 87 c2 47 bd
       0.040904216 -0.03472766 -0.052302558 -0.0487695
000210 69 04 94 3c a8 01 2e bd 26 6d 0b bb 30 84 c5 3c
       0.01806851 -0.04248205 -0.0021274774 0.024110883
000220 68 8b 2f bd d3 da 3c bd 98 71 de 3c cd bb 79 3c
       -0.042857558 -0.046107125 0.027153775 0.015242529
000230 a8 b3 06 bd 5f 80 74 bd 00 a3 4a 3d cd fa 44 3c
       -0.032886177 -0.059692737 0.049471855 0.012022686
000240 e2 d3 36 bd a9 d9 71 bd 56 86 47 bd 89 6c 14 3d
       -0.04463566 -0.059045468 -0.048712097 0.03623632
000250 e8 cd 53 bc 28 f6 1d 3d 27 24 6a bc 62 e1 c8 3c
       -0.01292751 0.03856483 -0.014290846 0.024521533
000260 00 27 89 bd 3d fb 56 3d 15 fb 86 bb 06 1f 71 bd
       -0.06696892 0.052485693 -0.004119287 -0.058867477
000270 b3 86 01 3d 50 c3 25 bd 37 d0 3f 3c 07 cc 5c bc
       0.0316226 -0.040469468 0.011707357 -0.013476378
000280 77 50 66 3d f7 05 46 3d fd b2 e3 bc 3f 74 6d 3d
       0.05622908 0.048345532 -0.02779531 0.05797219
000290 52 19 29 bd ad 62 62 3d 8c 33 6f 3a 4d 30 fb 3c
       -0.041283913 0.055269886 0.00091248075 0.03066268
0002a0 8f 61 d3 3c c6 16 2b bd 86 27 78 3d 80 55 2a bd
       0.025803356 -0.041769765 0.060584567 -0.041585445
0002b0 ea 42 d0 3c 50 d4 52 3c 60 2f 0e bc e4 38 4c 3c
       0.025422532 0.012868002 -0.008678287 0.012464736
0002c0 a8 5d 9b bc d0 a9 1a 3d df 99 3a bd cb 75 ac 3c
       -0.018965557 0.037759602 -0.0455569 0.021052262
0002d0 38 0c 59 bc bb 92 48 bd 15 a9 5e 3d b3 e6 66 bd
       -0.013247542 -0.048968058 0.054360468 -0.056372356
0002e0 87 c1 0e bb 8c a7 25 bb 3e e9 ef 3c 57 3b a1 bb
       -0.0021782832 -0.0025276868 0.029286023 -0.004920404
0002f0 f0 98 51 3d b1 f6 41 bc 5b a1 e7 3c 52 81 e8 bc
       0.051171243 -0.011838601 0.028275182 -0.028381977
000300 9d 8d 4f bd b4 25 1c bd 92 00 8e 3c ed ec 8b 3c
       -0.050672162 -0.038121894 0.017334256 0.017080748
000310 0f 11 f6 bc de fe f9 3c 2d 6c 8d bc f4 f1 57 bb
       -0.030037431 0.030517038 -0.017263496 -0.0032950612
000320 2e ef e0 3c c0 c6 e3 3c ed 5b 1e 3d 05 57 47 bc
       0.0274578 0.027804732 0.038661886 -0.012166743
000330 a9 96 1c 3d c6 fa 82 3c 03 f0 40 3d 2a b2 5a 3d
       0.03822962 0.015988719 0.047103893 0.053392567
000340 8e 50 17 3d f2 73 95 b9 e1 b0 25 bd 52 5a 01 bd
       0.036942057 -0.0002850588 -0.040451888 -0.031580277
000350 0a 2c 8b 3b c8 3a 8c 3b 13 cf e2 bc b8 55 f7 3c
       0.004247193 0.004279468 -0.027686631 0.030192241
000360 38 f2 3e 3d e8 74 a7 3c da e0 85 3c 96 a6 8a 3a
       0.046617717 0.020441487 0.01634257 0.0010578211
000370 08 a0 2b 3d 60 f7 8d 3c 8b f6 12 3d 0d d1 9f bb
       0.041900665 0.017329872 0.035879653 -0.0048772157
000380 bd 59 53 bc 75 a8 bf 3c 72 c0 0e bd 49 e6 ca 3c
       -0.012899813 0.023395756 -0.0348515 0.024768012
000390 bc 53 19 3d 27 38 89 bd 49 57 78 3d 4f aa e7 3c
       0.03743337 -0.06700163 0.060630117 0.028279452
0003a0 34 ea 0d bd e2 98 e0 3c 2b 04 7e 3c bc 68 f7 3c
       -0.03464718 0.02741665 0.015503923 0.030201308
0003b0 20 44 04 3d b9 d9 73 bd b8 fd 0e bc 3c f0 66 3d
       0.03229153 -0.05953381 -0.008727483 0.05638145
0003c0 eb 2b 3c 3c a9 b2 4e bd e0 9b e0 bc f5 fe 51 3c
       0.01148508 -0.050463352 -0.027418077 0.012817134
0003d0 e2 24 66 bd 70 cd fb bc 8c 09 f4 3c af 58 f6 bc
       -0.056187518 -0.030737609 0.029789709 -0.030071585
0003e0 21 86 20 bd 5a 3c 7b 3d 2c c2 ab bc c0 b7 0f 3d
       -0.039190415 0.061336853 -0.020966612 0.035087347
0003f0 fb fe da bc ee a8 32 3d ad f4 67 3d 7d e0 45 bd
       -0.026732912 0.043618135 0.056629825 -0.04830979

bias f4 [128]
000000 b2 9e 56 bd 2e 4d 51 bc 2a 3d 2e bd ea 4f 0b 3d
       -0.052397437 -0.012774749 -0.0425388 0.03401176
000010 ab 81 28 bd 0b b8 a9 bd 85 aa b0 bd 1e c6 a9 bc
       -0.041139286 -0.082870565 -0.08626274 -0.020724352
000020 c7 10 b6 bc 60 aa 10 bd 32 a8 cd bd 20 95 67 bc
       -0.022224797 -0.035318732 -0.10041846 -0.014134675
000030 a0 79 f5 3c b2 22 80 bd 21 61 3d bd c1 ba aa bc
       0.029965222 -0.062566176 -0.046235207 -0.020841004
000040 88 4d 60 bd c2 37 62 bd 84 43 8e bd b2 31 a1 bd
       -0.05476144 -0.055228956 -0.06946471 -0.07870807
000050 69 b2 31 bd 95 78 5f bd 81 c6 08 bd e9 80 43 3d
       -0.043383036 -0.054558355 -0.033392433 0.04773036
000060 33 b5 15 3c 6c cd b9 bc 47 ad b0 3a 97 f7 3e 3d
       0.00913744 -0.02268096 0.0013479375 0.04662284
000070 09 bd 74 bd e4 9c 52 bd 77 80 99 3d 2b 88 15 bd
       -0.05975059 -0.051419154 0.07495206 -0.036506813
000080 cc ed b3 bd cc 09 a9 bd 81 d1 7f bd e5 20 87 bb
       -0.087855905 -0.08253822 -0.062455658 -0.0041237944
000090 82 55 b3 bc e2 0f 94 bd ae fd 3f 3c 34 c6 96 bd
       -0.02189136 -0.07229592 0.011718197 -0.07362023
0000a0 3d 05 49 bd 7d e0 9a bd 5d 4b 70 bd d8 7a 13 bd
       -0.04907726 -0.07562349 -0.058665622 -0.036005825
0000b0 09 bc cf bc 04 1b 1b bd b1 50 6f 3d df 00 12 3c
       -0.025358217 -0.03786756 0.058426563 0.0089113405
0000c0 53 3e c9 3c ba 4b a1 bd f0 37 28 bd 17 ad a5 bd
       0.024565851 -0.07875772 -0.04106897 -0.08089655
0000d0 9c 9d 61 bd bd 04 f5 3d e4 b1 9c 3c 9e 4f 28 3c
       -0.05508195 0.119637944 0.019127794 0.0102728885
0000e0 a8 e7 a9 bc db 99 e6 bc 8e 29 22 3b 5e 6a 68 3c
       -0.020740345 -0.028149536 0.0024744007 0.014185516
0000f0 95 0d 87 bd 39 44 5e bd fc ae c7 3d d4 02 77 bd
       -0.065943874 -0.05426428 0.097501725 -0.06030543
000100 06 5e d4 b9 3b 40 df 3c 39 cb 3e bd 47 33 88 3c
       -0.00040505844 0.027252307 -0.046580527 0.016626013
000110 25 5a b8 bb 24 b9 c6 bd a8 0f 98 bc 09 3d ca 3d
       -0.0056259804 -0.097032815 -0.018562153 0.09874923
000120 36 6a d3 bc e1 93 29 bc 97 bf b8 3c f6 db 45 bd
       -0.025807481 -0.0103501985 0.022552295 -0.048305474
000130 3a 52 8e bd 76 86 64 bd 6a b2 91 bd 8e 9e 79 bd
       -0.06949277 -0.055792294 -0.07114108 -0.060942225
000140 75 92 f5 3a 69 fe 9a 3c 61 43 20 bd 72 c4 a4 bd
       0.0018735664 0.01892014 -0.039126758 -0.080452815
000150 52 1d 13 3e 35 6c c9 3d 15 bb 93 bd b3 92 9b bd
       0.14366654 0.09835092 -0.072134174 -0.0759634
000160 f6 81 a7 3c c6 da b5 bd aa bb a3 3b 84 51 63 bd
       0.020447712 -0.08879618 0.0049967365 -0.05549766
000170 b0 de b7 bc ef c3 1a bd c1 82 cc bd a4 69 de bb
       -0.022445053 -0.037784513 -0.09985877 -0.0067874957
000180 9c 31 ce 3c c1 6e e6 bc f8 a8 af bd bc 18 45 ba
       0.02517014 -0.028128983 -0.0857715 -0.00075186393
000190 c2 2b c0 bc 6e 46 dc 3c 74 9a 57 bd c1 4f 1a 3e
       -0.023458365 0.026889052 -0.052637532 0.15069486
0001a0 67 20 d2 3c 71 cf 5c 3c 68 4f b7 bd 88 1a 2f bd
       0.025650216 0.013477192 -0.089506924 -0.04274991
0001b0 d1 7f bc 3c 7c 2e 92 3d d0 40 5c bd 14 bb 11 bd
       0.023010166 0.071377724 -0.053772748 -0.035578802
0001c0 ef 74 ff bb ee de cf bd e5 c6 a7 3c 9d 3a 3c bd
       -0.007795922 -0.10149942 0.020480582 -0.045954335
0001d0 63 1f a8 bd d0 c7 73 bd 23 a8 70 bb f5 b1 98 bd
       -0.082091115 -0.059516728 -0.003672131 -0.074558176
0001e0 9b 5a 09 bd ec 26 e7 bc 25 6b ed bb 3e d5 a4 bc
       -0.033533674 -0.028216802 -0.0072454386 -0.020121213
0001f0 ab 28 8d bd af 51 c4 bd 43 01 a3 bc bf 6f a7 bd
       -0.068925224 -0.095858924 -0.019898063 -0.08175611

weight f4 [60, 128]
000000 72 e2 4d bc 1f 20 99 bb 8e b1 b7 bd 58 c3 d6 3b
       -0.012566196 -0.0046730186 -0.08969413 0.0065540485
000010 a7 80 9c bb c1 06 8d bd c6 5e 70 bd b0 9e 3c 3b
       -0.0047760787 -0.06886054 -0.058684133 0.0028781109
000020 2e 94 81 bd 71 e9 b0 3b 71 b5 98 3d cd 5d c2 bb
       -0.06327091 0.005398922 0.07456482 -0.005931592
000030 6e 14 ab bd 2f 58 3e 3d cc 9d 1d bd 3f cc 4b 3d
       -0.08353506 0.046470817 -0.038480565 0.04975533
000040 8e 1d 69 bc a8 d9 77 3d a4 1d c9 bb 91 3a 4b 3d
       -0.014228238 0.060510308 -0.0061375666 0.0496164
000050 60 96 7f 3d a8 ea 5a bd 5a 8e 37 bd c4 c8 f9 3c
       0.06239927 -0.053446442 -0.04481349 0.03049124
000060 59 8c 6a bd e3 37 6c 3d 8e 40 2b 3c 46 c7 9a 3b
       -0.057262752 0.057670485 0.010452403 0.0047234623
000070 cd ca 46 3d ad c4 ff bb 21 14 82 3c 49 f6 a5 bd
       0.04853325 -0.007805428 0.015878739 -0.08103616
000080 c9 2f a6 3d b1 5d 1f 3d b6 4f 09 be b6 4a 0a bd
       0.08114583 0.03890771 -0.13409314 -0.033762656
000090 fb f6 04 3d 3e 1c 09 3d 20 9e 75 3c b8 33 85 3d
       0.0324621 0.0334742 0.014991313 0.06504005
0000a0 88 79 77 bc ac d0 a9 bd b9 be 87 3d 29 f7 4f bd
       -0.015104659 -0.08291754 0.06628174 -0.05077282
0000b0 50 fb a8 37 ca b3 a9 3c 6f 1d 14 3d 88 89 95 bd
       2.0144187e-05 0.020715613 0.036160883 -0.07301623
0000c0 25 05 c4 3c 3a 10 64 bd ff ed 0b 3d 73 7f 40 3c
       0.023928234 -0.055679537 0.034162518 0.011749136
0000d0 5e 7c 0e 3d a2 06 a3 3d 64 10 0a bd 71 f6 de bc
       0.034786575 0.079602495 -0.033707038 -0.027217122
0000e0 e6 61 57 3d 3f 86 2d bc 88 2d 42 3d 7f 38 22 3c
       0.052583598 -0.010591089 0.047406703 0.009901165
0000f0 1d 8d 88 3a ca 06 6e 3d 2a 3c 08 3c fe 3a 8c 3d
       0.0010418032 0.058111943 0.0083151255 0.06847189
000100 0f 6d 90 3d 81 c7 7e bd a0 ec b2 bd a5 8a d8 bd
       0.07052051 -0.06220198 -0.08736539 -0.10573319
000110 6c 96 a1 bc 43 0c 47 3b 88 f1 b3 3a 0a 57 16 be
       -0.019725047 0.0030372299 0.0013728598 -0.1468164
000120 77 5e 04 3d f8 2c ee 3c ad 5e 7e 3b 09 8b 6e 3d
       0.03231665 0.029074177 0.0038813755 0.058238063
000130 29 b7 94 3d 74 b1 fb 3a 31 74 a3 3d a6 42 d7 bc
       0.072614975 0.0019202665 0.07981146 -0.026276898
000140 36 2d 91 3d 99 b8 19 3c 60 b1 b4 3c 51 92 32 3d
       0.070887014 0.00938239 0.022057235 0.04359657
000150 d4 a4 f6 bd cb b1 b0 3b 0b a0 c9 3c 2b 6f b6 3d
       -0.12043157 0.0053922883 0.024612447 0.08907922
000160 70 cd 06 bd bf ae 36 bd 05 3c c2 bc 32 6e 82 3b
       -0.032910764 -0.044600245 -0.02371026 0.0039804215
000170 7c 08 14 bd 10 4c ff 3b c6 aa 4d bd 4c ea b4 bd
       -0.036140904 0.00779105 -0.05021169 -0.08833751
000180 fe 9f 00 bd d8 26 25 3d 4b 19 13 bd 26 b7 8f 3d
       -0.03140258 0.040320247 -0.035912793 0.07017355
000190 33 07 e7 3c 83 16 e0 3c 07 94 9c bc b6 fd ad bd
       0.028201675 0.027354484 -0.019113554 -0.08495657
0001a0 65 1e 03 3c cc c6 af 3b 1d 9f 9a bd 48 d1 a7 bd
       0.008002852 0.0053642746 -0.0754988 -0.08194214
0001b0 3e b6 c3 bb f7 e9 14 bb 6a 51 69 3b 88 c1 25 3b
       -0.0059726527 -0.0022722462 0.0035601505 0.0025292356
0001c0 c5 25 85 3d be c1 07 3c e6 0d 29 bd 9d 0b d1 bc
       0.065013446 0.008285938 -0.04127302 -0.025518233
0001d0 fa 1c 71 3d fa fe 2b bc d1 2e 4b 3d fe 5a a7 bb
       0.058865525 -0.010497803 0.049605194 -0.0051072827
0001e0 f8 e0 3c bd ae 0c af bd 80 28 0e bd c9 24 53 bd
       -0.046112984 -0.0854734 -0.034706593 -0.051548753
0001f0 6c 8b 03 bd 66 89 85 bd db 0a a0 bd 4d 1b 43 bd
       -0.032115385 -0.06520347 -0.078145705 -0.047633458
000200 71 03 b0 3d f2 6d 1c 3d d6 d1 cc 3c 01 03 31 3d
       0.085944064 0.03819079 0.025002401 0.043215755
000210 ff 7c 3f 3e fb 19 a0 bc 1d 0d 78 bd 9d 80 cb 3e
       0.18700026 -0.019543638 -0.06055938 0.39746562
000220 fb 00 90 bd ef 29 bc 3c a0 42 69 bc e9 1c 0f 3c
       -0.07031437 0.022969214 -0.014237076 0.00873492
000230 d9 29 3a 3d 91 d2 8d 3a d6 19 83 3d 78 82 03 bd
       0.045450065 0.00108202 0.06401412 -0.032106847
000240 d2 90 5e be d6 57 b8 3d 3a 79 a4 bc 4c 1a c8 bc
       -0.21734932 0.090011284 -0.020077337 -0.024426602
000250 91 12 7f 3c 05 3f 37 3b d6 42 92 3c db 75 b9 3b
       0.015568391 0.0027961147 0.017854135 0.0056598014
000260 4d e6 48 bd a1 08 36 3d 27 77 34 3c f9 fb 17 be
       -0.049047757 0.044441823 0.011014736 -0.14842214
000270 99 f1 4c bd 4f be 31 bd 64 92 84 3e 38 7b a4 3c
       -0.050035093 -0.043394383 0.25892937 0.020078287
000280 eb 37 ef 3c 75 76 ef bc 41 43 80 bd ff 6e 3f bc
       0.029201468 -0.02923129 -0.06262828 -0.011684178
000290 4a 40 d8 3b 92 f8 2e bd 74 30 ae 3b ee 48 91 3d
       0.0065994607 -0.042717524 0.0053158347 0.07093988
0002a0 1c 39 53 3d 23 bc 62 3c 00 9a 5a bc c0 8c 99 3a
       0.051568136 0.013838801 -0.0133423805 0.001171492
0002b0 bc 22 8a 3d f5 a8 04 bd f5 3b 00 bd 95 15 42 3c
       0.06744906 -0.032387692 -0.03130718 0.011845966
0002c0 9e ca f1 3c ff e3 58 3c e8 2a 5f bc c6 b5 0f bf
       0.02951556 0.013237952 -0.0136210695 -0.5613674
0002d0 cd a7 07 3d 29 ea 01 3e 77 ae 7f 3d 52 e6 93 bd
       0.03311901 0.12686981 0.062422242 -0.072216645
0002e0 54 a0 20 3c bb 02 83 be a2 90 8e bd 6d 8b 89 3d
       0.00980385 -0.2558802 -0.0696118 0.067160465
0002f0 f8 73 a0 3d 62 fb 04 bd d7 cb 2d bd 46 5c 29 bd
       0.07834619 -0.0324663 -0.042430725 -0.041347764
000300 fd 6f 39 bd 3d 9c 7b 3d 32 ce bb bc 99 44 9d bd
       -0.045272816 0.061428297 -0.02292547 -0.076790996
000310 d3 71 03 3c b1 98 00 3b 9d 44 c7 3d 40 df 43 3d
       0.008022743 0.0019622261 0.09729884 0.04782033
000320 da 23 2b bd b3 93 7a bc bf 95 04 bb d0 6f f8 ba
       -0.041782238 -0.015294003 -0.0020230857 -0.0018954221
000330 a8 60 8f bd 5a d3 40 bd 0a ca 29 3b ff 56 16 bd
       -0.070008576 -0.04707656 0.0025907778 -0.03670406
000340 6d 5b ed bc 26 9f 7c be f5 85 ef bc 15 3d 2f 3c
       -0.02897426 -0.24670085 -0.02923868 0.010695715
000350 0e c2 95 3c 39 21 dd bc 3c 79 b1 bc 9d 3a f3 3c
       0.018281009 -0.02699338 -0.021664254 0.029691035
000360 79 87 5a bd 70 22 a9 bd e4 ff 7e 3d 98 2e 73 be
       -0.053351853 -0.082585216 0.062255755 -0.23748243
000370 50 a6 6f 3d 30 fc 32 3e ad 21 34 3c 1f d9 77 3c
       0.058508217 0.17479014 0.010994357 0.015127449
000380 99 db fc 3c c2 ed b2 3c 6e c6 2c bd ab 1d 87 3d
       0.030866431 0.021841887 -0.042181425 0.065974556
000390 d2 77 d3 3c 7b 9c 97 bb 2b e6 c9 3c f0 26 ca bc
       0.02581397 -0.004626808 0.024645885 -0.02467677
0003a0 08 2c cb bc 13 1e 12 3d cb ab 2b bd 3b 0e 51 3d
       -0.02480127 0.035673212 -0.04191188 0.05103896
0003b0 a5 7e 98 bd 82 68 8d bd 4f 32 f4 bd be 50 14 be
       -0.074460305 -0.06904699 -0.11923658 -0.14483926
0003c0 08 d3 b6 3d 7f 6d 04 bd a7 df df bc 72 5c a9 bd
       0.0892697 -0.032330986 -0.027328325 -0.08269586
0003d0 11 34 11 bd ba f6 02 3f fd df 0c bd 47 5d 38 bd
       -0.035450045 0.51157725 -0.0343933 -0.04501083
0003e0 96 fc 46 3c b6 e6 10 bc 99 4e 7f bc c3 1a 57 bb
       0.012145182 -0.008844068 -0.015582704 -0.0032822348
0003f0 c4 27 7a bd 04 2e 46 ba 1e d1 8a 3d 0a e2 39 bc
       -0.06107308 -0.00075599574 0.06778167 -0.011345396

bias f4 [60]
000000 42 0f 39 ba 61 c1 37 3a af b5 1c ba 61 9b 4c 39
       -0.00070594635 0.00070097117 -0.00059780007 0.00019512839
000010 17 ec 4a ba b5 aa 28 3a 4a 45 79 ba 3b 5a aa 39
       -0.00077408686 0.0006434129 -0.0009508921 0.00032492154
000020 9c 8e 55 b9 19 10 24 b9 aa c5 4e 3a 63 fa 46 b9
       -0.00020366389 -0.00015646256 0.00078877306 -0.00018976028
000030 21 8d f7 39 0b ef 3f 3a d8 d4 6a 3a 26 b9 1b 3a
       0.0004721666 0.0007321692 0.0008958108 0.000594037
000040 40 2a f4 b9 ad fb 7b 3a 73 9a 39 3a 55 08 ed 3a
       -0.00046570785 0.0009612393 0.00070802047 0.0018084148
000050 60 ad 73 39 44 6e 22 3a 83 6d 27 3a ab b6 2e 39
       0.00023238873 0.00061962404 0.0006386863 0.00016661982
000060 15 55 86 b9 cd 6e de 38 0b 66 cd 39 77 da 82 39
       -0.00025621863 0.00010606423 0.00039176675 0.000249583
000070 82 05 b0 39 1d 11 18 3a 89 2e 61 39 d8 19 a5 3a
       0.0003357344 0.000580089 0.00021475008 0.0012596203
000080 3f b2 4d b9 e2 19 08 b8 b6 a8 9a 38 40 52 33 3a
       -0.00019616725 -3.2449032e-05 7.374717e-05 0.00068405643
000090 81 7e 03 39 e2 35 cf 3a 3a a3 05 ba 83 5d 10 b8
       0.0001254026 0.0015808905 -0.000509787 -3.4419365e-05
0000a0 7c 4d d5 b9 16 b0 9b b9 3d 40 46 b9 a0 00 65 3a
       -0.00040684256 -0.00029695098 -0.00018906682 0.000873575
0000b0 b8 d8 a2 b9 4f a9 26 39 b9 de 27 39 4e 3c ec b9
       -0.00031060516 0.00015894066 0.00016009332 -0.00045058358
0000c0 92 85 df 39 31 a4 15 3a d9 5c 4e b9 ee cf ab b8
       0.00042633392 0.00057083654 -0.0001968028 -8.192645e-05
0000d0 c9 4b a3 b9 38 d4 29 b9 e6 6b 35 b9 57 c8 15 b9
       -0.00031146247 -0.00016196154 -0.000173017 -0.0001428438
0000e0 5d 53 1b b9 9f fa 8e b9 ef 25 8e b9 48 df 08 ba
       -0.00014813007 -0.00027271078 -0.00027112613 -0.000522126
