linearPredictionModels/db39/mega/cleanedCombine.csv_wholeNetPrototype5_Epochs_25_ValidationLoss0.442764_lr0.0003_2023_08_16_19:33:00.pth (torch, 992679 bytes, 8 tensors)

weight f4 [512, 145]
000000 6c ee 17 3c 08 49 36 bd f0 a7 cb 3d 49 87 b1 bc
       0.009273153 -0.04450324 0.09944141 -0.021670954
000010 65 4c 18 3d 23 8a 50 3d 19 a4 b0 bc 13 2b 48 bd
       0.03718223 0.050912987 -0.021562623 -0.048869204
000020 3b ac f0 bc bc 7e 1a bd 3b c3 d5 3d 9b 16 72 3e
       -0.029379 -0.03771852 0.10437628 0.23641436
000030 c2 3a c0 3d ef 46 bf bd e3 95 69 bd db 61 33 3d
       0.09386207 -0.093397014 -0.05702771 0.043794494
000040 c8 3f 90 39 16 65 33 bd dc 92 72 bd 8b 41 42 bc
       0.0002751334 -0.043797575 -0.059222087 -0.011856447
000050 87 10 26 bd 74 99 78 3d 9d 0d 97 3d 6b ea d2 3d
       -0.040543105 0.06069322 0.073756434 0.10298618
000060 af c3 23 3d ee 4c 09 bd 2d b8 b2 ba 42 a3 39 bb
       0.03998154 -0.03352063 -0.0013635211 -0.002832607
000070 7a 3f 6b 3d 4f c3 01 3d ed 97 30 bd 55 18 c4 3c
       0.057433583 0.0316804 -0.043113638 0.023937384
000080 e0 6c 1e bd 3e 8a 85 bd cb c5 6e 3c 15 05 02 bd
       -0.03867805 -0.06520508 0.014573525 -0.031743128
000090 07 21 a8 3c 45 a1 8c 3b 13 87 9a bd b0 f8 1b 3d
       0.020523561 0.0042916858 -0.075452946 0.038078964
0000a0 c1 12 0e 3d 91 7c 31 bd 31 ac 7a bd 4b 75 dd 3c
       0.034685854 -0.043331686 -0.06119937 0.027033469
0000b0 42 7b a0 bd 86 49 5d 3d 97 47 8f 3c 12 af 1d bd
       -0.078360096 0.054025196 0.017490191 -0.03849704
0000c0 12 63 81 bb 1e 31 2e bd ea 41 06 bd f6 3a a0 bd
       -0.0039485777 -0.04252731 -0.032777704 -0.07823746
0000d0 3b c4 0d bd eb 81 bb 3d f6 2e bc 3d a0 1f 74 bd
       -0.034610968 0.09155639 0.091886446 -0.059600472
0000e0 7a 46 10 bd fc 96 e0 bb 96 5c 2a bd e5 9f f6 bd
       -0.03522346 -0.0068539362 -0.041592203 -0.12042216
0000f0 6b 07 aa bd b5 cb 95 3d 25 4f b7 3d 7b 62 c6 bc
       -0.08302196 0.07314245 0.089506425 -0.024216881
000100 f7 6c 6c 3f b6 12 ae 3d 0a a1 1c be 4d 02 a2 bd
       0.9235377 0.084996626 -0.15295807 -0.07910595
000110 82 6d 35 3d cb 6c e8 3d cd bc c3 bd 7a ad 2d 3c
       0.044293888 0.113488756 -0.09557495 0.010600442
000120 54 52 8c 3d d8 34 f1 bd a3 0d 24 be 7d de 37 bd
       0.0685164 -0.11777657 -0.16020827 -0.044889916
000130 c1 a0 2d 3d 00 5b 0d bd b9 b9 80 bd 0e 76 e4 3d
       0.042389635 -0.034510612 -0.06285424 0.1115533
000140 ee 27 79 3d 35 e2 04 be 9e 1d 4a bc f3 64 01 3d
       0.060829096 -0.12976916 -0.012336163 0.031590413
000150 14 06 64 bb 4b 83 b5 3d 5d 47 80 3d 5e 14 b3 bc
       -0.0034793662 0.08862933 0.062636115 -0.021860298
000160 d9 c6 fd bc b7 30 d6 bc 55 39 95 3b 23 4e c8 3b
       -0.030978607 -0.026146276 0.0045539537 0.0061128302
000170 08 47 cf 3c cc cf be bc 4b 75 f9 3c cf 77 f7 bb
       0.025302425 -0.023292445 0.030451437 -0.007552124
000180 c3 55 57 3c a0 18 0a 3c fe e9 72 bd 07 f6 b7 3c
       0.013143006 0.008428723 -0.059305184 0.022456182
000190 35 09 4a 3c 7f 7a 74 bc 3f cd 0c bc 64 79 21 3d
       0.012331297 -0.0149217835 -0.008593856 0.039422408
0001a0 f8 40 16 3b c9 6e 12 3c f6 1d 87 3d fd 99 8a bd
       0.0022926908 0.008937546 0.065975115 -0.06767652
0001b0 b0 6e c9 bc 96 70 44 bd 93 04 9c bc 55 12 c2 3d
       -0.024588913 -0.047958933 -0.01904515 0.09476153
0001c0 03 60 0d bd ef 16 87 3b 05 5a 47 bd 23 07 93 bd
       -0.034515392 0.004122607 -0.048669834 -0.071790956
0001d0 e7 23 19 3d d2 72 4d bd 01 15 9b 3c 7a 74 cc bd
       0.037387755 -0.05015833 0.018930914 -0.09983154
0001e0 59 1c 8f bd ce 53 52 bd 68 43 33 bd 22 5b 6a bb
       -0.06987829 -0.051349454 -0.043765455 -0.0035759886
0001f0 d0 cd 6c bd 9c fc 68 3c 7e f9 57 bd c2 31 2a 3d
       -0.057813466 0.014220383 -0.05272817 0.04155136
000200 c1 3e b7 bc da fe 7e 3d 32 04 ae 3b 96 9d 82 3d
       -0.02236879 0.062254764 0.0053105587 0.063777134
000210 de 17 57 bb d0 af 4a 3b a4 24 40 3d 84 74 46 3d
       -0.0032820622 0.0030927546 0.046909943 0.04845096
000220 c1 1c ae bb 20 00 ce 3c 79 bd d6 3c 56 15 77 bc
       -0.0053134863 0.025146544 0.026213394 -0.0150807705
000230 38 02 5f 3d 80 7b 63 bd e1 9e 86 3c d9 1c a3 bc
       0.054445475 -0.0555377 0.016433181 -0.019911217
000240 02 4f 89 3d b4 27 c9 bc 84 47 22 bd f6 3b a8 bd
       0.06704523 -0.024555065 -0.039618984 -0.08214562
000250 c5 01 63 3d a6 41 77 bc 5d 73 97 bd ea d4 5d 3d
       0.05542161 -0.015091335 -0.07395051 0.05415813
000260 ec bb b1 bc c0 99 07 bd dc 59 5b bd 3f 34 20 3c
       -0.021696053 -0.03310561 -0.053552493 0.009778081
000270 98 27 6d be 6e 12 0f 3d f1 58 98 3d 76 f7 71 bd
       -0.23159635 0.034929685 0.07438839 -0.059073888
000280 a1 b0 47 3d b5 a8 a0 bd ac e8 25 3b 7a 41 9a bc
       0.04875243 -0.07844678 0.0025315685 -0.01883005
000290 c2 31 83 3d 59 8a 35 3d 1f 05 19 3e 64 d3 e0 3d
       0.06405975 0.04432139 0.1494336 0.109778196
0002a0 d6 c7 20 bd b0 c3 1c 3c bd 17 ad 3c 82 ea aa bd
       -0.03925308 0.00956814 0.021129483 -0.0834551
0002b0 51 5c 25 b7 9a ae 77 bd 21 c0 6c bd 38 e4 16 3c
       -9.8562605e-06 -0.060469247 -0.057800416 0.009209685
0002c0 2a 04 20 3d c0 3e fb 3c 4e 6c bf 3d c4 0f 70 3d
       0.03906647 0.03066957 0.09346829 0.058608785
0002d0 88 ed 75 bd 87 34 6f 3d 43 b7 7a 3c 4b c1 50 3c
       -0.06004098 0.058399703 0.015302482 0.012741397
0002e0 9e bf 7c bd 86 7a b5 3d dd 7f 35 3d 0a ca 49 3d
       -0.061706178 0.0886126 0.044311393 0.049264945
0002f0 f6 1b 06 bd 17 e6 d2 bc 9f 80 75 bd f4 12 c9 3d
       -0.03274151 -0.025744481 -0.059937116 0.09818068
000300 42 04 80 bd 2a 00 50 bc 2a e2 8f 3c 34 90 27 bd
       -0.06250812 -0.012695352 0.017563898 -0.040909007
000310 5d 94 8f 3d f8 8c 85 bd c8 e8 7b bc b7 5a b3 3d
       0.0701072 -0.06521028 -0.015375324 0.08757537
000320 52 1c 59 3c 17 52 ce bc fc e3 12 bc 77 9a b4 bd
       0.013251381 -0.025185628 -0.0089654885 -0.08818524
000330 aa bc 3a 3d 86 9c 86 bb 34 42 20 3c c0 1b 8e bd
       0.04559008 -0.0041080145 0.009781409 -0.06938887
000340 48 5d 4f bd a9 21 76 bf 3b 69 84 3d 5b 67 4b 3d
       -0.05062607 -0.9614511 0.064653836 0.049659114
000350 a1 a1 02 be 45 1a 78 3d 8c 4a 48 be ae c1 9b 3d
       -0.12756969 0.060571928 -0.19559687 0.07605301
000360 5e 26 90 3d f3 83 9e bd 49 77 f3 bd 13 23 cb 3d
       0.07038568 -0.07740011 -0.11887986 0.09918799
000370 59 8c b7 bd c7 db 12 be 18 bc 99 bc b3 7d a4 3c
       -0.08962316 -0.14341651 -0.018766448 0.02007947
000380 5a 39 ec bd 32 9f 45 bd c4 7c 98 bd 47 86 44 bd
       -0.115343764 -0.048247524 -0.07445672 -0.04797962
000390 5a 80 12 bc 76 2b b1 3c a9 46 ac bd 88 8f 35 3d
       -0.008941734 0.02162717 -0.08411915 0.044326335
0003a0 79 1a 03 3e 27 8b 7f 3c 55 1a 0d be ac 45 bc bd
       0.12803067 0.015597141 -0.13779576 -0.09192976
0003b0 b2 54 50 3d d1 b7 55 bd 54 6c ba bd 02 4d 1f bd
       0.05086202 -0.052177254 -0.09102693 -0.0388918
0003c0 af 86 f0 3c 24 d0 8d bd 0e 38 23 bd 8c 69 fc 3d
       0.029361097 -0.06924465 -0.03984838 0.12324819
0003d0 7e e3 8c bd 06 95 40 bd b6 d7 29 bd 9d 46 81 3c
       -0.06879328 -0.04701712 -0.041465484 0.015780741
0003e0 47 85 7c 3d af 8a 94 3c 41 10 58 3d 3e 91 e4 bd
       0.06165054 0.018132536 0.052749876 -0.11160515
0003f0 91 78 d8 3c 60 15 ef bc 44 76 72 bd e6 ac 40 bc
       0.026424678 -0.029184997 -0.05919482 -0.011759972

bias f4 [512]
000000 b0 3a 92 39 78 b0 c0 3d d3 a5 60 bd 9e 05 6e bd
       0.00027891016 0.09408659 -0.054845642 -0.058110826
000010 c1 fd 4a 3b 53 64 80 b9 f0 33 b4 bc 6e d2 cc bd
       0.0030974003 -0.0002448881 -0.021997422 -0.10001074
000020 dc 45 f9 bb ba d7 a6 3c b9 10 c1 bd b0 79 a8 bd
       -0.007607205 0.020366538 -0.09427018 -0.08226335
000030 52 9a da bd c6 49 cb bb 23 81 ae bd 2d a1 c0 bc
       -0.106739655 -0.006203863 -0.085207246 -0.023514355
000040 fd 60 61 bb 49 72 90 bc 90 58 49 3d b6 f0 e0 bc
       -0.0034390085 -0.01763262 0.049156725 -0.02745853
000050 59 c1 35 bd f9 4e dd bc 90 2a 39 3d b3 f9 1b be
       -0.044373844 -0.027015196 0.045206606 -0.15231971
000060 e6 57 94 bd b6 b1 bb 3c 9e f0 b2 3d 67 66 04 be
       -0.07243328 0.022911888 0.087373 -0.12929688
000070 6a 56 32 3d 0e 29 e1 3c 50 bc 1d 3d 6f d9 85 bd
       0.043539442 0.027485397 0.038509667 -0.06535613
000080 39 df 57 bc 59 88 4f bd 19 2e 0b bd bc f0 1a bd
       -0.013175779 -0.05066714 -0.03397951 -0.03782724
000090 12 d8 4a 3d b3 4b 89 3d 79 cb 8a 3b fa 99 a7 3c
       0.049522467 0.067038916 0.0042356816 0.020459164
0000a0 16 a5 cb bc 46 d2 90 3c c4 91 b4 bd 0e e6 85 bd
       -0.024858993 0.017678391 -0.08816865 -0.0653802
0000b0 c5 84 e6 3c ce 88 4f bd 51 06 90 3d e4 d0 6f 3d
       0.028139481 -0.050667576 0.07032455 0.058548823
0000c0 d8 4a 1d bd 22 82 fc 3c 27 78 4b 3d c2 e0 33 bd
       -0.038401455 0.03082377 0.049675133 -0.043915518
0000d0 b5 47 04 bd 4d d9 ad bd a2 e6 24 bd 61 ca 9f bb
       -0.032294948 -0.084887125 -0.04025901 -0.0048764204
0000e0 f4 63 b2 bd 4d 7a 5e 3d f9 4b 56 bd b5 ce 65 3d
       -0.08710471 0.054315854 -0.052318547 0.056105334
0000f0 fe c6 8e bd 95 e7 9f 3c 41 e9 82 bc 0a 2d a3 bc
       -0.069715485 0.019519607 -0.015980365 -0.019918937
000100 08 6b 59 3b cc ad cd 3c bc 0d ff bc a6 02 0e bd
       0.0033175368 0.025107287 -0.031134479 -0.034670494
000110 5a 1a e9 bc 56 09 64 3c 2c b4 55 bd 69 d1 d0 bd
       -0.028454948 0.0139182415 -0.05217378 -0.10196192
000120 bb 8f ba bd 60 56 00 3c ed 9f 89 bd b9 40 b5 3b
       -0.09109446 0.007833093 -0.067199565 0.005531397
000130 a2 26 f4 bb 2e df e2 bd e9 b6 89 bc c0 f6 97 3d
       -0.0074508945 -0.110777244 -0.016810851 0.07420111
000140 93 88 78 3d a6 69 bf 3c 5d 2e ec bd 3e 67 dc 3c
       0.060677122 0.023365807 -0.115322806 0.026904698
000150 3c 7a a1 bc b4 1b a4 3c 98 d3 7c bd 3d ff 8d bd
       -0.019711606 0.020032741 -0.06172523 -0.069334485
000160 e1 1c 04 bb 2e d6 22 3d c6 4c e0 3a f2 cf 0e bc
       -0.0020158815 0.03975504 0.0017112724 -0.00871657
000170 b3 d0 fc bd 9c 08 a5 bc f2 ac 7d bc ab ff 3a bc
       -0.12344494 -0.020145707 -0.015483128 -0.011413495
000180 10 7d f9 ba 89 b7 0f bd 65 93 f1 bc d8 e4 59 bc
       -0.0019034464 -0.035087142 -0.029489229 -0.0132991895
000190 fe 70 a4 3d 12 dd b8 3d f5 24 6f 3c 52 0d d5 bd
       0.08029364 0.09026541 0.014596214 -0.10402931
0001a0 72 6f 19 bd 1a 90 32 bd da 41 cc bc a4 3b 82 3c
       -0.0374598 -0.043594457 -0.024933744 0.01589758
0001b0 06 4e 97 bd fa 6d 1b bd a1 bf e7 3c 9b 3b 04 bc
       -0.07387929 -0.03794668 0.028289618 -0.008070852
0001c0 e0 a0 f4 3d d6 59 56 bd d0 81 0a bc ad 1d 40 3d
       0.11944747 -0.052331768 -0.008453801 0.0469033
0001d0 32 c5 9f bc fa 72 bb bd f0 ac 24 bc b0 0a 6c bd
       -0.01950321 -0.091527894 -0.010050997 -0.05762738
0001e0 50 a0 9c bc 1c 4a 63 bd 53 a1 f9 bd c5 c2 50 3d
       -0.019119412 -0.055490598 -0.12188973 0.050966997
0001f0 b9 39 08 bd 5a 82 77 bd d5 2f 9b bd b4 75 87 bd
       -0.033258174 -0.060427047 -0.075774826 -0.06614247
000200 5e 2a 58 3d 60 33 c6 bc b8 7a 5c 3d 7c 5f 9f 3c
       0.05277478 -0.02419442 0.05382797 0.01945471
000210 89 e7 cc 3c 86 a1 9c 3c 50 0d 06 bb e0 30 65 bd
       0.025012748 0.01911999 -0.0020454712 -0.055954814
000220 c4 db 30 bd d1 9c c7 3c 14 2c 2f 3d e4 93 77 3d
       -0.043178335 0.024366768 0.042766646 0.060443774
000230 a4 d0 3f bc b2 6f 99 3d 19 62 af bd 67 74 a2 ba
       -0.011707459 0.07492007 -0.085636325 -0.001239431
000240 63 6c 75 3c c4 a8 43 3d 2d 7a 4d 3d 34 8b eb 3c
       0.014979455 0.04776837 0.050165344 0.0287529
000250 9f 8c c7 bc 19 79 dd bd 20 0d 47 bd 2e 08 cd bd
       -0.024359046 -0.10814113 -0.0485965 -0.10011326
000260 0a d0 c2 bb 47 9b 38 bd d9 17 e5 ba 0b 6b 37 bc
       -0.0059452103 -0.04506996 -0.0017478421 -0.011194955
000270 58 0e 77 bd f2 a4 df bd b8 37 a0 3c 88 24 2a 3d
       -0.060316414 -0.10920133 0.019557819 0.041538745
000280 e0 6c b5 bd b7 5c c8 bd 8a ca 9d 3d 01 0b 6c bd
       -0.08858657 -0.09783309 0.07704647 -0.05762768
000290 44 2d 23 bd 15 e2 28 3d c1 ec 17 3d bc 41 8c 3c
       -0.03983809 0.041231234 0.03709102 0.017121188
0002a0 f9 8f 0a bd 71 d3 96 3d 8a 85 60 bd 41 c5 46 3d
       -0.03382871 0.07364548 -0.054814853 0.04852796
0002b0 2c 11 bc 3d 7c dc 66 3d 83 3a 6e bb e3 4e 14 bd
       0.09182963 0.056362614 -0.0036350794 -0.036208045
0002c0 54 bd ae bd db 7d e9 3d a4 dc 54 bd fd fa 4e bd
       -0.08532205 0.11400958 -0.05196823 -0.05053233
0002d0 76 19 84 bc 1a 84 48 bc 50 3c 76 3d 1c b6 8b 3c
       -0.016125422 -0.012238527 0.060116112 0.01705461
0002e0 55 bb 93 bd 18 c5 1c 3d 6c 9e cd bd 48 69 c6 3b
       -0.07213465 0.0382739 -0.10039982 0.006055031
0002f0 ef 68 49 3d c4 1e 4c 3d 71 b9 3d 3d a1 3e d2 3d
       0.049172338 0.049834028 0.04631943 0.10265852
000300 fe 6a 5a 3d 06 79 0f bd 1e ae 43 3d 7a 4a 9b bb
       0.053324692 -0.035027526 0.047773473 -0.004739103
000310 14 53 98 3d 15 bd 6e ba d7 b7 37 3d 56 8d a3 bd
       0.07437721 -0.0009107155 0.044853058 -0.07985942
000320 b1 27 5e bd a1 79 58 bd 44 6f 21 bd 5e af 1e 3d
       -0.05423707 -0.05285037 -0.03941275 0.038741462
000330 0c 3a 21 bc 11 d4 f6 bb 92 28 6c 3d 21 cd b6 3b
       -0.0098405 -0.0075326045 0.05765588 0.0055786525
000340 4c 65 64 bd eb 91 8e bd ca 08 c8 3d 17 87 f9 3b
       -0.055760667 -0.069614254 0.097673014 0.007614981
000350 eb 59 78 bc 9c 1c 87 3d bd 3a a9 bd 09 da 60 bc
       -0.015158157 0.06597254 -0.082631566 -0.013723859
000360 1e 76 f2 bc 73 c0 bf bd 44 e5 ce 3d f8 96 2f 3c
       -0.029597338 -0.09362879 0.10102323 0.010717146
000370 9d be ba bd be ea 21 3d 3a d4 b4 3d 79 09 4b bc
       -0.09118388 0.03953051 0.088295415 -0.012392395
000380 a3 70 93 bd b4 fd 2e bd 8e 9d aa bd 04 f9 ca 3b
       -0.07199218 -0.04272242 -0.083308324 0.0061942358
000390 51 96 28 3d a7 25 0c 3d 5f 15 45 3d d0 2a c6 ba
       0.041158978 0.034215596 0.048116084 -0.001511896
0003a0 77 6f a7 3d e7 01 f6 bc f9 dc 42 3d cd b6 00 3d
       0.08175557 -0.030030204 0.047574017 0.031424332
0003b0 56 87 c0 3c d6 ec 7d bd 59 2c 79 bb c6 f9 c8 bd
       0.023502033 -0.061993442 -0.0038020818 -0.098132655
0003c0 7a 31 9f bd 2a 6f 96 bd 84 bf bf bc 59 93 6e bd
       -0.07773109 -0.073454216 -0.023406751 -0.05824599
0003d0 d0 35 d8 3b fa 00 87 3d d4 b1 28 3c 94 3d 20 bd
       0.006598212 0.06591983 0.010296304 -0.039121225
0003e0 43 f8 ed bb b0 28 12 bd f5 8e 92 3d 71 60 e5 bd
       -0.007262261 -0.035683334 0.07156173 -0.11200035
0003f0 24 ee 9f bd 61 60 6a bc 97 62 7c bd 46 76 32 be
       -0.078090936 -0.014305205 -0.06161746 -0.1742793

weight f4 [256, 512]
000000 68 dd 51 bd b0 e6 09 bd d2 17 33 bd cd 17 8a 3b
       -0.05123654 -0.033667266 -0.04372389 0.004214263
000010 88 fb 30 bc 0c 30 40 bc 54 1e fc 3c 49 c0 e9 bc
       -0.010802157 -0.011730205 0.03077618 -0.028534072
000020 32 08 32 3c 67 42 79 bd 39 10 f8 bb 16 c0 2f bb
       0.010866212 -0.06085434 -0.0075702933 -0.0026817373
000030 86 eb 7c bc 31 e7 b4 3c f8 55 0f 3d 34 c5 c8 bc
       -0.015437013 0.022082897 0.034994096 -0.024508096
000040 17 b2 86 3c eb b0 db 3b 19 3d ac 3a 27 33 0a bc
       0.016442342 0.00670444 0.0013140767 -0.008435047
000050 09 ea 2f bd ca cb 33 bd 87 62 49 bc e7 8d 67 bc
       -0.042947803 -0.04389552 -0.012291557 -0.014132953
000060 0b 9f 8b 3b 0a af 4f bd 38 0e 8d 3b e0 ac 2c 3d
       0.0042609028 -0.05070404 0.0043046735 0.042157054
000070 58 68 16 3b 92 ed 3d bd b3 f1 39 bd 2d 4a fb 3c
       0.0022950377 -0.046369143 -0.045396518 0.030675018
000080 4c 48 8f 3c 0b e2 08 bd a3 44 5d 3c ed 44 d8 bc
       0.017490529 -0.033418696 0.013505134 -0.026400054
000090 c4 0b 0e 3a 72 a6 7b bd 01 67 e4 bc 47 4d 25 bd
       0.00054186233 -0.06143803 -0.027881147 -0.0403569
0000a0 ec 4b 00 3d 0d 63 9b 3c b9 f7 5f bc 2c ed 1a bd
       0.031322405 0.01896813 -0.0136699015 -0.03782384
0000b0 8d 79 12 bc f1 68 9c bc 7f fe 09 bd 05 2b b1 3c
       -0.008940113 -0.019093009 -0.033689972 0.021626959
0000c0 6d c6 a4 bc fa 6a 0f bd a6 95 3a ba fd 68 c4 bb
       -0.020114148 -0.03501413 -0.0007117636 -0.005993961
0000d0 1a 94 e9 ba ee c2 5e 3c 03 52 53 bc 7b 11 d2 3b
       -0.0017820627 0.01359628 -0.012897971 0.0064107752
0000e0 71 e3 30 bd c7 5e ec 3c 5d b5 ef bb e7 3b 1c 3d
       -0.043185655 0.028853787 -0.0073153214 0.038143065
0000f0 63 f5 c0 bc 82 53 6c bd a1 70 f9 bc 2a b7 c5 bc
       -0.02355451 -0.057696827 -0.030449213 -0.024135191
000100 8f 7c ec bc 51 84 2d bd 37 55 bb 3c 40 be 0b 3d
       -0.028867988 -0.042362515 0.022867782 0.034116983
000110 1a 1a 0f 3c d4 94 2d 3c cf cc d6 bb 44 1f 00 bd
       0.00873425 0.010594565 -0.006555177 -0.031279817
000120 c5 4d 10 3d 01 4a e0 bc 76 ed 12 bd cc 47 90 bb
       0.035230417 -0.027379038 -0.03587099 -0.00440309
000130 40 13 84 3b 46 c7 da ba 13 a8 07 bd 84 2f 6d bd
       0.004030615 -0.0016691468 -0.033119272 -0.057906643
000140 73 15 07 bd 78 2d 6d bc 2e 09 16 bd 76 e0 30 bd
       -0.03297944 -0.014476173 -0.03662985 -0.043182813
000150 f5 05 3d bd a3 ff b6 3c 44 50 59 3b 89 16 75 bb
       -0.04614826 0.022338694 0.0033159414 -0.0037397465
000160 4a 5f 56 bd 3e 28 23 bd ab e1 be bc 22 0d 16 b8
       -0.05233697 -0.0398333 -0.023300966 -3.5775018e-05
000170 83 03 29 bb 1c b3 10 3d b0 d9 57 bc c7 74 07 bd
       -0.0025789447 0.035327062 -0.013174459 -0.033070352
000180 9b 82 26 bd 49 0c b7 3c f4 e4 73 bb a8 ed 7c ba
       -0.0406519 0.022344725 -0.0037215324 -0.00096484507
000190 8b 89 e7 3c 69 89 1f 3c 85 f7 0d 3d bd b9 3c bd
       0.028263828 0.009737351 0.03465988 -0.04607557
0001a0 4a c4 b5 3c 81 f5 15 3d b2 0e c5 3b ac fe 4b bd
       0.022188324 0.036611084 0.0060137147 -0.04980342
0001b0 71 80 18 bc 64 f8 7f 3c 9e d4 1f 3d 62 9d 7b bd
       -0.009307967 0.015623186 0.039021127 -0.06142939
0001c0 21 15 ae bb cc 0b 34 bd 69 00 7f bb 41 be 08 3c
       -0.0053125774 -0.043956563 -0.0038910157 0.008346141
0001d0 e7 f3 b6 3c d5 38 75 bc 97 02 1e 3d 19 cf f6 bb
       0.022333099 -0.014967163 0.03857669 -0.007532012
0001e0 b0 af 63 bd f3 43 bb bc 9a 85 85 bc 6f 9c 3f bc
       -0.05558747 -0.02285955 -0.016299058 -0.0116950115
0001f0 e9 42 d4 bc af c7 cf 3c 62 73 1c 3d b2 3f 2e bd
       -0.025910811 0.025363771 0.038195975 -0.042541213
000200 c4 89 9f bc 1e 64 ed 3a e5 97 18 3d cd 95 16 3d
       -0.019474871 0.0018111502 0.037254233 0.036763955
000210 af 46 e8 bb 05 48 13 bc 43 49 04 bd 6d 25 d1 3a
       -0.0070885043 -0.008989339 -0.03229643 0.0015956588
000220 69 7d 21 3c 2d 61 b9 3c b8 0d 06 bd 69 df 19 3d
       0.00985656 0.022629345 -0.032727927 0.037566576
000230 db 79 1f bd b5 d6 43 bd 0a 7a cb 3c f9 d5 95 bc
       -0.03893457 -0.047812182 0.024838466 -0.018290507
000240 0d e8 97 bb ff ff bd bc b5 e3 60 bc 09 b2 67 bd
       -0.004635817 -0.023193358 -0.013726165 -0.056566272
000250 2e 28 c8 3c 92 d9 06 3d 40 1a 36 bd 33 62 be 3c
       0.024433222 0.032922335 -0.044458628 0.023240184
000260 a6 c0 4b bd 7f 7e 1c 3b 6e e7 8d 3b 01 9b 9e 3c
       -0.04974427 0.0023879108 0.004330567 0.019361021
000270 27 2b 26 bd 6f 85 13 bd a9 9e 68 bc 1f 46 e5 bc
       -0.040568497 -0.036015924 -0.014197984 -0.027987538
000280 70 9b a2 3c db 3e 3e bd 93 28 c0 bb 75 2f 38 bd
       0.019849509 -0.046446662 -0.005864212 -0.044967134
000290 cb f1 36 bd 76 a6 85 bc f8 a0 bd 3c 4f 04 75 bb
       -0.044664185 -0.016314726 0.023148045 -0.0037386601
0002a0 2e b6 2e 38 ba 14 59 bd 8d 94 03 3c 05 55 e8 bc
       4.16545e-05 -0.052998282 0.008031023 -0.028360853
0002b0 51 9b 44 3a d8 00 b6 bc 9c bf 64 bb 0f 46 33 bd
       0.00074999506 -0.0222172 -0.0034904247 -0.043767985
0002c0 e9 44 a9 bc c3 d1 a8 3c 69 39 47 bd 29 4d dc bc
       -0.020662742 0.020607835 -0.048638735 -0.026892262
0002d0 b6 a7 21 bb 08 25 d7 bc a5 c6 cb 3c 82 87 fb bc
       -0.0024666614 -0.026262775 0.024874995 -0.030704264
0002e0 08 c6 a2 ba 98 de cb 3c ce ba 28 3b 7f a6 cd bc
       -0.0012418637 0.024886414 0.002574611 -0.025103806
0002f0 76 69 c9 bc 6f d5 04 bb 55 87 15 bd 04 17 ed bc
       -0.02458642 -0.0020268818 -0.036506016 -0.028941639
000300 32 4b 77 3b 3c 93 4d 3c 3f 63 8d bc 04 ec 18 bd
       0.003773403 0.01254731 -0.017259238 -0.037334457
000310 a4 0f 07 3d 70 76 9a 3c 25 e7 0b bc 27 a6 03 3d
       0.0329739 0.018855304 -0.008538996 0.032140877
000320 64 ea fd bb b4 91 48 bc 93 60 15 3c 26 db e3 3c
       -0.007748889 -0.01224177 0.009117263 0.027814459
000330 91 ea 92 3c 36 c6 f8 3c 5d 69 b6 bc 26 3d 77 3c
       0.017934116 0.030367952 -0.022267038 0.0150902625
000340 49 7f 99 3c fb 29 85 bb a5 e8 4d bc 36 12 c1 bc
       0.018737452 -0.0040638424 -0.012567674 -0.023568254
000350 66 f5 1d bd 50 3b 8d ba 09 05 d5 3c 7f dd 9e bc
       -0.03856411 -0.0010775123 0.026003378 -0.019392727
000360 29 b9 df 3c 65 fe a2 bc 6c 25 31 3c 21 a9 39 bd
       0.02730997 -0.019896695 0.010812145 -0.04532731
000370 c8 2c 7b bd 9c 4a 02 b7 f3 48 15 3d ed 01 83 bb
       -0.061322004 -7.765975e-06 0.036446523 -0.0039980323
000380 95 6b 44 bc f9 42 16 bc ee c5 c4 bc b2 4f a5 3c
       -0.01198854 -0.009171241 -0.024020161 0.020179603
000390 06 df 6f 3c ba ad d9 bc 27 0d d9 b9 07 f4 52 bd
       0.014640575 -0.026572097 -0.00041399265 -0.051502254
0003a0 ef d4 2b bd b8 a8 53 bd 61 b9 28 bd b7 da f5 ba
       -0.041951116 -0.051674575 -0.041192416 -0.0018757199
0003b0 98 8f 12 bd 7f 53 85 bc ed fc 5b 3c f5 56 9c 39
       -0.035781473 -0.016275166 0.013427001 0.00029819427
0003c0 80 2b 03 39 b6 a5 4e bc 5b 78 c8 bc af 24 97 3c
       0.00012509339 -0.012612751 -0.024471452 0.01845011
0003d0 db 40 a1 3c ed 7e 17 bd 1e ba cd bc e0 96 aa bc
       0.019684246 -0.03698628 -0.025113162 -0.020823896
0003e0 e3 2b 83 3c 99 10 95 bd 8c d9 2f 3c 91 46 0c bd
       0.016012138 -0.072785564 0.01073302 -0.034246985
0003f0 82 6b 28 bd 10 9b 16 bc 78 f5 27 3b 0c 58 0f 3d
       -0.041118152 -0.009192243 0.0025628489 0.034996077

bias f4 [256]
000000 88 63 8a bc 5a 88 85 3b b5 68 90 bc 15 72 e8 3d
       -0.016893163 0.0040750923 -0.017628053 0.113498844
000010 d9 ed 60 bd 78 04 ae 3d 8c 76 74 bd db 5a c8 3b
       -0.05491433 0.08496946 -0.059683368 0.0061143464
000020 7f f2 af 3d 75 83 5f bd ff a9 24 3d c3 d7 32 3c
       0.08591174 -0.054568727 0.040201183 0.010915699
000030 82 25 86 bd 87 b6 12 be 84 14 4a bd 72 66 2e bc
       -0.06550123 -0.14327441 -0.04933597 -0.010644542
000040 a9 eb fa bc 5e 3c f0 3c 46 a5 d1 bb 5b 47 6f bd
       -0.03062995 0.02932566 -0.006397876 -0.05841766
000050 55 29 e7 bd af 64 9e 3d 3c ca c7 bc 14 33 94 bc
       -0.1128718 0.077340476 -0.024388425 -0.018090762
000060 7a 59 cc 3d 4c 03 4e bb b7 43 3f 3c ac f5 04 bd
       0.09978004 -0.003143507 0.011673859 -0.032460853
000070 b4 8b e8 3d 97 51 fe bb 17 f1 5e bd c8 a8 0e 3d
       0.11354771 -0.007761191 -0.05442914 0.03482893
000080 32 05 5f 3d fc a9 f2 bc 08 51 34 bd 17 43 95 bc
       0.054448314 -0.02962207 -0.04402259 -0.018220467
000090 ed d4 fe bb a6 c4 44 3d 19 ea 15 3b c1 e1 94 3c
       -0.0077768476 0.0480391 0.0022875129 0.018174054
0000a0 df 6f 78 bd c9 36 e3 bc ff 9a 2b 3a 94 8e 06 bd
       -0.060653564 -0.027736085 0.00065462285 -0.032850817
0000b0 29 3d 68 bd 49 bb 9e bd a4 52 13 bd d4 e2 8d bc
       -0.056698952 -0.077505656 -0.035967484 -0.017320074
0000c0 60 6e 09 3c 45 a4 79 bd 34 e3 b5 bc b6 93 aa 3b
       0.008388132 -0.060947675 -0.022203065 0.005205597
0000d0 89 f4 93 bd 15 3c 24 ba a5 97 b4 bc f4 97 15 bd
       -0.07224376 -0.00062650564 -0.022044966 -0.036521867
0000e0 5f 7c bf bc 95 c1 48 bd df aa d5 bb 38 e9 86 bd
       -0.023374734 -0.04901274 -0.0065206136 -0.06587452
0000f0 ea f8 45 3c 40 82 48 3d 7b e0 31 3d 4f b2 57 3c
       0.0120832715 0.04895234 0.043426972 0.013165071
000100 25 5b 71 bd 12 c2 48 bb b6 e1 1f 3c dd 93 90 bc
       -0.058924813 -0.0030633253 0.0097584035 -0.017648632
000110 45 95 e4 bc 1b 47 2e bc f5 31 5f bd c1 2f fa bc
       -0.027903209 -0.01063707 -0.054491002 -0.030540349
000120 f0 1c 2e bd 34 1f b1 bc 9f af 62 3c c0 d4 c2 bc
       -0.042508066 -0.021621324 0.013835817 -0.023783088
000130 09 38 05 3d 3d 0d 08 bc b3 46 be bd ad e2 8a bd
       0.032524142 -0.0083039375 -0.092908286 -0.06781516
000140 09 97 87 bc 56 c6 e5 3d 39 96 fb bc 65 5d 62 bd
       -0.016551511 0.1121947 -0.03071128 -0.05526485
000150 b3 47 67 bd 37 02 b2 ba 05 70 56 bb 54 04 e2 3b
       -0.056464862 -0.0013580982 -0.0032720577 0.0068974886
000160 e4 5c 25 3d e6 70 d9 bc 8d 36 c5 bc 96 4b 57 bd
       0.04037179 -0.026543092 -0.024073863 -0.05256232
000170 5d 04 0c be 23 c2 02 3d 1f f7 d1 3c a0 24 57 3c
       -0.1367354 0.031923424 0.025630532 0.013131291
000180 94 a0 8a bd 19 ac 9c bc 6b a9 90 bc bb f0 38 3c
       -0.06768909 -0.019125031 -0.01765891 0.011287863
000190 90 0a e4 bc 0e 6a 5a 3d 53 43 5d bd bd 0f 9f 3d
       -0.027837068 0.053323798 -0.054019284 0.07766674
0001a0 9f b4 63 3d 1b 56 b4 bc 31 5a 8b bd f4 76 1f bc
       0.055592176 -0.022013715 -0.06804312 -0.0097329505
0001b0 9e c4 95 3c 6f 0e 10 3d 35 5c 1f 3c e5 78 f8 bc
       0.018282231 0.035170015 0.009726574 -0.030331085
0001c0 df d3 1d 3b 2a 2c 07 bd d9 5d 0f 3c c6 fa a7 bd
       0.0024082584 -0.033001103 0.008750402 -0.08202128
0001d0 55 5e b8 bc 51 c9 13 bd 14 5f 87 bd bf ad f7 3d
       -0.022505919 -0.036080662 -0.066099316 0.12093686
0001e0 bb c4 a3 bb c9 bd 20 bd ad 08 eb bc dd 59 b8 bc
       -0.0049978173 -0.039243493 -0.02869066 -0.022503788
0001f0 5f 5d 42 bd ba a4 17 bd 58 6e ad 3c d0 a9 80 bd
       -0.047452327 -0.03702233 0.02117078 -0.06282389
000200 c2 14 0e bd b9 b3 4c bd 66 03 21 bd f7 15 74 3d
       -0.034687765 -0.049976084 -0.03930988 0.05959126
000210 ea cb cc bc 82 63 5f bd 80 66 bf 3b 9a 0c 8b bd
       -0.024999578 -0.054538257 0.0058410764 -0.06789513
000220 52 b4 5a bd 03 6a 9b bc b4 22 42 bd 67 57 59 bd
       -0.053394623 -0.018971449 -0.047396377 -0.05306187
000230 21 0e 32 bd 04 b5 46 bd db 14 50 bd eb 39 4a 3c
       -0.043470506 -0.048512474 -0.05080114 0.01234291
000240 44 0d 75 bd 5d 1b e8 bc 33 9e b1 3c e6 15 e8 3c
       -0.059827104 -0.02833336 0.02168188 0.028330754
000250 05 81 7d 3d c4 9f 09 3d d1 57 14 3d 07 c9 cd bc
       0.06189062 0.03359963 0.03621656 -0.025120271
000260 d9 db af bd 3c 93 b0 3c 34 1d 8c bd 28 73 9c bc
       -0.085868545 0.021554582 -0.068415076 -0.01909788
000270 36 f7 1e 3c ae 7d 26 3c 2a 7d d8 bb e4 ec b6 bc
       0.009702494 0.0101618 -0.0066067176 -0.022329755
000280 d6 65 f4 bd cd dc cd 3c 19 9e a4 bd e7 7f 57 bc
       -0.11933486 0.0251297 -0.08037967 -0.013153053
000290 81 5d 39 bd 67 5e 51 bd 6c be 8f 3c 88 04 ef bc
       -0.045255188 -0.05111542 0.017546855 -0.029176965
0002a0 30 58 a1 ba d9 38 59 bb c9 03 34 3d 55 ab 9e bd
       -0.0012309607 -0.0033145456 0.043948922 -0.07747523
0002b0 46 f8 08 bd d1 38 06 3d d9 bf 38 bb 32 25 d1 bd
       -0.033439897 0.032769028 -0.0028190522 -0.102121726
0002c0 20 6d 4c bb 20 67 be 3d 7c 27 02 bc ca 9c 84 3d
       -0.0031192973 0.09297013 -0.007943984 0.06475218
0002d0 4a c7 12 3e e5 cc 9e 3c c8 5b 4f bc 03 0e be bc
       0.14333835 0.01938481 -0.01265616 -0.02320004
0002e0 8a 0d a0 3c 53 42 a7 bc e9 ed 97 3b 4e 7e 8c 3d
       0.019537706 -0.020417368 0.0046365154 0.06860028
0002f0 45 08 21 3e 0c c8 61 bc e2 2d 62 bd 66 db 8b bc
       0.15725811 -0.013780605 -0.05521954 -0.01707239
000300 ab fa aa 3c b3 02 5a bd 15 9b 18 bd c3 c7 7e bd
       0.02087148 -0.05322523 -0.037257273 -0.062202226
000310 f3 5e 9f 3d 12 1e 06 3d 3e dd cb bd db a4 d8 bb
       0.07781782 0.03274352 -0.09954308 -0.006611449
000320 1e 54 8e 3a db 26 be bd ae 7c 5c bd c0 2a 08 3d
       0.0010858809 -0.09284755 -0.05382984 0.033243895
000330 73 c9 37 3e 6f d5 d2 bd 18 0b 39 bd fd 26 4f 3c
       0.1794794 -0.102946155 -0.045176595 0.012643573
000340 7f a4 b1 3d cc d6 45 bc cd 4c af 3b 43 f6 ff 3b
       0.08673953 -0.012075137 0.0053497315 0.007811339
000350 0a 3a af 3c 23 91 85 bd 60 f6 4f ba 2f 32 70 3d
       0.02138998 -0.06521823 -0.0007933136 0.05864161
000360 ab 28 ef 3b 48 8a 6b bd ed 24 a9 3d 23 de e1 bc
       0.007298549 -0.057504922 0.08258996 -0.027571743
000370 ae 9e f6 bc d6 7f 1d bd 44 34 f7 3c 4e 0d 28 bd
       -0.030104961 -0.038451992 0.03017629 -0.041028313
000380 a2 36 a0 bc 14 25 f5 bc 00 9d 57 3d d0 73 fd 3c
       -0.019557301 -0.029924907 0.05263996 0.030939013
000390 5f 8d be bd c1 e0 13 3e 46 26 e5 bd 18 3a 76 3c
       -0.09304308 0.14441206 -0.11188941 0.015028499
0003a0 ac d7 d5 bd 3c f1 96 3d 7d 7a 00 3b 04 21 de 3c
       -0.10441527 0.073702306 0.0019604259 0.027115352
0003b0 b0 db bd bc f2 14 2f bd b7 66 50 bc 6b 3e f8 bb
       -0.023176044 -0.042744584 -0.012719802 -0.0075758
0003c0 bf 74 03 bd 9e 3b 0c 3c 5f 4d 88 3d 82 a9 0c 3c
       -0.03209376 0.008559136 0.06655382 0.008585336
0003d0 85 77 06 bd b7 e0 7b 3c 29 17 a6 3d 10 48 2e bd
       -0.032828826 0.0153734 0.08109886 -0.042549193
0003e0 d4 96 b0 bc 40 fe 5f bd c6 66 c2 bb ba 8c 0d 3d
       -0.021556295 -0.05468583 -0.0059326617 0.034558035
0003f0 5a 14 02 3c 2d 01 78 3b 39 ab 81 3c fe 75 b9 bd
       0.0079394225 0.0037842498 0.015828716 -0.09055708

weight f4 [128, 256]
000000 cc 79 ba bc ec e3 2e 3c 33 31 af 3d 22 ad 41 bd
       -0.022763155 0.010674458 0.08554306 -0.047284253
000010 81 dd 80 bd 53 26 f4 bd 57 18 d4 3d 8b b8 7e 3b
       -0.062922485 -0.11921372 0.10356205 0.003886732
000020 59 cf 6c bd 37 74 bb bd fd 52 42 3d 1a bd ef 3c
       -0.05781493 -0.091530256 0.047442425 0.029264975
000030 38 fc 21 bc e6 95 aa 3d 69 32 8e bd 59 3b 48 be
       -0.009886794 0.08329372 -0.06943209 -0.1955389
000040 24 62 c8 bc f2 15 46 3d 90 25 b4 3d 96 88 24 bd
       -0.02446086 0.048360772 0.08796227 -0.04016932
000050 b8 b7 bb bc 45 47 1c be ae eb 38 39 e1 bd 44 3d
       -0.022914752 -0.15261562 0.00017635405 0.048032645
000060 7c 8d e6 3d 73 b8 58 bd c7 58 1e bc 72 10 b9 bd
       0.11257455 -0.05291028 -0.009664721 -0.0903634
000070 51 1f 7c bd 4d 7f 08 be 03 93 db bc bc ad d4 bd
       -0.061553303 -0.13329811 -0.0268035 -0.103847
000080 ab 2a 48 3e 9d 6f 06 3a ce 7b 34 3c 40 ec 57 bd
       0.19547527 0.0005128326 0.011015845 -0.05271554
000090 c9 87 b5 3c 30 f2 3b bd c5 01 5f bd 12 c9 7a bd
       0.022159474 -0.045885265 -0.054445047 -0.06122691
0000a0 9f 3a b9 bd b0 ab fc bb 27 21 8f bb 53 17 43 b9
       -0.09044384 -0.0077108964 -0.0043679657 -0.00018605338
0000b0 20 5d e2 bc 0a f4 34 bd 8a 83 a8 bd 4f ac 87 bd
       -0.027632296 -0.044178046 -0.08228214 -0.06624662
0000c0 c7 a4 42 bd 5d 0f c5 bc 66 c5 23 3d fc 2c 62 3d
       -0.047520425 -0.024055177 0.039983176 0.05521868
0000d0 a1 a6 c4 3c 8c c7 39 bd b5 56 7a 3d 0a 53 58 bd
       0.024005236 -0.04535632 0.061117847 -0.052813567
0000e0 12 ae 92 bc 44 49 48 bd 5b c5 a6 bc df c3 33 bd
       -0.017905269 -0.048897997 -0.020357778 -0.04388797
0000f0 81 a1 88 bd b8 f2 03 3d e3 19 8f bd 93 98 8a bd
       -0.066714294 0.032213897 -0.069873594 -0.067673825
000100 ab 08 e3 bc 52 13 7b 3b a6 31 13 3e b0 59 0a bd
       -0.027714094 0.0038311076 0.14374408 -0.03377694
000110 e3 fa a1 bd 74 e7 04 3c d7 04 20 bd a9 17 f7 3d
       -0.07909181 0.008111823 -0.039067116 0.1206506
000120 cf 2b ed 3c b2 c6 7b bc 2c e4 cf bd 43 90 d2 bc
       0.028951554 -0.015367197 -0.10150942 -0.025703555
000130 f6 2d 46 bd 9e 9a be ba f7 04 23 bd 4e 85 82 bd
       -0.048383676 -0.0014541929 -0.039799657 -0.06373082
000140 ce 95 f2 3c e9 da 48 bd 0b 15 95 3d fb b6 d3 3d
       0.029612448 -0.049036894 0.07279404 0.10337635
000150 ad a6 9e bc ca 6f 08 bd 5a 1c 63 3b df 09 90 3d
       -0.019366587 -0.033309735 0.003465435 0.07033133
000160 3c 0f 1f bd 9b 9f 29 be 3a 41 7a 3b c2 1b be 3c
       -0.038832888 -0.16564791 0.003818585 0.023206595
000170 9b 68 2e 3b 1c b0 99 bd c0 5e f6 3c da c2 12 bc
       0.0026612643 -0.07504293 0.030074477 -0.008957589
000180 e6 b9 05 bc 88 16 b8 bd fa 4a 51 be 48 37 e5 bc
       -0.008161997 -0.089886725 -0.20438758 -0.027980462
000190 f2 68 f7 3a e5 66 43 bd 11 86 7e 3d 25 b0 5f bc
       0.0018875881 -0.04770555 0.062139574 -0.013652836
0001a0 75 4b be bc 41 98 40 bb 73 05 6b bd 22 08 e4 bd
       -0.02322934 -0.0029387625 -0.057378244 -0.11134364
0001b0 29 97 81 bd 4b 78 f1 3d fc aa 16 bd a8 58 1a bd
       -0.0632766 0.11790522 -0.036784157 -0.037682205
0001c0 5f f3 44 3d fb 7a 6f 3c ae 60 32 bc f5 96 3f 3d
       0.04808366 0.014616723 -0.010887308 0.046774823
0001d0 10 cc 64 bc 0e 96 c6 3c 80 05 ff bc 3e 3e ba 3d
       -0.013964668 0.024241474 -0.031130552 0.09093903
0001e0 49 77 42 be 68 9e 37 3e 86 b1 3b 3d a0 0b 3a bd
       -0.18990816 0.17931521 0.045823596 -0.045421243
0001f0 68 a2 5b 3c e6 83 bf bc 2d 38 65 bd 8a e2 38 3e
       0.01340542 -0.023378324 -0.055961777 0.18055168
000200 bb 4f a4 bd 81 cb ca 3c 14 8d 78 3d b5 e2 9d 3c
       -0.0802302 0.024755241 0.060681418 0.019273141
000210 80 61 c6 3d 7e 78 be 3c cf dc 9c be 70 77 66 3d
       0.096865654 0.023250815 -0.30637214 0.05626625
000220 93 cc 5a 3d 4a 40 fe bd ed 94 13 be 56 73 b5 bc
       0.053417753 -0.12414606 -0.1441228 -0.022149723
000230 68 d1 ab bb 3f d4 3b 3d 13 a3 57 bd 1a 44 9c bd
       -0.005243469 0.04585671 -0.052645754 -0.07630177
000240 3d f1 b7 3c 05 79 02 be 09 f3 8d bd 49 09 03 be
       0.022453899 -0.12741478 -0.06931121 -0.12796511
000250 8d ed eb bd fd 0e 7e bc cc de 8c 3d f7 0d 60 bd
       -0.115199186 -0.015506503 0.06878433 -0.054700818
000260 93 c4 2a be ca 9f 5b 3d 3d bf b3 3d a8 1d 03 3c
       -0.1667655 0.053619184 0.0877671 0.008002676
000270 82 af 66 bb 75 bc 96 bb c3 79 bb 3c fc cd 92 bc
       -0.0035199826 -0.0046001025 0.022885209 -0.017920487
000280 aa 79 8c bd c4 09 85 bd bf 60 e0 3d 97 b1 49 bd
       -0.06859143 -0.06496003 0.10955953 -0.04924163
000290 0f 08 2f 3c b8 e7 63 bc da 00 2f bc a2 ac 1c bc
       0.010683074 -0.0139102265 -0.010681355 -0.009562643
0002a0 1c 1e 3d bd 75 53 53 bd e7 f5 30 bd 14 74 00 bd
       -0.046171293 -0.051593263 -0.04320326 -0.0313607
0002b0 82 c6 bb 3c 8e c2 41 3c 14 27 da 3c 38 09 a2 bd
       0.022921804 0.011826171 0.026629962 -0.079119146
0002c0 8e fe 83 bc d9 44 6d bd 4a e7 6b bd 88 60 ed bc
       -0.016112592 -0.057926986 -0.05759362 -0.028976694
0002d0 7a 24 a8 bd 09 8c 56 3b dc c2 f7 bd 40 66 2f bd
       -0.08210082 0.0032737276 -0.12097713 -0.042822123
0002e0 ce 0d ac 3c 50 2d 14 bd 64 35 cb bc 79 3a f4 bd
       0.021002676 -0.036176026 -0.024805732 -0.11925215
0002f0 d0 74 a2 bd 34 3f ee 3d 3e 8d df 3d cd 2e 24 3d
       -0.079324365 0.11633149 0.10915612 0.040083695
000300 6b ef 6d bd 41 64 b5 bd 91 a2 e2 3c 9f 57 86 bd
       -0.058089655 -0.088570125 0.027665408 -0.06559681
000310 29 4d 77 bd e8 a6 c0 bc 75 76 c0 bc e2 c8 bf bb
       -0.06037632 -0.023517087 -0.023493985 -0.0058528045
000320 c4 64 86 bb 32 e5 83 3c 6e d9 6b bc 10 d3 a6 bd
       -0.0041013677 0.0161005 -0.014395101 -0.08145726
000330 78 38 d0 bd 8d 43 3a bd 6c 21 ca 3c 9c 0d 08 bd
       -0.101670206 -0.045474578 0.02467414 -0.033216104
000340 e4 fd 9a bd 71 e0 23 be cc dd 25 3c 82 cf 85 bc
       -0.07567957 -0.16003586 0.010123681 -0.016334299
000350 f8 12 00 bd 66 48 c9 bd c6 8b f9 bc 2f 24 c1 3c
       -0.03126809 -0.09828262 -0.030462157 0.023576824
000360 79 6d 6f bc 63 25 0a 3d e0 2a 18 3d 41 74 1d 3c
       -0.014613503 0.03372706 0.037150264 0.009610237
000370 94 78 b4 3c 2a 77 8b bd fb 35 29 bc 9c 97 f0 3b
       0.022030152 -0.06809838 -0.010327811 0.007342292
000380 d0 e8 be bd 70 3e 9e bd a5 48 f3 3c 41 a4 85 bd
       -0.09321749 -0.07726753 0.029697726 -0.065254696
000390 11 67 25 bd c4 cd 80 bd b4 93 3d 3d 6d bd 2a bd
       -0.040381495 -0.06289247 0.04628344 -0.041684557
0003a0 22 f6 7b bd f7 12 0c bd 94 8d 1f be 30 bd 2f 3d
       -0.061514027 -0.034197774 -0.15581352 0.042905033
0003b0 b9 40 3e 3d 0e 72 9c 3d 53 f6 6b 3c 02 a9 a0 bc
       0.046448443 0.07638942 0.01440199 -0.01961184
0003c0 b5 a1 e1 bc 48 67 26 3c e4 c5 aa bd 4c c8 93 3c
       -0.027542928 0.01015646 -0.08338526 0.018039845
0003d0 a1 a6 ec 3c f7 e5 97 3a d2 af 9a 3d e8 d1 23 3c
       0.028888049 0.0011588921 0.07553066 0.009998776
0003e0 8e 0b 69 bd 7c b0 95 bc 07 8f 48 be 84 59 09 bb
       -0.056895785 -0.01827263 -0.1958581 -0.0020957896
0003f0 0b 83 1d 3d 0a 20 ba 3c 1b 4b fa bd f2 42 87 3c
       0.03845505 0.022720356 -0.122213565 0.016511414

bias f4 [128]
000000 c7 5c 23 bd d2 ef 04 bd f1 af 82 bd 82 d4 59 3c
       -0.0398834 -0.032455273 -0.063812144 0.013295295
000010 4f 0a 84 bd a4 e2 0d be 01 f3 c8 bd 0a e0 48 bd
       -0.06447279 -0.13855988 -0.09811974 -0.049041785
000020 ad 06 b3 bd c6 a7 d9 bd ac e4 9f bd 28 7a 0c bd
       -0.08741508 -0.10627703 -0.078072876 -0.034296185
000030 74 61 d6 3d 34 b6 65 bd 21 b4 de 3d f2 73 34 3d
       0.104678065 -0.056081966 0.108742006 0.044055887
000040 cc 66 5e bd 51 b4 0d 3b 69 ac 8c bd 20 45 b1 bc
       -0.054297253 0.002162237 -0.06868822 -0.021639407
000050 8a cc 53 bd e8 44 b5 b9 2f 99 4c bd 83 60 85 bd
       -0.051708736 -0.0003457435 -0.049950775 -0.06512549
000060 26 64 39 bd 32 72 52 bd bc a9 80 bd 0d c5 ac bd
       -0.045261525 -0.051378436 -0.06282374 -0.08436022
000070 2e 80 a0 bc c1 3c 49 3e 27 1c 0a bc d7 54 41 3e
       -0.01959237 0.19652082 -0.008429564 0.1888002
000080 c2 bf 1a 3d 88 8a 04 bc cc b0 f6 bc 02 4e 95 bd
       0.03778053 -0.008089669 -0.0301136 -0.072902694
000090 01 3d eb 3c 4b 53 1b 3e d9 9f 5a bc 25 10 2a 3e
       0.028715612 0.15168492 -0.013343775 0.16607721
0000a0 bc e4 33 3e ac 02 12 3e 59 38 a0 b7 84 2c 0d 3e
       0.17567724 0.14258832 -1.9099725e-05 0.13786513
0000b0 d9 0c d2 3d 59 55 3e 3e 7e 0e 13 bd ea 0a 1b bd
       0.10256357 0.18587245 -0.035902493 -0.037852205
0000c0 4a 54 52 3c c3 6a 8d bd c6 64 30 be 82 4f 68 bd
       0.012837479 -0.06905129 -0.17225942 -0.05671645
0000d0 4d 88 64 3d 8d ec 97 3c 9c 60 e2 bc cf 82 8c bd
       0.05579405 0.018545413 -0.027633958 -0.06860887
0000e0 7b 7d 50 bd ef ed ce 3c db dd 19 3d 9b 8d d8 bc
       -0.050900918 0.02525994 0.037565093 -0.02643471
0000f0 6e 77 4e 3e af d3 2e 3d 32 21 e9 3c 83 af cd bc
       0.20162746 0.042682346 0.028458212 -0.025108105
000100 4a bd 60 3e a3 fb af bd 9d 1a f4 bc 87 32 a6 bc
       0.21947208 -0.08592918 -0.029797846 -0.020287765
000110 7a 65 cf bb f4 a7 8d bb 5e 7c 43 3c 22 62 5e 3e
       -0.0063292356 -0.004323 0.011931507 0.21717122
000120 30 80 61 bd 1f ea ab bc 74 86 7c bc a2 b6 ab bd
       -0.05505389 -0.020985661 -0.0154129155 -0.08384444
000130 f1 81 bf bd 16 82 94 3b f5 dd 9c bd 60 70 b3 3d
       -0.09350956 0.004532109 -0.076595224 0.08761668
000140 aa d7 8e bd 25 83 12 bb 16 5c 19 3e e2 e8 c8 bd
       -0.069747284 -0.0022356 0.14976534 -0.09810044
000150 10 13 fd 3c 8e 87 44 3c db 44 5d bd 18 91 3b be
       0.030892879 0.011995209 -0.054020744 -0.18317068
000160 fa bb da 3b ab a7 6f bd a0 9c d4 bc d2 a5 a8 bc
       0.0066752406 -0.05850951 -0.02595359 -0.020586882
000170 c0 e1 f1 bd e3 58 e7 3d ee f4 8c 3c e3 38 29 bd
       -0.118106365 0.11296251 0.017206635 -0.041314017
000180 af 50 ce 3b 4d c3 50 bd 62 41 f6 bc 63 fd cd bc
       0.0062962393 -0.050967503 -0.030060474 -0.025145238
000190 73 d7 37 bd c7 a1 d4 3a 14 d6 16 3e a7 97 b1 bd
       -0.044883203 0.001622253 0.14730102 -0.086715035
0001a0 85 80 02 be 91 ff 8f 3c 1b cd 6e 3e fe 3d b2 bd
       -0.12744339 0.017577918 0.23320429 -0.0870323
0001b0 24 d7 c9 3c 73 fc de bc ae 60 8c 3c 87 c1 64 3e
       0.02463872 -0.027219987 0.017135944 0.2233945
0001c0 d5 e8 41 3e e3 45 52 3e f7 c4 d0 bc 20 da a4 39
       0.18936475 0.20534472 -0.025484545 0.00031443033
0001d0 ca 0a b9 3b 25 25 4e 3b 85 57 f6 bd f1 5a 1d bd
       0.005647038 0.0031455245 -0.12028412 -0.038416807
0001e0 06 fa 19 bd 95 5a 7b 3c 06 07 f0 bd 7f cc 46 bd
       -0.037591957 0.015341421 -0.117200896 -0.048534866
0001f0 d4 73 8a bd 51 47 62 bd d5 ea fd bb ee 98 b0 3c
       -0.06760374 -0.055243794 -0.0077489414 0.021557298

weight f4 [60, 128]
000000 ee 2e e6 3b 2c d5 db bb c1 4f 6b 3d 4b 01 d8 bb
       0.0070246374 -0.0067087617 0.057449106 -0.006591951
000010 87 5c db 3b ba 66 6d 3a 9d 6d da ba 56 ed 41 3d
       0.0066943797 0.000905614 -0.0016664747 0.04734548
000020 f9 c0 57 3d 8c 75 80 b9 66 2f 93 bc 52 30 d9 ba
       0.052674267 -0.00024501642 -0.017966937 -0.0016570187
000030 86 45 d7 b9 45 e1 d6 bc 04 5a 5e bc b3 f1 bb bc
       -0.00041059795 -0.026230464 -0.013571266 -0.0229424
000040 79 a3 85 3c fb 0c 15 bd 1e 57 29 bd 08 17 62 3d
       0.016313301 -0.036389332 -0.041342847 0.055197746
000050 99 f1 32 3b 5a 7d e2 bc 4b 61 60 3b b5 88 d6 3b
       0.0027304648 -0.027647663 0.0034237679 0.0065470585
000060 c8 23 b3 bd 92 7b e6 3b e1 a4 89 3c ee 2e 53 3d
       -0.08747059 0.0070337737 0.016802253 0.051558428
000070 8b 9b 8c bc f0 86 95 bd b2 6b 68 3c b7 1e 72 3b
       -0.017164012 -0.07301128 0.014185833 0.0036944577
000080 e2 f6 35 bb ca 44 12 3c 4a 6e a1 bc 34 22 82 3b
       -0.0027765562 0.008927533 -0.01970591 0.0039713625
000090 a8 07 2a bd 4a f5 51 bc f5 1d 73 3c 04 44 83 3c
       -0.041511208 -0.012814829 0.014838685 0.016023643
0000a0 07 c7 46 3c e8 47 ac ba 4a 5d 22 3b d7 0e f7 3c
       0.012132413 -0.0013143988 0.0024774843 0.030158443
0000b0 36 b3 3a b9 92 35 ae 3c 28 d9 3b ba 4b 39 95 bd
       -0.00017805104 0.021265779 -0.00071658427 -0.072863184
0000c0 ab bf 0d ba db d8 ad bd 0d 64 3f bc 28 dd 6d 3c
       -0.0005407284 -0.084886275 -0.011681569 0.01451806
0000d0 96 87 b8 3b 62 03 b5 3c ed ea eb bb 93 ef 90 3d
       0.0056313975 0.02209634 -0.007199636 0.07076945
0000e0 e9 1e 7c bd 30 7b 25 bc 16 0c c5 b9 3d 55 d6 3a
       -0.061552916 -0.010100171 -0.00037583773 0.0016352307
0000f0 eb ce ce bc b1 3b 28 bc 93 c7 b7 3b 4c d0 31 3c
       -0.02524515 -0.010268138 0.005608508 0.0108528845
000100 19 39 4d bd 1e 72 48 3c 7d ad 0d 3d de 43 d0 bb
       -0.05010328 0.012234239 0.03458928 -0.0063557466
000110 51 69 fa bc 04 ad e0 bb ac 9e 4d 3c 35 da e1 bc
       -0.030567797 -0.0068565626 0.012550037 -0.02756987
000120 4c f4 28 3d 0c 8a 0d bd 80 71 0d bc dd 38 d5 bb
       0.041248605 -0.03455548 -0.008633018 -0.006507023
000130 d2 3e cb b8 b8 41 10 3c 22 b6 77 3d 3c 33 8a 3b
       -9.6914955e-05 0.008804731 0.06047643 0.0042175334
000140 60 13 92 bd 8b ad a6 3b 62 e2 bf 3b 36 07 c0 bc
       -0.07132602 0.005086606 0.0058558444 -0.023440938
000150 c6 35 ab bc b9 38 cd bb 1e 75 1a 3d 60 cc 0e bb
       -0.020899665 -0.0062628654 0.037709348 -0.0021789297
000160 63 06 fb 3b 07 b3 4b 3c dc 04 e2 3a e6 da 6c bd
       0.0076606735 0.01243282 0.001724388 -0.057825945
000170 6b 9e b4 bb 37 50 7b bb 9f 1f 92 bc e8 96 aa bc
       -0.005512049 -0.0038347372 -0.017837344 -0.02082391
000180 f7 dc 96 3b 81 5c 38 bc 03 a7 63 3d 9d d9 0d 3d
       0.004603978 -0.011252523 0.055579197 0.03463136
000190 e0 c2 a5 bc 8e 0d 69 3b ff 1f aa bc a3 19 bb 3d
       -0.020234525 0.0035561058 -0.02076721 0.09135749
0001a0 b2 47 10 3d 9c 15 ff 3a 64 ad 4f bc c6 dd 05 bd
       0.035224624 0.0019461396 -0.012675617 -0.032682203
0001b0 b1 3b 3c 3b 63 42 34 3c 54 a2 e1 3c 2e 3f b1 3b
       0.0028722102 0.011002156 0.027543224 0.005409143
0001c0 62 10 11 be f6 3a ae 3b ea f0 93 3b 83 9e 4f 3a
       -0.14166406 0.0053170873 0.004514803 0.00079200434
0001d0 9d f7 ef 3c 48 e0 bf bc 09 e8 a4 3c ed 66 73 ba
       0.029292876 -0.023422375 0.020130174 -0.00092850515
0001e0 8c 14 a8 bd ac 8c 7c bc 8e c4 92 bb 73 64 c0 bc
       -0.08207044 -0.015414398 -0.0044789976 -0.023485398
0001f0 47 07 b5 bc 8c 7e 57 bc bc 7a 17 3c d8 9b 32 3c
       -0.022098197 -0.01315273 0.009245571 0.010901414
000200 eb 08 81 bc 60 10 14 3e f2 a1 e5 3b ee 63 2c 3e
       -0.015751323 0.14459372 0.007007831 0.16834995
000210 20 43 30 3a cf b5 26 3e c2 ba 6b 3d d8 fb d6 bc
       0.00067238696 0.16280292 0.057551153 -0.026243135
000220 2f 34 76 bd b8 54 ca be 61 d0 07 bb fa 82 d9 bc
       -0.06010836 -0.3951776 -0.0020723569 -0.026551712
000230 96 46 87 3d b9 8a c4 39 b2 e8 21 3d 39 59 3b 3e
       0.0660526 0.0003748739 0.039528556 0.18295754
000240 53 a6 50 bc 3c 6f 8c 3c b6 22 19 3e 79 1b cb bc
       -0.012734967 0.017142884 0.14954647 -0.024793373
000250 9c 47 37 bd 06 c2 14 3e 4c 5e 8a 3b 22 57 98 bc
       -0.044746026 0.14527139 0.004222667 -0.018596236
000260 f9 c6 9b ba 8a 78 c6 3d 4b 48 53 bb 8f 98 54 3d
       -0.001188486 0.0969096 -0.0032239135 0.051903304
000270 85 ed c1 bd 83 7c 9e ba 1e 8a 08 bd 5f e0 92 bd
       -0.094691314 -0.0012091551 -0.033334844 -0.07171702
000280 7d 05 5b 3d 40 f9 fe bc 05 2c 04 bd 89 4a 00 be
       0.05347203 -0.031124711 -0.032268543 -0.12528433
000290 a3 b3 d9 3c 7c 33 9b bd a0 90 2a bc bb 30 a7 bc
       0.026574915 -0.07578179 -0.010410458 -0.020408979
0002a0 51 af 7f 3a 81 7e ea b9 06 91 2c 3e 26 10 dc 3b
       0.0009753602 -0.0004472621 0.16852197 0.006715792
0002b0 c8 ce 53 bd 51 e6 be ba 77 06 e3 bc ea d8 df bc
       -0.051710874 -0.0014564489 -0.027713044 -0.027325112
0002c0 30 f7 a4 3a d2 f3 27 3d 94 5c 70 bc a9 b6 1f bd
       0.0012585875 0.04100401 -0.01467051 -0.038992558
0002d0 ab 86 2c be c5 d6 4b 3d 52 56 e3 be 78 e3 b2 3d
       -0.16848247 0.049765367 -0.44401795 0.087347925
0002e0 ab ac c2 3c 7e fb 3f be fc ec 25 bd 4f 14 a3 3c
       0.023763975 -0.1874828 -0.04050921 0.019907145
0002f0 5c 6a 24 3b ab 56 09 3d f0 aa 0f 3e db 85 ce bc
       0.002508781 0.03352992 0.14030051 -0.025210312
000300 3a ae 35 ba 6a 21 88 3c dd c7 cb 3c 10 c7 12 bd
       -0.0006930564 0.016617496 0.024875576 -0.035834372
000310 73 12 69 3b 5a b3 22 3e 56 d6 7e bd db da 08 bb
       0.0035563975 0.1588873 -0.062216125 -0.00208824
000320 05 c4 31 3d 4f 49 a7 bb 57 d3 55 3c 91 f4 83 3d
       0.04339983 -0.0051051746 0.013050876 0.06443132
000330 53 4b 41 3f 72 22 b3 3d 08 02 4d bc a3 40 10 3c
       0.7550556 0.08746804 -0.012512691 0.008804473
000340 d2 b8 b6 bd 8e 95 77 bd ab c8 24 bc 5e 65 ed 3d
       -0.089219704 -0.06044536 -0.010057609 0.115916
000350 db 99 87 bd cd 28 47 3c ff 53 86 bc de 17 6d 3c
       -0.066211425 0.012155724 -0.016397474 0.014471022
000360 0b f2 61 3d c8 b4 20 bd 21 38 93 be da cf c8 3d
       0.05516247 -0.039234906 -0.2875376 0.098052695
000370 d7 5d 20 bf ca 90 7d b8 95 9f 82 bb 0f ce b0 bd
       -0.6264319 -6.0454746e-05 -0.003986309 -0.086330526
000380 43 89 ef 3c 2b bc 57 be 89 d2 df ba 0a e8 7a bd
       0.029240256 -0.21067874 -0.0017076294 -0.061256446
000390 42 74 de ba 40 72 ab 3c d2 5e 3a 3c fa 0a 22 3e
       -0.0016971903 0.020928502 0.011375146 0.158245
0003a0 37 1a 05 bc 91 62 76 bd a4 5e bc 3a d6 e3 cf bb
       -0.008123926 -0.060152594 0.0014371467 -0.006344299
0003b0 98 18 57 bd 32 8d aa 3e 1e a8 c1 3c fb 24 ae bb
       -0.05251369 0.33310848 0.023639735 -0.005314467
0003c0 c8 b9 27 3a dd ff d1 39 ae 16 96 bc 0a 6e 31 bd
       0.0006398228 0.0004005422 -0.018321361 -0.043317832
0003d0 8f 0d d8 bc 3e 18 98 bc 6a 45 99 bd 43 f1 1b be
       -0.026373653 -0.018566247 -0.07483943 -0.15228753
0003e0 a4 71 aa 3d 03 33 c9 3d bc 4a 91 3e d9 94 92 3d
       0.083224565 0.09824183 0.2837733 0.07157297
0003f0 2e c6 60 3b 15 1f 0e be b4 ca a3 3d 45 60 2b bc
       0.0034297812 -0.13879044 0.07997647 -0.010459964

bias f4 [60]
000000 2b 71 dd 39 f0 42 a2 b8 25 78 ef 37 32 78 a7 38
       0.00042236721 -7.73723e-05 2.8546967e-05 7.985569e-05
000010 c6 fc d7 39 f6 c2 59 b9 3e 9b e6 b9 28 2a e9 b9
       0.00041196326 -0.00020767361 -0.00043984683 -0.00044472632
000020 39 f3 b1 b9 e0 ae fc b9 d4 48 a6 39 f0 fe 2b b9
       -0.00033941286 -0.00048195478 0.00031716248 -0.00016402802
000030 14 ec cb b9 0f 97 32 b9 35 67 89 b9 b9 fc 2f ba
       -0.0003889507 -0.00017031677 -0.00026207571 -0.0006713379
000040 19 80 cd b9 fb c7 bc b9 e8 7c aa b9 77 d1 11 ba
       -0.00039196087 -0.0003600715 -0.0003251799 -0.0005562524
000050 fb 93 d6 39 48 ca 76 b9 9f 80 be b9 81 a9 81 38
       0.00040927515 -0.00023535744 -0.00036335454 6.182772e-05
000060 63 38 b3 39 fe ce bf b7 68 6a e0 39 36 70 df b8
       0.00034183552 -2.2865363e-05 0.00042803888 -0.000106543695
000070 0c 8d ad 39 f5 d7 21 3a 20 04 f7 b9 a3 7e 67 b9
       0.0003310222 0.00061738427 -0.00047114585 -0.00022077053
000080 61 da ab b9 92 d7 37 38 f7 d3 a4 b9 82 a6 7c 39
       -0.00032778367 4.3831365e-05 -0.00031438444 0.00024094622
000090 38 60 ef 39 0c 41 11 b9 9f 23 81 39 de 8e 5d b9
       0.0004565732 -0.0001385251 0.00024631337 -0.00021129425
0000a0 3d 75 70 39 5f d5 a9 39 a8 10 2d b9 2e 3a 08 39
       0.00022931858 0.00032393166 -0.0001650477 0.00012991644
0000b0 2f 3b 92 39 50 61 94 b4 d2 b2 7c 39 23 a5 70 b9
       0.00027891385 -2.7637952e-07 0.00024099209 -0.00022949702
0000c0 ea 0e 5b 39 f8 ac 24 38 4a 25 85 39 e9 5e d0 39
       0.00020891023 3.9261737e-05 0.0002539552 0.00039743565
0000d0 10 54 86 b9 eb f7 b7 39 2e be 71 b9 c0 03 ba 39
       -0.00025621103 0.00035089193 -0.00023054398 0.00035479479
0000e0 a1 d9 84 b9 26 d8 c4 39 14 12 3e 39 fa 49 28 3a
       -0.00025339148 0.00037545076 0.00018126547 0.0006419715
