linearPredictionModels/db39/mega/cleanedCombine.csv_wholeNetPrototype5_Epochs_25_ValidationLoss0.368600_lr0.0003_2023_08_17_19:42:59.pth (torch, 992679 bytes, 8 tensors)

weight f4 [512, 145]
000000 ea 46 04 bd fc ba 0c 3d 91 b4 16 3d 7e 2c f9 bc
       -0.03229419 0.03435801 0.036793295 -0.030416723
000010 26 1b 2d 3d 08 b9 da 3d 28 ee 80 bd 15 e7 d2 3c
       0.04226222 0.10679823 -0.06295425 0.025744954
000020 0a 9a 32 bb 36 8a 20 bb 98 d9 a2 3d 2a 41 a3 3c
       -0.002725246 -0.0024496443 0.07951659 0.019928534
000030 3f 76 27 3e 95 64 02 3d cf a1 8d 3d 11 a6 f1 3d
       0.16353701 0.031834204 0.06915628 0.11799253
000040 50 8a bb 3d 6c 2d 31 3d 9c d7 27 be e5 5d 29 3d
       0.091572404 0.04325621 -0.16390842 0.04134931
000050 2c 36 91 bc 58 f8 98 3d da 24 09 bd f5 7f b0 3d
       -0.017726026 0.07469243 -0.03348241 0.08618156
000060 d7 8d 4e bc 7a 55 6c 3d 98 2b 46 bd 42 2d d2 bd
       -0.012607059 0.057698704 -0.048381418 -0.102625385
000070 5a 6f ff 3c d0 88 07 be bc fb 7a 3c ff d5 56 bd
       0.031181026 -0.13235784 0.015318807 -0.052450176
000080 19 a0 2d bd e7 35 7d 3c 40 32 29 3b 96 d8 c0 3c
       -0.04238901 0.015454746 0.0025817305 0.023540776
000090 4a e0 be bd c8 81 71 bb df 8e a3 3d f3 74 00 bd
       -0.093201235 -0.0036851037 0.07986235 -0.03136153
0000a0 43 d5 bf 3c 20 eb b5 bd 7b 34 95 3d b1 a4 f2 bd
       0.02341712 -0.08882737 0.072854005 -0.11847819
0000b0 3b 2a 58 bc ad 9d 29 3d 1e 43 80 bd 48 1a 49 be
       -0.013193662 0.041410137 -0.062628016 -0.19638932
0000c0 18 ea 1c bc 7b eb cc bc 8a 99 59 3e 5e 42 f8 bd
       -0.009577297 -0.02501463 0.21249977 -0.121220335
0000d0 10 95 85 bd ba 73 6b 3c df f4 f9 bc f7 e5 30 3d
       -0.06522572 0.014370853 -0.030512271 0.04318806
0000e0 3d 24 61 bd 8c d1 58 bd 46 07 ea 3c c4 3d 83 3d
       -0.0549662 -0.052934214 0.028567921 0.06408265
0000f0 fb b5 d9 bd 4c 3e b0 bd ed da 4d 3d 79 8d 73 3d
       -0.10630413 -0.08605632 0.050257612 0.05946109
000100 75 ba be 3e 6f f9 12 be f5 3f a7 3d 93 9a a2 3e
       0.3725163 -0.14352964 0.08166496 0.31758556
000110 3b 29 71 bd 69 bf 42 be e6 98 ab 3e 55 18 aa 3d
       -0.05887721 -0.1901833 0.3351509 0.08305422
000120 15 7d 15 bc 1a cc 53 be ae bf a4 3d 78 38 8c 3c
       -0.00912406 -0.20683327 0.080443725 0.01711677
000130 e6 a0 7c bd 2a a0 8b be 75 63 a4 3c 01 60 ae 3c
       -0.061676882 -0.27270633 0.020066956 0.021286013
000140 80 52 40 be 78 0c 5b be bd c5 19 bc 92 40 10 bd
       -0.18781471 -0.21391475 -0.009385523 -0.03521783
000150 90 b0 24 be f9 ae 63 be 25 cc cc bd 40 ec ed bc
       -0.16082978 -0.22234716 -0.09999875 -0.029043317
000160 3c 6c e4 bc ba ee 09 3e c3 46 86 be f9 cc f1 3d
       -0.027883641 0.13469973 -0.26225862 0.118066736
000170 0a 28 7f bc dd 2f 4a 3e b3 5d c3 bd 6b d9 cf bc
       -0.015573511 0.19744821 -0.09539356 -0.025372228
000180 ae a8 2c 3d 8a 39 57 b9 0a 66 c7 3d 74 00 1c 3d
       0.042153053 -0.00020525433 0.09736259 0.03808637
000190 8f 2a 2c be e3 c9 b5 bd af ff 66 bb 04 9a c3 bd
       -0.1681311 -0.088763975 -0.0035247614 -0.095508605
0001a0 66 f2 96 bd 6c 08 cc bc 16 1a a4 bd 2b 6a b6 bd
       -0.073704526 -0.02490636 -0.08012788 -0.08906969
0001b0 3d 91 34 3d d8 d1 19 3d 42 d2 95 3d 01 3a 02 be
       0.044083823 0.03755364 0.07315494 -0.12717439
0001c0 d1 97 c2 bc 45 01 23 bd 8e ab 03 bd 8e 1f ba 3d
       -0.023754032 -0.039796133 -0.03214603 0.0908805
0001d0 11 74 38 3c dd 38 d6 bd ea e1 40 3d 4c 47 c8 bc
       0.011258141 -0.104600646 0.04709045 -0.02444806
0001e0 22 de 41 3d 9d a4 0d 3d 6d f8 f8 bc 2a f5 f7 bc
       0.047330983 0.034580816 -0.030391896 -0.03026827
0001f0 ce 41 9a bc 87 de 66 bd 09 c3 72 bc 42 af 28 bd
       -0.018830206 -0.056364562 -0.014817008 -0.041182764
000200 e8 38 45 3b 66 95 5b 3c 7e fa 8e bc f7 0a b5 3d
       0.0030093733 0.013402319 -0.017453428 0.08839982
000210 e9 bc 27 3d 03 a1 8f 3c 86 1c 8f 3d 50 cd 85 3c
       0.040951643 0.017532831 0.06987862 0.016333252
000220 3d 02 14 bd f9 bc 11 bc 1b 4d 19 3d e9 c9 d6 bb
       -0.036134947 -0.008895152 0.03742705 -0.0065548313
000230 11 85 09 3d 00 a6 57 3d 5b 01 0e bd cb ca 9f 3b
       0.033574168 0.052648544 -0.03466926 0.0048764697
000240 5a ff a9 bd 3e 63 a6 bc 26 2f ca 3b 21 45 b6 bd
       -0.083006576 -0.020310994 0.0061701713 -0.08899904
000250 c8 2f d4 bd e4 cc c0 3c 17 f9 ea 3d fe b7 78 bd
       -0.10360676 0.0235352 0.11473291 -0.060722344
000260 22 c3 09 3d 07 e8 80 bc b2 b8 36 bb be e3 1f 3d
       0.03363336 -0.01573564 -0.0027881083 0.03903555
000270 3f 71 46 3e 11 e1 bd bc cc a5 81 bc 8a 7c f7 3c
       0.19379137 -0.02317861 -0.015826128 0.030210752
000280 f3 1b fe bc cb 70 a7 3d 77 f7 f2 3a 24 3b 33 bd
       -0.031019187 0.081758104 0.0018536885 -0.043757573
000290 23 70 0c 3e 10 7a 8f 3d 97 11 55 bc 80 eb 63 bc
       0.13714652 0.070057034 -0.013004682 -0.013911128
0002a0 6b 00 07 3c 33 1b a7 3d 66 ee 27 3d 7d 5f e5 bd
       0.008239846 0.08159485 0.04099884 -0.111998536
0002b0 53 37 5d 3d e2 c3 8f bd 3f 5e 39 bb 3c fb ad bb
       0.05400784 -0.070197836 -0.0028284935 -0.0053094905
0002c0 47 78 b8 bd c3 0a 51 bb 95 93 bf 3c 1b 1b bf 3b
       -0.09007316 -0.0031897284 0.023385802 0.0058320886
0002d0 bb b0 2f 3c 93 72 67 bc 1f 15 45 3c a0 89 c1 bc
       0.010723288 -0.014126438 0.012028961 -0.023625195
0002e0 bc 07 16 bd 29 9d 01 3e 2a 91 3a 3c d4 e2 23 bc
       -0.03662847 0.12657608 0.011387149 -0.0100028105
0002f0 7d ac b2 3d 43 df 21 bd 43 c8 0c 3d 4a 3d 9a bb
       0.08724306 -0.03951956 0.034370672 -0.0047070133
000300 80 72 e5 3c 9e 90 89 bd 28 76 91 bc 1d cb 7c 3d
       0.0280087 -0.06717037 -0.017756537 0.06171714
000310 2d 02 e5 bb ac 3a 52 bd 01 01 89 3b 31 60 d6 bd
       -0.0069887848 -0.051325485 0.004181028 -0.10467566
000320 c0 34 05 3d 9a 5a 04 bd 26 f7 c0 bd 5e 71 c5 bb
       0.03252101 -0.032312967 -0.0942214 -0.0060254773
000330 5f 89 8e 3d 50 65 c1 bd e0 32 9c bc da 22 84 bd
       0.06959795 -0.09443152 -0.019067228 -0.0645196
000340 d3 18 fa bc 20 61 2b 3f 6a 05 c0 3e c9 65 10 3e
       -0.030529415 0.66945076 0.3750413 0.14101328
000350 46 c3 89 be 44 0d 1d be 08 f5 2c 3d 22 4b 80 3e
       -0.26906794 -0.15337092 0.042225868 0.25057322
000360 62 d2 b9 3d 7a 6f 35 bd c1 dc 7c 3d 4b 2f 82 3d
       0.090733305 -0.044295765 0.061733965 0.06356677
000370 c0 0d 0a 3e e3 dd ed 3d a5 04 a6 3d 00 7e b9 3c
       0.13481808 0.11614587 0.081063546 0.02264309
000380 5e 29 4a 3e c6 f5 61 3e 38 e9 4d bd 33 0b 49 be
       0.19742343 0.22066411 -0.050271243 -0.19633178
000390 5d b1 4b 3e a1 c6 82 3e f7 e9 8a 3d b4 44 0a be
       0.19891877 0.25542167 0.067829065 -0.1350277
0003a0 14 d7 84 3d f7 8e 21 be 01 6c 2c 39 bd 6d 12 3e
       0.064863354 -0.15777193 0.00016443433 0.14299674
0003b0 99 ac 07 be f0 83 b3 bc 2c a7 7d 3d 28 f0 e4 3d
       -0.13249435 -0.021913499 0.061927006 0.11178619
0003c0 1d 50 24 3c 8c 54 72 3d ad f9 2b 3d fb d0 d5 bc
       0.010028866 0.05916266 0.041986156 -0.026100626
0003d0 cc e4 85 bd 16 88 f4 bd 0e 48 6f 3d 24 be 5e bd
       -0.0653778 -0.11940019 0.058418326 -0.05438055
0003e0 59 92 ca bc 8e ec a3 3d 76 d9 f9 3d d4 9e 12 3e
       -0.024727987 0.080041036 0.121996805 0.143184
0003f0 7f e6 f9 3c 29 71 7f bd b4 7d 84 3d 23 08 44 3d
       0.030505417 -0.062363777 0.064692885 0.047859322

bias f4 [512]
000000 1d cd 99 3d 9d 13 47 bd 51 bb 88 bd b4 d1 91 3d
       0.075098254 -0.04860269 -0.06676353 0.07120076
000010 b5 54 c0 3d 25 01 e1 3d 21 99 e8 3c 40 1c 20 bd
       0.093911566 0.109865464 0.02839333 -0.03908944
000020 ce a1 31 bd 1f e5 86 bd f4 27 09 be 82 ac 3c 3d
       -0.0433672 -0.0658667 -0.13394147 0.046062954
000030 d5 75 97 bc 86 2f 9f bd 63 6a e9 bc 7c 70 5d 3b
       -0.018488804 -0.07772736 -0.028493112 0.003378897
000040 3b ad c5 3d cf f3 e6 3c bf 95 9a bd ae b9 55 bd
       0.09652182 0.028192429 -0.07548093 -0.05217903
000050 94 2a c9 3b 31 40 13 3d 50 72 8f bd 0c 03 50 bd
       0.006139109 0.03594989 -0.07004225 -0.050784156
000060 05 07 94 3c 5e 92 fc 3c 8f b5 c6 bb 20 65 8d bd
       0.018069753 0.030831512 -0.006064124 -0.06904054
000070 2d a4 db bd 97 2a 48 bd 1c 96 f6 bc 34 b5 a4 bc
       -0.107246734 -0.04886874 -0.030100875 -0.020105936
000080 44 ce 89 bd 88 37 2a bd 34 d8 24 3c d1 40 5e 3d
       -0.06728795 -0.041556865 0.0100613125 0.054261032
000090 59 98 91 3d 89 1f 89 3c ae 18 92 3d 0b fb e5 3c
       0.07109136 0.01673867 0.071336135 0.028073808
0000a0 79 da b7 3c b0 cf 82 bd b1 fe de 3c 6b 07 8e bd
       0.022443043 -0.063872695 0.027221056 -0.069350086
0000b0 32 1a ae 3d 12 26 be bd 87 7d b2 bc ae 20 a3 bc
       0.0850109 -0.09284605 -0.021788372 -0.019913044
0000c0 d3 b5 db 3d 16 14 cc bc c5 01 55 3d de be 26 bd
       0.107280396 -0.024911921 0.05200364 -0.04070937
0000d0 f4 94 98 bd 82 ce de bd aa 8b 14 3d a2 64 73 3c
       -0.074502856 -0.10879232 0.036266007 0.014855536
0000e0 f4 07 98 3c 39 09 1b bd 09 45 9e bd bb 0c 12 3d
       0.01855848 -0.037850592 -0.07728011 0.035656672
0000f0 1c 4a 30 3c 5c a1 97 bd 8f 57 93 bd f6 bd 31 bd
       0.010759857 -0.07403824 -0.07194435 -0.04339405
000100 4a 51 b1 bc ec ca 6b bd 29 78 8e 3c 4e 70 19 bb
       -0.021645207 -0.05756657 0.017391281 -0.0023412886
000110 25 e8 dd bc e3 52 67 bd 7b 30 b9 bd 75 83 66 3d
       -0.027088234 -0.05647553 -0.0904245 0.05627771
000120 f1 96 26 3c c5 b1 bd 3d 45 80 93 bd ec b7 5e 3d
       0.010167823 0.092624225 -0.072022 0.05437462
000130 d9 26 90 bc f0 61 97 bd 6e a5 98 3d b0 23 72 bd
       -0.017596649 -0.07391727 0.07453428 -0.059116066
000140 63 c7 84 3d b3 0b 46 3c 7f ac 03 bd b7 57 c4 bc
       0.064833425 0.01208775 -0.032146927 -0.023967607
000150 a8 bc 75 bd ee 78 fc bd d9 ca f6 bc b2 ed 35 3c
       -0.05999437 -0.12327753 -0.030126022 0.011104034
000160 6d d0 68 3c 73 34 2f bd d6 c1 50 3c ce ec 76 bb
       0.014209849 -0.04277463 0.012741527 -0.0037677768
000170 23 04 90 bd 58 2f 2f 3d 1e f8 8a 3d bd 07 86 bd
       -0.07032039 0.04276976 0.06785606 -0.06544445
000180 b9 53 4c bd 7e 30 47 bd e1 0b 1d bd 42 87 78 bd
       -0.04988453 -0.04863023 -0.038341407 -0.060675867
000190 dc 76 7a 3d 0f e1 57 3c 34 12 7d bd 7a 89 e4 3c
       0.06114851 0.013176217 -0.061784938 0.027897585
0001a0 d2 5b 5b 3d 95 df 76 bd 54 72 65 3c dd 91 ff bd
       0.053554364 -0.06027182 0.014004309 -0.12478993
0001b0 8f ec a7 3d cf 01 cf 3c 33 b2 30 3c c0 de 58 bd
       0.08199417 0.025269417 0.0107846735 -0.052946806
0001c0 ed 7a d2 bc 1a 43 9c bd 0f 68 7f bb a8 e2 61 bd
       -0.025693381 -0.07629986 -0.0038971936 -0.055147797
0001d0 89 2c 29 bd 42 94 1b bc 2e f1 91 bb 07 4e 87 3d
       -0.041302238 -0.009495797 -0.0044537997 0.066066794
0001e0 e8 8a 1c bd 50 4a b4 bd 07 fd 16 3d 47 6c 6e 3c
       -0.03821841 -0.088032365 0.0368624 0.0145521825
0001f0 6d 51 4b bd a6 d8 f1 bc 8e 56 36 bd 7e ce 1b bd
       -0.0496382 -0.029522251 -0.04451614 -0.038038723
000200 2d cb 0b 3d 06 cc 6b 3c 98 2d 40 ba aa 73 d2 bd
       0.03412931 0.014391905 -0.0007331013 -0.102759674
000210 35 ad c4 3a 06 f5 a8 3d 7c 9e 92 bd 3a 52 e3 bd
       0.0015005233 0.082498595 -0.07159135 -0.11099668
000220 9d c9 71 3d 83 24 ac 3c 48 ec 7c bd b5 24 02 3d
       0.059030164 0.021013504 -0.061748773 0.031773288
000230 c8 17 d6 3c f2 71 a0 bd 86 5c 9b bb 0c 7f 05 3d
       0.026134387 -0.07834233 -0.0047412543 0.032591864
000240 72 2e 4b bc ee 2f be bd 3d 11 c7 3d 15 ed 13 3b
       -0.01240121 -0.092864856 0.09720085 0.0022571732
000250 db ce 55 bd 40 f9 ac ba 1b d0 b3 bd ba 18 9f bd
       -0.052199226 -0.0013196841 -0.08779927 -0.07768388
000260 98 0c 00 3d ef 66 8b bd c2 c1 df 39 0f 3f 0a bd
       0.03126201 -0.068067424 0.00042678235 -0.033751544
000270 f0 a0 aa bc 9b 38 a2 ba 70 6c 38 bd c8 2a 5e bc
       -0.020828694 -0.0012376489 -0.04502529 -0.0135600045
000280 63 80 1a bc 08 77 3f bc 9e 67 f1 3c 37 11 9a bd
       -0.009430024 -0.011686094 0.029468354 -0.07522815
000290 b0 d0 93 3c b4 83 84 bc 68 f8 b7 3d 2b 5f 20 3d
       0.018043846 -0.016176082 0.089829266 0.03915326
0002a0 dd 69 40 3d 92 99 9d 3b f4 6b 57 3d 2c e9 c3 3d
       0.04697596 0.004809567 0.052593186 0.095659584
0002b0 ad bc 82 bd 1c d4 9b b9 ca 24 33 3c e4 d1 ad bd
       -0.06383643 -0.00029721938 0.010934064 -0.08487299
0002c0 a3 05 d1 bc cb c2 8a ba c0 3f 0c 3b e7 26 66 3d
       -0.025515383 -0.0010586617 0.0021400303 0.056189444
0002d0 18 01 75 bc 4c e7 4b 3d d0 93 b5 bc fa 98 7a 3d
       -0.014953874 0.04978113 -0.022165209 0.061181046
0002e0 4c c9 43 3d 4c 27 6f 3d a6 cb 36 bc ff ef 7e bd
       0.047799394 0.058387086 -0.011156952 -0.062240597
0002f0 a9 10 8c 3d 9e 1d 80 bb 21 6a 23 bd 5e bc 49 bc
       0.06839115 -0.0039097806 -0.039896134 -0.012312977
000300 0a 76 80 bd 76 28 dd bb 60 35 96 bd 60 40 96 bd
       -0.06272514 -0.006749208 -0.07334399 -0.07336497
000310 8d 75 78 bd 4c fe 29 bd b1 ef a4 bd 23 05 41 bd
       -0.06065898 -0.041502282 -0.0805353 -0.04712404
000320 33 08 4e 3d 00 d5 b8 3d fe d3 06 bd 56 ed b5 bd
       0.050300788 0.090250015 -0.032917015 -0.08883159
000330 e4 23 a0 bd 07 f8 2c bd bf 0f c9 bd 58 cf 54 3c
       -0.078193456 -0.042228725 -0.098174565 0.012988888
000340 01 e6 90 3c 92 1d c5 bd 0e 09 ba bd e4 a3 88 3c
       0.0176878 -0.09624781 -0.09083758 0.016679712
000350 fd 64 d0 3d 0a bf 4e 3c c6 1f 89 bd 8d c0 30 3d
       0.10175512 0.012618789 -0.066955134 0.04315238
000360 90 f1 e8 bc fd f6 f4 3c 49 72 82 bd 67 91 22 bd
       -0.028435498 0.02990293 -0.063694544 -0.039689448
000370 e4 2a 16 bb 00 d0 8b bd 2e 2b d8 bc 03 db fe bd
       -0.0022913748 -0.06826782 -0.026387777 -0.12444117
000380 bc 81 14 3d b7 68 52 bd 1f 67 50 3c 56 9a 06 3c
       0.036256537 -0.051369395 0.0127198985 0.0082155075
000390 4d 22 9b bd 66 4b e3 3c f9 16 9e bd c0 86 2d bc
       -0.07574902 0.027745914 -0.077192254 -0.010591209
0003a0 dc b1 e5 3c 1a b7 2b 3d cf 5e 20 3d 75 3a a7 bd
       0.028038912 0.041922666 0.039152917 -0.08165447
0003b0 7d 93 29 bd 8c ab 2c bd 61 b9 9b bc df ae d2 bc
       -0.04140042 -0.042155787 -0.019009294 -0.02571815
0003c0 8d a7 e8 bc 18 bc e1 bb b9 58 95 bd 37 f6 83 3c
       -0.028400207 -0.0068888776 -0.07292313 0.016108615
0003d0 b8 03 ae 3c 3d 10 82 3c 11 72 11 3d 01 c8 3b bd
       0.021242008 0.015876884 0.035509173 -0.045845035
0003e0 d5 d1 84 bc 51 26 c8 3b 1b 0b cd bc d7 57 d6 bc
       -0.016213337 0.0061080833 -0.02502971 -0.026164932
0003f0 b0 35 45 bd 0f 5b ae bd cf c3 d8 3c 65 38 eb bc
       -0.048146904 -0.08513462 0.026460556 -0.028713414

weight f4 [256, 512]
000000 e9 a5 b3 3b 27 10 36 3b d2 41 61 bc b9 f5 01 bc
       0.0054824245 0.0027780624 -0.013748603 -0.00793212
000010 0c 3f d0 bc 3d fa 14 3b c1 8b ce bc a5 98 59 bc
       -0.025420688 0.0022732161 -0.025213124 -0.013281022
000020 00 1e 2b bd 44 96 1a bd 10 17 07 bb b9 b4 23 bd
       -0.041776657 -0.03774096 -0.0020613112 -0.039967272
000030 47 61 09 bd bb 29 39 bc e5 b4 0e bd 32 3f 95 bc
       -0.033540037 -0.011301453 -0.034840483 -0.01821861
000040 ea 38 c3 3c 6f 42 4e bd c1 5a 34 bd 24 6f f2 bc
       0.02383085 -0.050356325 -0.044031862 -0.029594012
000050 dd f5 7d bc 08 b3 63 bc 60 d7 a1 bc fa a2 21 bc
       -0.015500513 -0.013897665 -0.01975602 -0.009865517
000060 40 fe 8e 39 0a 64 81 3c d2 5d 24 bd 85 7e 5b bc
       0.00027273782 0.015794773 -0.040128537 -0.013396864
000070 8c 37 d0 3b 4c 0d d3 3c 8b ef b8 bc 91 92 13 3b
       0.006354278 0.025763176 -0.02257516 0.002251778
000080 72 b3 58 3c 02 38 e6 bc 33 e2 23 bd 3c 8b 3c bc
       0.013226377 -0.028102878 -0.040010642 -0.011507805
000090 6e 52 a1 bc 1e f4 97 3c 33 63 2d bd 21 70 ee 3c
       -0.019692626 0.018549021 -0.042330932 0.029106202
0000a0 34 e7 1f bd a4 c5 25 bc d1 7c a0 bc 48 9e f2 3b
       -0.03903885 -0.010117922 -0.019590767 0.0074041225
0000b0 27 f7 5d bd 60 56 7f 3c 44 e2 8b 3c 9e d9 e7 3c
       -0.05419078 0.015584558 0.017075665 0.02830201
0000c0 9a 15 62 bd a3 8e 55 3a a9 8c 25 bd 60 a6 1a 3c
       -0.055196382 0.00081465597 -0.040417347 0.009439081
0000d0 8c f7 08 bd 42 2c a9 bc 1c 5e cc 3c b0 dd e8 bc
       -0.033439204 -0.020650987 0.024947219 -0.028426021
0000e0 91 ec 08 3c bf 6c 0f bd 99 3d b9 3c ca 5f 06 bd
       0.008357183 -0.035015818 0.02261238 -0.032806195
0000f0 bf aa 00 bd ac 6d 39 3b 7b 61 eb 3c 55 37 e7 3c
       -0.031412836 0.002829413 0.028733006 0.028224627
000100 26 66 87 bc 23 39 17 3d 84 25 0e bd 15 da 39 bd
       -0.0165282 0.036919724 -0.034703746 -0.045373995
000110 5c b7 0b 3c a0 e3 2e bd 47 a4 df 3c dd 17 d5 3c
       0.008527603 -0.04269755 0.027300013 0.026012355
000120 5b 18 d8 bb 1c bc 66 bd 17 d6 a2 3c 15 88 31 bb
       -0.0065947003 -0.05633174 0.019877477 -0.0027089168
000130 8a 1f 12 3d 57 73 bd 3c e0 26 d4 3a c1 00 18 3c
       0.03567461 0.023126287 0.0016185902 0.0092775235
000140 8f 1c c4 3c 17 e1 0d 39 02 8a 0c 3c 19 a9 b4 3c
       0.023939399 0.0001353066 0.0085778255 0.022053288
000150 d6 79 e3 3c b0 e6 00 3d 14 9f 80 3c 39 20 9a 3c
       0.027768057 0.03147 0.015700854 0.018814193
000160 8a 67 5e bd 1b 2d 1d 3b 10 2b f5 bb 8a d6 81 bc
       -0.05429796 0.0023983184 -0.00748194 -0.01584937
000170 75 b9 f8 3b bb e0 4e bd 31 2a 17 bd 0d 6f 1c bd
       0.0075904676 -0.05050729 -0.03690547 -0.038191844
000180 74 cb 16 bd 93 d5 c8 bb 1c 99 f0 3c de 83 9b 3c
       -0.03681512 -0.0061289757 0.029369883 0.018983778
000190 09 c4 1f 3b 72 45 2b 3b 1c 7e c4 bc dd 5c d5 bc
       0.002437832 0.0026133922 -0.023985915 -0.026045257
0001a0 13 59 2e 3d 9b 3c 63 3b 21 1f f1 bb 71 69 c1 3c
       0.042565417 0.0034673575 -0.007358447 0.023609849
0001b0 ec 5f 80 bc 6b 71 e9 bc ed 84 ce ba 34 8a 14 3d
       -0.01567074 -0.028496465 -0.0015756168 0.036264613
0001c0 a9 fa 72 3c d8 3b f2 3b d4 65 2a bd c6 18 af bc
       0.01483027 0.007392388 -0.041601017 -0.021374118
0001d0 da 5b 60 bc fd 5a be ba 92 b7 d4 3b 4d 31 d4 3c
       -0.013693774 -0.0014522966 0.00649161 0.025902415
0001e0 f8 64 91 3c 34 eb 2c bc 4f f1 be 3b 7f c2 c7 3c
       0.017748341 -0.010554124 0.005827106 0.024384735
0001f0 0b 21 0b 3c 9d a4 38 3c 2e 17 76 bb 46 cf 15 3a
       0.008491765 0.011269716 -0.0037550437 0.0005714785
000200 f2 53 83 3c 3b 99 d3 3c 77 2e 42 bd e1 bb a5 bc
       0.01603124 0.025829902 -0.047407594 -0.02023119
000210 96 d7 a4 3c 4e 86 06 3d bf 28 31 bc c4 f1 5d 3c
       0.02012233 0.032842927 -0.010812937 0.013546411
000220 78 38 06 3d 68 1d 8b bc 4c 24 46 bd 4d 3b a6 3a
       0.032768697 -0.016981795 -0.04837446 0.0012682468
000230 c6 da 1d 3d 4b bf c2 bc 41 bd 95 3c 0e 1b 17 bd
       0.038538717 -0.023772856 0.01827872 -0.036891036
000240 89 5e 74 3b 3a 96 13 bb 45 dc d7 3c 1c 88 0d bd
       0.0037287793 -0.0022519962 0.02635015 -0.034553632
000250 a2 df 20 3c 71 16 a7 3c 10 b2 2f bd f2 da b2 3b
       0.009818943 0.020396443 -0.042894423 0.005458229
000260 4e 44 af bb e3 ab 93 3c c8 bc 86 3c 2b 66 1c bc
       -0.0053487187 0.018026298 0.01644744 -0.009545843
000270 d9 ac 0e bd 80 87 d5 bb e2 bd 1a 3c 4a ee 8e bc
       -0.03483281 -0.006516397 0.009444686 -0.01744761
000280 d6 a2 85 3b 27 15 0f bd 30 58 cc bc 7a d1 7a 3c
       0.0040782494 -0.03493228 -0.024944395 0.015308732
000290 98 97 ba 3c 9e 5d df 3c 30 ae a2 3c f8 2d 2f bd
       0.022777364 0.02726632 0.01985845 -0.04276845
0002a0 9c 70 c0 3c ac fc c7 bc 52 d5 45 bb c4 bb c7 bb
       0.023491196 -0.024412476 -0.0030186963 -0.0060953815
0002b0 52 d7 bb bc 41 de 5d bd 29 a5 dd bc f5 ef 64 3c
       -0.022929821 -0.054167036 -0.027056294 0.013973226
0002c0 96 40 0e bd 43 7c 1b bc 43 19 aa 3a 1c 8a 21 bd
       -0.034729563 -0.0094900755 0.0012977499 -0.039438352
0002d0 a0 3c 58 3c 6a 07 02 3d 5b a8 cd bc 6f 40 16 bd
       0.013198048 0.03174535 -0.025104692 -0.036682542
0002e0 4c d0 fb 3b df 27 47 bd 7e e9 3f bd 49 08 3a bc
       0.007684743 -0.04862201 -0.046853535 -0.011354514
0002f0 cd 2a 29 bd 41 5d 24 3c 16 ee fe 3c a2 2c dd 3b
       -0.041300584 0.010031999 0.031119388 0.0067497054
000300 b1 21 db 3c 35 e2 2c 3d 40 b0 4a bc d4 34 da 3c
       0.026749464 0.042207915 -0.012371123 0.026636519
000310 2e 5b ad bc f0 2d f2 bc 14 8f b6 bb d2 1a f1 3c
       -0.021161642 -0.02956292 -0.0055712555 0.029431734
000320 42 94 6d 3c 56 a7 a2 bc 8f 37 97 3c 8b 1a 9c bc
       0.014500679 -0.019855183 0.01845911 -0.019055625
000330 83 09 63 3c 38 32 b0 3c d2 e3 70 3b a7 38 19 3c
       0.013857248 0.021508321 0.0036756885 0.009351886
000340 1f 72 31 bd bf d2 34 3c 58 77 32 bd 65 78 a9 bc
       -0.043321725 0.011036574 -0.043570846 -0.020687291
000350 9f 6d 3c bc de d6 06 bd 8e 46 2f bd ce 38 bf 39
       -0.011500745 -0.032919757 -0.042791896 0.00036472682
000360 f0 e7 f7 bc 2b 4a d3 bc 7a 2f e9 bc 64 9d ce bc
       -0.030261964 -0.025792202 -0.028465021 -0.025221534
000370 c1 af 08 bd 8e 77 f1 bc 2e a1 05 bd a2 0a 14 bd
       -0.033370737 -0.029475953 -0.032624416 -0.036142953
000380 eb 7c 41 bd a6 31 03 bd 5f 82 20 bd 86 d8 20 3d
       -0.04723827 -0.03202977 -0.03918683 0.039268993
000390 fb 15 e3 3c 83 b4 f8 bb 14 72 5a bd ec ee 06 3d
       0.027720442 -0.007589878 -0.05333145 0.032942697
0003a0 9b 9c 87 3c c3 66 17 bd 8f 6b f2 3c 7b b7 38 bd
       0.016554167 -0.036963236 0.029592304 -0.045096856
0003b0 ab 24 07 bc 39 ea 1f bd 42 c1 b7 bc c5 54 ee bb
       -0.008248488 -0.03904173 -0.02243102 -0.007273289
0003c0 b3 87 3f bd 1f 22 0a bd 6c 8b 49 ba c5 f5 3b bd
       -0.046760272 -0.033723947 -0.0007688317 -0.04588868
0003d0 6c 24 b6 bc 93 bd 1f bd 1a 5e 85 3c b9 61 05 bd
       -0.022234164 -0.03899915 0.016280223 -0.0325639
0003e0 5a 2b 54 3a 69 c3 ed bc e1 fd 3a bd 68 58 47 bd
       0.0008093618 -0.029023843 -0.045652274 -0.048668295
0003f0 86 54 1a bd 2b fe b2 bc ad 68 1d bd dd 54 48 bd
       -0.037678264 -0.021849712 -0.038429905 -0.048909057

bias f4 [256]
000000 9a 20 d9 bc 8c ad 28 bc 5f 5b ad bd 02 2f 00 bd
       -0.026504803 -0.010295283 -0.08464693 -0.03129483
000010 f2 07 41 bd 00 50 4d bb 90 cb d7 3d 30 d3 18 bd
       -0.047126718 -0.0031328201 0.10536873 -0.03731078
000020 04 02 80 bd 48 86 bb bc cf 9d 72 bb 21 27 96 3d
       -0.062503844 -0.022891179 -0.003702033 0.07331682
000030 69 a8 62 3d bb e3 21 bd 5e 7e 5a 3d 08 fe 84 3a
       0.05533639 -0.03952382 0.05334317 0.0010146508
000040 6a a9 0c 3e 69 2f b2 bd 52 d5 71 3c 6a d1 0e bd
       0.13736501 -0.08700449 0.014760332 -0.03486768
000050 c4 e1 69 3b aa 37 be 3c ac 0b 5c 3c b6 cf 28 bd
       0.0035687545 0.023219902 0.013430517 -0.041213714
000060 d6 11 3e bc 36 4a 84 bc 44 49 ce b9 0f 0e 0a bd
       -0.011600932 -0.016148668 -0.0003934597 -0.033704814
000070 8f 35 f9 3c 55 fd cc bd 30 f2 fa 3c bd ba 84 3c
       0.030421047 -0.10009257 0.030633062 0.016202325
000080 87 94 e5 3b 11 c2 30 bd 3f fd b6 bc 42 08 4b bd
       0.007006231 -0.043153826 -0.022337554 -0.049568422
000090 86 2f 9a bc e5 bb 13 3c 1e 75 f0 bc 19 da c1 3c
       -0.018821489 0.0090169655 -0.02935272 0.023663567
0000a0 76 e5 48 3d 5f 76 62 3d 67 2f 5f bd fb 61 74 bd
       0.049046956 0.05528867 -0.054488566 -0.059663754
0000b0 9f d5 d8 3c 26 a7 81 3b bc 16 b4 3c d8 7c 19 3d
       0.02646905 0.003956693 0.021983497 0.037472576
0000c0 88 b5 1f 3e 2c 5d 52 3c 24 5f 37 bc 13 6e fa bc
       0.15596592 0.012839597 -0.011192117 -0.030570066
0000d0 a8 f4 c8 3c 2a d2 85 bd 59 09 ec bc 72 f9 22 bd
       0.024530724 -0.06534226 -0.028813051 -0.03978867
0000e0 16 cf 92 bc 9a 25 6c bd a2 74 e1 b9 2d f4 0b 3d
       -0.017921012 -0.057653047 -0.00043002242 0.03416841
0000f0 da 54 75 bd 1a 4f 62 bc 87 e0 ae 3c 0c 2a 89 bc
       -0.059895374 -0.013812805 0.021347297 -0.016743682
000100 e2 3c de bc 13 b1 de 3b 49 93 36 bd e7 01 9c bd
       -0.02712864 0.0067960112 -0.044574056 -0.0761755
000110 f5 c9 5e bd 0f 1e 14 bd 8f 6a 3b bd 01 3b 3a 3d
       -0.05439182 -0.03616148 -0.04575592 0.045466427
000120 dc 58 8e 3d 30 2c cc bc 56 22 53 bd bc 54 01 be
       0.06950542 -0.024923414 -0.051546417 -0.1262998
000130 7a ae d9 3c 6c a5 55 bd 4d 6c 69 3c 4d be 9c 3d
       0.026572455 -0.05215971 0.014247012 0.076534845
000140 35 55 2c bd a2 06 de bc 43 6f 9f bd d2 eb 81 bd
       -0.042073447 -0.027102772 -0.07784893 -0.06343807
000150 f3 d1 3a bc 9e 9d 9d bd 42 91 ae bc 93 65 c5 3c
       -0.011402595 -0.07696079 -0.021309499 0.024096286
000160 31 60 16 bd b6 ba 40 bb 9e 1c eb 3d cc b3 5d 3d
       -0.03671283 -0.0029408163 0.11480068 0.054126546
000170 66 38 19 bb 7b 40 85 bb 45 97 33 3b c4 a5 4d bd
       -0.0023379563 -0.0040665246 0.0027403396 -0.050206915
000180 ca f7 ca 3c 27 3f 04 ba f1 79 6c bc a9 d4 26 3c
       0.024776358 -0.0005044811 -0.01443337 0.010182538
000190 e4 38 5c 3d 63 c6 43 3d e9 42 af bc aa 9b 16 bd
       0.053765193 0.04779662 -0.02139421 -0.036769547
0001a0 90 a5 5d 3c 6d 74 aa ba 0f f2 89 bd 64 07 9e 3c
       0.013528243 -0.0013004668 -0.06735622 0.019290633
0001b0 f1 6f 47 bd 39 e7 a3 bd 28 56 2f bd ed dc c9 bd
       -0.04869074 -0.080030866 -0.042806774 -0.098565914
0001c0 df 82 c5 3d 64 ef 73 bc cf 62 8c bb 65 50 75 bb
       0.09644102 -0.014888618 -0.00428424 -0.0037431952
0001d0 d5 43 f8 bb 06 21 f9 bc a3 ef 97 bc 48 c9 4e bc
       -0.0075764456 -0.030411255 -0.018546885 -0.012621231
0001e0 b1 a7 e2 3b 2a 36 09 3a 7d 37 f1 3d f0 22 f3 bc
       0.006916963 0.00052342063 0.11778162 -0.029679745
0001f0 02 89 a7 bc 1a 99 31 bd e9 76 cb 3c 21 41 d0 bc
       -0.020451073 -0.0433589 0.024836974 -0.02542168
000200 ac 06 35 bd 64 05 be 3c 84 b2 0e bd 68 cf 75 3d
       -0.044195816 0.02319593 -0.034838215 0.06001225
000210 46 37 85 bc cc 5f 89 bd 90 c5 98 3c b7 9a c8 3a
       -0.016261708 -0.06707725 0.018648893 0.0015304898
000220 cf 8a 38 3e c4 b6 58 bb c6 dd b1 3d 15 40 3d bc
       0.18021701 -0.0033067921 0.08684878 -0.011550923
000230 85 3b 04 bd e9 30 b7 bc f7 3c 44 3c 0d 23 ee bc
       -0.032283325 -0.02236219 0.011977426 -0.029069448
000240 c3 91 39 bd 1e ba 45 bd ab 83 7f bd 6c c5 89 3c
       -0.045305025 -0.0482732 -0.062381428 0.01681777
000250 59 e8 ae bc 22 71 c9 3c 2f 81 fa bc fa 84 d6 bc
       -0.021351026 0.024590079 -0.030579178 -0.026186455
000260 64 47 00 bd 81 8f 39 bd 11 eb 31 bd 5a 1e 92 bb
       -0.031318083 -0.04530287 -0.043437067 -0.0044591846
000270 7a c2 0b bb 8f 99 22 3c 5a 82 08 bd 21 cc 35 3c
       -0.0021325634 0.0099243065 -0.033327438 0.011096031
000280 92 38 e8 3b 3a 56 7a 3b 5f 0b a8 3d 54 4c 98 3d
       0.007086822 0.0038198368 0.08205294 0.074364334
000290 a8 8f 80 3d c1 b2 95 3d b1 76 c0 bc d0 4c c0 bd
       0.062774 0.07309485 -0.023494096 -0.09389651
0002a0 07 65 cf bd b9 30 ab 3d 75 81 93 3b 4e 30 52 3d
       -0.10126691 0.083589025 0.0045015165 0.0513156
0002b0 cc 7f 6c 3c 07 15 05 bd 6f 1f f3 3d 1c 41 c8 bd
       0.014434766 -0.032490756 0.1187123 -0.09778044
0002c0 15 98 14 bc 7b 9e c7 bd b8 57 99 3c d0 09 26 bd
       -0.009069462 -0.097470246 0.018718585 -0.0405367
0002d0 c6 d1 61 3c ca a3 39 bd 4c 63 b1 bd a7 d5 dd bc
       0.013782924 -0.045322217 -0.086615175 -0.027079416
0002e0 37 06 84 bd d2 fd 48 bd d0 3a 68 3d 32 7d 27 3d
       -0.06446498 -0.049070187 0.056696713 0.04089088
0002f0 0b 71 9d 3c b7 a3 94 bd 33 b0 0d bd 87 1d 84 3d
       0.019218942 -0.07257789 -0.034591865 0.064509444
000300 7d e0 ce bc 1b d1 cd bd f4 2a 35 bd 53 b3 c1 3d
       -0.025253529 -0.10049649 -0.044230416 0.094580315
000310 28 2d 1c 3c c2 cd ec 3c 78 00 31 bd a6 51 4f bd
       0.00953225 0.028906707 -0.043213338 -0.050614975
000320 94 a1 b7 bd 7b 5a 91 bd 84 63 83 bd f7 da 9e bc
       -0.089663655 -0.07097336 -0.064154655 -0.01939152
000330 ee 6e 13 3d a3 67 58 3d ee 09 40 bd 63 7a 9b 3c
       0.035994463 0.05283321 -0.04688447 0.018979257
000340 dc 94 9c bc 75 da fc 3c 25 02 67 bd a6 34 58 bd
       -0.01911395 0.030865887 -0.05639853 -0.052784584
000350 b0 e9 f6 bc 93 bc 18 3d 42 38 a0 bc 1e b3 cb 3d
       -0.030140728 0.037289213 -0.019558076 0.09946273
000360 da b3 04 bd 13 b4 42 3c cc 16 13 3d 37 72 e4 bc
       -0.032398082 0.011883753 0.035910413 -0.027886493
000370 83 f4 12 bd 4c 7f 58 bd 63 72 97 bd 32 b1 7f bd
       -0.035877716 -0.052855775 -0.073948644 -0.062424846
000380 77 09 f4 3c 2b 92 c5 3c aa 0a 16 3d f0 e3 31 3d
       0.02978967 0.02411755 0.036631264 0.04343027
000390 b2 85 7d bd 61 f6 44 3c 08 97 c4 bc 41 f3 36 3c
       -0.06189508 0.012021632 -0.023997799 0.011166395
0003a0 14 7d 47 bd 5a e0 8e bd ce c6 95 3b 85 17 13 bc
       -0.04870327 -0.069763854 0.0045708185 -0.008977775
0003b0 ce 79 17 3c 58 83 d6 3b 3b 28 55 bb a3 18 92 bb
       0.009245349 0.006546419 -0.00325252 -0.0044585033
0003c0 1c d9 42 3d d3 79 b6 3d 8a 34 2d bc ca 2b 64 3b
       0.047570333 0.08909955 -0.010571608 0.003481614
0003d0 69 98 ae bd f4 7e cf 3d d5 84 85 bb a4 d1 d0 3c
       -0.08525164 0.10131636 -0.0040746727 0.02549059
0003e0 49 2c b7 3c 37 21 49 3d 77 20 85 bd dc 64 9e bc
       0.022359984 0.04910394 -0.06500333 -0.019335203
0003f0 09 b5 80 3d ae 4b b3 3d fb 56 4c bd 30 4f 66 ba
       0.0628453 0.08754669 -0.04988764 -0.00087856036

weight f4 [128, 256]
000000 b0 3b 50 3d c8 e5 09 3d ee 2e 4e 3d 35 ce 63 bc
       0.050838172 0.033666402 0.050337724 -0.013904144
000010 1e bd 89 bd 40 58 f0 bb 94 b8 e5 bd 85 23 1e 3d
       -0.06725524 -0.007334739 -0.11216846 0.038608093
000020 06 01 4d bd d3 93 3f 3d 80 6d 70 bb 99 4f 8d bd
       -0.050049804 0.046771836 -0.003668636 -0.06899948
000030 33 0b dd 3b cd be 23 bd a4 9f 3e bd f2 37 93 bc
       0.00674572 -0.039976884 -0.046538964 -0.017971013
000040 d7 0e a0 3c 3f 5a 1c 3c 01 21 22 3c 6e 23 49 3c
       0.019538326 0.009543001 0.009895564 0.0122765135
000050 49 1b 92 3b 16 a8 f4 bc ed ac 6a 3d bd 88 1f 3d
       0.004458819 -0.029865306 0.05729382 0.038948763
000060 88 06 85 bd 2a b0 4f 3d 52 b2 c1 3c da de 68 bd
       -0.06495386 0.050705113 0.0236446 -0.056853153
000070 d5 e2 b5 3b 3e d8 04 bd 14 ca 54 3d ea e8 96 3b
       0.005550722 -0.032432787 0.05195053 0.0046054022
000080 fb 43 2b bd 86 52 a4 bd 83 da 1c 3d 78 66 97 3c
       -0.041812878 -0.080235526 0.038294327 0.018481478
000090 57 f4 b3 bb b5 d6 fb 3c a7 f4 17 3d 20 21 83 bd
       -0.005491774 0.030742029 0.037098553 -0.064028025
0000a0 84 4c 9e bd f0 fa 8d bd 31 7e be 3c 81 bd 14 bd
       -0.07729438 -0.06932628 0.023253532 -0.036313538
0000b0 a9 15 6a 3b 25 3d de 3b e5 fa 4e 3d 27 49 96 bd
       0.0035718477 0.0067821913 0.05053224 -0.073381715
0000c0 70 d1 a9 bb 26 3e 40 bd 90 b6 3a bd f4 6b cf bc
       -0.0051824376 -0.04693427 -0.04558426 -0.02532003
0000d0 be 15 1c bd 17 53 37 3d a1 e8 b5 3c 32 f0 46 3d
       -0.038106672 0.044756975 0.022205653 0.04856891
0000e0 82 1d 45 3d 62 1e 46 bc f4 93 23 bc d8 73 3b 3c
       0.048123844 -0.012092205 -0.009984005 0.0114411935
0000f0 7a bd ea b9 8b e2 66 bb f7 05 bf bb 92 35 17 3d
       -0.0004477313 -0.0035230245 -0.0058295685 0.036916323
000100 b0 b4 21 bd 5d 71 79 3d bf 50 31 bd 70 63 4f bd
       -0.039478958 0.060899127 -0.043289896 -0.05063194
000110 06 82 31 bd e7 b9 a0 3c 9c 59 4e 3d 11 26 57 3b
       -0.04333689 0.019619895 0.050378427 0.0032829086
000120 b2 fb c6 3c 57 a7 11 3d 27 35 6c bc 05 b1 1a 3d
       0.02428994 0.03555998 -0.014416969 0.037766475
000130 3e a8 20 3d 87 76 0f 3d 20 3d b3 3c b7 3b 89 bc
       0.03922295 0.035025146 0.021879733 -0.016752107
000140 a7 f8 39 bd 1c d7 3a 3d 8b 4c ef bc dd 3c f0 3c
       -0.04540315 0.0456153 -0.029211303 0.029325897
000150 24 35 de 3c ea e1 dd bc 2d 0a 60 3c 62 b1 87 bd
       0.027124949 -0.027085263 0.013674301 -0.0662563
000160 d5 ea 03 bd 16 54 47 bd a4 9f 0d bc 9a d5 00 bd
       -0.032206375 -0.048664175 -0.008644018 -0.031453706
000170 5d 7c 84 bc c4 d1 1f 3d d0 2d 09 bd 1b 66 06 bd
       -0.016172582 0.039018407 -0.033490956 -0.03281222
000180 05 2f ee 3c a7 d0 e0 b9 31 0b 8c 3c 87 57 0f bd
       0.029075155 -0.00042880067 0.01709518 -0.034995582
000190 58 7d f0 bc 65 48 b2 bc d1 8d 32 bc df 84 11 3d
       -0.029356644 -0.021763036 -0.0108980695 0.035527106
0001a0 71 82 b0 bd 93 f7 12 bd 15 f5 de 3b 45 a9 94 3c
       -0.0861863 -0.035880636 0.0068041184 0.01814712
0001b0 58 7a 6d 3b 9c d1 2e 3d d9 55 5c bd a1 a9 e1 3c
       0.0036236253 0.042680368 -0.05379281 0.027546706
0001c0 67 8f ae bb e6 58 ec 3c 55 8b 04 bd c6 72 5f bc
       -0.0053271535 0.028850984 -0.03235944 -0.013638204
0001d0 e2 f3 86 bd cf b6 af 3c 6e 1f d0 3b 2b be f9 bc
       -0.06589486 0.021449475 0.006351403 -0.030486187
0001e0 9b e8 46 bd 79 d4 67 bd 0a 9c ea bb 94 f7 5d bd
       -0.048561674 -0.056599114 -0.0071597146 -0.054191187
0001f0 e8 f2 7f 3d af c4 13 3d 1c ac 6e 3d e5 32 0e 3d
       0.062487513 0.036076244 0.058269605 0.034716506
000200 4f 6c 44 bd 3a 78 9c 3c 9d 68 0a bb 97 9a 69 3c
       -0.047954854 0.019100297 -0.0021119483 0.0142580485
000210 48 9d a7 3b 63 f5 79 3b 64 37 41 3d 47 53 c6 bc
       0.005115185 0.0038140647 0.047171965 -0.024209632
000220 e6 1a 91 bd 3f 29 5e bd cb 61 e2 bc 8c 5c 5b 3d
       -0.070852086 -0.054238554 -0.027634522 0.053555056
000230 35 8d 30 3d 30 13 ac bd 5b 6a 3e 3d 00 25 ba bc
       0.043103416 -0.08402097 0.046488147 -0.022722721
000240 34 34 16 bd 51 d3 55 3d 70 09 41 3c 64 a8 d9 3c
       -0.03667088 0.05220348 0.011782035 0.026569553
000250 74 02 2d 3d 19 be 32 3d c2 01 46 3d b0 8a 92 bc
       0.042238668 0.043638323 0.04834152 -0.017888397
000260 aa 60 4a bd 9d bc 82 bc 03 4c dd bc ee 57 d7 3c
       -0.049408592 -0.015959078 -0.027013784 0.026287045
000270 ad c0 42 3c e8 0e a6 3c 84 ea 08 bd ed 69 8e 3c
       0.011886758 0.02027078 -0.033426777 0.017384494
000280 99 6c be 3c 54 87 71 3d 13 53 da bc fc 3e 73 bd
       0.023245143 0.05896695 -0.026650941 -0.05938624
000290 80 1c 73 bd 13 4a 7c bd 6e 0b 3f bc 6c 32 39 3b
       -0.05935335 -0.06159408 -0.01166044 0.0028258814
0002a0 f0 6c 2e bd 09 ef 32 bd a9 e1 3c bd f2 38 5e bd
       -0.04258436 -0.043684993 -0.046113644 -0.054253526
0002b0 b5 6f e3 3c a8 91 ba bb 0f b5 6d bd b7 fa a8 bd
       0.027763227 -0.005693633 -0.058034 -0.08250945
0002c0 8c fe 65 bd 69 1b ca 3c c3 71 00 bd 2c 1b 01 bd
       -0.056150958 0.024671273 -0.03135849 -0.031520054
0002d0 d2 70 25 3d 09 e0 73 3d ef 3e c3 3a ef 19 53 bd
       0.040390797 0.05953983 0.0014896075 -0.051538404
0002e0 e6 37 63 bd c9 f1 dd bc 5b a7 29 bd 64 f5 54 bd
       -0.05547323 -0.027092831 -0.04141937 -0.051991835
0002f0 5b 00 40 3c 5e 50 07 bd ab 3a cd bc 5e b1 a4 bd
       0.011718835 -0.03303563 -0.02505239 -0.080416426
000300 09 0c a2 3c a1 79 70 bd 22 cb 1a 3c 00 94 5b bd
       0.01978113 -0.058709744 0.009447845 -0.05360794
000310 f4 27 79 bc ab 9b 42 3c 9b 4c 03 bd 1a 76 48 3d
       -0.0152072795 0.011877934 -0.03205548 0.048940755
000320 54 8d 97 bd 6c 0b 5a bd e4 52 1c 3d bf 86 3d 3c
       -0.07400003 -0.05323355 0.03816499 0.0115677705
000330 f8 f5 62 bd 91 e1 0d 3d 10 48 1a bb 19 91 53 3c
       -0.055410355 0.034638945 -0.0023541488 0.012913012
000340 b8 47 0d 3d 5a 69 e1 3c dd f0 2e bd fb 71 8d bd
       0.034492224 0.027516056 -0.042710174 -0.06906506
000350 68 89 b0 bc 7e a7 0d bd 42 cb 6e 3c 26 69 7d bd
       -0.021549895 -0.03458356 0.014574828 -0.061867855
000360 fb 32 f4 bc 00 bd 23 bb 67 a8 9b bd d2 44 34 bd
       -0.029809466 -0.002498448 -0.076004796 -0.044010945
000370 95 8c 8f bc 6b c1 1d 3d 5e 4b 58 3c 3e bd 5c bd
       -0.01752309 0.038514536 0.013201563 -0.053891413
000380 dc ff 8a bd 41 82 8a bc 3c 2c c8 3b 08 3b 50 bd
       -0.067870826 -0.016907813 0.006108789 -0.050837547
000390 06 77 8b 3c c1 36 30 bd cc 9b 86 bc 39 9b 3e 3d
       0.017024528 -0.043020967 -0.016431712 0.04653475
0003a0 12 2a 5d 3d ad ba 32 3d 89 15 aa 3c bb 87 0c bb
       0.0539952 0.04363506 0.020762222 -0.0021443206
0003b0 f3 e7 43 3d 26 6c c8 3c 24 19 94 3c 49 21 16 bd
       0.047828626 0.024465632 0.018078394 -0.036652837
0003c0 81 48 93 bd 9c f2 6c 3c fb 50 0e 3d 45 5d 4f 3d
       -0.071915634 0.014462139 0.034745198 0.050626058
0003d0 5f 9a 04 bc 4d b7 56 bd e7 af b2 b8 80 a8 0f 3d
       -0.008093446 -0.052420903 -8.520466e-05 0.035072803
0003e0 aa 7a 17 bc ed 06 29 3c 85 00 b6 3c 48 d7 8b bb
       -0.009245554 0.010316593 0.022217045 -0.004267607
0003f0 76 65 75 bd 80 fe 65 bc 85 05 45 bd 16 c0 11 3d
       -0.059911214 -0.014037728 -0.048100967 0.035583578

bias f4 [128]
000000 6d 80 ac bd a2 4b 86 3e 9b 6e 35 3e 1f 16 6c bd
       -0.08422933 0.26229578 0.17717974 -0.057638284
000010 1a b1 56 bb 9a 2b 80 3c 53 33 a8 bc 06 c8 37 be
       -0.003275937 0.01564579 -0.020532286 -0.17947397
000020 84 23 70 bd 96 31 ca bd 21 7e 16 be 8b 94 4d bd
       -0.05862762 -0.09872739 -0.14696552 -0.05019049
000030 3b 86 eb 3c 1d 55 c2 bd c5 aa 85 3d 55 dd ac bd
       0.02875053 -0.0948889 0.06526712 -0.08440653
000040 0c 54 b8 bb 30 5a 4c 3d 20 4b 8d bd 8f cf 2c bd
       -0.0056252535 0.049890697 -0.068990946 -0.04219013
000050 ea ca d8 bc 8f 56 20 3e 20 de 93 bc 56 92 bc 3d
       -0.026463944 0.1565802 -0.018050253 0.09207599
000060 54 78 e4 3d fd 65 17 bd 7b 4c 98 bd a7 16 a1 bd
       0.11155763 -0.036962498 -0.074364625 -0.07865649
000070 2d bc dd bc 53 fb 94 bd b3 bb be bd e9 80 f5 3b
       -0.027067268 -0.07274499 -0.093131445 0.007492174
000080 e6 9c d7 3c 93 43 a7 3b 97 8a 8b bd d2 eb a9 3d
       0.026319932 0.005104491 -0.06813543 0.08296932
000090 3c e4 a8 bd ca 84 14 3d b8 eb 22 3e 9c 0d bd 3b
       -0.08246657 0.03625945 0.15910232 0.0057694446
0000a0 9e ad 34 bd df 78 76 bd 66 b7 7f bc 23 48 4c bc
       -0.044110887 -0.060173865 -0.01560769 -0.012468371
0000b0 03 7c 3c bc e7 61 05 bb 37 0c 0c 3c 61 63 32 3e
       -0.011504176 -0.0020352544 0.008547834 0.17420723
0000c0 14 d1 e3 3d c8 43 11 bc 32 65 b8 bd 6e 93 df bd
       0.11123863 -0.008866258 -0.090036765 -0.10916792
0000d0 14 78 66 bb 56 87 6c 3d 13 e7 bf 3d bd ce 78 3e
       -0.0035166787 0.057746254 0.09370246 0.24297614
0000e0 d0 b3 4a 3e 97 fa ba 3d ca af 9c bc 32 2b fd 3d
       0.19795156 0.091298275 -0.019126792 0.123617545
0000f0 cb 6c 87 bc f2 36 1f bb 44 f2 40 be 65 e6 68 bd
       -0.016531369 -0.0024294225 -0.18842417 -0.056860346
000100 94 5b af bd 8f 4a 94 3d 38 e6 79 bd 38 ac 8a bd
       -0.08562389 0.072407834 -0.06101057 -0.06771129
000110 97 cf 12 3e 51 81 c2 bd fd 57 0c bd 2e cf 54 bd
       0.14337002 -0.094973214 -0.0342636 -0.051955394
000120 c1 83 96 3e e9 80 c2 3a 54 ae b0 bd 3f 0b 82 3c
       0.29397395 0.0014839444 -0.086270005 0.015874503
000130 ba dd 17 3e d5 77 aa bc 9a 39 49 3c 6b 8b 23 3e
       0.14830676 -0.020809093 0.0122818 0.15971152
000140 21 49 3e 3c a5 20 43 3c 55 3c ad 3d ba 5e 2d bd
       0.011614115 0.0119096385 0.08458773 -0.042326666
000150 51 3e 85 bd f9 26 fd b9 98 8f 9b bd 5c 63 fc bc
       -0.065060265 -0.00048284957 -0.07595748 -0.030809097
000160 7e c5 a3 bd 2a fb 43 bd 67 39 06 bd 2e 66 9f 3d
       -0.07996653 -0.04784695 -0.032769587 0.07783161
000170 a0 6e bc 3d e7 6b 6a 3d 85 df 0e 3e 72 53 37 bd
       0.092007875 0.05723181 0.13952453 -0.044757314
000180 08 d1 06 bd 4d 32 10 be 20 dc 35 3e 0e ee 51 bd
       -0.03291419 -0.14081688 0.17759752 -0.051252417
000190 32 94 21 bd 91 07 a4 bc 3d a3 71 3d f6 75 21 3c
       -0.03944797 -0.02002314 0.058993567 0.009854784
0001a0 4b 5d e2 bd 21 8a d1 bd 0a a3 00 be df a1 1b be
       -0.110529505 -0.10231424 -0.12562194 -0.15198468
0001b0 b0 a1 8a bc 01 dc c5 3c 29 fd c2 bc 74 c1 60 3c
       -0.016922802 0.024152758 -0.023802357 0.013717998
0001c0 a1 44 85 bd 42 05 4d bc fa df 6d bb de f1 0b bd
       -0.065072306 -0.012513461 -0.003629683 -0.03416621
0001d0 84 24 b1 bc 17 4e 08 3e ce 2d 65 3b b5 ea c2 bd
       -0.021623857 0.13311039 0.0034969929 -0.09517423
0001e0 3b 5a 15 3d 43 a4 bb bc 2a 25 98 bc 96 47 3b bd
       0.036463004 -0.022905475 -0.018572409 -0.045722567
0001f0 9c f1 68 bd e6 2e a4 3d f6 42 16 bc 87 4f 30 3d
       -0.05687104 0.08016758 -0.009171238 0.043044593

weight f4 [60, 128]
000000 42 a5 72 3d 40 3a a6 3d 6a c2 9a 3d c6 10 a2 3c
       0.059239633 0.08116579 0.07556613 0.019783389
000010 ac a7 3e 3c 37 0c 02 bc 69 f9 9a 3c 71 1b 62 ba
       0.011636656 -0.007937483 0.018917756 -0.0008625305
000020 a1 74 b8 bc e5 d9 06 bb a4 9d 91 3b a3 20 5c 3d
       -0.02251655 -0.0020576653 0.004443841 0.053742062
000030 6a dc b5 ba 0b 29 23 3c 1b 19 b1 3a fe e5 94 bd
       -0.0013874893 0.009958516 0.001351151 -0.0727043
000040 c1 7a 40 3d a0 dd ab b9 7c 6a bc 3d d8 a7 ba 3d
       0.046992067 -0.00032780785 0.09199998 0.09114045
000050 87 45 82 bb 65 c2 de bb 00 5a d5 3a 76 31 3e bb
       -0.0039755735 -0.006798076 0.0016277432 -0.002902118
000060 a0 b8 e1 bb 7d 60 0a 3d 0a 64 45 bd e6 de 0a bc
       -0.006888464 0.033783425 -0.048191108 -0.008475995
000070 3d 30 21 3d ed 77 bb 3b b6 c4 4f 3c f5 c8 64 3d
       0.039352644 0.0057210834 0.012681177 0.05585571
000080 56 c8 8a 3d c1 14 6a bd 87 68 2c 3d fc 86 fa 38
       0.06776492 -0.0571487 0.042091873 0.00011946072
000090 f8 d5 1c b9 e5 b5 f4 3b 45 0b 3b 3c 18 df d2 3c
       -0.00014957029 0.0074679726 0.011416261 0.025741145
0000a0 ad e0 bb bc 88 46 33 bd 56 3e 42 3d 1e 9c 11 bd
       -0.022934282 -0.043768436 0.04742273 -0.035549276
0000b0 3f 07 75 3b c1 65 a3 3c 90 ce 85 bc e5 9e d1 3d
       0.0037388352 0.019945981 -0.016333848 0.10235385
0000c0 39 64 d0 3c f2 db 8f 3c a3 1f 79 3c b8 59 ff 3c
       0.025438415 0.017560933 0.015205297 0.03117071
0000d0 4a b8 9c 3c db ab 03 3b 8b 88 23 37 b1 18 7e bb
       0.019130845 0.0020091448 9.7473485e-06 -0.0038772041
0000e0 9e d1 54 3c 27 83 d2 bc 55 73 0f 3c e5 be 21 bc
       0.01298943 -0.025697304 0.008755525 -0.009872173
0000f0 0d 64 c0 3b 22 d1 03 3d 3c 86 d2 bb d9 77 99 3d
       0.005871302 0.032181866 -0.0064246934 0.07493562
000100 bd 0d 0c bc eb 84 a1 3a 37 a1 09 3d 9e b6 74 bd
       -0.008548197 0.0012322938 0.033601012 -0.05974447
000110 83 47 26 3c 44 b9 71 bd 90 c0 97 3a 6a 31 da bc
       0.010148886 -0.059014574 0.0011577774 -0.02663489
000120 a3 f4 65 3d 15 27 49 3d da e1 8f bc d3 b2 9c 3d
       0.056141507 0.049109537 -0.01756375 0.076512955
000130 45 18 90 3c 5d 6e 00 bd db 39 99 3d d8 4e a5 3d
       0.017589698 -0.03135525 0.07481738 0.08071679
000140 86 87 f9 3a d5 6a 41 3d e1 d1 0d bd 3a 5b 9f 3d
       0.0019037582 0.047221024 -0.034623984 0.07781072
000150 10 13 ca 3a 07 ef 52 bd e5 97 ff ba b5 f3 e6 3a
       0.0015417058 -0.051497485 -0.0019500224 0.0017620238
000160 8c 72 7f 3d de e9 96 3d 17 37 1c 3d 78 ed e0 3b
       0.0623651 0.073688254 0.038138475 0.006864246
000170 57 18 b8 bb d2 56 1e 3c 51 50 69 3c fb a5 3a 3d
       -0.005618136 0.009664254 0.01424034 0.045568448
000180 b3 bd 96 3d 4b ce 06 3c 38 5b 4e 3b c6 ed 4f 3c
       0.07360401 0.008227895 0.0031487476 0.012690967
000190 3d 2a 89 3d 40 13 d4 ba cb 59 12 3c 16 37 59 3d
       0.066975094 -0.0016180053 0.008932541 0.05303105
0001a0 25 b5 da bb b0 6d 8f bd d7 3f b1 3b 06 db 3b bb
       -0.006674426 -0.07003343 0.0054092216 -0.0028664484
0001b0 d4 e5 83 ba 3a ad 65 3b 93 51 c5 3d bb ee 87 3d
       -0.0010063001 0.0035045878 0.096347 0.06637331
0001c0 f8 4b 8d 3d c6 12 ac bb 08 83 a7 ba c3 70 6f 3d
       0.068992555 -0.0052512614 -0.0012780139 0.058457147
0001d0 29 73 09 bc a0 90 22 bd f9 4d 3d bc 52 91 63 bd
       -0.008389273 -0.039688706 -0.011554235 -0.05555851
0001e0 b2 b9 18 bc 4c de a3 bc e7 08 72 bc 66 1d d6 3d
       -0.009321617 -0.02000346 -0.01477263 0.10454826
0001f0 2d c3 bb bb b9 bc 3d bd dd 8c a0 3d d6 62 33 3c
       -0.005730054 -0.046322558 0.078393675 0.010948857
000200 6c 52 8d 3c 90 e5 0c bc 37 39 11 bb 31 46 bd 3d
       0.017251216 -0.008599654 -0.0022159347 0.092419036
000210 3f 06 49 3e aa ae 1c 3d bd db 95 3d 65 6b 16 bf
       0.19631289 0.03825251 0.073173024 -0.5875762
000220 6f 45 3b bd 59 06 5c be e4 61 48 bd cf cd 34 3c
       -0.045720514 -0.21486796 -0.04892148 0.011035397
000230 84 c1 fc 3d 66 20 86 bb 16 bd c8 3b d2 a0 f2 3c
       0.12341598 -0.0040932177 0.0061260564 0.0296177
000240 8d ec ae 3d 77 b0 3b bd 9f 2f cb ba dd 1d b1 3d
       0.08541212 -0.045822587 -0.0015501863 0.08648274
000250 f9 39 f0 bd 64 df 83 bc 89 f7 03 bc 81 77 00 be
       -0.117298074 -0.016097732 -0.008054622 -0.12545587
000260 89 f2 c3 bd 8a 6e 7f 3d 52 d4 50 bd ad 1d 1f 3e
       -0.09567744 0.062361278 -0.050983734 0.15538664
000270 6f d8 cb bc 8a 36 53 3e 70 5a 21 3e 3d 2c 23 3c
       -0.024883477 0.20626274 0.15757155 0.009959278
000280 81 38 0d 3c 57 b2 35 3d 9c 33 d2 3c bb 1a df bc
       0.008619429 0.04435953 0.025659375 -0.027234426
000290 d6 a9 85 bc a2 13 b3 3c 3c 93 31 bc 31 e6 26 3c
       -0.016316336 0.021859948 -0.010838326 0.010186718
0002a0 0f 3d eb 3d 95 c7 8c bc de f1 91 bd 07 df 5c bd
       0.114862554 -0.017185012 -0.07126211 -0.053923633
0002b0 85 8b 7d 3c d2 8f 84 bb d5 6b 6c 3c e2 61 12 3c
       0.015475159 -0.004045465 0.014430006 0.00893447
0002c0 e7 55 16 be 0d fe a2 3b e7 30 5f bd e1 73 88 3c
       -0.14681207 0.004974133 -0.054489996 0.016656818
0002d0 b1 a5 a0 3c af 5c 53 3c 4c 95 87 3d d7 a4 e1 ba
       0.019610258 0.012900515 0.06620273 -0.0017215264
0002e0 14 21 41 3b 68 55 0f 3a 2a 7c af bd 0a 06 c5 3c
       0.002946918 0.00054677436 -0.08568604 0.024050731
0002f0 07 c7 1b bd c6 d1 81 3d b1 d1 97 3e 4a 20 6e 3d
       -0.038031604 0.06338839 0.2965217 0.058136262
000300 7e a7 37 3f a2 98 31 be d5 5c 5c bc 86 ed d7 ba
       0.7173995 -0.17343381 -0.013449867 -0.0016473986
000310 9a c2 7b 3b b0 c9 8f 3b 13 88 20 bd 7e 1b db bc
       0.0038415552 0.0043880567 -0.03919227 -0.026746508
000320 19 c5 8e 3c b3 63 12 bd 34 6d 07 3d 4a 96 85 3c
       0.017427968 -0.03573961 0.03306313 0.016307015
000330 cf 9d 6e bb eb 18 6a 3d 22 89 01 3d 6e 44 4d bc
       -0.003640998 0.05715267 0.03162492 -0.012528522
000340 f8 d1 e1 3b e6 f5 9e 3b 9e 12 4a 3a 0a 06 a6 3d
       0.0068914853 0.0048510907 0.00077084627 0.081066206
000350 1c ab 4b 3d 38 98 ac 3c c4 ba e5 bd 03 28 a3 bc
       0.04972373 0.021068677 -0.11217263 -0.01991654
000360 a7 3b 36 bd ba 16 96 3c 97 54 01 3d b6 57 8b bb
       -0.044490483 0.018321384 0.03157481 -0.0042523993
000370 1a e4 8f 3c 70 e1 22 bc f8 c1 75 ba 5e 9e e1 3b
       0.017564822 -0.009941444 -0.0009374912 0.006885334
000380 5f 03 66 3d f5 77 70 be cd 3a 57 3c 84 d5 c1 3c
       0.05615556 -0.2348326 0.013136578 0.023661382
000390 ba 8f 87 bc 9b de 58 bb 8d 97 6f bd 01 4b a8 bc
       -0.016548026 -0.0033091668 -0.05849414 -0.020543577
0003a0 36 ba ac bb 8a b5 8c 3d 66 29 d2 3e 56 be 22 bf
       -0.0052712215 0.06870563 0.4104721 -0.6357168
0003b0 41 08 59 3d e0 5f 25 be e3 31 48 bb 79 18 1b 3d
       0.052986387 -0.16149855 -0.0030547313 0.037865136
0003c0 58 55 80 3d 1f 66 3d bb 22 d5 69 bb 40 55 5b bd
       0.06266278 -0.002889998 -0.0035680016 -0.053548098
0003d0 e0 ac df bc 59 22 5d bb 97 50 83 3d 10 67 26 bc
       -0.027304113 -0.0033742397 0.06411856 -0.010156408
0003e0 f8 a2 01 bb aa 18 3c 3d c2 ab 25 3c 93 26 ba 3d
       -0.0019780975 0.04592196 0.010111751 0.09089389
0003f0 5b df 8f 3d ce 6c 17 bc 51 5b 73 3d 5c 34 61 3e
       0.070250235 -0.00924225 0.059413258 0.2199263

bias f4 [60]
000000 e5 00 48 ba 4c 14 26 39 c6 73 ed b9 b3 8d 11 b9
       -0.0007629528 0.00015838555 -0.0004529042 -0.00013881065
000010 51 92 02 ba 42 ee 6f 39 07 3c da b8 51 5d a9 39
       -0.0004980909 0.00022881574 -0.00010406231 0.00032303718
000020 d7 11 18 39 1f 96 c7 39 fe ac 8a 38 28 df 9c 39
       0.00014502495 0.00038068087 6.612575e-05 0.00029920903
000030 44 1f 6f b9 7d 93 c5 38 77 85 01 ba 5c dd a8 39
       -0.00022804464 9.421164e-05 -0.0004940847 0.00032208383
000040 23 85 4f 39 c8 fa 81 39 24 02 81 39 6a 70 6c 38
       0.00019790656 0.00024791644 0.00024606392 5.637148e-05
000050 e4 12 5b 38 2b 95 e5 39 05 9a 37 38 bc 93 40 39
       5.2231262e-05 0.00043789422 4.3774042e-05 0.00018365582
000060 e4 ce a8 b8 60 a7 0d b9 93 f1 01 39 1f 02 b1 b9
       -8.049401e-05 -0.0001350916 0.00012392392 -0.0003376165
000070 af bd 27 b9 0c f2 fb b9 ec 38 d3 b8 a4 b0 bb b9
       -0.00015997024 -0.0004805479 -0.000100718666 -0.00035799027
000080 19 b1 22 b9 45 6a b1 b9 8b 4c c6 38 95 c8 dd b8
       -0.00015515498 -0.00033839248 9.455633e-05 -0.000105754625
000090 28 58 8e b9 d1 bd 4a b9 3f 53 0a 39 70 a7 61 b9
       -0.00027150032 -0.00019334933 0.00013191717 -0.00021520047
0000a0 47 da d9 38 aa 50 ad b8 b3 6e 5f b9 36 fe 5c b9
       0.00010388024 -8.264308e-05 -0.00021308176 -0.00021075536
0000b0 53 e5 28 b9 2a 37 3c b9 82 ba 91 38 0d 6b e9 b8
       -0.00016107158 -0.00017949627 6.9488786e-05 -0.000111302455
0000c0 c9 17 48 38 2e d6 c1 b9 03 f1 37 b9 1d ee 77 b9
       4.7705867e-05 -0.00036971405 -0.00017542024 -0.0002364446
0000d0 a7 7d 2c b7 2b 44 34 b9 22 c5 0a 38 0a 7c a4 b8
       -1.0281255e-05 -0.00017191532 3.3085358e-05 -7.8432335e-05
0000e0 81 ef ae b8 bd 2e 8c b9 91 bb a5 b7 8b db 9f 39
       -8.3415776e-05 -0.00026737704 -1.9756875e-05 0.00030490416
