linearPredictionModels/db39/mega/combined.csv_wholeNetPrototype5_Epochs_20_ValidationLoss4.655830_lr0.0003_2023_08_02_17:25:32.pth (torch, 992619 bytes, 8 tensors)

weight f4 [512, 145]
00000000: 7974 2b3e 0b55 acbd eeba 8bbc a54e 533d
00000010: d2cb 663c dd55 f73d 2d5f 20be 04ca c43d
00000020: 710c cb3d fbc8 69bd 4ea6 8d3d 9855 0abe
00000030: 2923 123e 9702 843d 5fe4 9abd ba23 9bbb
00000040: db5c 5b3c e070 73bd 9c4d 84bd 874a 1c3c
00000050: f384 46bd 892b b13d 5677 e43d ec87 a7bc
00000060: 12ea a63d c7f4 0ebd 94f0 b0bc 4042 4cbd
00000070: 3c45 99bd 880c a53c a1ed 15bd 53c1 ecbc
00000080: 27f3 a2bd bdd8 b23d 7be8 3cbd cfc2 dbbb
00000090: a8bd a9bd ebad 21be c74b a2bd 1f22 a5bb
000000a0: 9586 e2bd e72d 0db9 3133 4b3c 268c abbd
000000b0: 32f9 933b 8fed c3bd a815 19be 4f61 5fbc
000000c0: 47e0 663a 4c44 c93c 1f8c 00bd 2dc4 f73d
000000d0: 1772 003d e002 e2bc d931 013e 7224 27be
000000e0: d256 e93c f93b 70bd f54f 56bd 4350 b93d
000000f0: c56e 9d3c 1bab 713d 3747 4ebb 4ba2 c73d
00000100: 13f5 74be baff e8be 08a8 b33e 7eb4 6e3e
00000110: 3429 0ebd 245f ed3e ac7c 28bd a634 503e
00000120: 3193 71bd 1554 cd3d 3898 85bd bb88 903e
00000130: 34e9 dc3c 4a5a 18be 4157 803e 7aa1 19bd
00000140: 9163 e3bc 649a a1be 5e71 cabc 096f 5cbd
00000150: 73f1 11bc bde0 343d 252b ca3d faba 293d
00000160: 519c 0b3e 0993 53bd e995 483d e224 a63d
00000170: b173 a23d 2c20 6e3b c8d3 3cbe 0a13 93ba
00000180: 9303 08bd 827c 833d 367b d9bd 3da8 7abc
00000190: ca0b 4a3d f680 d3bc f42f fabc ce1e 123e
000001a0: 9856 5f3d 4242 a23c 821f 5d3e d4b2 d93d
000001b0: 05f4 25bc 52e2 7abd 9ddc b03d a11d 94bd
000001c0: bf4c 45bc ce72 e1bd 5853 893b 0365 4b3d
000001d0: b8c3 4ebc 417e 57bd fd68 c13d 9f5d eb3d
000001e0: a48f 3ebd d6b1 373c 6cac 84bc 5751 8d3d
000001f0: 54b7 0c3d afbe 8e3d aaef d63b dce5 c5bb
00000200: 7922 983d a23f 863d 9411 a5bb cb9a 5b3d
00000210: 074d cbbc 0d6e 453d ab3b 223d d87e 78bd
00000220: a2c7 5cbc 631c 45bd 49db b1bc e1b8 2dbd
00000230: 0b1c 673d bf9b 043d 84c1 79bd b3e3 e33b
00000240: 1882 473d 8e37 94bd 2ee2 80bd 968a 0a3e
00000250: f49c 5a3d e813 723d a43c fabd 608d 6ebc
00000260: 54c8 583b fba3 4ebe d693 f7bc 6d4e 1bbe
00000270: 9959 5cbc 52db d93c a1c3 553d cd87 33bd
00000280: 3002 0abe 13e3 a8bc 35f1 b0be 24a3 3b3d
00000290: d57b a4bd cfeb f13d c9e5 e8bc fef5 7d3e
000002a0: 6754 94bd ec4f a93d 92c1 b6bd 7b4b 0dbe
000002b0: 5b50 d53d 27ec ea3d e08a c03b 6831 37be
000002c0: 0a0c c3bd e7bd fcbc e7ae 69be 3566 31be
000002d0: bfa4 b3bd 4fed ce3d fae7 fdbd 45b2 b7bd
000002e0: 754c 55be 4466 26bd 33b3 de3d bf33 083d
000002f0: 4e4a 80bd b5d3 8dbd 5e2c e53c af82 803d
00000300: c1a8 c8bd 3804 a4bb ff17 bcbd 906b 64bd
00000310: 0b7b 8c3d 4476 233d 2011 4c3e 7e59 5bbd
00000320: 6d72 3c3e 4543 6f3c 5056 453d 219e 19be
00000330: 1a23 283d b0aa f53c e7ef 8dbe 3238 d63d
00000340: 9bdf fdbc 87ee 213c 5200 a8be d457 57bd
00000350: d043 083c fe6d 92bc ba39 9a3e 19ff 343e
00000360: 23ba 6b3e 4c73 4fbe 4d42 8fbe dc70 523d
00000370: 4288 903c 18cb 93bd d5e3 73bd a133 c23d
00000380: 9855 f0bd 9cc3 2fbd d787 cc3d 5ce0 33bd
00000390: d470 8c3d 5353 8a3b b305 0c3c 504e 06be
000003a0: 0da5 92bd b4d8 81bd 92f1 a6be 838e 183e
000003b0: d8c4 08be 5482 4cbd 14c1 c6bd 5218 e53d
000003c0: e7c6 adbd 9935 093d b0c5 c83d b079 513d
000003d0: bd82 be3d 1865 91bd 9e14 15be 795f fc3d
000003e0: 4d0f 85bb 00fd e13d cc25 bcbc 1c92 30bd
000003f0: 44ad 2bbc 10e5 b9bd 2693 da3c 2abd d1bd
0.1674365 -0.08414658 -0.017056908 0.051588673 0.0140866805 0.12076924 -0.15661307 0.09608844
0.099144824 -0.057076436 0.06916486 -0.13509214 0.14271225 0.064458065 -0.075630896 -0.0047344835
0.013388838 -0.059433818 -0.06460115 0.009539253 -0.048466634 0.08650882 0.11155574 -0.020450555
0.08150114 -0.034901407 -0.021599092 -0.04986787 -0.074839085 0.020147577 -0.036603574 -0.028900778
-0.07956534 0.08732746 -0.04612015 -0.0067065726 -0.08288127 -0.15789 -0.0792461 -0.005039468
-0.11060826 -0.00013463908 0.012402342 -0.083763406 0.0045157904 -0.09566795 -0.14949667 -0.01363404
0.00088072236 0.0245687 -0.03138363 0.120979644 0.031358805 -0.027589262 0.12616672 -0.16322497
0.028483782 -0.058650944 -0.052322347 0.09048512 0.019217858 0.05900107 -0.0031475553 0.09747752
-0.23921613 -0.45507604 0.35089135 0.2331104 -0.034707263 0.4636165 -0.04113452 0.20332584
-0.058978263 0.10025803 -0.06523174 0.28229317 0.026966669 -0.14878193 0.2506657 -0.03750751
-0.027757438 -0.31563103 -0.02471226 -0.05381683 -0.008907664 0.04415964 0.098715104 0.04143808
0.13633849 -0.051653896 0.04897109 0.081125036 0.07932223 0.0036335094 -0.18440163 -0.0011220884
-0.033206534 0.06420232 -0.10619204 -0.0152989 0.04932765 -0.02581833 -0.030540444 0.14269564
0.05452594 0.019806985 0.2159405 0.10629812 -0.01012898 -0.061250992 0.08635829 -0.07232214
-0.0120422235 -0.110082254 0.0041908436 0.04965688 -0.012619905 -0.05261064 0.09443853 0.11492466
-0.046523705 0.011211833 -0.016195498 0.0690028 0.034354523 0.06969964 0.006559332 -0.0060393643
0.0742845 0.06555106 -0.005037496 0.05361442 -0.024817003 0.048200656 0.039607685 -0.060667843
-0.013475331 -0.048122775 -0.021711009 -0.042412642 0.05642323 0.032375094 -0.060975567 0.006954634
0.04870805 -0.07237159 -0.0629314 0.13529429 0.05337234 0.059101015 -0.122185975 -0.014560074
0.003307839 -0.20179741 -0.03022186 -0.15166636 -0.013449096 0.026593838 0.05218852 -0.04383068
-0.13477397 -0.02061609 -0.34559026 0.04580988 -0.080314316 0.11812555 -0.028429883 0.2480087
-0.07242661 0.08267197 -0.08923639 -0.13798325 0.10415717 0.11470824 0.00587593 -0.1788994
-0.09523781 -0.030852271 -0.22820626 -0.17324145 -0.08771657 0.10103857 -0.12397762 -0.08969549
-0.20829947 -0.04062487 0.10874023 0.033252474 -0.062641725 -0.069251455 0.027975257 0.06274926
-0.09797812 -0.0050053857 -0.091842644 -0.055766642 0.06859406 0.03990771 0.19928408 -0.053552143
0.18403025 0.014603441 0.048178017 -0.15001728 0.0410491 0.029988617 -0.27722093 0.10459937
-0.030990412 0.0098835295 -0.32812744 -0.052573994 0.008316949 -0.017874714 0.30122167 0.17675437
0.23020224 -0.20258826 -0.2798027 0.051377162 0.017643098 -0.072164714 -0.05954345 0.09482504
-0.11735076 -0.042911157 0.09986847 -0.043915138 0.06857458 0.004221359 0.008546281 -0.13115811
-0.07160387 -0.06340161 -0.3260618 0.14898114 -0.1335634 -0.049928978 -0.097047955 0.11186279
-0.08485203 0.03349838 0.09803331 0.05114144 0.0930228 -0.0709936 -0.14558646 0.123228975
-0.004060662 0.11034584 -0.022967242 -0.04310809 -0.010478321 -0.09076893 0.026681494 -0.10241158

bias f4 [512]
00000000: c5e2 26bd bba4 17bc 6602 a4bd b7e4 ab3d
00000010: 6732 e2bd 28eb 773b 8b49 3e3d 23fa 75bc
00000020: 2dac cb3c 2194 0bbd d91f 553c f16e 523d
00000030: 54a8 e8bc 8faa 8fbd 5252 1ebd 0e4f 943d
00000040: 30f9 fcbc d0c6 4f3d 8ad1 30bd ae67 813d
00000050: 0d54 a03d 0f49 fdbb 668f 48bd 28ed 8d3b
00000060: fc3d 933d c149 d3bb 3128 eb3b 1b49 02bc
00000070: 50fa 433d 04bc 593d 8209 30bd ea41 debc
00000080: 103a 4dbd aa51 de3c 9f96 8cbd 86f7 503c
00000090: b65e 353d b0d1 a7bd a9e6 4ebd 003e 4ebd
000000a0: 4331 503d 1f3b 8cbc 2252 c13d 0a15 a4bd
000000b0: 125d 54bd fe31 86bc eff8 0bbe 7d72 103d
000000c0: b1c1 63bd ae6f 17bc 2bb9 38bd e668 19be
000000d0: de8c 173d 1b85 883d 9f7a 1bbd 0285 dfbd
000000e0: f2ee 92bd 16e2 63bd e402 11bc dcba aa3c
000000f0: a36a 65bd 9898 a0bc 6042 d0bd 0ef0 b8bd
00000100: 7e8f c6bd 7a39 89bd 56cb bcbd 326c afbc
00000110: f543 cdbc de09 233d f7ad 59bd be02 7ebd
00000120: 6764 4abd 5f0a 1c39 5e7d ccbb c732 eabc
00000130: 0492 ad3d d687 6fbd d8bc b9bd f78a 16bd
00000140: 728e 163d 97e4 b3bd 2683 733c 5fa9 253d
00000150: f6d1 28bc af2a adbd d547 f83c cee0 443d
00000160: 4f8f 0dbe 1389 8e3c e0c0 db3d 0c82 0fbc
00000170: 3d90 c73c 43e7 a03d 61a9 66bd 586f 8c3d
00000180: fc22 823c 8c2f a23b 1a46 bebd 67a8 633d
00000190: f308 cd3d a039 e53c f3ce 913d 7a49 4ebd
000001a0: bf6e f23c 240d c93d 329f f63a 9e29 19bc
000001b0: d30b b4bd a069 04bd e5f5 78bd 3ac7 5cbb
000001c0: b777 953b fd74 e0bc bb66 ffbd 57a4 03bd
000001d0: 9d53 07bd 44bc a8bb eea7 2d3d 807b 883b
000001e0: 5de7 eebc 9ca9 1e3c e555 e43a 2153 e1bc
000001f0: bce8 843d 880f 32bd fb84 cabd 255f e7bc
00000200: 5d78 803d 5294 5fbd 6427 3dbd c235 91bd
00000210: 614c b8bb 0d49 80bd e12a 25bd bb0e d23d
00000220: 9a93 313c fff3 e73c 1311 c0bd e4fe 3fbc
00000230: bbf3 9cbd bd1f 033d 71b8 40bc 002b 24be
00000240: 8ff7 a9bc a5b7 4ebd 98ee c3bd a10e 5abd
00000250: 3d64 71bd 6ec3 09be 6e34 843c 2cbd 5dbb
00000260: 15f3 72bd 982b 9fbd c805 42bc 84d3 39bc
00000270: 6f9e 993d 93ca a53c 5169 9dbc 3e9e a0bd
00000280: 74f4 973c 5f61 3abd a840 783d 8a9b 953d
00000290: ad1f d63c feed 123d 7310 c73d 122e abbd
000002a0: f4b9 313b cd64 02bd 3d3b 22bd 97b0 89bd
000002b0: e5df db3c 0c0e 143d 9ec6 963b d224 30bd
000002c0: a933 b9bd d622 2ebd 65bb 0bbc 2e39 8a3d
000002d0: bff8 3e3d 5e5c b8bd 79d5 00bd 8686 97bd
000002e0: 1bb0 c0bd 3706 58bb e9f4 b5bd 82f2 5e3d
000002f0: 6d66 7bbc 0925 b13c e835 59bd e42a 00bd
00000300: 3e65 72bd 89d3 c339 d532 c9bd 534f 3d3c
00000310: 0e83 df3d c34b 793d d343 37bd 7649 79bd
00000320: 1fc0 79bd ec28 01bd a042 a7bd 9bfd 45bb
00000330: b4f2 1b3b 46d6 033d e053 13bd 9d2b 0b3d
00000340: 390b 70bc 3ccf e8bd cb9e fa3c 89d6 263d
00000350: afe1 323d d47e d03c eccb 04bd 6578 3d3d
00000360: 3aca 3e3d 4e0f 91bd 800b 5c3d 5956 9f3d
00000370: dccf 223c 84f6 bfbd 53de c73d 9dd2 bdbb
00000380: a361 b3bd 3f77 69bc ba56 a23d 8ee0 f03c
00000390: 9633 95bd 1dc6 92bd 974b 113d 2e62 8c3c
000003a0: c4a5 a23d 9481 01bd 4274 02bc 3755 abbd
000003b0: f614 acbd 679e 953c 42be f7bd eff5 2d3a
000003c0: 5eb8 a4bd a0a9 02be b1ee 043d d5eb 92bd
000003d0: 6a42 2f3c 5431 c1bd 5ab4 173b 2717 383b
000003e0: 82b6 35bd a536 73bc 612f 663b b57b 0c3d
000003f0: 4e00 afbd ef76 b2bb 66a1 07bd 2563 9fbc
-0.040743608 -0.009255583 -0.0800827 0.08393233 -0.1104477 0.0037829373 0.046456855 -0.0150132505
0.024862373 -0.034076814 0.013008081 0.051375333 -0.028400578 -0.07014953 -0.038652726 0.07241641
-0.03088054 0.05072671 -0.043168582 0.063186035 0.078285314 -0.0077296565 -0.04896488 0.0043312497
0.07189557 -0.006448001 0.007176422 -0.007952 0.04784614 0.05315782 -0.042977817 -0.02713104
-0.0501042 0.02713855 -0.06864666 0.012754327 0.044279777 -0.081942916 -0.050512943 -0.050352097
0.05082823 -0.017118035 0.09439494 -0.080118254 -0.05184657 -0.01638126 -0.1366918 0.035265435
-0.05560464 -0.009242935 -0.045098465 -0.14981422 0.036999576 0.06666013 -0.037958737 -0.10914041
-0.071744815 -0.055635534 -0.008850787 0.020841055 -0.0560099 -0.019604012 -0.1016891 -0.09030162
-0.09695338 -0.06700416 -0.09218471 -0.021413896 -0.025056819 0.039804332 -0.05314442 -0.062014334
-0.049412157 0.00014881183 -0.006240531 -0.028588666 0.08475116 -0.058479153 -0.09069222 -0.03675362
0.03675694 -0.087838344 0.014862811 0.040444728 -0.010303965 -0.08455407 0.03030769 0.048065953
-0.13824199 0.017399346 0.10730147 -0.008759033 0.02436077 0.0785661 -0.056313876 0.06857175
0.015885822 0.0049495157 -0.092907146 0.055580523 0.100114726 0.02798158 0.071195506 -0.05036304
0.029593823 0.098169595 0.0018815754 -0.009348301 -0.08791318 -0.032327294 -0.06078138 -0.0033688084
0.0045613903 -0.027399534 -0.12470766 -0.03213915 -0.033038724 -0.005149396 0.04239648 0.004165113
-0.029163057 0.009683993 0.0017420618 -0.02750546 0.06489703 -0.043471843 -0.09888645 -0.02824361
0.062729575 -0.05458481 -0.046180144 -0.070903316 -0.0056243395 -0.06263933 -0.040324096 0.10256716
0.010838414 0.028314589 -0.09378257 -0.0117184855 -0.076636754 0.03201269 -0.011762724 -0.16032028
-0.020747928 -0.050468106 -0.095669925 -0.053236607 -0.058933485 -0.13453457 0.016138282 -0.003383468
-0.059313852 -0.07771987 -0.011842199 -0.011341933 0.07500922 0.020238196 -0.019215258 -0.07842682
0.018549182 -0.045503017 0.060608536 0.07305057 0.026138151 0.0358715 0.09719934 -0.083583966
0.0027118893 -0.031834412 -0.039607275 -0.06723135 0.02684016 0.03614621 0.0046013137 -0.043003865
-0.090430565 -0.04251369 -0.008528565 0.067491874 0.04662394 -0.09001993 -0.031453583 -0.07398705
-0.094085895 -0.0032962689 -0.088846035 0.054430492 -0.015344244 0.021624105 -0.053029925 -0.031290904
-0.059178583 0.00037350904 -0.098241486 0.011554557 0.109136686 0.060863268 -0.044742417 -0.060861073
-0.060974237 -0.031533167 -0.081670046 -0.0030210975 0.0023795785 0.03218677 -0.03596866 0.03397714
-0.014651113 -0.11367652 0.030593297 0.04073194 0.04367226 0.025451101 -0.032421038 0.046257395
0.046579577 -0.07082997 0.053721905 0.077801414 0.009937253 -0.09373191 0.09759202 -0.0057929293
-0.08758857 -0.014249622 0.07926698 0.029403951 -0.0728523 -0.07166693 0.03547248 0.01713666
0.079417735 -0.031617716 -0.007962288 -0.08365863 -0.084024355 0.018264009 -0.12096836 0.0006636073
-0.08042978 -0.1276002 0.032454196 -0.07173888 0.010696987 -0.09433237 0.002314827 0.0028089972
-0.044363506 -0.014844571 0.0035123455 0.034297664 -0.0854498 -0.005446307 -0.033112906 -0.019456455

weight f4 [256, 512]
00000000: d86d 5fbc 6cd1 ba3c 802f 553d ad5f 9b3d
00000010: 86a5 513c e564 e33d 0f0b fdbd eb47 a93c
00000020: 1738 d2bb 45b3 fb3d fa74 653c 0d85 1bbc
00000030: 02c7 3ebe 8597 8d3c c91b 663c 12f1 53bd
00000040: 6937 acbd 561c 31bd b1db 9e3d ac4d 01be
00000050: 49a3 5b3d ff92 303d dc33 2abd f47d ba3b
00000060: d9cc c33c 9ebe 54be 3179 37be bc5c ad3c
00000070: da55 90bd 2f59 17bd 839b 9bbc 27ba 453d
00000080: ab72 febd fb2b 7b3b cfa0 9dbd 38a8 613d
00000090: 3e19 92bd e0fd 5abe 76c0 30bd fbbf 35bd
000000a0: 9791 363e 11d4 213d b91f a3bd 5810 16be
000000b0: 8e72 5bbd e4c7 54bd 4887 6b3c ebe1 d93d
000000c0: 39fb dabd 6db5 8b3d 4623 413d 19cd 8c3c
000000d0: 8177 993d 0b55 7bbd 6c6e a33d b899 203d
000000e0: e23a bc3d 64e5 21bd 0cb5 a4bd ed15 aebd
000000f0: 0f9f 0d3e 3132 533d 0056 99bd fbc7 29bd
00000100: c30e 1abc 945d f23b 683a 1b3d 9764 f33c
00000110: 8631 833d eefe 2fbe 007a a3bd d479 80bc
00000120: 676a fc3d 6c53 f6bc c416 05bc f944 1a3e
00000130: 881c 14be 26a3 3abd aeb2 0a3d a76c 143d
00000140: 3e0c ce3c d9f2 3bbd 5dce f03d 12f8 043e
00000150: 2b5e 9e3d 0137 3bbc 2203 d7bc e8f0 83bd
00000160: dfa6 523d 9f77 653d 52f6 50bc 287a d1bc
00000170: 6a34 f83b c2e7 f2bd 9cdb 913d 7b39 d0bd
00000180: b51b af3b 32da b43c a81f 92bc a513 803d
00000190: aaab b9bd c40c dc3c 852f 3abc 948b 5fbd
000001a0: 1803 4ebd 09ad 76bc 2a36 fa3a 19c5 67bd
000001b0: f31c afbd 9716 8ebe c206 2cbd c68f 95bd
000001c0: 81c7 673d 3281 8c3d 66da 91bb 94d3 5b3d
000001d0: 8aa7 10bd c299 73bd d37b 193e 4423 0dbd
000001e0: e22a 073d d07a 8ebd e4de a7ba 93fc 23bd
000001f0: 4a74 4a3d 5753 b93c 0b24 4e3d 5b63 1e3e
00000200: b91c 87bc c42b 8d3d dcf0 ba3d 4be0 ddbd
00000210: fe8e b73d 8e91 8abd ca3b 963d 2603 07be
00000220: 23e4 6cbe 2716 a1bc 21de 123d d429 6a3c
00000230: 8caf 703d b859 8dbe c6c7 cabe 7d50 06be
00000240: 32ae 64bd 8676 283d 0509 b7bc 3881 a23c
00000250: 740e c43c 7f1a eabd 5a67 ce3c 662a b13d
00000260: 250c a2bd cf35 893d 7bd4 9cbd 931a aa3c
00000270: e434 b03b cf44 723d cff0 dbbd 4a02 813d
00000280: 7497 d0bd a082 4abe c6ee f6bb 3783 a0bc
00000290: 3819 21bd 9258 363d 7e86 a93d 49b1 fd3c
000002a0: 1698 c6bc 31ab 9dbd f072 0ebe 1965 9f3d
000002b0: d83b 923d c542 c93d c63c c43d 83a9 153b
000002c0: 3eb6 36be 9cd0 dabd b110 a7bd 3023 183c
000002d0: 756d 073c 7eb4 9bbd 09d9 04be 3c67 87bd
000002e0: 07a3 273d 4251 ee3c 6456 233d 78c3 063d
000002f0: db19 983d fc90 3fbd f72a ccbd 2d85 27bd
00000300: 4bd9 8cbd cb46 1ebe ebec e53c 0cee 853d
00000310: b6af 7cbc c7e2 0d3e c8a2 463d a472 35bd
00000320: 3228 c23b cede 76bd 370c f03d a476 f63c
00000330: eb65 6a3d 9b75 763c 39f4 493b a186 243d
00000340: 524e ea3d f22a 28be 0cf4 073d 1975 033d
00000350: affd 12bd 2ceb 5ebe efe2 133b 2888 92bc
00000360: 21ed 8ebd daf6 9dbc fbae 28bc 3728 6cba
00000370: 1087 c73d 0298 ce3c fa2e a5bd 5578 c93d
00000380: 9a91 dcbd fd37 0abe d312 c8bd 51d3 74bd
00000390: 2c0c c63d 29e3 acbc 5215 08bd 0953 f6bd
000003a0: 3a18 05be 8835 023e b2c7 21bd b77d 423c
000003b0: c588 943d 673f d23c 2085 173e 81f1 26bd
000003c0: 8550 803c a938 253d cb9c a6bd 3066 21be
000003d0: e2d3 56be 0477 c33d 2439 fb3d 8fcb 10be
000003e0: 909b d93d 355b 78bd 14de 3abd 3888 03bc
000003f0: 41de 9fbd 0dc4 7cbd 8339 753d a9ba 53be
-0.013637029 0.022804938 0.052047253 0.07586608 0.0127958115 0.111032285 -0.12355625 0.020664176
-0.006415378 0.12290052 0.01400494 -0.009492171 -0.18630603 0.017284164 0.01404471 -0.051743574
-0.08409006 -0.043239914 0.077567466 -0.12627286 0.053622518 0.043108936 -0.041553363 0.0056912843
0.02390139 -0.2077584 -0.17917325 0.021162383 -0.07047625 -0.036950286 -0.018995052 0.04827323
-0.12424215 0.0038325775 -0.076966874 0.055092067 -0.07133721 -0.21385908 -0.043152295 -0.04437254
0.17828976 0.039508883 -0.07965035 -0.14654672 -0.053576045 -0.051948443 0.014375515 0.106387936
-0.10692448 0.068217136 0.04715278 0.017187642 0.07493497 -0.0613604 0.07980046 0.039209098
0.091909185 -0.039525405 -0.080423445 -0.08500276 0.13830207 0.051561538 -0.07487106 -0.04145048
-0.0094029335 0.0073964093 0.037897497 0.02971105 0.0640593 -0.17187092 -0.07982254 -0.015683092
0.12324982 -0.030069076 -0.0081231035 0.15065373 -0.14464009 -0.045565747 0.03386181 0.03623643
0.025152322 -0.045885894 0.11758111 0.12985256 0.07732805 -0.011426688 -0.026246611 -0.064424336
0.051428672 0.056022283 -0.01275404 -0.025570944 0.0075746076 -0.118606105 0.07121965 -0.101672135
0.005343879 0.0220767 -0.01783736 0.06253747 -0.090659454 0.026861556 -0.011363869 -0.05457647
-0.05029592 -0.015055903 0.0019089628 -0.05658445 -0.085504435 -0.2775161 -0.041998632 -0.07302813
0.056586746 0.068605796 -0.004451084 0.053668573 -0.035316028 -0.059472807 0.14988641 -0.03445746
0.03299988 -0.069570184 -0.0012807515 -0.040035795 0.04942731 0.022622747 0.050327342 0.15467589
-0.016493188 0.06893113 0.091279715 -0.10833796 0.089628205 -0.067660436 0.073356226 -0.13184795
-0.23133902 -0.019663883 0.03585637 0.014292199 0.058761165 -0.27607512 -0.3960554 -0.13116641
-0.055830188 0.041128658 -0.022343168 0.019837007 0.023932673 -0.11430835 0.025195766 0.08650665
-0.07912473 0.06699716 -0.07657715 0.020764625 0.005377399 0.059147652 -0.1073929 0.06299265
-0.101851374 -0.19776392 -0.007535788 -0.019593818 -0.03933069 0.04451806 0.082776055 0.030968325
-0.024242442 -0.07698668 -0.13911033 0.07782955 0.071403205 0.098271884 0.09581904 0.0022836633
-0.17842957 -0.1068432 -0.081574805 0.009285733 0.008265843 -0.076027855 -0.12973417 -0.06611487
0.04092696 0.029091481 0.03987731 0.032901257 0.074268065 -0.046769127 -0.099691324 -0.04089849
-0.06877383 -0.15456693 0.028067073 0.065395445 -0.015422752 0.1385604 0.048495084 -0.044298783
0.005925202 -0.060271077 0.1172108 0.03008587 0.057226103 0.015042688 0.0030815734 0.040167455
0.1144072 -0.16422632 0.033191726 0.032094095 -0.035886463 -0.21769398 0.0022565683 -0.01788719
-0.069788225 -0.019282747 -0.010295625 -0.0009008678 0.09742558 0.025218967 -0.08065601 0.09837405
-0.10769959 -0.1349792 -0.097692154 -0.05977184 0.0967029 -0.021104412 -0.033223458 -0.120275564
-0.12997523 0.12715733 -0.039497085 0.011870793 0.07252649 0.025664998 0.14796877 -0.04075766
0.015663395 0.04033724 -0.08135375 -0.15761638 -0.20979264 0.09544185 0.12266758 -0.14140151
0.10625374 -0.060633857 -0.045621946 -0.008028083 -0.078060634 -0.061710406 0.0598693 -0.20676674

bias f4 [256]
00000000: 94fe 01bd 465c 1abd df28 57bd d60e fabc
00000010: 73c2 d7bc 2bde 13be d66b dcbc cc85 5fbd
00000020: 5605 e6bc f0bd 7d3a 012b 73bd 0b77 133d
00000030: 1aac 04bd d389 0d3e 5706 62bd dee8 0bbd
00000040: 64a0 1d3b e04f 513d a863 60bd fa53 91bd
00000050: 14af 273c 49dc 703d 1f39 96bc 4d58 24bd
00000060: 0854 833d 4ca9 3f3d f84a a8bc 2226 5bbc
00000070: 24fd 893d 201b d23c 46d6 dabd 066e bbbd
00000080: 115f 3c3d d7a3 6cbd 3a00 d93c 7309 ae3d
00000090: b5ec 3dbd ffe4 8abd c7df 6ebd 8127 86bd
000000a0: d0f8 dc3c 7b0c a0bd 1b40 d0bc 7871 98bc
000000b0: bfd9 34bd ffbe 12bd 44b2 073c 0ace c4bd
000000c0: 3486 5b3e 78b6 bd3b 1922 c23d cb49 f0bc
000000d0: c0d2 20bd 9b6f afbc 7e0f fabc ef0e 1abc
000000e0: 2292 04bd 948d 4d3d c43a 663d e2b0 42bd
000000f0: 530f 843b d7a2 cabc 1eb5 29bd 9ea2 fcbc
00000100: 4d35 cdbc c3a3 913c ef38 fc3c 8528 f03a
00000110: 7c3d 30bd f18b 65bc 70b5 a9bd 9d6f 62bd
00000120: eeac f1bd 5369 83bd 414e 8e3d 950f 01bd
00000130: 3679 4ebd c0fc d7bd 6c91 e23c 32bf abbd
00000140: fca9 5bbd 7524 893b 6e92 e3bc 610b d83c
00000150: 1ef4 ab3b d9e3 21bd 795c 983d 2d91 b83c
00000160: 4f1d 5abc 55ac e33c 30ee 8ebd 194e 48bd
00000170: 0324 8ebd 25b2 413e a064 2c3e e0b8 c73d
00000180: 22d3 563c adc9 a83b a679 96bd 2e44 b53e
00000190: ff16 a9bc 604f 173d 0672 e13d f61c 4fbd
000001a0: aa49 253d 259a c9bd 7a34 753d c3d9 8c3b
000001b0: af4a 88bd 2a8f 37bd 8a1f 7fbd cfd9 5ebc
000001c0: 0467 9fbc a41f a1bc 12ea 503c 9e12 323b
000001d0: 08e8 873c b404 07be c9d7 293c 6ca1 3b3d
000001e0: 4446 64bd 1e0c 313c 0c5c 5dbc 2c14 81bd
000001f0: a651 acbd db78 04be 5d61 543e f147 9fbb
00000200: a752 4d3c a367 c8bc 23d0 523c 91ba 99ba
00000210: 5dc0 0e3d 80bb 053c dd66 b23c c704 9cbc
00000220: 0c48 fabd 1dd8 88bb 20f2 9bbd 46de b6bd
00000230: 0270 8f3c 9a2b f8bd 53a1 88bc 1efe 14bd
00000240: 3942 90bd 291c f03c fa5e 033d 34cf 4abd
00000250: a8b0 723d eb0a e7bc 5fed cd3c 09c2 60bd
00000260: 24b8 ce3c c85b 10bd 305e 1abd 8ed6 103d
00000270: 6486 a53c 45c5 6bbd f80a 88bd 5557 6d3d
00000280: a3a4 15bc f874 c8bc 21e8 33bd 5287 19bd
00000290: af2e b6bd 326f df3d 4195 e4bd 6d26 b43d
000002a0: 7328 72bc 7e72 133c 8168 743c 14da 373e
000002b0: 19ba f2bc 74b7 7fbd 3c54 83bd 0d5b 69bd
000002c0: ea66 f0bc d2e2 2ebc c6fb 6a3d a081 33bd
000002d0: db1f a2bc fbe5 573c ff5a 273d c2fb 1fbd
000002e0: 5513 9abc 122d 82bc 0c9d b7bd b7e5 6bbd
000002f0: 7335 fb3b fe15 b83d 5743 8cbd 2d01 593d
00000300: 1871 3fbb 3ab1 d9bb f199 0a3d 8afe 933b
00000310: 217f c5bb dbd6 4c3d 4939 db3a 2fe1 0fbd
00000320: a707 40bd 09aa eabc 6151 67bd 683c 013c
00000330: 3e2a 0bbc c03d babb 6c52 213c 4e35 00be
00000340: 6e02 f63c a445 16bd 308c 46bd 9b55 59bd
00000350: 72a1 e2bd 1909 18be 2b60 ae3d 6027 3dbd
00000360: 30de 36bd cd30 5e3e a4f7 ba3c 8fbf c33d
00000370: 1c8d 13bc 1dde 0b3d 0f66 89bd b07e 3c3c
00000380: 7858 4dbc de61 373d 46ce 22bd 5355 98bd
00000390: f0bb 8ebc 4493 1e3d bb55 463d de44 00be
000003a0: 6e34 dc3d c8ac 1c3d dccb 2c3b 7184 1bbe
000003b0: 3103 b9bc 7436 dfbc 0617 0fbd b5b7 4a3b
000003c0: 5804 2b3c 7d4d 383c 889e e8bd decd 85bd
000003d0: 1a2b c8bc a73f a43d 32f2 31bd 6a3f bb3d
000003e0: c575 b3bc 4b27 91bd 2c4d 44bd 76e4 903d
000003f0: 8cdd 433c 69c9 1dbd 12b2 42bd b355 793e
-0.031736925 -0.037685655 -0.052529212 -0.030524652 -0.026337838 -0.14440219 -0.026906889 -0.054570958
-0.028078716 0.0009679487 -0.059367184 0.0360022 -0.03239069 0.13822107 -0.055181827 -0.034157626
0.00240519 0.051101565 -0.05478254 -0.070960954 0.010234613 0.05880383 -0.018337784 -0.040123273
0.06412512 0.046792313 -0.02054356 -0.013375791 0.06737736 0.0256477 -0.10685401 -0.09151845
0.0459891 -0.057773437 0.026489366 0.08497896 -0.04636832 -0.06781959 -0.05831888 -0.065505035
0.026974112 -0.078148805 -0.025421193 -0.018608794 -0.04415297 -0.03582668 0.008282248 -0.09609611
0.21437913 0.0057895742 0.0947916 -0.029332062 -0.039263487 -0.021415522 -0.030524965 -0.0094029745
-0.032365926 0.050183848 0.056208387 -0.04753197 0.004030147 -0.024735851 -0.041432492 -0.03083926
-0.02504983 0.017778283 0.030788867 0.0018322623 -0.043027386 -0.014010415 -0.082865596 -0.055282224
-0.11800562 -0.064165734 0.069485195 -0.031509 -0.050408565 -0.10546255 0.027657233 -0.08386077
-0.053628907 0.004185254 -0.027779784 0.026372613 0.005247607 -0.039523933 0.07439513 0.022530163
-0.013312652 0.027792135 -0.069790244 -0.048902605 -0.069404624 0.18915613 0.1683526 0.09752059
0.013111861 0.0051509948 -0.07347421 0.3540358 -0.020640848 0.036940932 0.11008076 -0.05056473
0.040353455 -0.09843854 0.0598645 0.00429842 -0.0665487 -0.044814266 -0.062285937 -0.013601734
-0.019458301 -0.019668408 0.012751119 0.0027171741 0.016590133 -0.13185388 0.010366389 0.04580824
-0.055731073 0.010806112 -0.013510715 -0.063026756 -0.08414011 -0.12936728 0.20740266 -0.004860871
0.012531913 -0.02446348 0.0128670065 -0.0011728575 0.03485142 0.008162379 0.021777565 -0.019045247
-0.12220773 -0.0041761533 -0.07614541 -0.08929114 0.017509464 -0.12117691 -0.016678488 -0.036375158
-0.07043881 0.029310303 0.032073 -0.04951401 0.059250504 -0.028203448 0.025137601 -0.054872546
0.02523429 -0.03524378 -0.03768748 0.035360865 0.020205684 -0.057561178 -0.06642717 0.057944614
-0.009133491 -0.024469838 -0.043922547 -0.037482567 -0.08895623 0.10909881 -0.111612804 0.08796392
-0.014780152 0.008999465 0.014917494 0.17954284 -0.029629754 -0.062430814 -0.06412551 -0.0569716
-0.029345948 -0.010674195 0.057369016 -0.043824792 -0.01979058 0.01317739 0.040858265 -0.039058454
-0.018808046 -0.015890632 -0.08965501 -0.05759212 0.0076662838 0.0898857 -0.068487816 0.052979637
-0.0029211696 -0.0066434415 0.033838216 0.0045164274 -0.006027118 0.05000959 0.0016725446 -0.03512686
-0.046882298 -0.028645532 -0.056474093 0.007887937 -0.008493958 -0.0056836307 0.009846311 -0.12520334
0.030030455 -0.03668751 -0.048473537 -0.053060155 -0.110659495 -0.1484722 0.08514436 -0.04618013
-0.04464549 0.21698304 0.022823162 0.09558021 -0.009005811 0.03414737 -0.06708919 0.011504814
-0.0125333 0.044771068 -0.0397475 -0.07438149 -0.0174236 0.038714662 0.048421603 -0.12526271
0.10752188 0.038250715 0.0026366627 -0.15187241 -0.02258453 -0.027247645 -0.034934066 0.0030932252
0.010438047 0.011248943 -0.113583624 -0.06533407 -0.024434615 0.08019953 -0.043443866 0.09142955
-0.021906743 -0.07087573 -0.04792516 0.070748255 0.011954676 -0.038522158 -0.047533102 0.24349098

weight f4 [128, 256]
00000000: ca92 333d cbbb b4bc 5667 1d3d 9270 a9bd
00000010: 110f 90bd 9664 8cbd da87 98bd 0941 91bd
00000020: 86fa 1fbc 3207 1cbe 7652 4cbd 94ed b4bd
00000030: 5354 1dbd d384 b0bd 31ad e4bd 7a33 09bd
00000040: f4e9 f83c af1e b5bd b5ee 1f3d 04e3 1a3d
00000050: 05eb 85bd 1413 f4bd 9bba 5abd 9618 c63d
00000060: 4f84 c53d 587b 93bd f365 943c d7d5 093c
00000070: 1833 9fbd 7b28 2abd f2d3 2dbd 70af 5fbd
00000080: de67 0fbd d0f9 c9bc 6af5 bfbe 7f28 fa3c
00000090: 3f38 42bd d8c9 1f3d 2df4 c3bc 9b76 06be
000000a0: c47f ea3d 57a8 82be cfa1 383d ce1d df3c
000000b0: 32af 65bd 5e89 423d cde1 8bbd 6a68 e53d
000000c0: b2f5 d9bc abe0 a8bb 02e2 35bb 3b26 01bb
000000d0: 788d 2b3e 3466 3abd 15ce 9d3d d0d7 4ebe
000000e0: b3c3 85bd bb29 1d3a d513 83bd e630 64bd
000000f0: 7166 813b a55f dcbc 1fdd 28bd c010 713c
00000100: 4e12 6c3d 76a6 02bd 9e0c 4fbd 1b11 e3bb
00000110: 2c28 17bd 9db2 24bc 4155 4aba 0feb fabc
00000120: db26 813c f50a 7cbc c9c8 783c 3f07 39bd
00000130: 5761 efbc e05b 57bd 0abe 0dbc 4796 cabd
00000140: 6669 c53c ec1f 0cbe 3041 1dbc c46c 633d
00000150: 6555 213d 514f 3abe b6c2 aa3b 8814 dbbc
00000160: 1b29 d6bb 7f1b 80ba 731f e1bd 9772 773d
00000170: 1412 de3c 1552 4dbe f512 b63c dc44 c93d
00000180: b0da 76bc d9f7 24be 8631 24be 440f 06bd
00000190: 5c7f 4abe b95a 6abe 4ed8 f83d d2b6 963b
000001a0: d19b 80bd c1aa 98be 9593 9dbd 3531 d9bc
000001b0: 0d6d b43d 7776 ca3d 1b4f 6fbb d39e 5f3c
000001c0: 710a 0dbd 0e9b 0cbd 8e9c 0b3d 9769 3dbe
000001d0: 75f5 41be 0782 e4bd cb82 28be d30b ae3b
000001e0: 619b 15bc 8bb2 d8bd b0ab 5abc c070 093d
000001f0: 55ca 54be 50c9 b7bd 4cd0 533b 1e37 923d
00000200: a9c4 9dbe d1c4 413d 7cde 3abd d853 0bbd
00000210: cd8e b53d 99c5 7ebc 5686 0a3d 1b2d 933d
00000220: d494 31bd 0cf3 17bc 97e0 74be ff1a 6a3d
00000230: ead8 51bc 49dc 3cbe b417 9c3d a21c 93bd
00000240: c4ae e43d 998f 39bd 97aa 07bc eadb eebc
00000250: 71d7 303d 6a47 dcbc fdb2 9cbd b55b f63d
00000260: de35 afbd eeb7 a3bd ea8c 423b 5c5d 6a3d
00000270: 6aab 1cbe 56f3 d7bb 445d 6cbc cfae ebbd
00000280: f636 ddba 258f cebd b220 823c cb8e a1bc
00000290: cfbb 9cbd 1984 70be 200c 11bd aec3 6a3d
000002a0: be47 c93d 2d5e eabc 1f92 363c 7192 41bc
000002b0: 6d7f 7abd ff1f 633c 2376 703d 604f 15bc
000002c0: 954a a83a 0e6b c5bd a74d a9bd 653a b13c
000002d0: cd87 b2bd 25b7 053d 9fac a93c 750f 00bc
000002e0: d980 11be db4d d7ba b98c 58bc 82c7 d73c
000002f0: d8b9 923d 6998 03bd 8aca af3c 6eca e1bd
00000300: 43a1 5ebc 7c10 233d 6f32 8c3c 4e1d eebc
00000310: a9c9 a83b 25e2 a6bd 686c 46be df8c 343d
00000320: 3e38 b0bc bdfd f23c 3537 b2bc 8719 9dbe
00000330: c945 e7bc 5215 983c 1e26 08bd c070 35bd
00000340: 5777 8dbe 8605 d3bc 0c06 59bd 1233 adbd
00000350: d9ad 3ebd 9e21 25bd d2e4 c4bd 6e44 e5bb
00000360: 3dc6 b53d 39eb 62bb ca87 87bc d296 9fbd
00000370: 14b2 473c c833 5dbd 9ba8 95bd 411e 7abd
00000380: 3bc0 8e3c 5dac 21be 73f3 b8bc a48c acbd
00000390: a8fb adbd 6191 f03c dacc 1a3d b13b bbbc
000003a0: bfa6 983d b087 7f3d 3796 0dbe e414 37be
000003b0: 687b 3bbd bfc4 5a3c df3a 25bd 905c f13c
000003c0: a711 65bc eb85 15be 25ea 7dbb b6e5 f5bd
000003d0: a12e b2bb 19bd 403c b150 f53c 76bc 913d
000003e0: ba61 55bd a05f 1bbe becd a7bb a92d d7bd
000003f0: 580f 02bd 81f3 86bd 94a9 463d 1010 1a3c
0.04384116 -0.022062203 0.038428627 -0.08273424 -0.07034124 -0.06855123 -0.07447787 -0.070924826
-0.009764319 -0.1523712 -0.04988333 -0.08834377 -0.038410496 -0.08619084 -0.11165846 -0.033496358
0.030384995 -0.08843743 0.03904601 0.037814155 -0.06538967 -0.11917701 -0.053400617 0.09672658
0.096443765 -0.0720126 0.01811502 0.0084128 -0.07773417 -0.04154251 -0.042438455 -0.05461067
-0.035011165 -0.024655253 -0.37491924 0.030536888 -0.04741692 0.039010853 -0.023920143 -0.13131182
0.114501506 -0.25519058 0.045076188 0.027235892 -0.056075282 0.047494285 -0.068301775 0.11201556
-0.026606414 -0.0051537356 -0.002775312 -0.0019706625 0.16753185 -0.045507625 0.07705323 -0.20199513
-0.06531467 0.0005995293 -0.06400267 -0.055710696 0.0039489795 -0.026901076 -0.041226503 0.014713466
0.057634644 -0.03189703 -0.050549142 -0.0069295294 -0.036903545 -0.01005235 -0.00077183923 -0.030629663
0.015765598 -0.015383472 0.01518459 -0.045172926 -0.02922122 -0.052577853 -0.008651266 -0.098919444
0.02409811 -0.13684052 -0.009598061 0.05552365 0.03938808 -0.1819432 0.0052111996 -0.026743189
-0.006535662 -0.000977382 -0.109923266 0.060412016 0.02710823 -0.20050843 0.022225836 0.09827587
-0.015066788 -0.16110171 -0.16034517 -0.032729402 -0.19775146 -0.2288617 0.12150632 0.0045994306
-0.062797196 -0.29817775 -0.07694165 -0.026512722 0.08809862 0.098858766 -0.0036515656 0.0136487065
-0.034433786 -0.03432756 0.03408485 -0.1849731 -0.1894129 -0.11157613 -0.16456144 0.005311468
-0.0091312835 -0.10580929 -0.013346598 0.033554792 -0.20780309 -0.08973944 0.00323202 0.07139419
-0.30814102 0.04730684 -0.045622334 -0.034015507 0.08865128 -0.015550041 0.03381952 0.071863376
-0.043354824 -0.0092742555 -0.23913799 0.05715465 -0.012808064 -0.18443407 0.076217085 -0.07183196
0.111661464 -0.04530296 -0.008280418 -0.029157598 0.04317421 -0.026889522 -0.07651327 0.120292105
-0.08555196 -0.07994066 0.0029686042 0.05721794 -0.15299764 -0.006590287 -0.014426533 -0.115079515
-0.0016877342 -0.100858964 0.015884731 -0.01972141 -0.07653009 -0.23487891 -0.035411954 0.05731552
0.09828137 -0.02860936 0.011143236 -0.0118146995 -0.06115668 0.013862609 0.058706414 -0.009113163
0.001283961 -0.0963956 -0.08266764 0.02163429 -0.08717308 0.032645363 0.020712195 -0.007816185
-0.14209308 -0.0016426401 -0.013217145 0.02634025 0.07164353 -0.03212777 0.021458883 -0.110249385
-0.0135882525 0.039810643 0.017113892 -0.029066708 0.005150993 -0.081486024 -0.19377291 0.044079658
-0.021511193 0.029662007 -0.02175484 -0.30683538 -0.028231518 0.018564854 -0.033239476 -0.04429698
-0.27630112 -0.02575947 -0.052984282 -0.084570065 -0.046552513 -0.040315263 -0.096139565 -0.006996683
0.088757016 -0.0034625067 -0.016544241 -0.077924386 0.012188453 -0.05400446 -0.073075496 -0.06106401
0.017425647 -0.15788408 -0.022577023 -0.084252626 -0.08495265 0.029366197 0.037793018 -0.022855612
0.07453679 0.06238526 -0.13826834 -0.17879063 -0.045771986 0.013352572 -0.040339347 0.029463083
-0.013981259 -0.14601867 -0.0038744297 -0.120067045 -0.0054376875 0.011763834 0.029945703 0.07116024
-0.052095152 -0.15173197 -0.005120962 -0.10506756 -0.031752914 -0.065894134 0.048501566 0.009403244

bias f4 [128]
00000000: cf97 b3bd 1d21 1abd 9d3c 1bbd 2fe0 cfbd
00000010: 9b0a 84bd 04a5 f8bd 1b4d a5ba 2c1c a7bd
00000020: 37c7 b3bd 359a c1bd da0e 2bbe 0dd0 4f3c
00000030: df98 ec3e d851 183e 9402 c4bd 6fe1 01bd
00000040: 5080 423e 94d3 9dbd 7de2 173c dfb6 b0bc
00000050: 6d92 1ebd 301e af3d 14ae 813e 179f 6dbc
00000060: 60aa 27bb 181f 02be 8aac e23c 2676 8a3d
00000070: f655 03be 6850 ebbb 53da 70be 5ff5 eabd
00000080: 0465 d2bd b57c 89bd b190 6bbd d65c 12bd
00000090: de21 4c3c 9ae5 053f 4918 6abd 1887 05be
000000a0: a196 3fbe 106d 66be c001 0cbe 897b c3bd
000000b0: da11 b83d 5045 a73e c2d6 00be d6c9 93bd
000000c0: a32d a23d 486e 333e a4ac 85bd b883 993e
000000d0: 8ada 09be c24d e33e 2376 773d 10b7 af3d
000000e0: 64cf 5bbb 0d7b 91bd fcc8 2cbb 8952 afbd
000000f0: fc27 9cbd ee67 07be e41c c4bd b45d 86bd
00000100: cee7 98bd 6eeb bdbd ed41 0dbc b163 e2bb
00000110: bdb2 3cbc e5e3 9a3e dd44 173e 9f25 66bd
00000120: 9cff 1fbd 7e0a f4bd f28a 983e fff4 fe3c
00000130: 22b8 83bd 26f9 383e b007 a63d cb70 143e
00000140: 3f67 063e 8d63 c0bc bebb 7fbd 0280 783d
00000150: b4f6 bebd 401f 573e edd0 55be 366a 96bd
00000160: 419d fbba ea05 c6bd 6f44 1d3e 8946 493d
00000170: ac81 e9bb 6a05 33bd f163 0a3c 43b8 80be
00000180: ab71 93bc 46f7 c1bc 2031 683e 996b 23be
00000190: 363b e2bd 54f5 f9bc dcc7 e73e 05a6 633e
000001a0: 5083 cd3e f6e3 dcbd 5294 48be b2a2 21be
000001b0: 56f1 143d a72a 7cbd a70a 973e 94ea f6bd
000001c0: da72 d5bd 736b f8bd f182 9dbd ffc0 d3bc
000001d0: 11f6 a73e c86f 523e 67a6 703e df46 923c
000001e0: c7b4 66bc 2c11 18be a403 a93e 2424 63be
000001f0: 5f76 75bc ed3c 9bbd 78e5 43be 154d d6bd
-0.087691896 -0.037629236 -0.037899602 -0.101501815 -0.06447335 -0.12140849 -0.001261148 -0.0815967
-0.087782316 -0.09453241 -0.16704884 0.0126838805 0.4621038 0.14874971 -0.09570804 -0.03170913
0.1899426 -0.07706371 0.009270308 -0.021571575 -0.03871386 0.0855068 0.25328124 -0.014503262
-0.002558373 -0.12707174 0.027670164 0.06760816 -0.1282576 -0.007181216 -0.23520784 -0.11472582
-0.102731735 -0.06713239 -0.057511035 -0.035733066 0.012459246 0.5230347 -0.057152066 -0.13039815
-0.18709804 -0.22502542 -0.13672543 -0.09545047 0.0898778 0.3267007 -0.12581924 -0.072162315
0.07918861 0.17522538 -0.06527069 0.29983306 -0.13462272 0.44395262 0.0604154 0.08579838
-0.0033540362 -0.07103548 -0.0026364913 -0.08560664 -0.07624814 -0.1322324 -0.09575823 -0.06560841
-0.07466088 -0.0927342 -0.008621675 -0.006908857 -0.011517224 0.30251995 0.14772363 -0.056188222
-0.039062127 -0.11916064 0.29793507 0.031122683 -0.06431605 0.18063793 0.08106935 0.14496152
0.13125323 -0.02348497 -0.062434904 0.060668953 -0.09324399 0.21008015 -0.2088048 -0.07344477
-0.0019196646 -0.09669097 0.15358137 0.049139533 -0.007126054 -0.043706335 0.008446679 -0.2514058
-0.017998537 -0.02367748 0.2267499 -0.15959014 -0.1104645 -0.03051249 0.45269668 0.222313
0.40139246 -0.107856676 -0.1958783 -0.1578472 0.03636297 -0.061564114 0.29500315 -0.12056461
-0.10422297 -0.12129869 -0.07690991 -0.025848864 0.3280492 0.20550454 0.23500977 0.01785606
-0.014081187 -0.148503 0.3301059 -0.22181755 -0.014981835 -0.0757998 -0.19130504 -0.10463921

weight f4 [60, 128]
00000000: cb7a 13bd ec96 b63d 95c2 a63d 5f05 79bd
00000010: 66dd 8b3d 8678 4ebc e3e9 28bb e49b 82bc
00000020: 416e bc3c 3f11 1fbd 284e 623b 9a4e 373c
00000030: 6141 7d3d 4d27 093d 9f24 593d 33d3 e03b
00000040: 5504 6dbc e8e0 3e3d 3fb3 0dbd 23c1 063c
00000050: 65ae 0fbc 6fe1 9ebc 675c 8dbb 00c2 0fbd
00000060: 7e68 923b abb0 2c3c 5b2e 363d 432d 47bc
00000070: a74a 4dbc e464 4abd eeda 06bd 10a5 cc3c
00000080: 8388 95bd f6cc 5fbc 4a16 38bd 5fc0 b8bc
00000090: fde3 debc d032 183e 983b 25bd e32b eebc
000000a0: 4ac0 4abd bbcd 473d 5d66 783b 166a 983d
000000b0: 6d88 bb3b 756f a23c 2b0b c83d b800 4c3d
000000c0: d155 053e f2ce b8bb 86ba 49bd 35ba 0d3c
000000d0: 4c17 6bbd bcd9 063c 468a 45bc f487 873c
000000e0: be0a c4bd 258d 24bd bd17 6fba 10a6 34bc
000000f0: 8e56 1d3d 0d53 8c3c 5089 3d3b 8127 81bc
00000100: 9f66 473d 1838 1abc aa3a 94bd 56f8 6bbd
00000110: 396c a3bd 0e71 063d b016 b93d 989b bfbc
00000120: 118d ea3b be82 ab3c 8a44 a73c 2bb1 9c3b
00000130: e09c 863c 9333 173c 4573 673c 29aa 0f3c
00000140: 4cc5 8b3c 5d5e 213d 1203 83bc 5643 73bd
00000150: 5ac6 a4bb d53e b33d b955 2cbd 58d2 593b
00000160: 0cdd 4e3c 8c39 153a 4c1a 093c 61ee d2bc
00000170: c86c 18bb e8d2 4c3c 6988 173d bc3d 27be
00000180: c42f 85bc 02cd 0c3e ae36 f9bc 6308 f03c
00000190: c692 97bc 70a4 6c3c a656 1e39 dd77 f53b
000001a0: 4eb3 2dbc 010f 57bc 66f5 0bbb 66d7 0c3d
000001b0: 2d2f 5bbd b261 3dbc e6d0 013e 1df8 a5bb
000001c0: d6cf 8a3c e69f a6bd 7ed5 b13d 4697 4f3c
000001d0: 6675 283c 772d a6bc 13d1 613c 1ec6 843c
000001e0: f917 13bd 3396 4abc 13f5 c9bc e4d2 72bd
000001f0: fa2b b43a 5bdc f13b dafb 0ebd 631f b5bb
00000200: 5969 8d3a d3da 1c3d d202 803d 7de7 5f3b
00000210: e967 7f3d f860 5c3e bdb8 52bb b9d8 ff3a
00000220: 9869 80bd 1a4c bcbc 0ff2 91bd 92c3 c13c
00000230: 7855 933a 18f2 cabe af35 753d 1f00 8c3c
00000240: d24b d2bb 0391 84bb fe83 193d aff4 083c
00000250: 3492 4cbe 50af e6bd 0ca6 45bd 8232 4ebd
00000260: d302 07bb 0d18 563d 59d0 82bd 1e79 48be
00000270: 278c 08be df66 e93d d773 ab3d 1c55 933c
00000280: a617 713d 8970 04bf 04c4 e83c e4df 673d
00000290: dd40 a13d 95c9 b9b9 7d2d 833d fea9 65bd
000002a0: b917 203e 54e5 213e 2851 153d dcf0 4bbc
000002b0: 86bd 85be f423 7e3d 6fc1 e6bd 5ced 76bc
000002c0: abc5 0d3b 96dc 81bd 3491 243d 53fb 62bd
000002d0: 6e2b 4d3d 2805 bfbc 352f 5f3d 71b1 a2bb
000002e0: b156 833e 23a7 833d 839a c3bd 925d b83e
000002f0: b392 d33c 629e 0bbd 71d9 903d f94b 0a3c
00000300: 5766 99bd 8dce 653f b866 95bc d80a 183d
00000310: 5d72 6ebd f8c0 183d d2d0 ce3d de8e eebd
00000320: aed3 debb de15 883d eb7a a8ba 5ddd a7bc
00000330: f8bb 93bd c80a b2be 68e9 3d3c 1e14 ed3a
00000340: 0cd6 1a3c 928c 983d 02de dfbc fb5a bab9
00000350: 614e b4bd 8c8e 3a3c 0947 be3c 4f2d 1b3c
00000360: 0d56 85bd b57a fe3d 7254 9c3d 0c44 053d
00000370: 781d a5bd 58b2 bf3b 5dcf 14bd c3ce 093d
00000380: a506 1f3d 0481 08bb 05d3 86bd 9184 073d
00000390: 937c 4c3c d8ca b63d 60b4 4f3b 8195 90bd
000003a0: 6e04 96ba 5d88 f2bb d233 05be efa4 f7bc
000003b0: 677f 83bd 8bba 45bd 7531 56bb 453b 5c3c
000003c0: 6ec4 a13d 1ed2 9b3e ec59 5dbd bb0b f83a
000003d0: a895 d1bd 6c32 abb9 7741 ab3c 6317 383d
000003e0: b8c8 9e3c d677 a8bd 4e6d 193d 4404 89bd
000003f0: 29a4 e2bc 1b7e d53d cb20 233e 881a 393d
-0.036005776 0.08915505 0.08142582 -0.060796138 0.06829338 -0.012601977 -0.0025774173 -0.015943475
0.023001792 -0.038834807 0.0034531448 0.011188174 0.06182993 0.033484746 0.05301344 0.0068611144
-0.014466365 0.046601206 -0.03459477 0.008224758 -0.008769606 -0.019394604 -0.0043139937 -0.035097122
0.004468023 0.010540168 0.0444778 -0.012156787 -0.012530006 -0.049412623 -0.03292363 0.024981052
-0.07301428 -0.013659706 -0.04494313 -0.022552667 -0.027208323 0.14863133 -0.040340036 -0.029073661
-0.049499787 0.048780184 0.003790281 0.07442109 0.0057230503 0.019828537 0.09767755 0.049805373
0.13021018 -0.005639904 -0.04925015 0.008650352 -0.057395265 0.008230623 -0.012056893 0.01654432
-0.095723614 -0.04017367 -0.0009120664 -0.0110259205 0.038412623 0.017129445 0.0028920956 -0.015765907
0.04868185 -0.009412788 -0.07237752 -0.05760988 -0.07979626 0.03282266 0.090375304 -0.023389623
0.0071579297 0.020936366 0.020418424 0.0047818623 0.016432226 0.009228605 0.0141266035 0.008768597
0.017061852 0.039396632 -0.015992675 -0.05939039 -0.005028528 0.08752219 -0.04207394 0.0033236947
0.012625944 0.0005692474 0.008368086 -0.025748434 -0.0023258198 0.012501456 0.036995325 -0.16332144
-0.016258128 0.1375008 -0.030421581 0.029300874 -0.018502604 0.014443502 0.00015100333 0.0074910955
-0.010601832 -0.013126136 -0.0021355986 0.034385107 -0.053511787 -0.011558937 0.12677345 -0.005064978
0.016944807 -0.08135967 0.086832985 0.012670344 0.010281896 -0.020285351 0.013782757 0.01620775
-0.035911534 -0.012364912 -0.024652993 -0.059283152 0.0013746016 0.0073810047 -0.034908153 -0.005527423
0.0010788842 0.038294625 0.06250538 0.0034165077 0.062354956 0.21521366 -0.003215357 0.0019519544
-0.062701404 -0.022985507 -0.07126247 0.023652826 0.0011240682 -0.39637828 0.05986565 0.017089901
-0.00641773 -0.004045607 0.037479393 0.008359118 -0.19977647 -0.11263907 -0.048254058 -0.050341137
-0.0020601049 0.05226903 -0.063873954 -0.19577453 -0.13334714 0.11396574 0.08371704 0.01798492
0.058860444 -0.51734215 0.02841378 0.056610003 0.078737 -0.0003543614 0.064051606 -0.05607032
0.1563405 0.15810138 0.03645435 -0.012447562 -0.26121157 0.062046006 -0.11267363 -0.015071239
0.0021632712 -0.063409016 0.04017754 -0.055415463 0.050090246 -0.023317888 0.05448838 -0.0049650003
0.25652078 0.06428363 -0.09550955 0.36008888 0.025826788 -0.034086592 0.07072724 0.008440965
-0.07490223 0.89768296 -0.018237457 0.037119716 -0.058214534 0.037293404 0.10098423 -0.116483435
-0.0068001365 0.06644796 -0.0012854015 -0.020491296 -0.072135866 -0.3477385 0.011591293 0.001808766
0.009450447 0.07448687 -0.027327541 -0.0003554447 -0.08804012 0.011386525 0.023227232 0.009471252
-0.065105535 0.12425748 0.07633294 0.032535598 -0.08062261 0.0058501177 -0.03633057 0.03364445
0.038824696 -0.0020828852 -0.065832175 0.03308541 0.012480873 0.08925408 0.0031693205 -0.070597656
-0.0011445412 -0.0074015097 -0.13008049 -0.030230014 -0.064207844 -0.048273604 -0.0032683287 0.013441865
0.07898794 0.30433744 -0.054040834 0.0018924394 -0.10233623 -0.0003265323 0.02090524 0.04494418
0.01938282 -0.08225982 0.037457757 -0.06690267 -0.027666168 0.10424443 0.15930478 0.045191318

bias f4 [60]
00000000: 165e e339 4724 b639 9201 5639 a9ce be38
00000010: 3bf2 3139 f89f 9d39 d814 fd38 e396 2139
00000020: 0a0e 4b39 ae49 27b9 fe65 6a38 63a7 20b9
00000030: 711b 1239 34cc 6439 5609 1339 5dbe 1839
00000040: 9223 4bb8 7943 35b8 26a8 2eb8 5caa e039
00000050: aa61 c1b8 b198 9a39 4291 0bb9 b156 8c37
00000060: ae90 28b9 55b3 d038 76d4 01b9 da41 3e39
00000070: d602 beb8 3553 d138 c3c5 4bb8 3e79 82b9
00000080: 1c78 9cb8 54a9 1ab9 be46 e1b7 cef5 b335
00000090: 8201 71b8 cd70 0639 7086 6537 983a 87b8
000000a0: a698 0fb8 5ba8 8138 64b8 0eb8 2c2d 2f39
000000b0: a062 c3b6 060f 5db9 56ac fe36 601e 36b9
000000c0: bae2 d239 fb15 0cb9 ab3f 9bb7 cb70 63b9
000000d0: 8e61 d138 7519 f539 750f 50b8 31c9 3fb9
000000e0: 6f54 82b7 049c 32b9 e0f0 84b8 6eaa 8db9
0.00043366913 0.00034740774 0.00020409215 9.0983995e-05 0.00016970273 0.0003006456 0.000120678626 0.00015410366
0.00019364819 -0.00015953809 5.5884935e-05 -0.00015321145 0.00013933868 0.00021819846 0.0001402249 0.00014566765
-4.84321e-05 -4.32166e-05 -4.1641433e-05 0.00042851537 -9.2211485e-05 0.00029486933 -0.00013310186 1.672967e-05
-0.00016075626 9.951616e-05 -0.00012381547 0.00018144344 -9.060434e-05 9.981395e-05 -4.858315e-05 -0.00024885865
-7.461032e-05 -0.00014749664 -2.6855032e-05 1.3408078e-06 -5.7460282e-05 0.00012821257 1.3680765e-05 -6.4482156e-05
-3.423602e-05 6.182558e-05 -3.4027165e-05 0.00016706128 -5.8229343e-06 -0.00021081799 7.5898524e-06 -0.00017368188
0.00040223246 -0.00013359629 -1.8507088e-05 -0.00021690426 9.9840676e-05 0.00046749008 -4.960546e-05 -0.00018290129
-1.5536525e-05 -0.00017033523 -6.339117e-05 -0.00027020596
