linearPredictionModels/db39/mega/combined.csv_wholeNetPrototype5_Epochs_3_ValidationLoss2.106801_lr0.0003_2023_08_04_09:39:10.pth (torch, 992609 bytes, 8 tensors)

weight f4 [512, 145]
0	0x3bd10223	0.0063784285
1	0xbd8e8ea2	-0.06960799
2	0x3bd524bc	0.006504623
3	0xbd711f13	-0.058867525
4	0x3da9dc62	0.08293988
5	0x3ba9ef68	0.00518601
6	0x3c6b7701	0.014371634
7	0xbdb0c12e	-0.08630596
8	0x3ce8b595	0.028406898
9	0x3da427f9	0.08015437
10	0x3c8cfe53	0.017211115
11	0x3c8a54dc	0.016886167
12	0xbcc164d8	-0.023607656
13	0x3d174183	0.03692771
14	0xbd311ca7	-0.043240216
15	0x3d78156a	0.060567297
16	0xbc461c28	-0.012091674
17	0x3d76f6dd	0.06029402
18	0x3c00374b	0.007825683
19	0x3d94b580	0.07261181
20	0x3d34db31	0.04415435
21	0xbc0df6fa	-0.008664841
22	0x3d890c49	0.06691796
23	0x3c8f206d	0.017471517
24	0xbd23a8ca	-0.03995589
25	0xbcc98312	-0.024598632
26	0xbbca4802	-0.006173135
27	0xbd9b47fe	-0.07582091
28	0x3d3dfde1	0.046384696
29	0x3ccb7a40	0.024838567
30	0xbd7e1d98	-0.06203994
31	0xbd6b3421	-0.05742276
32	0x3c516ac0	0.012781799
33	0xbc8f5fc1	-0.017501714
34	0x3d2157ef	0.0393905
35	0x3d231175	0.03981157
36	0xbcbaa458	-0.022783443
37	0xbc1540cc	-0.009109687
38	0xbd03fa18	-0.03222093
39	0x3c40eeac	0.011775654
40	0xbd8eebe4	-0.06978586
41	0x3d12c611	0.035833422
42	0x3d19e653	0.03757317
43	0xbd066886	-0.032814525
44	0xbd372e82	-0.044722088
45	0x3d14396e	0.03618758
46	0x3d6496d3	0.0558079
47	0xbd928186	-0.07153611
48	0xbcb19b0f	-0.021680383
49	0xbce69fdc	-0.028152399
50	0x3d61e66d	0.05515139
51	0xbd828b78	-0.06374258
52	0x3d19975a	0.037497856
53	0x3d2e3e6e	0.042540006
54	0x3c6918e8	0.0142271295
55	0xbd4a7514	-0.04942806
56	0x3d80cc39	0.062889524
57	0x3b149834	0.0022673728
58	0xbd892f23	-0.06698444
59	0x3d838a1d	0.064228274
60	0x3cd5bc22	0.026090685
61	0xbcc6c4f6	-0.02426384
62	0xbd221c0a	-0.03957752
63	0xbb61b319	-0.0034439026
64	0x3f2f4f35	0.68480235
65	0x3d660df6	0.056165658
66	0xb9fb4604	-0.00047926616
67	0xbd04bdad	-0.03240745
68	0x3d282dd9	0.04105935
69	0x3da4677d	0.08027551
70	0xbcd5d873	-0.026104188
71	0x3ddec1b3	0.10876789
72	0x3c964555	0.018343607
73	0x3d0e01ab	0.03466956
74	0xbd467c71	-0.04845852
75	0x3dbe9162	0.09305073
76	0xbd46b504	-0.048512474
77	0x3cd7c5b5	0.026339391
78	0xbd8d2a7d	-0.068928696
79	0xbd0c2f81	-0.03422499
80	0xbd2e59a8	-0.04256597
81	0x3a6c9d45	0.00090261205
82	0x3c91a9ca	0.017781157
83	0x3d7ee181	0.062226776
84	0x3d344e7e	0.04402017
85	0xbc4e3872	-0.0125867
86	0x3d937493	0.07199969
87	0x3d860cdd	0.06545422
88	0xbc9c5471	-0.019083234
89	0x3b94d50d	0.004541999
90	0x3d00680b	0.031349223
91	0x3d173567	0.036916163
92	0x3bea275d	0.0071458058
93	0x3c216f47	0.009853191
94	0xbd1865f0	-0.03720659
95	0x3bcd43df	0.0062641944
96	0x3cd8b13b	0.026451698
97	0x3cf64d17	0.030066056
98	0x3d299d21	0.041409615
99	0x3d64c3c9	0.055850778
100	0xbb557374	-0.0032570036
101	0xbb3c8511	-0.0028765837
102	0xbd7dd0ed	-0.061966825
103	0x3c1b7a19	0.00948956
104	0xbc743d85	-0.0149072455
105	0xbb966d14	-0.00459064
106	0xbcc929b0	-0.024556011
107	0xbcac2b72	-0.02101681
108	0x3c391e55	0.011298736
109	0xbd540974	-0.051766828
110	0xbccb4e30	-0.024817556
111	0x3d7f0b67	0.062266733
112	0xbc66fdc5	-0.014098589
113	0x3c8306fc	0.015994541
114	0x3cbe44f7	0.023226244
115	0xbcc361cc	-0.023850344
116	0x3c0ca573	0.008584368
117	0x3d58ae6f	0.052900728
118	0x3b309f9d	0.0026950606
119	0x3d9dd57b	0.07706734
120	0xbd39ca39	-0.04535887
121	0x3bdf4827	0.006814021
122	0x3d678175	0.056519944
123	0xbc8e7ca4	-0.017393418
124	0xbdb7c301	-0.08972741
125	0x3d558ae8	0.052134424
126	0x3d6e31f9	0.058153126
127	0x3d651653	0.055929493
128	0xbd44430d	-0.047915507
129	0xbd9354db	-0.07193919
130	0x3d193338	0.03740236
131	0xbcf3a9d8	-0.029744074
132	0x3c8b4bf2	0.017003987
133	0x3cc8b36e	0.024499621
134	0xbd75f59b	-0.06004868
135	0xbcc3ade3	-0.023886627
136	0xbbf84a84	-0.0075772423
137	0xbd027af0	-0.031855524
138	0x3c946e6a	0.018119056
139	0xbd13321b	-0.035936456
140	0x39cde7f5	0.00039273468
141	0xbd1df77f	-0.03856611
142	0xbd57f68e	-0.052725367
143	0x3a33f452	0.00068647147
144	0x3d432bb9	0.04764912
145	0xbdb38fe1	-0.08767677
146	0xbde1a76d	-0.11018262
147	0x3d8bf824	0.068344384
148	0x3d2949cf	0.041330155
149	0x3d8db164	0.069186
150	0x3d6d59a2	0.05794681
151	0x3ccaef3f	0.024772285
152	0x3c2c9ec0	0.010535896
153	0xbdd681c3	-0.10473969
154	0x3b0fc8bf	0.0021939722
155	0xbd0099ca	-0.031396665
156	0xbd2d880a	-0.042366065
157	0x3cdf2a56	0.027241867
158	0xbca429b1	-0.020039411
159	0xbd9d5c6e	-0.07683645
160	0xbca58c9d	-0.020208651
161	0x3ca3dc52	0.020002518
162	0x3dcf45c3	0.10120728
163	0xbcafba52	-0.02145115
164	0xbe2e6be0	-0.17033339
165	0x3d0f4c83	0.034985077
166	0x3d391a1a	0.045190908
167	0xbe35ca95	-0.1775306
168	0xbdd015af	-0.10160386
169	0x3b8e66cf	0.004345752
170	0xbd1ecbd4	-0.038768604
171	0x3dba3d8c	0.090937704
172	0xbd173a22	-0.036920674
173	0xbcb82762	-0.022479717
174	0x3dc502b2	0.09619655
175	0x3dca00c4	0.09863427
176	0x3db6d1af	0.08926713
177	0x3d214bf4	0.039379075
178	0xbc6162ce	-0.013756467
179	0x3d20ba22	0.03924001
180	0xbd7248b5	-0.05915137
181	0x3d0fdac1	0.03512073
182	0xbcacca87	-0.021092666
183	0xbaea56b2	-0.001787862
184	0xbd0b97cf	-0.034080323
185	0xbd1f8af1	-0.038950864
186	0x3d3e2f7e	0.04643201
187	0xbd9afa67	-0.07567292
188	0xbda254d2	-0.079263344
189	0xbd8bf53a	-0.06833883
190	0x3e0bf53f	0.13667773
191	0xbb3cd578	-0.002881376
192	0xbc58f71c	-0.013242509
193	0x3cb34fb6	0.021888595
194	0xbd42e3af	-0.047580417
195	0xbc3183ee	-0.010834677
196	0x3d971e37	0.0737881
197	0xbd8e9c6a	-0.06963427
198	0xbd2428f2	-0.04007811
199	0x3d4ba449	0.04971722
200	0x3ca8390b	0.020535013
201	0xbd655d89	-0.055997405
202	0x3cb233fa	0.0217533
203	0x3cbbfa66	0.022946548
204	0x3be36a28	0.006940145
205	0xbd9a6cf5	-0.07540313
206	0x3d11153f	0.035420652
207	0xbda5fc7c	-0.08104798
208	0xbd2dc59c	-0.042424783
209	0xbec2d3d5	-0.3805224
210	0xbd73b8c5	-0.05950238
211	0xbc1c9c3b	-0.009558733
212	0xbdb1b5a6	-0.08677225
213	0xbd93bb32	-0.07213439
214	0x3dcbd5dc	0.099529
215	0x3d92616e	0.071474895
216	0xbcdb74f2	-0.026789162
217	0xbdd92657	-0.10603016
218	0xbda19811	-0.078903325
219	0xbd15e3a8	-0.036594063
220	0xbcedcbf3	-0.029027915
221	0xbe820777	-0.2539632
222	0xbd80646f	-0.06269156
223	0xbd00fd54	-0.031491593
224	0x3e0a1fde	0.13488719
225	0xbcb8f162	-0.022576038
226	0x3ba2a098	0.004962992
227	0x3d26a55e	0.04068505
228	0x3c4e959f	0.012608915
229	0x3d8b0836	0.067886755
230	0xbc90cbbe	-0.017675277
231	0xbcb678e3	-0.02227444
232	0xbd7e981b	-0.062156778
233	0xbdc35864	-0.095383435
234	0x3e20887b	0.15677063
235	0xbd1a3ff7	-0.037658658
236	0x3d536008	0.051605254
237	0xbe1070d4	-0.1410554
238	0x3d9a7440	0.07541704
239	0x3cc164b9	0.023607599
240	0xbcd06532	-0.025438879
241	0xbd89491d	-0.067033984
242	0x3d414ea7	0.04719415
243	0x3dbf7bdc	0.09349796
244	0xbd50b9f3	-0.050958585
245	0xbd8bb477	-0.0682153
246	0x3a893f96	0.0010471221
247	0xbd10ee9e	-0.035383813
248	0x3da10763	0.07862737
249	0xbe1015d0	-0.14070821
250	0x3db3a4f5	0.087716974
251	0x3dbd8b39	0.0925507
252	0xbc15f651	-0.009152965
253	0x3d0f68ab	0.03501193
254	0xbd874bd5	-0.06606261
255	0x3dbf6203	0.09344866

bias f4 [512]
0	0xbc2ca85c	-0.010538187
1	0x3c34a9c7	0.011026806
2	0x3d96ec7e	0.07369326
3	0x3c464519	0.012101435
4	0xbc27c89c	-0.0102407
5	0x3ce59899	0.028026866
6	0x3d13a2e1	0.036044005
7	0xbd3a54a6	-0.045490883
8	0x3cc8a8a8	0.024494484
9	0x3cb415aa	0.021982986
10	0x3d3f966c	0.046774313
11	0x3cd02664	0.025408931
12	0x3d79881b	0.060920816
13	0x3d0be943	0.034158003
14	0xbd80ce7d	-0.062893845
15	0xbca1f186	-0.019768488
16	0xbd4b4b3d	-0.0496323
17	0xbd70af99	-0.058761213
18	0x3cc3897c	0.023869269
19	0xba8f27ad	-0.0010921858
20	0xbc2ecf9c	-0.010669615
21	0x3d5781d3	0.052614044
22	0x3d978b9a	0.07399674
23	0x3d6f6648	0.058447152
24	0xbd95358f	-0.07285606
25	0x3d20f206	0.03929331
26	0x3d809ec3	0.062802814
27	0x3d801040	0.062530994
28	0x3b753f28	0.0037421677
29	0xbd44c7ce	-0.04804211
30	0xbd5058f4	-0.050866082
31	0xbcd59df9	-0.026076304
32	0xbdc08698	-0.09400672
33	0x3bbad773	0.005701953
34	0x3d7ecd78	0.06220767
35	0x3d25b15b	0.040452342
36	0xbddad106	-0.10684399
37	0x3bdbb868	0.0067053325
38	0xbd0cf5fe	-0.034414284
39	0xbd94b452	-0.07260956
40	0xbd5db0fe	-0.05412387
41	0x3c7c5de8	0.015403248
42	0x3d69f26a	0.05711595
43	0x3c3a7656	0.011380753
44	0xbd22c3d7	-0.03973755
45	0xbdc4711c	-0.095918864
46	0xbd341eaf	-0.043974575
47	0x3c018e1f	0.007907419
48	0xbc799cb9	-0.0152351195
49	0xbcdbc3a1	-0.026826682
50	0xbd211a07	-0.039331462
51	0x3d5eba68	0.05437699
52	0x3d62a184	0.055329815
53	0x3d87402d	0.066040374
54	0x3d199485	0.037495155
55	0x3bafe79f	0.0053681876
56	0x3b9ac045	0.0047226273
57	0xbd3b05e4	-0.045659915
58	0x3d1ab1c1	0.037767176
59	0xbd6d677b	-0.057960015
60	0xbb72363b	-0.0036958593
61	0x3c75259f	0.014962583
62	0xbd46bdde	-0.048520915
63	0x3d2e0b6e	0.04249137
64	0x3d5880e3	0.05285729
65	0xbc1b3bb2	-0.009474682
66	0x3d7e655e	0.06210839
67	0x3d0e012e	0.034669094
68	0xbd8177b1	-0.063216574
69	0x3d57d6b1	0.05269498
70	0x3d137b19	0.036006067
71	0xbd302767	-0.043006327
72	0xbdbae487	-0.091256194
73	0xbdda7374	-0.10666552
74	0x3b610641	0.0034336003
75	0x3c0b549f	0.008504062
76	0x3d418cde	0.047253482
77	0xb9cc6011	-0.00038981487
78	0xbd4b64c3	-0.04965664
79	0x3bac1250	0.0052512065
80	0x3d2691cf	0.040666398
81	0x3c3c8a5a	0.011507595
82	0xbd6b6fa8	-0.05747953
83	0xbceffa82	-0.029294256
84	0x3d8e8964	0.06959799
85	0x3d514301	0.05108929
86	0x3d736cc5	0.059429903
87	0x3d9d5de6	0.07683925
88	0xbdb870bf	-0.090058796
89	0x3d44b231	0.0480215
90	0x3ce66383	0.028123623
91	0x3d0115ee	0.031515054
92	0xbd6126dc	-0.0549687
93	0x3d1003f0	0.035160005
94	0xbc6215b6	-0.013799122
95	0xbd64f468	-0.055897146
96	0x3d07951e	0.033101194
97	0xbbfd620d	-0.007732636
98	0x3d2e7e70	0.04260105
99	0x3d395406	0.045246147
100	0x3d03c3d3	0.032169174
101	0xbcc0c729	-0.023532467
102	0x3d8018ef	0.06254756
103	0xbd0aba1c	-0.033868894
104	0xbc90eb18	-0.017690226
105	0x3ca2d5dc	0.019877367
106	0x3dc5a1ea	0.09650023
107	0xbcc363e7	-0.023851348
108	0xbd4820c6	-0.04885938
109	0xbb8f0ba8	-0.004365403
110	0xbd13d1cc	-0.03608875
111	0x3bc07a55	0.005873958
112	0x3d146b17	0.03623494
113	0x3d6a1ffb	0.057159405
114	0xbcd0b026	-0.02547462
115	0x3b51ecf0	0.0032032095
116	0xbd9d4646	-0.07679419
117	0xbd8cdd4a	-0.06878145
118	0x3cb6a2ef	0.02229449
119	0x3d620f70	0.055190504
120	0xbccd097a	-0.025028933
121	0xbd29542c	-0.04134004
122	0xbd255ada	-0.040369846
123	0xbce33df6	-0.027739506
124	0xbdabfe8b	-0.083981596
125	0xbb975bf1	-0.0046191146
126	0xbccfc4b6	-0.025362354
127	0xbc81bbbd	-0.01583659
128	0xbba8f5a7	-0.005156237
129	0xbda3b71d	-0.079939105
130	0xbcfb7815	-0.030696908
131	0xbd3eaecb	-0.046553414
132	0xbd85c2ac	-0.06531271
133	0x3c3a8a9f	0.011385589
134	0xbb0b3a29	-0.0021244383
135	0x3cfc9f10	0.030837566
136	0xbd609761	-0.054831866
137	0xbb4893a4	-0.0030605579
138	0xbc1b528d	-0.009480131
139	0x3bf20f01	0.0073870425
140	0xbd806fb8	-0.06271309
141	0x3d9eab0a	0.07747467
142	0x3d4778df	0.048699256
143	0x3d16356e	0.03667205
144	0xbdbe82c3	-0.093022846
145	0xbc0a11a5	-0.008427058
146	0x3d81dbd6	0.063407585
147	0x3c2fadb4	0.010722566
148	0xbd320427	-0.04346099
149	0xbd8c5ce7	-0.06853657
150	0xbdb46496	-0.08808248
151	0xbc1104cd	-0.008851242
152	0x3cf8a913	0.030354058
153	0xbd45f2eb	-0.048327368
154	0xbc6fda6e	-0.01463948
155	0x3da6e6b4	0.08149472
156	0x3d98545b	0.074379645
157	0x3d25ce22	0.040479787
158	0x3d359d6b	0.04433958
159	0x3d6e1f8f	0.058135565
160	0x3da7eac4	0.08199075
161	0x3d599518	0.053120703
162	0x3c50cab4	0.012743641
163	0x3d7864e7	0.060643103
164	0x3c9c03dc	0.019044809
165	0xbc82b91c	-0.015957408
166	0xbd753c61	-0.059872035
167	0x3d33c10a	0.04388527
168	0xbce813d0	-0.02832976
169	0x3cd7e0cf	0.026352314
170	0x3d8e357f	0.06943797
171	0x3d48cfb9	0.049026225
172	0x3d4febaa	0.050761856
173	0x3d372ae2	0.04471863
174	0xbc8b7ac7	-0.017026318
175	0xbdacd3dd	-0.08438847
176	0xbcc9b31b	-0.024621537
177	0xbd820d9a	-0.063502505
178	0xbafd8ac3	-0.0019343722
179	0xbdab06b8	-0.08350891
180	0x3c98bdf2	0.01864526
181	0xbc14b3c4	-0.009076063
182	0x3cf4ad12	0.029867683
183	0xbd205191	-0.039140288
184	0x3dc3127f	0.09525012
185	0x3bc49998	0.005999755
186	0xbcd8b1cd	-0.02645197
187	0xbd10d9d3	-0.035363983
188	0x3c895b48	0.01676716
189	0xbcf47300	-0.029839993
190	0x3da01f71	0.07818497
191	0x3bb99be1	0.005664334
192	0x3b584a24	0.0033003176
193	0x3da24dca	0.07924993
194	0x3c6175ba	0.013760978
195	0xbd6193f9	-0.05507276
196	0xbb671151	-0.0035258124
197	0x3ba37fd4	0.0049896035
198	0xbd517917	-0.05114087
199	0x3c82f2e6	0.015984964
200	0x3ccff5a4	0.025385685
201	0x3d9dd9ec	0.07707581
202	0xbc3cbe50	-0.011519983
203	0x3d4a5ac8	0.049402982
204	0xbcc53fbc	-0.024078242
205	0xbcc75e86	-0.024337064
206	0x3ad368e8	0.0016129287
207	0x3d6de666	0.058081053
208	0x3d23bb63	0.039973628
209	0x3d1d6338	0.0384247
210	0x3c996962	0.018727008
211	0x3d708f95	0.05873068
212	0xbd797407	-0.060901668
213	0x3cba75cf	0.022761254
214	0x3b881fdb	0.004154188
215	0xbd79243d	-0.060825575
216	0xbd28b938	-0.041192263
217	0xbd47f9cd	-0.048822213
218	0xbd0d628e	-0.034517817
219	0xbd955555	-0.072916664
220	0x3c83cf77	0.016090138
221	0x3db7e9ac	0.08980116
222	0xbd946718	-0.07246226
223	0xbd599a2d	-0.05312555
224	0x3c431e43	0.01190907
225	0xbd71cb2b	-0.059031647
226	0xbd493c2b	-0.049129646
227	0x3d2c4e6c	0.042066976
228	0x3d32695c	0.04355751
229	0x3cf4af0a	0.029868621
230	0xbd5a9f85	-0.053374786
231	0xbc90b1e4	-0.01766295
232	0xbb423d0f	-0.0029638445
233	0x3d56cdb9	0.052442286
234	0xbd6a9ae4	-0.05727662
235	0x3d61b905	0.05510809
236	0x3d1f70ea	0.038926043
237	0xbdc4507e	-0.09585665
238	0x3d8deabb	0.06929537
239	0x3d045999	0.03231201
240	0x3c4b6c50	0.01241596
241	0xbd546d6c	-0.051862165
242	0xbc8e9bce	-0.017408278
243	0xbcea0e76	-0.028571349
244	0xbdb44cae	-0.08803688
245	0x3c28cc04	0.010302547
246	0x3d324aaf	0.043528255
247	0x3d9cc77f	0.07655238
248	0x3d0b55bd	0.034017313
249	0x3d14eb4a	0.0363572
250	0xba30227b	-0.0006719005
251	0x3aa5af17	0.0012640682
252	0xbd82865f	-0.063732855
253	0xbd279c3d	-0.040920485
254	0xbd79b5e5	-0.060964484
255	0xbcd2727d	-0.025689358

weight f4 [256, 512]
0	0x3cfb47cf	0.03067389
1	0xbc8dc7b1	-0.017307134
2	0xbe001f5f	-0.12511967
3	0xbd793df2	-0.06085009
4	0xbdc34fca	-0.09536703
5	0xbbca61c3	-0.006176205
6	0xbc9d284a	-0.01918425
7	0xbd4da958	-0.050210327
8	0xbd70b037	-0.0587618
9	0x3c7c16f3	0.015386331
10	0xba116dea	-0.00055476895
11	0x3c90d85f	0.017681299
12	0xbd6b8bc5	-0.05750634
13	0x3dc91f96	0.09820478
14	0x3da58369	0.08081705
15	0xbd43778c	-0.04772143
16	0x3c2189c9	0.009859511
17	0xbd34f213	-0.044176172
18	0x3c96bb43	0.01839984
19	0xbda2f02d	-0.07955966
20	0xbd0e1c04	-0.034694687
21	0x3d9b308a	0.075776175
22	0x3dc9906b	0.09841999
23	0xbcfacfd7	-0.030616684
24	0x3dc82425	0.09772519
25	0xbe1cf207	-0.15326701
26	0x3bb1baa1	0.005423859
27	0xbcce0822	-0.025150362
28	0xbe33cc4a	-0.17558399
29	0xbc9f2b05	-0.019429693
30	0xbcd433cd	-0.025903607
31	0xbde06790	-0.10957253
32	0xbdba79c2	-0.09105255
33	0x3d9cef36	0.07662813
34	0xbd8b72e0	-0.0680902
35	0xbc42f72c	-0.011899751
36	0x3dc26994	0.09492794
37	0xbd9d1dd9	-0.076717086
38	0x3d371b40	0.044703722
39	0xbda4aebd	-0.08041141
40	0x3e03e8a7	0.12881719
41	0x3c9b860a	0.018984813
42	0xbd8176fc	-0.063215226
43	0x3d3d0db9	0.046155665
44	0x3d485e70	0.048918188
45	0x3b3b44a4	0.0028574849
46	0xbd39af37	-0.045333114
47	0x3d07a897	0.033119764
48	0xbe4b793f	-0.1987047
49	0x3d55945b	0.052143436
50	0xbcef91b3	-0.02924428
51	0x3c8913e8	0.016733125
52	0xbddbeeaa	-0.10738881
53	0xbd8895fb	-0.066692315
54	0x3d8c830a	0.06860931
55	0x3ca6667c	0.02031254
56	0xbcee855a	-0.029116321
57	0xbdae64e0	-0.08515334
58	0xbd4344cc	-0.04767303
59	0x3cf3a131	0.029739948
60	0xbe04328a	-0.12909904
61	0x3d4c16ab	0.049826305
62	0x3d94221f	0.072330706
63	0x3c4532b6	0.012036016
64	0xbd8f8864	-0.07008436
65	0xbd57fb14	-0.05272968
66	0xbda2b252	-0.07944168
67	0xbcc9ec97	-0.024648948
68	0xbd672590	-0.056432307
69	0xbd755698	-0.059897035
70	0xbd6816f3	-0.05666251
71	0x3d0cd375	0.03438135
72	0x3d1bce73	0.038038682
73	0xbc74a862	-0.014932724
74	0x3cc0bac0	0.02352655
75	0x3c9e6d9a	0.019339371
76	0x3d0112f1	0.031512205
77	0x3b23975d	0.0024962046
78	0x3d644b30	0.055735767
79	0xbe2c2340	-0.16810322
80	0xbd76c059	-0.06024203
81	0x3d841dad	0.06450973
82	0xbd050e13	-0.032484125
83	0x3a0fead9	0.0005490012
84	0x3cedb8e9	0.029018836
85	0xbd698948	-0.057015687
86	0xbdbb35b2	-0.09141101
87	0xbd7f8f1c	-0.06239234
88	0x3d96fe6e	0.07372747
89	0xbce81512	-0.02833036
90	0x3d3c1f3c	0.045928225
91	0xbc31acf6	-0.01084446
92	0x3d957614	0.07297912
93	0x3cfc8239	0.030823814
94	0xbe2f82a2	-0.17139676
95	0xbd971036	-0.07376139
96	0x3d26b89c	0.0407034
97	0x3dd34c2b	0.10317262
98	0xbdf14c06	-0.117820784
99	0x3dc98562	0.09839894
100	0x3c68abb2	0.014201092
101	0xbc487a2f	-0.012236162
102	0xbba48e9c	-0.005021883
103	0x3db4366c	0.08799443
104	0x3e026575	0.12734015
105	0xbdeef55c	-0.11667892
106	0x3bbf76bd	0.005843012
107	0xbe2806b9	-0.16408814
108	0xbd8e3995	-0.06944577
109	0x3ca32505	0.019915113
110	0xbdb2df94	-0.087340504
111	0x3d06f2fb	0.032946568
112	0xba19273b	-0.00058423326
113	0x3d437709	0.047720943
114	0xbda4a819	-0.080398746
115	0x3d2cae86	0.042158626
116	0x3d94b9f6	0.07262032
117	0x3b2dde76	0.0026530302
118	0x3b65b6b8	0.0035051536
119	0xbd5ecf6b	-0.054397028
120	0x3c472c12	0.012156503
121	0xbd1461ef	-0.03622621
122	0xbe18bba0	-0.14915323
123	0xbe0d821e	-0.13819167
124	0x3d61930d	0.05507188
125	0xbd3e8959	-0.046517704
126	0x3df3b1d2	0.11899151
127	0xbcfe9002	-0.031074528
128	0x3b88dff3	0.0041770875
129	0xbe76ce9c	-0.24102253
130	0xbd1d189f	-0.03835356
131	0x3d2f5b1a	0.04281149
132	0xbe269368	-0.16267169
133	0xbcfa65a6	-0.030566048
134	0x3d4db1c3	0.050218355
135	0xbcb1e94d	-0.021717692
136	0xbd89a9b4	-0.067218214
137	0x3e0122f4	0.1261099
138	0x3c31a8fc	0.010843512
139	0x3d9c5381	0.076331146
140	0x3b0e3549	0.002169924
141	0xbd2f5c1f	-0.042812463
142	0x3d095c5d	0.03353535
143	0x3cce261a	0.025164653
144	0x3d0f7b65	0.035029788
145	0xbe141037	-0.1445931
146	0xbd34080a	-0.04395298
147	0x3d3029dc	0.04300867
148	0x3d7d6de5	0.06187238
149	0x3d1576a0	0.036490083
150	0x3db42597	0.08796232
151	0xbdd4eb93	-0.10396495
152	0x3cbd1ae3	0.02308411
153	0xbd89e0c7	-0.06732326
154	0xbbb211e2	-0.0054342607
155	0xbd39df2a	-0.04537884
156	0xbdf63a2d	-0.12022815
157	0x3cd7c9ac	0.026341282
158	0xbd102dd8	-0.03519997
159	0x3d80206a	0.062561825
160	0xbdb46e8a	-0.08810146
161	0x3a83aadf	0.001004543
162	0x3d10d293	0.03535707
163	0xbbf29779	-0.007403311
164	0x3e068147	0.13135253
165	0x3cde2193	0.027115619
166	0xbd18d26e	-0.037310056
167	0x3e1887d3	0.14895563
168	0xbe60bf45	-0.21947964
169	0x3e314e30	0.17314982
170	0xbdb4fe5c	-0.08837578
171	0xbc953db6	-0.018217903
172	0xbdf6dbe5	-0.1205366
173	0x3b1702f4	0.0023042532
174	0xbe533976	-0.20627388
175	0x3ca43aea	0.020047624
176	0x3a879a45	0.0010345659
177	0xbc6158bc	-0.013754066
178	0x3d4eb716	0.050467573
179	0xbd49701a	-0.049179174
180	0x3da3401f	0.079712145
181	0xbd9ffc73	-0.07811823
182	0xba9fe970	-0.0012200307
183	0x3d9e7acd	0.07738266
184	0xbc959d9a	-0.018263627
185	0xbe510470	-0.20411849
186	0xbcd69aed	-0.026196921
187	0xbdcf595d	-0.101244666
188	0x3d4478e6	0.04796686
189	0x3d88a4e2	0.06672074
190	0x3dd3b20a	0.10336693
191	0x3d1ff5ea	0.03905288
192	0xbe38d613	-0.18050413
193	0x3d4d34e2	0.05009926
194	0xbcc86f02	-0.024466995
195	0xbd7fc31e	-0.062441938
196	0xbd1284a1	-0.035771016
197	0xbda6baea	-0.0814112
198	0x3d82bf25	0.06384114
199	0x3dbbc925	0.09169225
200	0xbdc77cb5	-0.09740583
201	0xbcc3d035	-0.023902992
202	0xbc38a1cd	-0.011269045
203	0x3d0761b5	0.033052165
204	0xbc3525cb	-0.011056374
205	0x3d6ae54d	0.057347585
206	0xbbafb5a8	-0.0053622313
207	0xbd3a1d4d	-0.0454381
208	0xbc637d57	-0.013884864
209	0x3e3b5b0f	0.18296455
210	0xbdca9372	-0.09891404
211	0xbc0805ad	-0.008302134
212	0xbdb6a63b	-0.08918425
213	0x3cf18be7	0.029485656
214	0xbdb2100c	-0.08694467
215	0xbe0d4b14	-0.13798171
216	0xbe1f3c98	-0.15550458
217	0xbd0b2efe	-0.033980362
218	0xbd406193	-0.046968054
219	0xbd76c8eb	-0.060250204
220	0xbcac7a18	-0.021054313
221	0xbe1fac60	-0.155931
222	0xbd1e736d	-0.038684297
223	0xbd810381	-0.062994964
224	0x3d9e93bd	0.077430226
225	0x3d2e64c9	0.042576585
226	0xbe1e3778	-0.15450847
227	0x3daf5a12	0.085621014
228	0x3db70899	0.08937187
229	0xbd13ed6d	-0.0361151
230	0x3d9fce51	0.078030236
231	0x3daf4913	0.0855886
232	0xbc93d2f8	-0.018044934
233	0xbd88b8ee	-0.066758975
234	0x3c47f719	0.012204909
235	0xbdbd9d9f	-0.092585795
236	0x3cbd8482	0.023134474
237	0x3bed05a5	0.007233339
238	0xbdc8a185	-0.097964324
239	0xbd284f4d	-0.041091252
240	0xbcede48d	-0.029039646
241	0x3d340dd0	0.043958485
242	0x3c337ed5	0.010955532
243	0xbcedde59	-0.029036688
244	0x3dcf445c	0.101204604
245	0xbe2653be	-0.16242883
246	0x3d89d034	0.06729165
247	0xbe3c6853	-0.18399172
248	0x3b7d346a	0.0038635978
249	0xbc295015	-0.010334034
250	0x3ca95480	0.020670176
251	0x3d41c5d2	0.047307797
252	0xbcd8e107	-0.026474489
253	0x3df0201c	0.117248744
254	0xbd3ac0c0	-0.045593977
255	0xbb3ea8ef	-0.0029092391

bias f4 [256]
0	0xbd916098	-0.07098502
1	0x3d313f22	0.0432731
2	0x3d04e51c	0.03244506
3	0x3d93639d	0.07196734
4	0x3d197c6e	0.03747218
5	0x3cd9f2fd	0.026605124
6	0xbc78be0b	-0.0151820285
7	0xbd23a575	-0.039952714
8	0x3ba15c8c	0.0049243625
9	0x3c89bdb7	0.016814096
10	0xbcb98937	-0.022648437
11	0xbd903f72	-0.07043351
12	0xbbda51a5	-0.006662565
13	0x3ceb997d	0.028759712
14	0xbd5f4fe6	-0.054519556
15	0x3bcb83ff	0.0062108035
16	0x3c6163e3	0.013756725
17	0xbcd62fc7	-0.026145829
18	0xbd0a18f2	-0.033715196
19	0x3aaca87a	0.0013172769
20	0x3d16e45d	0.036838878
21	0xbcbcc519	-0.023043202
22	0xbcf14772	-0.029453013
23	0xbcc2bdc1	-0.023772122
24	0xbd3e0919	-0.046395395
25	0xbd1dc66c	-0.038519308
26	0x3d54a421	0.051914338
27	0x3bcc9008	0.006242756
28	0x3b97ed8d	0.0046364726
29	0xbd470ddb	-0.048597198
30	0xbd64c38c	-0.05585055
31	0xbca4be66	-0.02011032
32	0x3cd4e464	0.025987811
33	0xbcc8b45f	-0.02450007
34	0x3c71dd22	0.014762195
35	0xbca13818	-0.019680068
36	0x3bd88222	0.00660731
37	0xbcc5024f	-0.024048952
38	0x3c9380d8	0.018005773
39	0x3d5c8827	0.053840782
40	0x3c2c3655	0.010511001
41	0xbd48f0b9	-0.049057696
42	0xbcf12652	-0.029437218
43	0xbd97a426	-0.07404356
44	0x3a14b54a	0.0005672766
45	0xb9bf67dc	-0.0003650774
46	0x3bed2981	0.0072376137
47	0x3d0a4d6e	0.03376525
48	0x3cd82bb9	0.026388036
49	0xbb18e521	-0.002332993
50	0x3d527f3c	0.05139087
51	0x3cf0ea3f	0.029408572
52	0x3ba9d330	0.005182646
53	0x3b056188	0.0020352323
54	0x3d31145b	0.043232303
55	0x3c2ac772	0.010423528
56	0xbd40c051	-0.047058407
57	0xbd65ba61	-0.056085948
58	0x3b9fd96c	0.0048782136
59	0xbd3186ae	-0.04334133
60	0xbd0c4771	-0.03424782
61	0x3d35dc76	0.0443997
62	0x3cc94a0c	0.024571441
63	0x3cdb48ce	0.026768114
64	0xbc42e642	-0.011895718
65	0x3b9cc542	0.004784257
66	0x3cae09dd	0.021244938
67	0xbc2856a6	-0.010274565
68	0xbba889a6	-0.005143362
69	0x3cd12fc7	0.025535477
70	0xbc464e57	-0.012103639
71	0xbd32e6b7	-0.043677058
72	0x3ceb2bdf	0.028707443
73	0xbd73d2fb	-0.05952738
74	0xbbfa5e7c	-0.007640658
75	0xbcbe96da	-0.023265291
76	0x3bd4ffca	0.006500219
77	0xbd49fec4	-0.04931523
78	0x3c32625d	0.010887709
79	0xbc068a98	-0.008211754
80	0xbce2c7e8	-0.027683213
81	0xbd4c6b6a	-0.049907126
82	0xbb5dae13	-0.003382568
83	0xbbe4de2f	-0.006984494
84	0xbcdde819	-0.027088212
85	0xbcef7e3d	-0.029235
86	0xbdbea341	-0.09308482
87	0xbd557146	-0.05210998
88	0xbd01c4d8	-0.031681865
89	0xbd88c2e5	-0.06677798
90	0x3d0b9ad3	0.0340832
91	0xbdbfcf90	-0.09365761
92	0x3ca7d278	0.020486102
93	0x3c4c484a	0.012468407
94	0xbd35cd6f	-0.04438537
95	0xbc18a947	-0.009317703
96	0xbd683534	-0.056691363
97	0xbcc9e334	-0.024644472
98	0x3cabb1c4	0.020958789
99	0xbcb80750	-0.022464424
100	0xbca6ac11	-0.02034572
101	0xbd5d15ff	-0.053976055
102	0x3d00365a	0.031301834
103	0xbd5b1e0b	-0.053495448
104	0x3c11ee3a	0.008906895
105	0xbcff2b2b	-0.031148514
106	0x3c9b4077	0.018951638
107	0xbd55d859	-0.05220828
108	0xbbbec72b	-0.0058220825
109	0x3c08b3f1	0.008343683
110	0xbc6ebd8b	-0.014571558
111	0xbd9ee201	-0.077579506
112	0xbd32bf35	-0.04363938
113	0x3a941cd1	0.0011300092
114	0xbc925908	-0.017864719
115	0xbd46038b	-0.048343223
116	0xbc752b3b	-0.01496392
117	0x3cde7c4e	0.027158882
118	0xbd02106a	-0.031753935
119	0xbcdc70ac	-0.026909195
120	0x3c944530	0.018099397
121	0x3cd5e548	0.026110306
122	0x3bd7a1d8	0.0065805726
123	0xbc28af47	-0.010295696
124	0xbb606783	-0.0034241385
125	0xbd21b34f	-0.039477643
126	0xbc6d3c42	-0.014479699
127	0xbd2dca13	-0.04242904
128	0x3cb2d6d1	0.021830948
129	0xbc0b2669	-0.008493044
130	0x3d08ff4e	0.033446603
131	0xb9c388f3	-0.00037295333
132	0x3d6778cc	0.056511685
133	0xbd68a3cf	-0.056796845
134	0xbbfad5b7	-0.0076548713
135	0x3d8c9e70	0.06866157
136	0xbc78cc19	-0.015185379
137	0xbd6414f3	-0.05568404
138	0x3cd71064	0.026252933
139	0xbc42d466	-0.01189146
140	0x3d348775	0.044074494
141	0x3c55054e	0.013001753
142	0xbd12aac6	-0.035807393
143	0xbdae0556	-0.084971115
144	0x3c8df6d7	0.017329616
145	0xbb2efedd	-0.0026702203
146	0x3cd56ab0	0.02605185
147	0xbd22b681	-0.03972483
148	0x3d1b01bd	0.037843455
149	0xbd0c73af	-0.034290012
150	0x3c459991	0.012060539
151	0xbbcfcd5d	-0.00634162
152	0x3db2bc81	0.087273605
153	0x3b9bbdc5	0.004752847
154	0xbc5f65b7	-0.013635091
155	0x3d1a6b1c	0.037699804
156	0x3c6f0598	0.014588736
157	0x3c8fec74	0.017568804
158	0x3d0a22e2	0.033724673
159	0x3b9bc66d	0.004753879
160	0x3c1791f2	0.009251105
161	0xbc8d9423	-0.017282551
162	0x3d225942	0.039635904
163	0xbcc708f7	-0.024296267
164	0x3c5665da	0.013085807
165	0x3d9b737b	0.075903855
166	0xbccff614	-0.025385894
167	0xbd015369	-0.031573687
168	0x3c7dddbd	0.015494761
169	0x3d65ac76	0.056072675
170	0xbcc9a814	-0.024616279
171	0xbc1f67bd	-0.009729323
172	0xbd084dc3	-0.033277284
173	0x3d18613a	0.037202097
174	0xbd222bab	-0.039592426
175	0x3c1d6721	0.009607107
176	0xbb3ca76f	-0.0028786322
177	0xbd7be91a	-0.0615016
178	0x3d20bf37	0.039244857
179	0x3ca3506f	0.019935815
180	0x3b17abe6	0.002314323
181	0xbcb3c194	-0.021942891
182	0x3d8842e3	0.06653383
183	0x3d8c7110	0.068575025
184	0x3c0da7ba	0.008645946
185	0x3cff1220	0.031136572
186	0x3cff86b3	0.03119216
187	0xbcd8b90d	-0.026455427
188	0x3c03faf2	0.0080554355
189	0x3c3ee49d	0.011651185
190	0xbc83b050	-0.016075283
191	0xbd6ce2b4	-0.05783339
192	0x3c04a25d	0.008095351
193	0xbd2ffbe4	-0.04296483
194	0xbd1f913e	-0.038956873
195	0x3d812546	0.063059375
196	0x3d435ba3	0.047694813
197	0x3c60e6df	0.013726919
198	0x3d284785	0.04108383
199	0x3d46071b	0.04834662
200	0x3d5a5d4b	0.053311627
201	0xbd4aa9c9	-0.049478326
202	0x3cc6a8e5	0.024250457
203	0xbc058ada	-0.008150781
204	0xbcab1f64	-0.020888992
205	0x3cb7e729	0.022449093
206	0x3d64b575	0.055837113
207	0xbd3ff6d6	-0.04686626
208	0x3dcae44f	0.09906828
209	0x3cf799b6	0.030224662
210	0x3cf4f427	0.029901577
211	0x3ceed415	0.029153863
212	0xbd401a1c	-0.0468999
213	0xbd150add	-0.036387313
214	0xbd3c8473	-0.04602475
215	0x3c8b5c3d	0.017011756
216	0xbdb48a9a	-0.08815499
217	0x3d669f42	0.056304224
218	0x3b3cef2f	0.0028829088
219	0xbd6b07a7	-0.057380345
220	0x3d1d691a	0.03843031
221	0xbc6ed499	-0.014577054
222	0x3bd789d1	0.0065777083
223	0xbbd1344e	-0.006384409
224	0xbcd947cb	-0.026523491
225	0x3d4d372c	0.050101444
226	0xbc1610e5	-0.009159301
227	0xbc667c65	-0.014067744
228	0xbd561dee	-0.052274637
229	0xbca21354	-0.019784607
230	0x3bff8a59	0.0077984747
231	0x3b76737e	0.003760546
232	0xbb962c77	-0.0045829373
233	0x3c0e197b	0.008673067
234	0x3d02bb85	0.031917114
235	0xbbfcc22b	-0.0077135763
236	0x3cb24e35	0.021765808
237	0x3da566b1	0.080762275
238	0x3d0bdb01	0.034144405
239	0x3d15a72a	0.036536373
240	0xbb88989d	-0.0041685835
241	0x3d67e622	0.056615956
242	0xbc959c8d	-0.018263126
243	0xbcc9f240	-0.024651647
244	0xbd2619ea	-0.040552057
245	0xbce6f10d	-0.028191114
246	0x3d813929	0.063097306
247	0xbd08ee71	-0.03343052
248	0x3c31f8f4	0.010862578
249	0xbd04027c	-0.03222893
250	0x3aabda3b	0.0013111302
251	0x3cdad1e3	0.02671141
252	0x3cf032f5	0.029321173
253	0x3b31bea5	0.002712169
254	0x3c29096f	0.010317191
255	0x3c91d247	0.017800463

weight f4 [128, 256]
0	0x3d709950	0.05873996
1	0x3d8b785d	0.06810067
2	0xbdc79405	-0.09745029
3	0x3d4fed37	0.050763335
4	0x3cfaebb9	0.03062998
5	0xbda6da5a	-0.08147116
6	0xbd8b0132	-0.06787337
7	0xbb05ee85	-0.0020436358
8	0xbbcac0a7	-0.0061875167
9	0x3d32d4cd	0.043659974
10	0xbc8d261e	-0.01723009
11	0x3d34bf74	0.044127896
12	0xbe1b5d31	-0.15172268
13	0x3e1604ba	0.1465024
14	0xbdca7615	-0.098858036
15	0x3c2cdbba	0.010550434
16	0xbd3657a2	-0.044517167
17	0x3ca8dcbc	0.020613067
18	0x3d58cc30	0.052929103
19	0x3d02526b	0.03181688
20	0xbcf6f977	-0.030148251
21	0x3a676573	0.0008827068
22	0xbd5cd3af	-0.053912815
23	0x3d03aef5	0.032149274
24	0x3ceaac7b	0.028646698
25	0xbbce46f8	-0.006295081
26	0xbd0ed699	-0.034872625
27	0x3d3f388d	0.04668479
28	0x3dac5b8c	0.08415899
29	0xbd2babba	-0.041911818
30	0x3dbf3d06	0.09337811
31	0x3da1eb9f	0.07906269
32	0xbd1a9293	-0.03773744
33	0x3dae91ca	0.08523901
34	0xbba83c8a	-0.00513417
35	0xbd1c6953	-0.038186383
36	0x3d68e666	0.05686035
37	0x3c8004f2	0.015627358
38	0x3d5ab612	0.053396292
39	0xbd4f58bf	-0.050621744
40	0xbc487f70	-0.012237415
41	0xbd268ec7	-0.040663507
42	0x3da77068	0.08175737
43	0xbd3f9dc8	-0.04678133
44	0xbd03235f	-0.032016154
45	0x3c375140	0.011188805
46	0xbd76ed18	-0.060284704
47	0xbe939dde	-0.2883138
48	0x3d3fdd6e	0.04684203
49	0xbcff1c61	-0.031141462
50	0xbcddd8cb	-0.027080914
51	0x3c41effc	0.011837002
52	0xbd296bbb	-0.041362505
53	0xbd0bc5fc	-0.03412436
54	0x3cd8708d	0.026420856
55	0x3d82031d	0.0634825
56	0xbdd6b19c	-0.10483095
57	0xbab96012	-0.0014143011
58	0x3cac6c64	0.021047778
59	0x3d2b1285	0.04176571
60	0xbc0c1050	-0.008548811
61	0x3d86c32c	0.06580195
62	0x3cf10c13	0.029424703
63	0x3d7d99c0	0.061914206
64	0xbd1fe0a1	-0.039032582
65	0x3ca8a552	0.020586643
66	0x3b9500fa	0.0045472356
67	0xbd10b9d6	-0.035333477
68	0x3c5e45f4	0.013566483
69	0x3e04982a	0.12948671
70	0xbd61d365	-0.055133242
71	0x3d599703	0.05312253
72	0x3db94b83	0.09047606
73	0x3d0f6e03	0.035017025
74	0xbc4559ad	-0.012045306
75	0xbc00cf73	-0.00786196
76	0x3d567e1c	0.05236636
77	0x3cf33c5c	0.029691868
78	0xbdd01766	-0.10160713
79	0xbc939638	-0.018015966
80	0xbcaf7099	-0.021415995
81	0xbd7220d9	-0.059113357
82	0xbe7cbc66	-0.24681243
83	0x3db54aa5	0.08852128
84	0xbd0f20b3	-0.034943294
85	0x3d4b7902	0.04967595
86	0xbdced7dc	-0.10099766
87	0xbcf0a67b	-0.02937626
88	0xbda6276a	-0.081129864
89	0x3d6a0b74	0.05713983
90	0x3d31c6af	0.04340237
91	0xbc818e22	-0.015814845
92	0xbd7cc3b4	-0.061710075
93	0xbd29db0f	-0.041468676
94	0xbd30e7b4	-0.04318972
95	0xbd0374b2	-0.03209371
96	0xbd2deff7	-0.042465176
97	0x3cc1fdef	0.023680655
98	0xbc4ea1a5	-0.012611781
99	0xbd38ab33	-0.045085143
100	0xbe0a19a7	-0.13486348
101	0x3d3b63ca	0.045749463
102	0xbc528304	-0.012848619
103	0x3bc62a17	0.006047498
104	0x3cf977ed	0.030452693
105	0xbd356e3a	-0.044294573
106	0xbc5c0279	-0.013428324
107	0xbca8bf2b	-0.020598968
108	0xbccc0e0d	-0.024909044
109	0xbbf1b63f	-0.0073764618
110	0xbd0c23d4	-0.034213856
111	0xbde37a90	-0.11107361
112	0xbc1768fb	-0.009241338
113	0x3ceb7e09	0.028746622
114	0x3c051bac	0.008124273
115	0xbdf2b384	-0.11850646
116	0x3d153af8	0.03643319
117	0x3cd4c958	0.025974914
118	0x3d75dddb	0.06002603
119	0xbdcdb8bb	-0.10045
120	0xbd29e893	-0.041481566
121	0xbd856c07	-0.06514745
122	0x3b48b937	0.0030627975
123	0xbdb617d0	-0.088912606
124	0x3df8d24c	0.12149486
125	0xbd708871	-0.05872387
126	0xbd083153	-0.033250164
127	0xbec4160c	-0.3829807
128	0x3db824bd	0.08991382
129	0xbdf0a0fb	-0.117494546
130	0xbc36822f	-0.011139437
131	0x3d0a5fa4	0.033782616
132	0x3d1064bf	0.03525233
133	0xbe4fb9e2	-0.20285752
134	0xbc76b118	-0.015056871
135	0x3c836c25	0.016042778
136	0x3d0ea464	0.034824744
137	0x3bb0b215	0.005392323
138	0x3c9d21dc	0.019181184
139	0x3d4b85d1	0.049688164
140	0xbc348fff	-0.0110206595
141	0xb9bb608c	-0.00035739352
142	0xbded9af5	-0.11601821
143	0xbe071fa2	-0.1319566
144	0x3d7a6332	0.061129756
145	0xbcedcf0b	-0.02902939
146	0x3dac84cd	0.08423767
147	0xbd423dfd	-0.047422398
148	0xbc00c839	-0.007860237
149	0x3d3910a7	0.045181897
150	0x3d354804	0.044258133
151	0xbcfa6d29	-0.03056963
152	0x3daa207b	0.083069764
153	0x3d0b03f6	0.033939324
154	0xbdf6ddd4	-0.12054029
155	0xbd0f0875	-0.034920175
156	0x3ce584f8	0.028017506
157	0xbd14d27f	-0.036333557
158	0xbd771d00	-0.06033039
159	0xbd41d7e0	-0.047325015
160	0xbd967bae	-0.07347809
161	0x3e09b4b8	0.13447845
162	0x3cc5def7	0.02415417
163	0x3c13a8dd	0.009012428
164	0xbd1ff942	-0.03905607
165	0x3d30a3c6	0.043124937
166	0xbdc35c82	-0.09539129
167	0xbd5b585f	-0.053551074
168	0xbce9e77b	-0.028552761
169	0x3b211e5b	0.0024584744
170	0x3c93a674	0.018023707
171	0x3db0a9aa	0.08626111
172	0xbd5822f8	-0.052767724
173	0x3d63a44b	0.055576604
174	0x3db5f148	0.08883911
175	0x3d444ca1	0.04792464
176	0x3d6d7de9	0.057981405
177	0x3d334268	0.0437645
178	0x3d03eddc	0.032209262
179	0xbba31081	-0.0049763327
180	0xbd8ee5ba	-0.069774106
181	0xbd57802d	-0.052612472
182	0xbd062c57	-0.03275713
183	0x3e1a10af	0.15045427
184	0xbdb2772b	-0.08714136
185	0x3dc5f289	0.096654005
186	0x3c810a47	0.015751971
187	0x3dadd67c	0.08488175
188	0xbc548388	-0.012970813
189	0x3cd20a46	0.025639664
190	0x3c34b861	0.0110302875
191	0xbd7a4f14	-0.06111057
192	0xbd31485d	-0.0432819
193	0xbdf8fc1a	-0.121574596
194	0xbc60809a	-0.013702536
195	0xbd03e894	-0.032204226
196	0x3c06ed26	0.0082352515
197	0x3c327023	0.010890993
198	0x3d6efad3	0.058344673
199	0x3b65906f	0.0035028716
200	0xbd18c2d9	-0.037295196
201	0xbd077f85	-0.033080596
202	0x3c1da11e	0.009620933
203	0xbc233c88	-0.009963162
204	0x3c636bcb	0.01388068
205	0xbc89ff77	-0.016845448
206	0x3c8e9ac2	0.017407779
207	0x3b1c9925	0.0023894992
208	0x3c8e6136	0.017380338
209	0x3d730893	0.05933435
210	0xbe16d891	-0.14731051
211	0xbe55d4c7	-0.2088195
212	0x3c5ef71a	0.013608718
213	0x3cd45215	0.025918046
214	0xbbea2452	-0.007145443
215	0xbbce13f3	-0.006288999
216	0xbe3ee25c	-0.18641037
217	0xbc0e3110	-0.00867869
218	0x3d8b5c6a	0.06804736
219	0x3d197da0	0.03747332
220	0xbd2332ed	-0.03984349
221	0x3cd6bdca	0.026213545
222	0x3d87eee4	0.06637362
223	0xbc5d6684	-0.013513211
224	0xbd6f1a33	-0.058374595
225	0xbc58f1fe	-0.013241289
226	0x3d74fdea	0.059812464
227	0xbd8e9084	-0.06961158
228	0x3b9abd3e	0.0047222665
229	0xbd190c1e	-0.03736507
230	0x3d1fa58b	0.038976233
231	0x3c23dacf	0.0100008985
232	0xbb15f5e9	-0.002288217
233	0xbc840898	-0.01611738
234	0xbd05c742	-0.03266073
235	0xbdb4c5ad	-0.08826766
236	0xbd3c817a	-0.046021916
237	0x3d2b618d	0.04184108
238	0x3d18de22	0.037321217
239	0xbc92ca36	-0.017918687
240	0xbd3368ee	-0.04380124
241	0xbe187f89	-0.14892401
242	0x3c16b362	0.009198042
243	0xbd8364bc	-0.06415698
244	0xbab908e3	-0.0014117028
245	0x3d42fa09	0.047601733
246	0xbd2b875b	-0.041877132
247	0x3d9c54b9	0.07633347
248	0x3d3235f6	0.043508492
249	0xbbc75f0d	-0.006084329
250	0xbdb1cd53	-0.086817406
251	0x3c75481f	0.014970808
252	0x3bb62304	0.0055583734
253	0xbe49291b	-0.19644587
254	0x3d0d0c4b	0.03443555
255	0x3cc9b272	0.024621222

bias f4 [128]
0	0x3de7cb52	0.11318077
1	0xbd2b613c	-0.041840777
2	0xbd44e336	-0.048068248
3	0xbda77181	-0.08175946
4	0xbd82c490	-0.063851476
5	0x3d3a6ec3	0.045515787
6	0xbd5d40f7	-0.054017033
7	0x3a6cbd55	0.0009030898
8	0xbd558fb2	-0.05213899
9	0x3d4f66fe	0.05063533
10	0x3d36d88f	0.04464012
11	0xbdac0fe4	-0.084014684
12	0xbd377844	-0.04479243
13	0x3a8b30f5	0.0010619449
14	0xbd49d1ba	-0.049272276
15	0xbca95778	-0.020671591
16	0x3bbd8363	0.005783485
17	0xbd939125	-0.072054185
18	0x3daa5c95	0.0831844
19	0x3d568636	0.052374087
20	0x3c85a5d1	0.016314419
21	0xbce16cb3	-0.027517652
22	0x3c11fcd1	0.008910374
23	0xbd83eda8	-0.06441814
24	0x3cb439f7	0.022000296
25	0xbd957936	-0.0729851
26	0xbcc119a9	-0.023571806
27	0xbd815a8f	-0.06316101
28	0xbd01c77f	-0.031684395
29	0xbd863106	-0.06552319
30	0x3cc4ecca	0.024038691
31	0xbd03c003	-0.03216554
32	0xbcba620c	-0.02275183
33	0xbcdf720f	-0.027276067
34	0x3ca965a3	0.020678347
35	0xbc8fced4	-0.017554678
36	0x3c6321c9	0.0138630355
37	0xbc8cdbc7	-0.017194642
38	0xbd9b98ab	-0.075974785
39	0xbc1af350	-0.009457424
40	0xbd0ceefb	-0.034407597
41	0xbd44c3e8	-0.048038393
42	0xba8767ae	-0.0010330582
43	0xbc4139f9	-0.011793607
44	0xbd0229c5	-0.031778116
45	0x3d12a76e	0.035804205
46	0xbd8a8607	-0.06763845
47	0x38eb890d	0.00011231201
48	0x3d400076	0.04687544
49	0x3cca8baf	0.02472481
50	0xbd448969	-0.047982607
51	0xbca1d24f	-0.019753603
52	0xbd096755	-0.03354581
53	0x3ca9949e	0.020700749
54	0xbde56ec3	-0.11202767
55	0xbd8e51df	-0.069492094
56	0xbc128ad8	-0.008944236
57	0xbda26641	-0.0792966
58	0x3d1d0234	0.03833218
59	0xbd2ce129	-0.042206917
60	0xbc970ab9	-0.01843773
61	0x3c276b88	0.010218509
62	0xbdb7eaab	-0.08980306
63	0x3d07c923	0.033150803
64	0xbcf9d3ec	-0.03049656
65	0xbcb26ce1	-0.021780433
66	0x3de96ff6	0.11398308
67	0xbcc50054	-0.024048008
68	0xbd02c364	-0.03192462
69	0x3d14a126	0.036286496
70	0x3bec60f4	0.007213706
71	0xbd17ca9f	-0.03705847
72	0xbda10d8b	-0.07863911
73	0xbbcf84b7	-0.0063329595
74	0x3dbb9f0b	0.091611944
75	0x3ca2e3d4	0.019884028
76	0xbdb75de6	-0.089534566
77	0x3e043c67	0.12913667
78	0x3d96e685	0.07368187
79	0xbd4e1bf7	-0.050319638
80	0xbb22a781	-0.0024819078
81	0xbc9be84d	-0.019031668
82	0xbd50763c	-0.050894007
83	0x3c5de931	0.013544367
84	0x3e14a9ad	0.14517851
85	0x3c6a4fb5	0.01430123
86	0x3c9bbd80	0.01901126
87	0xbd077345	-0.033068914
88	0xbc748253	-0.01492365
89	0xbdbc0d6f	-0.0918225
90	0xbd9ba243	-0.07599308
91	0x3dbb8664	0.09156492
92	0xbd1f9065	-0.038956065
93	0x3dd6a4f2	0.104806796
94	0xbd3b31a9	-0.045701656
95	0xbd91bca5	-0.07116059
96	0xbd34ec57	-0.044170704
97	0x3d908cea	0.07058127
98	0xbd218af8	-0.03943917
99	0x3db30bb1	0.08742464
100	0xbd2b094b	-0.04175691
101	0x3aad4cd6	0.0013221751
102	0x3c73db04	0.01488376
103	0x3ce1865e	0.027529892
104	0xbd14d69c	-0.03633748
105	0xbc38013d	-0.011230764
106	0xbc69b2d0	-0.014263824
107	0xbc888a51	-0.016667517
108	0x3dbc768a	0.09202297
109	0xbd5aaa35	-0.05338498
110	0xbd3419b8	-0.04396984
111	0xbd99c35d	-0.07507966
112	0xbcf2b202	-0.029625896
113	0xbb07cb3a	-0.0020720498
114	0x3c9a6f87	0.018852009
115	0x3d9bc3e8	0.076057255
116	0xbc87dd96	-0.016585153
117	0xbcb4da90	-0.022076875
118	0xbd910409	-0.07080848
119	0xbda1b5a1	-0.07895971
120	0x3db05657	0.08610218
121	0xbc54dc6a	-0.012992004
122	0xbc6166d2	-0.013757424
123	0x3d0c31c7	0.03422716
124	0xbb2c1cad	-0.002626221
125	0xbc0baaf6	-0.008524647
126	0xbc6659ce	-0.014059497
127	0xbd1674c3	-0.036732446

weight f4 [60, 128]
0	0x3a3cf314	0.00072078523
1	0x3c18f754	0.009336311
2	0xbd2397e9	-0.039939795
3	0x3d0238ea	0.03179256
4	0xbcfdcbd7	-0.030980987
5	0x3b374848	0.0027966667
6	0xbd454fb4	-0.048171714
7	0x3cf02f64	0.029319473
8	0xbc1161a0	-0.008873373
9	0x3cbedae7	0.02329774
10	0x3c1e928f	0.009678497
11	0xbbc5d47c	-0.006037293
12	0x3d95006f	0.07275473
13	0xbc57df17	-0.013175747
14	0xbd8b6b74	-0.068076044
15	0x3d40064d	0.04688101
16	0x3beccedf	0.0072268094
17	0x3d80dcf5	0.06292144
18	0x3cf77734	0.030208208
19	0x3dc34756	0.095350906
20	0xbcbb6385	-0.022874603
21	0x3b3d4bd3	0.0028884306
22	0x3d27714f	0.040879544
23	0xbc6c8cbb	-0.01443785
24	0xbd2694d9	-0.040669296
25	0xbd1242ea	-0.035708345
26	0xbb329de5	-0.0027254757
27	0x3af70eeb	0.001884905
28	0x3c078399	0.008271121
29	0xbd20f4bb	-0.039295893
30	0xbdc98069	-0.098389454
31	0xbd800b1c	-0.06252119
32	0xbc5f4da3	-0.01362935
33	0xbca22865	-0.019794652
34	0x3d92a0bf	0.07159566
35	0xbd5478d0	-0.05187303
36	0xbd3aab36	-0.045573436
37	0x3d348f5b	0.044082027
38	0xbd641782	-0.05568648
39	0x3b728459	0.0037005155
40	0x3c01337c	0.00788581
41	0xbd4932b5	-0.049120624
42	0x3db6fe55	0.08935229
43	0x3d3e9602	0.046529777
44	0xbce1fd81	-0.0275867
45	0x3ca4f804	0.020137794
46	0xbd4bdda7	-0.04977193
47	0xbcb60a3f	-0.022221683
48	0xbc97cc56	-0.018530052
49	0x3da58948	0.08082825
50	0x3d020a74	0.03174825
51	0x3d8d3dc3	0.06896546
52	0x3c876a01	0.016530039
53	0xbd81870b	-0.063245855
54	0xbb8bc527	-0.0042654458
55	0xbba81d7b	-0.0051304675
56	0xbd5206f8	-0.051276177
57	0xbd67c561	-0.05658472
58	0x3d23da52	0.04000313
59	0x3dc37ceb	0.095453106
60	0x3d2deec5	0.042464036
61	0x3d3e4592	0.046453066
62	0xbc3b4c2e	-0.011431737
63	0x3b827865	0.0039816373
64	0xba6d9870	-0.00090635475
65	0x3cd68e8f	0.026191024
66	0x3db3fd78	0.0878858
67	0xbd8c1aff	-0.068410866
68	0xbdc1ecac	-0.0946897
69	0xbc55903c	-0.013034876
70	0x3c480b58	0.012209736
71	0xbd79a494	-0.06094797
72	0x3c5bddc5	0.013419573
73	0xbd5c209f	-0.053742047
74	0x3c81664f	0.015795855
75	0xbcf67573	-0.030085301
76	0x3c6c6525	0.014428412
77	0x3dd49776	0.103804514
78	0xbc1065e9	-0.00881336
79	0xbce612ae	-0.028085079
80	0xbbcb40f9	-0.0062028137
81	0xbc8f8135	-0.017517665
82	0xbd9b453b	-0.07581564
83	0x3d6707b4	0.05640383
84	0x3ced90cb	0.028999707
85	0xbb6b7f65	-0.0035934087
86	0x3c6f2061	0.014595122
87	0x3be3ea06	0.006955388
88	0xbaa6f9f0	-0.0012739282
89	0xbd6335c7	-0.055471208
90	0x3cb0d4ea	0.0215859
91	0xbcddea9b	-0.027089408
92	0x3c1ce5d7	0.009576282
93	0xbcc1ca0e	-0.023655917
94	0x3d822e76	0.06356518
95	0x3a8dcaf7	0.0010817935
96	0x3b9bddac	0.00475665
97	0x3db88dfa	0.09011455
98	0x3c39ea39	0.011347347
99	0x3e0bd1c7	0.13654242
100	0xbbbe858e	-0.005814261
101	0x3aad730f	0.0013233143
102	0x3d395b20	0.04525292
103	0xbd5bbb0c	-0.05364518
104	0x3a615174	0.00085952063
105	0xbcb7e8ce	-0.022449877
106	0xbd9618e1	-0.07328964
107	0xbafce8f9	-0.0019295505
108	0x3cb830fd	0.022484297
109	0x3d268b93	0.040660452
110	0xbc337953	-0.010954219
111	0xbbcab69b	-0.006186319
112	0x3da5d640	0.080975056
113	0x3d7b9b5e	0.061427467
114	0xbcdeb35b	-0.027185133
115	0x3c6ad534	0.014333058
116	0xbc27c73f	-0.010240375
117	0x3d94ec63	0.0727165
118	0x3c05c3b3	0.008164334
119	0xbcff2d98	-0.03114967
120	0xbc4a8165	-0.012359952
121	0x3daa79db	0.08324023
122	0xbd19f2e2	-0.037585147
123	0xbd32df5b	-0.04367004
124	0xbbe5f290	-0.007017441
125	0x3e01fb18	0.12693441
126	0xbd2f4b7c	-0.042796597
127	0xbdf1f487	-0.11814218
128	0x3d9f3cd5	0.07775275
129	0x3e88d9da	0.26728708
130	0x3d0442ea	0.032290377
131	0x3afdc530	0.0019361135
132	0x3c6a15bb	0.0142874075
133	0x3cbc5abf	0.02299249
134	0x3c65c841	0.014024795
135	0xbd8ac7f2	-0.06776418
136	0x3e76b5ac	0.2409274
137	0xbc216f7e	-0.009853242
138	0x3dd20409	0.10254676
139	0xbe83daa4	-0.25752747
140	0x3d4b6825	0.049659867
141	0xbe5c5373	-0.21516208
142	0xbd35f521	-0.044423226
143	0xbd90e8a0	-0.0707562
144	0xbcd22ea6	-0.02565701
145	0xbcef940e	-0.029245403
146	0xbc18d7f2	-0.009328829
147	0x3c544ae8	0.012957312
148	0xbd188f63	-0.03724612
149	0xbe925f12	-0.28588158
150	0xbdc2d2c8	-0.095128596
151	0xbd12580f	-0.03572851
152	0xbd3b3505	-0.04570486
153	0x3d718409	0.05896381
154	0x3c6f8ff8	0.014621727
155	0xbe7118ec	-0.23544663
156	0x3daf05cd	0.08546028
157	0xbd9fba1e	-0.07799171
158	0xbd3920dc	-0.045197353
159	0xbd1fbeb5	-0.03900023
160	0x3e0ca404	0.13734442
161	0x3c80b52e	0.015711393
162	0xbbff624a	-0.0077936994
163	0xbe09d28a	-0.1345922
164	0xbd1bcb27	-0.038035538
165	0xbda5e3af	-0.08100068
166	0xbc9cb22b	-0.019127926
167	0xbe4dbc78	-0.20091426
168	0x3c4b3319	0.012402319
169	0x3ca372b4	0.019952156
170	0x3c8e17fe	0.017345425
171	0xbd3ef990	-0.04662472
172	0x3d33295c	0.043740615
173	0xbd2e6b97	-0.042583074
174	0xbd331754	-0.04372342
175	0x3d2d2d61	0.042279605
176	0xbccd5463	-0.025064653
177	0xbd46903b	-0.048477393
178	0xbce685fc	-0.02814006
179	0xbd77d9e7	-0.060510542
180	0xbd58c18d	-0.05291896
181	0xbc9696d1	-0.018382462
182	0x3d90f084	0.07077125
183	0xbd9fe709	-0.07807738
184	0xbc9a7a5a	-0.01885717
185	0xbc7b1d95	-0.015326877
186	0xbbbfd2f2	-0.005854004
187	0x3d3471bb	0.044053774
188	0x3e6492db	0.22321646
189	0x3a8f8d7a	0.0010952197
190	0x3dc17f15	0.09448067
191	0x3d214b25	0.039378304
192	0x3dd1c6eb	0.10243019
193	0x3e82b243	0.25526628
194	0xbd8f79ff	-0.07005691
195	0x3dbf3cb5	0.09337751
196	0x3d55641b	0.05209742
197	0xbe22ea02	-0.1590958
198	0xbc20c65c	-0.009812918
199	0x3d2c895e	0.04212319
200	0xbda6c69f	-0.08143353
201	0xbbbb8f31	-0.005723857
202	0xbcebf377	-0.028802617
203	0xbc47fae3	-0.012205812
204	0xbd4e0653	-0.050299
205	0x3d01aca7	0.031658795
206	0x3c6d7f86	0.014495736
207	0xbda26493	-0.07929339
208	0xbdf118ec	-0.117723316
209	0x3dbc65df	0.09199118
210	0xbd34a8d7	-0.04410633
211	0xbb3e1058	-0.002900144
212	0x3d27086d	0.04077952
213	0x3c34309c	0.0109979175
214	0xbdbb4736	-0.09144442
215	0xbdc1fdc3	-0.09472229
216	0xbd731bde	-0.059352748
217	0x3d96ae33	0.073574446
218	0x3e0870a0	0.13324213
219	0x3d1f292f	0.038857635
220	0xbd240bc1	-0.040050272
221	0xbb4159c7	-0.0029502974
222	0x3dc58990	0.096453786
223	0x3f030076	0.5117258
224	0xbf1323b4	-0.57476354
225	0xbd341472	-0.04396481
226	0xbc1a6159	-0.009422624
227	0xb9cd7039	-0.0003918426
228	0xbedd84f3	-0.43265495
229	0x3c824db1	0.015906187
230	0x3c56e6b3	0.013116526
231	0x3d6e9046	0.05824306
232	0xbe05f3a8	-0.13081229
233	0xbd85384f	-0.06504881
234	0xbb8534d0	-0.0040651336
235	0xbec3b714	-0.38225615
236	0xbc432927	-0.011911667
237	0xbda8eb77	-0.08248036
238	0x3e8c68a8	0.27423596
239	0x3d29b599	0.04143295
240	0xbc2c9672	-0.010533916
241	0xbcf6ce34	-0.030127622
242	0xbd8b2635	-0.06794397
243	0xbdbc1b94	-0.091849476
244	0x3d9856c9	0.07438428
245	0x3ba499d3	0.00502322
246	0xbe6ea5bf	-0.23305415
247	0x3d8a75b1	0.06760729
248	0x3d2b6bb3	0.041850757
249	0x3d9f0725	0.077650346
250	0xbd817c76	-0.06322567
251	0xbd9209ab	-0.0713075
252	0x3d237cc6	0.039913915
253	0xba744c35	-0.0009319217
254	0xbd9a2192	-0.07525934
255	0xbd92c99c	-0.0716736

bias f4 [60]
0	0x3974ebab	0.00023357446
1	0xb90c6cfe	-0.00013392043
2	0x3a1e96dc	0.00060497015
3	0xba8bf26a	-0.0010677103
4	0x3a5b129d	0.00083569606
5	0xba180c8e	-0.00058002106
6	0x3a5672f0	0.0008180579
7	0xb9c03794	-0.00036662503
8	0x3a0acdbc	0.0005294939
9	0xba5f9ce9	-0.00085301563
10	0x39d156ef	0.00039928357
11	0x38db9cae	0.000104719176
12	0x3a4dd8cb	0.0007852434
13	0x3919e55e	0.00014676663
14	0x3a1b8b91	0.0005933578
15	0x3920759e	0.00015302605
16	0x39c4de7a	0.0003754979
17	0x39fd2631	0.00048284375
18	0x37c8973a	2.3912278e-05
19	0x39d5cd26	0.00040779373
20	0x399f64d7	0.00030401975
21	0x3896cd84	7.190838e-05
22	0xb6872ccd	-4.028529e-06
23	0x37ca79c6	2.4136982e-05
24	0xb85e1579	-5.2948923e-05
25	0x3932778f	0.00017019942
26	0xb808fce0	-3.2660435e-05
27	0x3989aaa1	0.00026257805
28	0xb798c71c	-1.821253e-05
29	0xb7e300b7	-2.7060842e-05
30	0xb763996f	-1.3565978e-05
31	0x395e99a2	0.00021228803
32	0x38f40274	0.000116352836
33	0x3920b1ee	0.00015325073
34	0x38cbf56c	9.725508e-05
35	0x3987cab4	0.00025900232
36	0x38d5916c	0.000101837184
37	0xb8992a77	-7.303518e-05
38	0xb797f5ee	-1.8115123e-05
39	0x39d78f47	0.00041114746
40	0x389b4fa3	7.4058094e-05
41	0xb8e31131	-0.00010827406
42	0x380c4f48	3.3452437e-05
43	0x396add91	0.00022398519
44	0x39545231	0.00020248514
45	0x39b64f28	0.0003477272
46	0x38baf762	8.91525e-05
47	0x399b8f7c	0.00029670808
48	0x395c3425	0.0002100026
49	0x39bfdf60	0.00036596786
50	0x3903383e	0.00012514085
51	0x382a478a	4.0597784e-05
52	0x3909cc5d	0.0001314147
53	0x38b9cc63	8.8595574e-05
54	0x38c393eb	9.3258765e-05
55	0x3983aa67	0.00025113227
56	0x396f7032	0.00022834612
57	0x39d7700c	0.00041091477
58	0x3903e283	0.00012577516
59	0x3a0e7046	0.00054336
