linearPredictionModels/db39/mega/combined.csv_wholeNetPrototype5_Epochs_30_ValidationLoss3.580680_lr0.0003_2023_08_03_04:39:10.pth (torch, 102819 bytes, 4 tensors)

weight f4 [120, 145]
000000 d9 0d 25 be eb e2 d5 bd fb 81 e9 bd e3 26 38 be
       -0.16118564 -0.10443672 -0.11401745 -0.17983584
000010 61 7b 58 be b1 db f0 bd 4a 65 44 be c9 38 3f bd
       -0.21140815 -0.11760653 -0.19179264 -0.046685014
000020 26 c6 ef bc e0 e6 5e bc 0a 0e b5 bd 90 d2 98 3d
       -0.02926929 -0.01360485 -0.08840568 0.074620366
000030 aa 80 f5 3b c0 95 7a be ea 1d 8e 3d 81 e9 35 bd
       0.0074921446 -0.24471188 0.069392994 -0.04441214
000040 0f b9 73 3c f1 99 d1 bd 98 92 74 bd 60 40 0e be
       0.014875664 -0.1023444 -0.059710115 -0.13891745
000050 52 fe 81 be 7a fb 7b be 48 a9 f2 bd 58 8a 07 be
       -0.25389344 -0.2460765 -0.11848694 -0.13236368
000060 58 a6 ec 3b c1 c4 34 be 86 2a 14 be dd ec 78 be
       0.007221978 -0.1765318 -0.14469346 -0.24309106
000070 18 80 5a be da dc 51 be eb 7e cb bd ee d1 0b be
       -0.21337926 -0.20494404 -0.09936317 -0.136543
000080 ff 30 61 bd f2 f9 24 be 26 13 0c be 4d 44 de bc
       -0.054978367 -0.16110972 -0.1367918 -0.027132178
000090 75 51 1a be cb ab f6 bd b8 bf 47 be 1e 23 65 be
       -0.15070136 -0.12044486 -0.19506729 -0.22376677
0000a0 cd 93 41 be ef 95 55 bd 1d 3c b9 3c 5f 74 55 be
       -0.18904038 -0.05214494 0.022611672 -0.20845173
0000b0 f1 af f4 bc 8a 3b fa bc 31 d5 03 be 53 f3 69 be
       -0.029869052 -0.030545969 -0.12874295 -0.22846727
0000c0 f2 eb 16 be 84 43 01 be d3 ce 80 bd 49 60 c5 bd
       -0.14738443 -0.12623411 -0.062894486 -0.096375056
0000d0 55 56 02 be 97 8a f0 3c 9d 44 20 be db 0a 12 be
       -0.12728246 0.02936296 -0.15651174 -0.14261954
0000e0 3c f3 11 be 16 51 60 be a5 bb 91 bd 43 0e f8 bc
       -0.14252943 -0.21905932 -0.071158685 -0.030280238
0000f0 a6 67 59 be b2 22 4a be 20 92 62 be e7 af 9e bd
       -0.21230945 -0.19739798 -0.22126055 -0.077483945
000100 2e 63 8b bd a7 52 da bc da d3 90 be 12 e1 02 3e
       -0.068060264 -0.02665074 -0.2828663 0.1278117
000110 7e 4f 3a 3d 29 c7 aa bd 7d 90 be bc 3a 2e f3 3d
       0.045485966 -0.08338768 -0.023262257 0.118740514
000120 70 05 df 3c 44 de a9 bc 27 1d 29 be bc 5c 87 bd
       0.027224272 -0.020735867 -0.16515027 -0.066094846
000130 cf 00 94 3b 92 1f df bd fc 7b 1d bc bd f0 cb 3d
       0.004516698 -0.108946934 -0.00961208 0.099580266
000140 32 e5 46 bd 28 31 d4 bc bd b3 dc bc 4d 05 8a bd
       -0.04855842 -0.025902346 -0.026941175 -0.06739292
000150 f5 ed 9c 3c d3 0d c2 3d 2b e1 b7 3d 11 4e 31 3d
       0.019156436 0.09475293 0.08978494 0.04328734
000160 e9 05 98 bb e5 21 e0 bc 54 e0 91 bc 2f 00 9f 3d
       -0.0046393764 -0.027359912 -0.017807163 0.07763707
000170 8b 12 3d 3d 73 1d 16 bb 77 aa 34 3b b7 90 bf 3d
       0.046160262 -0.0022905737 0.0027567425 0.09353774
000180 a2 62 8e bd 33 5f 41 3d 81 7c 0b be 20 ab 47 3d
       -0.069524065 0.04720993 -0.13621713 0.048747182
000190 23 b6 22 3c 8f 1a 23 3d 41 d6 7d bd 26 59 c8 3b
       0.00993112 0.03982025 -0.061971907 0.006114143
0001a0 ad 17 78 3b 1b 39 0c bd 32 0b 4b bc 8f 56 d5 3d
       0.0037855909 -0.034234148 -0.012392806 0.104169
0001b0 b1 87 1e 3c 53 67 dc 3a ee 4c 0c 3e 12 e8 8a 3d
       0.009675906 0.0016815461 0.13701221 0.06782545
0001c0 a8 bd 07 bd 08 c7 a1 bd f5 8b bd 3c 8a 26 23 3d
       -0.033139855 -0.0789929 0.023138026 0.039831676
0001d0 82 4a 44 bb 0b 86 40 bd 04 d4 7d bb 39 2b 94 bc
       -0.0029951637 -0.047002833 -0.0038731107 -0.018087016
0001e0 4c c6 7d bc 95 9a 92 3d 91 51 8e 3c 64 5a 20 3c
       -0.015489172 0.071583904 0.017372878 0.009787176
0001f0 a9 69 e3 bc 8f b3 04 bd 17 bf 25 bc cf 87 8a ba
       -0.027760344 -0.032397803 -0.01011636 -0.0010569039
000200 2d 61 aa 3a ad b7 5d bc d2 14 14 b9 42 13 0e bc
       0.0012998931 -0.013532561 -0.00014122136 -0.008671584
000210 05 84 a2 bc 86 4a b7 3c 4f 41 89 bd 8e 9e 53 3d
       -0.019838342 0.022374403 -0.0670191 0.05166488
000220 8b 7f 8e 3d 49 67 49 3a fa bb 9d 3d df 7e 93 3c
       0.06957921 0.0007682932 0.07701869 0.018004833
000230 ab e2 04 3c 71 79 96 3d 0c 42 2a 3c c6 2f 72 3d
       0.0081106825 0.07347382 0.010391723 0.05912759
000240 52 b3 71 bc 65 6c 11 be f1 d9 15 be f1 d6 14 be
       -0.014752226 -0.14201505 -0.1463392 -0.14535119
000250 ce 7a ba bb 03 a4 10 be 52 6f fc bd 6b 42 0e be
       -0.005690909 -0.14125066 -0.1232592 -0.13892524
000260 dc c5 e3 bd 0a e0 03 3d 04 c9 a5 bd 93 9b 5a be
       -0.11121723 0.032196082 -0.08094981 -0.2134841
000270 49 09 aa bc c4 32 f2 bd c0 e2 3c bd 0a cf 76 3c
       -0.02075638 -0.11826089 -0.046114683 0.01506401
000280 90 3b 05 be f7 5c 86 bd df 14 32 bd 7b 0c f1 bb
       -0.13011003 -0.065607004 -0.043476935 -0.007356224
000290 28 36 01 be 3d 1a 7a bd f6 15 a1 3c aa 57 1e bd
       -0.12618315 -0.06106018 0.019663792 -0.03865782
0002a0 ab 42 cb bd e4 6c 75 3c 2f f2 c4 bd 06 b3 8d be
       -0.09924825 0.014979575 -0.09616505 -0.27675647
0002b0 47 9a 87 bd 17 35 27 be c6 66 2f bd a5 bf 49 be
       -0.06621223 -0.16328846 -0.04282262 -0.19702013
0002c0 96 61 05 bc 58 f1 33 be 42 28 e3 bd 89 cf 59 be
       -0.008140942 -0.17572534 -0.11091663 -0.21270575
0002d0 3a ad 00 be 6f 2d d3 bd 6e c7 36 bd 99 74 e5 bd
       -0.1256608 -0.103114 -0.044623785 -0.1120388
0002e0 09 8a 2d be 1c bb a9 bd f6 96 10 be 58 36 52 3c
       -0.16947187 -0.082876414 -0.14120087 0.012830339
0002f0 29 7e 47 bc 32 34 95 3d b2 69 6d bd 76 b8 23 be
       -0.012176075 0.07285346 -0.057962127 -0.15988335
000300 97 ee 9c bd 22 7d 49 bd 13 91 38 bd 30 95 f8 bd
       -0.07662695 -0.0491916 -0.04506023 -0.1213783
000310 70 18 82 be 9c 44 3b be 94 aa fe 3c 28 cc d9 bd
       -0.2540927 -0.18287891 0.031087197 -0.10634643
000320 69 b3 89 bd 46 4a fe bd 40 b2 a5 bd 6b 6b 22 be
       -0.06723673 -0.1241651 -0.08090639 -0.15861289
000330 48 8b 87 bd 3b b8 78 bd fc 48 ca bd 09 16 cb bd
       -0.06618363 -0.06072257 -0.09877202 -0.09916312
000340 ad fc 29 be 0d 10 eb bd df dc 39 bd 70 b5 bb bd
       -0.16600294 -0.11477671 -0.045376655 -0.09165466
000350 61 a7 31 3e bd 3d f5 3c 1d 64 36 bd fe 1a e6 3c
       0.17349006 0.029936666 -0.04452907 0.028089043
000360 b4 74 b7 3d d1 74 c4 3d c8 1f 78 bd 52 36 31 3c
       0.08957806 0.095925935 -0.060577184 0.010816174
000370 62 b8 90 bd db 0e 8b 3d 8f 6d 8a bb fa 78 6d 3c
       -0.07066418 0.06789943 -0.004224486 0.014494175
000380 a7 2c 1f 3c f4 32 ad bc 1e ad bd bd 15 ff 3f 3d
       0.009715236 -0.02114246 -0.09261535 0.046874125
000390 87 4b c8 3d 72 8e ec bc 0d 47 2e 3d 92 eb c5 3d
       0.09780031 -0.028876517 0.042548228 0.09664072
0003a0 af 03 27 bc b9 c1 89 bc 54 1d 8e 3c fd 4a ec 3d
       -0.010193749 -0.016816007 0.01734797 0.115377404
0003b0 28 53 ee 3c 2d 3c a5 bd 75 ec cb 3d 3a 36 25 3d
       0.029092386 -0.08068118 0.0995721 0.040334918
0003c0 3e 4e ce 3c ee 41 b5 3c 3e 91 75 3d 84 61 f1 3c
       0.025183793 0.022126164 0.059952967 0.029465444
0003d0 1c 35 c7 bc a2 df 80 3d 6a a4 f8 bd de 9d 99 3c
       -0.024317317 0.062926546 -0.121407345 0.018752035
0003e0 a5 a2 56 bd e2 e5 81 bd 28 78 fb 3c 6f 4a 4c 3e
       -0.052401204 -0.06342675 0.030696943 0.19950269
0003f0 f3 4c 9c 3d 0f f4 07 bd 04 b6 fa bb 95 6c 8a 3d
       0.076318644 -0.033191737 -0.0076510925 0.06758992

bias f4 [120]
000000 71 a8 1d be 33 71 2d be ac e4 6d be 35 ae 29 be
       -0.15396287 -0.16937713 -0.23231763 -0.16570361
000010 d0 9e 3d be a8 c8 3f be 60 e8 fc bd 5d ff 49 be
       -0.18517613 -0.18728888 -0.123490095 -0.1972632
000020 83 b3 80 be eb e1 8f be 9f d8 d0 bd 94 09 ed be
       -0.25136957 -0.2810205 -0.10197567 -0.4629637
000030 75 82 30 bd 6e 17 44 be c7 fa da bd 3f 89 72 be
       -0.043093164 -0.19149563 -0.10692363 -0.23685168
000040 46 98 31 be cf 1c 80 be 95 28 21 be ea e0 c4 bd
       -0.17343244 -0.2502198 -0.15738137 -0.096132115
000050 c0 83 3e be 51 0f 84 be 40 7e e6 be 21 6c 86 be
       -0.18604946 -0.25792935 -0.45018196 -0.2625437
000060 89 51 48 be ec d5 10 be 67 96 72 be 79 d8 93 bd
       -0.19562353 -0.14144105 -0.23690186 -0.07219023
000070 c0 8e ed bd d7 c1 b1 be 35 3e 3d be 38 65 3e be
       -0.11599493 -0.347182 -0.18480761 -0.185933
000080 f9 2c 80 be ff 69 38 be 51 18 27 be 4b fc 72 be
       -0.2503431 -0.18009184 -0.1631787 -0.23729055
000090 42 3c 76 be 5f e9 23 be 80 f6 66 be 79 a7 85 be
       -0.24046424 -0.16006993 -0.2255497 -0.26104334
0000a0 32 00 7e be e3 d1 da bd 0c c8 79 be 65 bc 06 be
       -0.24804762 -0.10684564 -0.24392718 -0.13157804
0000b0 43 a5 30 be 62 b6 4c be 25 2d 77 be b1 76 67 be
       -0.17250542 -0.19991449 -0.24138315 -0.22603871
0000c0 6d 60 81 be 15 d5 eb bd 05 54 0e bf 6e 2c 66 be
       -0.2526888 -0.115152515 -0.55596954 -0.22477886
0000d0 94 50 a3 bd 49 63 51 be cc 40 fb bd bc a6 98 be
       -0.079743534 -0.2044803 -0.122682184 -0.29814708
0000e0 d1 53 66 be c0 ee a1 be cd e2 1e be 80 44 3d be
       -0.22492911 -0.31627464 -0.15516205 -0.18483162
0000f0 a5 32 6b be 41 8a 8b be 55 2f b3 bd 32 71 fd bd
       -0.22968538 -0.27253917 -0.08749262 -0.12375106
000100 80 cc ea bd f1 de d2 bd 73 28 89 be 1e 10 f7 be
       -0.114647865 -0.10296429 -0.26788673 -0.48254484
000110 2e d4 50 be 88 58 57 be 46 51 e4 bd 64 16 48 be
       -0.2039344 -0.21029866 -0.11148314 -0.19539791
000120 ed 04 96 be 91 d6 32 be a9 2f 62 be d5 a2 8b be
       -0.29300633 -0.17464663 -0.22088493 -0.27272668
000130 70 db fa bc fa f1 4f be 17 95 37 be 71 cc 54 be
       -0.030622214 -0.2030715 -0.17927967 -0.20781113
000140 3b 2f 92 be 69 b5 57 be 6e 5d 38 be 37 63 3e be
       -0.2855166 -0.21065296 -0.1800439 -0.18592535
000150 8d 5a 1e be ae 6f 9e be a4 86 4b be 6a 13 42 bd
       -0.1546423 -0.3094458 -0.1987558 -0.047381796
000160 b1 e5 5a be c1 5d 1a be c9 d2 1a be fc 76 99 be
       -0.21376683 -0.15074827 -0.1511947 -0.2997359
000170 6f 65 2b be 3a 58 14 be cb 6c 22 be ab ef 5a be
       -0.16737913 -0.14486781 -0.15861814 -0.21380489
000180 da 11 3b be fb 28 08 be d1 9f 48 bf 53 3d 36 bf
       -0.18268529 -0.13296883 -0.7836886 -0.71187323
000190 d6 49 4c be 78 2a 51 be 30 d2 1d be 7e 00 07 be
       -0.19950041 -0.20426357 -0.15412211 -0.13183782
0001a0 0e 18 64 be 1c 63 37 be 99 a9 6f be 13 40 83 be
       -0.22274801 -0.17908901 -0.2340454 -0.25634822
0001b0 2a 1c fc bd 82 a9 c6 bd 82 9c 35 be 61 08 76 be
       -0.12310059 -0.097003 -0.17735484 -0.24026634
0001c0 b6 e4 03 be 71 77 58 be 9d 8c 50 be a4 2e 4d be
       -0.12880215 -0.21139313 -0.2036614 -0.20037323
0001d0 20 b3 78 be 8e e6 76 be 60 9a 86 be 6b 3c bd bd
       -0.24287081 -0.24111387 -0.26289654 -0.092400394

weight f4 [60, 120]
000000 71 64 e3 3a 61 67 42 bc 7e 34 8d bc ee 22 1b 3d
       0.001734866 -0.011865468 -0.017236944 0.03787511
000010 f8 49 82 3d cd 72 10 3d ea 9a 3b bd e4 71 83 bd
       0.06361765 0.035265733 -0.045802034 -0.06418207
000020 bd e2 41 3d c4 40 af 3d 54 a9 0b bd f5 78 0f 3d
       0.047335375 0.08557275 -0.03409703 0.035027463
000030 65 8b 06 bd 67 c2 bd bc 66 a3 b8 3c 6d c3 65 3d
       -0.03284778 -0.023163987 0.022538852 0.056094576
000040 e2 dd a3 bc 73 4d b8 3c ab e2 20 bb fd fd 64 3d
       -0.020003263 0.022497868 -0.0024549167 0.055906285
000050 8c ad 59 3c d5 38 87 3d 40 03 bb bc c2 5c 98 b9
       0.013286006 0.06602637 -0.022828698 -0.0002906081
000060 31 bf 16 bc 39 e0 d2 3c fc 79 89 bc 74 25 b3 3c
       -0.009200857 0.025741683 -0.0167818 0.021868445
000070 c4 ea 82 3d b5 2c 7c 3c f9 25 96 bd b6 14 35 3d
       0.06392434 0.015391518 -0.073314615 0.044209205
000080 71 f1 98 bc 3c e1 d3 bd 74 98 9a 3d 6b 77 8e bc
       -0.018669816 -0.103456944 0.075486094 -0.017390927
000090 90 9f 32 3d b2 6d 80 3d e1 2b 71 3d 55 33 22 3d
       0.043609202 0.06270923 0.058879737 0.039599735
0000a0 a3 0a e8 bb a8 6b 11 bc 8d a4 ad bc 41 8d 03 3c
       -0.007081346 -0.008875765 -0.021196628 0.008029283
0000b0 81 e0 82 bd 09 28 44 3d d3 38 84 bb 96 71 2a bd
       -0.06390477 0.047889743 -0.0040350943 -0.04161223
0000c0 a3 96 e0 bc 41 22 61 3c 0a 68 be bc 7f 06 2a bd
       -0.02741558 0.013741077 -0.023242969 -0.0415101
0000d0 0e 0f 9c bc 41 d5 9f 3c 47 ff c1 bc 84 29 3a bd
       -0.019050147 0.019510867 -0.023681296 -0.04544975
0000e0 c6 e6 bc bc 19 02 16 3d ef 81 bd 3b ce e1 c1 3d
       -0.02305926 0.036623094 0.0057833116 0.09466897
0000f0 5c 2e 57 3d df b6 65 3b d0 76 35 3d 93 30 43 bd
       0.052534446 0.0035051627 0.04430276 -0.047653746
000100 77 40 f0 3b 02 56 13 bd 63 86 60 bc 52 e8 d7 3d
       0.0073319036 -0.035970695 -0.013703915 0.105423585
000110 27 10 37 bd 22 a8 4b bc 2b 4a ba bc 37 1d 8e 3c
       -0.04469314 -0.012430223 -0.022740444 0.017347915
000120 eb d7 c3 bc 70 fc f6 bc 17 7f b9 bc 9e d1 ee 3c
       -0.023906669 -0.030149668 -0.022643609 0.029152688
000130 74 d4 fb ba ef d8 5a bd 2d 4b 53 bd a3 70 37 3d
       -0.0019213096 -0.05342954 -0.051585365 0.044785153
000140 96 f9 0a bd 22 3c 01 3c d0 9b a7 bd 98 48 59 3d
       -0.03392943 0.007887872 -0.08184016 0.053047746
000150 d3 b5 25 bd 86 59 1b bd 3e 89 f8 3c 5e c3 9b bd
       -0.040456604 -0.037927173 0.03033888 -0.07605623
000160 03 a1 1b 3d 64 1c 3f bd de 0e 45 bc df 24 cf 3b
       0.03799535 -0.046657935 -0.01202747 0.006321534
000170 d1 99 f3 bc 56 8f 98 3c 05 fd 6a 3d 29 3c 55 3c
       -0.029736431 0.018623035 0.057370204 0.013014832
000180 36 35 2e 3c 41 76 ed bc 78 b6 07 3d 00 3f 6a 3e
       0.010632804 -0.028987052 0.033133 0.22875595
000190 5c b2 5a 3d 52 f4 20 bd e1 95 be bb 00 ea 93 3c
       0.053392753 -0.039295502 -0.005816207 0.018055916
0001a0 3c 7b ce 3c 48 d2 e4 b9 bd cc 3d 3d bf 77 d6 bc
       0.025205247 -0.0004364422 0.04633783 -0.026180146
0001b0 5f d6 88 3d fb 68 3e bc 75 2f 50 3c 4f a4 6d 3d
       0.06681513 -0.011621709 0.012706627 0.058018025
0001c0 a5 50 63 3d 0a cd 07 bc 68 63 8c bd 1b 66 5b bd
       0.05549683 -0.008288631 -0.06854898 -0.053564172
0001d0 77 b7 40 3c 76 8d 48 bd b4 ac ed bb a8 81 56 3b
       0.011762491 -0.048963033 -0.007253254 0.003273109
0001e0 d1 26 41 bd 32 3e d8 bc ab b6 1f 3c e8 23 8d 3d
       -0.04715616 -0.026396845 0.009748141 0.06891614
0001f0 73 6e 1b bb d4 95 1c bd 6a 2d ba 3c d1 bc 59 bd
       -0.0023716956 -0.038228825 0.022726733 -0.053158585
000200 d8 73 32 bd 4c fa 4c 3d ef 56 a5 bc 59 4f 07 bf
       -0.04356751 0.05004339 -0.020183055 -0.5285545
000210 30 d1 0d bd c4 d2 48 3d d8 0d c5 3c 3b 8f e6 bc
       -0.034623325 0.049029127 0.024054453 -0.02814447
000220 27 7f 7c bc 94 cf 4a bd e1 ba 24 bc 17 0b 33 3d
       -0.015411175 -0.04951437 -0.010054321 0.043711748
000230 e0 4d 8d bc af 6e c0 3c a6 79 1c 3c 52 e7 20 3c
       -0.017249048 0.023490278 0.009550488 0.009820776
000240 0b 0c 39 bc 01 44 19 3c 7a 5b 96 bd de 3b f9 3c
       -0.011294375 0.009354592 -0.073416665 0.030424055
000250 d2 a0 99 bc 15 f2 46 3f 85 b7 f5 3c 69 35 54 3d
       -0.018753443 0.7771314 0.029994735 0.05180875
000260 bb ab 9d 3c e0 04 b1 3c c0 a1 90 3d 82 f6 9d 3d
       0.019246927 0.02160877 0.07062101 0.07713033
000270 17 9c d3 37 a2 74 26 3d 59 c7 70 3d c4 74 43 bd
       2.5225845e-05 0.040638573 0.058783863 -0.04771878
000280 78 86 ec bc 71 e2 50 bd 40 f3 e7 bc be 40 b3 bd
       -0.028872713 -0.0509972 -0.028314233 -0.08752583
000290 6b 9b 18 3d 79 43 bd 3c 06 ae 9b bd f3 b0 10 bc
       0.037257593 0.023103463 -0.07601552 -0.0088312505
0002a0 6a f0 d0 bc cb 45 f3 ba c7 18 e8 3a e2 95 4d 3d
       -0.025505263 -0.0018560229 0.001770758 0.050191768
0002b0 19 e4 10 3d 70 a2 ec 3a d5 18 21 bc 6d 9e 81 bc
       0.03537378 0.0018053781 -0.009832581 -0.015822614
0002c0 7c 55 94 bd 2b bb c7 3c 7e 75 0f be ea 9f 5b bd
       -0.07242867 0.02438124 -0.14009663 -0.053619303
0002d0 6b be 29 ba f3 6b af bc d9 72 81 3d 47 47 5f bd
       -0.0006475213 -0.021413779 0.063207336 -0.054511335
0002e0 1a 60 69 3a 1e 76 0a bc 49 3b 2d bc f9 24 06 bb
       0.0008902565 -0.008451013 -0.010573217 -0.0020468815
0002f0 5c 23 73 bd 38 76 f2 3c 58 1c 02 bd a8 50 37 3d
       -0.059359893 0.029597387 -0.031765312 0.044754654
000300 d3 a1 bf bd 4e 5a 06 3d e8 89 39 bd cf 7e dd bd
       -0.093570374 0.032800965 -0.045297533 -0.108152024
000310 bb c4 01 3d 71 1c 90 3c 5c 11 10 bd a3 45 d8 bc
       0.031681757 0.017591687 -0.035172805 -0.026400393
000320 0f 3c cf 3d b2 53 5f 3d 9b 3d 5e bd 94 5d 35 bd
       0.10118877 0.054523177 -0.05425797 -0.044278696
000330 5a ce c5 3b f7 24 4d 3c 80 e8 1b bb fb 18 80 bd
       0.006036562 0.01252102 -0.0023789704 -0.06254765
000340 85 fa e5 ba d4 50 53 bc 29 1f a3 bc 33 dd 85 3d
       -0.0017545974 -0.012897689 -0.01991232 0.06536331
000350 3d b6 30 bd 2e be cd 3c 9e 21 31 3d 25 78 25 3d
       -0.043142546 0.025115099 0.04324495 0.040397782
000360 bd 41 6b bc d8 96 06 bd b3 9b 00 bc 9f 10 f1 3b
       -0.014358935 -0.0328587 -0.007849622 0.0073567177
000370 5c de a6 bd fc 88 b7 3d 8c 8a 09 bd b6 35 b2 3c
       -0.081478804 0.089616746 -0.033579394 0.021754127
000380 a6 e7 4b bd a4 0b 2e bd 7b 25 90 bd 4a 1e 76 bd
       -0.049781464 -0.04249157 -0.07038399 -0.06008748
000390 4f 0c ef 3c ca e6 94 bd 75 07 87 3c 99 20 88 3a
       0.029180674 -0.07270582 0.016483048 0.0010385691
0003a0 18 08 6e 3b e2 b5 25 3d a2 b4 d5 3d c6 73 96 3b
       0.0036320742 0.04045666 0.104348436 0.004591438
0003b0 0e 38 a1 bb e7 81 4f bc 78 02 87 bd c0 2e 50 bd
       -0.0049200123 -0.0126652485 -0.06592268 -0.050825834
0003c0 6c 3f df 39 f6 7c 7c bc 78 8c 5e 3d 2d f9 47 bd
       0.00042581127 -0.015410652 0.05433318 -0.048821617
0003d0 4f 23 b9 bc f8 44 06 bc ec fc be bc 99 6b 39 bd
       -0.022599844 -0.008195154 -0.023313962 -0.04526863
0003e0 f7 29 40 3c df 65 50 bd cb 6b d8 3c 31 41 1e 3d
       0.011728755 -0.0508784 0.026418587 0.03863639
0003f0 77 2b 2a bd ef c5 3b bd 5d 22 a0 bd 85 71 99 3a
       -0.041545358 -0.04584306 -0.07819054 0.0011706805

bias f4 [60]
000000 55 f9 e0 3a c9 59 8c b8 f5 cc 85 3a 92 bb f9 37
       0.001716415 -6.692444e-05 0.0010208177 2.9770457e-05
000010 fa 3e a2 3a 09 f2 17 b9 4c 5d 9a 3a ea 7b cb 38
       0.0012378388 -0.00014490647 0.0011777072 9.702875e-05
000020 4d e4 81 3a cd db e1 b8 69 16 3b 3a 06 5e fa b8
       0.0009909958 -0.00010769777 0.0007136823 -0.00011938442
000030 aa fd 7b 3a 59 ca a1 b8 1b 78 0d 3a 20 ae bf b7
       0.0009612689 -7.7147684e-05 0.000539662 -2.2850058e-05
000040 e5 6f 2f 3a 56 8a f5 b8 ce 7a 07 3a 25 9a db 37
       0.0006692394 -0.000117082775 0.00051681406 2.6178614e-05
000050 c9 56 03 3a 5b 30 9f b8 9c 73 27 3a 07 4a 4f 39
       0.00050101854 -7.590718e-05 0.00063877716 0.00019768636
000060 ed 34 2e 3a 29 e9 41 39 2e 1c bf 39 67 30 06 39
       0.000664546 0.00018492773 0.00036451354 0.00012797267
000070 93 16 84 3a f8 2b 81 b8 9f be 69 3a f5 22 e0 38
       0.0010077528 -6.159389e-05 0.00089166494 0.000106876636
000080 c5 69 4f 3a bc 56 13 38 40 37 5f 3a 6c 9a 21 b9
       0.0007912184 3.512831e-05 0.0008515008 -0.00015411683
000090 1f cd 4c 3a b1 28 bb b8 a6 9e 47 3a 27 07 12 38
       0.0007812548 -8.924434e-05 0.0007614888 3.4815774e-05
0000a0 37 98 73 3a 2e e1 f8 37 31 e6 58 3a 63 73 b0 36
       0.0009292396 2.9668761e-05 0.0008274047 5.2586415e-06
0000b0 01 aa 65 3a 59 24 c7 38 7d e8 3b 3a b5 0e cd b8
       0.00087609893 9.49583e-05 0.00071681273 -9.777901e-05
0000c0 7c 08 3c 3a 0d f1 ea b8 e0 49 1c 3a f8 51 b3 37
       0.0007172895 -0.00011202889 0.0005961936 2.1376633e-05
0000d0 97 03 2e 3a 86 ae 1d 39 54 ab 08 3a 94 66 e0 37
       0.0006638108 0.00015037702 0.0005213518 2.6750648e-05
0000e0 de 76 f0 39 07 38 a7 37 5c e7 99 39 a1 93 c2 b7
       0.0004586493 1.9934041e-05 0.0002935481 -2.3195347e-05
