linearPredictionModels/db39/mega/combined.csv_wholeNetPrototype5_Epochs_3_ValidationLoss2.274837_lr0.0003_2023_08_03_16:23:10.pth (torch, 992609 bytes, 8 tensors)

weight f4 [512, 145]
00000000: ac80 7fbd a593 c33d 6ec3 663d fabb d23c
00000010: ce48 603c 2df2 703d c5f1 40bd 58d3 d83c
00000020: 46da 3a3d 23ef 1ebc f406 3bbd 1ae4 c83d
00000030: 615a 853c 13ea 853b a6ec 923c fc45 d83b
00000040: 6726 9d3d 55cc cbbc 7ae5 0a3d 5328 c8bc
00000050: 4361 5c3d 9ef5 8a3c d221 1d3d 3b02 48bd
00000060: 8df9 593d fa0c 1c3d a6a5 aa3d 73ed bcbd
00000070: 109c 6abb 7c97 ed3c e08d ae3d 9dc7 ca3c
00000080: a091 96bd 016e 2fbd 595c 39bc 2893 963d
00000090: 2d94 153c 23f5 a1bd e3e5 0e3d e2b7 0cbd
000000a0: 0681 173d cb2b a5bd 6788 a03d 964a 503b
000000b0: 0366 12bd b0c3 4f3c d43f a0bd d321 2fbd
000000c0: 3685 5ebc aaab c93d 3182 183d c185 babd
000000d0: 9a72 4a3d 0d71 193c 90ba f3bc 427f dd3c
000000e0: c264 9dbd 7df2 423d d6bf 113d ce5c 93bd
000000f0: 96d4 27bd 7610 9fbd 95f3 3fbd 4a08 e9bc
00000100: 6f26 993e 1936 3dbd 6d03 0c3e 568a 403e
00000110: 2770 06ba 7406 77bc 4272 ff3d 0d70 6d3d
00000120: 9aa9 963d e246 9f3c 28d2 093e 8c37 ca3d
00000130: 655b 8b3c b4fc ea3d 6597 073e c189 e43d
00000140: 218e b33d 6851 ad3d 0e62 b63d 97df 443d
00000150: d450 933d 3aa5 503c bd21 f13d 2f20 cfbc
00000160: d873 863b 07fb 893d 96b3 60bd cc15 27bd
00000170: 3fa4 4e3d dbf6 873d 474c dcbd fc06 89bd
00000180: 3f27 2bba 34d1 ab3c 2142 f9b9 8634 a7bb
00000190: 3377 8bbc 9cd6 a73d 572b 94bd b780 ed3c
000001a0: aa89 00bd ed32 8e3d 44ac 55bd fb0d 93bc
000001b0: 9b7a 9f3d 394e 243d 9b06 24bd 3560 2b3d
000001c0: 085f 07bd 937d 48bc 620d 0a3c ec8f dc3d
000001d0: a604 a7ba 28b3 3d3d f13e 2bbd 087b a73b
000001e0: 8a8b ed3c dc0e 0f3c 79fb adbc 818d 1e3c
000001f0: 8aa7 223c 872d 16bc 2ed7 033d a116 463b
00000200: 3267 85bc 20ac a0bd cdbc 78bd d4f8 243d
00000210: 7cd0 663d 67ca 6e3d e64c 8e3d e7cc 983d
00000220: 158a da3b 98ee d13c 86c9 80bd 2927 8b3d
00000230: a86c c8bb 933a e5bc 8ecc 4bbd a0bf 65bd
00000240: e7f2 9e3d 9725 15bd 8703 d8bc 959b 273d
00000250: 3239 ae3d 74be 8bbd cba3 a3bd 2360 85bd
00000260: 0b3c 79bd c9de d03d 7c79 a93d fdeb e2bc
00000270: c0f2 e8bd 8dc3 a43c 88d4 693c 4ccd 80bd
00000280: 9208 7bbd 0a46 a13c 16eb 833d ca9b 3a3b
00000290: 5ad8 3bbd 1021 9e3d 5194 983d 48d9 983d
000002a0: 0d54 d33d c01b 803d 2255 35bd 19c9 1fbd
000002b0: bf6e 643d c8ac aebc 8c78 d3bc 9786 163d
000002c0: 9ab8 d13c 5d74 4cbb c9dd 82bd dc8b 8f3c
000002d0: f56b b4b9 649e cfbc 91b0 55bd c000 2c3c
000002e0: 284f 48bd 7734 bb3b 0f99 ed3a ff5d a5bd
000002f0: 47aa 6cbd c18a 153d f1b8 f23c 6803 a13b
00000300: 37b4 e3bc 48d7 503d 3b04 673d 2786 113d
00000310: b8db c4bd d535 903b 65ce 833d 716a 30bc
00000320: a63e c43d 8ebe c03c 168f 513d 7223 3cbd
00000330: 9c67 2f3c 398c 653d 1f16 203d 7737 a93c
00000340: d1a6 d43d 1dfc 73be fce1 323e 2376 09be
00000350: 9896 d6bc 8c72 61bd b33f 3a3c bef2 aabd
00000360: 5201 cd3c 1239 073d a579 163e 8dab 01bd
00000370: 0b55 5cbd a9dd c53b ab73 3d3d 0b4e 81bc
00000380: 7b33 933d 5030 87bc 0a09 34bc fe24 9ebc
00000390: a1b5 ecbc 6f07 dbbc f3dd 9abc 4476 afbb
000003a0: e7c0 c2bc 5a7e 1c3d a967 823d b38f c4bc
000003b0: 710b a93c f2b9 203d 24c4 4bbd 9ebc 5d3c
000003c0: 5d47 21bc f3cc 023b 8bfc 41bc 535c 33bc
000003d0: d80e 82bc 778f 94bd ac0e f7bb f2dd 713c
000003e0: fae5 9a3d bf5f fd3c 88aa a1bc 7044 5dbd
000003f0: b575 4f3d 7af5 4137 64f8 573d 204a 78ba
-0.06237857 0.09549645 0.05633872 0.0257244 0.013689233 0.058824707 -0.04710557 0.026467964
0.045618318 -0.009700569 -0.045660928 0.09809132 0.016278448 0.0040867417 0.017935108 0.0066001397
0.0767334 -0.024877707 0.033910252 -0.02443329 0.053803694 0.016962823 0.03836233 -0.048830252
0.053216506 0.038098313 0.08332376 -0.09224977 -0.0035798587 0.029002897 0.08523154 0.024753386
-0.073519945 -0.042829517 -0.011313521 0.073522866 0.009129566 -0.07908084 0.034887206 -0.03435505
0.03698828 -0.080649935 0.07838517 0.0031782738 -0.035741817 0.012680933 -0.07824674 -0.042756867
-0.013581565 0.098471954 0.037233535 -0.09107543 0.0494257 0.009365332 -0.029752046 0.02703822
-0.07685234 0.047594536 0.03558334 -0.071954355 -0.040974222 -0.077668115 -0.046863157 -0.028446335
0.29912135 -0.04619417 0.13673182 0.18802771 -0.00051284063 -0.015077222 0.12472965 0.057968188
0.07356568 0.01944298 0.13459074 0.09873876 0.017011354 0.114739805 0.13241346 0.11159087
0.08767343 0.08462793 0.08905421 0.048064794 0.07193151 0.012734706 0.11774013 -0.025283901
0.004103165 0.06737333 -0.054858766 -0.04079227 0.050449606 0.06638881 -0.10756736 -0.06690785
-0.00065289804 0.02097378 -0.0004754225 -0.005102697 -0.017024612 0.0819523 -0.07234829 0.02899204
-0.031381287 0.06943307 -0.05216624 -0.017951002 0.07787057 0.04011366 -0.040045362 0.041839797
-0.033049613 -0.0122369705 0.008426042 0.107696384 -0.0012742474 0.046313435 -0.041808072 0.005111102
0.028997201 0.00873157 -0.021238076 0.009677292 0.00992764 -0.009166128 0.032187633 0.003022589
-0.016284559 -0.0784533 -0.06072693 0.040276363 0.05635117 0.058298495 0.06948261 0.07460957
0.0066692927 0.025626466 -0.062884375 0.067945786 -0.0061164685 -0.027982032 -0.049755625 -0.05609095
0.07761174 -0.0364128 -0.02636887 0.04091986 0.08507003 -0.068234354 -0.079902254 -0.06512477
-0.060848277 0.10198743 0.082751244 -0.027700419 -0.11374426 0.020112777 0.014271863 -0.06289157
-0.06128747 0.019686718 0.064413235 0.0028474205 -0.045860626 0.0772115 0.07450164 0.07463318
0.10318766 0.06255293 -0.044270642 -0.03901014 0.05576968 -0.021322623 -0.025814317 0.03674945
0.02560072 -0.0031197288 -0.063899584 0.017522745 -0.0003441271 -0.025344081 -0.05217034 0.010498226
-0.048903614 0.0057130414 0.001812728 -0.08074569 -0.057779577 0.03650928 0.029629203 0.004913736
-0.027795894 0.05098656 0.05640052 0.03552833 -0.096122205 0.0044009485 0.06435851 -0.010767565
0.09582262 0.023528364 0.051161848 -0.04593224 0.010705855 0.05604193 0.039083596 0.02065633
0.1038338 -0.23826642 0.17469019 -0.13423972 -0.026194856 -0.05504088 0.011367726 -0.08347081
0.025025044 0.03301341 0.14694841 -0.031657744 -0.05379204 0.006038387 0.046252888 -0.015784284
0.071875535 -0.01650253 -0.010988483 -0.019304749 -0.028895201 -0.026736943 -0.018904662 -0.0053546745
-0.023773624 0.038206436 0.06367428 -0.023994302 0.020635339 0.03923983 -0.0497476 0.013533739
-0.0098436745 0.0019958585 -0.011839996 -0.010947305 -0.015876219 -0.07253926 -0.007539591 0.014762389
0.07563396 0.030929444 -0.019734636 -0.054020345 0.050649364 1.1560851e-05 0.052727118 -0.00094714947

bias f4 [512]
00000000: d3cc 043d fed1 ae3c 6400 cfbc 8368 edbc
00000010: 095e 943c 9ad4 cbbc bae4 a63d 048e a2bd
00000020: b312 723d 2ab6 a8bc 76e3 c6bc 1089 94bc
00000030: 7cd0 36bc ec39 a3bc 4a8c 6e3d ad19 5abd
00000040: 8beb 05bd 3ee3 a3bd c28b 2bbd 069c 0f3d
00000050: 58d3 5fbd c076 263d 028f bb3c 071a 013d
00000060: 14bb a1bc e062 2fbd 6716 6a3d c65d 563d
00000070: bd94 6dbd fa95 bbbc 5666 103d 2bb7 0cbd
00000080: 6254 43bd a73e 46bd d684 0f3c f84e ba3c
00000090: abda 84bd bd7e b4bc 9a46 eabd c115 96b8
000000a0: 303e 24bd 09e6 933b 1aa2 973c 6ed3 593b
000000b0: f785 b73d 6da4 7dbd 2478 ca3a c62e 81bd
000000c0: d2ca b33c d102 f33c 08cf 4dbd 1c39 1bbc
000000d0: bb0b 933d 7e50 24bc a17d 843d caa3 4a3b
000000e0: 1ab0 abbb 99ec de3c d653 223d 085c 39bd
000000f0: a96f 6a3d dc9e a43d 1531 55bd a514 833d
00000100: 7a8a 1c3c da86 8b3c e3c9 563d c2d9 91bd
00000110: 1a0b 1e3d 8b66 18bc fc8f 19bd 3d2e 24bd
00000120: e0b5 1cbc 4329 9a3c 4400 13bc 90cc d4bb
00000130: 5148 17bd d52d 7cbc c94f 81bc b46f 86bd
00000140: 0307 823c 4cf5 0fbd 5d36 373d e0a4 e73b
00000150: ffce 333a 674e 65bd 2ed6 f8ba ce69 543d
00000160: 9571 73bd b944 c5bd a36f d3bc edf5 123d
00000170: b2d1 223d e684 02bd 7ed9 c8bd dfe7 c03c
00000180: 3b8d 2e3d e3af 43bd 6fc8 90bb 700d a73d
00000190: 159d 07bc 6844 3a3d ad63 0ebc c8d1 32bd
000001a0: 8763 1fbc 8405 9c3c cb1b 903d 88ef c83c
000001b0: 88d6 f8bc 3ccf 7abc 4713 913c c2d9 48bd
000001c0: 8f2f 3ebb 2c1e 823d 8213 7d3d 3e08 b13b
000001d0: 0044 a6bd 2604 f93b daaf 9d3d 40b6 903d
000001e0: 0f89 4c3d 0ff5 6cbd 1129 8e3c ab99 ecbc
000001f0: 202f 94bd 7b90 583d 3e84 483d 5b13 93bd
00000200: fc79 2d3d 9db3 16bd 167d d03c 53c6 dfbc
00000210: c1fc 853c 76dc 6b3d f6d7 02bd efeb a93d
00000220: 4d3c 0abd b183 54bd 58e6 5dbd 280b 2d3d
00000230: ca98 f9bc 8357 b03d 317a 6d3d 868a 81bd
00000240: 894d 7fbd 1b0c 87bd 7c93 9b3d e5c4 083d
00000250: 8bf0 48bd d177 8ebd 49a2 47bd 2e43 d3bd
00000260: 3dc8 9a3c b456 85bc 1440 36bc 3086 22ba
00000270: 17a4 ae3c 8384 59bd dfa7 993d 152e b33c
00000280: 76e7 813d 9519 943c 64b8 86bd a3bf 31bc
00000290: 3021 dbbd 217f 6f3d ed49 edbc ebce 1d3d
000002a0: 62a5 6ebd d939 92bd 3486 59bc 3633 50bd
000002b0: a95c b7bd afc3 1e3d 6c41 91bc 8563 3a3d
000002c0: 996d 88bd 46c2 b93c af1c e6bc 99d9 04bd
000002d0: f6f3 02bc 68d1 98bd 2609 adbd 3c5e f6bc
000002e0: 1206 6e3d e2dd 5d3d 74ea 7bbd dbdb 16bd
000002f0: 0915 27bc 9ff3 0ebc 5d46 b5ba cf30 86bd
00000300: 2d11 b5bd 5628 e83b c046 65bb 213a 46bc
00000310: d32c 4b3d fa1a eebc 927f c3bd f74f 9d3d
00000320: c529 973d 55c2 d63c 9ca5 93bd f1dd adbd
00000330: 5b14 163d 30b7 373d d8dd 0d3d 5266 98bd
00000340: 1453 c1bd 93fb 70bd b2ee a0bd 6bc4 ed3c
00000350: 9d6c d0bb 4879 593c ef35 fabc 1c26 073d
00000360: 73ef 95bd eaab 40bd f4e6 0d3d dc02 9cbc
00000370: 3862 5b3d 90f1 9dbd 23ce a73d 2f48 1a3d
00000380: 85e9 9c3c 6136 b13d df21 0a3d 1767 8fbc
00000390: f8c8 333c f4f8 4ebd 97b4 483c 11aa ba3d
000003a0: 0e05 babb 8d4a d63c b701 a53d 4e40 c4bb
000003b0: 97a5 853a 3dc8 7f3c afa2 2f3d 3efb 963c
000003c0: f090 663d cc99 9bbd ceef 95bd 845f 1e3d
000003d0: b4c6 dcbd ac59 ab3d 7f4e 5e3c b800 0abc
000003e0: d980 3abd 2a7a c5bd eb43 68bc b471 223d
000003f0: 3891 203c 86dd 5cbd c51b 623d 9eb2 29bc
0.032421898 0.021340366 -0.025268741 -0.0289805 0.018111246 -0.02488165 0.08149095 -0.079372436
0.059099864 -0.020594675 -0.024278384 -0.018131763 -0.011158105 -0.01992508 0.05823926 -0.053247143
-0.032695334 -0.080023274 -0.04188133 0.035060905 -0.054644912 0.040640593 0.02289534 0.031518962
-0.019742526 -0.042818904 0.05715027 0.052335523 -0.058003176 -0.022898663 0.035253845 -0.03435437
-0.047687896 -0.048399594 0.008759698 0.022742733 -0.0648702 -0.02203309 -0.114392474 -7.156609e-05
-0.04009837 0.0045135063 0.018509913 0.0033237594 0.08961099 -0.061924387 0.0015447182 -0.063077495
0.021947298 0.029664429 -0.05024627 -0.009474065 0.07179972 -0.010028956 0.06469274 0.003092038
-0.005239499 0.027212428 0.039630733 -0.045253783 0.057235394 0.080381125 -0.05204876 0.06400422
0.0095545 0.017032076 0.052438628 -0.07121612 0.038584806 -0.009301792 -0.03749083 -0.04008316
-0.009564847 0.018818503 -0.008972231 -0.0064941123 -0.0369342 -0.015391787 -0.015785115 -0.065642744
0.015872484 -0.035146043 0.04472958 0.007069215 0.0006859153 -0.055982973 -0.0018984729 0.051858716
-0.059434492 -0.096322484 -0.025810068 0.035879064 0.039750762 -0.031865023 -0.09807108 0.023548065
0.042615157 -0.04777516 -0.004418425 0.0815686 -0.008277197 0.045475394 -0.008690757 -0.043657094
-0.009728319 0.019045599 0.07036551 0.02452828 -0.030375734 -0.015308198 0.017709387 -0.049035795
-0.0029020046 0.06353411 0.061786182 0.005402594 -0.08118439 0.0075993715 0.07699557 0.070660114
0.049935397 -0.057850894 0.017353566 -0.028881868 -0.07235551 0.052872162 0.04895424 -0.07181426
0.04235266 -0.036792386 0.02545027 -0.027316248 0.016355874 0.057583295 -0.031944238 0.08296954
-0.033748914 -0.051883403 -0.05417475 0.042246968 -0.030468363 0.086104415 0.05797786 -0.063252494
-0.062329803 -0.06594106 0.0759649 0.0333909 -0.049057525 -0.06956447 -0.04873875 -0.10315548
0.01889431 -0.016276695 -0.011123676 -0.0006199805 0.021318479 -0.05310489 0.07502722 0.02187256
0.06342976 0.018078605 -0.065781385 -0.010848912 -0.106996894 0.05847085 -0.028965915 0.03852741
-0.05826319 -0.0713994 -0.013276625 -0.05083009 -0.089532204 0.038760837 -0.01773139 0.045505065
-0.06661529 0.022675645 -0.02808985 -0.03243408 -0.007992735 -0.07461816 -0.084490106 -0.030074231
0.058111258 0.054166682 -0.06150289 -0.036830764 -0.010197886 -0.008725076 -0.0013830174 -0.06552278
-0.08841167 0.0070848865 -0.0034984797 -0.01209882 0.049603295 -0.029065598 -0.095458165 0.07681268
0.07381014 0.026215712 -0.07209322 -0.084895976 0.036640506 0.044852436 0.034635395 -0.07441391
-0.09439674 -0.05883367 -0.078580275 0.029024323 -0.006360604 0.013273545 -0.030543296 0.03299533
-0.07321062 -0.04703895 0.034644082 -0.019044332 0.053560466 -0.0771209 0.08193614 0.037666496
0.01915432 0.0865295 0.03372371 -0.017505212 0.010973208 -0.05053039 0.012250087 0.09114469
-0.005676872 0.026158595 0.08056968 -0.005989111 0.0010196444 0.015611705 0.042879757 0.018430348
0.056290567 -0.07597694 -0.0732113 0.03866531 -0.10780087 0.08366713 0.01356852 -0.008423023
-0.045533035 -0.096424416 -0.014176349 0.039659217 0.009800248 -0.0539222 0.055202264 -0.010357527

weight f4 [256, 512]
00000000: ec72 a9bc a9c6 05bd 277d bbbc aeab 7dbd
00000010: 9d77 153d 8838 abbc e39d 3bbc adc5 06bc
00000020: bb68 41bd 90db 313d 75dd 6a3d 0957 893a
00000030: 0c15 7c3d 8748 3abd c444 923c 721d 103c
00000040: b673 9cbc 39a2 ab3c e266 81bd 8c6b d4bd
00000050: 9e18 d73c beab d83c 1509 9d39 39be bfbc
00000060: 4539 66bd f088 88bc bc8d 1dbd 615e a2bb
00000070: 249e 36bc 3700 43bd c8ad f7bc 8fb2 d43c
00000080: 29e8 083d 9e72 02bd f8de b2bc 05b3 14ba
00000090: d5b9 bdbc 0ad7 bc3d 9044 9bbc 4b69 e93c
000000a0: 036e d73c c998 c03d 121e 51bd 9674 11bc
000000b0: dd40 253d ebe6 2b3d b56e 033d cf52 3fbc
000000c0: 0edb fa3c 77e3 3bbc d556 863c ce9e 6d3c
000000d0: 9414 8ebd b03d 53bc b45e b1bb f66b 28bb
000000e0: b9d6 d3bc 9e46 343d d2bc b83c 081f 293d
000000f0: e946 8f3d 6a1d 433c 4e95 1fbd 55fb 8b3c
00000100: 6d9f 353c b4ad 1fbd 9b2d 7fbd 8417 803d
00000110: bbe4 87bd 4734 b9bd 17d6 24bc 942c 72bc
00000120: a882 18be d93a bbbb 2dbc 223d 16c8 203d
00000130: dbd3 38bd 9048 1b3d 600a 3b3c f406 cbbd
00000140: 176f 1abd c919 d03b c0eb 27bd 9530 62bd
00000150: 398c 02be 2f31 34be 00d8 bf3b 6dc5 a2bd
00000160: 04d2 7f3d f859 dbbd 2dc1 2dbd 79f0 e3bd
00000170: a313 ecbc 2883 7cbd a94e 75bd 80d8 43ba
00000180: 0620 0abd 1839 8dbb af70 23bd 667c 163c
00000190: 49b2 b0bc 5c61 f03c 8a19 813c b540 4ebd
000001a0: e163 38bc 2215 68bc dea0 30bc 43ee 333d
000001b0: 306c a4bd 5290 4abc 8d72 3ebd c527 39bd
000001c0: 5a6b 7fbc e902 12bd 8121 4a3c 91df 273d
000001d0: 85f5 153d 646e f5bb 2d3e b5bd 1241 013d
000001e0: 9177 e5bc 7be0 8c3b 098a 27bd 3b18 043d
000001f0: 392e 2e3c 64f5 13bd 3408 2b3d 8182 c2bc
00000200: 84f5 21ba 7c2a ba3c 5b74 61bd b039 403d
00000210: edf4 43bd a730 273c 2193 9837 ae54 41bd
00000220: 7ca7 77bb 2c5d 89bd fb4b 8bbd fba4 d53c
00000230: 4cab da3c 300c 0dbc 8869 9a3d cba2 6ebd
00000240: aa11 333d 3f1b 0abc 003f a7bc c236 083d
00000250: aa3c 383d 37eb 8a3d 5421 a53a 7471 87bd
00000260: 0830 94bd dd9b 97bd 0af4 593d 5afe 603b
00000270: c3c3 c73c 4d69 99bd f47a 153c af52 81bd
00000280: 01b5 51bc eb71 0b3c 7ee8 a83d fcff aebc
00000290: 93f8 393d ca5e 18be e90b 03be 4256 2cbd
000002a0: b189 67bc b984 0f3b a30d 4a3d 7c7c 523c
000002b0: 95ea 463c de66 6e3b 4db0 093c c749 273d
000002c0: 9f94 6a3c 640f 063d ec55 59bd 88d2 c23d
000002d0: 6ac7 b1bd 97cd 523d acf5 2ebb 7fc1 a7bc
000002e0: 7637 28be 298d 16bd 4d51 afbd 8718 a6bc
000002f0: f16f 6abd 15c4 4fbd 993b aabc 8a41 5dbd
00000300: a278 503d 2db4 233b 7183 1cb9 cf30 93bc
00000310: 558a 88bc 7536 4c3d c1a1 553d 764e 973b
00000320: da33 80bd 50ea 7fbd 4e6c 83bc 062a 843d
00000330: 7a67 34bc eb91 23bd 00b4 d63a e481 24bb
00000340: 8d24 063d 7d16 aabd 6dd5 15bc 00ca 8e3d
00000350: ca1d 473d fc10 2f3d 98c6 edbd 8895 56bd
00000360: 37dc 803c 6594 0e3b 5ede 333d 7c65 25bd
00000370: d579 b4ba 3469 45bd 02fb 17bc 9e5a d2bc
00000380: 5121 103d d52d 30ba ef5f 563d 4612 22bd
00000390: 9838 d93b d21e 853a 23ab 223d dd93 f5bc
000003a0: 54e9 28bd 8cec a5bd 9812 5cbd bc37 ab3c
000003b0: d17a 283d a4dc b83d 48c5 ddbd 335f 8fbb
000003c0: 7e57 763d f851 21bd 3b23 c13c 4fc4 56bd
000003d0: ac4f f0bc 6397 bc3c 3e3b 1b3d b866 4abd
000003e0: 7f46 c6bb 51be ca3b 3e8f 203d b4ec 0abd
000003f0: 4c64 c8bd b528 d1bc d198 2fbd 235c 3bbd
-0.020684682 -0.03266016 -0.022886826 -0.061931305 0.036491025 -0.02090098 -0.011451217 -0.0082258405
-0.04721902 0.04342228 0.057340104 0.0010478209 0.06154351 -0.045479324 0.017855056 0.008796083
-0.019098144 0.020951377 -0.063184515 -0.103720754 0.026256856 0.02644908 0.0002995214 -0.023406135
-0.05620696 -0.01666686 -0.038465247 -0.0049550985 -0.011146102 -0.047607627 -0.030234233 0.02596405
0.03342453 -0.03184759 -0.021834835 -0.0005672428 -0.0231599 0.09220703 -0.018953592 0.02849259
0.026297575 0.094041415 -0.051054068 -0.008877894 0.04034506 0.041968267 0.032088 -0.011677458
0.030622032 -0.011467806 0.016398827 0.014503194 -0.06937519 -0.012893125 -0.005412901 -0.0025699115
-0.025859224 0.04401266 0.022550974 0.04128936 0.06995947 0.011908868 -0.038960747 0.017087618
0.011085373 -0.038984016 -0.062299352 0.06254485 -0.06635424 -0.09043174 -0.010060809 -0.014781136
-0.14893591 -0.0057138023 0.03973024 0.039253317 -0.045123916 0.037910998 0.011416048 -0.099134356
-0.0377036 0.00635073 -0.040996313 -0.055222113 -0.12748803 -0.17596887 0.0058546066 -0.07947812
0.062456146 -0.107105196 -0.042420555 -0.11129851 -0.028817957 -0.061648518 -0.05988947 -0.00074709207
-0.033721946 -0.0043097846 -0.039902385 0.009184932 -0.021569388 0.0293433 0.015759248 -0.05035468
-0.011254282 -0.014165195 -0.010780541 0.043928396 -0.08028448 -0.01236351 -0.046495963 -0.045203943
-0.015589559 -0.035647307 0.0123370895 0.040984694 0.0366111 -0.007489966 -0.0884975 0.031556197
-0.028011115 0.004299221 -0.040903125 0.03224967 0.0106311375 -0.036122695 0.04175587 -0.02374387
-0.0006178247 0.022725336 -0.055042606 0.046930015 -0.047841 0.010204471 1.8188324e-05 -0.047199897
-0.0037789037 -0.06707224 -0.068016015 0.026079645 0.026693009 -0.008608863 0.0753966 -0.05826072
0.043718018 -0.008429348 -0.020415783 0.033255346 0.04497973 0.06783145 0.0012598434 -0.06613436
-0.07235724 -0.074027754 0.05321125 0.0034331293 0.024385339 -0.07490788 0.009123553 -0.06314599
-0.012799502 0.008511047 0.08247469 -0.021362297 0.045403074 -0.14879909 -0.12797512 -0.04207445
-0.014131949 0.0021899177 0.04932941 0.012847062 0.01214089 0.0036377232 0.00840385 0.040841844
0.014317661 0.03272952 -0.053060457 0.09512812 -0.08680613 0.051465597 -0.0026696725 -0.020478008
-0.16427407 -0.036755715 -0.08560429 -0.020275367 -0.057235662 -0.050724108 -0.020780372 -0.05401758
0.050896294 0.002497922 -0.00014926285 -0.01796761 -0.016667524 0.04985662 0.052156214 0.0046175076
-0.0625989 -0.062479317 -0.016042855 0.06453328 -0.011010999 -0.03993408 0.0016380548 -0.0025101835
0.0327497 -0.083050705 -0.009145123 0.06972122 0.048612393 0.042740807 -0.116101444 -0.052388698
0.015730007 0.002175593 0.043913238 -0.040379986 -0.0013769219 -0.048196033 -0.0092761535 -0.025677975
0.035188023 -0.00067206967 0.052337583 -0.03956821 0.006629061 0.001015628 0.03971399 -0.029977733
-0.041238144 -0.08101758 -0.05372867 0.0209006 0.04113275 0.09026459 -0.10828644 -0.0043753623
0.060142033 -0.039384812 0.02357637 -0.05243331 -0.029334866 0.023021406 0.037898295 -0.049414366
-0.0060508843 0.0061872383 0.039199106 -0.033917144 -0.09784755 -0.025532106 -0.042870346 -0.045742165

bias f4 [256]
00000000: e385 26bd b244 983b 9bf0 473c 3ea2 24bc
00000010: c14c 64bc aa4c 0abc 2de8 95bd b192 18bd
00000020: b1f5 2abd b7d8 2a3b 18a1 013d e689 273c
00000030: f141 0f3d 3c64 323d f11e 3dbd 1855 fd3b
00000040: dc75 b23a bd1e f6bc 623c ffbc e729 cdbc
00000050: 33d2 2bbd 0c7d a9bb 037c 4fbd 0f1b 11bd
00000060: d9ea 95bc 36cb 1c3d 86d9 83bc 159e 163d
00000070: e12c 2c3d 1bc3 febc f611 e23b 9931 07bd
00000080: 72bd 143d 416a 0ebc eb44 00bd 80c7 84bc
00000090: df34 38bd 3198 423c edc4 80bc 4800 35bd
000000a0: 3cc0 98bd 52f8 1dbc 6110 09bd 50ca 2e3c
000000b0: a250 ddbc 4237 3b3c a621 29bd f048 30bc
000000c0: 7de0 14bc 4f50 9fbc d7c1 81bb fba3 98bc
000000d0: cc6b 8fbc d72d 543c ef3c 813d a805 cebc
000000e0: fa42 c8bb 1339 94bc 8a6a 9bbc fb1f 673c
000000f0: 5685 a93d 16ce 79bc e61d a3bc 89a0 d13a
00000100: 31ce 90bc ae81 24bd 5eb8 9fbb c1ac 073d
00000110: e158 623c 05e1 12bd 071f 0c3d c10d 84bd
00000120: be28 aabc fc4c 6ebc beb3 acbd a9a2 373d
00000130: bc55 7ebc f973 3dbd 3a3d f2bc ba71 37bc
00000140: bf3d 5dbc 16d3 27bd 9ce8 a4bc 3318 663c
00000150: 6c77 78bc 8379 07bd 8d1c 4abc a989 21b9
00000160: a862 e63b f748 173d 4b47 52bd 59a3 cc3c
00000170: fb58 27bd 88bf a73c 57ab 41bd 389b 4abd
00000180: aa4b f83b df18 ffbc 01b9 d23c f306 ca3c
00000190: ae27 f73c fe61 23bc 9bc1 39bd b8f0 10bd
000001a0: dd2a 54bd f295 e33c 3e6f a13c ba2e 313d
000001b0: 8452 133d d439 e5bc 4eb4 1bbc bc68 0e3d
000001c0: 38de babc 11de 023d f50c cbbb e8f9 60bd
000001d0: be19 80bc b977 96bd 6066 763c 5211 3c3c
000001e0: 75a8 3cbc a8d0 483c f217 253b b7cd cabc
000001f0: 8150 1cbd 8929 493b e84e 81bd d975 6e3b
00000200: 0f38 4e3b c0a2 043c 3795 85bc f6cb 66bd
00000210: ab4e 163c d3e2 2a3c 385b e03b 7bbb 57bd
00000220: df1c aebb c1d5 dabc 2fc3 4dbd 79aa 763c
00000230: 2629 05bd 7271 ba3c 359f d6bc c60a 693c
00000240: db8a 03bb c335 65bd cae3 89bc 3d4c e5bc
00000250: 8d8d 0bbd 9c82 ffbc 0de9 183b 829e 253c
00000260: d1f6 83bc 1d0d 1d3d 5add 8fbc ad8e 873b
00000270: 6d7d 353d cc95 db3c 86b8 7abc a09a 0abb
00000280: b2af 1e3b d058 853d d956 bbbb 2ec9 01bd
00000290: e15a e7bc b789 25bc 88f6 10bc bb47 363b
000002a0: 18ed 333b d076 c8bb 6862 073d d909 d63c
000002b0: b0c0 5fbd 9016 5f3d f309 57bd cb86 f6b9
000002c0: e6da 45bd 01c2 593d b5c7 3bbc 4afa 2f3d
000002d0: 5252 83bc 2def 083d 9f20 64bd 46e6 01bd
000002e0: 0a8f 21bc 9353 0a3d 72cd 283b 06c8 5d3a
000002f0: 5f26 48bd dbdc 86bb e6c8 853c cd03 233c
00000300: 6dac 413b 87f3 4b3d ae29 cc3c 3bf2 c1bb
00000310: 5f9c 79bc 1155 293d 64e0 c43c fcb5 d3bc
00000320: d29d 453d 359b 7bbd 2344 6cbd bd41 43bd
00000330: 2be7 8cbd d863 40bd d633 673d 07f3 9539
00000340: e197 ccbc db2f 2fbd d3c3 543d 1560 46bc
00000350: 901b 1abd db20 d33b 6f42 ddbc 0ae9 c83c
00000360: 29a3 143d 2bba cdbc 46a6 21bd c1e5 9abd
00000370: 5044 8b3c 656c ee3c 5e60 5a3c 00a1 cbbc
00000380: 69ca 36bd 4182 c5bc bd8f 9abc e174 f1bb
00000390: b6f3 69bd f83c 98bb bf5c a5bc b3ce 273d
000003a0: 2663 37bc 53b7 743b 04b2 903d 2b45 3cbd
000003b0: 9099 9cbc aa74 163c 3309 5ebd 2b33 67bc
000003c0: c0e2 86bb c8d4 c83b 3641 6bbd 4021 923c
000003d0: 6474 a43d 9085 053d 2929 843c 6f60 c93c
000003e0: 8ee1 973c ce7e 19bd 8de1 e03c b973 5b3d
000003f0: d609 1bbc 307a 2d3c 1f1f e6bc 7773 d4b9
-0.040655028 0.004646861 0.012203361 -0.010048447 -0.013934315 -0.00844113 -0.07319675 -0.03724927
-0.041738216 0.0026069114 0.03164777 0.010225749 0.034974996 0.043552622 -0.046172086 0.007731091
0.0013615447 -0.030043954 -0.031156722 -0.025044395 -0.04194851 -0.0051723775 -0.050655376 -0.035426196
-0.01830046 0.038279735 -0.016094934 0.036771853 0.042034987 -0.031098893 0.0068991138 -0.033006284
0.03631348 -0.008692325 -0.031315725 -0.01620841 -0.044972297 0.011877106 -0.015718902 -0.04418972
-0.07458541 -0.009641724 -0.033462886 0.010668352 -0.027015988 0.011426749 -0.041291855 -0.010759577
-0.009086725 -0.019447474 -0.003959875 -0.01863288 -0.017507456 0.012950382 0.0631045 -0.025149181
-0.0061115 -0.018093621 -0.0189717 0.014106746 0.08277385 -0.015246889 -0.019911718 0.0015993278
-0.017676445 -0.040162735 -0.004874273 0.033123735 0.013815136 -0.035859127 0.034209277 -0.06447936
-0.02077138 -0.014544722 -0.084327206 0.04483286 -0.01552337 -0.04625318 -0.02957021 -0.011196548
-0.013503491 -0.04097279 -0.020130448 0.0140438555 -0.015165191 -0.033074867 -0.012335909 -0.00015405439
0.0070308037 0.03693482 -0.05133752 0.024980234 -0.040856343 0.020477071 -0.047282543 -0.049464434
0.0075773792 -0.03113979 0.025722982 0.024661517 0.030170288 -0.009972094 -0.045350652 -0.035385817
-0.05179869 0.02778146 0.019706365 0.043257453 0.035967365 -0.027981676 -0.009503437 0.03476785
-0.02281104 0.03195006 -0.006196613 -0.05492583 -0.015637275 -0.07347054 0.015039057 0.011478739
-0.011514773 0.012256779 0.0025191274 -0.024756296 -0.038162712 0.0030694923 -0.06313878 0.003638616
0.003146652 0.008095443 -0.016306503 -0.056346856 0.009174029 0.010430056 0.0068468116 -0.05266903
-0.0053135003 -0.026713254 -0.05023497 0.015055292 -0.032509945 0.022759173 -0.026198963 0.01422376
-0.0020071778 -0.055959474 -0.016832251 -0.027990455 -0.03407054 -0.03119021 0.0023332268 0.010108592
-0.016108902 0.038342584 -0.017561603 0.0041368813 0.04430907 0.026804827 -0.015302783 -0.0021149293
0.002421361 0.0651108 -0.00571714 -0.031686 -0.028241577 -0.010103635 -0.00884784 0.002781375
0.0027454551 -0.006117679 0.033052832 0.026127743 -0.05462712 0.054464877 -0.052499723 -0.00047021205
-0.04830446 0.053163532 -0.011461188 0.042963304 -0.016030464 0.03343122 -0.055695172 -0.031713746
-0.009860763 0.03377111 0.002575722 0.0008460287 -0.04886472 -0.0041156835 0.016331147 0.009949637
0.0029552237 0.049792793 0.024922218 -0.0059187687 -0.015235036 0.04134089 0.024032779 -0.025843613
0.048246212 -0.061427314 -0.057682168 -0.047670115 -0.06880029 -0.04697022 0.05644592 0.00028600564
-0.024974765 -0.042770248 0.051944565 -0.012107869 -0.037623942 0.0064431257 -0.027009217 0.024525184
0.036288414 -0.025113186 -0.03946521 -0.07563353 0.017000347 0.02910442 0.01332864 -0.024857044
-0.044626627 -0.024109961 -0.018867368 -0.0073686694 -0.057117186 -0.00464594 -0.020185826 0.040968608
-0.011193072 0.0037340715 0.07065204 -0.0459644 -0.019116193 0.009183088 -0.05420799 -0.0141113205
-0.004116386 0.006128881 -0.057435237 0.01783812 0.08030012 0.03259808 0.016132908 0.024582116
0.01854017 -0.037474446 0.027451301 0.05357716 -0.009462794 0.010588214 -0.028091012 -0.0004052182

weight f4 [128, 256]
00000000: 0ab2 ff3b fce9 453d 5e07 183c db8a 5939
00000010: 0acf 02bd f793 753c 2997 5fbc 9953 acbc
00000020: 335e 0ebd e941 3c3c 702b 1ebd d68f 7cbd
00000030: b07e 133d d92d 83bc 594a b33c efd2 f4bc
00000040: 2da5 c6bc c0ac f13c 6fd9 813a 9aec debc
00000050: 1093 2c3d 1e17 f33c da39 bbbc 78f9 ab3c
00000060: 0ed2 933c ca72 34bd b35e edbc 126c d73a
00000070: 8486 c2bc 456c 3a3d 6bbd 273d ef2b 0dbe
00000080: 25e0 4e3d ad3a 74bd 1018 c73c 9d10 e137
00000090: ee0d d9bc 8f25 c7bb e227 fc3c 0303 2a3d
000000a0: ca8b 013d c029 623d 9a94 36bd 664f 11bd
000000b0: 0ced 273d 481e ba3c 17a8 16bd 0b44 60bd
000000c0: 793c d43c cc73 f43c 2a24 1abc 1587 57bd
000000d0: a95a 463d 5af2 183d f93b 52bb fa5f ea3b
000000e0: 54f5 dcbc 45e8 28bb 07c0 653d 5ea4 3b3b
000000f0: 0f89 42bd 8208 093d f8b6 323d 3b6c 4bbd
00000100: 6d46 813c 4a8e 5fbd 6741 b1bc 54cd 41bc
00000110: 9255 d13c abbe 3bbd 06ce 19bd 625d c5bb
00000120: cc94 dbbc 4a1a 20b8 dac3 b7bc 4502 e33c
00000130: 3025 1d3d 4e5c 8fbd 5ec4 90bc b1d7 dabb
00000140: 8ade 30bd b87c 70bd 1237 123d d88d d63b
00000150: 756a 35bd 9815 423d b5bb 7b3d 2d68 6dbd
00000160: db65 723c 77ef 4e3c f9cd 423d 04be d6ba
00000170: 59a3 223d a5b3 353d d8f5 353d 2c2e 003d
00000180: 67f0 d63c aba3 4ebc 3bed 9dbd 5b13 92bc
00000190: dbc9 36bd 8aa3 87bc ae1e 3abd 9e6b 3dbd
000001a0: 009b 2abc 797a 7e3d b11d 87bd 7a7d fcbc
000001b0: e0e2 243d 8173 0f3c ea97 05bd c251 abbd
000001c0: f630 23bc de1e febc f793 de3b 1ca7 303d
000001d0: 0d6b 353d 47e5 d13b b00a fdbc 7f7a fe3c
000001e0: 54ca babd 141c cc3b 0079 60bc e008 52bd
000001f0: 1bad 7abd 1c6a 7e3d 640f 84bc 6381 613d
00000200: 3c67 3d3a 7806 213d 2b64 acbc 892a 553d
00000210: 552d 043d 28d3 2fbd 0ccd ed3c 0587 243d
00000220: 4c6c 503d d0ed 9fbb 073f 8b3c b9fb 843c
00000230: deff 513d 1265 913d 4ca8 2bbd 5fd3 f33c
00000240: 5764 663c c491 8abd 8601 a33d 42e4 7aba
00000250: 39fc bf3c 5a59 21bd e129 513c 410d 1dbd
00000260: e7a0 40bc 68ab 453d 3178 be3d a16d dbbc
00000270: 9ecf 313b 464c d8bc d325 1b3d 9ea6 49bd
00000280: 768d 543d b3c0 2f3c 31d8 3b3d e90d cd3c
00000290: 8901 06bd 1c36 32bd 5cfd 5abd a6a8 473d
000002a0: bce3 423b 60f7 61bd 9f9b 0a3b e98f 61bd
000002b0: 40b8 88bc 23a9 173d ea6f 03be ae0d cc3c
000002c0: 1544 383d 2f9a dfbc b066 3bbc 9065 d3bb
000002d0: 562d 7fbc 27b3 aaba dd79 553c c1bb f1bc
000002e0: 7d27 41bd 8134 053d c5b3 96bb 9d82 68bc
000002f0: 037d 683d 2bbc a83c 23dc 963d 168e 6f3d
00000300: 09e5 153d 17d8 883d bb90 693d 534d 52bc
00000310: 8c78 b93b 02b0 d5bb 2245 f4bc 3977 ccbd
00000320: 42e8 93bd 7e89 abbc 6a43 f5bc e936 5fbd
00000330: 3ffa aa3c b960 143c b7d2 bc3c d95b 19bd
00000340: 17e5 95bc b374 3f3d dce5 cf3b 91c3 983d
00000350: 868e cbbd 42cf 5abd ea15 8e3c 41c3 413d
00000360: 38cf 7c3b f4a9 c1bc 74ed c13c fcf7 39bd
00000370: 00d5 d3bb bdd6 283b cc90 023b 737c 1a3d
00000380: dafb 99bc a85d dbbc 9c8b 47bd 3c57 e13b
00000390: 63a1 69bc d4e1 1f3d 20c9 2abd 44d9 82bc
000003a0: f9ef 183d 12d3 a73c 6ebd 463d d729 853d
000003b0: 0f8f 4e3c c474 6abd 1aaa 35bd 8245 13bd
000003c0: 71ab c2bd 532e 373d b4d9 803b 9ef4 913c
000003d0: fc58 aa3b b882 6abd 6f13 7f3c caea a43b
000003e0: 0e8f 93bd 6d6d 61bc f324 13bc b647 843c
000003f0: 8c40 4a3c 1f90 24bd 44c6 26bd c721 0a3d
0.0078032063 0.048318848 0.0092791 0.0002074646 -0.03193573 0.014988891 -0.013646879 -0.021035956
-0.034757804 0.011490324 -0.038615644 -0.06166061 0.03600949 -0.016013073 0.021886038 -0.029885737
-0.024248684 0.029501319 0.0009906719 -0.02721243 0.042132437 0.02967411 -0.022854734 0.02099298
0.018044498 -0.044054784 -0.02897582 0.0016435406 -0.023745783 0.04551341 0.040952127 -0.1378629
0.05050673 -0.05962627 0.024303466 2.6829826e-05 -0.0264959 -0.0060774754 0.030780736 0.04150678
0.031627454 0.055215597 -0.04457531 -0.03547611 0.04099755 0.022719517 -0.036781397 -0.05475239
0.025907742 0.029840373 -0.009408036 -0.05261906 0.048426304 0.0373405 -0.0032079204 0.0071525546
-0.02697245 -0.002577321 0.056091335 0.0028631906 -0.04749399 0.03345538 0.043631524 -0.049663763
0.015780652 -0.054579057 -0.021637632 -0.011828739 0.025553498 -0.045836132 -0.037549995 -0.006023095
-0.02680435 -3.8171456e-05 -0.022432256 0.027711043 0.038365543 -0.070000276 -0.01767176 -0.0066785445
-0.04318098 -0.05871269 0.03569705 0.006547671 -0.04429098 0.047383875 0.06145831 -0.057960678
0.014794792 0.012630335 0.047559712 -0.0016383533 0.03970656 0.044360776 0.044423908 0.031294033
0.02623768 -0.012612264 -0.07711264 -0.017831495 -0.044626098 -0.016557474 -0.045439415 -0.04624521
-0.010412931 0.062128518 -0.0659746 -0.03082155 0.040255427 0.008755566 -0.03261558 -0.083652034
-0.009960404 -0.031020578 0.006792541 0.043128118 0.044291545 0.006405506 -0.030888885 0.03106427
-0.09120622 0.006228933 -0.013700724 -0.051277995 -0.061200242 0.062112913 -0.01612062 0.055055033
0.0007225161 0.03931281 -0.021043858 0.052042518 0.032269794 -0.042925984 0.029028438 0.040167827
0.05088453 -0.0048806444 0.016997827 0.016233312 0.051269405 0.07099356 -0.041908547 0.029763876
0.014062009 -0.06766084 0.07959275 -0.0009570756 0.023435699 -0.039391853 0.012766332 -0.038342718
-0.011757112 0.04825917 0.093002684 -0.026785674 0.0027131806 -0.026403558 0.03787787 -0.049231164
0.05189272 0.010727095 0.045860473 0.025031047 -0.032716308 -0.043508634 -0.05346428 0.04874482
0.002973779 -0.055167556 0.0021149886 -0.055068884 -0.01668942 0.037026536 -0.1283566 0.024908867
0.044986803 -0.0272952 -0.011438057 -0.006451316 -0.015574774 -0.0013023362 0.013029543 -0.029508473
-0.0471568 0.032520775 -0.004599067 -0.014191297 0.056759845 0.020597538 0.073662065 0.058485113
0.036595378 0.06681841 0.05702279 -0.012835818 0.0056601223 -0.006521226 -0.029818121 -0.099836774
-0.07222034 -0.020939585 -0.029939372 -0.054495726 0.02087128 0.009056264 0.023049695 -0.03744111
-0.018297715 0.046742152 0.00634454 0.07459176 -0.099392936 -0.053420313 0.017344434 0.04730535
0.003857566 -0.02364061 0.023672797 -0.045402512 -0.0064646006 0.002576276 0.0019922731 0.03771634
-0.01879685 -0.026778057 -0.048717126 0.006876854 -0.014259669 0.039033726 -0.041695714 -0.015972741
0.03733823 0.020486388 0.048520498 0.06502121 0.01260735 -0.057240263 -0.044351675 -0.03595496
-0.09505356 0.044721913 0.0039322022 0.017816838 0.005198596 -0.05725357 0.015568598 0.005032872
-0.0720502 -0.013758999 -0.008980977 0.016147476 0.012344491 -0.040176507 -0.040716425 0.03372362

bias f4 [128]
00000000: 591c c4bc 69a0 4dbd 54c6 6bbd 44f9 2dbc
00000010: 732b 553d 55c8 c23c 72cd 3b3d 51a5 74bd
00000020: fd09 0cbd 767f 243c 0e02 c0bc c755 18bd
00000030: 794a 46bc 3860 a0bc fc22 95bd 8e95 30bb
00000040: 02fd 90bd 5296 8cbd 658a 28bd 609d 643c
00000050: 2b5c 41bd a772 24bd 05db 92bd 342f 8abd
00000060: abdb 673b cc19 893b b44c cabc 576c 7b3c
00000070: c90f 17bd 602a 033b aab3 753d 50c1 883c
00000080: db7b b1bd d300 763c 4107 d83a 000e 10bd
00000090: 11ec c9bb 5a88 b2bd f392 87bc f037 85bd
000000a0: 7e3d b5bc 4ae0 f339 9971 cf3c b606 a4bd
000000b0: 7ea3 24bd 7c9e 8cbd bc9d 05bd b94a 193c
000000c0: 4918 5dbb 4493 2cbc 9e17 983b 4abe 97bb
000000d0: d35b 6d3c ac10 35bd 9e14 9c39 0e1c a6bd
000000e0: 244b de3c 2498 053d 1dde 32bc 180e 9bbd
000000f0: de45 bb3c 3acb 7fbd dbcf 64bd 123a 4cbc
00000100: 5f45 9b3c a922 90bc c0cd 88bc cf5b 613b
00000110: db45 863b d08a fdbc 4077 693c cc74 66bd
00000120: f13a 383d e78b d8bc b110 d2bd c517 4e3c
00000130: fdd6 573d ae53 21bd a27c e43c 4c6f 213d
00000140: 2c19 64bd c9d5 a1bb 4a4e cabc 8c1d 893c
00000150: 6437 883c 9c20 a33c 5775 08bd 3ed7 743c
00000160: d038 adbd 8a02 68bd f5b5 903c 4aa2 56bd
00000170: bc56 96bc 63de 93bd 67a9 793c 809c 623b
00000180: 7149 813c 9bb7 0fbd 0b18 f73c 053f 12bd
00000190: 2be0 bd3c 3b7d 953d 1a65 5abd 5a07 03bd
000001a0: 2fd0 cdbc 2355 563b 387c 8c3c 239b 3ebd
000001b0: 6bbb bfbc 4ab9 c9bc d3c7 f53c 09fe 153c
000001c0: 1ee5 e2bb 453f 553b ca91 9bbc cd2e 3ebd
000001d0: 36ce 6f3c 2d99 abbc 98bb 0f3d 2f1e a9bc
000001e0: 3f78 61bd d422 3b3d 858d b0bc 6c49 1cbc
000001f0: 8178 3abd 5759 e83b 4e88 9bbc 3da3 50bd
-0.023939298 -0.050201807 -0.057562187 -0.010618512 0.05204339 0.023777166 0.045850225 -0.05972797
-0.034189213 0.010040155 -0.02343848 -0.03719118 -0.012102717 -0.01957713 -0.07282063 -0.002694461
-0.070795074 -0.06864609 -0.04114761 0.013953537 -0.04720704 -0.040148403 -0.07170681 -0.067472845
0.0035378735 0.0041839834 -0.024694778 0.015345654 -0.03688029 0.002001427 0.059985794 0.016693741
-0.08666202 0.015014845 0.0016481654 -0.0351696 -0.0061621745 -0.08717413 -0.016549563 -0.0650481
-0.022124048 0.0004651568 0.025322722 -0.080090925 -0.04019498 -0.06866166 -0.03262113 0.009356194
-0.00337364 -0.010533158 0.0046414873 -0.0046308385 0.014487225 -0.044205353 0.0002977 -0.0811082
0.02713544 0.032615796 -0.010917214 -0.075710475 0.022860464 -0.06244967 -0.05586229 -0.012465017
0.018953977 -0.017594652 -0.016699672 0.0034386998 0.004097683 -0.03094998 0.014249623 -0.05626373
0.044978086 -0.026433898 -0.1025709 0.012578909 0.052695263 -0.039386444 0.02789146 0.03941278
-0.05568807 -0.0049388153 -0.024695534 0.016737722 0.016627975 0.01991301 -0.03331503 0.014943896
-0.08458102 -0.056643046 0.017664889 -0.052400865 -0.018351905 -0.07220151 0.015238143 0.0034578145
0.01578209 -0.03508721 0.030162832 -0.03570463 0.02317818 0.072992764 -0.053319074 -0.031989433
-0.025123684 0.0032704554 0.017149076 -0.04653467 -0.023404798 -0.024624486 0.03000251 0.009154805
-0.0069242856 0.0032538932 -0.018990416 -0.04643135 0.014636567 -0.020947063 0.035091013 -0.020644275
-0.055046316 0.04568751 -0.021551857 -0.0095389895 -0.045525078 0.0070907283 -0.018985894 -0.050936926

weight f4 [60, 128]
00000000: 8741 ac3d 60e8 853b 9cb9 24bd 7e21 f93c
00000010: 316b b83c c9ed 923c c770 d9bc 22de 9dbd
00000020: d088 6a3d d060 003b 6628 8fbd a308 32bd
00000030: a651 97bc 8c77 b5bd ac64 afbc edc4 c63c
00000040: d6eb 6abd 20c9 95bc 5540 8f3d c799 42bb
00000050: 7e02 36bd ef43 013d c01a 7ebd e5f4 883d
00000060: 7f26 933c 9ca3 3bbd 2903 00bd 8572 ac3d
00000070: 838b fa3c 506a d9bc f45a a1bd 579d c73c
00000080: 2b3a 583d 45af 503d 28e2 9cbd dbe6 30bb
00000090: e49f 52bd dda3 f23c 49c4 35bc 7c44 96bb
000000a0: cc79 253d c525 2a3d 50cd 9cbd 78e8 d8bc
000000b0: a59a e33c 3b5d f9bc ae5b 923d 3982 90bc
000000c0: 2ed1 a5bc 7490 873d 7946 003d ac6d 8a3b
000000d0: 8bda 553d 1108 9b3d 81b8 2d3d ee33 f53c
000000e0: 8bdc 8f3d c54e 79bc 76f0 02bd a4af f6bc
000000f0: ca53 f43d a115 c2bb f3e0 a13c 7965 843d
00000100: 0bd3 1abd 3b11 c93d f03b 963b cfff 18bd
00000110: b6b9 7b3d 2dd2 ad3c cdf3 a13d 6267 443d
00000120: c4fa 233d 1ed5 143d eb39 293d cc6d 773c
00000130: 0412 e7bc 7eca 62bd 5312 773d e5c1 99bd
00000140: 1e7c 233c 8a42 8ebd 1110 4ebd 2e1d 673c
00000150: 1cef 23bd 7c7f c9bc 4356 413b a6b3 92bd
00000160: 15af 87bc e60a e0ba 5d7c 52bd 3dd3 4bbd
00000170: 7650 2c3d 5805 eb3b 2e99 463d af8c 2fbd
00000180: c2f1 51bb e047 2f3d 4d0d 7f3d 8b63 d5bc
00000190: b4fd 933d 7f90 b03d 0f1f 6dbc 936b 963c
000001a0: cc57 0f3d 17da ae3c ccce aebc 98d9 7bbd
000001b0: 7762 d93a c9e2 ed39 985d 8abd 002f 7a3d
000001c0: 34e4 44bd 4942 6dbd c695 f8bc 36d0 6fb9
000001d0: 367b c9bb 23b7 6abd 3d5e a13d c364 103b
000001e0: be99 98bc 4d5f 06bc 6e36 af3d c2c2 29bd
000001f0: 0e48 acbc 6318 6b3d 3482 4dbd b754 40bd
00000200: bde1 cd3d 328f d3bc e9ae b0bd 908e 30bd
00000210: c33d 89bd 380d a8bd a4c3 7f3e 32b9 23bc
00000220: 799c a13d 31ce ef3c 55d4 00bd 6660 373d
00000230: 7340 34bc fa43 3b3c 8cc0 fb3c 578e 60bd
00000240: 7c09 97bc 566c ebbd 1f5f 70bd e5e3 363e
00000250: ed31 eabc bdbe 0f3d 683c e0bc f9ef 563d
00000260: 7e43 6bbd 5608 b6bc 1395 83bd 7434 98bd
00000270: d7d3 953d 6a72 10bd 511a ed3c 658e c03c
00000280: f895 013d a562 fabc c4e6 4e3d 8312 8bbe
00000290: b48b f439 6121 c33d 86a7 4abe eb7b 2bbe
000002a0: 5841 3f3d bc79 253d dcc0 4dbd 35c7 ae3e
000002b0: 674d e33e e507 11bc 7fa4 30bd 316f b93b
000002c0: 8049 10bd 4894 90bd 452e 4fbe fc04 43bd
000002d0: 5eb7 b1bd 8165 0abd 95fa 903c d72d d6be
000002e0: 8f2b df3c ba02 81bd bb6f dd3b e83d fb3c
000002f0: b45c 843d 6afa 5dbe 6c66 803d 963c 0ebc
00000300: 4daa 933c 8229 ccbd 53e6 3abe 8c39 e9bd
00000310: b5a8 50bc 1521 60be 6d44 863d a33a b53c
00000320: 3705 1c3d 848a 7b3e 4358 08bd 019b 703e
00000330: 1b5c 42be 2587 9cbb c3e6 0bbd 98eb 193e
00000340: fc2b ec3d c4f9 8f3d 5f34 193d bd32 723e
00000350: 09f3 b8bc 3a53 a33e 34b3 20bd 62d4 27bc
00000360: 0525 eebd 67d1 5c3d 6a97 553d e10f 0a3d
00000370: 4d79 85bd d74b 26bc 2f31 8e3d d498 a2bc
00000380: 5424 1038 d828 44be 763c 023d d311 87bc
00000390: 9ff4 903d 3fff dd3c e643 143e d6f5 9a3d
000003a0: 33d8 7e3d 263c bebc 099f e63c 5c89 4b3d
000003b0: bb95 ffbc 5193 fe3c 55b3 b83d f72c 083d
000003c0: 30d9 a83d 90b7 b93c ec8c 6ebe 3d6e e63d
000003d0: 74ee 53be c7c6 a2bd dae1 06ba c642 a73d
000003e0: 779c 89be 75b9 e1bc 9283 6e3d 1ca6 11bd
000003f0: ae18 9ebc 27f4 87bd ee74 c13d 4a98 ccba
0.08410936 0.004086539 -0.040216073 0.030411478 0.02251205 0.01793565 -0.026543034 -0.07708384
0.05725938 0.0019588955 -0.06990127 -0.043465268 -0.01847155 -0.088606924 -0.021410309 0.024263823
-0.057353817 -0.01828438 0.06994692 -0.002969371 -0.04443597 0.031558927 -0.06203723 0.06687335
0.017962692 -0.045810327 -0.031253014 0.0842028 0.030584102 -0.026539952 -0.07878676 0.024367018
0.05278985 0.0509484 -0.076603234 -0.002699307 -0.051422015 0.029619152 -0.011094161 -0.0045858007
0.040399358 0.041539926 -0.07656348 -0.026478037 0.027783701 -0.030439964 0.07146393 -0.01764022
-0.020241346 0.06619349 0.031317208 0.0042244997 0.052210372 0.07569898 0.042412285 0.029931989
0.07024487 -0.015216534 -0.031967603 -0.030113049 0.11930044 -0.0059229885 0.019760584 0.06464667
-0.037798923 0.098177396 0.004584782 -0.037353333 0.061456405 0.021218384 0.079078294 0.047950156
0.04003407 0.036336057 0.041315 0.015101861 -0.028206833 -0.055368893 0.06032021 -0.075076856
0.009978322 -0.06946285 -0.05030829 0.014106078 -0.040022954 -0.024596922 0.002950088 -0.071631715
-0.016562978 -0.0017093092 -0.051388133 -0.049762 0.04206892 0.007172268 0.048485927 -0.042858776
-0.0032034968 0.042793155 0.062268544 -0.026048442 0.072261244 0.086213104 -0.014472737 0.018361842
0.03499584 0.021344228 -0.021338843 -0.06148681 0.0016585131 0.0004537313 -0.06756133 0.06107998
-0.048069194 -0.057924543 -0.030344855 -0.00022870381 -0.006148721 -0.05730356 0.07879303 0.0022032715
-0.018627997 -0.008201432 0.085553035 -0.0414455 -0.021030452 0.057396304 -0.050173 -0.04695579
0.10052822 -0.025825117 -0.086271115 -0.04310471 -0.06701233 -0.08205646 0.24976975 -0.0099928845
0.07891173 0.029273124 -0.031452496 0.044769667 -0.011001694 0.011429781 0.030731462 -0.054823246
-0.01843714 -0.11495273 -0.058684465 0.17860372 -0.02858826 0.03509401 -0.027372554 0.05247495
-0.057437412 -0.022220772 -0.06424918 -0.0743188 0.07315796 -0.035265364 0.028943213 0.023505399
0.031637162 -0.030564616 0.050513044 -0.2716256 0.00046643394 0.09527851 -0.19790468 -0.1674649
0.046693176 0.040399298 -0.050232753 0.34136358 0.4439499 -0.00885198 -0.043125626 0.005659007
-0.035226345 -0.070595324 -0.20232494 -0.047612175 -0.08677553 -0.033788208 0.017697612 -0.41831848
0.02724245 -0.06299348 0.006757704 0.030669168 0.06462994 -0.21677557 0.062695354 -0.008681437
0.018025542 -0.099688545 -0.18251924 -0.11387929 -0.012735535 -0.2188762 0.0655602 0.022122687
0.03809091 0.24564558 -0.033287298 0.2349663 -0.18980448 -0.0047768527 -0.03415562 0.15031278
0.11531827 0.07030061 0.03740346 0.23652168 -0.022576826 0.31899434 -0.0392334 -0.010243507
-0.11628155 0.05391064 0.052146353 0.03370655 -0.06517277 -0.010149918 0.06942975 -0.019848265
3.436611e-05 -0.19156206 0.03179594 -0.016487991 0.07077908 0.02709925 0.14479026 0.07566421
0.062217902 -0.02322204 0.028152006 0.049691543 -0.031199327 0.031076105 0.0901858 0.033246007
0.0824455 0.022670537 -0.23295945 0.11251495 -0.20696431 -0.0794807 -0.0005145349 0.08167033
-0.26877186 -0.027554253 0.058230944 -0.035558805 -0.019298878 -0.06638365 0.09446131 -0.001560935

bias f4 [60]
00000000: bafe 103a a569 90b9 f2e2 203a 83f0 adb9
00000010: 805e 333a f039 e9b9 0c1c 1b3a aff4 11b9
00000020: 9b91 0f3a 6152 18b9 9b81 b939 8bb2 cb39
00000030: bcac c039 07f4 0ab9 e573 8c39 8d72 2638
00000040: ff86 a039 8128 e4b7 06d5 fe39 19a0 eeb8
00000050: 9ca1 3b39 25a4 b1b7 84aa c539 d692 0cb8
00000060: 2b75 a539 acfd 94b9 2bb9 8539 952a a935
00000070: 1fde e638 48f0 a238 75c7 b839 fd26 f637
00000080: 5f58 f638 3372 1db7 ca73 3939 fefd 94b8
00000090: 4807 be38 6d3c 2838 8a6c bf38 1381 6e39
000000a0: 5638 5b38 a31d c0b7 a2a6 0239 9296 3839
000000b0: 1287 2f39 ef6c 0d39 02eb 7d39 f177 8bb8
000000c0: 3aa5 5e39 174a 8039 0c51 4239 68b4 dab7
000000d0: aa97 0f39 d306 7139 a8f1 6739 b330 9538
000000e0: 99a9 4d39 4b81 3938 ebd2 4b39 5746 b8b7
0.0005531121 -0.00027544532 0.0006137333 -0.00033176327 0.00068423897 -0.0004448439 0.000591696 -0.0001391943
0.0005476714 -0.00014526538 0.00035382513 0.00038852202 0.0003674979 -0.00013251613 0.0002678923 3.9684168e-05
0.00030618158 -2.719858e-05 0.0004860537 -0.00011378545 0.00017893914 -2.117648e-05 0.00037701812 -3.3515353e-05
0.0003155855 -0.0002841776 0.00025505698 1.2603874e-06 0.00011008628 7.769518e-05 0.00035243822 2.934364e-05
0.000117466545 -9.384518e-06 0.0001768611 -7.1045e-05 9.061262e-05 4.0110597e-05 9.127807e-05 0.00022745533
5.2266136e-05 -2.2901984e-05 0.00012459842 0.00017603699 0.00016739618 0.00013487389 0.00024215507 -6.650377e-05
0.00021233122 0.00024469264 0.00018531474 -2.6071633e-05 0.00013694042 0.00022986093 0.000221199 7.1139446e-05
0.00019613504 4.422785e-05 0.00019438162 -2.1967264e-05
