linearPredictionModels/db39/mega/combined.csv_wholeNetPrototype5_Epochs_60_ValidationLoss2.230890_lr0.0003_2023_08_05_08:43:31.pth (torch, 992619 bytes, 8 tensors)

weight f4 [512, 145]
-0.0731609 -0.20717037 0.04533419 -0.1458083 0.022006055 0.039338853 0.13570091 -0.18747538
-0.15619789 0.0025799454 0.19293739 -0.6501324 0.1067826 0.1426486 0.047372293 -0.18765195
-0.2367467 -0.0023257986 0.0048834737 0.10546085 -0.078442454 -0.16006877 0.007353825 -0.056648206
-0.0129475035 -0.013354835 -0.025038343 -0.039713528 0.085498415 -0.1206001 -0.00374235 -0.14553209
0.045418907 0.08993543 -0.19007535 -0.021807276 0.0069456557 0.03543246 -0.089496136 -0.09366675
0.106120676 -0.16334595 -0.010320989 0.008005543 -0.059939574 0.031180331 0.108388506 0.1411575
0.098378606 0.030039877 -0.016662754 -0.17508227 -0.14020112 -0.16996482 0.013938839 -0.06540056
0.02499221 0.0907536 0.09515146 0.08881655 0.09493971 -0.022430988 0.09341031 -0.06550018
-1.3176575 -0.30634987 -0.39076498 0.24388647 0.09456719 -0.19448173 0.1460001 0.110135354
0.12417375 -0.20653595 -0.2573095 0.0027838515 0.2322578 -0.1783315 0.06789074 -0.057184882
0.09686912 -0.24197067 0.06654602 -0.107982196 0.18229933 0.21989036 -0.03762478 -0.19353804
0.070653915 -0.011407152 -0.09888073 -0.05994878 0.032334488 -0.12109495 -0.0010468159 -0.12138007
0.06989243 -0.092006765 -0.015031101 -0.115044214 0.062073298 -0.09533081 -0.08467227 -0.0091682
-0.03758675 0.090767026 -0.11158165 0.02485783 0.08977065 -0.027903207 -0.028781487 0.0900476
0.11880176 0.048647184 0.09263629 -0.005775398 0.06345607 0.0732174 0.020858606 0.0764058
-0.060747705 0.06488329 0.07668972 -0.15818046 -0.15713254 -0.12522934 0.05464475 0.0073361555
-0.066386856 -0.020304304 0.009005976 -0.019805642 -0.023316082 0.06055831 -0.047374666 0.0205867
-0.0070629083 -0.063279 -0.046558864 -0.02439412 -0.011133148 -0.02204975 0.022829557 0.049084272
-0.051906418 -0.10675292 0.03852475 0.0043248776 -0.30690956 0.10572226 -0.0100677 -0.107306674
-0.17296332 0.035368692 0.071821645 0.17142777 0.039318345 -0.007358572 0.10264644 0.076659404
0.0610463 -0.047237 -0.0902021 0.048979294 -0.020405488 -0.14090782 -0.110077314 0.0052271383
0.15917858 0.071331985 0.2541961 -0.17661934 -0.10170203 -0.2601932 -0.058437344 -0.1911892
-0.3999597 0.063825056 0.08127694 -0.13266411 0.059972584 -0.041815594 -0.051545054 0.14186746
0.0025389304 -0.021484766 -0.08420146 -0.08023853 0.033849668 0.080544695 -0.006245786 -0.12817821
-0.21170089 -0.047286287 -0.14468825 0.13062946 0.002312775 -0.018343247 0.67035407 0.1642693
-0.029066067 0.1244738 0.09641099 0.051807445 0.24460961 0.09717283 -0.13173948 0.13908856
0.038474064 -0.40444678 0.057354975 -0.17376952 -0.71215147 -0.3648556 0.23311958 -0.49090758
-0.34281257 0.17154352 -0.21858425 -0.48177317 -0.02942091 0.19773436 0.8326071 0.097822204
0.18790333 0.09422931 0.034961008 0.1793015 0.08445588 -0.19734406 0.0797677 0.3046285
-0.17546758 0.005011412 -0.11814793 -0.10517543 0.054437965 -0.009075462 -0.071373016 0.21489847
0.08865212 0.041440725 0.037702523 0.17753883 -0.105681784 -0.039840568 0.030007947 0.1459266
0.00017602244 0.011434195 0.10785418 -0.07761077 -0.029041428 0.037742384 -0.047479987 -0.08692107
00000000: 62d5 95bd 7824 54be 58b0 393d c54e 15be
00000010: 0b46 b43c c721 213d 2ef5 0a3e 8cf9 3fbe
00000020: 57f2 1fbe 4d14 293b 6191 453e 146f 26bf
00000030: d6b0 da3d 7912 123e 7309 423d d527 40be
00000040: ba6d 72be 6d6c 18bb 8c05 a03b dcfb d73d
00000050: 70a6 a0bd 11e9 23be 5bf8 f03b f307 68bd
00000060: c421 54bc 3dce 5abc 361d cdbc a7aa 22bd
00000070: cb19 af3d 2ffd f6bd 3742 75bb 5d06 15be
00000080: 2d09 3a3d 1130 b83d 1da3 42be 2ca5 b2bc
00000090: 6298 e33b a121 113d c049 b7bd 5ad4 bfbd
000000a0: cc55 d93d 2944 27be 5e19 29bc ae29 033c
000000b0: 3383 75bd e56d ff3c cbfa dd3d 978b 103e
000000c0: b97a c93d 3016 f63c 5480 88bc c448 33be
000000d0: e290 0fbe 420b 2ebe ba5f 643c bbf0 85bd
000000e0: 77bc cc3c 06dd b93d c5de c23d 74e5 b53d
000000f0: c06f c23d 31c1 b7bc e84d bf3d f524 86bd
00000100: 00a9 a8bf e4d9 9cbe 5912 c8be 60bd 793e
00000110: 71ac c13d 3826 47be 0d81 153e a58e e13d
00000120: cf4e fe3d 297e 53be 12be 83be 4771 363b
00000130: fdd4 6d3e 889c 36be 4d0a 8b3d b23a 6abd
00000140: 5163 c63d 29c7 77be 4849 883d c525 ddbd
00000150: adac 3a3e f02a 613e 711c 1abd d62e 46be
00000160: 00b3 903d 10e5 3abc fb81 cabd da8c 75bd
00000170: 2b71 043d a100 f8bd 5035 89ba 1d96 f8bd
00000180: c323 8f3d 0b6e bcbd 0245 76bc 4d9c ebbd
00000190: 9240 7e3d cd3c c3bd a868 adbd 3836 16bc
000001a0: 90f4 19bd 10e4 b93d ec84 e4bd a6a2 cb3c
000001b0: add9 b73d 4495 e4bc 27c7 ebbc e06a b83d
000001c0: 564e f33d 4542 473d 18b8 bd3d 8d3f bdbb
000001d0: 42f5 813d 01f3 953d abdf aa3c a57a 9c3d
000001e0: 96d2 78bd 88e1 843d 800f 9d3d 0ffa 21be
000001f0: 5ae7 20be 1f3c 00be 2cd3 5f3d 2264 f03b
00000200: d5f5 87bd 3655 a6bc cd8d 133c 713f a2bc
00000210: 5e01 bfbc fe0b 783d f00b 42bd 70a5 a83c
00000220: f86f e7bb 6c98 81bd 82b4 3ebd 2dd6 c7bc
00000230: cf67 36bc ada1 b4bc 0d05 bb3c 970c 493d
00000240: d39b 54bd 46a1 dabd 21cc 1d3d b4b7 8d3b
00000250: 4023 9dbe ea84 d83d fff2 24bc 9ac3 dbbd
00000260: 4c1d 31be c3de 103d 3a17 933d c38a 2f3e
00000270: 460c 213d 2d20 f1bb 4c38 d23d 9bff 9c3d
00000280: af0b 7a3d 967b 41bd e1bb b8bd 839e 483d
00000290: 6929 a7bc 244a 10be 3770 e1bd 6a48 ab3b
000002a0: b6ff 223e 8116 923d fe25 823e b3db 34be
000002b0: 2749 d0bd 0b38 85be ff5b 6fbd 1ac7 43be
000002c0: 85c7 ccbe b6b6 823d 8674 a63d 1ad9 07be
000002d0: d0a5 753d d446 2bbd e820 53bd b445 113e
000002e0: 2f64 263b d200 b0bc d171 acbd 1954 a4bd
000002f0: f3a5 0a3d 9ef4 a43d 73a9 ccbb 2641 03be
00000300: 1ec8 58be 44af 41bd 2829 14be bbc3 053e
00000310: ed91 173b 9444 96bc 539c 2b3f 3636 283e
00000320: f61b eebc 1fec fe3d 2073 c53d 0b34 543d
00000330: f17a 7a3e 8c02 c73d b7e6 06be 3b6d 0e3e
00000340: fb96 1d3d a613 cfbe 0ded 6a3d a3f0 31be
00000350: 8f4f 36bf 5ace babe e6b6 6e3e 3d58 fbbe
00000360: 2185 afbe 1ba9 2f3e 8dd4 5fbe f9aa f6be
00000370: 1f04 f1bc e07a 4a3e bd25 553f 0257 c83d
00000380: bb69 403e 4cfb c03d 4633 0f3d d09a 373e
00000390: 34f7 ac3d 9014 4abe 3f5d a33d 44f8 9b3e
000003a0: c6ad 33be c536 a43b 8bf7 f1bd 3766 d7bd
000003b0: 58fa 5e3d 3fb1 14bc 042c 92bd 580e 5c3e
000003c0: 3e8f b53d c0bd 293d f66d 1a3d bdcc 353e
000003d0: b16f d8bd dd2f 23bd 3ad3 f53c c86d 153e
000003e0: aa92 3839 7d56 3b3c a7e2 dc3d 65f2 9ebd
000003f0: 4ae8 edbc c297 1a3d 607a 42bd ad03 b2bd

bias f4 [512]
0.0015336446 -0.010108138 0.055317145 -0.027518561 -0.082836956 -0.084624246 -0.031680092 -0.07894412
0.02510403 -0.092800446 0.06849543 -0.03546632 -0.17250821 0.066916175 -0.005400215 0.024636483
0.18910363 0.092899576 -0.02132912 0.06654949 0.028052535 0.11236827 -0.036440123 0.09119222
0.07679039 0.004077454 0.015224259 0.20873447 -0.037426714 -0.008311826 0.09309162 -0.014876236
0.03374286 0.1090588 0.05804743 0.0016864138 -0.02211052 -0.12314041 -0.10062746 -0.05728106
-0.08724343 -0.033693515 -0.11244601 -0.039121784 -0.06101342 -0.08605274 -0.008893976 0.1564676
0.119419016 -0.00243153 -0.112524636 -0.0019462409 0.06366888 0.027590532 -0.056915678 0.13425471
0.00030079536 -0.08577302 0.032571264 0.07979473 0.019217521 0.04146863 -0.1262065 -0.06482148
-0.017579941 0.031683784 -0.01140203 -0.01117446 -0.1412039 -0.038706444 -0.07260653 0.004747112
0.035453215 -0.047724985 0.16346812 0.010831911 0.025940515 -0.09211856 -0.09457621 -0.024391899
-0.01605348 -0.09340673 -0.107485294 0.010981921 0.024948006 -0.038443927 -0.056770794 -0.21120614
0.08667711 -0.0067914785 -0.10122425 -0.116848916 -0.118256286 -0.10887296 -0.13110721 -0.008368451
-0.08854253 0.055364493 0.10856038 0.036724083 -0.07627374 -0.038746905 -0.028631141 0.09542883
-0.026329981 0.0141148195 -0.03641852 -0.0403104 0.14659566 0.11145199 -0.112906136 -0.15203992
0.07348804 0.028326685 -0.0809904 0.16631135 -0.004078495 0.13920563 0.049639877 -0.06716443
0.04653818 -0.008487247 -0.14854188 -0.012754892 -0.047831804 0.08955542 0.011492103 -0.09464778
-0.12497041 -0.037260503 -0.05639264 0.034576707 -0.1503821 -0.015063507 0.045226853 -0.057533003
0.0422377 -0.033873737 0.037599016 -0.070308 0.045826234 -0.080815114 -0.031811867 -0.05680694
-0.1256675 -0.13345064 -0.028826911 0.03522248 0.0023351274 -0.12269174 0.12180322 -0.115795106
-0.04196716 -0.0069623776 0.029273136 0.046009544 -0.049502913 -0.07631771 -0.018911326 -0.24761367
0.11521202 -0.06629487 -0.02255957 0.047287643 -0.14183335 0.021710508 -0.0005305635 -0.043974113
-0.05946787 -0.12944384 -0.15278627 -0.042284567 -0.063492626 0.040901564 -0.0026522495 -0.08878775
-0.21277416 0.06688258 -0.0020627638 0.0752305 -0.03111283 0.01732836 -0.07709692 0.061408073
-0.078455664 -0.03916465 0.07598882 0.03565026 0.049861588 -0.02101509 -0.010526674 -0.029739857
-0.1397439 -0.030039938 -0.15188046 -0.05384516 -0.1134587 -0.04096095 -0.02779204 0.02958197
0.016014557 0.06996511 -0.10673876 -0.03393884 -0.11459935 -0.0991013 -0.01785992 0.011558719
-0.016474903 -0.065810636 0.059387367 0.054657187 -0.13059181 0.03415985 -0.02547229 -0.0747739
-0.07730278 0.018399889 -0.20473579 -0.0017171511 0.004190062 0.027424822 -0.05783629 -0.0155914435
-0.036901046 -0.060527522 -0.15379162 0.13535734 -0.07119594 -0.13704574 -0.15160424 0.025547259
-0.1537359 -0.041603375 0.05440696 0.08687179 -0.08425529 -0.0056285905 0.082766764 -6.223842e-05
0.06628383 -0.05389858 -0.12783608 0.029174095 0.030995075 -0.055197515 -0.11208405 -0.04992891
0.025516747 -0.06592681 -0.072499946 -0.032891884 0.017817771 -0.04021066 0.1197045 0.04079411
00000000: 9304 c93a 9b9c 25bc 3b94 623d 9b6e e1bc
00000010: 6ca6 a9bd 7a4f adbd fcc2 01bd 74ad a1bd
00000020: f7a6 cd3c 290e bebd 5547 8c3d 2245 11bd
00000030: fea5 30be 590b 893d 49f4 b0bb 73d2 c93c
00000040: 62a4 413e 2242 be3d 68ba aebc 194b 883d
00000050: 6ece e53c 5621 e63d 3d42 15bd fdc2 ba3d
00000060: 4844 9d3d 2a9c 853b 2c6f 793c 7dbe 553e
00000070: c14c 19bd 532e 08bc d2a6 be3d 75bb 73bc
00000080: f435 0a3d 385a df3d 24c3 6d3d a80a dd3a
00000090: 1f21 b5bc 0a31 fcbd c515 cebd 8b9f 6abd
000000a0: afac b2bd 3602 0abd 184a e6bd 2a3e 20bd
000000b0: 35e9 79bd 6b3c b0bd 0ab8 11bc 0b39 203e
000000c0: f591 f43d 4e5a 1fbb 5173 e6bd 0219 ffba
000000d0: d464 823d 8a05 e23c 6a20 69bd 117a 093e
000000e0: 12b4 9d39 c4a9 afbd 7269 053d 6b6b a33d
000000f0: 106e 9d3c 03db 293d 473c 01be 20c1 84bd
00000100: cf03 90bc dbc6 013d 94cf 3abc 1515 37bc
00000110: c197 10be a68a 1ebd bbb2 94bd a98d 9b3b
00000120: 6437 113d 467b 43bd 3064 273e 5478 313c
00000130: 3481 d43c a8a8 bcbd 2cb1 c1bd 85d1 c7bc
00000140: 9682 83bc 074c bfbd 4021 dcbd 84ed 333c
00000150: c35f cc3c 6177 1dbd 7e88 68bd 6c46 58be
00000160: c583 b13d 0d8b debb a94e cfbd 7c4e efbd
00000170: 5a30 f2bd c9f8 debd f840 06be d41b 09bc
00000180: c955 b5bd e1c5 623d e854 de3d fe6b 163d
00000190: 6835 9cbd 13b5 1ebd db8b eabc 3170 c33d
000001a0: f9b1 d7bc d841 673c 962b 15bd 851c 25bd
000001b0: 2c1d 163e f140 e43d 553b e7bd 5ab0 1bbe
000001c0: e680 963d 5d0d e83c 4bde a5bd 864d 2a3e
000001d0: e5a4 85bb ec8b 0e3e 2f53 4b3d 818d 89bd
000001e0: d29e 3e3d 180e 0bbc 5d1b 18be e5f9 50bc
000001f0: 48eb 43bd d568 b73d 6049 3c3c b2d6 c1bd
00000200: 7cf0 ffbd 789e 18bd f8fb 66bd 4ea0 0d3d
00000210: c4fd 19be edcc 76bc cb3f 393d baa7 6bbd
00000220: 7001 2d3d 30bf 0abd 6d01 1a3d a4fd 8fbd
00000230: 4ab4 3b3d 6582 a5bd 294d 02bd 65ae 68bd
00000240: fbae 00be 49a7 08be 6a26 ecbc 7245 103d
00000250: f008 193b cf45 fbbd f773 f93d fc25 edbd
00000260: c2e5 2bbd a824 e4bb 37ce ef3c 8174 3c3d
00000270: 91c3 4abd 764c 9cbd edeb 9abc 708e 7dbe
00000280: 48f4 eb3d 9bc5 87bd d9ce b8bc b0b0 413d
00000290: c33c 11be 3cda b13c 8415 0bba 331e 34bd
000002a0: 9594 73bd ed8c 04be 0174 1cbe 9532 2dbd
000002b0: 6c08 82bd 6688 273d 5dd1 2dbb 5ad6 b5bd
000002c0: 78e1 59be bcf9 883d 6f2f 07bb 7312 9a3d
000002d0: 55e0 febc 34f4 8d3c fde4 9dbd 0887 7b3d
000002e0: 5dad a0bd 1d6b 20bd 07a0 9b3d 0206 123d
000002f0: aa3b 4c3d d727 acbc 1278 2cbc 00a1 f3bc
00000300: 0619 0fbe 5116 f6bc 8d86 1bbe be8c 5cbd
00000310: 095d e8bd abc6 27bd 22ac e3bc e355 f23c
00000320: f630 833c de49 8f3d da99 dabd 7403 0bbd
00000330: 10b3 eabd 9ff5 cabd f84e 92bc c860 3d3c
00000340: 60f6 86bc bac7 86bd 2b40 733d 37e0 5f3d
00000350: dcb9 05be 33eb 0b3d 44ab d0bc 0f23 99bd
00000360: eb50 9ebd 5dbb 963c 42a6 51be 0812 e1ba
00000370: ca4c 893b 05aa e03c bfe5 6cbd 4173 7fbc
00000380: 8d25 17bd b5eb 77bd 8d7b 1dbe 1d9b 0a3e
00000390: 2dcf 91bd b855 0cbe 243e 1bbe 7c48 d13c
000003a0: f26c 1dbe 4d68 2abd d5d9 5e3d d6e9 b13d
000003b0: 0a8e acbd 0a70 b8bb 9f81 a93d ff85 82b8
000003c0: d1bf 873d c2c4 5cbd 76e7 02be 83fe ee3c
000003d0: 62e9 fd3c ca16 62bd 538c e5bd 4282 4cbd
000003e0: 7f08 d13c a304 87bd da7a 94bd a4b9 06bd
000003f0: 93f6 913c efb3 24bd a227 f53d ba17 273d

weight f4 [256, 512]
0.0042542997 -0.014957864 0.012966143 -0.018195435 -0.014073111 0.050448507 -0.01835918 0.009418451
-0.03302235 -0.01967833 -0.021382205 -0.03011132 0.00089284073 -0.054742582 -0.043207668 0.028344616
-0.04583651 -0.022795351 -0.045205504 -0.038226306 -0.006091446 -0.058293678 0.03627217 -0.0044332305
-0.03855586 -0.031961985 0.02023871 -0.05589644 -0.024886113 0.00070031313 -0.013401797 0.010750551
-0.009668122 -0.002406118 0.008012411 -0.02724667 -0.040700432 -0.033912677 -0.049860816 0.02921964
-0.032816254 -0.013615365 -0.060094025 -0.03191006 -0.027301978 0.006594693 -0.055411503 -0.055242978
-0.040053334 -0.009991914 -0.050462563 -0.016728563 0.0038346136 -0.06463045 -0.007671003 0.023560999
0.0020654278 0.033569735 0.011597599 -0.0122332955 -0.059673898 -0.019854594 -0.05742416 -0.026902098
-0.042902656 -0.04545221 -0.009093291 -0.028933527 0.0012134189 0.026851207 -0.011145025 0.008055115
0.015424461 0.0348459 0.012324443 -0.052018344 0.0034783422 0.014081953 0.0010928648 0.042604093
-0.015839443 -0.023182025 -0.03541376 -0.050272148 0.003122035 0.016795902 -0.0059699025 0.007539955
0.020800624 0.017109765 0.027007375 -0.008519539 0.031251185 0.010532515 -0.0046578725 0.03996489
-0.034388907 -0.020608194 -0.021927306 0.01296114 -0.06832366 -0.024525998 0.021680279 -0.05888964
-0.013338856 0.00579675 -0.00693073 -0.043299634 -0.0104228165 -0.049367648 -0.046196464 0.01914565
-0.01923004 0.022019638 -0.02764014 -0.0123810675 -9.4633324e-05 0.00618167 -0.010225451 -0.054580685
-0.019226316 -0.011832609 0.036139626 0.0018491785 0.021542 0.018303491 -0.003836449 -0.039261807
0.00052994123 0.001787172 0.018707694 -0.020921756 -0.02794383 -0.0014671576 -0.024210371 -0.0059849448
0.04036207 0.0057703243 -0.029754702 -0.0021948512 0.035656825 -0.04808751 -0.011944394 -0.03765506
0.026366673 0.00069314055 0.024535969 -0.016680278 -0.015051 -0.022767544 0.04061704 0.020324538
0.022415515 -0.03770892 -0.019425161 -0.042756595 0.0281994 -0.017228583 -0.0068276795 -0.0007894703
0.0010632791 -0.045824513 0.010036593 0.0039626188 0.015645625 0.0015010136 0.008500987 0.035476863
0.011601786 0.022205563 0.017497355 -0.04046568 0.029506521 -0.028965596 -0.0177815 0.013941645
-0.025245927 -0.015219885 -0.017167114 0.040785067 0.015618432 0.00031241393 -0.01828529 0.031872302
0.027701698 0.029196586 0.009978176 0.00044480586 0.02368154 -0.044545077 0.009246299 -0.053444117
-0.02178888 -0.042499173 -0.0060599456 -0.06653404 -0.002271524 -0.0058725737 -0.013347592 -0.04574222
-0.032600746 -0.038784005 0.017148718 0.005489864 -0.027930595 0.003222835 -0.037628327 -0.037672482
-0.07313638 -0.033651426 -0.08357611 -0.0034215508 0.015961245 -0.047685735 -0.00094955496 -0.05830121
-0.050574664 -0.02766651 0.03399123 -0.026422512 0.021016235 -0.0105973 -0.035172544 -0.020492459
-0.016282862 -0.060575496 0.0029410792 -0.0017869513 -0.030106643 -0.007672807 -0.025618447 0.018514888
-0.016003247 -0.054708853 -0.059931237 -0.07659214 -0.01881514 -0.011115959 -0.051325228 -0.06884169
0.024336638 -0.036844864 0.004668482 0.02654518 -0.058232438 -0.02085527 -0.028403277 -0.0084979525
0.037506208 0.0074651483 -0.03991807 -0.028374322 0.0077236984 -0.0022931637 0.00078998134 -0.02855284
00000000: a767 8b3b d411 75bc f26f 543c 980e 95bc
00000010: e892 66bc 18a3 4e3d fe65 96bc d94f 1a3c
00000020: 7242 07bd 7334 a1bc bc29 afbc 04ac f6bc
00000030: 870d 6a3a c239 60bd 86fa 30bd f832 e83c
00000040: 10bf 3bbd 51bd babc 6829 39bd 3093 1cbd
00000050: c19a c7bb 5ac5 6ebd 2092 143d a244 91bb
00000060: c0ec 1dbd 92ea 02bd a7cb a53c aaf3 64bd
00000070: f6dd cbbc 3895 373a 3693 5bbc 1423 303c
00000080: 0b67 1ebc f6af 1dbb 7d46 033c 6934 dfbc
00000090: 7fb5 26bd 05e8 0abd db3a 4cbd 075e ef3c
000000a0: 566a 06bd fb12 5fbc 2725 76bd 20b4 02bd
000000b0: 66a8 dfbc 4b18 d83b 2cf7 62bd 7646 62bd
000000c0: f70e 24bd 20b5 23bc d5b1 4ebd 570a 89bc
000000d0: 244e 7b3b f85c 84bd 0a5d fbbb ff02 c13c
000000e0: 215c 073b 6b80 093d db03 3e3c 296e 48bc
000000f0: 9e6c 74bd 1aa6 a2bc 9935 6bbd ca61 dcbc
00000100: b2ba 2fbd 192c 3abd 07fc 14bc 0106 edbc
00000110: 950b 9f3a 10f7 db3c 9f99 36bc 9af9 033c
00000120: e1b6 7c3c 93ba 0e3d 76ec 493c 3011 55bd
00000130: e6f4 633b feb7 663c 753e 8f3a a181 2e3d
00000140: b8c1 81bc 3be8 bdbc 050e 11bd 2bea 4dbd
00000150: 0e9b 4c3b 8f97 893c 2c9f c3bb ba11 f73b
00000160: 1266 aa3c c729 8c3c 923e dd3c 8995 0bbc
00000170: 3e01 003d 9290 2c3c 11a1 98bb 39b2 233d
00000180: 62db 0cbd 84d2 a8bc e5a0 b3bc f65a 543c
00000190: 46ed 8bbd bfea c8bc d79a b13c 4336 71bd
000001a0: 388b 5abc aaf2 bd3b 2d1b e3bb f55a 31bd
000001b0: 76c4 2abc bb35 4abd 8138 3dbd 57d7 9c3c
000001c0: 5188 9dbc 8762 b43c 936d e2bc f6d9 4abc
000001d0: e175 c6b8 9b8f ca3b a688 27bc ff8f 5fbd
000001e0: 8280 9dbc 8fdd 41bc 2507 143d 2260 f23a
000001f0: d978 b03c 34f1 953c ef6c 7bbb fdd0 20bd
00000200: c1eb 0a3a 8b3f ea3a e140 993c 1a64 abbc
00000210: 75ea e4bc a44d c0ba d454 c6bc 5b1d c4bb
00000220: b352 253d fd14 bd3b 22c0 f3bc 7ed7 0fbb
00000230: e40c 123d 69f7 44bd 6bb2 43bc 313c 1abd
00000240: ecfe d73c e0b3 353a a8ff c83c 14a5 88bc
00000250: 7898 76bc 0083 babc 0e5e 263d a57f a63c
00000260: bea0 b73c ab74 1abd 8421 9fbc 8a21 2fbd
00000270: 6e02 e73c f522 8dbc baba dfbb 74f4 4eba
00000280: ba5d 8b3a 7cb2 3bbd 8670 243c dbd8 813b
00000290: 412b 803c a9bd c43a b947 0b3c 3050 113d
000002a0: 6b15 3e3c 71e8 b53c 9d56 8f3c 57bf 25bd
000002b0: a9b7 f13c 4249 edbc 82aa 91bc 7f6b 643c
000002c0: 8cd0 cebc d35c 79bc 0ca2 8cbc 3e0e 273d
000002d0: 74e4 7f3c 7dcb a339 08cb 95bc 888c 023d
000002e0: acee e23c ae2d ef3c 817b 233c d534 e939
000002f0: caff c13c e674 36bd ca7d 173c 38e8 5abd
00000300: 987e b2bc 9d13 2ebd 8292 c6bb 0043 88bd
00000310: d9dd 14bb b86e c0bb dcaf 5abc 325c 3bbd
00000320: 5c88 05bd fadb 1ebd 787b 8c3c 51e4 b33b
00000330: b4ce e4bc 3336 533b 2920 1abd 764e 1abd
00000340: 87c8 95bd 14d6 09bd f429 abbd 193c 60bb
00000350: 28c1 823c 1e52 43bd 8eeb 78ba 40cd 6ebd
00000360: 6127 4fbd e0a4 e2bc 633a 0b3d 0674 d8bc
00000370: 3d2a ac3c 4ca0 2dbc 1611 10bd cddf a7bc
00000380: a363 85bc 031e 78bd 1fbf 403b 2338 eaba
00000390: 35a2 f6bc 2c6c fbbb c7dd d1bc 89ac 973c
000003a0: 3e19 83bc 6416 60bd 757a 75bd 57dc 9cbd
000003b0: 3522 9abc b61f 36bc 673a 52bd dffc 8cbd
000003c0: a15d c73c a4ea 16bd 11fa 983b 4775 d93c
000003d0: 2385 6ebd acd8 aabc fdad e8bc ff3a 0bbc
000003e0: 1ca0 193d 349e f43b 2181 23bd 4471 e8bc
000003f0: 1417 fd3b e748 16bb c016 4f3a a5e7 e9bc

bias f4 [256]
0.010044825 0.0019417348 -0.06896513 -0.11251991 -0.2333389 -0.07201017 0.12177305 -0.11340935
-0.1381851 0.029688595 0.018985705 -0.102893755 0.06394992 0.39780125 -0.13534573 -0.058484443
0.2815771 -0.14818868 -0.20065066 -0.04938578 0.0064786365 0.01211433 -0.087605916 0.21882898
-0.025399199 -0.12131989 -0.039275505 0.20783661 0.02758172 -0.05163843 0.03320932 -0.0008971529
-0.14823772 -0.034434155 -0.038553122 -0.024509095 0.24325158 0.006623216 -0.09711773 -0.25397992
-0.15840997 -0.25098544 0.00396096 0.0464704 -0.0049582003 -0.004245895 -0.14222088 0.06391956
0.11645206 0.3372904 -0.1361238 0.05975535 0.02629357 -0.101204045 0.0059960275 -0.18677172
0.093929455 0.010813537 0.06268111 -0.03567956 0.008311747 -0.015404654 -0.15623203 0.10712669
-0.0625325 0.3349062 -0.2605892 0.12308936 -0.011802601 0.04624718 0.13390939 0.118073724
-0.12370224 0.13662715 -0.19797525 0.04256109 -0.03689805 -0.018469645 -0.04347231 -0.13220708
0.0029664126 0.023349585 -0.016740387 0.29887807 0.1218334 -0.050310776 -0.01421645 -0.085208625
-0.080191426 -0.06254608 0.024613338 -0.08258903 0.06926487 0.048288252 0.06720342 0.017871447
-0.1254169 -0.28881896 0.123458564 0.016119776 -0.011529972 -0.023592817 -0.023287347 0.0041504162
0.22843514 0.023481399 0.012219081 0.058973357 -0.08800424 0.1488094 0.06555753 0.017000757
-0.26333135 0.22732802 -0.050173715 -0.31040773 0.04767123 0.12788948 -0.055760268 -0.046613615
-0.06892508 -0.16637087 -0.06342533 0.12911817 0.14977264 0.16765743 -0.039615106 -0.06646999
0.029047376 0.27350926 0.047921255 -0.016658133 -0.06993741 -0.114280686 -0.059240524 0.12324593
0.03480945 -0.07658772 -0.004660455 -0.15196882 -0.04585372 0.12984842 0.085457936 -0.03265322
-0.0059369914 0.05886569 0.08001966 -0.07508619 -0.24106467 -0.08980639 -0.0023130341 -0.031201
0.22229122 0.28560963 0.1651741 -0.059491538 -0.036470566 -0.13099226 -0.08414616 0.25328115
-0.11120417 0.009666441 0.002176184 0.011569497 0.085294314 -0.035307147 0.28317377 -0.049236402
-0.05771256 0.11605079 -0.11394504 -0.023188034 0.017677128 -0.17937326 -0.0121615175 -0.015202503
0.061307903 -0.10128002 -0.15828522 -0.032935567 -0.21056592 -0.04529157 -0.15736356 -0.032410733
-0.014953477 0.04648648 -0.05241584 -0.045764636 -0.02427544 -0.038556013 -0.014757033 -0.082224004
0.06107541 0.16638514 0.1186307 -0.04262759 -0.012088286 -0.10240554 -0.030587615 0.40621325
-0.16730407 -0.15084657 0.010571217 0.0851227 0.0020683738 0.0072843144 -0.038413998 0.11509642
0.012110658 0.032202046 -0.05678037 -0.010294509 -0.02060691 -0.066613026 -0.108079135 -0.015005449
-0.1757045 0.10975828 -0.037901275 0.5593468 -0.06690507 -0.0016424223 0.019197186 -0.026235122
0.088085555 0.07964259 0.0026172216 -0.04025156 -0.023068745 0.19049175 0.012932161 0.24479333
-0.04421212 -0.049845908 -0.033105988 -0.0013864225 -0.067119 0.11692897 -0.12064192 -0.15248637
0.032210194 -0.16508196 0.11077738 -0.07571497 0.4343836 0.0042155394 0.0023332234 -0.0037890447
0.08739207 0.09699163 0.016037554 -0.03174648 -0.008241622 -0.20973058 -0.0077469843 0.15934148
00000000: 0d93 243c cf81 fe3a 973d 8dbd d770 e6bd
00000010: 65f0 6ebe 117a 93bd 2664 f93d 2943 e8bd
00000020: 6580 0dbe 7f35 f33c e987 9b3c f6b9 d2bd
00000030: 2df8 823d 9bac cb3e 1298 0abe 628d 6fbd
00000040: e02a 903e c6be 17be 5e77 4dbe be48 4abd
00000050: be4a d43b 2f7b 463c bb6a b3bd b414 603e
00000060: fb11 d0bc 9076 f8bd 5adf 20bd 1fd3 543e
00000070: 0ff3 e13c d282 53bd 7f06 083d e92e 6bba
00000080: a1cb 17be d40a 0dbd e1e9 1dbd 4cc7 c8bc
00000090: f116 793e 9007 d93b a9e5 c6bd a809 82be
000000a0: 3936 22be 2a81 80be f1ca 813b bf57 3e3d
000000b0: 6678 a2bb 2621 8bbb 5aa2 11be 42e8 823d
000000c0: 6b7e ee3d 54b1 ac3e 0a64 0bbe 07c2 743d
000000d0: 9d65 d73c 1144 cfbd 537a c43b 1641 3fbe
000000e0: 165e c03d 432b 313c f45e 803d bb24 12bd
000000f0: fe2d 083c cd63 7cbc 4afb 1fbe 3d65 db3d
00000100: 0a11 80bd d378 ab3e f36b 85be 4616 fc3d
00000110: b25f 41bc af6d 3d3d 8b1f 093e a3d0 f13d
00000120: 9a57 fdbd fde7 0b3e 06ba 4abe 8a54 2e3d
00000130: 6922 17bd a74d 97bc 0510 32bd 4b61 07be
00000140: 2568 423b a147 bf3c 2323 89bc 8c06 993e
00000150: ca83 f93d ac12 4ebd 1dec 68bc dc81 aebd
00000160: 673b a4bd 2918 80bd e9a1 c93c 7024 a9bd
00000170: bdda 8d3d e7c9 453d f2a1 893d 2467 923c
00000180: 4a6d 00be 14e0 93be d8d7 fc3d 9f0d 843c
00000190: 35e8 3cbc b945 c1bc 1bc5 bebc 3700 883b
000001a0: e7ea 693e 105c c03c 8a32 483c 0c8e 713d
000001b0: 913b b4bd 7e61 183e 0743 863d 2c45 8b3c
000001c0: 5ed3 86be adc8 683e f482 4dbd c3ed 9ebe
000001d0: e842 433d 76f5 023e e164 64bd ebed 3ebd
000001e0: 9828 8dbd 205d 2abe 24e5 81bd 8e37 043e
000001f0: 005e 193e 64ae 2b3e 7343 22bd 6b21 88bd
00000200: c3f4 ed3c 6809 8c3e 1449 443d a376 88bc
00000210: 583b 8fbd fe0b eabd 31a6 72bd 5d68 fc3d
00000220: 5b94 0e3d 06da 9cbd bbb6 98bb b79d 1bbe
00000230: 1cd1 3bbd fcf6 043e 9204 af3d 62bf 05bd
00000240: 188b c2bb 261d 713d 59e1 a33d cac6 99bd
00000250: a8d9 76be 6aec b7bd 4696 17bb 3d99 ffbc
00000260: 4fa0 633e 6d3b 923e 6623 293e 66ad 73bd
00000270: 2962 15bd d622 06be d254 acbd 11ae 813e
00000280: 03bf e3bd fe5f 1e3c 4f9e 0e3b fd8d 3d3c
00000290: c9ae ae3d 3a9e 10bd 27fc 903e 1cac 49bd
000002a0: 0164 6cbd 09ac ed3d 045c e9bd d5f4 bdbc
000002b0: a0cf 903c a0ad 37be 1a41 47bc eb13 79bc
000002c0: ff1d 7b3d e66b cfbd 8515 22be 72e7 06bd
000002d0: 989e 57be a783 39bd ea23 21be 1ec1 04bd
000002e0: 6eff 74bc 9b68 3e3d feb1 56bd b373 3bbd
000002f0: 4add c6bc e9ec 1dbd 7cc7 71bc 0f65 a8bd
00000300: 362a 7a3d de60 2a3e a7f4 f23d 459a 2ebd
00000310: f20d 46bc ffb9 d1bd e192 fabc 2ffb cf3e
00000320: c251 2bbe 8677 1abe e632 2d3c cf54 ae3d
00000330: 8e8d 073b 42b1 ee3b ff57 1dbd acb7 eb3d
00000340: c86b 463c 4be6 033d 8992 68bd 4daa 28bc
00000350: d3cf a8bc 696c 88bd 9858 ddbd 6ad9 75bc
00000360: e1eb 33be f3c8 e03d 5e3e 1bbd 5a31 0f3f
00000370: 8605 89bd 8c46 d7ba 6b43 9d3c 0aeb d6bc
00000380: 3366 b43d a71b a33d b185 2b3b d2de 24bd
00000390: aafa bcbc 4510 433e 6ae1 533c 1aab 7a3e
000003a0: c517 35bd 392b 4cbd 259a 07bd 9fb8 b5ba
000003b0: b075 89bd 7578 ef3d 1c13 f7bd 6325 1cbe
000003c0: d6ee 033d 3f0b 29be 40df e23d 7310 9bbd
000003d0: 8767 de3e 8222 8a3b fee8 183b 9f51 78bb
000003e0: 9dfa b23d 8ca3 c63d 3061 833c 9908 02bd
000003f0: de07 07bc 9dc3 56be 6ada fdbb 6a2a 233e

weight f4 [128, 256]
0.036458638 0.019704469 0.0035185742 0.13829732 -0.020148981 0.047217473 -0.5527494 -0.042514622
-0.004274514 -0.03005109 -0.040202454 -0.048563823 -0.033486884 -0.016341751 0.026026962 -0.05875906
-0.016219156 -0.40841 0.07093854 -0.029799579 0.11874888 -0.061413657 -0.053134743 -0.17230417
-0.5058489 -0.16918562 -0.014672833 -0.1951949 0.010040369 -0.05055549 -0.17665339 -0.030613724
-0.045148317 0.059455164 -0.02316857 0.09031176 -0.17974256 0.02253276 -0.016949363 -0.030284341
-0.075739026 -0.037349623 -0.18830223 -0.25476873 -0.16954328 0.018227441 -0.27473783 -0.044493034
-0.18499734 0.07153828 -0.17680095 -0.15162885 0.055928946 0.0006458941 -0.06261047 0.050654218
-0.09173661 -0.088716954 -0.09009715 -0.21405044 -0.55307305 -0.28283235 0.163838 0.12648338
0.0006238915 0.005588524 0.03753709 -0.029586064 0.0442875 -0.48395407 0.043779995 -0.26627356
0.12723091 -0.036563605 -0.12898688 0.011917811 0.05404992 0.019599319 -0.2581774 -0.17345913
-0.012306262 -0.06429117 -0.017329596 -1.0344357 -0.13529468 -0.04049383 -0.044403624 -0.027988847
-0.07537558 0.08613615 0.04231519 0.095402434 0.0976546 0.14223038 -0.18966828 -0.028085671
-0.078831784 -0.06940342 -0.12063633 -0.010664949 0.03682982 -0.015507828 -0.025888933 -0.00061528524
-0.006619548 0.17283233 0.0022978336 0.13849248 -0.15996014 0.033219244 0.121679276 0.100349635
0.21283509 -0.0052153 0.21593924 -0.19061995 0.1343305 -0.31162345 0.07010016 -0.012478967
0.028238896 0.16300659 0.032174233 0.2173875 -0.045327533 -0.08456457 -0.060928084 0.035330422
-0.32175618 -0.079486236 -0.17023882 0.05358673 -0.062498726 -0.09765626 -0.0158014 -0.39746863
0.055939708 -0.030445378 0.009786591 0.07757334 -0.1869106 -0.29860884 -0.010792021 -0.001787459
0.041830473 -0.13711509 -0.69099784 0.044841606 0.083525695 0.074882634 0.041570164 0.0916512
-0.03625107 0.06938326 0.024077684 0.13223128 0.043575782 -0.08010757 0.013212308 -0.36527964
0.21666913 0.054438386 0.016789533 -0.062041517 0.23648927 -0.0028217598 0.12240403 -0.23293675
-0.09377578 0.0051634684 0.018223308 -1.0268286 0.0029079728 0.17040989 -0.047157772 0.014930884
-0.06731489 -0.4023204 0.05081949 -0.04946189 -0.00020904462 0.044115525 -0.24257688 -0.026808783
-0.05873172 -0.17440967 -0.25558898 -0.06395725 0.059839707 0.287753 0.06832843 0.13746579
0.1844811 0.0823828 -0.0904505 -0.03868618 0.08654041 0.15485531 0.031367425 0.077138886
0.06360584 -0.14632076 0.06016563 -0.12612788 0.028483965 -0.0018054434 0.04143463 -0.097580336
-0.014722326 -0.3082978 -0.049985874 0.04435987 -0.050594516 -0.13787018 0.02809259 0.061968237
0.035330947 -0.5048275 -0.059667084 -0.022195028 -0.19514748 0.035088435 0.036291838 0.21261854
-0.30683628 0.121948354 0.047084432 -0.12135129 -0.008411936 0.22876316 -0.0109192645 0.107584916
-0.73364097 -0.051729638 0.16390447 -0.024084166 0.23454553 -0.09123761 -0.19586371 -0.17640905
0.06139546 0.17479104 -0.29137418 0.07862516 -0.050930724 -0.038614463 0.0654617 -0.0171781
-0.18113023 0.1268717 -0.41671282 -0.00181894 -0.06587132 0.0882023 -0.4864881 -0.051271196
00000000: a755 153d 446b a13c e197 663b d09d 0d3e
00000010: 7a0f a5bc 1c67 413d fc80 0dbf d023 2ebd
00000020: 3911 8cbb b42d f6bc 54ab 24bd dcea 46bd
00000030: 8b29 09bd 23df 85bc 7f36 d53c 57ad 70bd
00000040: 09de 84bc 1e1b d1be 3a48 913d 3f1e f4bc
00000050: 9d32 f33d e38c 7bbd d1a3 59bd 8170 30be
00000060: 507f 01bf ff3e 2dbe 5266 70bc 2ce1 47be
00000070: 5c80 243c 4613 4fbd a0e4 34be a2c9 fabc
00000080: 71ed 38bd 4287 733d 03cc bdbc 5ff5 b83d
00000090: 6f0e 38be 9f96 b83c 64d9 8abc de16 f8bc
000000a0: 101d 9bbd ebfb 18bd 4dd2 40be 0c71 82be
000000b0: c19c 2dbe b751 953c 70aa 8cbe 543e 36bd
000000c0: f16f 3dbe a982 923d 4f0b 35be 9844 1bbe
000000d0: c015 653d 3851 293a eb39 80bd cc7a 4f3d
000000e0: 67e0 bbbd 3cb1 b5bd db84 b8bd 0a30 5bbe
000000f0: 3296 0dbf 67cf 90be 26c5 273e dc84 013e
00000100: a68c 233a f01f b73b 7ec0 193d 795e f2bc
00000110: cf66 353d d4c8 f7be a752 333d 0255 88be
00000120: d248 023e b8c3 15bd 2315 04be ec42 433c
00000130: 7363 5d3d c08e a03c d42f 84be 459f 31be
00000140: 34a0 49bc 17ab 83bd ccf6 8dbc 6468 84bf
00000150: b08a 0abe dcdc 25bd 93e0 35bd de48 e5bc
00000160: 835e 9abd 2668 b03d b152 2d3d 5a62 c33d
00000170: 23ff c73d d7a4 113e 6738 42be ec13 e6bc
00000180: 8f72 a1bd 6123 8ebd 2e10 f7bd 0abc 2ebc
00000190: deda 163d 8c14 7ebc 0715 d4bc 184b 21ba
000001a0: cbe8 d8bb f5fa 303e 4097 163b f9d0 0d3e
000001b0: 97cc 23be e710 083d fc32 f93d 1c84 cd3d
000001c0: 71f1 593e 1be5 aabb 2d1f 5d3e e031 43be
000001d0: ef8d 093e 1c8d 9fbe ac90 8f3d 9574 4cbc
000001e0: 4255 e73c 33eb 263e 21c9 033d d49a 5e3e
000001f0: 5da9 39bd 3030 adbd ba8f 79bd a2b6 103d
00000200: 3abd a4be aec9 a2bd 1653 2ebe c27d 5b3d
00000210: aafe 7fbd 0100 c8bd f071 81bc 0281 cbbe
00000220: 0921 653d 9668 f9bc f057 203c c5de 9e3d
00000230: 7e65 3fbe 42e3 98be 04d1 30bc 2c49 eaba
00000240: 6e56 2b3d e667 0cbe 3ce5 30bf d5ab 373d
00000250: 850f ab3d 115c 993d 7a45 2a3d a0b3 bb3d
00000260: 017c 14bd d018 8e3d 903e c53c a367 073e
00000270: 857c 323d 700f a4bd 7078 583c ef05 bbbe
00000280: 83de 5d3e c9fa 5e3d 348a 893c 3f1f 7ebd
00000290: 3e2a 723e 46ed 38bb f7ae fa3d f986 6ebe
000002a0: 840d c0bd 5032 a93b 0c49 953c 1f6f 83bf
000002b0: b093 3e3b ee7f 2e3e 8228 41bd aba0 743c
000002c0: 64dc 89bd f1fc cdbe 1928 503d 8d98 4abd
000002d0: fd32 5bb9 7bb2 343d 1366 78be 189e dbbc
000002e0: ac90 70bd 7398 32be 8fdc 82be 05fc 82bd
000002f0: 7b1a 753d 5c54 933e c7ef 8b3d d5c3 0c3e
00000300: 9de8 3c3e 50b8 a83d 1d3e b9bd 6675 1ebd
00000310: 193c b13d 6492 1e3e 217b 003d fefa 9d3d
00000320: c743 823d 1cd5 15be 3c70 763d ab27 01be
00000330: 3457 e93c a1a4 ecba 5cb7 293d 33d8 c7bd
00000340: e935 71bc 36d9 9dbe fdbd 4cbd b2b2 353d
00000350: 323c 4fbd d72d 0dbe 6e22 e63c 68d2 7d3d
00000360: 2fb7 103d 603c 01bf 7965 74bd 59d2 b5bc
00000370: bed4 47be e4b8 0f3d c0a6 143d adb8 593e
00000380: a519 9dbe 0fc0 f93d 9bdb 403d 0687 f8bd
00000390: 38d2 09bc e440 6a3e b7e6 32bc 7b55 dc3d
000003a0: e5cf 3bbf 75e2 53bd 93d6 273e 284c c5bc
000003b0: b42c 703e c9da babd 7f90 48be 93a4 34be
000003c0: ce79 7b3d 6cfc 323e ff2e 95be 3a06 a13d
000003d0: bc9c 50bd 332a 1ebd c910 863d 16b9 8cbc
000003e0: 347a 39be a8ea 013e 625b d5be 8069 eeba
000003f0: 8be7 86bd 68a3 b43d f814 f9be bf01 52bd

bias f4 [128]
-0.08050751 -0.032138616 -0.042623706 0.57459354 -0.10110993 -0.30738732 0.33099532 -0.15983318
0.2553453 -0.3049276 0.5723184 -0.14872637 -0.07359179 -0.028829338 0.01606302 0.14855188
-0.17489564 0.226731 -0.49201128 -0.0067768414 0.54394597 -0.014695944 0.18715896 -0.00016426186
0.082245655 0.061256096 -0.051111333 0.67583215 0.657845 0.68659264 0.77570266 0.22390738
0.008999631 0.30932793 0.19310848 -0.23985364 0.0044615115 -0.22319482 -0.10816025 0.44531268
0.07722533 0.49089137 0.12166111 0.6341116 0.37866446 0.017503385 0.34375313 0.26822358
-0.080840744 -0.090788126 -0.115714334 -0.032269217 -0.03271443 0.69180447 -0.12929581 0.39985627
-0.31953046 -0.06505673 0.020963129 0.43727976 0.644036 0.267177 -0.11650244 -0.14547528
-0.084894106 -1.7707158e-05 -0.09244161 0.07701597 -0.06567376 0.035690974 -0.008853595 0.07217702
0.33351249 0.0939624 -0.08788929 -0.106672466 0.49275142 0.5241706 -0.017943326 -0.19594845
0.276866 -0.041703384 -0.058742933 0.14809385 -0.30589545 0.26683712 -0.5442073 -0.413878
-0.07748981 -0.40710363 0.12548341 -0.120300844 0.24892384 -0.36994514 0.14512204 -0.101006374
0.63696694 0.0619898 -0.036236268 -0.026850704 -0.3167679 0.0595325 0.32012498 -0.0039032795
-0.070367545 0.44940332 -0.1134152 0.65141773 -0.36500576 -0.12074364 -0.023417892 -0.08227476
-0.39098132 -0.089579046 0.6418324 -0.09054782 -0.08952345 0.17971718 -0.2285939 -0.1971239
0.041982185 -0.18483956 0.04567644 0.14502637 -0.26609603 0.16625766 -0.05185132 0.41386086
00000000: 1fe1 a4bd c8a3 03bd 3296 2ebd 9018 133f
00000010: b912 cfbd df61 9dbe 3878 a93e 4fab 23be
00000020: 9fbc 823e 781f 9cbe 7583 123f ba4b 18be
00000030: 4bb7 96bd 812b ecbc 9896 833c fc1d 183e
00000040: d817 33be 2c2c 683e e7e8 fbbe 4410 debb
00000050: 0b40 0b3f 42c7 70bc 99a6 3f3e b53d 2cb9
00000060: 6970 a83d ace7 7a3d 1e5a 51bd 5603 2d3f
00000070: 8868 283f 89c4 2f3f 7394 463f fa47 653e
00000080: 3073 133c 3b60 9e3e 3bbe 453e 319c 75be
00000090: df31 923b 2f8d 64be 1f83 ddbd 0600 e43e
000000a0: 5028 9e3d 1d56 fb3e 7629 f93d 2355 223f
000000b0: 4fe0 c13e 4263 8f3c 6900 b03e 9a54 893e
000000c0: d58f a5bd 20ef b9bd a3fb ecbd ba2c 04bd
000000d0: 91ff 05bd 191a 313f 1f66 04be f6b9 cc3e
000000e0: 7f99 a3be 763c 85bd deba ab3c 22e3 df3e
000000f0: 8bdf 243f 6ccb 883e d598 eebd 79f7 14be
00000100: f6dc adbd d589 94b7 0752 bdbd 8dba 9d3d
00000110: f77f 86bd b330 123d ab0e 11bc 8cd1 933d
00000120: 26c2 aa3e 5c6f c03d 4dff b3bd 1877 dabd
00000130: ea49 fc3e 0b30 063f e2fd 92bc b6a6 48be
00000140: 61c1 8d3e 2bd1 2abd 6e9c 70bd eaa5 173e
00000150: 549e 9cbe e09e 883e 2b51 0bbf d1e7 d3be
00000160: fab2 9ebd e36f d0be b97e 003e 4a60 f6bd
00000170: e4e5 7e3e 7369 bdbe df9a 143e 6edc cebd
00000180: 4410 233f 04e9 7d3d 7b6c 14bd 02f6 dbbc
00000190: 672f a2be 5ad8 733d 6ce7 a33e 2ace 7fbb
000001a0: dc1c 90bd 3118 e63e 3a46 e8bd 50c3 263f
000001b0: 09e2 babe 7148 f7bd e1d6 bfbc ab7f a8bd
000001c0: b42e c8be 3875 b7bd 214f 243f 2371 b9bd
000001d0: 1258 b7bd c807 383e 8514 6abe d9da 49be
000001e0: 83f5 2b3d 9546 3dbe 3817 3b3d cb81 143e
000001f0: bd3d 88be 733f 2a3e 0d62 54bd 92e5 d33e

weight f4 [60, 128]
-0.0036181356 0.099446334 -0.007894719 -0.007867067 -0.00071904756 -0.0111336475 0.0005418578 0.008271596
0.0011673109 -0.0024482068 0.13638863 0.00788063 -0.065123335 -0.0016720184 0.055655595 0.0043995203
-0.0009916578 0.0024828794 0.0004176304 -0.034179676 1.7749928e-05 0.014393048 -0.0011079533 0.0030170563
0.002956818 0.004530209 -0.01753229 0.02351822 0.0026720348 -0.00015257164 0.013347987 0.0007876367
-0.035699144 0.002940224 -0.0028676526 -0.0031088386 -0.01579833 -0.0027211292 -0.00010520707 0.007894452
0.0022014992 0.0064067873 0.0131819835 -0.0006238152 0.004488412 0.00507956 0.0013910485 0.001218768
-0.04881502 -0.005787727 -0.014114837 0.015588473 -0.003237647 -0.0006447186 -0.0064597176 -0.0038164814
-0.0042572347 -0.008845215 -0.001137351 -0.0060493215 0.0014923399 0.00059478026 0.06403445 0.0062616407
-0.03157598 -0.017720373 -0.038174402 0.006623233 0.09555489 0.019729506 0.0022844756 -9.538715e-05
-0.0007716541 0.0058288686 0.062240247 0.009616783 0.0001604221 0.0012934707 0.0064236843 0.004356958
0.0006598926 -0.013679756 0.052203096 -0.0015468483 0.00071067805 -0.002117263 -0.007106811 0.0014877775
-0.004275022 -0.0053113434 0.0029372163 -0.008220073 0.0030860277 0.0016109402 0.002125659 0.027309747
0.0045828293 0.000190965 0.0048182136 0.014582204 -0.002819376 0.0032652428 -0.0023949174 0.070910074
-0.00053155964 0.004629771 -0.053561896 -0.035582148 0.0034589493 0.0018008843 0.029248256 0.0007072205
-0.004461731 -0.015913853 -0.0011011397 0.064400546 0.03680242 0.002537515 -0.0010716378 0.0039825817
-0.018835466 0.00091367326 0.0065668426 0.008103156 0.0006372598 -0.0015287242 0.01558371 -0.00032166953
0.07912309 0.055562165 -0.042196974 -0.037726965 -0.0028843237 -0.003748574 0.008197777 0.0046210447
0.18316053 0.79687774 -3.212571e-05 -0.20760444 -0.036958963 -0.020828152 -0.07591744 -0.0127961
-0.0009134426 0.001215061 -0.0057181553 -0.019656273 -0.0011375585 0.004099577 -0.018028036 0.00949392
-0.018494096 0.11778696 -0.001697609 -0.00019201437 0.000114538416 -0.00022684471 0.00076482026 -0.003007034
-0.03156947 0.008942249 0.0030039444 0.20930931 -0.06655033 -0.01965741 3.1242293e-05 0.0009865015
0.0059222416 -0.0007495508 0.20275998 0.0002783231 0.0024540536 -0.28655505 0.038653187 0.032233845
-0.04501698 -0.06295401 0.12959523 -0.08080361 0.0063059363 0.00020543621 0.022636004 -0.3902462
-0.09939891 0.017094797 -0.0035059885 -0.031751093 0.0007418294 -0.009300775 0.009274887 0.07638689
0.024911005 0.016486231 -0.05162869 0.16102481 0.041226577 0.16516916 -0.074724704 0.02354071
-0.14580446 -0.099014334 0.120634876 0.33195892 -0.002213509 0.043325406 -0.31928065 -0.08786576
-0.0045219576 -0.015868226 0.04640799 0.018694459 -0.5980633 0.0053549027 -0.0009780898 -0.1708704
-0.0003575691 0.1240954 0.08784339 0.09487639 0.043149814 0.013403082 0.0041195774 -0.21040732
0.0009867301 -0.0021301536 -0.045238506 -0.051354922 -0.06419624 0.0019552014 -0.0074309963 0.076335154
-0.029011296 -0.00017622922 0.0058915424 -0.00030092662 -0.42565846 -0.07924345 -0.45374367 0.00025590215
0.005946845 0.041943345 -0.00075966504 -0.022761382 -0.03661376 -0.014013432 -0.14665945 0.05686326
-0.02646836 -0.005863203 0.40954077 0.00037759345 0.2658178 0.0015607061 0.022245212 -7.8902915e-05
00000000: 3e1e 6dbb 85aa cb3d da58 01bc dfe4 00bc
00000010: 777e 3cba e769 36bc 760b 0e3a 9785 073c
00000020: 7400 993a 1872 20bb 76a9 0b3e c21d 013c
00000030: 625f 85bd a127 dbba 1ff7 633d da29 903b
00000040: 84fa 81ba ceb7 223b 67f5 da39 fdff 0bbd
00000050: aee5 9437 d2d0 6b3c be38 91ba ceb9 453b
00000060: 2dc7 413b 2672 943b e19f 8fbc 48a9 c03c
00000070: 4e1d 2f3b a3fb 1fb9 84b1 5a3c 6779 4e3a
00000080: 4439 12bd c6b0 403b 3aef 3bbb a8bd 4bbb
00000090: 806b 81bc f954 32bb 9ea2 dcb8 bb57 013c
000000a0: 0747 103b 07f0 d13b 3ff9 573c 8887 23ba
000000b0: 8713 933b 7072 a63b d853 b63a 11bf 9f3a
000000c0: 42f2 47bd f9a6 bdbb eb41 67bc cb66 7f3c
000000d0: b42e 54bb 5502 29ba 0aac d3bb ef1d 7abb
000000e0: 4680 8bbb 85eb 10bc 2b13 95ba 6339 c6bb
000000f0: 9e9a c33a 07eb 1b3a 7e24 833d 732e cd3b
00000100: d155 01bd 512a 91bc c35c 1cbd b507 d93b
00000110: 48b2 c33d c69f a13c 24b7 153b 960a c8b8
00000120: d448 4aba 1800 bf3b a1ef 7e3d b68f 1d3c
00000130: fb36 2839 ad89 a93a c57d d23b d0c4 8e3b
00000140: a5fc 2c3a 0e21 60bc ead2 553d 9ebf caba
00000150: cc4c 3a3a c7c1 0abb 40e0 e8bb 8701 c33a
00000160: 7c15 8cbb c70a aebb 507e 403b 7cad 06bc
00000170: f43e 4a3b 2f26 d33a a44e 0b3b b1b8 df3c
00000180: 8f2b 963b c73d 4839 1be2 9d3b 32ea 6e3c
00000190: 48c5 38bb affd 553b 0cf4 1cbb 4d39 913d
000001a0: 5d58 0bba 56b5 973b b863 5bbd 96be 11bd
000001b0: 8aaf 623b a60b ec3a 0a9a ef3c c464 393a
000001c0: b633 92bb c55d 82bc 1e54 90ba 6fe4 833d
000001d0: 22be 163d 704c 263b 3376 8cba 5180 823b
000001e0: d64c 9abc 9383 6f3a ab2e d73b 1ac3 043c
000001f0: c80d 273a 795f c8ba d152 7f3c c1a5 a8b9
00000200: 490b a23d 2795 633d bcd6 2cbd 9787 1abd
00000210: ec06 3dbb a3aa 75bb f84f 063c 226c 973b
00000220: 6f8e 3b3e 2e00 4c3f b8be 06b8 4296 54be
00000230: 4862 17bd cd9f aabc 9a7a 9bbd bca6 51bc
00000240: 1874 6fba af42 9f3a 5d5f bbbb 3106 a1bc
00000250: 211a 95ba bf55 863b 88af 93bc 638c 1b3c
00000260: ee80 97bc 4a3a f13d 4e82 deba 7757 49b9
00000270: 5834 f038 2add 6db9 387e 483a a911 45bb
00000280: fd4e 01bd 8382 123c d3dd 443b 2e55 563e
00000290: 8a4b 88bd 9408 a1bc 280a 0338 7f4d 813a
000002a0: 5d0f c23b 817d 44ba 50a0 4f3e e5eb 9139
000002b0: 30d4 203b 58b7 92be ce52 1e3d a307 043d
000002c0: ba63 38bd 08ee 80bd 9db4 043e 5d7c a5bd
000002d0: 07a2 ce3b 5d6a 5739 246f b93c 5ace c7be
000002e0: a891 cbbd 630a 8c3c bac4 65bb 6f0d 02bd
000002f0: 5477 423a 4762 18bc b2f5 173c bb70 9c3d
00000300: 2a12 cc3c 220e 873c 9b78 53bd b0e3 243e
00000310: 33dd 283d 1b22 293e 4409 99bd 72d8 c03c
00000320: c44d 15be 07c8 cabd 6b0f f73d 85f6 a93e
00000330: 8510 11bb fb75 313d c178 a3be f7f2 b3bd
00000340: ee2c 94bb 15fe 81bc 4e16 3e3d 1f25 993c
00000350: ad1a 19bf 2e78 af3b 3f33 80ba a6f8 2ebe
00000360: 1d78 bbb9 bb25 fe3d 3ce7 b33d 8e4e c23d
00000370: dcbd 303d 9a98 5b3c 85fd 863b 0475 57be
00000380: 2b55 813a 0c9a 0bbb 034c 39bd 8a59 52bd
00000390: 5179 83bd d622 003b b77f f3bb 9b55 9c3d
000003a0: 19a9 edbc 2cca 38b9 d70d c13b b0c5 9db9
000003b0: e8ef d9be 644a a2bd 1751 e8be 9b2a 8639
000003c0: c0dd c23b c9cc 2b3d 4224 47ba 1476 babc
000003d0: 4ff8 15bd 9898 65bc e52d 16be 73e9 683d
000003e0: 2dd4 d8bc 1d20 c0bb 54af d13e bcf7 c539
000003f0: 4519 883e 9b90 cc3a 973b b63c ae78 a5b8

bias f4 [60]
0.00038114033 0.00020731975 0.0003960766 0.0002492439 0.00034675925 0.000302286 0.000238257 9.050895e-05
2.232032e-05 0.00027211918 6.893565e-05 0.00022013468 0.00015373467 -0.00036575337 0.00013127628 6.759165e-05
0.00025919874 -4.72713e-05 0.00017019302 -0.0001734142 0.00022734227 -0.00047290622 0.00019794205 -5.0805334e-05
9.680637e-05 -7.811119e-06 -4.785532e-05 3.525217e-05 0.00016602418 -2.375079e-05 -1.918812e-05 0.00018686723
0.000118652424 -9.111095e-05 0.00025508643 3.2205102e-05 9.693971e-05 -0.00028355536 0.00020188394 9.110428e-05
3.584931e-06 0.00023986789 8.493363e-05 -0.00017410198 1.7704464e-05 0.0002620982 2.9007138e-05 0.00017725833
7.042011e-05 0.00020809403 7.559449e-05 -0.00020512073 0.00013751251 0.00012453091 -3.087403e-05 0.00018951272
3.2051048e-05 0.000101059704 4.3985852e-05 0.00022824874
00000000: cad3 c739 f963 5939 80a8 cf39 f3ac 8239
00000010: 3dcd b539 247c 9e39 a0d4 7939 9fcf bd38
00000020: 863c bb37 38ab 8e39 8c91 9038 f4d3 6639
00000030: d633 2139 96c2 bfb9 35a7 0939 febf 8d38
00000040: 11e5 8739 2c45 46b8 d775 3239 85d6 35b9
00000050: ba62 6e39 66f0 f7b9 aa8e 4f39 d017 55b8
00000060: 8604 cb38 800c 03b7 42b8 48b8 bbdb 1338
00000070: c716 2e39 6f3c c7b7 2df6 a0b7 caf1 4339
00000080: 09d5 f838 d212 bfb8 1fbd 8539 f713 0738
00000090: 1c4c cb38 28aa 94b9 cfb0 5339 3d0f bf38
000000a0: a594 7036 0c85 7b39 651e b238 258f 36b9
000000b0: 0c84 9437 3a6a 8939 5b54 f337 6cde 3939
000000c0: 82ae 9338 d133 5a39 7c88 9e38 ad15 57b9
000000d0: 3c31 1039 8394 0239 bd7e 01b8 efb7 4639
000000e0: 8d6e 0638 04f0 d338 737d 3838 0e56 6f39
